ablation1_min_count/min_count_250/birnn_ode_decay_attention/final_model.pt (torch, 59111 bytes, 55 tensors)

embed_dp.weight f4 [707, 7]
000000 00 00 00 00 00 00 00 00 00 00 00 00 00 00 00 00
       0.0 0.0 0.0 0.0
000010 00 00 00 00 00 00 00 00 00 00 00 00 2d c9 a5 bf
       0.0 0.0 0.0 -1.2952019
000020 4a fb 78 bf f6 0b aa bf be 70 ca 3f ba b3 34 bf
       -0.97258437 -1.32849 1.5815656 -0.7058674
000030 e5 ab 62 3e be c3 c9 be b3 40 6c 3c 72 ab 80 bf
       0.22135885 -0.39407152 0.014419722 -1.0052321
000040 2d 2d 98 3f e1 9e eb be 47 49 84 bf 62 68 56 bf
       1.1888787 -0.46019652 -1.0334862 -0.83753026
000050 c7 4f 15 3f b5 30 e7 3e 7d 32 85 bf 54 cd 0f 3f
       0.58324856 0.45154348 -1.0406033 0.5617268
000060 0a 01 d7 be ad e0 2f c0 d2 a4 37 be e9 34 05 bf
       -0.4199298 -2.7480881 -0.17933968 -0.5203386
000070 ca 96 94 3e e2 96 1d 3f 83 91 47 3f 8f e9 d9 be
       0.29021293 0.61558354 0.7795641 -0.42561004
000080 e2 47 3c bd f3 cf 88 bd 37 1b 10 3f 83 59 96 3f
       -0.04596699 -0.06680288 0.56291527 1.1746067
000090 90 ac 32 3f 97 f8 30 bf 83 fa ac bf 2e 41 8b 3f
       0.6979456 -0.6912932 -1.351395 1.0879266
0000a0 ce 76 c8 bf 7f 76 a2 3c d5 68 08 bf 40 57 ed be
       -1.5661256 0.019831894 -0.5328496 -0.4635563
0000b0 57 23 c6 be 84 27 b0 bf 60 d1 76 bf ed a6 b3 3f
       -0.38698837 -1.3762059 -0.9641323 1.4035317
0000c0 36 cb 76 3e 38 8f 91 be d9 40 23 bf 06 04 5c 3f
       0.24100956 -0.2842958 -0.63770825 0.8594364
0000d0 d9 03 26 bf 30 25 00 3e 7c 9d 24 3e 93 bf fe bd
       -0.6484962 0.12514186 0.160757 -0.12438884
0000e0 34 81 0f bf aa bf 3d 3e ce 66 5f 3d 1e 61 a6 bf
       -0.56056523 0.18530145 0.0545414 -1.2998388
0000f0 89 ce f9 bf f5 aa 01 bf a7 85 d2 bf c8 ec f6 3e
       -1.9516155 -0.50651485 -1.6447037 0.48227525
000100 24 45 84 3f e9 e6 c2 bf 11 b3 92 3f f6 38 48 3f
       1.03336 -1.5226718 1.1460897 0.78211915
000110 e7 31 f1 3e 51 bb a8 bf 91 47 10 bc 6a 18 1a c0
       0.47108385 -1.3182164 -0.008806125 -2.40774
000120 50 d3 0e bf 78 28 40 be 2c 96 b6 bd d1 8a 02 40
       -0.5579119 -0.18765438 -0.08915362 2.0397227
000130 3d 6a fe be 6a 8a 86 3e a3 f7 e8 3e de c7 da 3f
       -0.49690428 0.26277477 0.45501432 1.7092245
000140 c5 8e 23 3f 0d 5f ac bf 96 4d 2a be 3e f3 aa 3e
       0.63889724 -1.3466507 -0.16631159 0.33388704
000150 b9 a4 eb be b9 e0 0b 40 ae 4d 94 3b 8a ef bc bf
       -0.4602411 2.185591 0.0045258617 -1.4760602
000160 39 54 aa 3f e5 b7 d5 bf c8 07 f7 3f e1 57 93 3f
       1.3306953 -1.6696745 1.929925 1.1511194
000170 e2 e0 5b 3f d8 24 25 3f 48 c7 af 3f 0c e5 d6 bf
       0.8589002 0.64509344 1.3732691 -1.678865
000180 3c 8d 00 3f a8 9b 81 3e 57 17 66 bf 81 a0 ef bf
       0.50215507 0.2531407 -0.89879364 -1.8720857
000190 f5 94 e0 3f 48 01 fb bf 11 30 b2 be 58 b4 8e 3f
       1.7545458 -1.9609766 -0.34802297 1.1148787
0001a0 7e 23 9f be 6d 29 53 be cf 36 39 bf 02 25 1e 3f
       -0.31081766 -0.20621271 -0.72349256 0.6177522
0001b0 99 55 4e bf ca ed 70 bf 8f 6a fe 3e 39 7e 8e 3e
       -0.8059936 -0.9411284 0.49690673 0.27830675
0001c0 fa 5c eb be c0 5e a7 3f 40 7d 30 3e d8 21 af 3e
       -0.45969373 1.307579 0.17235279 0.34205508
0001d0 00 94 db bd 78 b8 87 3f 97 ad 3c 3d 75 d3 9e 3e
       -0.10721588 1.060317 0.046063986 0.31020704
0001e0 51 d4 51 bf 20 7c 24 3d 8d 58 ec bf 7d 9e e7 3d
       -0.81964594 0.040157437 -1.8464524 0.11309526
0001f0 48 ee a6 be 16 fd c1 3f 21 8b 1e 3e 79 df 50 3f
       -0.3260367 1.5155361 0.15482761 0.8159099
000200 f8 1a f5 3d b8 cd 74 be eb 78 5b 3f 6c b7 23 3f
       0.119680345 -0.239066 0.8573138 0.63951755
000210 cc ae 99 3f c5 0f 10 bf 5d 75 d9 bf 7b 85 a1 3f
       1.2006469 -0.5627406 -1.6988941 1.261886
000220 25 9a 04 bc d0 c5 25 3d 34 bf c6 be ca b3 f8 3e
       -0.008093392 0.04047185 -0.3881775 0.48574668
000230 3d 26 4a 3f ce 43 c5 bd dc 36 80 bf 9f 59 6d bf
       0.78964597 -0.09632073 -1.0016742 -0.92714876
000240 df 8d 9e 3e 50 4b 03 be c5 53 9c bb 2c 60 63 bf
       0.30967614 -0.12821698 -0.0047707283 -0.8881862
000250 20 5f 1d 3e f3 6c d6 be d0 c4 70 3f 70 25 9e bd
       0.15368319 -0.41879997 0.9405031 -0.077219844
000260 b3 43 8d bf 16 8b 3e 3f 02 81 13 3f d3 0d 3a 3f
       -1.1036285 0.7443098 0.57618725 0.72677344
000270 13 ac 5d bf 8d 71 91 bf 14 5d 00 bf 70 ad b4 3f
       -0.8659069 -1.1362778 -0.50142026 1.4115429
000280 ab ae 28 c0 98 15 ae 3f ad 57 83 bf 56 f4 e2 3d
       -2.635661 1.360034 -1.0261132 0.1108176
000290 00 ab 8d bf e9 c3 58 3f 6d 47 16 3f 98 af 27 be
       -1.106781 0.84673935 0.5870274 -0.16375577
0002a0 2e 3b 71 bd ca 2c 9a 3e 02 0f ac 3f 2e 07 ee bf
       -0.05889433 0.30112296 1.344208 -1.8595941
0002b0 f3 9a 99 3e 71 4e 20 3f ee 5c 23 3e 42 60 d2 be
       0.3000103 0.6261969 0.15953419 -0.41089064
0002c0 a0 8f ed bf 26 dd 77 3f 9a fe b0 bd 7c ca af bf
       -1.8559456 0.9682182 -0.086423114 -1.3733668
0002d0 70 6d 52 3e 42 5b ea 3d c1 c8 41 bf ac 4e 66 3f
       0.2054956 0.11443187 -0.7569695 0.89963794
0002e0 0e 3d 19 c0 6f a3 b1 3e 75 d9 99 be 50 99 f8 3e
       -2.3943515 0.34695002 -0.3004872 0.48554468
0002f0 90 e7 0f be 28 11 69 bf ec e3 95 be 98 bc 1d bf
       -0.14053178 -0.91041803 -0.29275453 -0.61615896
000300 18 a1 16 bf 91 a7 b2 bf 89 64 60 3f f2 51 3f bf
       -0.5883956 -1.3957387 0.87653404 -0.74734414
000310 f3 ee 95 bf 7b 41 f8 3f fa 5e ab be ed e6 1a 3d
       -1.1713547 1.9394983 -0.334709 0.037817884
000320 41 d5 8d 3d 5a 16 ba bf bb e5 e1 3f 71 86 a2 3f
       0.069254406 -1.4538071 1.7648233 1.2697278
000330 10 c8 1f 3f 7d 84 b5 3f bf 9b 9c 3e 3e a6 31 3f
       0.62414646 1.4181057 0.30587575 0.6939429
000340 42 8c d9 bd 62 ad 46 bf c0 4a fa bf e3 e0 13 3f
       -0.10622455 -0.7760831 -1.9554062 0.57765025
000350 09 1e 82 3f 31 f3 fd be 24 8b ce 3f 97 04 5a 3f
       1.0165416 -0.49599603 1.6136212 0.85163254
000360 26 1e ae 3f d0 c6 8c 3f b8 fc 6f be a6 f0 dd 3e
       1.360295 1.0998173 -0.23436248 0.43347663
000370 a4 9e 8e 3f 33 1b 25 3f a6 ba 09 3f 7a b6 6c bf
       1.1142163 0.6449463 0.5380043 -0.9246594
000380 e2 6f af 3f 6f e9 fc 3e 31 6c 01 3f 79 cd e7 be
       1.3706019 0.49396846 0.5055571 -0.4527395
000390 27 f6 d2 bd 57 05 f4 bd 14 e7 a7 3f 47 9c 2b 3f
       -0.10300856 -0.11915081 1.3117394 0.67035335
0003a0 22 27 9d be 0c 6b 55 bf ba f3 a6 bf 17 0e de 3b
       -0.30693918 -0.83366466 -1.304313 0.006776582
0003b0 1d bb 75 3e d0 7b 1e bf 7c 48 05 3f 58 c0 2c bf
       0.2399716 -0.6190767 0.5206373 -0.67480993
0003c0 71 41 0a be b3 ff 40 bf 31 eb 78 bf 1f ef bd 3d
       -0.13501526 -0.75390166 -0.97233874 0.09274124
0003d0 7f 36 99 bf e5 a3 81 bf 71 aa 62 3f 4c ce bb bf
       -1.1969756 -1.0128142 0.8854132 -1.4672332
0003e0 c9 13 fe be ab 82 b0 be 81 a9 50 bd 64 cc 60 3f
       -0.4962447 -0.34474692 -0.0509429 0.87811875
0003f0 fb bf 1a 3f 49 7b e5 be 4e c0 4d 3f 34 06 17 40
       0.6044919 -0.44820622 0.8037156 2.3597536

embed_cp.weight f4 [457, 6]
000000 00 00 00 00 00 00 00 00 00 00 00 00 00 00 00 00
       0.0 0.0 0.0 0.0
000010 00 00 00 00 00 00 00 00 97 90 23 3f f6 22 de 3e
       0.0 0.0 0.638925 0.43386048
000020 25 53 44 be 13 05 55 3e 96 1f 67 bf 8e f5 07 bf
       -0.19172342 0.20802717 -0.9028257 -0.5310906
000030 e6 f3 d9 3f ae 44 a7 3f db 76 4e 3f 05 69 be 3f
       1.7027557 1.3067834 0.8065011 1.48758
000040 f4 c8 c8 bf 85 9c 31 be 3d fc 1f 3f b5 5c 08 3f
       -1.5686326 -0.17344864 0.6249426 0.5326646
000050 4b d3 16 c0 dc 60 77 3d bb 28 00 bf a3 dd 95 bd
       -2.3566463 0.060395107 -0.5006215 -0.073176645
000060 1f a4 8b 3f 69 e1 00 40 1f a5 1a 3e 8a 66 21 bd
       1.0909461 2.013758 0.15102051 -0.03940443
000070 55 7f 87 bf 59 20 c7 be 06 2b fb be b9 aa 87 be
       -1.0585734 -0.38891867 -0.49056262 -0.2649744
000080 5f 68 f2 3e b5 8b 8c be d1 eb 4a bf a6 89 b6 be
       0.47345254 -0.27450338 -0.7926608 -0.35651892
000090 32 5a ef 3e 30 a5 cb be ca dd d6 3f 53 31 8b 3e
       0.467485 -0.39774466 1.6786435 0.2718607
0000a0 57 88 cb 3f 58 96 66 3e 35 95 ea 3e ff 9c 96 3f
       1.5900983 0.22518289 0.4581696 1.1766661
0000b0 4e 2c 68 bd 69 30 b6 3f 71 78 8d bf 78 65 24 3f
       -0.056682877 1.4233524 -1.1052381 0.6421733
0000c0 1c e8 4a bf e5 2f 39 bf 9d 36 2a 3f a6 1c 06 bf
       -0.7926042 -0.72338706 0.66489583 -0.52387464
0000d0 e5 c4 88 bf 75 e3 91 3e 1e 71 7f 3f 3f 86 01 3f
       -1.0685087 0.28493848 0.9978198 0.5059547
0000e0 3e aa a8 bf 77 f6 24 bf d5 ee 75 bf ca 4c f3 3e
       -1.3176954 -0.64438576 -0.96067554 0.47519523
0000f0 3c 9f e1 bf c7 d1 49 3f 52 a7 ab be b5 00 62 bf
       -1.762672 0.7883572 -0.33526093 -0.8828233
000100 ef 5c 03 c0 e9 0a 37 3f 92 7a 33 c0 64 e2 f6 be
       -2.0525472 0.7150102 -2.804356 -0.48219597
000110 55 8c 73 bf fd b2 d3 be 18 1f e1 bf 1a 04 0d 3f
       -0.95136005 -0.41347495 -1.7587614 0.55084383
000120 8e db c5 bf 4c f4 08 bf 46 3b ba bf a1 a8 02 40
       -1.5457628 -0.5349777 -1.4549339 2.0415423
000130 58 91 7c 3f 3a 19 1b 3f f8 5f 7e bf 06 9b 2e 3e
       0.98659277 0.6058537 -0.99365187 0.17051324
000140 98 8b bb 3d 98 ed 48 3f 65 e8 1f be 46 3c ab bf
       0.09157485 0.7848754 -0.15615995 -1.3377769
000150 14 d9 80 be 30 36 93 bf fa 14 fb 3c 33 ff 8b bf
       -0.25165617 -1.1500912 0.03064965 -1.0937256
000160 b8 d9 ae 3f eb 8c 4b 3e 99 e7 9a 3f c3 2c 23 bf
       1.3660192 0.19877975 1.2101928 -0.63740176
000170 9f 4a 65 bf 39 a3 be 3e fc 4e 2f 3f 66 26 be bd
       -0.8956699 0.37233904 0.68479896 -0.09284668
000180 8f 0b 79 bf 7b ed 4d 3f a6 5c 87 3d 89 a7 bb be
       -0.9728326 0.8044049 0.06609468 -0.36651257
000190 10 4d e6 3e 01 01 01 40 af 10 ea bf 10 a2 05 3e
       0.4498067 2.0156863 -1.8286341 0.13050103
0001a0 c8 b9 2f bf 1a 87 60 bf c8 86 e3 be 74 0c 6e bf
       -0.68642855 -0.8770615 -0.44438767 -0.9298775
0001b0 d7 46 ca 3e 82 5b b0 be 9d c6 57 bf 6a c1 c2 bd
       0.39507172 -0.34444815 -0.84287435 -0.09509547
0001c0 41 52 9d 3f 01 69 a6 3f 61 9e db bf 45 7b 9c 3f
       1.2290727 1.3000795 -1.7157708 1.2225119
0001d0 57 7e 2f bf c8 1a 52 3e 75 1d ab bf d7 f6 92 bf
       -0.68552154 0.20518029 -1.3368365 -1.148158
0001e0 c9 a0 7c 3f de b8 9b 3e 5a 99 1a 40 1a a3 fc bf
       0.9868284 0.3041448 2.4156098 -1.9737275
0001f0 57 01 a1 bc 76 28 b1 be 04 eb 3d 3d 06 4e 48 3e
       -0.01965396 -0.34601182 0.046366706 0.19561014
000200 13 7f a1 be 53 a8 0e c0 c1 d6 8f 3c 56 b0 08 3f
       -0.31542262 -2.2290237 0.017558457 0.5339407
000210 77 12 cc be c2 4b c7 bf 8c 0b 96 bf d0 4b 59 3f
       -0.39857838 -1.5569994 -1.1722274 0.84881306
000220 d0 5d fa 3e 8b d3 1d c0 ed f6 e0 3f 3d 7c ef bf
       0.48899698 -2.4660366 1.7575356 -1.870979
000230 d9 bd e2 3f a2 92 e4 bf f0 d2 9f bf 76 1f 22 40
       1.7714187 -1.7857249 -1.2486248 2.5331702
000240 0e fc 5a 3e ad 8c 53 3f 2d e9 43 3e 5e 00 c0 3f
       0.21385214 0.8263653 0.19131918 1.5000112
000250 03 41 f5 3d 20 dd 35 bf 05 3e 8a 3e ea 26 55 c0
       0.119752906 -0.71040535 0.27000442 -3.3305001
000260 e1 56 1f 3e 03 ba 3a 3d ac 7c 88 be 21 0f b9 bf
       0.15560485 0.04558755 -0.26657617 -1.4457742
000270 1a 1c 62 3f 7f 04 b5 3e 18 94 08 bf c9 53 4b 3e
       0.8832413 0.35354993 -0.53350973 0.1985618
000280 81 21 c2 be f0 b1 f2 3e d2 2f eb bd e9 60 eb 3f
       -0.37916186 0.4740138 -0.114837304 1.838895
000290 ce f7 98 3d a8 0d 85 bf c0 a5 a2 3e 2b 87 91 be
       0.0746914 -1.0394793 0.31767082 -0.28423437
0002a0 8e 77 38 3f 8f 16 5a 3f 7b 96 d2 bf d1 ef c8 3a
       0.72057426 0.8519067 -1.6452173 0.001533026
0002b0 c0 1c 04 40 ed 44 47 3e 41 00 c9 3e 84 61 84 be
       2.0642548 0.19459887 0.39258006 -0.2585565
0002c0 71 4e 93 3f ec ea f8 be 0e 77 14 be 31 4c bd bf
       1.1508313 -0.4861673 -0.14498541 -1.4788877
0002d0 c9 cc a2 bf 42 22 9c bf 15 2f 89 bf 8c b8 cc bd
       -1.2718745 -1.2197955 -1.0717493 -0.09996137
0002e0 f7 55 2d c0 b0 43 28 40 76 9a 98 bf 61 aa e0 bf
       -2.7083719 2.6291313 -1.1922138 -1.7551996
0002f0 af b6 67 3e 38 d5 4c bf 57 b1 a6 bf 4e eb 5d be
       0.22628282 -0.80012846 -1.302287 -0.21671793
000300 18 8a 62 3d 62 d1 2a 3e ab ee 80 3f 59 df 27 c0
       0.055307478 0.16681436 1.0072836 -2.623007
000310 22 15 ed 3e 71 b0 74 3e 1c 2f ee 3f 36 36 ff be
       0.46305186 0.23895432 1.8608127 -0.49846047
000320 f8 8e b6 3e 05 8a 01 3e b7 8d 47 40 25 30 09 40
       0.35655951 0.12650307 3.1180246 2.1435635
000330 e0 4b 8d be 27 88 09 40 82 44 dc 3d 92 15 0a be
       -0.2759695 2.148935 0.10755254 -0.13484791
000340 e5 3a cd 3f b7 67 99 be af 2b 7f 3f 5e 5e ff 3e
       1.6033598 -0.2996194 0.9967603 0.49876684
000350 8f f2 6b 3f 93 e6 8d bf 6e 55 34 3f df 71 ac 3e
       0.9216699 -1.1085991 0.70442855 0.33680627
000360 b3 47 5a 3e ac 5c a4 3f 07 cc 33 40 57 e7 08 3e
       0.21316414 1.2840781 2.8093278 0.13369499
000370 57 e1 8c bd cb ec 99 3f 84 40 01 3f 69 5f 32 c0
       -0.06878918 1.2025388 0.5048907 -2.7870734
000380 ca 5e c6 3f 85 6c 52 be 91 b5 2c be 3b 03 59 bf
       1.5497677 -0.2054921 -0.16866137 -0.84770554
000390 4e b7 4c be 9b d0 2e be f3 99 ea 3e e5 de 7f 3e
       -0.199918 -0.17071764 0.4582058 0.24987371
0003a0 8d 1f b5 bf ca 98 84 bf e7 ff 21 bf e0 da cd bf
       -1.4150254 -1.0359128 -0.632811 -1.608242
0003b0 fa a9 a1 bf 83 45 92 bf b5 1f ac bf 39 39 a7 3d
       -1.2629998 -1.1427463 -1.3447176 0.08165211
0003c0 cd 05 fe bf dc c9 1d 3f 81 76 d5 bf 6a 41 0e bf
       -1.984552 0.6163614 -1.667679 -0.55568564
0003d0 e6 aa 7f 3f 6a a3 d5 3f 99 b9 df be 02 8f 8a bf
       0.99870145 1.6690495 -0.43696287 -1.0824893
0003e0 ad bc c6 3f fa 87 06 3e d2 77 ae 3f 11 6a d7 bf
       1.5526329 0.13137808 1.3630316 -1.6829244
0003f0 67 aa 1d be f3 4a 68 3c ec 9e ba 3f d2 ff b3 3f
       -0.15397035 0.014178026 1.4579749 1.4062445

gru_dp_fw.decays f4 [7]
000000 f0 59 0a fd bd 7f 00 00 f0 59 0a fd bd 7f 00 00
       -1.1493778e+37 4.5824e-41 -1.1493778e+37 4.5824e-41
000010 e0 4a 26 9e be 7f 00 00 30 69 2d 9e
       -8.803451e-21 4.5825e-41 -9.180296e-21

gru_dp_fw.gru_cell.weight_ih f4 [21, 7]
000000 9a f3 cc 3e 0e 5e fb ba 38 26 3f be 42 07 4e be
       0.40029603 -0.0019177811 -0.18666923 -0.20119956
000010 3d 5b 92 3d 3f 0d 1d 3e 49 f4 62 3e 63 79 1e 3d
       0.071463086 0.15337084 0.221635 0.038689982
000020 3a d0 0b bc 5e 2b 4b 3d bf 51 3c be 80 0b 4e 3e
       -0.008533532 0.049601905 -0.18390559 0.20121574
000030 06 ca 46 be 01 d5 c5 3d 9a f0 a8 3d 52 d4 67 be
       -0.19413003 0.09659768 0.08249016 -0.22639588
000040 c7 9b c5 3b f0 76 b3 bd 0d 82 af 3e 5f 1c 8d 3e
       0.006030533 -0.0876292 0.34278908 0.27560708
000050 39 57 69 3d 6b a3 86 be 8b 08 51 3e d8 cf f3 bd
       0.056967948 -0.26296553 0.20413415 -0.119048774
000060 8a 8f f4 3d 1e 76 8b 3e 6d 13 d4 be eb 35 41 3e
       0.119414404 0.27238554 -0.4142107 0.18868224
000070 e1 e9 a8 be cc ed 6c bd 03 92 ae 3d 67 0b b8 3e
       -0.32990935 -0.05784397 0.08523943 0.359462
000080 e4 8b 07 3d 0d 78 36 3b f5 58 b8 3e 84 25 ca 3e
       0.033092394 0.0027842552 0.3600537 0.39481747
000090 c7 16 75 3d 85 28 48 3e c0 0d a7 3e 41 13 2c 3d
       0.059836175 0.19546707 0.32627678 0.04201055
0000a0 f1 4a 5e 3e 75 ab 31 be 05 2f 4d be 07 4e d7 be
       0.21708275 -0.17350562 -0.20037468 -0.42051718
0000b0 08 d0 02 be c6 e4 27 bd c7 33 ac be 8c e2 d1 3e
       -0.1277467 -0.04098966 -0.33633253 0.40993154
0000c0 76 51 f4 3e 99 a2 1d bf c3 dc 19 be fa 01 43 bd
       0.477184 -0.6157623 -0.1502562 -0.047609307
0000d0 b7 d7 a3 3b 84 d2 dd 3c 46 8c bd 3e 33 23 88 be
       0.0050000804 0.02707792 0.37021083 -0.26589355
0000e0 f6 e8 6d 3e e2 20 1e 3e 91 a5 3b be 33 de 9b be
       0.23233399 0.15442231 -0.18324877 -0.30442962
0000f0 be 71 80 3e e3 92 9f be ec b6 94 3e 36 30 b7 3e
       0.25086778 -0.31166753 0.29045808 0.3577897
000100 d9 16 0d be fe ab 62 bc d9 97 fe bd 75 9e d5 be
       -0.13778247 -0.013834951 -0.124313064 -0.41722456
000110 d6 1b 43 bd 18 8a e6 bd 52 55 48 3e a7 34 79 3e
       -0.04763397 -0.11256808 0.19563797 0.24336492
000120 28 7f 55 bd f0 f9 86 3e 63 29 2b 3e 69 03 63 3e
       -0.05212322 0.26362562 0.16715007 0.2216927
000130 90 5c ad be 3c 8f 20 3e a4 35 d1 3e f3 23 e9 bd
       -0.33859682 0.1567964 0.40861237 -0.1138381
000140 07 eb 80 be 7a 9b e4 3e 45 b1 2a 3e 51 ff 6f be
       -0.25179312 0.4464987 0.16669185 -0.23437239
000150 b1 51 40 3d 3c 23 af 3e 5b ec 82 3e f4 5e 82 be
       0.046952907 0.3420657 0.2557095 -0.25463068
000160 41 62 a9 3d da 4c a6 3c f5 ea 6e 3d cc a3 69 3e
       0.082706936 0.020300318 0.05832954 0.2281639
000170 7f 55 de bd bc 5a 82 3e a3 26 8d bd 90 b1 9f 3e
       -0.10856151 0.2545985 -0.06892135 0.31190157
000180 f0 f4 66 be b6 c6 12 bd 02 d7 b1 bc a2 96 c3 bd
       -0.22554374 -0.035834037 -0.021708969 -0.09550215
000190 70 89 4f 3c ba 94 2b 3e d3 49 7c 3d 9a ed 2e be
       0.012667045 0.16755953 0.06159384 -0.17082825
0001a0 84 56 ad bd 65 83 43 3e 0c 14 9e 3c 61 15 d9 3d
       -0.08463767 0.19093092 0.019296668 0.10599781
0001b0 f5 61 5f bd b6 c9 0d 3c c1 08 c7 3e b2 89 bb 3d
       -0.05453678 0.008654049 0.38873866 0.09157123
0001c0 b5 49 83 3e 0a eb a2 3d 27 cd 12 3e d1 a3 d0 bd
       0.25642172 0.079549864 0.14336072 -0.101874955
0001d0 38 63 93 be af 0f 40 3c 25 00 c6 bd 14 dc 3a bc
       -0.28786635 0.011722489 -0.09667996 -0.01140501
0001e0 e7 8d d3 bd 58 da a7 bc 3d c9 8b be b7 8f 20 bd
       -0.103298 -0.020489857 -0.2730197 -0.039199557
0001f0 0a c4 03 be c3 ff 92 3e e7 55 9e 3d 74 72 e7 bb
       -0.12867752 0.28710756 0.07731228 -0.0070632044
000200 dd 52 91 bd a5 ab 60 be 14 e1 10 3e df 98 3e 3e
       -0.07095883 -0.21940477 0.1414836 0.18613003
000210 16 2e 84 be 5f 71 9c 3e 17 90 0c be 0e ac 21 be
       -0.2581641 0.30555245 -0.13726841 -0.1578829
000220 3a 34 8a be 3a c8 91 bc e9 eb 84 bd 61 79 1b 3e
       -0.2699297 -0.01779567 -0.06490309 0.15183021
000230 f0 40 d9 bc aa 22 78 3e b8 f4 7f be 90 ed 03 be
       -0.026520222 0.24231973 -0.24995697 -0.12883592
000240 26 92 4d 3d 6a 9a 1b be 0c 31 de bd
       0.050188206 -0.15195623 -0.10849199

gru_dp_fw.gru_cell.weight_hh f4 [21, 7]
000000 79 b1 b3 be 6b ff ef be 22 44 ac 3e b5 55 b2 3e
       -0.35096338 -0.46874556 0.3364573 0.34831014
000010 57 e2 6a 3e 9e 51 07 3e c3 e6 f3 3e e7 c2 31 bd
       0.22937904 0.13214728 0.47636995 -0.043398764
000020 7c 59 c5 be 81 21 a3 3e e3 36 26 3f 6d 88 e7 3d
       -0.38544834 0.318615 0.649275 0.11305318
000030 4b 6d 14 be 53 fc 2d 3f 6b 51 05 3d 99 ce 1c bf
       -0.14494817 0.6796314 0.03254835 -0.61252743
000040 13 a5 be 3e e0 d8 fe 3d 9a bf a9 bb c4 df db bd
       0.37235317 0.124437094 -0.0051803114 -0.10736039
000050 db 57 98 3e b1 41 db bd 0a 54 9e bc 54 e0 a3 be
       0.29754528 -0.10705889 -0.019327182 -0.32007086
000060 42 27 06 3d cf 48 31 be ba 31 75 be 3d 0a 8e 3e
       0.032752283 -0.1731293 -0.2394475 0.27742186
000070 b5 ca 5b bd b5 3f 82 be eb c3 73 3d 09 71 0b 3f
       -0.053660113 -0.2543923 0.059513014 0.5446935
000080 49 3c 1f 3c 99 2b 6c be f5 43 be bd a6 92 90 be
       0.009718963 -0.23063506 -0.092903055 -0.28236884
000090 fd a3 20 bf 9a 20 0a 3f e8 f6 f9 3e 48 d5 f3 3e
       -0.62750226 0.53955996 0.48821187 0.47623658
0000a0 59 22 b8 be 93 99 5b 3e 2d b0 ce 3d 33 6b 33 bf
       -0.35963705 0.21445303 0.100921966 -0.7008545
0000b0 c2 de 56 3e ae fe 24 3d 47 d6 be 3e a3 7c ce 3d
       0.20983413 0.040281944 0.37272856 0.10082366
0000c0 5c d5 3b 3e 80 16 06 3d 7a ac c2 3e cb 83 fd 3d
       0.18343109 0.0327363 0.38022214 0.12378653
0000d0 60 a9 c3 3e 02 dc b6 bc 66 58 4b 3e 63 ba a1 3e
       0.3821516 -0.022321705 0.1985794 0.31587514
0000e0 cd 8c c7 3e 4d da 4b be e5 74 65 3d 52 f4 98 be
       0.3897461 -0.19907494 0.056019682 -0.29873902
0000f0 5c b8 a7 3e 19 f9 19 3c 1d 70 7f 3e c2 2e c2 3d
       0.32757843 0.009397768 0.24945112 0.094815746
000100 ee 49 2b be 58 80 cc bd 50 fa 8f be 48 02 2c 3c
       -0.1672742 -0.09985417 -0.2812066 0.010498591
000110 d2 70 42 be 09 f2 e7 be 04 50 51 bd 8b e3 a1 be
       -0.1898835 -0.45301846 -0.0511017 -0.31618914
000120 22 0e 9a 3e 84 31 b1 3e e3 68 96 3c 77 c0 0c 3f
       0.30088907 0.3460809 0.01836056 0.5498118
000130 44 ec 55 3e 1a 3b a4 be c1 ac aa be 07 6d 0c 3f
       0.2089091 -0.3207634 -0.33334926 0.5485386
000140 b0 65 af be f3 2b ee 3e c3 7e 89 bd db 90 59 3d
       -0.3425727 0.46517906 -0.06713631 0.05311666
000150 3f 75 13 3e ba 2b 5a 3e fe 7d e4 bb b7 26 5d be
       0.14400195 0.21305743 -0.0069730273 -0.215968
000160 da 7b 23 be 35 9d c5 be 5b 2c 09 bc 32 08 e3 be
       -0.15965214 -0.38596502 -0.008372392 -0.4434219
000170 22 ae 14 be 7b 9f 23 be 76 e2 cc bd 23 f7 17 be
       -0.14519551 -0.15978806 -0.100041315 -0.14840369
000180 2e 71 9d 3e 08 29 ed 3e 2b f3 fe 3e f4 60 af 3e
       0.30750412 0.46320367 0.49794897 0.34253657
000190 ac c0 73 be 44 7e f3 bd 2a 57 e6 be c4 a1 19 be
       -0.23803967 -0.11889318 -0.44988376 -0.15003115
0001a0 37 54 1d bf dd fc 3a 3d b5 aa 1e 3f c6 bb 3e 3d
       -0.61456627 0.045651305 0.6197923 0.046565793
0001b0 7c e1 24 bf 07 5b 90 be 31 df 6d 3d 90 15 b8 be
       -0.6440656 -0.28194448 0.05807418 -0.3595395
0001c0 bb 04 10 bf 8a 7a 02 bf d6 ce 8a 3e c6 6e 3c 3e
       -0.5625722 -0.5096823 0.27110928 0.18401632
0001d0 1d c3 e4 3e fb 19 dc be 24 18 47 3e 34 51 92 3c
       0.4468011 -0.42988572 0.19442803 0.017860986
0001e0 04 48 d7 be 04 fb 8c be cf 8a 05 3e ac e8 37 3e
       -0.4204713 -0.2753526 0.13041233 0.17959851
0001f0 7c 50 2a 3c ba 40 3a 3f 3c ff 5b be b6 61 d0 be
       0.0103951655 0.72755015 -0.21484083 -0.40699548
000200 40 28 95 3e 43 be df 3e 82 9d ac 3e 17 31 d7 be
       0.2913227 0.43699846 0.3371392 -0.4202964
000210 f2 8c ed 3e 9f fe 2c 3f d0 63 8f 3e 75 d4 a9 3d
       0.46396595 0.6757602 0.28005838 0.08292476
000220 c2 41 07 3e a0 33 07 bf cc 99 d4 3e ff 54 b8 be
       0.13208678 -0.5281315 0.41523588 -0.36002347
000230 55 a9 15 3e 4e 7d 44 be b9 5b 50 bc be 46 08 3f
       0.14615376 -0.19188425 -0.012717181 0.53232944
000240 a7 d1 03 3f 12 46 b0 bc ea 0c 20 3f
       0.5149178 -0.021517787 0.62519705

gru_dp_fw.gru_cell.bias_ih f4 [21]
000000 d9 df ca 3e 5f 7b 87 3e 9c b2 b3 3e 99 05 a0 39
       0.39623907 0.26461312 0.35097206 0.0003052175
000010 b6 3c d3 3c 15 40 09 3e 6e a7 84 3e c0 4a d1 be
       0.025785785 0.13403352 0.2590899 -0.40877342
000020 e2 1a 06 be 99 4d 60 be 26 d8 c5 3d 5e ea 0a 3d
       -0.13096192 -0.21904601 0.09660368 0.033914916
000030 92 f6 09 3f c5 ba fd 3e ba 08 44 3e f3 4a be 3a
       0.5389186 0.49556556 0.19143954 0.0014518186
000040 30 b7 aa bc f5 a5 d6 3e d8 55 9c bd db 77 5e 3e
       -0.020839304 0.4192349 -0.07633561 0.21725409
000050 d8 67 d2 3e
       0.41094851

gru_dp_fw.gru_cell.bias_hh f4 [21]
000000 14 f7 2f 3f 5f ed 04 3f 08 d0 ac 3e 45 68 ea bb
       0.68736386 0.519247 0.33752465 -0.007153543
000010 92 ab dc 3e b7 34 cf 3e 31 7f d1 3e a7 2e 83 be
       0.43099648 0.40469906 0.40917352 -0.2562153
000020 80 b5 b6 3e a3 42 82 be a6 a8 42 3f 02 4c 8f be
       0.3568535 -0.25441465 0.7603859 -0.27987677
000030 db 5c b5 3e dd 42 24 3f bf 6d c9 3e a8 4e 40 3d
       0.35422406 0.64164525 0.39341542 0.046950012
000040 5d 88 05 be 35 c0 a8 3c ee cd df bd 5b 7c 8e bd
       -0.130403 0.020599464 -0.1092795 -0.06957313
000050 00 c6 00 3f
       0.50302124

gru_dp_fw.ode_net.odeblock.odefunc.fc1.weight f4 [7, 7]
000000 93 0f f7 be f1 57 49 bf ee 71 a3 3e 7e b9 85 3e
       -0.4825407 -0.7864981 0.3192286 0.26118082
000010 3e 8a 6f 3e a1 e0 aa 3e e2 5f ae 3e 0a 4c 4d be
       0.23392579 0.33374503 0.34057528 -0.20048538
000020 73 94 d4 3d 58 45 8a be 52 60 0b 3e df 1a 80 be
       0.10379877 -0.2700603 0.13610962 -0.250205
000030 e2 a9 ef 3d 37 7e 9c be 6c b7 ed be 70 89 5d bf
       0.117023245 -0.30565044 -0.46429002 -0.8653784
000040 ee 5d 84 be b7 5f 43 3f f2 d7 87 3e 59 a7 2d 3e
       -0.25852913 0.76317924 0.2653194 0.1695837
000050 ed ff 4f 3f a9 18 f8 be b4 8b 49 bf e6 76 a8 be
       0.81249887 -0.48456314 -0.78728795 -0.32903212
000060 49 a6 1a 3f ef 37 81 bd 32 48 a2 3e 33 ab 96 3e
       0.6040998 -0.063094966 0.31695706 0.2942749
000070 39 7d 14 bf 5e 15 4f bf a7 4c 04 3f ce ff 69 3f
       -0.58003575 -0.8089198 0.5167946 0.9140595
000080 00 85 11 3f 09 05 2c be 1f f8 47 3f f4 c4 4f bf
       0.56843567 -0.16798796 0.7811298 -0.811599
000090 83 9f 04 bf 71 25 a7 3e 35 f6 79 3f 53 f0 1f 3f
       -0.51805896 0.32645753 0.9764131 0.6247608
0000a0 c3 69 22 bf 81 89 4b 3f 4d 21 70 be ed a3 55 bf
       -0.6344263 0.7950669 -0.23450203 -0.83453256
0000b0 66 c3 06 3f 20 af 8d 3e 26 fb 0b 3e 1a 6d 5c 3e
       0.52641904 0.27672672 0.13670024 0.21525994
0000c0 cb ef 73 3f
       0.9528777

gru_dp_fw.ode_net.odeblock.odefunc.fc1.bias f4 [7]
000000 38 34 26 3f 60 a6 51 3e f8 89 ff 3e 6d d9 8f 3d
       0.6492343 0.20473623 0.4990995 0.070238926
000010 c5 7b e6 3e e3 d4 0b 3f 67 12 46 3f
       0.45016304 0.54621714 0.7737183

gru_dp_fw.ode_net.odeblock.odefunc.fc2.weight f4 [7, 7]
000000 95 ae 53 3f c0 a1 81 3d c1 a7 c9 3e 0f 41 91 3e
       0.82688266 0.063296795 0.393858 0.28369948
000010 2d b9 8a 3e 8c 9a 09 3f 36 3f 64 3f 97 81 1f 3e
       0.27094403 0.53751445 0.8915895 0.15576778
000020 e7 6b 34 bd 0f f9 40 3f 58 10 4c 3f 56 5c e0 3e
       -0.044048216 0.75380033 0.7971244 0.43820447
000030 2f c8 69 3f ca 51 52 3f 71 3a 50 3f 36 fe 7a 3e
       0.9132108 0.8215605 0.81339175 0.24511036
000040 c8 b0 1c 3f a7 82 0b 3f 76 54 5f 3e 04 63 34 3f
       0.61207247 0.54496235 0.21809563 0.70463586
000050 1e 04 12 3e e8 5a 9d 3e 75 bd f6 3d 4e fc a5 3e
       0.14259383 0.30733418 0.12047855 0.32419056
000060 9d 50 18 3e 77 a9 52 3f 42 c6 6d 3f b0 03 58 3f
       0.14874502 0.8228983 0.9288064 0.84380627
000070 36 1b e4 bd ef 19 e9 3d 0e d0 d0 bd 0a ff 7c 3e
       -0.111380026 0.113818996 -0.10195933 0.24706665
000080 44 03 8d be a6 3f cf 3d 12 90 95 be 16 6c 42 3f
       -0.27541554 0.10119562 -0.2921148 0.75946176
000090 56 dc fe 3e 9b 9c f6 3e 2e 99 3b 3f 1b 00 45 3f
       0.49777478 0.48166355 0.7328061 0.76953286
0000a0 5e 98 62 3f 07 ea ff 3e e0 ac 87 3e 38 4a 9a 3d
       0.88513744 0.49983236 0.2649908 0.07533687
0000b0 11 89 b7 3e 4e 2f 0d 3f a0 fc 43 3f 92 ce c8 3e
       0.3584676 0.55150306 0.7655735 0.392201
0000c0 27 9c 0b 3f
       0.54535145

gru_dp_fw.ode_net.odeblock.odefunc.fc2.bias f4 [7]
000000 bb 5d c1 3e ea dc d4 3e e5 31 6d 3e 7b db 38 3f
       0.37766823 0.41574794 0.23163565 0.722099
000010 a2 78 ab be a8 23 28 3f ae 2c 41 3f
       -0.33490473 0.6567941 0.754588

gru_dp_fw.ode_net.odeblock.odefunc.fc3.weight f4 [7, 7]
000000 26 38 6e 3e b0 2b ef 3e e5 b3 2a 3e 2d 20 92 3e
       0.23263606 0.46713018 0.16670187 0.28540173
000010 54 03 c3 bd 29 54 92 3b 08 b2 52 3d cb 12 3f 3f
       -0.09522119 0.004465599 0.051439315 0.7463805
000020 17 24 c6 3e 16 b4 83 3e 36 88 1e 3f d4 01 0e 3d
       0.3869941 0.25723332 0.6192659 0.034669712
000030 3c 59 ee 3c 5f a3 26 3e 21 7e 0f bc 80 d0 0f bf
       0.029095285 0.16273259 -0.008758099 -0.5617752
000040 5d d7 44 3e 2a df 67 be e8 70 7f be 47 dc 99 bd
       0.1922278 -0.22643724 -0.24945414 -0.07512718
000050 8c c1 9a be 25 65 da be 43 83 f4 be 42 28 0f bf
       -0.3022579 -0.42655292 -0.47756395 -0.55920804
000060 0d 2c 1d bf b8 ae 62 be 91 dc ff bb e6 e7 05 bf
       -0.6139534 -0.22136962 -0.007808276 -0.52306974
000070 0f 93 fd be d4 11 20 bf 14 84 4d be ec c1 21 bf
       -0.4952626 -0.62527204 -0.20069915 -0.63186526
000080 a6 01 a1 bc 1a 85 eb be b3 39 14 bf 03 ff 39 3f
       -0.019654106 -0.45999986 -0.5790054 0.7265474
000090 08 51 0d 3f ad 2b 1d 3e 48 5c ee 3e c6 1e 42 3e
       0.5520177 0.15348692 0.4655478 0.18957052
0000a0 13 46 37 3f a2 13 b0 3e 32 ca 43 bf d4 55 3a bf
       0.715913 0.3438998 -0.764804 -0.72787213
0000b0 98 01 05 bf 46 f8 2e bf 5e bf 3d 3e 98 d2 10 bf
       -0.51955557 -0.68347585 0.18530032 -0.5657134
0000c0 e3 72 22 bf
       -0.63456553

gru_dp_fw.ode_net.odeblock.odefunc.fc3.bias f4 [7]
000000 cf e4 16 3f a9 f0 45 be eb 0f b2 be 84 67 9e be
       0.58942884 -0.19330086 -0.3477777 -0.3093835
000010 26 d0 02 bf b7 d3 ff 3e d3 99 14 bf
       -0.5109886 0.49966213 -0.5804722

gru_cp_fw.decays f4 [6]
000000 60 ec 9a 9e be 7f 00 00 90 cb 5c 06 00 00 00 00
       -1.6403147e-20 4.5825e-41 4.1526955e-35 0.0
000010 70 5a 2a 9e be 7f 00 00
       -9.018427e-21 4.5825e-41

gru_cp_fw.gru_cell.weight_ih f4 [18, 6]
000000 fd 67 a2 bd f1 69 26 3e b6 9d fe bd 61 0f 0e bd
       -0.079299904 0.16251351 -0.12432425 -0.034682635
000010 17 86 d4 be c3 06 bd 3e ee 4b 91 be bb 73 8c be
       -0.41508552 0.3691922 -0.28378242 -0.27432045
000020 bb 84 a3 3e 2b 19 c9 be f8 c9 f1 be 22 c6 75 be
       0.31937203 -0.39277014 -0.47224402 -0.24001363
000030 c4 cd 9c 3d 40 b2 9b bd 71 03 a1 3d e9 30 a6 3e
       0.07656434 -0.07602358 0.078619845 0.3245919
000040 98 ed 16 3f 45 cc 31 3e 02 43 50 3e 70 3e 93 3d
       0.5895629 0.17363079 0.20338061 0.071896434
000050 d9 18 ea 3d c7 1d c1 3e 86 fa 93 3e ca 7e 22 bd
       0.114305206 0.3771803 0.28902072 -0.039671697
000060 40 a2 4d 3e e3 c2 71 3e c0 b0 f5 3d 7e de 96 3e
       0.20081425 0.236095 0.11996603 0.29466623
000070 c0 d3 17 3e 96 d9 41 3e be dd 32 be 52 9f 57 3e
       0.1482687 0.18930659 -0.174674 0.2105687
000080 1e f4 d6 3d 6d c9 6c 3e 05 8b 13 3e b0 38 83 be
       0.104957804 0.23123713 0.144085 -0.25629187
000090 23 40 80 3e a8 29 56 3d ad cb 89 be a5 7c a6 3d
       0.25048932 0.05228582 -0.26913205 0.08129243
0000a0 52 df 78 be 5b 87 81 3e 22 95 86 3d 23 3e 02 be
       -0.2430394 0.2529858 0.065714136 -0.12719016
0000b0 25 f2 0b 3e 3c c4 ef 3e b4 48 88 3a b1 99 98 3e
       0.1366659 0.46829402 0.0010397644 0.29804757
0000c0 9e c4 96 3e de 10 0e 3e 66 79 bd 3d c5 62 24 be
       0.29446882 0.13873622 0.092516705 -0.16053303
0000d0 8f cc 89 3e d2 0f 9e be 44 50 6b bd ea 03 b3 3d
       0.26913878 -0.30871445 -0.057449594 0.08740981
0000e0 77 c6 11 3e 66 82 31 bb 74 13 a1 3e f6 26 2e bd
       0.14235865 -0.002708578 0.31460154 -0.042517625
0000f0 e4 5c e8 3d f9 bb e6 bc 3f 51 88 3e 32 c6 a2 bc
       0.113458425 -0.028165804 0.26624486 -0.019869898
000100 d3 70 f3 bd 0f 8a 1e 3e 31 be 86 be 7a 43 99 be
       -0.11886754 0.15482353 -0.2631698 -0.29934293
000110 dc 1e 68 be 61 95 d7 3e b4 08 39 be 82 fb f9 3d
       -0.22668022 0.42106155 -0.18069726 0.122061744
000120 13 ba f9 3d 87 9d 77 be d1 f5 aa 3e bf 18 39 3e
       0.12193694 -0.24181186 0.33390668 0.18075846
000130 93 fd 08 be f2 34 02 be 9f 37 ee bc 9b d0 a6 3e
       -0.13377981 -0.1271551 -0.029079257 0.32581028
000140 ba e6 a0 be e2 75 86 be 6d 4f 8a 3d c9 53 03 3f
       -0.3142603 -0.26261812 0.067534305 0.5129972
000150 8a 07 e9 3e 82 1a d0 bd df 6c 83 3e 6d 6b d0 3d
       0.45513564 -0.10161306 0.25669 0.1017674
000160 b9 10 ff bd 8e 5f 98 bd ea e6 3e bd d9 01 0d be
       -0.124543615 -0.074401006 -0.046606936 -0.13770236
000170 41 64 d3 be ca 00 a0 be 14 bf 52 be 1c 52 00 3f
       -0.41287425 -0.31250602 -0.20580703 0.5012529
000180 2b 63 57 be 98 83 13 bf 1e 55 bf be b0 0e 8f be
       -0.21033923 -0.5762267 -0.37369627 -0.27940893
000190 8a 94 52 3e b1 6c d2 3b b0 36 62 be 8d 22 8c be
       0.20564476 0.0064216484 -0.22091174 -0.2737011
0001a0 fd fc a1 bc 82 83 4c 3e 04 22 8a be ed 45 8e be
       -0.019773955 0.19972041 -0.26979077 -0.27787724

gru_cp_fw.gru_cell.weight_hh f4 [18, 6]
000000 26 1f d5 3d 8b 34 66 3e 68 ba 0f bf 26 51 76 3e
       0.10406332 0.22480981 -0.5614381 0.24054393
000010 80 09 59 bd b7 23 4b be 83 08 7f 3e 49 06 69 be
       -0.052987576 -0.19837843 0.2490559 -0.22756304
000020 14 80 e9 3d 11 c1 ba 3e 4c ad b8 3e 22 e6 94 be
       0.11401382 0.36475423 0.36069715 -0.29081827
000030 e5 56 c3 3e eb 71 9a 3e 67 23 d2 3c d6 d4 b9 be
       0.38152233 0.30165038 0.025651647 -0.36295193
000040 05 17 c3 bc c8 93 92 be 34 ab 22 3e 27 64 bc 3d
       -0.023814688 -0.28628373 0.15885621 0.0919879
000050 bf 26 bd 3d 16 4e 82 be b5 f3 4a bd d6 39 23 3e
       0.09235906 -0.254502 -0.049548823 0.15940031
000060 87 a4 ae 3e c9 74 c1 be bc d8 80 3c 9e 7d a7 be
       0.341099 -0.37784413 0.015728347 -0.32713026
000070 be 54 17 3f 75 0e 2a 3e 32 d5 84 3e dd 35 ce 3e
       0.5911368 0.16607077 0.25943905 0.4027547
000080 9e a9 ac 3d e6 16 e0 3d bf e3 05 be 07 60 8c 3e
       0.084307894 0.109418675 -0.1307516 0.27417013
000090 29 37 f1 3d 35 f3 32 bd 4c 38 69 3e 9f 79 89 3e
       0.11778099 -0.04368897 0.22775382 0.26850602
0000a0 bc d7 e2 bd df c1 2a 3e e4 6a 1f bd 9d 0c 0a 3f
       -0.11076304 0.16675518 -0.0389203 0.53925496
0000b0 9f 59 61 be 86 65 6a bd dc f8 15 3d 1c d5 85 be
       -0.22006844 -0.057225727 0.036614284 -0.26139152
0000c0 69 ce 41 bd a5 0f be be b5 a0 a1 be 61 80 10 be
       -0.04731599 -0.3712131 -0.31567922 -0.14111473
0000d0 7d 3e 56 3c 39 e7 36 3e 6a 8a dc bd 4b 9b ab 3e
       0.013076422 0.17861642 -0.10768588 0.33516917
0000e0 7d 4a 54 be c6 89 67 be 51 3c cc be 9c 8a 41 3d
       -0.2073154 -0.2261115 -0.39889768 0.04725133
0000f0 e7 93 b8 be 74 8d 40 3e 83 26 06 3d b5 e9 1f be
       -0.3605034 0.1880396 0.03275157 -0.15616496
000100 44 a5 90 3c 1a 03 83 be 7e 93 10 be b7 82 8d bd
       0.01765693 -0.25588304 -0.14118764 -0.069096975
000110 2a 94 76 3e 2b e1 c2 3e 3c 9c 9e be 9e 1e c4 3e
       0.24079958 0.38062415 -0.30978572 0.3830461
000120 d3 c6 9d be 0f a4 d1 bd 05 ec e8 3e 00 91 db be
       -0.30815753 -0.1023637 0.4549257 -0.42884064
000130 3e b5 88 3d b9 b8 8c 3e 1d ab 35 be 9d 12 a1 bb
       0.06675194 0.27484682 -0.17741056 -0.004915549
000140 38 84 fd bd 88 2a e7 3e 28 f0 31 3d 85 6d 30 be
       -0.12378734 0.45149636 0.04344192 -0.17229278
000150 ae e9 fb 3d 93 31 d6 3c ae 66 a4 3e 77 25 90 3e
       0.1230043 0.026146686 0.32109588 0.28153583
000160 a8 85 82 bd 6d 7e 4c bd ef 80 7c be a6 57 a9 3d
       -0.06373149 -0.049925257 -0.2465856 0.08268671
000170 f9 51 af be d4 bd 07 be fd c4 40 3c 81 2a be be
       -0.34242228 -0.13256007 0.011765716 -0.37141803
000180 e6 e7 02 bf a2 5a 35 3e 01 ca 14 3d 54 65 83 be
       -0.511351 0.17710355 0.03632546 -0.25663245
000190 9e 47 a8 bd 82 9e 66 3e cf 8f 82 bd b8 01 2a be
       -0.08216785 0.22521403 -0.063750856 -0.16602218
0001a0 5a 04 0f 3c d7 1f fd 3e 47 f8 0f be 1f ad 04 bd
       0.008729065 0.49438354 -0.14059554 -0.032391664

gru_cp_fw.gru_cell.bias_ih f4 [18]
000000 73 48 b4 3e 72 11 89 3e 21 e2 9c be 86 18 87 bc
       0.35211524 0.26771122 -0.30641273 -0.016491186
000010 56 27 4d bc 53 5f af be ed df 13 3e dd 48 a5 3e
       -0.012521585 -0.34252414 0.1444089 0.32282153
000020 73 00 a0 3e 33 05 57 be 1c db 65 3e 89 3c 44 3b
       0.31250343 -0.20998077 0.22446865 0.0029943308
000030 49 94 9f bd 60 c4 a7 3d 17 8b 77 be 85 bf 62 3d
       -0.07791955 0.081917524 -0.24174152 0.05535843
000040 c0 90 14 be 19 df b2 bc
       -0.14508343 -0.021834897

gru_cp_fw.gru_cell.bias_hh f4 [18]
000000 a4 11 11 3d 1f fc 3c 3e c5 0c 14 bd a4 8d c3 bd
       0.035417214 0.18455552 -0.03614499 -0.095485
000010 d6 da cd be 30 f1 81 be 83 83 7d 3d c8 14 81 3e
       -0.4020602 -0.25379324 0.061892997 0.25211167
000020 c6 6d 51 be 21 0a aa be 2d 81 16 3e 14 0c 9e 3c
       -0.20452031 -0.33210853 0.14697714 0.019292869
000030 0a d4 b0 3d 76 65 d4 bc 30 bf a2 3e b5 09 11 3d
       0.08634193 -0.025927287 0.3178649 0.035409648
000040 e2 08 e3 3c bb 47 af 3e
       0.027714197 0.34234414

gru_cp_fw.ode_net.odeblock.odefunc.fc1.weight f4 [6, 6]
000000 ff 71 82 be e5 38 81 3e 0e 43 76 3d 9f 91 ba 3e
       -0.25477597 0.2523872 0.060122542 0.36439225
000010 8e cb 1c be 8b e5 7d be 4b 2c 55 3e a9 59 0f be
       -0.15312025 -0.24794595 0.20817678 -0.13999046
000020 37 1e 72 be 8f 38 2b 3e 56 5e c8 3e 7f e6 bc be
       -0.23644339 0.16720794 0.39134473 -0.36894605
000030 4a 5f 91 be ca de 65 3e e4 c5 12 bf ee 40 9d 3e
       -0.28393012 0.22448269 -0.5733321 0.307136
000040 58 b6 81 3d 9c 75 89 bd bd fe 45 3e cc 3d 72 3e
       0.063336074 -0.06711885 0.19335456 0.23656386
000050 90 6b d0 3e 77 52 13 bd b5 e4 b5 3e 30 7e 2c 3e
       0.40707064 -0.035967316 0.35526052 0.16845012
000060 3e d3 82 be 68 f0 56 3d 21 57 84 3e 14 8d 06 3f
       -0.2555179 0.052475363 0.25847724 0.5255902
000070 a4 fd ae bd f4 7f 2d be b8 4b 0f bf e6 40 01 3f
       -0.08544472 -0.16943341 -0.5597491 0.5048965
000080 28 f0 39 3e 29 74 35 3f 10 4c 9e 3d ff c0 ad bd
       0.18158019 0.7088037 0.077293515 -0.08484077

gru_cp_fw.ode_net.odeblock.odefunc.fc1.bias f4 [6]
000000 73 33 04 3f 36 91 3f bd a7 c9 d6 3e 80 13 8c 3e
       0.51641005 -0.046769343 0.41950724 0.27358627
000010 98 c7 58 3e 02 04 8e 3e
       0.21169889 0.27737433

gru_cp_fw.ode_net.odeblock.odefunc.fc2.weight f4 [6, 6]
000000 cd 6a 0e 3f c5 f0 a0 3e 3c 10 24 3f 55 b2 4b 3d
       0.55631715 0.31433693 0.6408727 0.049730618
000010 0e 8e a3 3e fb b5 19 3f 70 16 b9 3e c6 e5 c5 3e
       0.31944317 0.60043305 0.3614993 0.38651866
000020 84 bd 43 3f cd 2b 85 3e b4 61 06 3f 8c 88 a4 3e
       0.7646105 0.2600998 0.52492833 0.32135427
000030 dd c6 65 3e b4 26 c9 3d 4d 6e da 3e 0d 99 f8 3e
       0.22439142 0.09821835 0.42662278 0.48554268
000040 a5 92 55 bd ee 7a 3e 3e 4a 77 57 be 0f 74 63 bc
       -0.052141804 0.18601581 -0.21041599 -0.013882651
000050 12 ae f4 3e ee 13 89 3e 17 a2 8a be 47 0b ff bd
       0.47789055 0.26773018 -0.2707679 -0.12453323
000060 86 88 11 3f a1 21 ab 3c 24 31 44 3f 6e 60 a9 3e
       0.56848943 0.020890059 0.7663748 0.33081383
000070 55 68 8d 3c 59 06 a4 3e e8 af 68 3e 65 1f ff bc
       0.017261663 0.32036093 0.22723353 -0.0311429
000080 6c b0 f7 3e 7b f8 18 3e 80 56 3d 3e 33 a8 04 3e
       0.48376787 0.14938538 0.18490028 0.12954788

gru_cp_fw.ode_net.odeblock.odefunc.fc2.bias f4 [6]
000000 df 34 12 3f ae 8a 05 3f fd db 6d be 6b 6c 1c be
       0.57111925 0.52164733 -0.2322845 -0.15275733
000010 d5 dd 9d 3e 7b ce 01 3f
       0.30833307 0.5070569

gru_cp_fw.ode_net.odeblock.odefunc.fc3.weight f4 [6, 6]
000000 70 b1 62 be 3c e6 5c bf 06 ce 77 bd 59 f1 73 be
       -0.22138 -0.8628881 -0.060499214 -0.23822536
000010 90 f0 63 bf 99 d8 b4 bd b4 8c 21 3f 4e f4 3d 3e
       -0.89038944 -0.08830375 0.6310532 0.18550226
000020 86 ea 76 3d e7 3c 2b 3f 58 c2 a6 3e af ad 5b 3d
       0.060282253 0.66889805 0.32570148 0.053632434
000030 ce d6 45 bf a3 2e 28 bf 19 2a b7 be 27 68 1c bd
       -0.7728089 -0.6569616 -0.35774305 -0.038185265
000040 3d 5b 0c bd f4 c7 21 bf 0f aa fd 3e dc 0d 20 3f
       -0.0342667 -0.6319573 0.49543807 0.6252115
000050 9a 25 18 3f 9a a0 90 3e 19 2c 3f 3f b3 7f 26 3e
       0.59432375 0.2824753 0.7467666 0.16259651
000060 38 eb 09 3e ae 49 ec bc 84 18 80 3e 1c 7c f0 3e
       0.13468635 -0.028843727 0.25018704 0.46969688
000070 ad a3 1a 3f 15 f7 ab 3c e8 76 8c 3d 0a a5 3c be
       0.60406 0.020991841 0.06858617 -0.18422332
000080 69 1f 81 bc 44 55 f8 be c9 cd 0e be c9 63 5a 3e
       -0.015762048 -0.48502553 -0.13945688 0.21327128

gru_cp_fw.ode_net.odeblock.odefunc.fc3.bias f4 [6]
000000 26 36 cb be 82 6b 05 3c 2b 92 ec bd c9 0e 3c 3f
       -0.3968975 0.008143308 -0.11551317 0.7346006
000010 64 de 85 bd 53 04 6c 3e
       -0.06536558 0.23048525

gru_dp_bw.decays f4 [7]
000000 70 ec 9a 9e be 7f 00 00 a0 ee 4a 06 00 00 00 00
       -1.6403172e-20 4.5825e-41 3.816729e-35 0.0
000010 65 3d 31 32 33 29 0a 20 20 20 20 20
       1.03167155e-08 1.1702686e-19 1.3563156e-19

gru_dp_bw.gru_cell.weight_ih f4 [21, 7]
000000 57 b0 09 3e ec e8 88 be 77 eb 45 be f7 62 87 be
       0.13446175 -0.26740205 -0.19328104 -0.26442692
000010 4b f8 e8 3d e6 37 0a 3b c7 59 14 3f 03 e0 a0 3d
       0.11375483 0.0021090447 0.5794949 0.07855227
000020 20 5c cb bd 23 2d ef 3e ec cb 25 be 04 47 72 be
       -0.09929681 0.46714124 -0.16191071 -0.23659903
000030 1f e6 ee 3c d2 bb 7d be e2 ff 36 3d ec 2d 8d b9
       0.029162465 -0.24778679 0.044677623 -0.0002692783
000040 a6 3d 39 bd 5a 0a e6 3e 78 02 6a 3d c2 8b 8c 3e
       -0.04522481 0.44929773 0.05713126 0.27450377
000050 6c 97 c6 3e de e2 6f 3e 2f e5 5d 3e c1 61 ab be
       0.387874 0.23426387 0.21669458 -0.33473018
000060 f0 c8 f2 3c e5 a9 ef bd 57 b1 ed 3e 67 f8 4a 3e
       0.02963683 -0.11702327 0.46424362 0.1982132
000070 ec 36 a3 3e 3d 28 d5 3d 7c ba 3e be 4f 8f 7f 3e
       0.3187784 0.104080655 -0.18625826 0.24957012
000080 71 ce 81 be 72 c3 55 be 6c a9 94 3e 8d ec 81 3e
       -0.25352815 -0.20875338 0.2903551 0.25375786
000090 d9 eb 8e 3e a4 06 04 bf 4d c9 11 3c f5 e1 b4 be
       0.27914312 -0.5157263 0.0088980915 -0.35328642
0000a0 d1 8c c1 bd a5 01 3f bd 5b 07 98 3e ac d7 d8 3e
       -0.09450687 -0.046632428 0.29693112 0.42352045
0000b0 e6 fd c2 3e c8 43 e3 3d 9c bd 00 3f 4a 12 72 3d
       0.38084334 0.110969126 0.5028932 0.059099473
0000c0 68 e9 d6 3e c5 0e fa bd 6e 72 b2 3e 30 cb 5f bc
       0.4197495 -0.12209848 0.34852928 -0.0136592835
0000d0 04 f6 06 3f 1d 5f 3e 3e c8 80 fa bd 67 5e 72 3e
       0.5271914 0.1859097 -0.12231594 0.23668824
0000e0 dc 5c f1 3d 23 3c 87 3e 59 26 39 3d 32 81 f0 3e
       0.1178529 0.26413068 0.045202587 0.46973568
0000f0 30 bf 26 bc dc 2f 31 be 1b 8e 5b 3e d8 c4 99 3e
       -0.010177419 -0.17303413 0.21440928 0.30032992
000100 c7 84 e0 bd ff 82 dc 3d d1 23 86 be bd d8 0f bf
       -0.10962825 0.10767173 -0.261992 -0.5619009
000110 48 e5 93 be d0 8c 38 be 70 03 47 be f2 86 e6 be
       -0.28885865 -0.18022466 -0.19434905 -0.4502483
000120 3f 85 c5 3e 79 63 20 be e0 f5 1e 3e e4 0e d1 3d
       0.3857822 -0.15662946 0.15523481 0.10207918
000130 85 d1 8d be d0 55 02 bf 0d 88 f6 be 73 f1 9c 3e
       -0.27698913 -0.5091219 -0.48150674 0.3065296
000140 de 8b fa 3e a1 5c 5a 3c 58 f2 c1 bd b6 30 0e 3e
       0.48934835 0.0133277485 -0.094700515 0.13885769
000150 9f 79 30 be fe b3 10 3e 60 c0 a1 3e ca 4e b8 be
       -0.17233895 0.14131162 0.31592083 -0.3599761
000160 21 76 3c be 5a 6b 9b be fc aa a0 bd 47 af c0 bc
       -0.18404438 -0.3035534 -0.07845113 -0.023521079
000170 e3 af 57 3e 11 6e 85 bd 98 83 dc be e0 e6 c5 3e
       0.21063189 -0.06515134 -0.43069148 0.38652706
000180 28 5b 97 bc 00 40 e4 3e 40 d9 0c 3e c9 37 ab 3e
       -0.018476084 0.44580078 0.1375475 0.33440998
000190 a0 16 d2 bd 2d 13 95 3e 67 10 49 3e 9a 54 42 3e
       -0.102582216 0.29116192 0.19635163 0.18977585
0001a0 f2 19 1d 3e 11 bb f2 3c bb 99 cc 3d 88 00 76 be
       0.15341929 0.029630216 0.09990259 -0.2402364
0001b0 4f 68 96 3e ed e9 75 bd 54 9e 41 3e 13 ce b1 3e
       0.29376456 -0.060037542 0.18908054 0.34727535
0001c0 ff e5 6e 3e e4 2b ba 3c 8a 65 89 be ec 1b 61 be
       0.23329924 0.022726007 -0.2683528 -0.21983308
0001d0 14 7a 6d be 9b 6d d4 be e6 1d c2 bb c8 9d c2 3e
       -0.231911 -0.41489872 -0.0059239743 0.38011003
0001e0 f1 49 fe 3e 4e bf aa be a5 54 74 be 05 01 08 3e
       0.49665788 -0.3334908 -0.23860414 0.13281639
0001f0 a5 ae a3 be c7 b7 50 3e 22 5f 48 3e 02 d0 c8 3d
       -0.3196918 0.20382605 0.1956754 0.09805299
000200 17 61 f9 be 4a d0 82 be 2a ec 0b be d2 11 24 3d
       -0.48706886 -0.25549537 -0.13664308 0.040056057
000210 a4 8c 7a bc 5d a2 f7 bd 0c d7 f9 be a0 bf db be
       -0.01529232 -0.12091515 -0.4879688 -0.42919636
000220 29 13 6f 3e 63 a2 b3 bd e6 0f d3 bd 44 ee 73 3d
       0.23347153 -0.08771207 -0.10305767 0.0595534
000230 b9 f1 7d 3d fd 36 c5 3e 80 23 49 bd 79 15 00 bf
       0.061998103 0.38518515 -0.04910612 -0.50032765
000240 32 74 80 3e 7d 27 a5 3e a6 18 03 3e
       0.2508865 0.3225669 0.12802371

gru_dp_bw.gru_cell.weight_hh f4 [21, 7]
000000 04 ff f9 bd bd 63 f0 3e d3 a6 89 3e 61 15 58 be
       -0.122068435 0.46951094 0.2688509 -0.21101905
000010 d9 ef ce bd c9 ee 35 be ff ee 12 be 9e 8e 89 be
       -0.10104341 -0.1776687 -0.14348982 -0.2686662
000020 37 cd 95 3d 6d cf a9 3d ea 15 9f be cc 65 43 bd
       0.07314532 0.082915165 -0.31071407 -0.047704503
000030 4f ea 29 be a5 2d f2 be ed a3 59 be a1 70 e7 bc
       -0.16593288 -0.4730045 -0.21253939 -0.028251948
000040 3c 98 19 3e b0 e7 f8 be c4 87 e3 be 75 1c f6 be
       0.14999479 -0.48614264 -0.44439518 -0.48068586
000050 b5 a8 4f be ae 63 ce bd 06 ef 58 3d 17 9f 6b 3e
       -0.202792 -0.10077606 0.052962326 0.23009907
000060 46 d0 c4 be ad 43 69 bd 74 06 bf bd 82 87 82 be
       -0.3844015 -0.056949306 -0.09327403 -0.2549401
000070 17 cc 94 3e 51 83 37 bd c0 95 17 3f 8c 0a 11 be
       0.29061958 -0.044802967 0.59212875 -0.1416418
000080 d8 63 78 3c a6 ac 8b be d2 0e a1 be 3c 43 69 bd
       0.015160523 -0.27280158 -0.3145662 -0.056948885
000090 3d 27 20 3f 27 59 72 3d b5 3d ae be 70 ed 0f be
       0.6255987 0.059167054 -0.34031454 -0.14055419
0000a0 0c d8 2a be dc 98 ba 3d 0c 50 18 be c4 67 fd bd
       -0.16683978 0.09111187 -0.14874285 -0.12373307
0000b0 c6 48 d2 bc 81 9e a5 3c f3 9a 44 3c f3 66 a4 be
       -0.025669467 0.020217182 0.011999833 -0.32109794
0000c0 a5 03 00 3e c5 d6 8f 3e d9 cb b0 3e e7 a8 3c be
       0.1250139 0.28093544 0.34530523 -0.18423806
0000d0 2e 51 81 bd 1b 0e 8e be a0 3a ba bd ae d3 4f be
       -0.06314312 -0.27745137 -0.09093213 -0.20295593
0000e0 61 df db 3e 7b 94 26 be b1 b9 95 3e 70 dd 45 3e
       0.42943862 -0.16267578 0.29243234 0.19322753
0000f0 7a e8 65 be f8 6b ef be a6 5e 02 3f a3 68 f4 3d
       -0.22451964 -0.4676206 0.5092567 0.1193402
000100 ed ea c8 3d c6 08 d1 be 3a 3f 9d bd fd 1a d1 bc
       0.098104335 -0.40827006 -0.07678075 -0.025525564
000110 88 6b e1 bd 1b fb 46 3e 78 c9 9f 3e f0 19 45 be
       -0.11006838 0.19431727 0.31208396 -0.19248176
000120 1c 8b 8c 3d 1e e9 9c 3e 68 4e cd be 62 01 fa be
       0.068624705 0.30646604 -0.40098882 -0.4882918
000130 70 db a6 3c 4d 71 a2 3e 63 9f df 3e b1 fe 5e 3e
       0.020368308 0.31727067 0.4367629 0.21776845
000140 16 ed 65 3e bd 1f 7e 3d bf a9 58 be 41 35 a4 3e
       0.22453722 0.062041987 -0.21158503 0.3207188
000150 09 4e 6e be 54 f4 c5 3e 28 2a 7b 3e 87 17 ef be
       -0.23271956 0.3866297 0.245278 -0.46697637
000160 97 af 70 bd 07 92 cf bd 7a 68 d9 bc 9f c2 41 3e
       -0.058761206 -0.101352744 -0.026539076 0.18921898
000170 d6 d5 0a 3e 25 c3 e3 3e be 19 8c be 2c fc ae be
       0.13558134 0.4448482 -0.2736339 -0.34176767
000180 ab 84 8f 3d a7 b5 c0 be 39 85 0c 3f df 69 da bd
       0.07007726 -0.3763859 0.5489078 -0.106647246
000190 18 d6 75 bd 97 02 0a bf 37 37 9f be 5a a3 21 bf
       -0.06001863 -0.539102 -0.31096813 -0.6313988
0001a0 7b 2d eb 3e 75 64 d6 3e 2d 4d 1f 3d b6 54 ac 3e
       0.45933136 0.41873518 0.03889196 0.3365838
0001b0 49 6b b1 3e 56 6a 19 bf c1 7e 1e bf f2 f1 c1 3e
       0.34652165 -0.5992788 -0.6191216 0.37879902
0001c0 4b e1 08 3f 1e da d5 3e a6 3b 66 be 29 8d 13 be
       0.5346877 0.41767973 -0.22483692 -0.14409317
0001d0 03 0a a3 be 07 3f 5a be e1 c8 c5 3e 93 f0 20 be
       -0.31843576 -0.21313106 0.3862982 -0.15716772
0001e0 96 95 e1 3d 1d 82 d1 be 8c f2 91 3c 5b b6 92 3e
       0.110148594 -0.4091958 0.01781585 0.2865475
0001f0 20 23 0e 3e ad 83 ea be 4e 33 aa bd 27 24 d2 bd
       0.13880587 -0.45803586 -0.08310567 -0.10260802
000200 a3 db 57 3e 92 ed 05 3e 4b 1b 04 3f 21 36 27 3f
       0.21079879 0.13078907 0.51604146 0.6531697
000210 52 2e b7 be 3c cb 9e be 5f 82 49 be f5 8b 2c be
       -0.35777527 -0.3101443 -0.19678639 -0.16850264
000220 ef 32 e0 3e 8d 62 00 3f 13 26 fd 3e 0c e3 b3 be
       0.4378886 0.50150377 0.4944311 -0.3513416
000230 4b fe f9 3d 18 3d 6b be 5f eb 3d 3e 1c d9 14 be
       0.12206706 -0.22972524 0.18546818 -0.14535946
000240 3d 7a 89 be 4f 0c 1c be a4 b4 e2 3e
       -0.26851073 -0.1523907 0.44278443

gru_dp_bw.gru_cell.bias_ih f4 [21]
000000 8e 14 b2 bd 4a 5b 5e 3e b4 c6 41 3e 42 1e 05 be
       -0.08695327 0.21714512 0.18923455 -0.12999824
000010 33 7f 0a 3f 3f 3e a9 3c 3f 5b c3 bd 8b ad e3 3e
       0.5410034 0.020659564 -0.09538888 0.4446834
000020 4e 8a 79 be 41 40 30 3e 48 ed c0 3e fd 92 b2 3e
       -0.24369165 0.17212011 0.3768103 0.34877768
000030 25 2e f6 3d 5b 7f f3 3d 87 62 17 3e 51 18 80 3e
       0.1202052 0.118895255 0.14783679 0.25018552
000040 5b e9 1f 3d 39 d0 93 be 7c 29 51 bd 85 62 15 be
       0.039040904 -0.288698 -0.051064953 -0.14588363
000050 2b cb 60 bc
       -0.013720314

gru_dp_bw.gru_cell.bias_hh f4 [21]
000000 27 41 e5 3e a5 b3 ed 3d 1b 58 c8 3c d9 08 95 3e
       0.4477627 0.1160653 0.024456074 0.29108313
000010 bd f5 15 3f 49 e3 07 3f 5c 68 9f bd 4d 9b 8a 3d
       0.5857809 0.53081185 -0.07783577 0.067679025
000020 bc 08 e2 3d f6 61 99 3e 53 1f 69 bd a6 0f 8c 3e
       0.11036822 0.2995755 -0.05691464 0.2735569
000030 c8 0d d3 bc 61 1e a8 3e 51 0c 8a be b7 65 62 3d
       -0.025763407 0.32835677 -0.26962522 0.055272784
000040 50 ae 42 3e 99 97 81 3e 97 ad c9 3d 4b 2d 4f 3e
       0.19011807 0.25310972 0.09847563 0.20232122
000050 09 10 5b bd
       -0.05348209

gru_dp_bw.ode_net.odeblock.odefunc.fc1.weight f4 [7, 7]
000000 14 35 4b bd 77 3a 89 3e 26 49 f6 3d 74 ca 6d 3d
       -0.049611166 0.26802418 0.12025671 0.058054402
000010 ef 25 77 be 3f e7 ac be 82 7a 8a 3e 35 dc a5 bd
       -0.24135564 -0.33770177 0.2704659 -0.08098642
000020 29 50 36 3e 01 16 b8 be 5b 92 3e bd 3e da 97 be
       0.17804016 -0.35954288 -0.046526294 -0.29658693
000030 00 31 91 3e 2a 29 c9 3c b7 3e ae 3d 0a 60 9c be
       0.28357697 0.024555761 0.08508056 -0.30542022
000040 8c 16 39 3e 53 24 fa bd 53 b7 25 3d 77 f1 ac 3e
       0.18075007 -0.122139595 0.040458035 0.33777973
000050 c7 74 17 3d 4a 25 c8 3e bf be b6 3e a0 a0 85 be
       0.036976602 0.3909095 0.35692403 -0.2609911
000060 40 69 aa be ad 46 36 be 25 a3 69 bd 69 71 87 be
       -0.33283424 -0.17800398 -0.057040352 -0.26453713
000070 51 1c c4 3e f1 a6 08 be c5 55 a0 3d 86 b0 b1 3e
       0.38302854 -0.13344933 0.07828859 0.3470499
000080 96 46 2f 3e b2 4c 2b 3e 36 66 3c 3e c1 00 9c 3e
       0.1711677 0.16728476 0.18398365 0.30469325
000090 82 64 66 be 2e 83 13 3e 4d ed 2e 3e 23 9c b3 3e
       -0.22499278 0.1440551 0.1708271 0.3508006
0000a0 19 5d 1e be 27 b7 61 3e 88 06 c1 be 84 f8 1f 3e
       -0.15465201 0.22042523 -0.37700295 0.15622145
0000b0 6e 03 bf 3e be 98 86 be b8 3f a9 3c 6e 2d 99 3e
       0.37307304 -0.26288408 0.020660266 0.29917473
0000c0 03 7c 5c 3d
       0.053829204

gru_dp_bw.ode_net.odeblock.odefunc.fc1.bias f4 [7]
000000 32 93 fb bd 31 3a 38 3e 66 af 93 3e e0 fb b9 3e
       -0.12283935 0.17990948 0.28844756 0.36324978
000010 83 17 6f be 4a f9 a4 be 51 bb b5 3d
       -0.23348813 -0.32221442 0.088736184

gru_dp_bw.ode_net.odeblock.odefunc.fc2.weight f4 [7, 7]
000000 4d a3 8d be 47 a3 cd 3e ac 38 a9 3e ab 33 2f be
       -0.2766365 0.40163633 0.3305105 -0.17109554
000010 0e e6 ee bd 73 a3 64 be c3 83 a6 3e e9 b5 66 be
       -0.11664973 -0.22327976 0.325224 -0.2253033
000020 2e 15 c1 3d 20 92 97 be 60 de 38 3d c3 4e 9e 3c
       0.09427868 -0.29603672 0.04513395 0.019324666
000030 5d 0f 4d be 2d e0 0f 3d a2 f2 53 be fb a4 89 bd
       -0.20025392 0.0351259 -0.20698026 -0.06720921
000040 7f 46 b6 3e 54 2f 92 3e d6 ed a6 be ab 16 fd 3b
       0.3560066 0.28551733 -0.3260333 0.0077236495
000050 d2 3d 2e 3d 49 e0 3a be c5 f9 cc 3d 05 29 3a be
       0.042539425 -0.1824962 0.10008577 -0.1817971
000060 76 11 88 be 80 df 21 3e f1 c4 15 3e 14 09 bb 3d
       -0.26575822 0.15807915 0.14625908 0.09132591
000070 af ca 4b 3e aa 4f d6 be 5f 0d 18 be 4c aa 1e be
       0.19901536 -0.41857654 -0.1484885 -0.1549465
000080 08 92 5e be bf 8a 86 bd af fa f4 be 75 01 9b 3e
       -0.21735394 -0.065694325 -0.47847506 0.3027455
000090 58 22 7b 3e 10 e8 81 be 3c dc 88 3d e3 eb 8e 3b
       0.2452482 -0.25372362 0.066826314 0.004361616
0000a0 b6 22 be 3e 87 d2 72 3e a5 57 2f bd 55 d3 82 be
       0.37135857 0.23713122 -0.042808194 -0.2555186
0000b0 7e 56 c1 3e 46 ff 9e be a3 22 81 3b 99 57 aa 3d
       0.377613 -0.31054133 0.0039408966 0.08317489
0000c0 c9 11 92 be
       -0.28529194

gru_dp_bw.ode_net.odeblock.odefunc.fc2.bias f4 [7]
000000 8b 79 6f 3e bc 20 97 bb 09 dc a7 3e 3e e7 c3 3d
       0.23386209 -0.0046120565 0.3278506 0.0956559
000010 96 ef 74 bd a3 97 3c be 94 7a 4c be
       -0.0597988 -0.1841722 -0.19968635
