base_models/ode_attention/final_model.pt (torch, 107783 bytes, 23 tensors)

embed_dp.weight f4 [1292, 13]
0	0x00000000	0.0
1	0x00000000	0.0
2	0x00000000	0.0
3	0x00000000	0.0
4	0x00000000	0.0
5	0x00000000	0.0
6	0x00000000	0.0
7	0x00000000	0.0
8	0x00000000	0.0
9	0x00000000	0.0
10	0x00000000	0.0
11	0x00000000	0.0
12	0x00000000	0.0
13	0xbfb6a82a	-1.427007
14	0xc032b837	-2.7924936
15	0x3e5b0b38	0.21390998
16	0xbe5aefda	-0.21380559
17	0x3f02c9b0	0.51089
18	0xbe181704	-0.1485253
19	0x3ee7e6e5	0.45293346
20	0x3fb7c214	1.4356103
21	0x3f8e47e2	1.1115687
22	0xbf1be709	-0.60899407
23	0x3f5a6f6c	0.85326266
24	0x3f6c46c3	0.92295474
25	0x3f9908c6	1.1955802
26	0x3f9469c1	1.1594774
27	0x3ef43b3b	0.4770144
28	0x3edcb447	0.4310629
29	0xbe87b641	-0.26506236
30	0x3e0f5564	0.13997418
31	0xbf348199	-0.7051025
32	0xbea28291	-0.3174024
33	0xbefe0cc8	-0.49619126
34	0x3dd9178f	0.106001966
35	0xbf68331e	-0.90703
36	0xbf9fb9de	-1.2478597
37	0x3d375cbb	0.04476617
38	0xbf132a2f	-0.5748624
39	0x3e5ccac3	0.21561722
40	0xbfb104b3	-1.3829559
41	0x3d05d99d	0.032678235
42	0xbf027f66	-0.50975645
43	0xbf16efcb	-0.58959645
44	0x3ebb06a2	0.36528498
45	0x4013a360	2.3068466
46	0xbf18ac3f	-0.59637827
47	0x3fbbabe5	1.4661833
48	0xbfe35448	-1.7760096
49	0x3ea76854	0.32696784
50	0x3f890f77	1.0707844
51	0x3f343bc0	0.7040367
52	0xbf228e86	-0.63498724
53	0x3da74e0e	0.081691846
54	0x3faa6ae3	1.3313869
55	0x3f3010ab	0.68775433
56	0x3f895d77	1.0731648
57	0xbcbbe1d7	-0.022934837
58	0xbf73e0eb	-0.9526507
59	0xbe1a7294	-0.1508277
60	0xbfdedbdf	-1.7410849
61	0x3f18bca2	0.5966283
62	0xba9da7d1	-0.0012028163
63	0xc020218d	-2.5020478
64	0xbe061cc1	-0.13096906
65	0xbfdb1bab	-1.7117819
66	0x3f3d8273	0.74027175
67	0x3f138134	0.57619023
68	0x3edd8bee	0.4327082
69	0x4009a195	2.1504872
70	0xbe0db14b	-0.13837163
71	0xbf667cec	-0.90034366
72	0x3d3c11c9	0.0459154
73	0x3f87cb4a	1.0608914
74	0xbee8106b	-0.45325026
75	0xbf3d17c4	-0.7386439
76	0x3eecfb24	0.46285355
77	0xbf6e0eb5	-0.9299119
78	0x3e907ab7	0.28218624
79	0x3e355064	0.17706448
80	0xbf43ada4	-0.7643683
81	0xbf37941b	-0.71710366
82	0xbde627d9	-0.11238069
83	0xbf8a0095	-1.0781428
84	0xbe7ba7be	-0.24575707
85	0xc023eb14	-2.561223
86	0x3ff93727	1.9469956
87	0xbf0a6f05	-0.5407565
88	0xbfb8f800	-1.4450684
89	0xbe8028e2	-0.2503119
90	0x3e37d245	0.17951305
91	0xbe92e31e	-0.28688902
92	0xbfb48d5c	-1.410564
93	0xbf62098b	-0.8829581
94	0x3e26d6eb	0.16292922
95	0xbfd5fd7e	-1.6717985
96	0x3f2b8dff	0.67013544
97	0xbea7c799	-0.32769468
98	0x3fb7436f	1.4317454
99	0x3f2b5e18	0.6694045
100	0x3d9a7879	0.075425096
101	0xbe7e83db	-0.24854986
102	0x3fc02db9	1.5013953
103	0x3fd20aeb	1.6409582
104	0xc02fb144	-2.7451944
105	0xbf6f22f1	-0.9341269
106	0xbe80a1ea	-0.2512353
107	0x3dce15d4	0.10062757
108	0x3f983602	1.1891482
109	0xbfa2d7d0	-1.2722111
110	0xbe907279	-0.28212336
111	0x40106393	2.2560775
112	0x3f550855	0.8321584
113	0xbf7d2429	-0.988833
114	0x3d6e873b	0.058234435
115	0xbe8c91e8	-0.27455068
116	0xbee9864f	-0.45610282
117	0xbf1f19fe	-0.62149036
118	0x3e4b87c1	0.19876005
119	0x3f59b3e8	0.8504014
120	0xbfb05239	-1.3775092
121	0x3f4ea766	0.8072418
122	0xbfe6d550	-1.8033848
123	0xbf4a2f4b	-0.78978413
124	0x3ec26fff	0.3797607
125	0x3e08150b	0.13289277
126	0x3f91f9eb	1.1404394
127	0xc011cdf7	-2.278196
128	0x3e70fb42	0.23533347
129	0x3e1c391f	0.15256165
130	0x3f53b90b	0.8270423
131	0x3ff03c4f	1.8768405
132	0xbfbeb2a7	-1.489827
133	0xbe3e7631	-0.18599774
134	0x3fcf9d84	1.6219945
135	0xbd10e2be	-0.03537249
136	0x3e4a890a	0.19778839
137	0xbf4cff96	-0.80077493
138	0x3ff6eef5	1.9291674
139	0x3ef36c03	0.47543344
140	0x3f5cf5fb	0.86312836
141	0xbf571cf0	-0.8402853
142	0xbfdc9277	-1.7232198
143	0xbd361268	-0.044451147
144	0xbf714070	-0.9423895
145	0x3e8146a7	0.25249216
146	0x3f9b0700	1.2111511
147	0xbf3a3a9b	-0.72745675
148	0x4004e298	2.0763302
149	0x3fa52269	1.2901126
150	0x3e9cc545	0.30619255
151	0xc00b4752	-2.176228
152	0xbe8a6af4	-0.27034724
153	0x3f81d37b	1.0142664
154	0x3dc90978	0.09816259
155	0xbf84bda1	-1.037037
156	0xbec102ca	-0.3769744
157	0x3e936b95	0.28793016
158	0x3e174e3a	0.14775935
159	0xbf8efd72	-1.1171095
160	0xbdd3f5ec	-0.1034964
161	0xbf539409	-0.8264776
162	0x3fa282ea	1.2696202
163	0x3fd34a92	1.6507132
164	0x3f25b033	0.64721984
165	0xbd7f0b73	-0.06226678
166	0xbf2a0ddd	-0.66427404
167	0xbde41453	-0.11136689
168	0x3ef05599	0.46940306
169	0x3ec1ab66	0.3782608
170	0xbec32fc6	-0.38122386
171	0xbeaf89c3	-0.3428479
172	0xbef5b4c2	-0.4798947
173	0xbed4881b	-0.4151009
174	0xbf2c76e5	-0.6736892
175	0xbff4b3c3	-1.9117359
176	0xbd8b826f	-0.068119876
177	0xbeda33c2	-0.42617613
178	0xbf43fd5f	-0.7655849
179	0xbed1582b	-0.4088758
180	0xbf408d49	-0.75215584
181	0x3fc9f300	1.5777283
182	0x40139bff	2.3063962
183	0xbfc7f149	-1.5620509
184	0xbf61a875	-0.8814767
185	0x3fe99644	1.8248982
186	0x3fab28ad	1.3371788
187	0x3f9e2fac	1.2358298
188	0x3ecada28	0.39619565
189	0x3debae4d	0.115078546
190	0x3fe0ceb7	1.7563084
191	0xbf417852	-0.7557422
192	0xbf765f8f	-0.9623956
193	0xbf8acad9	-1.0843154
194	0x3f751ace	0.95744026
195	0xbefa74ff	-0.48917386
196	0xbe9553d6	-0.29165524
197	0xbebfb91d	-0.37445918
198	0xbfe85f26	-1.8154037
199	0xbf08bb11	-0.5341044
200	0xbfa64849	-1.299081
201	0x3f29b517	0.66291946
202	0x3eb06845	0.3445455
203	0x3f5609bd	0.8360861
204	0xbee5a1c6	-0.44849986
205	0xc0086456	-2.131124
206	0x3f8d1f2a	1.1025136
207	0x3dc13c27	0.09435301
208	0x3e717a7c	0.2358188
209	0x3fa343dd	1.2755085
210	0xbea88626	-0.32914847
211	0x3dd1e00a	0.1024781
212	0x3f6af2cf	0.91776747
213	0xbf0877bc	-0.533077
214	0xbe469260	-0.19391775
215	0x3e85ce87	0.2613413
216	0x3f884ce2	1.0648463
217	0xbebde493	-0.3708845
218	0x3da7c5e8	0.081920445
219	0xbcba2cfa	-0.022726525
220	0x3f1f7074	0.62280965
221	0x3ebc45ed	0.367721
222	0x3f8ef8ca	1.1169674
223	0x3e9fd652	0.312182
224	0x3dff615b	0.12469741
225	0xbfe2a051	-1.7705175
226	0x3f8fcd72	1.1234572
227	0xbe5f575e	-0.21810672
228	0xbead4d74	-0.33848155
229	0xbf143651	-0.5789538
230	0x3e5289e1	0.20560409
231	0xbeb9d687	-0.36296484
232	0xbf6ebdb5	-0.9325822
233	0xbe9b1166	-0.3028671
234	0xbf134504	-0.57527184
235	0xbf5c6c58	-0.8610282
236	0xbf60a9b1	-0.8775893
237	0x3fc30573	1.5236038
238	0xbdce4119	-0.1007101
239	0xbdc785d6	-0.09742324
240	0xbea3c777	-0.31988117
241	0x3e41e4d0	0.18934941
242	0xbc96103a	-0.018318284
243	0x3d6e09a0	0.058114648
244	0x3e6ffbba	0.2343587
245	0xbf9af4a3	-1.2105907
246	0x3f424f16	0.75901926
247	0xbf6dec9a	-0.9293915
248	0xbfa66feb	-1.3002905
249	0x3d81bc75	0.063347735
250	0x3e5f7a4b	0.21823995
251	0x3fa9e66f	1.3273448
252	0x3fb13685	1.3844763
253	0xbf5d1721	-0.86363417
254	0xbf1a0502	-0.6016389
255	0x3ecf8f06	0.40538806

embed_cp.weight f4 [620, 11]
0	0x00000000	0.0
1	0x00000000	0.0
2	0x00000000	0.0
3	0x00000000	0.0
4	0x00000000	0.0
5	0x00000000	0.0
6	0x00000000	0.0
7	0x00000000	0.0
8	0x00000000	0.0
9	0x00000000	0.0
10	0x00000000	0.0
11	0xbf05d341	-0.5227547
12	0x3fd9ef58	1.7026167
13	0x3f19c336	0.60063493
14	0x4002ee7b	2.0458057
15	0xbfe137c9	-1.7595149
16	0x3efec2f8	0.49758124
17	0xbd98a9fb	-0.07454296
18	0xbf11618f	-0.5678949
19	0xbe4f9442	-0.202714
20	0x3ea8c856	0.32965344
21	0x400f829b	2.2423465
22	0xbeb2ea49	-0.3494437
23	0x3e3dd268	0.18537295
24	0x400554a2	2.0832906
25	0x3ffdbc87	1.9823159
26	0x3ee66aef	0.4500346
27	0x3f686c20	0.90789986
28	0x3ebc86b7	0.3682153
29	0xbdd5d640	-0.104412556
30	0x3fda4805	1.7053229
31	0x3eb5f1f1	0.3553615
32	0xbd62c22f	-0.05536097
33	0x3f5e1eaf	0.8676557
34	0xbe3de4f7	-0.18544374
35	0x3f2f79f3	0.68545455
36	0x3e8d1a62	0.2755919
37	0x3f2f0bbe	0.6837729
38	0xbf228e9c	-0.63498855
39	0x3f676e34	0.9040253
40	0xbf03550e	-0.5130166
41	0xbfab6c15	-1.3392359
42	0x3f97b4ad	1.1852013
43	0xbe961282	-0.29310995
44	0xbef819f7	-0.4845731
45	0x3ee52fdd	0.4476308
46	0x3e009d8e	0.12560102
47	0xbf52f61e	-0.82406795
48	0xbe2d40ad	-0.16919203
49	0xbf3c2264	-0.73489976
50	0x3f75610d	0.9585121
51	0x3f1a0a1c	0.60171676
52	0x3f6fd3ea	0.9368273
53	0x3eb92dd5	0.3616778
54	0xbfa9da67	-1.3269776
55	0xbe0e957e	-0.13924214
56	0x3fe3e8b9	1.7805396
57	0xbf6396f2	-0.889022
58	0xbf533bff	-0.8251342
59	0xbfcd16c5	-1.6022574
60	0x3fd01b31	1.6258298
61	0x3f771c25	0.9652732
62	0xbef4f784	-0.4784509
63	0x4036a100	2.8535767
64	0xc0017c77	-2.0232217
65	0xc049437c	-3.144744
66	0x3eb985a0	0.3623476
67	0xbf093021	-0.53589064
68	0xbf6335bd	-0.88753873
69	0x3fdb58dd	1.7136494
70	0x3fcf0c9f	1.6175727
71	0x3db42bef	0.08797442
72	0x3f1e21f1	0.6177054
73	0x3fb4ac3a	1.4115059
74	0x3f559330	0.83427715
75	0xbf81d3c7	-1.0142754
76	0x3cff0eb9	0.03113495
77	0xbeecb589	-0.4623225
78	0xbe9cbf6c	-0.30614793
79	0xbf244d0e	-0.64180076
80	0xbcb53a84	-0.022122629
81	0x400e50f1	2.2236903
82	0x3f339bd6	0.7015966
83	0x3f06ec8f	0.5270471
84	0xbee588e6	-0.44831008
85	0x3fb56588	1.417161
86	0x3f8775d3	1.0582832
87	0xbf66ce78	-0.90158796
88	0xbe373c7e	-0.1789417
89	0x3f03c4b3	0.51472014
90	0x402d8ba9	2.7116492
91	0x3d33a08b	0.043854278
92	0xbefe5904	-0.4967729
93	0x3d0cf3e9	0.0344123
94	0x3ee1ade4	0.4407798
95	0x3f6a6cca	0.9157225
96	0x3ea1571b	0.3151177
97	0xbdd66775	-0.104689516
98	0xbf16be3b	-0.5888402
99	0x3e9296c8	0.28630662
100	0x3e2937bf	0.16525172
101	0xbf548006	-0.8300785
102	0x3f218ca7	0.63105243
103	0x3ec107e8	0.37701344
104	0x3ff6a351	1.926859
105	0x3e2b9ebf	0.16759776
106	0xbf8457f5	-1.0339342
107	0x3f947b5d	1.1600147
108	0x400adf51	2.1698802
109	0x3dc2f417	0.09519213
110	0xbf9ebf12	-1.240206
111	0x3e55ab2d	0.2086608
112	0x3f816ea9	1.0111896
113	0xbf95db5b	-1.1707567
114	0xbfcb8497	-1.5899838
115	0x3edc18c1	0.42987636
116	0xbfc22d40	-1.5170059
117	0xc022b015	-2.5419972
118	0x3f0ca7e7	0.549437
119	0xc002c8f8	-2.0435162
120	0xbddafc4f	-0.10692655
121	0xbf87c8b5	-1.0608126
122	0x3e327a93	0.17429571
123	0xc04d3761	-3.206505
124	0xc0458836	-3.0864387
125	0xbfc9ccd7	-1.5765637
126	0x3f73498e	0.9503411
127	0x3fd1a67c	1.6378932
128	0x3facc500	1.349762
129	0x3cc3d112	0.023903403
130	0x3e19a2cd	0.1500351
131	0x3f421912	0.75819504
132	0xbf79cc89	-0.9757772
133	0x3e79f0ac	0.24408215
134	0xbeb3dac9	-0.35127857
135	0xbfcd4402	-1.6036379
136	0x3f39ad3e	0.7252997
137	0x3f11b3e3	0.5691511
138	0xbf6ef19d	-0.9333742
139	0xbea346bb	-0.318899
140	0xbfd2bc66	-1.6463745
141	0x400b3963	2.1753776
142	0x3d6e50f2	0.058182664
143	0xbd5d3e67	-0.05401459
144	0x3f987937	1.1911992
145	0xbe2c18a0	-0.16806269
146	0x3ea96601	0.33085635
147	0x3fa56299	1.2920715
148	0xbf98d83a	-1.1940987
149	0xbecae72b	-0.39629492
150	0x3f9d842b	1.230596
151	0xbf1701a9	-0.5898691
152	0xbf04a2df	-0.5181102
153	0xbf932ed5	-1.1498667
154	0x3fdfb57d	1.7477261
155	0x3f3e4175	0.7431863
156	0xbe0a2146	-0.13489255
157	0x3f1e1476	0.6174997
158	0x3e236d63	0.15959696
159	0x3f304e21	0.68869215
160	0xbf25d0d6	-0.64771783
161	0xbf2c7532	-0.67366326
162	0x40095001	2.145508
163	0xbee3b5dc	-0.44474685
164	0x4008656d	2.1311905
165	0x3f0c6677	0.5484385
166	0xbfa6483b	-1.2990793
167	0x3fa0ef0a	1.2572949
168	0x3ec2a27a	0.38014585
169	0x3ea6dffe	0.32592767
170	0x3f4de1cc	0.80422664
171	0xbf3b314e	-0.7312211
172	0xbfa682b0	-1.3008633
173	0xbf0e7ea4	-0.5566199
174	0xbd4767d1	-0.04868299
175	0x3d515378	0.051104993
176	0x40003640	2.0033112
177	0xbeb5f950	-0.35541773
178	0x3fc93e82	1.5722201
179	0x3f95da28	1.1707201
180	0x3d8ce3d6	0.06879394
181	0x3cc1bcc9	0.02364959
182	0xbf9341d8	-1.1504469
183	0x3e860186	0.26173037
184	0x40180a85	2.375642
185	0xbfca4105	-1.5801092
186	0x3f6de42a	0.92926276
187	0x3ec20118	0.3789146
188	0xbf972374	-1.1807694
189	0xbfec8759	-1.8478805
190	0x3f077cc4	0.5292475
191	0x3f4c2fb4	0.7976029
192	0x3dc30192	0.09521784
193	0x3e937929	0.28803375
194	0xbf095f0c	-0.53660655
195	0x3f07cba0	0.5304508
196	0xbf486e24	-0.7829306
197	0x3e2706ee	0.16311237
198	0xbec221ec	-0.37916505
199	0x3fa273e9	1.2691623
200	0xbf7b50ec	-0.9817035
201	0xbf361d5a	-0.71138537
202	0x3fbe6fc2	1.4877856
203	0x3fdc0de9	1.7191745
204	0xbedb0390	-0.42776155
205	0x3fbbcdca	1.4672177
206	0x3fdb3804	1.712647
207	0xbf144025	-0.57910377
208	0xbd5e93d0	-0.054340184
209	0x3f6fe4c6	0.93708456
210	0xbe1f0d95	-0.15532525
211	0x3d7a6875	0.061134774
212	0x3e455fb5	0.1927479
213	0xbf52dccc	-0.8236816
214	0x3f4a69a6	0.79067457
215	0x3f11765e	0.5682124
216	0x3e7eefd0	0.24896169
217	0xbe5ba421	-0.21449329
218	0xbf41b225	-0.7566245
219	0xbe0e884c	-0.1391918
220	0x3ee36b98	0.44418025
221	0x3d68d519	0.05684385
222	0x3f7a82da	0.97855914
223	0x3fa2f68b	1.2731489
224	0x3f560bf3	0.83611983
225	0xbecb831f	-0.39748475
226	0x3ea4b3e1	0.32168487
227	0xbed3b21e	-0.4134683
228	0x3fd5d217	1.6704739
229	0xbf8dd408	-1.1080332
230	0xbf7dcc67	-0.9914002
231	0xbe7943a9	-0.24342217
232	0xbdc903b1	-0.09815157
233	0xbf1d9b51	-0.6156512
234	0x3f138e59	0.5763908
235	0x3eca57cd	0.39520112
236	0x3dc58d7e	0.09646128
237	0x3e3a6221	0.18201496
238	0xbe85af42	-0.26110274
239	0xbfcf08f2	-1.6174605
240	0xc003c511	-2.058903
241	0xbf9623ee	-1.1729715
242	0xbf397ccb	-0.72456044
243	0xbfa0bdb3	-1.2557892
244	0x3bcf85b9	0.0063330797
245	0xbfbd2b00	-1.4778748
246	0x3eb1cd63	0.3472701
247	0x3f905ba5	1.1277968
248	0xbf24338a	-0.6414114
249	0xbec48f79	-0.3839071
250	0xbf685010	-0.90747166
251	0x3e92ed26	0.28696555
252	0x3f08d68d	0.5345238
253	0x3fc05d8e	1.5028551
254	0xbf8ae451	-1.0850927
255	0x3ff2d57d	1.8971401

ode_dp.odeblock.odefunc.fc1.weight f4 [13, 13]
0	0xbe1528fe	-0.14566419
1	0x3db64d88	0.08901507
2	0xbea573d9	-0.32314947
3	0xbe5b003e	-0.21386811
4	0xbe9dc9cf	-0.3081803
5	0x3e08d7d4	0.13363582
6	0x3c9c2daf	0.019064752
7	0xbd91534d	-0.070959665
8	0x3e0475d8	0.12935579
9	0xbd7752d4	-0.060381725
10	0xbd09422a	-0.033510365
11	0xbe9f54bf	-0.31119344
12	0xbd00899d	-0.03138124
13	0xbc6b3ca4	-0.01435772
14	0x3ef0e139	0.4704683
15	0x3dadaa72	0.084797755
16	0xbe374ba7	-0.17899953
17	0xbd3f6adb	-0.046732765
18	0x3d8593cb	0.0652233
19	0xbe01d43f	-0.12678622
20	0x3dc9ba32	0.09849967
21	0x3e0d8703	0.13821034
22	0x3daef609	0.08543021
23	0x3e36047e	0.17775151
24	0xbe9892ac	-0.29799402
25	0x3e0c9f2b	0.13732593
26	0x3e4be40f	0.19911216
27	0x3e22a2a4	0.15882355
28	0xbe5281ad	-0.2055728
29	0x3db55509	0.0885411
30	0x3e44d71f	0.19222687
31	0x3ed501fb	0.41603073
32	0x3e44dc6d	0.19224711
33	0x3e0ebbf6	0.13938889
34	0xbd692b3f	-0.05692601
35	0xbdb6d319	-0.089269824
36	0xbe157319	-0.14594688
37	0xbe09995e	-0.13437411
38	0xbd646851	-0.055763546
39	0x3b95fba6	0.004577118
40	0x3ee5f6ef	0.44914958
41	0xbd8bc6da	-0.06825037
42	0xbdda3f70	-0.10656631
43	0xbe830469	-0.25589302
44	0x3e07cce1	0.13261749
45	0xbe80d368	-0.2516129
46	0xbdb9e025	-0.09075955
47	0x3e21fafc	0.15818399
48	0x3b9ff86e	0.00488191
49	0xbe642753	-0.22280626
50	0xbe5dc2b9	-0.21656312
51	0x3d8ecd21	0.06972719
52	0xbe361372	-0.17780855
53	0x3ea7ac46	0.32748622
54	0xbe49acdd	-0.19694848
55	0x3cafaa9d	0.02144366
56	0xbe1f8fd5	-0.15582211
57	0x3ece9457	0.4034755
58	0xbea202c0	-0.31642723
59	0xbc27d78f	-0.010244264
60	0x3dcaab9e	0.09896015
61	0x3d550f4e	0.05201655
62	0xbe864214	-0.2622229
63	0xbe940732	-0.2891174
64	0xbe31fb6d	-0.17381068
65	0xbeb6471e	-0.35601133
66	0x3da2298f	0.07918083
67	0xbdd75449	-0.10514123
68	0x3e50785f	0.20358418
69	0x3df39a60	0.11894679
70	0x3b0dbf14	0.0021628784
71	0xbde9ac69	-0.11409838
72	0xbe4dac0c	-0.20085162
73	0xbc8986c8	-0.016787902
74	0xbdc516f4	-0.096235186
75	0x3dbfc23d	0.0936322
76	0xbe48707a	-0.19574156
77	0xbebe29ab	-0.37141165
78	0x3d00cd39	0.031445716
79	0x3e64f1a3	0.22357802
80	0xbe5322cb	-0.20618741
81	0x3e5c5587	0.21517001
82	0xbe79d8f1	-0.24399163
83	0x3c9e2558	0.019304916
84	0xbe8e3bd2	-0.27780014
85	0xbdff06df	-0.124524824
86	0x3da47167	0.08029442
87	0x3e05bca6	0.13060245
88	0xbe59a4f9	-0.21254338
89	0xbe5d10da	-0.2158846
90	0xbec89940	-0.3917942
91	0x3dd04855	0.10170046
92	0x3ea60672	0.32426792
93	0xbd1c3658	-0.038137764
94	0x3d78d51b	0.06075011
95	0xbd81c5f3	-0.06336584
96	0xbdd00dae	-0.10158859
97	0x3c7fe50c	0.015618574
98	0x3e998dc4	0.2999097
99	0x3e1c36ff	0.15255354
100	0x3e78cc91	0.24296786
101	0xbe4d539d	-0.20051427
102	0xbdc5accd	-0.096521
103	0xbdd18fac	-0.10232481
104	0xbe1e3aee	-0.15452167
105	0xbd91e0e8	-0.071229756
106	0x3e831169	0.2559922
107	0xbe1cbbfd	-0.15306087
108	0x3cfa83c4	0.030580409
109	0x3e265e7a	0.16246977
110	0xbd3079f7	-0.043085065
111	0xbde35c20	-0.11101556
112	0xbe2f9ef7	-0.17150484
113	0x3d313c1d	0.04327022
114	0xbe12a23d	-0.14319701
115	0x3dcc2c2e	0.09969364
116	0xbea79578	-0.32731223
117	0x3dc2d230	0.09512746
118	0x3e0bd4bf	0.13655375
119	0x3d2da03e	0.042389147
120	0xbe60675a	-0.21914425
121	0x3e2c639a	0.1683487
122	0x3ebb941b	0.36636433
123	0x3da1cc4f	0.07900297
124	0x3defad74	0.117030054
125	0x3e516691	0.20449282
126	0x3e91865b	0.28422818
127	0x3e96f509	0.29483822
128	0xbe960170	-0.29297972
129	0x3e450e0e	0.19243643
130	0xbdd640b2	-0.104615584
131	0x3d8e7a7f	0.06956958
132	0x3c8bcddd	0.017065937
133	0x3d974291	0.073857434
134	0x3e3c3864	0.18380886
135	0xbd17d083	-0.037064087
136	0xbe849617	-0.2589576
137	0xbeaaadfe	-0.3333587
138	0x3e0461ee	0.12927982
139	0x3e2a9d67	0.16661607
140	0xbe58fd29	-0.21190323
141	0xbccbf71e	-0.024898108
142	0xbeb13aa6	-0.34615058
143	0xbdf1e837	-0.118118696
144	0x3eb5e8a3	0.3552905
145	0x3dc42cd6	0.09578864
146	0xbe35d434	-0.1775673
147	0xbc95602c	-0.018234335
148	0xbd49529f	-0.04915106
149	0xbe3ee515	-0.18642075
150	0xbe151671	-0.14559342
151	0x3e4bc438	0.1989907
152	0x3de04045	0.109497584
153	0x3e1d4629	0.15358795
154	0xbd604b2c	-0.05475919
155	0xbd32978f	-0.04360157
156	0xbe91bf32	-0.28466183
157	0x3c8e6efb	0.017386904
158	0x3e342301	0.17591478
159	0x3e9ad359	0.3023937
160	0x3de80909	0.11329848
161	0xbd98c5aa	-0.074595764
162	0xbc16eac4	-0.009211246
163	0x3de2c9e1	0.110736616
164	0x3d85d421	0.06534601
165	0x3e40d43e	0.18830964
166	0x3cc064e7	0.023485614
167	0xbdefe7e7	-0.11714154
168	0xbe02a050	-0.12756467

ode_dp.odeblock.odefunc.fc1.bias f4 [13]
0	0x3d93d6ef	0.0721873
1	0x3e1db300	0.15400314
2	0x3e146d78	0.14494884
3	0xbdc56ae0	-0.096395254
4	0x3d155a0e	0.036462836
5	0x3dd15816	0.10221879
6	0xbdec44f4	-0.11536589
7	0xbded46a4	-0.11585739
8	0xbe9511b5	-0.29115072
9	0xbd47be58	-0.04876551
10	0x3db3cf32	0.08779754
11	0x3e94e06c	0.2907747
12	0x3dc445fd	0.09583662

ode_dp.odeblock.odefunc.fc2.weight f4 [13, 13]
0	0xbcea4dd1	-0.028601559
1	0xbdc508fe	-0.09620856
2	0x3d7230ad	0.059128452
3	0xbdbdf8f1	-0.092759974
4	0x3db9b0d0	0.090669274
5	0x3dfd8106	0.12378125
6	0x3e63eac9	0.22257532
7	0x3e50b490	0.20381379
8	0xbe0859d4	-0.13315517
9	0x3e49edfb	0.19719689
10	0x3e07f200	0.1327591
11	0xbdca8d70	-0.09890258
12	0x3d268734	0.040656283
13	0x3e0864d1	0.13319708
14	0x3e94436b	0.28957686
15	0x3e4ced2e	0.20012352
16	0x3e51fbe7	0.2050625
17	0x3ec4b917	0.38422462
18	0xbd821ecc	-0.0635353
19	0x3e6c8110	0.23096108
20	0x3d56969a	0.05238972
21	0xbd8fa46d	-0.070137836
22	0x3df6d4a8	0.1205228
23	0xbd9323e7	-0.07184582
24	0x3e8ce823	0.27520856
25	0x3e9e1020	0.30871677
26	0x3e828989	0.25495556
27	0xbe36c66c	-0.1784913
28	0xbd15ec92	-0.036602564
29	0xbdd36048	-0.103210986
30	0x3ead79da	0.33882028
31	0x3e805766	0.2506668
32	0xbdd39375	-0.103308596
33	0x3e473de3	0.19457202
34	0xbe0095dd	-0.12557168
35	0x3e1d5a7c	0.15366548
36	0x3e5e0037	0.2167977
37	0x3e8005c8	0.2500441
38	0x3e8fe94b	0.28107676
39	0x3e02fc83	0.12791638
40	0xbe5adfa4	-0.21374375
41	0xbd930f67	-0.07180672
42	0xbe5e310b	-0.21698396
43	0x3e7dac54	0.24772769
44	0xbe284c9b	-0.16435473
45	0x3e03ed80	0.12883568
46	0xbe206c7c	-0.15666384
47	0xbe0afd71	-0.13573243
48	0x3e356449	0.17714037
49	0xbde8b562	-0.11362721
50	0xbe1d63e7	-0.15370141
51	0x3d341437	0.04396459
52	0xbe928876	-0.28619736
53	0xbe522c0e	-0.20524618
54	0xbe9c1661	-0.30485824
55	0x3d9d44ce	0.07679139
56	0x3d16d364	0.03682269
57	0x3d0b7a35	0.034052093
58	0x3e1f8ebf	0.15581797
59	0x3d87d319	0.066320606
60	0xbe2c137b	-0.16804306
61	0xbe96643a	-0.29373342
62	0x3e232e91	0.15935732
63	0xbe92d534	-0.28678286
64	0x3e16b0ad	0.14715834
65	0xbe6e13a8	-0.23249686
66	0xbda0301e	-0.078216776
67	0x3e84c407	0.25930807
68	0xbdc60c0b	-0.09670266
69	0x3dfab759	0.12242002
70	0xbdf57fea	-0.11987288
71	0xbe0ecca4	-0.13945252
72	0xbc86636f	-0.016404836
73	0x3ddb5d90	0.10711205
74	0x3e3003fe	0.17189023
75	0xbe55e79b	-0.20889132
76	0xbe773960	-0.2414298
77	0xbdd7be7e	-0.105343804
78	0xbe055467	-0.13020478
79	0x3c7076c8	0.014676757
80	0xbe15bd9f	-0.14623116
81	0xbdbe5e07	-0.09295278
82	0x3e660d35	0.22465976
83	0x3e750ea4	0.23931366
84	0x3e8ea640	0.27861214
85	0x3db3ea7e	0.0878496
86	0x3e33c032	0.17553785
87	0x3e813841	0.2523823
88	0xbce568fb	-0.02800416
89	0xbdf558bc	-0.11979815
90	0xbe10d9a0	-0.14145517
91	0xbda5cf68	-0.080962
92	0x3e8b4790	0.27203035
93	0x3d819617	0.063274555
94	0xbcd60804	-0.026126869
95	0xbdd78d15	-0.10524956
96	0x3e247b0c	0.16062564
97	0x3d657f9e	0.05602991
98	0x3eb0daa9	0.34541824
99	0xbc3fef6d	-0.011714798
100	0x3e4ae436	0.19813618
101	0x3ec86b8c	0.39144552
102	0x3ec82ed8	0.3909824
103	0x3e23aa1c	0.1598286
104	0xbe839628	-0.25700498
105	0x3ccc316e	0.024925914
106	0xbe8e3675	-0.27775922
107	0xbdf4713a	-0.11935659
108	0xbeaa0331	-0.3320556
109	0xbe6ae8e3	-0.22940402
110	0xbd39a620	-0.045324445
111	0xbed0bb11	-0.4076772
112	0xbe0df302	-0.13862231
113	0xbe8e0aa8	-0.27742505
114	0xbeb3777b	-0.35052094
115	0x3e19a1a1	0.15003063
116	0x3dafdd92	0.08587183
117	0x3e43233a	0.19056407
118	0x3cf33087	0.029686226
119	0x3e89685a	0.26837426
120	0x3e4a7374	0.19770604
121	0x3eb1aadc	0.34700668
122	0xbd233bf1	-0.039852086
123	0xbe1947b3	-0.14968757
124	0xbdbb1c0d	-0.0913621
125	0x3e0650c9	0.13116755
126	0xbe45942c	-0.19294804
127	0xbe1c6190	-0.15271592
128	0x3e7cc69d	0.2468514
129	0x3e59807f	0.21240424
130	0x3ed4aa7e	0.41536325
131	0x3eb55c7c	0.35422122
132	0x3ddc0421	0.10742975
133	0x3ee9e33c	0.4568118
134	0x3e9c01f8	0.30470252
135	0xbd07e244	-0.033174768
136	0x3e58079f	0.21096657
137	0x3e196d8a	0.14983192
138	0x3e1f4aef	0.15555929
139	0x3d8561ba	0.065127805
140	0x3db9aee7	0.09066563
141	0x3e9264a3	0.28592405
142	0x3e7467d7	0.23867737
143	0xbe8a94e7	-0.27066728
144	0x3dfae6e4	0.1225107
145	0x3e544b4b	0.20731847
146	0xbd1eed18	-0.03880033
147	0xbe327feb	-0.1743161
148	0x3d59a223	0.05313314
149	0x3d99f003	0.07516482
150	0xbe9bb8f7	-0.30414554
151	0x3e51ba26	0.20481166
152	0x3da0bb02	0.07848169
153	0x3e8566c6	0.26054972
154	0x3db1305a	0.086518005
155	0xbe533629	-0.20626129
156	0xbe118dad	-0.14214201
157	0x3b55c44c	0.0032618223
158	0xbe41345e	-0.18867633
159	0x3a470dc9	0.00075933017
160	0xbdc4a5e4	-0.096019536
161	0x3eae0ab2	0.33992535
162	0x3eb6f302	0.35732275
163	0x3e9d956c	0.30778062
164	0xbded4b2e	-0.11586605
165	0x3e57e683	0.21084027
166	0x3d257709	0.040396724
167	0x3e879e4d	0.2648796
168	0xbe5bb318	-0.21455038

ode_dp.odeblock.odefunc.fc2.bias f4 [13]
0	0x3e7c152e	0.24617454
1	0x3e2484a7	0.16066228
2	0x3e66390e	0.22482702
3	0x3ddfee1e	0.10934089
4	0xbdfa35fd	-0.12217329
5	0x3e2070ff	0.15668105
6	0x3e932bb2	0.28744274
7	0xbe27b794	-0.16378623
8	0xbd8b31d0	-0.0679661
9	0x3e96f07a	0.29480344
10	0x3e9008a7	0.281316
11	0xbe7dd510	-0.24788308
12	0xbe688c46	-0.2270976

ode_dp.odeblock.odefunc.fc3.weight f4 [13, 13]
0	0x3d76bfa0	0.06024134
1	0x3e2d91ab	0.16950099
2	0xbe1a7edc	-0.15087456
3	0x3e6e8d77	0.23296152
4	0x3e2e48b6	0.17019925
5	0x3e4a9540	0.19783497
6	0x3df00b62	0.11720921
7	0x3e83b42e	0.25723404
8	0xbdd5f496	-0.10447042
9	0x3ead3b6c	0.33834398
10	0x3dce07e7	0.10060101
11	0x3e6cdb35	0.23130496
12	0x3e80955f	0.2511396
13	0xbdf721e6	-0.120670125
14	0xbe1ee5c1	-0.15517332
15	0x3e01234a	0.12611118
16	0xbd8b1db7	-0.06792777
17	0xbe1e878b	-0.15481393
18	0x3e4ef12e	0.2020919
19	0x3c1b87c7	0.009492821
20	0x3e19a955	0.15006001
21	0xbe7ef9cb	-0.24899976
22	0x3e7a1bb2	0.24424627
23	0xbd1f43cc	-0.038883016
24	0xbe74069f	-0.23830651
25	0xbe038ccd	-0.1284668
26	0xbea84167	-0.32862398
27	0x3e43a225	0.19104822
28	0x3e116807	0.1419984
29	0xbc333a13	-0.010939139
30	0xbe2e30b1	-0.17010762
31	0xbd79171e	-0.060813062
32	0xbd99a650	-0.07502425
33	0xbea920d6	-0.33032864
34	0xbdd40868	-0.10353166
35	0x3d91f5d9	0.0712697
36	0xbd63633a	-0.05551455
37	0x3c0dc8c5	0.008653824
38	0x3c39b286	0.011334067
39	0xbe2b569d	-0.16732259
40	0x3d12387d	0.035698403
41	0xbe937e3b	-0.28807244
42	0x3dda9b26	0.106741235
43	0x3d45d318	0.048297018
44	0x3e230f90	0.15923905
45	0xbd62ceea	-0.05537311
46	0xbddfc464	-0.109261304
47	0x3d823f89	0.063597746
48	0xbdf13536	-0.11777727
49	0xbd09dfdd	-0.03366076
50	0xbeb276ff	-0.34856412
51	0xbde92dde	-0.113857016
52	0xbcf87061	-0.030327024
53	0x3e165384	0.14680296
54	0xbe895fb7	-0.26830837
55	0xbe24058c	-0.16017741
56	0x3cc3e948	0.023914948
57	0x3de9d747	0.11418014
58	0xbe9919af	-0.29902408
59	0xbea7f70e	-0.32805675
60	0x3e3d8cf8	0.18510807
61	0xbd54ee90	-0.051985323
62	0xbe828531	-0.25492242
63	0xbe6f0d6a	-0.23344961
64	0x3e867ad6	0.2626559
65	0xbcc4a6ca	-0.024005312
66	0xbe14ad69	-0.14519276
67	0xbdaa28e8	-0.083085835
68	0x3dc804fc	0.09766576
69	0xbe5e4eea	-0.21709791
70	0xbe9c5db7	-0.3054025
71	0xbea3fb9d	-0.32027903
72	0xbe002644	-0.12514597
73	0x3d41fa29	0.047357712
74	0xbe715cd4	-0.23570567
75	0x3e1f43d5	0.1555322
76	0xbd815672	-0.06315316
77	0x3e8a8ab6	0.27058953
78	0x3e4d7ff2	0.20068339
79	0xbe75f7e8	-0.2402035
80	0xbdb1248b	-0.08649548
81	0xbe659bf2	-0.2242277
82	0x3e134e71	0.14385392
83	0x3cf846d8	0.030307218
84	0xbe588520	-0.21144533
85	0xbe9733dc	-0.29531753
86	0xbdc6d446	-0.09708457
87	0x3e442346	0.19154081
88	0x3d67dcab	0.05660693
89	0x3e34c0c1	0.17651655
90	0x3b3dead7	0.0028979087
91	0x3eb5b1a0	0.3548708
92	0x3e5bf303	0.2147942
93	0x3c4e8d55	0.012606938
94	0x3ec5458a	0.38529617
95	0x3dc53a11	0.09630216
96	0xbd31585e	-0.043297164
97	0x3eaaf410	0.3338933
98	0x3dde5c81	0.108574875
99	0x3d2443ac	0.0401036
100	0x3ed12df6	0.40855378
101	0x3ec483f8	0.38381934
102	0x3dd74812	0.10511793
103	0x3e7372a4	0.237742
104	0xbe08c32c	-0.13355702
105	0x3da73efa	0.08166309
106	0xbe94d660	-0.29069805
107	0xbdf4227e	-0.11920641
108	0x3e080ba8	0.13285697
109	0x3deeb4b4	0.1165556
110	0x3c8c4cd8	0.017126486
111	0xbea18ef8	-0.3155439
112	0xbe683a51	-0.22678496
113	0xbe416dce	-0.18889543
114	0xbcab01a8	-0.020874813
115	0xbe89f0e6	-0.26941603
116	0xbcca34da	-0.024683405
117	0xbe15cad7	-0.14628159
118	0xbe80f033	-0.25183257
119	0x3d811729	0.063032456
120	0xbc3807a7	-0.011232293
121	0xbd3cb8f2	-0.046074815
122	0xbdbdd1ba	-0.09268518
123	0xbcc1beef	-0.023650615
124	0xbe96b1da	-0.29432565
125	0x3e052fb9	0.13006486
126	0xbc9b2e46	-0.018942963
127	0xbe68e2ed	-0.22742815
128	0xbba98784	-0.0051736254
129	0xbdbc7395	-0.09201733
130	0x3bc58abc	0.0060285013
131	0x3df8c3f3	0.12146749
132	0xbdeb926c	-0.11502537
133	0xbcb7ec01	-0.022451403
134	0x3daa7dfc	0.08324811
135	0x3e5ce987	0.21573459
136	0x3ca551a4	0.02018053
137	0x3e1bb965	0.15207441
138	0xbe46c3de	-0.19410655
139	0xbddeaa44	-0.10872319
140	0xbe42bc5e	-0.19017169
141	0xbeac1c21	-0.3361521
142	0xbeb941d0	-0.36183023
143	0x3dd8bb5a	0.105826095
144	0x3c92390e	0.017849471
145	0x3d195309	0.037432704
146	0xbddd7fed	-0.108154155
147	0xbdd7465e	-0.10511468
148	0xbeb65cb1	-0.35617593
149	0x3d060cc0	0.032727003
150	0xbe24d387	-0.16096316
151	0xbc9875a9	-0.018610792
152	0xbe53a79b	-0.20669405
153	0xbeb40d2d	-0.35166302
154	0x3e1d220e	0.15345022
155	0x3cdc13b7	0.02686487
156	0x3e13db50	0.1443913
157	0x3e5c3d57	0.21507774
158	0x3e834554	0.2563883
159	0xbe2122a1	-0.15735866
160	0xbc804eb2	-0.015662525
161	0x3de23587	0.11045366
162	0x3dba25a5	0.090892114
163	0x3cefe245	0.029282698
164	0x3b887c80	0.004165232
165	0xbd9091a6	-0.0705903
166	0x3e307c90	0.17235017
167	0xbcf4223f	-0.029801486
168	0x3cc26e14	0.02373413

ode_dp.odeblock.odefunc.fc3.bias f4 [13]
0	0x3e12fb47	0.14353667
1	0x3e087bbf	0.13328455
2	0x3dc2b88f	0.09507858
3	0xbe5e5be3	-0.2171474
4	0xbe80d822	-0.25164896
5	0xbe3d0d51	-0.18462111
6	0xbe8ea6c2	-0.278616
7	0x3e80af5f	0.25133798
8	0xbe8cd3d2	-0.27505356
9	0xbe835d97	-0.2565734
10	0x3dd22e0c	0.10262689
11	0xbe4e4782	-0.20144466
12	0x3e16657b	0.14687149

ode_cp.odeblock.odefunc.fc1.weight f4 [11, 11]
0	0xbe818319	-0.25295332
1	0x3d07cdb8	0.033155173
2	0x3e9936da	0.2992466
3	0x3eb982d4	0.36232626
4	0xbc931a0f	-0.017956762
5	0x3ea2fbc4	0.31832707
6	0x3d0d0272	0.03442616
7	0xbe082042	-0.13293555
8	0x3cc6931a	0.024240065
9	0xbe1bc0e7	-0.15210305
10	0xbdca4653	-0.098766945
11	0xbed2fc5a	-0.41208154
12	0x3e7cfc3f	0.24705599
13	0x3e9b9dce	0.30393833
14	0x3ef34e78	0.47520804
15	0x3dbf251c	0.0933325
16	0x3e7338a8	0.23752081
17	0x3c597a99	0.013273858
18	0xbe950916	-0.29108495
19	0x3d1a5ffb	0.03768919
20	0x3e95fe8f	0.29295775
21	0x3ebf5594	0.37369978
22	0xbea905d7	-0.33012268
23	0x3ed3dcd1	0.41379407
24	0xbe0b28f4	-0.13589841
25	0x3f00bf22	0.50291646
26	0xbd60d4ad	-0.054890323
27	0x3ef52df0	0.4788661
28	0x3e252f9e	0.16131446
29	0x3e226eb5	0.15862544
30	0x3eb1d49c	0.3473252
31	0xbe561a62	-0.20908502
32	0x3ea8b261	0.32948592
33	0xbe828f25	-0.25499836
34	0x3de0493f	0.109514706
35	0xbdef933a	-0.11698003
36	0x3e091ca8	0.13389838
37	0x3ee03b13	0.4379507
38	0x3de668c5	0.11250452
39	0x3e68119e	0.2266297
40	0xbd749638	-0.059713572
41	0x3ed7a6f3	0.4211956
42	0x3ede3930	0.43403006
43	0xbe716482	-0.23573497
44	0xbdf4edf2	-0.11959447
45	0xbd9c29f3	-0.07625189
46	0xbe157d8a	-0.1459867
47	0x3e43039d	0.19044347
48	0xbd164934	-0.036690906
49	0x3e9495e9	0.29020622
50	0x3e5f8f5d	0.21832033
51	0x3eee2b64	0.4651748
52	0x3f036f55	0.51341754
53	0xbe859538	-0.26090407
54	0xbea98ff7	-0.3311765
55	0xbe5903fb	-0.21192925
56	0xbe84d05b	-0.25940213
57	0x3e95bca6	0.2924549
58	0xbe8654c9	-0.2623656
59	0x3ebdf1a7	0.3709843
60	0x3d68e4ef	0.056858953
61	0xbe738598	-0.2378143
62	0xbdb97f5b	-0.09057494
63	0x3efb6fe5	0.49108806
64	0xbdd75d56	-0.10515849
65	0xbe1b687d	-0.15176578
66	0xbe309fdf	-0.17248486
67	0x3e1aa924	0.15103585
68	0xbe08c6c7	-0.13357078
69	0xbe92341e	-0.28555387
70	0x3e8df165	0.27723232
71	0x3da67df2	0.08129491
72	0xbe176dfd	-0.14788051
73	0x3dfb93bd	0.12284038
74	0x3eb40604	0.3516084
75	0xbe74efd7	-0.23919617
76	0xbecd36ad	-0.40080777
77	0xbec4ba94	-0.38423598
78	0x3ea5490d	0.32282296
79	0xbeb94f06	-0.36193103
80	0x3e35cad6	0.17753157
81	0x3e33df20	0.17565584
82	0x3d113347	0.035449293
83	0xbdab1424	-0.08353451
84	0x3e39361c	0.18087047
85	0x3eae0dde	0.33994955
86	0xbe79c1a4	-0.24390274
87	0x3eb204d5	0.34769312
88	0x3e309d30	0.17247462
89	0xbea2718a	-0.31727248
90	0x3eba0390	0.36330843
91	0x3e7fb9c3	0.24973206
92	0xbd5510e2	-0.052018054
93	0x3daacba1	0.083396204
94	0xbdf048ab	-0.1173261
95	0xbe9fbaa9	-0.31197098
96	0x3e791ac2	0.24326614
97	0x3e7eee73	0.24895649
98	0x3ec5a2bd	0.38600722
99	0xbef470a3	-0.47742185
100	0x3e8dde50	0.27708673
101	0x3e393fbc	0.18090719
102	0x3f071848	0.52771425
103	0xbddafffd	-0.10693357
104	0x3ebe0936	0.37116402
105	0x3e07e218	0.13269842
106	0xbca93c2c	-0.020658575
107	0xbb3ee791	-0.0029129724
108	0x3e820433	0.2539383
109	0x3ef6d175	0.48206678
110	0xbe54794c	-0.20749396
111	0x3e7a674d	0.24453469
112	0xbedfbf99	-0.43700865
113	0x3f12f8f5	0.5741113
114	0x3e60efc8	0.2196647
115	0x3e00036a	0.12501302
116	0xbb90e8e4	-0.004422294
117	0x3e816d73	0.25278816
118	0x3e93e95d	0.2888898
119	0xbe027d58	-0.12743127
120	0xbe1468fa	-0.1449317

ode_cp.odeblock.odefunc.fc1.bias f4 [11]
0	0x3e7d3e94	0.24730903
1	0x3e7b99d2	0.24570397
2	0x3d8280b5	0.06372205
3	0x3df0ca11	0.11757291
4	0x3d709e0d	0.05874448
5	0x3ddcdb0c	0.107839674
6	0x3e5efb3f	0.2177553
7	0x3e5f2cf7	0.21794496
8	0x3e59edbf	0.21282099
9	0x3eb22fe0	0.3480215
10	0x3da2c7ae	0.07948242

ode_cp.odeblock.odefunc.fc2.weight f4 [11, 11]
0	0x3ee6292f	0.44953296
1	0x3ebd017a	0.3691519
2	0x3ef09aa0	0.4699297
3	0x3e8f9c4b	0.2804893
4	0x3ea78808	0.3272097
5	0x3e52344e	0.20527765
6	0x3e8ad05d	0.27112094
7	0xbdf306f1	-0.11866558
8	0x3e39319b	0.18085329
9	0x3ef0d76e	0.4703936
10	0x3ec0ad01	0.37631992
11	0x3d1a2da4	0.037641183
12	0xbec54894	-0.38531935
13	0xbe3f36b4	-0.18673211
14	0x3d825bde	0.063651785
15	0x3d46c765	0.04853
16	0xbee4c798	-0.44683528
17	0xbe21e1c7	-0.15808783
18	0xbe2b9e4d	-0.16759606
19	0xbe909d00	-0.28244781
20	0xbe7206ed	-0.23635454
21	0xbec7c4cc	-0.39017332
22	0xbcb9a3af	-0.022661058
23	0xbd15aaba	-0.03653977
24	0xbeb6f99d	-0.35737315
25	0xbcafbbe0	-0.02145189
26	0xbdb3a19f	-0.08771061
27	0xbdc850f7	-0.09781068
28	0x3d0ae1ab	0.03390662
29	0xbe7e5fd9	-0.2484125
30	0x3df76083	0.12078955
31	0x3e3f4de5	0.18682058
32	0xbeb00b04	-0.34383404
33	0x3ec2dd49	0.38059452
34	0x3e9aaa70	0.30208158
35	0x3ef1c6e1	0.47222045
36	0x3eae54c1	0.34049037
37	0x3eb62cee	0.35581154
38	0x3e6971b8	0.22797287
39	0x3e8775ae	0.2645697
40	0x3eb2c236	0.34913796
41	0x3d06d35c	0.03291641
42	0x3eb8e41b	0.3611153
43	0x3e5598ac	0.20859021
44	0x3e8108d0	0.25202036
45	0x3e49bc6e	0.19700786
46	0x3dcaeec2	0.09908821
47	0x3ebe45d2	0.37162644
48	0x3efaf8b9	0.49017885
49	0x3e9bf4f8	0.30460334
50	0x3bc02121	0.0058633243
51	0x3ef25ac4	0.47334874
52	0xbc2590bc	-0.010105308
53	0x3d90627a	0.07050033
54	0x3e53f9fa	0.20700827
55	0x3ebc8425	0.36819568
56	0x3ed08434	0.40725863
57	0xbe1dbf57	-0.15405022
58	0x3e710084	0.23535353
59	0x3eb35f0f	0.3503346
60	0x3e6630ca	0.22479549
61	0x3e66a52d	0.22523947
62	0x3ce2712d	0.027641857
63	0x3eadaf8e	0.33923
64	0x3d8aa7d8	0.06770295
65	0x3db1d4b9	0.08683152
66	0xbd3ab89e	-0.04558622
67	0x3ea659da	0.32490426
68	0x3e99146f	0.29898402
69	0x3d71860a	0.05896572
70	0xbcd6e6f2	-0.02623317
71	0xbd5d5339	-0.054034445
72	0xbe12d0bd	-0.1433744
73	0x3de2a2d3	0.110662125
74	0xbbda65f8	-0.0066649877
75	0x3cb9bf5a	0.022674251
76	0x3de7e1f3	0.11322393
77	0xbe26dee9	-0.16295971
78	0x3dbe8dc1	0.09304381
79	0x3ec36b9b	0.38168034
80	0x3ecc780b	0.39935336
81	0x3e335f0d	0.17516728
82	0xbe1d0897	-0.15335308
83	0x3e628df5	0.22124465
84	0x3e6af3be	0.22944543
85	0x3e416a82	0.18888286
86	0x3ec7c2ec	0.390159
87	0x3e117ad5	0.14207013
88	0x3d43ad7b	0.047772866
89	0x3e4814eb	0.1953923
90	0x3ecc2900	0.3987503
91	0x3eaff883	0.34369287
92	0x3bf8e337	0.0075954455
93	0x3ed2cb32	0.4117065
94	0x3c760a5b	0.015017117
95	0x3ef4b8d0	0.4779725
96	0x3e3dd156	0.18536887
97	0x3f043649	0.5164533
98	0x3ecdf749	0.40227726
99	0xbe0e9bdc	-0.13926643
100	0x3e9620f7	0.29322025
101	0x3ec580b4	0.38574755
102	0x3eb88549	0.36039189
103	0x3ed12d88	0.4085505
104	0xbdf6f3c6	-0.12058215
105	0x3eb165b1	0.34647897
106	0x3d28e2fd	0.041232098
107	0xbd3dc406	-0.04632952
108	0xbe092825	-0.1339422
109	0x3dd487ce	0.10377465
110	0x3e6b396e	0.22971126
111	0x3e9b2126	0.30298728
112	0x3efe3741	0.4965153
113	0xbd5c3884	-0.053764835
114	0x3efc1b77	0.49239704
115	0x3eb9957d	0.36246863
116	0x3ece677d	0.4031333
117	0x3ed5f38f	0.41787383
118	0x3dd8346f	0.10556876
119	0x3eb83b8a	0.35982925
120	0x3ead9ee7	0.33910295

ode_cp.odeblock.odefunc.fc2.bias f4 [11]
0	0x3e0c5af8	0.13706577
1	0xbeb369d7	-0.35041687
2	0xbe969ec1	-0.29417995
3	0x3d0c906e	0.034317426
4	0x3f0372e3	0.5134718
5	0x3e8748b2	0.2642265
6	0x3eead180	0.4586296
7	0x3ed6262a	0.41825992
8	0x3d5111d8	0.051042408
9	0xbe4c7f92	-0.19970539
10	0x3eafd643	0.34343156

ode_cp.odeblock.odefunc.fc3.weight f4 [11, 11]
0	0xbe2a2f16	-0.16619524
1	0x3db8847b	0.09009644
2	0x3bc03e49	0.0058668
3	0xbde9bfa8	-0.11413509
4	0xbe7a1ff7	-0.24426256
5	0xbde931df	-0.11386465
6	0xbe8dab30	-0.27669668
7	0xbe323e0f	-0.17406486
8	0xbef5181e	-0.47869962
9	0xbe0d4691	-0.1379645
10	0xbe989e12	-0.29808098
11	0xbeae9c17	-0.34103462
12	0x3e09ca81	0.13456155
13	0x3de507cb	0.11183127
14	0xbeca28a0	-0.3948412
15	0xbe4dbc0e	-0.20091268
16	0xbe883c4d	-0.26608506
17	0xbe4be2a3	-0.19910674
18	0xbe5b8a74	-0.21439534
19	0xbd4afc42	-0.049556978
20	0x3d66c6a6	0.05634179
21	0xbdef3888	-0.11680704
22	0x3caa4232	0.020783518
23	0x3e056416	0.13026461
24	0x3e609551	0.2193196
25	0x3e96538e	0.29360622
26	0x3d12d15c	0.035844192
27	0x3e07fdd6	0.13280424
28	0x3e04b2ee	0.12958881
29	0xbd6e4109	-0.05816749
30	0x3e922dc5	0.28550544
31	0xbe2413bd	-0.16023155
32	0xbdeb63aa	-0.11493619
33	0x3d38cf0e	0.045119338
34	0xbd0345f1	-0.032049123
35	0x3e1a0868	0.15042269
36	0xbcb2c7a9	-0.021823721
37	0x3e6b0f0e	0.22954962
38	0x3e1e2bc6	0.15446386
39	0x3eaa6bea	0.33285457
40	0x3e2abe15	0.16674073
41	0x3d87fc24	0.06639889
42	0x3d83f62a	0.064434364
43	0x39de22f0	0.0004236917
44	0x3e9d5749	0.30730656
45	0xbc9502d1	-0.01818982
46	0x3ebaa368	0.36452794
47	0x3eb9888a	0.36236984
48	0xbc3dfcf9	-0.011595958
49	0x3eadfaac	0.3398031
50	0x3eb5c5b1	0.3550239
51	0xbe1b47eb	-0.15164153
52	0x3e8a5b7e	0.27022928
53	0xbd83affc	-0.06430051
54	0xbd9e0419	-0.07715625
55	0xbec1858f	-0.3779721
56	0xbdab542e	-0.083656654
57	0x3d1d9774	0.038474515
58	0xbe9666f5	-0.29375425
59	0xbe99341a	-0.29922563
60	0xbe980c78	-0.29697013
61	0xbdfd4ec5	-0.1236854
62	0x3d5e1ec6	0.054228567
63	0xbe2a7e55	-0.16649754
64	0x3cc9087f	0.024540184
65	0xbe20996f	-0.1568353
66	0xbe0e52b8	-0.13898742
67	0x3e5126ae	0.20424911
68	0x3e49e50b	0.19716279
69	0x3eb8e5d8	0.36112857
70	0x3e9aef59	0.30260733
71	0x3e0d8e91	0.13823916
72	0xbdf3f8fa	-0.11912723
73	0x3e406f7b	0.18792526
74	0x3ee17899	0.4403732
75	0x3edd2d49	0.43198612
76	0xbe086aa5	-0.13321932
77	0xbd919e43	-0.07110264
78	0x3c00f5d6	0.007871112
79	0x3cf1ea42	0.029530648
80	0xbca5c888	-0.020237222
81	0xbd74c89d	-0.059761632
82	0x3c2961b3	0.010338235
83	0xbeeee3d0	-0.46658182
84	0xbda98dad	-0.08278976
85	0xbd84158a	-0.06449421
86	0xbece7359	-0.40322378
87	0xbee726ba	-0.45146734
88	0xbe87e7a2	-0.2654391
89	0x3de1bbb0	0.11022127
90	0xbd279159	-0.0409101
91	0xbe46af64	-0.19402844
92	0xbe9a6cc8	-0.30161119
93	0xbdff1eb6	-0.124570295
94	0xbd5c165a	-0.053732254
95	0xbef8969d	-0.4855241
96	0xbe0e746c	-0.13911599
97	0xbdd64383	-0.104620956
98	0xbe8b377c	-0.2719077
99	0xbe4f5844	-0.20248514
100	0xbe6b6d50	-0.22990918
101	0x3d60bbd6	0.054866634
102	0xbe951859	-0.29120138
103	0xbe836c4c	-0.2566856
104	0xbda4a91d	-0.08040068
105	0xbe1094e1	-0.14119293
106	0xbe250577	-0.16115366
107	0xbee6e304	-0.45095074
108	0xbe8cfc27	-0.27536127
109	0x3da4b36c	0.080420345
110	0xbdde92a4	-0.10867813
111	0x3daf18e1	0.08549667
112	0x3e755740	0.23959064
113	0x3dce2a6f	0.10066687
114	0xbe5622c7	-0.20911704
115	0xbe4e4398	-0.20142972
116	0xbbfbf482	-0.0076890597
117	0x3d37d280	0.044878483
118	0x3e8c5b70	0.2741351
119	0x3dec5198	0.11539
120	0xbd86dfcf	-0.06585657

ode_cp.odeblock.odefunc.fc3.bias f4 [11]
0	0xbec05dc3	-0.37571535
1	0xbe672d13	-0.22575788
2	0xbceef04f	-0.029167322
3	0x3b9c4244	0.0047686417
4	0x3c03245d	0.008004275
5	0xbe389c40	-0.18028355
6	0x3db228cb	0.08699187
7	0xbdb92338	-0.090399206
8	0xbe0da4db	-0.13832419
9	0x3daa3206	0.083103225
10	0x3dea34f8	0.11435884

attention_dp.context f4 [13]
0	0xbf0e5816	-0.5560316
1	0xbcd583e8	-0.026063874
2	0xbf2bc85f	-0.6710262
3	0x3d84dec8	0.06487805
4	0xbe551647	-0.2080928
5	0xbf70201f	-0.9379901
6	0xbe7020d6	-0.23450026
7	0xbfd5c6df	-1.6701316
8	0x3d95afde	0.07308935
9	0xbf673f7d	-0.9033125
10	0xbf3ba96a	-0.7330538
11	0x3fbe3cad	1.4862267
12	0xbfc2b389	-1.521104

attention_dp.linear_hidden.weight f4 [13, 13]
0	0xbe8c20ba	-0.27368718
1	0xbe612056	-0.21984991
2	0xbe3bc3df	-0.18336438
3	0xbe3a24b2	-0.1817806
4	0xbe182828	-0.14859068
5	0xbde5c366	-0.1121891
6	0x3eb24be9	0.3482354
7	0x3e0843be	0.13307092
8	0xbe04a6bc	-0.12954229
9	0x3e74b6ae	0.23897812
10	0xbe04954c	-0.12947577
11	0x3db54163	0.08850362
12	0xbe8eb410	-0.27871752
13	0x3ce4b803	0.027919775
14	0x3e1e441f	0.15455674
15	0xbd3ea33d	-0.046542395
16	0x3e95480e	0.29156536
17	0x3e80e654	0.25175726
18	0x3e606416	0.2191318
19	0xbcb4e487	-0.022081627
20	0x3eab1a32	0.33418423
21	0x3d5820aa	0.052765526
22	0x3c64c228	0.013962306
23	0xbe43fdf6	-0.19139847
24	0xbe23bc1d	-0.15989728
25	0xbe419655	-0.18905003
26	0xbe528f2a	-0.20562425
27	0xbd2abe42	-0.04168535
28	0xbe8491b3	-0.2589241
29	0x3e5b21d1	0.21399619
30	0x3e85beec	0.26122224
31	0x3e48d764	0.19613415
32	0x3eab6091	0.33472112
33	0xbd4c5fc3	-0.049896013
34	0x3ea01a89	0.31270245
35	0xbdcd4e57	-0.10024708
36	0xbdddfa57	-0.10838764
37	0xbdf5ff2c	-0.12011561
38	0xbe1207e3	-0.14260821
39	0xbcdf7193	-0.027275836
40	0x3e829731	0.25505975
41	0xbab57af3	-0.0013845846
42	0xbc4b01ad	-0.012390536
43	0xbda3baf3	-0.07994642
44	0xbe197fe5	-0.14990194
45	0xbea61b40	-0.32442665
46	0xbd9e5a61	-0.07732082
47	0x3e62646c	0.2210862
48	0xbca46b15	-0.020070592
49	0xbdb3e93c	-0.0878472
50	0x3e669110	0.22516274
51	0x3d659378	0.05604884
52	0xbd529909	-0.051415477
53	0xbe8e96de	-0.27849478
54	0xbe58f199	-0.21185912
55	0x3e5c9f0f	0.21545051
56	0xbd2aef16	-0.041731916
57	0x3e397daf	0.1811435
58	0x3e82bf0d	0.25536385
59	0xbdd6d1e6	-0.10489254
60	0xbe0fb74f	-0.1403477
61	0x3d5e5efa	0.054289795
62	0x3e2a903f	0.16656588
63	0x3e90b1f7	0.28260776
64	0x3d3a5acd	0.04549675
65	0xbe3a9afd	-0.18223186
66	0xbe2e0d90	-0.16997361
67	0x3e759385	0.23982055
68	0xbd4163cc	-0.047214314
69	0xbe08d404	-0.13362128
70	0xbde8eaa5	-0.1137288
71	0x3e1cc91b	0.1531109
72	0xbe148134	-0.14502412
73	0x3dd383ea	0.10327895
74	0x3e084a78	0.13309658
75	0x3d225ded	0.039640356
76	0xbdae77e8	-0.08518964
77	0x3d9babd8	0.07601136
78	0x3d52482d	0.051338363
79	0xbe2c4c11	-0.16825892
80	0x3ec53aa3	0.385213
81	0x3e0514f3	0.12996273
82	0xbe3a3878	-0.18185604
83	0x3eb8c7ba	0.3608988
84	0x3e6279ae	0.2211673
85	0x3e807003	0.25085458
86	0x3ef7c315	0.48391023
87	0x3e45af21	0.19305088
88	0xbd6564e3	-0.056004416
89	0xbeafba54	-0.34321845
90	0xbd588058	-0.052856773
91	0x3de53e44	0.11193517
92	0x3e58a0a8	0.21155035
93	0xbe3790d2	-0.17926338
94	0xbdfb8290	-0.12280762
95	0xbe825c76	-0.25461167
96	0x3e9f609d	0.31128398
97	0x3e9e6af1	0.30940965
98	0x3e7b56b2	0.2454479
99	0xbe6c5868	-0.230806
100	0x3ea735f1	0.32658342
101	0x3e5a35e8	0.21309626
102	0x3ebeb606	0.37248248
103	0xbe623ead	-0.22094221
104	0x3e1f9cbb	0.15587132
105	0xbe6c0226	-0.23047695
106	0xbe117cc7	-0.14207755
107	0xbd72f4ac	-0.05931537
108	0x3c5be166	0.013420438
109	0xbe5772cb	-0.21039884
110	0xbda0e445	-0.07856039
111	0xbcbb4180	-0.022858381
112	0x3e8c5ac1	0.2741299
113	0x3d25ff72	0.040526815
114	0x3e675655	0.22591527
115	0x3e5ddf28	0.21667159
116	0xbd890cfb	-0.06691929
117	0xbe7441b5	-0.2385319
118	0xbe2f0aea	-0.17094007
119	0xbad96377	-0.0016585429
120	0xbaa0124d	-0.0012212485
121	0x3e44bce6	0.19212684
122	0x3e67eea1	0.22649623
123	0xbcc4743a	-0.023981202
124	0x3e5fe232	0.2186363
125	0x3ccde2ed	0.02513262
126	0x3d4229ac	0.047403023
127	0xbdb0121b	-0.08597203
128	0x3df65dec	0.12029633
129	0xbe1b92da	-0.15192738
130	0xbdd267c2	-0.102736965
131	0xbe80cfc7	-0.25158522
132	0x3db48583	0.08814528
133	0x3df9dd40	0.12200403
134	0xbd449252	-0.047991104
135	0x3d7ea6b0	0.062170684
136	0x3e853c76	0.2602269
137	0x3e7a2673	0.2442873
138	0xbe29c880	-0.16580391
139	0x3bc5f060	0.006040618
140	0x3e2e100c	0.16998309
141	0x3e875ab9	0.26436403
142	0xbdfdf6a9	-0.12400562
143	0x3dc6814e	0.09692632
144	0xbe433519	-0.19063224
145	0xbe38cb9e	-0.18046424
146	0xbe197d22	-0.1498914
147	0x3d825538	0.063639104
148	0x3de14573	0.109995745
149	0xbe6897b4	-0.2271412
150	0x3edb7c35	0.428682
151	0xbd04d276	-0.032427274
152	0x3c735bdb	0.014853443
153	0xbe4a220a	-0.19739547
154	0xbd22e33f	-0.0397675
155	0x3e63dc37	0.22251974
156	0xbd4cf1ad	-0.050035167
157	0x3b60b05d	0.0034284808
158	0x3d775ce0	0.060391307
159	0x3e688bed	0.22709627
160	0xbe00e0e9	-0.12585796
161	0xbd8780dc	-0.06616375
162	0xbbc0b9fe	-0.005881547
163	0x3e6ff896	0.23434672
164	0xbdb4a4f5	-0.088205256
165	0x3ea1fb37	0.31636974
166	0x3c567621	0.013089688
167	0x3e0803dc	0.13282722
168	0xbdb98b24	-0.09059742

attention_dp.linear_hidden.bias f4 [13]
0	0x3cdcd397	0.026956363
1	0xbeb4e822	-0.35333353
2	0x3e9658bd	0.29364577
3	0x3eb3bca3	0.35104856
4	0xbc9dc9b8	-0.019261226
5	0xbd0ef929	-0.034905586
6	0x3e9bd0b5	0.30432668
7	0x3c431cbf	0.011908709
8	0x3ed1b912	0.4096151
9	0xbdc3a6c6	-0.09553294
10	0xbe8b1010	-0.27160692
11	0xbedcb15f	-0.43104073
12	0xbe8da842	-0.27667433

attention_cp.context f4 [11]
0	0x3da7481f	0.08168053
1	0x3f79616a	0.9741427
2	0x3e88ed9d	0.26743785
3	0x3fdfc7cd	1.7482849
4	0x3e79c914	0.24393111
5	0x3f2613e1	0.6487408
6	0xbf06bf49	-0.5263563
7	0xbef6c4c9	-0.4819701
8	0x3f11cdda	0.5695473
9	0x3dc6f08e	0.09713851
10	0xbf89a413	-1.0753196

attention_cp.linear_hidden.weight f4 [11, 11]
0	0x3e708e43	0.23491769
1	0xbddb7d0f	-0.107172124
2	0x3ab92a78	0.0014127037
3	0x3e58e87f	0.2118244
4	0x3d84dd1d	0.064874865
5	0x3d354100	0.044251442
6	0x3e9cf18c	0.30653036
7	0xbc064c9c	-0.008196976
8	0xbe061dc3	-0.1309729
9	0xbe0a2586	-0.13490877
10	0x3e1f904c	0.15582389
11	0x3e98a97c	0.29816806
12	0x3ea4f702	0.32219702
13	0x3d350b99	0.044200514
14	0x3e8b41af	0.2719855
15	0xbe338d93	-0.17534475
16	0xbdb12567	-0.08649712
17	0xbd17b901	-0.037041668
18	0x3d452ca7	0.048138287
19	0x3d455353	0.048175167
20	0xbddba423	-0.10724666
21	0x3e4d93a3	0.2007585
22	0x3e03c7c6	0.12869176
23	0x3e8d4e56	0.27598828
24	0xbd7c90dd	-0.06166159
25	0x3ebb9943	0.36640367
26	0xbc19f13f	-0.009395896
27	0x3e3c36ab	0.18380229
28	0x3da2e3a4	0.07953575
29	0x3e19f6a4	0.15035492
30	0x3d7cc496	0.061710916
31	0x3e676a30	0.22599101
32	0x3e7d20d5	0.24719556
33	0xbe50fd9b	-0.20409243
34	0xbdd7928c	-0.105259985
35	0xbb2f6cf9	-0.0026767834
36	0xbe0c3904	-0.13693625
37	0x3e25d17b	0.16193192
38	0xbd3591ca	-0.04432849
39	0x3d7b1c08	0.06130603
40	0x3d922486	0.071358725
41	0xbe1ebc7a	-0.15501586
42	0x3e906850	0.28204584
43	0xbe181656	-0.1485227
44	0x3e4b9c17	0.19883762
45	0x3e879061	0.2647734
46	0xbca9780d	-0.020687127
47	0xbe214061	-0.15747215
48	0xbdf2321e	-0.11825965
49	0x3e6d37cb	0.23165815
50	0xbe72b477	-0.23701654
51	0x3dba080c	0.09083566
52	0xbda227cb	-0.07917746
53	0xbe8c6b28	-0.27425504
54	0x3cb989de	0.022648748
55	0xbc914933	-0.0177351
56	0x3ea9de76	0.33177537
57	0xbc88f6bc	-0.016719215
58	0x3eb7d816	0.35907048
59	0xbb95ddb6	-0.004573549
60	0x3e168f3e	0.1470308
61	0x3eb18fee	0.34680122
62	0x3dce408f	0.10070907
63	0x3e3c5b2c	0.18394154
64	0xbc2ba6f7	-0.010476819
65	0x3e2f8589	0.17140783
66	0xbe941461	-0.28921798
67	0xbe1a3d10	-0.15062356
68	0xbeb7bafa	-0.3588484
69	0xbd1ebb57	-0.03875288
70	0xbd8b032e	-0.06787716
71	0xbe668aac	-0.22513837
72	0x3e3e8f16	0.1860927
73	0x3e07d0f0	0.13263297
74	0xbdf0ca74	-0.11757365
75	0x3e4bddac	0.1990878
76	0xbe91da18	-0.28486705
77	0xbe1ebf2b	-0.15502612
78	0x3e1645aa	0.14675012
79	0x3e5973a5	0.21235521
80	0x3dc4ee87	0.09615808
81	0xbe7a72ab	-0.24457805
82	0x3cb7cc1a	0.02243619
83	0xbe633583	-0.22188382
84	0x3dd9ae87	0.106289916
85	0xbec38441	-0.3818684
86	0xbe24ed73	-0.16106205
87	0x3e688806	0.22708139
88	0x3e0c78db	0.13717978
89	0x3e44e7d0	0.19229054
90	0x3e20a632	0.15688398
91	0x3e71113a	0.23541728
92	0xbea2ff72	-0.31835514
93	0x3d7528c8	0.059853345
94	0xbe692b05	-0.22770317
95	0x3e8327d0	0.25616312
96	0xbe40a497	-0.18812786
97	0x3e1bc994	0.15213615
98	0x3e7c15cb	0.24617688
99	0x3dccccf8	0.10000032
100	0xbdc90a49	-0.09816415
101	0xbe455d94	-0.19273978
102	0xbd6f6f4b	-0.058455747
103	0x3e86cfb3	0.26330337
104	0x3dbe23ce	0.09284173
105	0xbe0503d8	-0.12989748
106	0x3dbf3381	0.093359955
107	0x3e0e0159	0.13867702
108	0x3e88c143	0.26709947
109	0xbe28eb9d	-0.1649613
110	0xbcefe770	-0.029285163
111	0xbdfa8ead	-0.122342445
112	0x3ce00948	0.027348176
113	0xbdc65480	-0.09684086
114	0xbe8d11c8	-0.2755263
115	0x3e125e29	0.14293732
116	0x3d5db2d4	0.054125622
117	0x3e1c5641	0.15267278
118	0xbe0513d7	-0.1299585
119	0xbe835bce	-0.2565598
120	0xbd422736	-0.047400676

attention_cp.linear_hidden.bias f4 [11]
0	0xbe74a0cf	-0.23889469
1	0xbea02941	-0.31281474
2	0xbeca1968	-0.39472508
3	0x3dee3435	0.116310515
4	0xbf026ff6	-0.5095209
5	0xbdd639ae	-0.1046022
6	0xbe2c9596	-0.16853938
7	0xbe40f893	-0.18844824
8	0x3c897cf9	0.016783224
9	0xbe21a7c8	-0.1578666
10	0xba68b6c6	-0.0008877333

fc_dp.weight f4 [1, 13]
0	0x3d9f8ecd	0.07790909
1	0x3d3b437c	0.045718655
2	0xbea8691b	-0.3289269
3	0xbe05fcf9	-0.13084783
4	0xbccc8ed8	-0.024970457
5	0xbecba3b6	-0.3977334
6	0xbdb7184c	-0.08940181
7	0x3ec2d50e	0.38053173
8	0xbe73be63	-0.23803096
9	0xbe31f701	-0.17379381
10	0xbd00a3b2	-0.031406112
11	0x3d063243	0.032762777
12	0x3e0139db	0.12619726

fc_cp.weight f4 [1, 11]
0	0x3eaa7e8f	0.33299682
1	0x3d87d046	0.06631522
2	0xbdf2930d	-0.11844454
3	0xbd69941c	-0.057026014
4	0xbc634bf9	-0.013873094
5	0x3e7f61b1	0.2493961
6	0xbe3444ca	-0.17604366
7	0x3e1a18be	0.15048501
8	0x3e24a0c9	0.1607696
9	0x3e4fa1c4	0.20276552
10	0x3c6d755c	0.014493313

fc_all.weight f4 [1, 25]
0	0x3bd93345	0.0066284263
1	0x3cf84895	0.030308047
2	0x3e0750e7	0.13214456
3	0x387cf831	6.031263e-05
4	0x3ccb1449	0.024789946
5	0xbe25e8de	-0.16202113
6	0xbcd53d7c	-0.026030295
7	0x3e27ecfb	0.16398995
8	0xbd9ec4b2	-0.077523604
9	0x3d953e23	0.07287242
10	0x3d9df4cb	0.07712706
11	0xbe54e381	-0.20789911
12	0xbccb455f	-0.024813352
13	0xbe12306a	-0.14276281
14	0xbed0282f	-0.40655658
15	0xbdeeb545	-0.11655668
16	0xbc5f2a7a	-0.013620967
17	0xba7c5b28	-0.00096266204
18	0xbd7fb899	-0.062431905
19	0x3d95ddd8	0.07317704
20	0xbd5175d6	-0.051137768
21	0xbdb8e742	-0.09028484
22	0xbd81076c	-0.06300244
23	0x3e08afe6	0.1334835
24	0xbe3c1979	-0.18369092
