base_models/birnn_time_decay/final_model.pt (torch, 64009 bytes, 25 tensors)

embed_dp.weight f4 [1292, 7]
00000000: 0000 0000 0000 0000 0000 0000 0000 0000
00000010: 0000 0000 0000 0000 0000 0000 ec66 f43f
00000020: 72fd 76bf 0ddb c6bd fa5b 96be 06be babe
00000030: 4fe2 bbbf b542 e33e 0010 0bbc 708e 673f
00000040: 1524 2dbf e90b 813f 9465 84bd dd47 c1bf
00000050: c0c4 ce3e 522d 603f 71b6 bf3f e81c 7abf
00000060: db66 963e ca83 6dbf 3b80 9ebf e235 b73e
00000070: 055a bd3e 5011 0ebf d88b 5d3e 21b0 4dbf
00000080: 67bf f5be 2a5f 77bf 9a94 eb3d 19f1 41bf
00000090: 18b7 dcbe 87dc 2e3f 1bf1 33be 26f6 963f
000000a0: 3132 933e a22c f2be 3ca5 d1be f5a5 203f
000000b0: 6784 213e 889e a53f ad88 ecbf 3625 5c3e
000000c0: e8d9 833f 2c3a 3d3e 30dc 3d3d 6f58 273e
000000d0: a95b ad3f 409a 363f 05ad 6bbd 6cc3 25bf
000000e0: 2403 423e 3135 88bf f743 a7be 7d2f b2be
000000f0: c39e 20bf 8233 483f d842 8a3f e98c f2bf
00000100: 1c27 37be 63a7 29be 619c d0bd c703 e5be
00000110: 8f5e 273f 1c0a ab3f 47ae 723f e9c6 97bf
00000120: cf0e 60be 4701 b8bd f4bc 65bf fb0c c6bf
00000130: b14b 3e3d 9319 87bf 45a4 3e3e a87d 70bf
00000140: e6f2 8cbe 8e63 eabc 684d adbf 5fea 163f
00000150: 7373 95be 935c 8abf 7dbd 3bbf 6b2d 773f
00000160: eff4 573f 12e4 f33e c2b3 113f 0dc0 ea3e
00000170: 5d84 3f3e a7d8 00bf c78e 48c0 85d9 96bf
00000180: ca43 8ebd 7852 163e 33b8 2b3f 3fad c33f
00000190: 070f 9f3e a818 c5bf f3c5 a7bf 76da 733e
000001a0: e04a 103d e359 303e fe1c 8fbd 1494 2a3f
000001b0: e5a9 5bbe 0bda 03bf dec5 0abd 2440 2b3f
000001c0: 1dc5 d23f 0a50 1f3f ba98 ecbf c041 963e
000001d0: cec6 783e 7b21 bdbf 7d80 9f3f 3c38 c1bf
000001e0: 578c c73b ffc3 afbe 262f 153f 8be4 293e
000001f0: d9ee 92bf 4d6f 953e f2ea f1bf 5e8a 333f
00000200: f947 0fbf b3db a2bf 421e e5be 1dd1 15be
00000210: 9a6e 7abe d0b5 ca3e 4290 6fbe aa4e 7c3e
00000220: ff85 003e 9882 233c 1118 5b3f 76fe 34c0
00000230: 35e1 9cbf 4088 1d3f e565 42bf 5c75 e9bf
00000240: 457d 37bf 6661 0e40 0472 243e d5e1 7c3f
00000250: 4696 a3bd 7e5e 913d b3ab 063e 158b 19bf
00000260: 9873 d8be 758a cbbe 1a2d efbf 8d5d 2740
00000270: f078 ab3e d216 fc3e 5e3d 0dbf 85ad 19bf
00000280: f2bb ac3d a1ad 95bf c169 5fbe 284d 7bbd
00000290: 5f9d 2ac0 c1e5 c33e 3328 e7bf 75d7 71bf
000002a0: 235f 9d3f c9d8 c4be 6843 84bf d833 d1be
000002b0: 1ea3 8fbe 3ed6 c6bf d9d0 e1bf 4c24 a0bf
000002c0: acf4 41bf bd9f 41bf 1816 8fbf 9923 d43c
000002d0: e69f 75bf a1dc 483f 3e2f 673e 40d5 b33f
000002e0: f0e1 993f 2c4c be3f f871 603d 897f 00be
000002f0: 4a7f b0bf d2c3 32bf f325 6b3f 3117 88bf
00000300: f690 3abf 0a30 a63f 71be 0fbf d224 083f
00000310: c5be 0abf 774c 8cbe eec8 cf3f faef 7b3f
00000320: b40a cbbf b71a e73f d8c7 503f 3f89 85be
00000330: a37b b73e 0214 dd3f b902 25bf 59fb 11bf
00000340: 9219 b33e d9ae 99bd f1e2 7b3f 3bab 2b3f
00000350: 0ff6 d2be 9daf a4be 22eb 34bf 3564 713f
00000360: 16f3 823d fa20 bfbf ca15 61bf e47a 6d3f
00000370: 38af 92bf 1f7a 9fbf d799 e83f 7ecf 3f3f
00000380: 0457 cd3f d85c 793f 6370 a5bf 26f5 5f3f
00000390: 6ace 99bf 7f8e 823d 8de8 8f3f 168c 94be
000003a0: 7b1d 82be 8b72 503e ab3e 3fbf 9efc e53f
000003b0: 81cc 3abf 9e82 8bbf ad82 823f b3a2 3d3e
000003c0: fe67 93bb 87ec 98bf 0534 2240 4827 923f
000003d0: 287f b33f 193b 31bf cea5 723f 3b90 1abe
000003e0: 77a4 703f 44ec 883e 23b6 2d3f 74c7 11bd
000003f0: b724 593f 38f7 a23f dc9b 173f 356c 14be
0.0 0.0 0.0 0.0 0.0 0.0 0.0 1.9093909
-0.96480477 -0.09709749 -0.29367048 -0.364731 -1.4678439 0.4438683 -0.008487701 0.9045172
-0.6763318 1.008176 -0.06464687 -1.5100056 0.40384483 0.87569153 1.4977552 -0.9770036
0.29375347 -0.9277922 -1.2382883 0.35783297 0.36982742 -0.55495167 0.21635377 -0.80346876
-0.4799759 -0.96629584 0.11502953 -0.7575851 -0.4310844 0.6830525 -0.17572443 1.1793869
0.2874923 -0.47299677 -0.40946376 0.6275323 0.15773164 1.2939005 -1.847921 0.2149857
1.0300875 0.18479222 0.046352565 0.16342328 1.3543597 0.71329117 -0.05753805 -0.64751315
0.1894651 -1.0641233 -0.3266904 -0.34801856 -0.6274225 0.78203595 1.0801649 -1.8949252
-0.17886013 -0.16567759 -0.10186077 -0.44729444 0.6537866 1.336246 0.94797176 -1.1857578
-0.21880649 -0.08984619 -0.89741445 -1.5472711 0.046458904 -1.055468 0.18617351 -0.93941736
-0.27529067 -0.028611924 -1.3539248 0.5895137 -0.29189643 -1.0809501 -0.7333601 0.9655368
0.84358114 0.4763494 0.56914914 0.45849648 0.18702836 -0.50330585 -3.1337144 -1.1785132
-0.069465235 0.14679897 0.6707794 1.5287246 0.31066152 -1.539815 -1.3107284 0.23813805
0.035227656 0.17221789 -0.06987952 0.666322 -0.21451528 -0.5150458 -0.033880107 0.66894746
1.6466404 0.62231505 -1.8484108 0.29347038 0.24294588 -1.4775842 1.2461087 -1.5095286
0.006089728 -0.3432922 0.5827507 0.16591088 -1.147914 0.29186478 -1.8899825 0.70133007
-0.55969197 -1.2723297 -0.44749647 -0.14630552 -0.24456254 0.39591837 -0.23394874 0.24639383
0.12551115 0.009979866 0.855836 -2.828031 -1.2256228 0.61536026 -0.7593673 -1.823894
-0.7167552 2.2246947 0.16059119 0.9878209 -0.07987647 0.07098101 0.13151436 -0.5997785
-0.4227569 -0.39754072 -1.8685639 2.615085 0.33490705 0.4923616 -0.55171764 -0.60030395
0.08434285 -1.1693612 -0.21817686 -0.06135288 -2.6658552 0.38261226 -1.8059143 -0.94469386
1.2294658 -0.38446644 -1.0333071 -0.40859866 -0.28054136 -1.5534132 -1.764186 -1.2511077
-0.75763965 -0.75634366 -1.1178617 0.02589588 -0.9594711 0.78461653 0.22576615 1.4049454
1.2022076 1.4866996 0.05479619 -0.12548651 -1.3788846 -0.6983005 0.9185478 -1.0632077
-0.7287744 1.298341 -0.56149966 0.53181183 -0.5419734 -0.27402088 1.6233194 0.9841305
-1.5862641 1.8055028 0.8155494 -0.26081273 0.35836515 1.7271731 -0.6445728 -0.5702415
0.34980446 -0.07504053 0.9839316 0.6705815 -0.41203353 -0.32165232 -0.70671284 0.9429353
0.06394021 -1.4931939 -0.8792387 0.9276564 -1.1459723 -1.2459143 1.8171948 0.7492598
1.604218 0.97407293 -1.2924923 0.8748344 -1.2016118 0.06374835 1.1242844 -0.29013127
-0.25413117 0.20356195 -0.74705 1.7967718 -0.729683 -1.0899236 1.0196129 0.18519096
-0.004498481 -1.1947182 2.534425 1.1418238 1.402318 -0.692308 0.9478425 -0.15094082
0.94000953 0.26742756 0.67856044 -0.035590604 0.8482165 1.2731695 0.592222 -0.14494403

embed_cp.weight f4 [620, 6]
00000000: 0000 0000 0000 0000 0000 0000 0000 0000
00000010: 0000 0000 0000 0000 03df 2f3f 7b02 3ebf
00000020: a2df e9bf 7b84 b33d 099d 39be d205 a3bf
00000030: 05e3 61bf 5aba 94bc 86bc dbbf a9b8 883f
00000040: c05d 36be 9101 33bd a062 933c 3605 c9be
00000050: 6f39 93bf ca28 523e 672c 2fbf 8f44 f43b
00000060: 8a80 f9be dae2 69bd 637e 06c0 1bec d93d
00000070: 3354 e3bf 203f 0bbf 89b4 c3bf 1ebc a03f
00000080: 9267 c53e 239b 83bf 6ebd 5abf a820 6dbe
00000090: 0efa 54bf a4c4 44bf a8e7 cbbe af30 a43c
000000a0: 9a6a ccbe 8541 25be a1d0 0abf e750 a83f
000000b0: d7a4 bbbe 00a1 b3bf e214 94bf dcca f13f
000000c0: 004b a43f be87 3cbf ee8b f8be 51c5 8cbf
000000d0: 591b 00bf 19e5 a5be 2b4a 54bc a9a5 2e3e
000000e0: a484 943e 2c94 57bf a89d 883c 1c95 59bf
000000f0: 3316 63bf 433d 50bf e5bf 203f d2dd c63f
00000100: f9ec 8f3d 5d31 e73e 6af7 a3be 5ca1 7b3f
00000110: 6b65 d2bf 8b68 5e40 7fdf 1d40 4f28 76bf
00000120: 7e8d 833f a011 ae3f c896 89bf 5f2c 393f
00000130: d7cf 843e dc2f 91be 55c7 a9bd 2e87 bd3f
00000140: 6764 47bf c638 d83f 5f77 38c0 02a2 e43e
00000150: 089b 5e3f 8bb4 d63f 83e9 02bd 5ee5 f93e
00000160: 2eb2 45bf 6d76 c73f ba8c bcbf af40 7bbe
00000170: d6af ea3c 2a85 db3d 1306 38bf 25ca 29bf
00000180: 56ff bf3d fe0e c2bf bedb b33f a8ed e8be
00000190: 3a81 153f b894 cabf 6dfe b43f da9a ab3e
000001a0: d11d 10bf 8e5f b0be 7f30 e1be 9270 aebf
000001b0: 3775 843e 9883 033f 71b3 8dbe b85f 1f3c
000001c0: d14b 99bf cf19 4fbe 3c19 0fc0 eee2 a13f
000001d0: 030a 2dbe a6c8 503f 7c8e 753f 2d58 013f
000001e0: e9ea 543f eb57 3abf 4298 293f 333c 85bf
000001f0: 80e5 66bf 6292 463f 1e80 f0bd 6e71 8f3e
00000200: 022e c4bf 90a5 8a3f d60a c53e 530f c63d
00000210: 0ed5 27be be83 f23e dd65 d13d 7dd4 6abe
00000220: c03f cabf da15 cbbe d237 65bf 1019 e2bf
00000230: b983 9e3f 7b76 3cbc bb16 89bf b377 b7bf
00000240: 0257 13bf 3361 1ebf a0b6 a43e 1a8f fb3f
00000250: 4297 69bf ed8f 3c3e c417 6cbe ba5b 96bf
00000260: e906 da3f 4e74 3c3f 3f52 07bf fc5e 9dbd
00000270: 0fc2 ddbf 0411 d8bf 3634 9e3f 782b 553e
00000280: cdeb 8bbe 082f 62bf 8a7a a4bf eb1b 2bbf
00000290: 208e 0e3e 43e8 28bf 5387 92be 2f18 71bc
000002a0: b8d4 5e3e 3548 ed3e 23de 0b3e b3fe 58bd
000002b0: a7ca 17bf 2174 73bf ab30 85bf 9550 36bf
000002c0: 63ab 0bc0 9b1a 8ebf b438 a13f 0bf8 d23e
000002d0: a5ee ff3e 89c1 573f bdb0 bd3f 311a 103f
000002e0: 37e0 3bbf 6ac8 04bf 839a 5cbf f24e e1be
000002f0: 0171 f9bd 9f43 73bf a7a0 0940 8baf f03e
00000300: ac71 dfbf 5d88 373f 64ba 3c3f 89e9 c6bf
00000310: 8c8a 1a3e af6f 9e3e e973 d23f 07b6 3d3f
00000320: 3565 8dbf 32f8 a5bd 0b92 0140 170b 4c3e
00000330: be89 9b3f 92ee 85bf 07fd 9abf 35ee 97bc
00000340: a574 d83e b3ed febe 7009 9ebf 31ec 8ebf
00000350: 744b f83e d55d c8be b54f cc3f 50c8 983f
00000360: bdc3 2cbf 2f4d 553f 75f3 e9be 8da4 703f
00000370: d4dc be3f 17bf b0bf 71a4 0fbf 6da1 283e
00000380: c74f 14bf fc59 b3bf 5d4f 41bd df5e 30bf
00000390: b60f 3d40 668b 7bbe 5e54 90bf ec46 b2be
000003a0: 663a 2a3f a3b0 66be 80f2 f33e dd7b f03f
000003b0: b878 a0bf 6866 5d3e a37f 88bf b927 2a40
000003c0: 16d9 2dbf 4be7 99bd 9b14 b53f 2006 75bf
000003d0: f13c e4be 8a8c 40bf bf1f c3bf 75bc dabe
000003e0: dcd1 1ebf eb1a 383f eec5 b93e f2a6 b6be
000003f0: 9c44 dbbf a7c9 283f 3a8d 0440 5ae3 c5bf
0.0 0.0 0.0 0.0 0.0 0.0 0.68699664 -0.74222535
-1.8271372 0.08765503 -0.1812631 -1.2736151 -0.8823703 -0.018155266 -1.7166908 1.0681354
-0.178092 -0.043702666 0.017991364 -0.39261788 -1.1501902 0.20523372 -0.6842713 0.007454462
-0.4873088 -0.057101108 -2.101464 0.10640737 -1.776007 -0.54393196 -1.528947 1.2557409
0.3855558 -1.0281719 -0.85445297 -0.23156989 -0.83194053 -0.7686255 -0.39825177 0.020042745
-0.3992508 -0.16138275 -0.5422459 1.314969 -0.366492 -1.4033508 -1.1568873 1.8890033
1.2835388 -0.73644626 -0.48544258 -1.0997716 -0.5004173 -0.3240135 -0.012957136 0.17055382
0.29007447 -0.8421047 0.016676739 -0.8499315 -0.8870575 -0.8134348 0.6279281 1.5536444
0.07027621 0.4515485 -0.320247 0.9829309 -1.64372 3.4751308 2.466766 -0.96155256
1.0277555 1.3599129 -1.074914 0.7233333 0.2593982 -0.28356826 -0.08289973 1.4806879
-0.77887577 1.6892326 -2.8822858 0.44654852 0.8695531 1.6773847 -0.031960975 0.48807806
-0.77225006 1.5583016 -1.4730446 -0.24536394 0.028648298 0.107187584 -0.7188427 -0.66324073
0.09374873 -1.5160825 1.4051435 -0.45493817 0.5840031 -1.5826635 1.4140145 0.3351658
-0.56295496 -0.34447902 -0.43982312 -1.3628104 0.25870678 0.5137267 -0.27675965 0.009727411
-1.1976262 -0.20224689 -2.2359152 1.2647378 -0.1689835 0.81556165 0.9592054 0.5052517
0.83170944 -0.727904 0.6624795 -1.0408996 -0.9019394 0.7756711 -0.117431864 0.28016227
-1.532654 1.0831776 0.3848483 0.096708916 -0.16389868 0.47366136 0.10224507 -0.2293262
-1.5800705 -0.3966511 -0.895383 -1.7663898 1.2383949 -0.011502857 -1.0710062 -1.4333404
-0.5755464 -0.61867064 0.32170582 1.9653046 -0.91246426 0.18414278 -0.23055941 -1.1746743
1.7033359 0.73614967 -0.5285987 -0.076841325 -1.7324847 -1.6880193 1.2359684 0.20817363
-0.2732834 -0.88353014 -1.2849896 -0.66839474 0.13921404 -0.65979403 -0.2861887 -0.0147152385
0.21760833 0.46344152 0.13658957 -0.052977275 -0.592936 -0.95099074 -1.0405477 -0.7121671
-2.1823356 -1.1101869 1.259543 0.41204867 0.4998676 0.84279686 1.4819561 0.56289965
-0.73389 -0.5186831 -0.86173266 -0.44005543 -0.12179757 -0.95025057 2.1504304 0.4700893
-1.7456565 0.7169245 0.7372191 -1.5540019 0.15091914 0.30944583 1.6441623 0.74105877
-1.1046511 -0.0810398 2.0245388 0.19926105 1.215141 -1.0463431 -1.2108468 -0.018546203
0.42276493 -0.49790725 -1.234663 -1.116583 0.48495066 -0.39134088 1.5961825 1.193613
-0.6748617 0.833209 -0.45693555 0.94001085 1.4911141 -1.3808316 -0.5611029 0.16467829
-0.5793423 -1.4011836 -0.047194827 -0.6889476 2.954084 -0.24564895 -1.1275747 -0.34819734
0.6649536 -0.22528319 0.4764595 1.87878 -1.253684 0.21621096 -1.0663952 2.6586745
-0.6790937 -0.07514819 1.4146913 -0.9571247 -0.44577745 -0.75214446 -1.5244063 -0.42721906
-0.6203897 0.71916074 0.3628382 -0.35674244 -1.7130313 0.659327 2.0711198 -1.5460007

gru_dp_fw.decays f4 [7]
00000000: 0000 0000 0000 0000 0000 0000 0000 0000
00000010: 0000 0000 0000 0000 0000 0000
0.0 0.0 0.0 0.0 0.0 0.0 0.0

gru_dp_fw.gru_cell.weight_ih f4 [21, 7]
00000000: 0dd1 7cbe 5588 a93e 2cd9 1d3d d7ac f9bd
00000010: 2bba 273e 6448 9b3d b6da b43d 3434 1d3e
00000020: 5722 983e fce7 b6be 55ec 443c 2f34 3a3e
00000030: 5818 bc3d 4597 9a3e e9d6 89be 6f6b 11be
00000040: a9b5 5cbe 1853 47bd e24b bfbe 0e4a 82be
00000050: 983d 193d 0f70 79be d44d ef3d 2c2b f1bc
00000060: c511 a53e 8d7f a9bc 927e 5cbe 31fd 5bbe
00000070: c4c3 9b3e a4d2 0bbe af68 27be 8613 be3e
00000080: eabd 9d3c 0143 9c3e 5670 a63e 3f60 08bd
00000090: 2aa7 a3be e116 50be f759 ac3e 9500 e5bd
000000a0: 51d2 b73e 173b 3dbe c599 04be 7256 1dbe
000000b0: 0cfc f8bd 5495 30be 913c 24be 67b1 1bbe
000000c0: 52ff b9be 553e a93e b765 c03e 41db a4be
000000d0: 889a 66be 0c66 a43e ecf9 b43e cc42 73bd
000000e0: 3b36 783e e9b3 45be 5dad 8c3e 1828 c13e
000000f0: 1be5 3abe 5d5c 2b3e 0d7c 89be d07c c5bc
00000100: adfe 4dbe 6f0c 9e3d 4044 98be 3255 29be
00000110: 3032 693e 252e 373e e862 a5be ec89 38be
00000120: dfbf 983d 60f6 c1bd b963 cebd a46d 973c
00000130: 2edf 8d3e 45c7 41bd b7f8 5c3e 2616 ab3e
00000140: 76e8 40bd 8145 bbbe a1f7 7abd 06f6 8cbe
00000150: 3172 bbbe 2b7e 1fbe 07dd 3e3e d251 aebe
00000160: 5349 46be 592d 9dbe 591a a33d 8161 fa3d
00000170: 8d3b 19be 2b1c a9be c4c4 b13e d94f 83be
00000180: 3eaa a9be a024 2c3e 306d 87be 8ab3 05be
00000190: 549e a5be 9e89 6b3c 9abf 243e 803a bdbe
000001a0: ec69 a63e fd0a b53e 2e3a 153e 6641 b93e
000001b0: 16d6 933e f512 453e 77d7 4c3e d214 163e
000001c0: 82aa 24be 791c 1bbe 1d5f 963c f48b babe
000001d0: 541f 9d3e c645 7d3e da52 073e 25b3 f6bd
000001e0: ff67 993d c7da 16be 0d95 7b3e 5f88 99be
000001f0: 52c7 e03d 7017 6cbe a642 9bbd cfda dfbd
00000200: a4cd 993e e236 19be e4c8 76be 9210 53be
00000210: bdf6 19be 4082 833e 7914 77be 41d5 253e
00000220: b59f abbe 7588 b3be eb90 fe3c 2010 71be
00000230: 3243 6b3e cd46 9e3e 3726 b0be b5b3 a5bb
00000240: c337 42bd 3083 ca3d aa7e 373e
-0.24689122 0.33111826 0.03853719 -0.1219117 0.16379611 0.07582167 0.08830778 0.15351945
0.297137 -0.35723865 0.012019237 0.18183969 0.09184331 0.30193534 -0.26921776 -0.14201139
-0.21553673 -0.04866323 -0.37362581 -0.25447124 0.037412256 -0.24359153 0.116847664 -0.029439531
0.3224012 -0.020690704 -0.21532658 -0.21483304 0.30422795 -0.13654572 -0.16348527 0.3712427
0.019255597 0.3051987 0.3250758 -0.033294912 -0.31963474 -0.20321228 0.33662388 -0.11181752
0.35902646 -0.18479572 -0.12949283 -0.15365008 -0.12157449 -0.17244464 -0.16038729 -0.15204392
-0.36327606 0.33055368 0.37577602 -0.32198527 -0.22519886 0.32109106 0.35346925 -0.059389874
0.24239437 -0.19306912 0.27476016 0.37725902 -0.1825146 0.16734453 -0.26852456 -0.024107367
-0.20116682 0.07717215 -0.2973957 -0.16536406 0.22773051 0.17888696 -0.32302022 -0.18021363
0.074584715 -0.094708204 -0.10077614 0.018484898 0.27709335 -0.04730918 0.21579252 0.33415335
-0.047096692 -0.36576465 -0.061271314 -0.2753145 -0.3661056 -0.15575473 0.18639003 -0.340468
-0.19363908 -0.3069866 0.0796401 0.12225629 -0.14964123 -0.33029303 0.34720433 -0.25646856
-0.33137697 0.16810846 -0.2645049 -0.1305677 -0.32347357 0.014376072 0.16088715 -0.36958694
0.32502687 0.35359946 0.14572975 0.36182708 0.28874272 0.19245513 0.20004068 0.1465638
-0.16080669 -0.1514758 0.0183559 -0.364349 0.30687964 0.24733648 0.13215199 -0.12045888
0.07490539 -0.14731894 0.24568577 -0.29986855 0.10975517 -0.23055816 -0.075810716 -0.10930406
0.30039704 -0.14962342 -0.24100071 -0.2061179 -0.1503553 0.2568531 -0.24128903 0.16194631
-0.33520284 -0.35065046 0.031074962 -0.23541307 0.22974852 0.30913392 -0.34404156 -0.005056823
-0.04741646 0.09888303 0.17919412

gru_dp_fw.gru_cell.weight_hh f4 [21, 7]
00000000: 5e66 893e 75c9 5ebe 1e4e 60be c2de b43d
00000010: c0b4 9f3e 4fb3 903e d825 b03c 5e20 a4be
00000020: 5661 83be 9398 55be 1b60 c3be e4e5 bc3c
00000030: 015b 263e ff33 863e 157c 853e d23d 343d
00000040: da30 9d3e 2b07 f8bd 4c8d b2be a15a 663e
00000050: f203 05bd 7734 243e 6973 afbe 1814 b2be
00000060: 7f21 cc3e bb0f e13d 8683 8a3e d50a 80be
00000070: f35b 773e 85ca ebbe 161a 9abe e243 8dbe
00000080: 969a d6be aade e33e 062e 98bd 6b6a b1bd
00000090: 2ca4 973c ad16 b2bd 4244 803e 6e5d cc3e
000000a0: 97bb 913e 0c3d 36bd 864d c0be c5d3 f53d
000000b0: daac 38bd 63e2 26be b61b d73d e7a8 883e
000000c0: 6b66 88be 37fb b7be 0c7d 9e3e 6cd7 33be
000000d0: 9301 793e 80d4 353c 2d7f 233d 5dc5 04be
000000e0: 0d87 453e 7aaf b43e 2f3a fa3d c5e8 0dbe
000000f0: 127b c6bd cb6a 873e 2659 9ebd 3377 2bbd
00000100: 3cba 87be 7a05 eabd dbd2 a53d 59a5 67be
00000110: eaff 493e 944a 95be 84a0 973e e810 bcbe
00000120: eec8 893e de07 0ebe 3c4e 2e3e 0f7b fe3c
00000130: 020b 9f3e d0d7 9cbe aee0 a83d 2721 4a3e
00000140: 1c8e 76be 5051 b53d 4ed7 29bb ab86 1d3e
00000150: 81a6 1f3d 0603 933d 1cb3 36be 9323 523e
00000160: 7d42 b5be a86e 6a3d 0878 2e3e 48c8 8bbd
00000170: dd3c b9be 824e 5fbe 8d4e b23e c1f4 9abe
00000180: 2f00 92bd 7cc6 8c3d a591 bb3d d8f1 f73d
00000190: 081a a13e 6a20 a2be e89c 173e 27ad 4a3e
000001a0: 5c92 71be eb1c 9e3d 1c24 99bd 4906 1b3e
000001b0: 8735 713e 817d e2be 1397 553c bd59 1ebe
000001c0: 2b29 babe d784 6fbd e38c 3cbe b260 45bd
000001d0: 5ed5 6cbe 0a91 013d 5ddf ea3d 7c6f 593e
000001e0: 0136 9f3c dd0c 333e 28c3 87be 95ac 84be
000001f0: 91ed 643e 1f9b a8bd 1c74 d13c 5edb 143e
00000200: 5583 8bbe e5f8 c8be 061d 393e bc6f f33e
00000210: 2485 283c 77b3 ca3d 36ca 663e ac24 4a3e
00000220: 890f e3b9 4e70 afbe 0a69 bb3e 2d91 3d3e
00000230: 5672 88be c8fd 833e 7a30 3cbe 148c 1f3d
00000240: 1769 b8be 99c8 433e a43e 733e
0.26835912 -0.21756537 -0.219048 0.0883155 0.3119259 0.28261802 0.02150242 -0.32055944
-0.256602 -0.20858984 -0.3815926 0.02305884 0.16245653 0.26211545 0.2607123 0.04400427
0.30701333 -0.12110742 -0.34873426 0.2249551 -0.032474466 0.16035639 -0.34267738 -0.34780955
0.39869305 0.109893285 0.2705347 -0.25008264 0.2415617 -0.46052948 -0.30098027 -0.27590853
-0.41914815 0.44505817 -0.07430653 -0.08662876 0.0185109 -0.08695731 0.25052077 0.3991503
0.28463432 -0.044491813 -0.37559146 0.120032825 -0.04508672 -0.16297297 0.10503332 0.26691362
-0.2664064 -0.3593385 0.30954778 -0.17562646 0.24317007 0.011098027 0.039916206 -0.12965913
0.19289799 0.35290128 0.12218129 -0.13858326 -0.096914425 0.26448664 -0.077318475 -0.041861724
-0.26509273 -0.11426826 0.08096858 -0.22621669 0.1972653 -0.2915846 0.2961465 -0.36731648
0.2691111 -0.13870189 0.17022032 0.031064538 0.31063086 -0.30633402 0.08245979 0.19739209
-0.24077648 0.088534 -0.0025915685 0.15383403 0.03897715 0.07178311 -0.17841762 0.20521383
-0.3540229 0.057234436 0.17037976 -0.0682531 -0.36179247 -0.21807292 0.34825554 -0.30264857
-0.07128941 0.068737954 0.09158639 0.12106675 0.31465173 -0.31665355 0.14805949 0.19792615
-0.23590988 0.077203594 -0.074775904 0.15139116 0.23555575 -0.44236377 0.013036507 -0.1546392
-0.36359534 -0.058476295 -0.18413119 -0.04818792 -0.23128268 0.03163246 0.114683844 0.21233934
0.01943493 0.17485376 -0.2651608 -0.2591292 0.2235625 -0.08232712 0.02556806 0.14536807
-0.27248636 -0.3925239 0.18077478 0.47546184 0.010285649 0.098975115 0.22538075 0.19740552
-0.0004330839 -0.3426537 0.36603576 0.18512411 -0.2664973 0.25779557 -0.18377867 0.03895195
-0.36017677 0.1911949 0.23754364

gru_dp_fw.gru_cell.bias_ih f4 [21]
00000000: a421 90be d156 6fbe e753 75be 3ec6 a13e
00000010: 9fdb c3be 134e cdbd 8667 a9be c63f 99be
00000020: 16fb b5be 7fc4 83be fd84 593e 9fe0 0fbe
00000030: 3747 75be c2b2 4abe dd25 00bd b523 a03d
00000040: 2cfe 2b3d 7969 5b3e f5b8 453e b77f 7abe
00000050: 9a05 473d
-0.28150666 -0.23372962 -0.23957787 0.3159656 -0.38253495 -0.10024657 -0.33086795 -0.29931468
-0.35543126 -0.25735852 0.21242137 -0.1405053 -0.23952948 -0.19794753 -0.03128611 0.078193106
0.041990444 0.21426953 0.19308837 -0.24462782 0.048589326

gru_dp_fw.gru_cell.bias_hh f4 [21]
00000000: 2d23 9fbe 9215 93bd 8620 963e 7e7c fcbd
00000010: 033d a6be 08e3 c23c 9f25 b8be 7a0b 563d
00000020: 75b5 9b3e 569a 9cbc 6a1b 203e c8f8 983e
00000030: fd6a 7d3e cddb dbbb 4fa7 223e 39f2 853e
00000040: df1b 9b3d 2967 81be a527 1f3e 52e3 95be
00000050: 84a7 723d
-0.31081524 -0.071818486 0.29321688 -0.123284325 -0.32468423 0.023789898 -0.35966203 0.05225704
0.30411878 -0.019116562 0.15635458 0.29877305 0.24747844 -0.006709552 0.15884136 0.26161364
0.07573675 -0.25274017 0.15542467 -0.29274994 0.059241787

gru_cp_fw.decays f4 [6]
00000000: e02b 185c 67fc 22bb e02b 185c 6061 98ba
00000010: 9a7a 23bb 9279 08bb
1.7132975e+17 -0.0024869682 1.7132975e+17 -0.00116257 -0.0024944902 -0.0020824415

gru_cp_fw.gru_cell.weight_ih f4 [18, 6]
00000000: e586 823e f6d6 a73e b948 8f3d 54dd bebe
00000010: 4c73 31be c123 093e a2c1 0fbe 9591 b0be
00000020: c389 41ba 8fc7 a7bd b4ee 8ebe 7b8e 7abe
00000030: 32e8 6d3e bea2 d93d a778 1abe 37b4 773d
00000040: 9ed2 7d3e b919 093e 4512 aebe a259 aabe
00000050: a45a 123d 9ae2 aebe edcf 593e 174c 053e
00000060: 93b1 00bf 3fbb 66be 6fe6 0abf fdac 84be
00000070: 9646 963d cfc1 843d 9c3b 323c 5845 ac3e
00000080: 2edb 6dbd 9736 48be 3871 7fbe 85bf 383e
00000090: 5328 453c 4fe8 4f3e 6cba 803e 6df3 463e
000000a0: 3109 65be 0500 04bf 2f14 1cbd 57f2 dfbd
000000b0: 7210 163f 2995 c1bd a20f 3e3f 238d 01bf
000000c0: 859f cc3e c24f 80be 645c 873e 88df a1be
000000d0: d32f 9d3e fe1b 753e 16ba 0a3f c1e3 e33e
000000e0: c48b 233e 465d 25be 7c9a 1fbe b189 ebbc
000000f0: 453a 323e d7f0 1abf d261 1a3f 3a0b 053f
00000100: 8c0c babc f48f f9be 9ac0 783e d853 723d
00000110: 1320 393d 852d b3bd 1da0 7a3e 939b 2f3e
00000120: d01c 203f d151 273e 99b8 943e acc6 743e
00000130: ba2c a3be 0dd6 06be bdf8 bdbe 6bab 973d
00000140: a5cf e4be a581 643d 5835 16bf 5e06 953e
00000150: 92df fbbe 8971 b43d 3eed 8dbd 207d 463e
00000160: 17dd bfbe d40f c6ba 60a4 063f f838 ee3e
00000170: 94f1 8f3e 7d55 5ebe 400e 18bd 9b37 813d
00000180: 96de 8a3e 1051 8bbe c172 c13e 3c01 8b3d
00000190: 78fd 353e 8279 a5bd 2b37 533e 8569 05be
000001a0: c11b 133e e228 b3be 3f2a 623e b186 ffbd
0.2549354 0.3278119 0.069962926 -0.37278235 -0.17329139 0.13392545 -0.14038709 -0.3448607
-0.0007382894 -0.0819236 -0.2791649 -0.24468414 0.23233107 0.10626744 -0.15085088 0.0604746
0.24787375 0.13388719 -0.33998314 -0.3327151 0.035730973 -0.34157258 0.21270724 0.13017307
-0.50270957 -0.22532366 -0.54257864 -0.2591323 0.07337682 0.064822786 0.01087847 0.33646655
-0.058070354 -0.19552074 -0.24945533 0.18041809 0.01203354 0.20303462 0.2514223 0.19428797
-0.22366787 -0.5156253 -0.038105186 -0.109348945 0.58618844 -0.09452278 0.74242604 -0.5060598
0.39965454 -0.2506085 0.26437676 -0.31615853 0.3070055 0.2393646 0.54190195 0.445097
0.15971285 -0.16148862 -0.15586275 -0.02875218 0.1740504 -0.6052374 0.6030551 0.51970255
-0.022711061 -0.4874264 0.24292222 0.05916199 0.045196604 -0.087489165 0.24475141 0.1714919
0.62543964 0.16339804 0.29047087 0.23903912 -0.3187006 -0.13167591 -0.37103835 0.07405742
-0.4468967 0.0557877 -0.58675146 0.2910642 -0.49194008 0.088107176 -0.06930016 0.19383669
-0.37473366 -0.0015110918 0.52594566 0.4652784 0.28113997 -0.21712299 -0.037122965 0.06309434
0.27122945 -0.27210283 0.37782863 0.06787345 0.17772472 -0.080798164 0.20626514 -0.13028534
0.14366056 -0.3499213 0.22086428 -0.12476862

gru_cp_fw.gru_cell.weight_hh f4 [18, 6]
00000000: 7398 7abd ec40 733d 15c1 a6bd c257 9ebe
00000010: 04d7 54bd 1a6e 2bbe 8679 d9be ac52 98bc
00000020: 2708 fd3d f1ec 9cbe 69ce d4be f557 c4bd
00000030: 52b6 0ebd 9482 0a3f db21 12be cf68 2dbe
00000040: b4da c7be 1be9 02be ad2b a6be bedc d53e
00000050: 68df 4e3b 21c4 d5be ce3b ddbe d821 a5be
00000060: f543 c9be 9ff7 1fbe b31d 553d d334 083c
00000070: 6ea3 573e c84e d6bc 914b a0be e996 503e
00000080: 0520 a8be bb18 8fbe 9af8 32be dcaa 98be
00000090: 4820 24be 2c79 aa3d 613d b43e caa9 b2be
000000a0: bb79 a6bd a244 0d3f 8b61 6abe 5e8b 043f
000000b0: 2384 093f 37a3 9bbe adcc c6be 6a3d d1be
000000c0: 9823 9b3e ebb9 f13e 3ef4 023e ee9a aabd
000000d0: 52b2 40be 6b28 85be 94f3 72be 270a 843e
000000e0: 5c63 f1bd cfac 41bf 00bd 113d cf27 bbbd
000000f0: 3eb5 07be eb98 2a3f 92ee 243e f056 2c3e
00000100: ec8b 10bd a737 243e f871 cd3e 8035 8a3d
00000110: 92c9 803d 970b b03c 6ccd 94be 9160 af3e
00000120: b0eb 3abd f5b0 a83d 316d bdbe c7b2 f73e
00000130: 936c 8bbd 0759 cc3e a279 d1be c574 263d
00000140: 29e2 98bd 3690 a8be 6dee 2fbe 9e80 d3bd
00000150: e92b acbe fbc9 bb3e 5e88 f7bd b4f5 b0bd
00000160: 5673 c33d c957 443e 3410 153e 6081 b5be
00000170: 22c0 60be bc22 133e 5b0c 9f3e 0e0c bf3e
00000180: d1a8 afbe d7fe 05bf 48b9 3f3c 71b2 953d
00000190: ee49 fcbd ff3b 09be e09c 6dbc 5eef cd3c
000001a0: 2972 893e f880 153e 6ade 70be 5eca 86be
-0.061180543 0.059388086 -0.08142296 -0.3092633 -0.051962867 -0.16741219 -0.42475528 -0.018594109
0.123550706 -0.30649522 -0.41563728 -0.09587089 -0.034841843 0.54105496 -0.14270727 -0.16934513
-0.39034045 -0.12784235 -0.32455197 0.41769975 0.0031566266 -0.41751197 -0.4320969 -0.32252383
-0.3930966 -0.15621804 0.052030277 0.0083133755 0.21058437 -0.026160613 -0.31307653 0.20370068
-0.3283693 -0.27948555 -0.17477646 -0.29817855 -0.1602794 0.08323893 0.35203078 -0.34895164
-0.08128687 0.5518285 -0.22888772 0.5177516 0.5371725 -0.3039796 -0.3882803 -0.40867168
0.30300593 0.47212157 0.12788484 -0.08330332 -0.18818024 -0.260074 -0.2372573 0.25788996
-0.117865294 -0.7565431 0.035580635 -0.09138452 -0.13252732 0.66639584 0.16106632 0.16830039
-0.03528969 0.16036855 0.40126014 0.067484856 0.062884465 0.021489901 -0.29062974 0.34253362
-0.045634925 0.08236877 -0.3699737 0.48378584 -0.06807818 0.39911672 -0.4091311 0.040638704
-0.074650116 -0.32922524 -0.17180796 -0.10327266 -0.3362725 0.36677536 -0.12086557 -0.08640614
0.09543483 0.19174112 0.14556962 -0.35450268 -0.21948293 0.14368719 0.31064114 0.37313884
-0.34308484 -0.5234198 0.011701889 0.073094256 -0.123187885 -0.13401793 -0.014502734 0.025138553
0.2684491 0.14599979 -0.23522344 -0.2632627

gru_cp_fw.gru_cell.bias_ih f4 [18]
00000000: d61c cabe 5a05 ae3c bb3e e83e 0752 bd3e
00000010: ebbe 8fbd f523 813e 7d8a aa3d 3616 083f
00000020: 92d7 8ebe 8da6 f03e bdd4 dd3d a33b 65be
00000030: 7740 653e e9a2 11be 8fd1 603d c9ad d53a
00000040: 7330 bcbd 4248 183e
-0.39475125 0.021242786 0.4536036 0.36976644 -0.070188366 0.25222746 0.08327196 0.5315889
-0.27898842 0.47002068 0.10831592 -0.22386031 0.22387873 -0.14222302 0.05488735 0.0016302402
-0.091889285 0.14871314

gru_cp_fw.gru_cell.bias_hh f4 [18]
00000000: 9432 cdbe 37a5 eb3e f7a3 ca3e ca7d 953e
00000010: 7adf d13e bb7f ae3e 0a0e 1a3f 7fbb de3e
00000020: fbf5 4ebe 8dd4 a73e 54df c93e 0008 7cbd
00000030: 888f b93e a7e9 823e b41d 5b3d 20a5 673d
00000040: 8d97 10be 98cf 93bd
-0.4007765 0.46024486 0.3957822 0.29197532 0.40990812 0.34081826 0.6017767 0.43502423
-0.20211022 0.3277935 0.39428198 -0.061531067 0.36242318 0.25568888 0.053495124 0.05655396
-0.14120312 -0.0721733

gru_dp_bw.decays f4 [7]
00000000: 7fed c2ba 1873 20bb 8d39 50ba 0ede 34b9
00000010: d47f a3b9 198c 30ba 52f0 a1ba
-0.0014871805 -0.0024482664 -0.0007943146 -0.0001724886 -0.00031185022 -0.00067347434 -0.0012354946

gru_dp_bw.gru_cell.weight_ih f4 [21, 7]
00000000: 2dc5 59bd 679b 723d 5298 88bd 5613 cf3d
00000010: 0a7d 05be 28d4 b8be 2f94 0dbe 14f9 61be
00000020: 7261 833c 9b2f 48be c479 993e 67d9 933d
00000030: e7ec b73e 58bb 0bbe f458 843e f2ea 873e
00000040: cb32 9bbe 4f57 16be 81dc c9be 9238 ac3c
00000050: e0aa 15be 2cb3 1e3d 8494 813e 3dd9 e4be
00000060: 204f 1fbd 1fe5 2b3e 70a2 db3e ca9e 17be
00000070: d1b7 5ebd 3541 363d 8aa3 6cbd 204f 463c
00000080: 07e1 8ebe d9e8 313e 3a2e 473e cc6a 513e
00000090: f4b9 0e3e 0351 bb3e 543a 54be fc4e 9bbb
000000a0: f60f 90bd 8459 863d 4fc7 2abd 3eab 22bd
000000b0: 9336 293e ef05 9fbe f0ae 393c d763 7abe
000000c0: 479e 88bd 3000 aebe 6313 a93e 7b0f e0b9
000000d0: 73dd 14be 85be b43e 5432 a1b9 9e63 5c3e
000000e0: f178 b43e e464 8b3e 76ff b8bd 01b1 80bd
000000f0: a6c0 353e a608 99be 58dd afbd d01e 1bbf
00000100: 10e9 be3e 7345 b4be 04e9 133e 0ce5 993e
00000110: 808c 7d3e 27b5 6e3e c6ad 16bf 6843 f6bd
00000120: e1bc cabd b29f ac3d 873f 89be c220 d33d
00000130: 7042 92be 0797 893e 7dc7 30be 4bc3 173e
00000140: 785b b83c 6d23 583e 9089 01be 30e8 5c3e
00000150: 9da7 953d 9df3 b0bd 2688 47be 0d10 ca3e
00000160: c0b9 043d 6326 ae3e 5b09 913e 9c84 a4bc
00000170: b318 323e 7f3f 8ebe a340 0e3e 1795 2cbe
00000180: c3fd 0ebe 1312 edbd dd85 15be 4dcf 743e
00000190: 2ad0 8cbe 0b8a e93d c44e 983e 08b2 bfbd
000001a0: 7dd8 9a3e 414f f93e 00e2 8c3e 2b7f 003e
000001b0: 9945 c33d 21b2 4dbe 1ce1 863d ce2d 89bd
000001c0: aaac 593e 8f39 d9be b1ec 0b3e a066 063e
000001d0: c4f8 37be 23d2 99be 3972 853e fd11 e8be
000001e0: 86de af3c 2269 6b3e fd8f 6b3e 7bc5 2dbe
000001f0: 033f e03d 0e4c f3be ea51 a43e 82a4 59bd
00000200: 1b4f 23bd 8148 73bd 2ee3 8c3d f583 293e
00000210: 7118 613e 0f44 0cbe b67b 7fbe abbb 8cbe
00000220: f408 00bf b78a 2bbe 1d38 e4bd 1d73 80be
00000230: ecb6 283e b034 9e3c 662a 2a3d 7ca0 0bbe
00000240: 9574 2abe 9d60 56be 4b3c 2b3d
-0.053166557 0.059230234 -0.06669678 0.1011111 -0.1303598 -0.36099362 -0.13826059 -0.22067672
0.016037676 -0.1954941 0.29975712 0.072192006 0.3592293 -0.13645685 0.25849116 0.26546437
-0.3031219 -0.14681743 -0.39426044 0.021023069 -0.14615965 0.03874509 0.2530862 -0.4469699
-0.03889382 0.16786622 0.42897367 -0.14806667 -0.05437452 0.04449578 -0.05777315 0.012103826
-0.27906057 0.1737398 0.19451228 0.20450896 0.13938123 0.36585245 -0.20725375 -0.0047396403
-0.07034294 0.065600425 -0.04169398 -0.03971409 0.16524725 -0.31059214 0.011333212 -0.24452148
-0.06670814 -0.33984518 0.33022603 -0.00042736143 -0.14537601 0.35301605 -0.0003074581 0.21522376
0.3524852 0.2722541 -0.090331 -0.06283761 0.17749271 -0.2988941 -0.0858714 -0.6059389
0.37287188 -0.35209236 0.14444357 0.3005756 0.24760628 0.23311292 -0.5885891 -0.120245755
-0.09899307 0.08428897 -0.2680628 0.103089824 -0.28566313 0.26873037 -0.17263599 0.14820592
0.022504553 0.21107264 -0.12650132 0.21572948 0.0730736 -0.086402155 -0.1948553 0.3946537
0.032403708 0.34013662 0.2832745 -0.020082764 0.17392235 -0.2778282 0.13891844 -0.16853748
-0.1396399 -0.11575713 -0.14601846 0.23907204 -0.27502567 0.11403283 0.29747593 -0.09360129
0.30243292 0.48693278 0.27516174 0.1254851 0.09534759 -0.20087482 0.06585905 -0.0669819
0.21257272 -0.42426726 0.1366451 0.13125086 -0.1796599 -0.30043134 0.26063707 -0.45326224
0.021468412 0.22989324 0.23004146 -0.16969864 0.109495185 -0.47518963 0.32093745 -0.053135403
-0.039870363 -0.059395317 0.068792686 0.16554244 0.2198198 -0.13697837 -0.24949536 -0.2748693
-0.5001366 -0.16752134 -0.11143515 -0.25087824 0.16476029 0.019312233 0.04154434 -0.13635439
-0.16646035 -0.20935293 0.041805547

gru_dp_bw.gru_cell.weight_hh f4 [21, 7]
00000000: 671f 32bd 68d3 e53d a81b a4be 4264 513e
00000010: b6a6 e33e 5130 603d 0fad 84be 6c67 be3e
00000020: b853 c0bd aa50 8abd 5b51 dc3d 70a7 e23e
00000030: bcff 22be 947a 143e c1b8 873e f5ea b73e
00000040: 6d58 ce3d 8303 22be 1f6c 903e 43c2 c5be
00000050: 51c2 183f 61b2 de3e a309 1e3f e7b1 86be
00000060: b47e 4cbd bfbc 1d3d 2268 e13c ee2a 183f
00000070: 0f91 a5be 9c0d 51be 1ff4 9fbe c69a bcbe
00000080: 35b2 a2be 36c5 bcbe 7756 2cbe ca43 853e
00000090: 342f 93bd 31a1 6cbe 2251 ca3e 4561 0abe
000000a0: 994a 23be 5bd2 da3e 9554 723d 2838 fa3d
000000b0: 463b 9ebe 812e ad3e bcd3 173e 0213 58be
000000c0: 6df0 893e 0f04 bb3c 7625 e13e f58c b03d
000000d0: efa2 863e 0c91 ecbd cf52 1abe ef43 603e
000000e0: 83b8 093f 751a 1ebe a95c 06be 5b94 273e
000000f0: f747 b43c 7875 0bbf 515a 06be cf31 823e
00000100: 3fa9 253e 819a 883e 6d43 a33c c408 d7bd
00000110: b579 bbbe 9379 bcbe 7e25 973e 9d7a d83e
00000120: 40c0 3dbe 6da6 d13d a459 973e 8e9a 7a3e
00000130: 608b 9f3e b026 873e 3392 62bd c8c1 993e
00000140: 8146 adbe f179 17be 089f 56bd be20 e33e
00000150: a69f 223e ca00 653e bc90 66bd 86b4 d9be
00000160: b6b3 62bc 8f08 303e d681 b9bd 664e 0a3e
00000170: c846 a1bd 3305 8bbe da94 e03e 2e4f 2bbf
00000180: b4dc 20be aee6 fdbd ca43 043f ed02 603d
00000190: 8c14 8abe aa5c 3c3f 3864 01be b0ab b0be
000001a0: 923f 0a3f 110e 923e 8281 8d3e fadd e6be
000001b0: 34fc e53e c421 20bd 53a3 b0be f4e6 313e
000001c0: ed48 46be 4def 3bbd f197 b7bd e4bd 28bf
000001d0: bb93 b73e 62a1 253e fd94 b5be ed50 cc3e
000001e0: 0cbf d7bd a5aa 1ebf d66d 703e a714 1cbd
000001f0: f881 a1be 4696 2e3d 4930 8abd aa20 05bf
00000200: 2d9f 363c 3a98 0dbf a944 ea3e de5d 0d3f
00000210: a374 d4be 3b25 12be 34e9 c9be fabe e03e
00000220: 91b9 57be 3c78 9b3e 9efa 783d 008b a7be
00000230: b139 023f 43a5 263e ab49 3d3a cff3 263f
00000240: e34d e23d 2c24 10bf f34a 9b3e
-0.04348698 0.11221963 -0.3205235 0.20448402 0.44463128 0.054733578 -0.25913283 0.3718828
-0.09390968 -0.06753667 0.10757705 0.4426837 -0.15917867 0.14499885 0.26508144 0.35921445
0.1007546 -0.15821652 0.2820749 -0.38624772 0.59671503 0.43495467 0.61733454 -0.26307604
-0.04992552 0.03851008 0.027515475 0.59440506 -0.32337233 -0.20415348 -0.31240937 -0.36836833
-0.31776586 -0.3686921 -0.16829859 0.2602828 -0.07186738 -0.23108365 0.39515024 -0.13513668
-0.15946425 0.42738613 0.059162695 0.12217742 -0.30904597 0.33824542 0.14826864 -0.21101001
0.26941243 0.022829084 0.43973893 0.086206354 0.26296183 -0.11551103 -0.15070651 0.21900915
0.5379717 -0.1543978 -0.13121285 0.16365187 0.022006972 -0.5447612 -0.1312039 0.25428626
0.16177844 0.26680377 0.019929612 -0.10499719 -0.36616293 -0.36811504 0.29520792 0.42281047
-0.18530369 0.10236821 0.29560578 0.2447302 0.31161022 0.26396704 -0.055315208 0.30030656
-0.33842853 -0.1479261 -0.052397758 0.44360918 0.15881214 0.22363582 -0.056290373 -0.4252054
-0.013836792 0.17190765 -0.09057967 0.13506469 -0.078748286 -0.27152404 0.43863565 -0.66917694
-0.15709192 -0.12397514 0.5166594 0.05469029 -0.269688 0.73578894 -0.12635887 -0.34505987
0.5400325 0.28526357 0.2763787 -0.4509123 0.44918978 -0.0390947 -0.34499606 0.17373258
-0.19363756 -0.045882512 -0.089645274 -0.6591475 0.35854897 0.16174844 -0.35465232 0.3990549
-0.10534486 -0.6197913 0.23479399 -0.038105633 -0.3154447 0.04262378 -0.06747491 -0.52002966
0.011146349 -0.55310404 0.4575551 0.55221355 -0.41495237 -0.14272015 -0.39435732 0.43895704
-0.21066882 0.3036517 0.060785882 -0.32723236 0.5086928 0.1627398 0.0007220755 0.6521577
0.11050012 -0.56305194 0.3033062

gru_dp_bw.gru_cell.bias_ih f4 [21]
00000000: f3b8 fe3c 5da8 ba3d 81fd 8e3e c13a 57bd
00000010: b09d 633e eea8 8abe e98e 163f 8337 d33e
00000020: 79ef 4a3f 93c0 aa3e abfd 5f3f b47b df3d
00000030: 4061 fd3e 4dbd 703d 636d 103e 4412 503e
00000040: a089 22be e9ff 5abe 3db6 bd3d dde4 b7bc
00000050: 1611 a1be
0.03109405 0.09114144 0.27927783 -0.052546266 0.22228122 -0.27082008 0.58811814 0.4125329
0.79271656 0.33350047 0.8749644 0.109122664 0.49488258 0.05877428 0.14104228 0.20319468
-0.15872812 -0.21386684 0.09263275 -0.022447998 -0.31458348

gru_dp_bw.gru_cell.bias_hh f4 [21]
00000000: 11f5 a53d 185a f33e 6874 89be c548 d7bc
00000010: 40bb 7b3a 4bb2 193e 3d69 1f3f a520 1d3f
00000020: 7984 9d3e b34f 843e 8571 e83e c404 933e
00000030: ba99 273f 5b3b 753e 87d9 033e e720 fbbd
00000040: b216 80be 7f03 123e b187 173e c381 71be
00000050: 9188 a1bb
0.08103383 0.47529674 -0.26846623 -0.026279816 0.00096027926 0.1500942 0.62269956 0.61377937
0.3076513 0.25842056 0.4539911 0.28714573 0.65468943 0.23948424 0.12875949 -0.12262135
-0.25017315 0.14259146 0.14797856 -0.23584656 -0.00492961

gru_cp_bw.decays f4 [6]
00000000: e02b 185c 36c6 b1bb e02b 185c 02c6 bcbb
00000010: 8979 afbb b380 aebb
1.7132975e+17 -0.00542524 1.7132975e+17 -0.005760909 -0.0053550643 -0.0053254007

gru_cp_bw.gru_cell.weight_ih f4 [18, 6]
00000000: 41f5 6f3e 430a b0be 2d4c 9fbe 52ee 393d
00000010: f9bc 383e 48dc 18bf b8dc 383e 9790 84be
00000020: 2a83 3dbe 6e3b 053e e7fb c7be 8a12 c5be
00000030: 553c b93e 39fb bb3e a34a 2e3e b97c d23d
00000040: e8dd b73e 5aa9 1c3d d4fa cc3d 4e86 823c
00000050: 4dc1 69be 3a48 cfbe 2ce0 aebe 474c b7be
00000060: b40f e63d dd49 c8be 6dd8 01be ead7 bc3c
00000070: 2ef7 f4be 47fe 56be 87e3 a73e cd93 9fbe
00000080: 9e99 d9bd 7eec 273e a0bb 4c3e 781b 27bf
00000090: f15d 4dbe 3e25 a53d b31a 513e 9b3c 8f3e
000000a0: a92f 64be 9f24 cdbe f3b9 a83e d170 fabd
000000b0: e058 c3be 412e c8be 81ee a63e 40ec a4be
000000c0: d32b 91bc 6799 463e e4bb febd 0070 90bd
000000d0: 445f a4bc 5eb8 b63e 59e3 ce3d 74e8 843d
000000e0: 4f82 593d f788 aabc 1f1f 333e 7a61 073e
000000f0: ce03 c43e d928 783e 1eab 1c3d f248 5a3e
00000100: eaae 913e 0cdd 793e 34e8 503e ebcd fdbe
00000110: a14e 83be 2139 243e db95 8abe 2723 91bd
00000120: 0a3b d0bd e883 aa3e 9cf5 a0bd 11df a03e
00000130: c77d acbe bf6a 1cbf d615 2c3e cf91 6e3e
00000140: 9989 05be f247 a93e 5736 3b3e 0118 a33e
00000150: 723e 5ebc 7bc8 6ebd 2df6 83bd 53d0 9f3d
00000160: 4576 173f a4d5 7c3e 047d fc3d 11aa 933e
00000170: ed7c 923e ea53 ba3e 75ac bd3c 3eb7 d5bd
00000180: 0f0c 83be dfae 833d 2d59 83be 371a 09be
00000190: 37da 7b3e 3ae6 b73e 548d 6dbd 1cca ab3e
000001a0: 14e1 ca3e 6ac5 1dbd 65e2 753e b24a 283f
0.234334 -0.3438283 -0.31112805 0.045393296 0.18040837 -0.5971112 0.18052948 -0.25891563
-0.18507066 0.13010952 -0.39059374 -0.38490707 0.36178842 0.36715105 0.17020659 0.10277695
0.3591149 0.038247444 0.10008779 0.015933182 -0.22827645 -0.40484792 -0.34155405 -0.35800382
0.11233464 -0.39118853 -0.12680216 0.023052175 -0.47844833 -0.20995437 0.32790777 -0.3116745
-0.10625003 0.16398808 0.19993448 -0.6527629 -0.20055367 0.08063744 0.20420341 0.27975926
-0.22283806 -0.40067002 0.32954368 -0.12228549 -0.38153744 -0.3909779 0.3260384 -0.32211494
-0.017721092 0.19394456 -0.12438181 -0.07052612 -0.020064957 0.35687536 0.10101957 0.064896494
0.053102788 -0.020817263 0.1749234 0.13220778 0.38284153 0.24234332 0.038249128 0.21316889
0.2845376 0.24400729 0.20401078 -0.49571165 -0.25645927 0.16037418 -0.27067456 -0.07086783
-0.10167511 0.3330376 -0.07859346 0.31420186 -0.3368971 -0.6110038 0.16805205 0.23297809
-0.1304077 0.33062702 0.18282448 0.3185425 -0.013564693 -0.05829666 -0.06443439 0.078034066
0.5916484 0.24690872 0.12328532 0.28840688 0.28610936 0.36392146 0.023153523 -0.10435341
-0.25595137 0.064298384 -0.25653973 -0.13388906 0.24594961 0.35917836 -0.05799611 0.33552635
0.39624846 -0.038518347 0.24012144 0.65738976

gru_cp_bw.gru_cell.weight_hh f4 [18, 6]
00000000: 70ed 2cbe 2a7e 02bb 49b0 7abe 8f6b 953d
00000010: ee8a 303d 39f9 143e 7285 78be e924 a3be
00000020: 8e5c 003f afe4 1ebe 3471 95bd b37e f7bd
00000030: 6d26 09bf 5946 453f ca78 993e f271 263e
00000040: 9f54 f93d 6b63 8b3e 1d2d 87be 0b85 163e
00000050: 36d4 363f d57c 8dbe 302c 0e3e 0cc3 533d
00000060: 785c 29bb 3f8c 9dbe c89b 693e fb4a 6b3e
00000070: 6f96 53bb 2b82 7cbe 3e0e fcbd 17b9 a1bd
00000080: bf45 cbbd 978b 5f3d 32f6 e23e 4668 dfbe
00000090: a2ad 60be 552e 9dbe 36bf e03c 518f 95be
000000a0: df09 85be 8770 4dbe b0ea 143c d769 7c3e
000000b0: d621 b03b cf45 2c3e 9727 fabe a5e8 28be
000000c0: 071a 833d f2b2 8cbe 643a c73e af0a 4fbd
000000d0: 4f5d 9c3d 22f7 bfbe 5bc8 9a3e 610a b3be
000000e0: 82b9 923e e9f3 8ebe 3287 1bbe 35ef c9be
000000f0: 6965 f8be fc61 00bf 3a26 bc3d 874f 8cbe
00000100: a0a0 a1be 9e3b 293d bdd4 2d3d 0b43 bc3d
00000110: 421c e43d a084 9bbe 7a4d 70be 2b3c 2b3f
00000120: c4d8 613e c7db 8dbe f17c a0be c5b3 d3be
00000130: 4160 c43c 862b 32be ae31 0fbf ea76 073f
00000140: de4c 0b3f 615f 19be 222d df3e 807e 2b3f
00000150: 6165 1abe 3c09 d13e c44a 143f 2c13 8abe
00000160: 1362 f83e 81da ed3d 39c9 40bf 16be 133f
00000170: c3e3 c93e 54c6 1b3e 8ae9 c43e 8f10 943e
00000180: 0716 3abf 7c61 b43e 1caa 003f 61cf f03e
00000190: 9f6f 89bd b0ec 3b3e 795f 49be 6184 353e
000001a0: 2e66 ce3e d082 163e 96d6 a53e c780 893c
-0.1688745 -0.0019911625 -0.2448131 0.07295906 0.043101244 0.14548196 -0.24269655 -0.31864098
0.5014123 -0.15516923 -0.072969824 -0.12084713 -0.5357426 0.77060467 0.29974967 0.16254404
0.12174343 0.27224287 -0.26401606 0.1469919 0.7141756 -0.27634302 0.13884044 0.051699683
-0.002584247 -0.30771062 0.22813332 0.22977822 -0.003228571 -0.2465903 -0.12307404 -0.07896631
-0.099254124 0.054576483 0.44328457 -0.43634242 -0.21941236 -0.3069941 0.027434926 -0.29210904
-0.25984094 -0.20062457 0.009089157 0.2464975 0.0053751273 0.16823505 -0.4885833 -0.16494997
0.06401449 -0.27480274 0.38911736 -0.050547298 0.07634985 -0.37493235 0.30230984 -0.34968856
0.28657156 -0.27920464 -0.15188292 -0.39440313 -0.4851487 -0.5014951 0.09186979 -0.27404425
-0.3156786 0.04131662 0.04243921 0.09192475 0.11138202 -0.30374622 -0.23467055 0.66888684
0.22055346 -0.2770674 -0.31345323 -0.4134809 0.023971679 -0.17399415 -0.5593518 0.52915823
0.54414165 -0.1497779 0.4358912 0.669899 -0.15077735 0.40827358 0.57926583 -0.26967752
0.48512325 0.11613942 -0.7530704 0.57711923 0.3943158 0.15212375 0.38459426 0.28918883
-0.7268986 0.35230625 0.50259566 0.47033218 -0.06710743 0.18352008 -0.19665326 0.1772628
0.40312332 0.14698339 0.3239028 0.016785039

gru_cp_bw.gru_cell.bias_ih f4 [18]
00000000: dec3 c1be 0db2 213f baac 7e3e 2b2c c23e
00000010: a8e5 ed3d bac4 1abe 77e2 a43e 0353 813d
00000020: c5fd 09be 18bd 3cbe d75e 8cbc 47c6 81bc
00000030: 09d4 0cbd 779b 713e bb9e 243e 20e9 63be
00000040: a94c 253e bb80 edbc
-0.37844747 0.6316231 0.24870577 0.37924322 0.11616069 -0.15114108 0.3220403 0.06314661
-0.13475712 -0.18431509 -0.017135067 -0.015841616 -0.0343819 0.23594461 0.16076176 -0.22256899
0.16142525 -0.028992048

gru_cp_bw.gru_cell.bias_hh f4 [18]
00000000: 0bd3 68be da33 113f f23d 803c 0947 5a3f
00000010: a611 df3e 24b0 eebe 3e8e 6e3e 0f22 93bd
00000020: 1294 9dbd 4837 643e 11c2 3b3c e89a 973e
00000030: ecdf 6a3e 5884 9fbd 74e7 933e 8e83 913e
00000040: 5337 abbe 0e83 3bbe
-0.22736757 0.56719744 0.015654538 0.8526464 0.43568152 -0.4661876 0.23296449 -0.071842305
-0.07694258 0.22286713 0.011459843 0.29610372 0.22936982 -0.077889144 0.28887522 0.2842068
-0.33440647 -0.18311712

fc_dp.weight f4 [1, 14]
00000000: 1121 e73d 1f7c 073c e71b 8b3d ef3e 8cbd
00000010: fc6f 19bd b8f7 8abd e358 85bd a015 d2be
00000020: 0512 bfbe 305f 8d3e 7021 91be d073 c63e
00000030: d115 9d3e 1e08 d6be
0.11285604 0.008269339 0.06792431 -0.06847941 -0.037460312 -0.0678553 -0.065110944 -0.41032124
-0.37318435 0.27611685 -0.28345823 0.38760233 0.30680707 -0.41803068

fc_cp.weight f4 [1, 12]
00000000: c268 083e c81b aabe 0e75 aebe 4063 cf3e
00000010: 9e9b 2c3e 175f 683c 4484 a73e 4fd9 d1be
00000020: 2125 31be e3a1 3ebe f6d6 37be 43ab 30be
0.13321212 -0.3322432 -0.3407368 0.4050541 0.16856238 0.014182827 0.32718098 -0.40986106
-0.1729932 -0.18616442 -0.17953095 -0.17252831

fc_all.weight f4 [1, 25]
00000000: 61c4 9c3c 5e45 833c c7c8 d83d c232 553a
00000010: 90ca 9b3b 2377 f0bd 9b07 c7bc 10ea 6f3e
00000020: 6ba7 a8bd 9492 bd3d 6b7b 903e f23b ffbd
00000030: fd73 7b3b 5ee9 bebd 5535 dbbe 2100 65bd
00000040: b9ec 0cbc 47f0 2bbb 2d74 8cbd a906 033d
00000050: 69cf 9bbd 41eb 79bd 34ad 48bd 008d 913e
00000060: 1a4d 06be
0.01913661 0.016024288 0.1058517 0.00081328687 0.004754372 -0.117414735 -0.024295619 0.23429132
-0.082350574 0.09256473 0.2821916 -0.124626055 0.0038368695 -0.09321855 -0.42814127 -0.055908326
-0.008601361 -0.0026235746 -0.06858096 0.031988773 -0.0760792 -0.06101537 -0.048993304 0.28427887
-0.1311535
