ablation1_min_count/min_count_0/birnn_ode_decay_attention/final_model.pt (torch, 506599 bytes, 55 tensors)

embed_dp.weight f4 [8364, 11]
000000 00 00 00 00 00 00 00 00 00 00 00 00 00 00 00 00
       0.0 0.0 0.0 0.0
000010 00 00 00 00 00 00 00 00 00 00 00 00 00 00 00 00
       0.0 0.0 0.0 0.0
000020 00 00 00 00 00 00 00 00 00 00 00 00 4b c8 22 bf
       0.0 0.0 0.0 -0.6358687
000030 6c 88 97 bf 1c 0b 84 3e 27 75 4d 3f b9 58 0e c0
       -1.1838508 0.25789726 0.80256885 -2.2241652
000040 e8 a7 93 bf f2 9a d8 3e 67 96 6b 3d c5 8c 8f 3f
       -1.1535616 0.42305714 0.05751648 1.1214834
000050 d4 04 dd 3e 66 20 d5 bf f7 8a 1c 40 f9 75 98 bd
       0.43167746 -1.6650512 2.4459817 -0.074443765
000060 c7 1e 1c 3f 11 2a a7 bf 91 d3 9c 3f 68 6e 16 3f
       0.6098446 -1.3059713 1.2252065 0.58762217
000070 0b dc 2b bf ce 2b 86 3e e8 55 29 bf cc d9 63 3f
       -0.67132634 0.26205295 -0.6614671 0.89004207
000080 95 34 0c bf 3d f6 f2 bd a3 fc 2f bf 41 7f 40 3e
       -0.54767734 -0.118633725 -0.6874487 0.18798544
000090 bc 7d b2 3f 4a a2 a1 be c2 79 53 3e d5 06 4e bf
       1.3944621 -0.3156913 0.20651916 -0.80479175
0000a0 48 8e 14 3f 6c 63 10 3f 1c dc b8 bf 44 54 76 3e
       0.58029604 0.56401706 -1.4442172 0.24055582
0000b0 c1 84 a8 3e f5 c9 b9 bd bb a0 ad bd d3 cd db be
       0.32913783 -0.09071723 -0.084779225 -0.4293047
0000c0 e6 68 f7 3f 9b 94 58 3f 0b be 40 bf 3f 9c 39 3d
       1.9328887 0.84601754 -0.7528998 0.045315024
0000d0 79 6e 91 3c 23 78 83 3f b0 79 75 3e fc d0 88 bf
       0.017752873 1.0271038 0.23972201 -1.0688777
0000e0 3e 72 e8 3d 66 69 06 bf 9d 4f 6d bf a0 7a 7d 3f
       0.11349915 -0.52504575 -0.92699605 0.99015236
0000f0 81 0f bd bf 9a 46 a2 be 56 24 6c 3f f5 78 b3 3f
       -1.4770356 -0.3169449 0.92242944 1.4021288
000100 ae 4c f2 bd 32 3a e0 bf c7 6e 28 3f 41 67 b0 3f
       -0.11831032 -1.751776 0.6579403 1.378151
000110 da 1f a6 bf fd 1b 7e 3f 7c de 53 bf e6 e4 01 be
       -1.297847 0.99261457 -0.8276136 -0.12684974
000120 a7 3b a5 3f ba 2b aa be 03 39 9e 3e d7 3a 43 bf
       1.290883 -0.33236486 0.3090287 -0.7626166
000130 b4 2d e0 3f 89 3f 00 3d c7 08 25 40 32 4e a4 be
       1.7513947 0.03131059 2.5786607 -0.32090908
000140 d8 85 df 3f 39 93 ef bf 0b 73 32 be ae 15 a9 3f
       1.7462721 -1.8716804 -0.17426698 1.3209741
000150 3e d7 b2 3f 4e 83 39 3f e5 42 c8 3f 6e 2a 30 bf
       1.3971937 0.7246598 1.5645415 -0.6881474
000160 09 b7 e0 be 6d 3a 3b bf 53 52 6f bd 5f 72 67 3e
       -0.43889645 -0.73136026 -0.05842812 0.22602223
000170 ab 8e c3 3e 54 56 9e 3d 8c 61 e2 3f 2d 29 8e 3f
       0.38194785 0.077313095 1.7686019 1.1106316
000180 a5 bd d8 be aa 4e 16 3f 1b 3c 0c bf 2d 62 37 bf
       -0.42332187 0.5871378 -0.54779214 -0.7163418
000190 95 b8 4d bf bd bd 88 be fd 92 eb bf df f8 4b bf
       -0.80359775 -0.2670726 -1.8404232 -0.7967662
0001a0 6a d5 46 bf 3c 70 72 3f b1 1a d8 be b2 44 d6 bf
       -0.77669394 0.94702506 -0.42207864 -1.6739714
0001b0 e8 50 c4 bf e6 cb 62 3e f4 d2 bb bf 4a 2c 96 be
       -1.5337191 0.22148094 -1.4673753 -0.29330665
0001c0 be ee 83 bc cf e3 42 3f d6 cf 33 bf 58 3f 8f be
       -0.016105052 0.7612886 -0.7023901 -0.27978015
0001d0 97 ce 1c 3f b4 7a 16 be 6b 2b 4f bf 7c 82 48 3f
       0.6125273 -0.14695245 -0.80925626 0.78324103
0001e0 83 05 87 3f 39 c0 eb 3e 6f 18 a2 3f 32 5c 29 3f
       1.0548557 0.46045092 1.2663707 0.66156304
0001f0 80 4a 49 bf c4 4c ee 3a fd d9 2e bf 92 c3 b9 be
       -0.786293 0.0018180837 -0.68301374 -0.3628202
000200 13 48 32 3e ca 36 2a bf 42 70 ed bf 81 e0 ef bf
       0.17410307 -0.6648985 -1.8549883 -1.8740388
000210 ec 5c 55 bf db 31 0c 3f 4a 47 0b 3e c6 d8 93 3f
       -0.8334491 0.54763573 0.13601413 1.1550529
000220 26 e9 f5 3e 2f 62 b9 3f 87 b2 1b bf 1e 24 17 bf
       0.4802944 1.4483088 -0.60819286 -0.59039485
000230 d8 c7 b5 3d b6 8d 3e 3f dc 94 19 3f b8 d7 85 3f
       0.08876008 0.74434984 0.59992766 1.0456457
000240 95 de 5b bf cd 70 e3 be 25 c0 96 bf 10 1e b6 bf
       -0.8588651 -0.44421998 -1.1777388 -1.4227924
000250 73 85 73 3f e9 e3 2f bf 74 d5 8c bf b0 8c dc bf
       0.951255 -0.6870714 -1.1002641 -1.7230434
000260 fa 8c ef bf ab c7 6c 3e da 41 72 be 5d de f5 3f
       -1.8714898 0.23123042 -0.23657933 1.9208485
000270 0e 1a e2 be 59 0d bf be c9 80 7d 3f 65 3f b8 bd
       -0.44160503 -0.3731487 0.99024636 -0.089964665
000280 f8 1d a1 bf 94 c3 a5 3e b1 da f5 3e 5f ac d9 3e
       -1.2587271 0.32375777 0.4801841 0.4251432
000290 68 29 2f bf 7d 04 2c 3e 09 b4 02 bf 58 86 97 be
       -0.68422556 0.16798587 -0.5105596 -0.29594684
0002a0 18 6e aa bb 18 3b ae 3f fe 93 0f bf 23 23 43 bf
       -0.0052011125 1.3611784 -0.56085193 -0.7622549
0002b0 97 e8 40 bf 59 56 da 3f 3d 85 cb 3f 31 30 2c 40
       -0.75354904 1.7057601 1.5900036 2.6904414
0002c0 01 ef 33 3f 30 f9 46 3e d0 88 31 bf 52 ef 13 c0
       0.70286566 0.19430995 -0.69349384 -2.311482
0002d0 2e f2 d7 3d 2e 2b 89 bf f8 9a 10 3f 43 2a 34 3f
       0.10544239 -1.0716302 0.56486464 0.70376986
0002e0 86 66 b9 3e 9a 0c 75 bf 5f e3 db bf cd d4 60 3f
       0.36211032 -0.95722353 -1.7178763 0.8782471
0002f0 31 65 19 3f 7c 3f 8e bf 32 65 1f bf f0 9b 63 40
       0.5992003 -1.1113124 -0.62263787 3.5563927
000300 83 e6 70 bf 12 03 e1 3f da ca 6d 3f 03 c4 23 3f
       -0.9410173 1.7579062 0.9288765 0.63970965
000310 47 2a d8 bf 25 db 6a bf fa b2 26 3f 5a 1e fb bf
       -1.6887902 -0.9174064 0.65116847 -1.9618638
000320 c1 7f ba be 1f 25 34 3f 50 15 13 bf 52 f5 7b 3f
       -0.36425593 0.7036914 -0.57454395 0.98421204
000330 8b 60 08 3f 2a 80 20 bf 01 58 0e 40 20 04 9e bf
       0.5327231 -0.6269556 2.2241213 -1.2345009
000340 2e b2 b7 3e 99 8c cd bd b5 3c bc be ac a2 6b 40
       0.35878128 -0.100365825 -0.36765066 3.6818037
000350 50 c5 ae 3f ca 6f 17 c0 f7 b8 fb be c2 b8 93 3d
       1.3653965 -2.366198 -0.49164554 0.07212974
000360 ec 53 a1 be cb 09 e5 3f dc 85 2c bf a0 22 10 c0
       -0.3150934 1.7893614 -0.67391753 -2.2521133
000370 58 e4 93 3f 43 a0 84 bf 9e 2a 6d 3e 1b 89 6d bf
       1.155406 -1.0361408 0.23160788 -0.9278733
000380 61 9a 1c 40 27 57 95 bf d9 d3 bf bf 7f d9 09 3f
       2.4469225 -1.1667222 -1.4986526 0.538475
000390 a9 3d 02 bf 07 dd b5 3f 9e a2 83 bf ca 84 1b bf
       -0.50875336 1.4208077 -1.0284002 -0.60749495
0003a0 c6 67 a8 be 23 77 a3 bf 1c 6d 81 3f 63 1f 09 3d
       -0.32891673 -1.2770733 1.0111423 0.0334772
0003b0 88 c9 ca bf 6e 69 1a bf cb 26 4c 3f 80 02 5e bc
       -1.5842752 -0.6031712 0.79746693 -0.013550401
0003c0 58 be 68 3d 44 95 07 bf da 1f 4b 3e ea 9e 2f be
       0.05682215 -0.52962136 0.19836369 -0.17150465
0003d0 3c 0a 6a 3f ed bb a8 be 20 6c d6 3e e3 fc 43 3f
       0.91421866 -0.32955876 0.41879368 0.7655775
0003e0 3a da 7c bb 52 9f 03 c0 8a 17 95 3f d6 d7 03 bf
       -0.0038582222 -2.0565991 1.1647809 -0.51501215
0003f0 51 e2 ba be fe e3 1a 3f 6f d1 26 40 01 c8 26 bf
       -0.3650079 0.6050414 2.6065328 -0.6514893

embed_cp.weight f4 [2759, 9]
000000 00 00 00 00 00 00 00 00 00 00 00 00 00 00 00 00
       0.0 0.0 0.0 0.0
000010 00 00 00 00 00 00 00 00 00 00 00 00 00 00 00 00
       0.0 0.0 0.0 0.0
000020 00 00 00 00 30 a6 4c bf eb d8 aa bf 28 ef 05 be
       0.0 -0.7994108 -1.3347448 -0.13079512
000030 e3 ed 9f be 84 e1 f6 bf 5e a5 17 3e f7 45 f1 be
       -0.3123618 -1.9287572 0.14809176 -0.4712369
000040 8d eb c3 bf 63 48 0a 40 e0 8a 47 bf 2a 9f dd 3e
       -1.5306259 2.1606681 -0.7794628 0.43285495
000050 d7 55 b7 be 2a 80 3d 3f 40 0a 17 bf 5f 45 de 3f
       -0.35807678 0.7402369 -0.59000015 1.736492
000060 1b 53 d5 bb 6a db 6d 3f f5 3b e9 3f 6b dd 07 40
       -0.006510151 0.92912924 1.8221422 2.1228893
000070 ed 83 83 be a1 19 9b 3f 9f 41 db bf 2e 13 0a bf
       -0.2568659 1.2117196 -1.7129401 -0.53935516
000080 f2 9e 97 be aa 9a 0a bf 68 aa e9 3f 50 e8 ea 3e
       -0.29613453 -0.5414225 1.8255129 0.45880365
000090 05 0d 26 3f ad 6e 50 3f 25 64 ab bf 26 6c af 3d
       0.64863616 0.8141888 -1.3389937 0.085655496
0000a0 82 17 66 3f e0 4f 17 bf e6 f1 cc 3e bc 9a 30 be
       0.8987962 -0.59106255 0.40028304 -0.17246526
0000b0 e8 de 89 bd 39 df 3d bf 58 bb 02 c0 a8 be 10 be
       -0.06731969 -0.74168736 -2.0426846 -0.1413523
0000c0 60 98 21 40 0b 6c 15 bf 27 9c 7e bf 64 55 4b bf
       2.5249252 -0.58367985 -0.9945702 -0.7942717
0000d0 f5 a7 61 3e 3c 2c 9d bc 8e 74 ef bd f5 62 55 bf
       0.22036727 -0.019186132 -0.11692153 -0.8335412
0000e0 17 b0 99 bf 9a 1e 06 3f c0 de 5d 3f 81 3a 1a 3f
       -1.2006863 0.52390444 0.86668015 0.6024552
0000f0 5c 96 76 bf 8a 86 30 3f 0f 34 36 3e 2a 85 d4 be
       -0.9632318 0.6895529 0.17793296 -0.41507846
000100 5c cc 93 bf 3e d3 a2 bf 01 c8 3e bd 41 a7 99 3f
       -1.154674 -1.2720716 -0.046577457 1.2004167
000110 61 e9 1a bd b8 3a 1b 3f 9b 7f 42 3f 50 4a 00 bf
       -0.037820224 0.6063647 0.7597596 -0.5011339
000120 dd 5f c7 bf 2a 04 6a 3f 2d cd fb bf 71 50 0b 3f
       -1.557613 0.91412604 -1.967199 0.5441962
000130 61 05 22 bf 71 8c 0a c0 06 8e a6 bf 48 e1 e2 3f
       -0.6328946 -2.1648219 -1.3012092 1.7725
000140 05 4c 2d bf cb dd 8e 3e 36 89 41 3f e4 b7 0f be
       -0.6769412 0.2790359 0.7559999 -0.14034992
000150 5a a3 b4 3d e5 d0 01 3f 3a 94 af 3e 85 f3 bd bf
       0.08820219 0.5070937 0.34292775 -1.4839941
000160 6a 01 b6 3e c7 a3 38 bf ea cc f6 3e 39 5d b0 3e
       0.35547954 -0.72124904 0.48203212 0.34446123
000170 7f 4a da bd f0 3c 93 be 6f 34 78 bf 74 d2 7e bf
       -0.1065874 -0.2875743 -0.9695501 -0.99539876
000180 9b 52 28 be f4 79 1c bf e2 a7 81 3f 40 db c2 be
       -0.16437761 -0.61123586 1.0129359 -0.380579
000190 a4 49 83 bf 75 95 1b bf 64 79 63 bf 9f 00 81 be
       -1.0256848 -0.6077493 -0.888571 -0.25195786
0001a0 1f 21 b2 3f 82 0a 05 bf 3c c3 db be a1 e4 32 bf
       1.3916358 -0.5196916 -0.4292239 -0.6988011
0001b0 eb 0f 7f bf 4d 9b 0c c0 1c 57 02 3f fb 5e bd 3f
       -0.99633664 -2.1969788 0.5091417 1.4794611
0001c0 ca d6 43 bf 8e 6a 84 3e fa c2 7e be 2b 4b 84 3f
       -0.7649962 0.25862545 -0.24879065 1.033544
0001d0 66 ce 22 3e 4e d0 b7 3b ab e1 3c bf 6f 6e e8 3e
       0.15899047 0.0056095487 -0.7378184 0.45396754
0001e0 5a ef 8d 3e d6 00 ee 3f 48 5c 21 bd 17 0b 7a 3d
       0.27721673 1.8594005 -0.039394647 0.061045732
0001f0 e8 66 28 bd 20 f6 d0 3d c7 6f 74 3f e4 c7 fd 3e
       -0.041113764 0.102031946 0.9548306 0.49566567
000200 c9 89 25 bf 06 29 86 3f 04 3e 19 bf 29 85 0a 3e
       -0.6466337 1.0481269 -0.59860253 0.13527359
000210 2f c6 80 bf 1f f0 ae 3f 98 8f c2 bf eb f4 2d c0
       -1.0060481 1.3667029 -1.5200071 -2.7180736
000220 ff 65 85 be 71 24 47 3f a8 6f ba be fe 49 99 bf
       -0.2605438 0.7778998 -0.36413312 -1.1975706
000230 f8 fa bb bf ef fb 67 3d 3f ce fa bd b3 c0 c0 3f
       -1.4685965 0.056636747 -0.122463696 1.5058807
000240 dc 9c 9a bf da 2b 1a 3e c6 d4 6b 3e a8 e7 4f bf
       -1.207912 0.1505579 0.23030385 -0.81212854
000250 cb 06 57 bf 96 81 3e be 50 9d 7b bf d2 b6 f5 be
       -0.8399474 -0.1860412 -0.98286915 -0.47991043
000260 df 0e 2e 3d 7c bb 2e 3f 19 eb 29 bf dc 90 ab be
       0.04249465 0.6825483 -0.66374356 -0.33508956
000270 99 09 c2 bf c6 2b 88 3d c9 77 24 3a 53 66 ba be
       -1.5159179 0.06648974 0.0006273953 -0.36406192
000280 d0 f0 df be 2c 3b 43 bf 84 b2 ca 3f ad a5 2d be
       -0.43738413 -0.76262164 1.5835729 -0.16957732
000290 d3 43 9a 3f 2d c3 9f be 91 50 1d 40 2c d8 01 3f
       1.2051948 -0.31203595 2.4580424 0.5072048
0002a0 a3 30 0b bd af fb 4c bf 4f d8 1d bf cf 54 20 bf
       -0.03398193 -0.8007154 -0.61658186 -0.6262941
0002b0 76 81 c3 3f 99 f3 98 3f 80 6b 6d 3e 5c d2 3c 3f
       1.5273883 1.194934 0.23185539 0.7375848
0002c0 b9 a3 a2 bc 1d dc 84 3f f5 7c 53 3f d2 a0 a7 3d
       -0.01985346 1.0379673 0.82612544 0.08184971
0002d0 a3 d2 54 bf 76 a8 eb 3f 4d e2 42 bf d9 64 22 3f
       -0.83133906 1.8410785 -0.7612656 0.6343513
0002e0 aa 0d 0f 3e 48 3a 17 3f a2 bc 21 3e 32 13 e1 be
       0.13970056 0.59073305 0.15794614 -0.43959957
0002f0 11 59 23 bf 11 9e c1 be c7 cb 44 bf 28 f0 5c bd
       -0.6380778 -0.37815908 -0.7687344 -0.05393997
000300 d3 04 06 c0 47 de 89 3f d2 ee 01 40 25 56 d8 bf
       -2.0940444 1.0770959 2.0302014 -1.6901289
000310 af e1 cc 3c 1c 15 3f 3e be 3e 0f 40 6f 7d 9a be
       0.025009958 0.18660396 2.2382045 -0.30173823
000320 47 c0 3c be 4c 8b 3d 3f d8 7e 8c 3f dc 49 4b 3f
       -0.18432723 0.74040675 1.097621 0.79409575
000330 f3 c5 13 be 5d 41 16 40 66 e7 23 bf 0c ac 99 be
       -0.1443098 2.3477395 -0.6402496 -0.30014074
000340 32 4d bf be d4 b2 aa 3e 61 39 61 3c 98 b7 85 bf
       -0.37363583 0.3333956 0.01374659 -1.0446653
000350 60 ad dd bf 7f 5d 46 bf cd 5e f6 3f 54 e2 43 bf
       -1.7318535 -0.77486414 1.9247681 -0.76517224
000360 27 8d 4d 3f 5f 66 78 bf 89 d4 0e bf a1 86 cc 3f
       0.80293506 -0.97031206 -0.5579305 1.5978585
000370 0e b6 a6 be de 2f 0c bf 84 87 89 ba 25 74 9f 3f
       -0.32560772 -0.5476054 -0.0010492657 1.245732
000380 c5 0d 92 bf 63 09 28 bf 9e aa 3d be 08 6b 49 bd
       -1.1410452 -0.65639323 -0.18522117 -0.04917434
000390 cd fc 73 3f 46 bb bb 3f f8 45 e9 3f 38 a9 03 bb
       0.9530762 1.4666526 1.8224478 -0.0020089876
0003a0 65 e8 be 3f 45 d1 14 40 51 6a 1c c0 85 01 dd 3e
       1.4914671 2.3252728 -2.443989 0.43165222
0003b0 3e 88 50 bf 6d fd e8 3f e0 40 4d bf 62 04 b4 bf
       -0.8145789 1.820234 -0.80177116 -1.4063838
0003c0 cf a5 19 3f f7 68 8e 3f 99 c0 c0 3e bd 10 bc 3f
       0.6001863 1.1125783 0.3764694 1.4692608
0003d0 86 4b 45 bf 30 dc ea bf 07 21 29 be 30 86 6c 3f
       -0.77068365 -1.8348446 -0.16516505 0.92392254
0003e0 82 56 81 3f 88 b4 8e 3f 90 c4 f2 3f e4 56 96 3f
       1.0104525 1.1148844 1.8966236 1.1745267
0003f0 4b b9 1a bf 53 38 cc 3f 9f 4f b1 3f e5 38 e1 be
       -0.60438985 1.5954689 1.3852423 -0.4398872

gru_dp_fw.decays f4 [11]
000000 00 00 00 00 00 00 00 00 00 00 00 00 00 00 00 00
       0.0 0.0 0.0 0.0
000010 69 06 f1 00 86 06 64 09 d4 02 d6 02 07 06 17 08
       2.2134654e-38 2.7447569e-33 3.1446097e-37 4.5446995e-34
000020 12 00 18 00 04 00 11 00 01 00 17 00
       2.204077e-39 1.561209e-39 2.112218e-39

gru_dp_fw.gru_cell.weight_ih f4 [33, 11]
000000 d9 1f b3 3d ed c9 17 3d 9a 08 40 be b1 a0 3f be
       0.08746309 0.037057806 -0.18753281 -0.18713643
000010 6f 69 15 3b 67 98 ed bd 81 20 5b 3d 55 0e 82 be
       0.002279844 -0.11601334 0.053497795 -0.2540156
000020 90 74 89 bc 20 e9 ca 3c 45 be d8 3d b9 6c 16 bd
       -0.016779214 0.024769366 0.10583166 -0.03672478
000030 dc bd 3a be 82 bd fb bd 5a ff 8f 3e 67 68 0d 3e
       -0.18236488 -0.12292005 0.28124505 0.13809358
000040 4a 8f ea 3b 19 92 f2 3b 1d f4 45 3d 20 84 dc be
       0.0071581947 0.00740267 0.048328508 -0.43069553
000050 b9 91 b0 3e 03 11 53 bc 0c ac 64 3e de 85 38 3e
       0.34486178 -0.012882474 0.22331256 0.18019816
000060 6d 93 06 3d 86 f3 1e 3e 09 ca e9 bd 28 fc b7 3d
       0.03285544 0.15522584 -0.11415488 0.08983642
000070 9a af bb 3e bb 40 38 be b2 06 31 3e 4b f9 3c be
       0.3665741 -0.17993443 0.1728771 -0.18454473
000080 c4 94 19 be 75 f0 14 be ba 68 4a be f1 32 fe 3c
       -0.14998156 -0.14544852 -0.19766513 0.03103015
000090 63 ae e9 3d 83 75 c7 bd 90 0d bf bc 93 21 95 3e
       0.11410215 -0.097392105 -0.023321897 0.29127178
0000a0 35 de 73 be 8c fb 04 3b 98 ac 08 3f d5 ab 69 3e
       -0.23815234 0.0020291535 0.5338836 0.22819455
0000b0 2f 23 40 be c4 5f fc 3d ea ec e5 bd 9e ab 24 3e
       -0.18763421 0.12322953 -0.112268284 0.16081092
0000c0 82 2e 82 be ce 54 69 3d bd 0e 65 be 25 0a 67 be
       -0.25426108 0.05696564 -0.22368903 -0.22562464
0000d0 1e 14 34 3e 24 53 02 3e a1 87 b4 bd 64 a1 97 be
       0.17585799 0.12727028 -0.08814932 -0.2961532
0000e0 8c 8c c7 3c 75 6e e9 bc c2 68 f3 bb a8 40 d8 3d
       0.02435901 -0.028495053 -0.0074282596 0.10559207
0000f0 2d fa 5f 3e 68 3b 4f bd d7 dd 07 3d b7 f9 ed 3c
       0.21872778 -0.050593764 0.033170547 0.029049737
000100 8a 55 95 bd d4 95 33 3e 78 80 3c 3d e7 a6 5c bd
       -0.07291706 0.17537624 0.046020955 -0.053870108
000110 ea 1a b7 be bc 2e 84 3e 7d b5 3b 3d 7b f7 8b 3d
       -0.3576272 0.25816905 0.045827378 0.068343125
000120 ce c1 43 3d d7 19 9a be 58 72 af 3c d0 f7 94 3e
       0.04779225 -0.3009784 0.021416828 0.29095316
000130 03 68 4a 3d f1 93 c1 be e6 8c 19 be 3b b8 8c bc
       0.0494156 -0.37808183 -0.14995155 -0.017177692
000140 09 fd 1e be a4 d6 89 be 87 a3 84 bd fc f4 1f be
       -0.15526213 -0.2692157 -0.06476503 -0.15620798
000150 f5 4e 89 3e b9 5b 68 3d 1b be 8e bd dd a0 93 3e
       0.26818052 0.0567281 -0.069698535 0.28833666
000160 68 60 88 3e 3e 6b b6 be 0d 8c 66 3e b0 55 97 be
       0.26636052 -0.35628694 0.22514363 -0.29557562
000170 48 7b 71 be 69 85 0f be ca 83 09 3e 26 9b a1 3e
       -0.23582184 -0.14015736 0.1342918 0.3156368
000180 bb 52 01 bd d4 08 bd 3c ae ff a2 3e c9 26 18 3e
       -0.03157304 0.023075499 0.31835693 0.14858545
000190 b3 0c d5 bd 31 ae 93 be 17 a3 24 3e ca ae 04 bc
       -0.10402813 -0.28843835 0.16077839 -0.008098314
0001a0 79 56 73 bd 54 db a0 bc f9 77 e8 3d c3 b7 8a be
       -0.05940864 -0.019635834 0.11351008 -0.27093324
0001b0 9f ef 38 3e af 20 9f 3e ea fe ee 3c 43 d8 2d bd
       0.18060158 0.31079623 0.029174287 -0.04244257
0001c0 7d 0b e6 3d 41 4d 62 3d 6d 95 73 bd e9 df d9 be
       0.1123266 0.055249456 -0.059468675 -0.42553642
0001d0 da 68 3a 3e c5 4e f6 3d 61 c0 a0 bd 5e 0e 49 3e
       0.1820406 0.12026743 -0.07849193 0.19634387
0001e0 53 a1 e6 3d 97 9c 6c be 09 08 f4 bd 94 01 40 3e
       0.11261239 -0.2310661 -0.11915595 0.18750602
0001f0 0d 9e c4 3e d4 f1 c3 3e 2a c4 45 be 6e 99 29 3e
       0.38401833 0.38270438 -0.19313112 0.16562435
000200 0f 28 b1 3c f6 e1 8f bc 95 13 9f bd e5 98 a3 3e
       0.021625547 -0.017563801 -0.07767407 0.31952587
000210 3b 0e 4f 3e 49 50 98 bd cc f6 22 be 92 29 92 bd
       0.20220272 -0.07437188 -0.15914458 -0.07136835
000220 e3 e0 a0 3d 05 f9 1c 3e 08 c8 be bd a1 27 ee bd
       0.07855394 0.15329368 -0.09315497 -0.11628652
000230 ba 65 3d 3e 2a 67 19 3e 6a 60 90 be 4e cb 5d be
       0.18495837 0.1498076 -0.28198558 -0.21659586
000240 db b6 6b 3e 80 5b 25 be 59 a2 46 3e 01 74 e9 3c
       0.23018973 -0.16148186 0.19397868 0.028497698
000250 89 9d 1e be 3b cf b4 be 55 91 fc bd dc 26 da 3d
       -0.15489782 -0.35314354 -0.123324074 0.10651943
000260 ea 35 b7 3e 1a 8e be bd 74 e7 95 be 02 62 41 3e
       0.3578332 -0.093044475 -0.29278147 0.18885043
000270 32 9b ad 3d dc a9 29 3e 2b e2 ec 3d 80 be cf bd
       0.08476867 0.16568702 0.115665756 -0.10143757
000280 1d 2d d4 3b 11 ec 00 3e 15 88 80 be f8 3f 0a 3e
       0.0064751045 0.12590052 -0.25103822 0.13500965
000290 35 20 80 bc 0b a8 04 3e d0 aa 56 be 40 ec 15 3e
       -0.015640358 0.12954728 -0.20963597 0.14640903
0002a0 6d ad c7 bd 5f 38 8b 3e 7c 37 ba 3e 6a 68 af 3d
       -0.09749875 0.27191445 0.36370456 0.08564837
0002b0 e1 5d 9d 3e c8 91 eb bd 02 43 59 be 2e 73 61 be
       0.30735686 -0.11502415 -0.21216968 -0.22016594
0002c0 7c 74 02 bd 47 0f 95 3d 22 51 db bd aa b3 42 be
       -0.03184937 0.072783045 -0.10708834 -0.19013849
0002d0 ad 6c e4 3d c0 2c b3 be f3 21 5f be 4b 09 be 3c
       0.11153541 -0.3499508 -0.21790294 0.02319779
0002e0 f9 19 3b 3e 25 9e df bd 22 5f 59 be 3d e1 97 3d
       0.18271627 -0.109188356 -0.21227697 0.07416008
0002f0 04 08 65 3d 2b d4 95 3e 9f c4 c1 be 61 92 b1 bd
       0.055915847 0.29263434 -0.37845322 -0.08670498
000300 b2 b1 4c be 28 1c 3c 3e 97 2f 85 bd a6 7b 60 bc
       -0.1998966 0.18370116 -0.06503218 -0.013701355
000310 dc 88 cb bd 6e fc e8 bd f4 a2 bc 3d f9 3c 78 3e
       -0.09938213 -0.11376272 0.09210768 0.24242009
000320 90 b2 63 bd fb 6f a8 bd 70 ce 44 3e 3d f6 ed 3d
       -0.055590212 -0.082244836 0.19219375 0.11619232
000330 02 1d a5 3c 6c fb 93 be 7d 53 a3 3e a9 0f cc be
       0.020155434 -0.28902757 0.31899634 -0.39855698
000340 ca fc 96 be 2e ba 58 be 56 f3 95 3d 24 38 15 3f
       -0.29489738 -0.21164772 0.07321803 0.5828879
000350 44 28 7e be 4d a7 d2 bd 71 19 90 be 23 21 84 bd
       -0.24820048 -0.10285816 -0.2814441 -0.06451633
000360 9e 36 bc 3e f4 45 22 3e 9b eb 5b 3e cb b6 94 bc
       0.3676042 0.15846997 0.21476595 -0.018153569
000370 a4 f9 5c be 21 5b 90 3e f4 22 ae 3e a7 fe 37 be
       -0.21579605 0.28194526 0.34011042 -0.17968236
000380 f3 60 0d 3e e0 d5 2a 3e 62 d3 56 be fb 7d 5b 3d
       0.13806514 0.1668315 -0.20979074 0.05358694
000390 48 c0 9e be 76 10 0c 3d 91 eb ab bd ad c5 52 be
       -0.31006074 0.034195386 -0.0839454 -0.2058322
0003a0 65 e9 04 be 1e ef 13 3d 46 b0 55 be d1 9a 92 be
       -0.12979658 0.03611671 -0.20868024 -0.2863374
0003b0 dd e1 3a 3e 46 cb a0 3c e2 f4 1c 3c bf 86 89 be
       0.18250223 0.019628178 0.009579869 -0.26860616
0003c0 84 8d 5f 3c ee ae 9c 3d 71 ad 16 3d 1d 5c 12 be
       0.01364458 0.07650553 0.0367865 -0.14292951
0003d0 b3 ca a1 bd 88 0c 13 be 14 26 8a be 38 f4 39 bc
       -0.0789999 -0.14360249 -0.26982176 -0.01134973
0003e0 48 76 14 bd c6 5d 7c be b9 cf 91 bd 59 ad 58 be
       -0.036245614 -0.24645147 -0.07119698 -0.21159877
0003f0 75 da 9a be 08 d8 b8 3d e3 18 9d 3d 78 73 2c be
       -0.30244794 0.0902558 0.076707624 -0.16840923

gru_dp_fw.gru_cell.weight_hh f4 [33, 11]
000000 ca be b9 3d 5c 60 e4 3d a3 5a b9 be cc 87 16 3e
       0.09069593 0.111511916 -0.36201963 0.1470024
000010 a0 1b 38 bd 41 8d ea 3e 3c bf ac bd de 42 bc 3e
       -0.04494822 0.45810893 -0.084349126 0.36769766
000020 cb 45 57 be bf fc f7 be a8 57 6d bc c8 2c ec bc
       -0.21022718 -0.48435017 -0.014486231 -0.028829947
000030 91 e5 84 bd 6f de 08 be e6 27 c3 3c 07 49 da bc
       -0.06489099 -0.13366102 0.023822736 -0.02664615
000040 20 f0 13 3e 46 25 0a bf 33 ab 81 3a ac a1 0d be
       0.14447069 -0.53963125 0.000989294 -0.13831204
000050 b4 81 bc be 4b 16 c8 3d 65 1a ff bd 79 74 d6 3e
       -0.36817706 0.09769877 -0.12456206 0.41885737
000060 ce 16 dd bb d1 4b f1 bd 2c 90 03 3e ca 73 dd 3e
       -0.0067471033 -0.11782039 0.12847966 0.43252403
000070 94 a1 f9 bd a9 9f 59 3d a7 90 a9 bc 6b d3 ac bd
       -0.12189022 0.05313078 -0.020698858 -0.08438762
000080 95 47 96 3c c2 94 e1 bc 67 04 08 3f 04 86 84 bd
       0.01834468 -0.027536754 0.5313172 -0.06470874
000090 8f cf ef 3e 65 6d 15 be bd c6 e8 3e 71 66 b9 bd
       0.46838042 -0.14592512 0.45464125 -0.09052742
0000a0 de 20 ef 3d f4 09 e9 3d 57 e6 87 bc 03 05 c8 3d
       0.11676191 0.113788515 -0.016589327 0.09766581
0000b0 4e bb da bc 19 cc 78 3e f7 74 55 3e c8 ba fd 3e
       -0.026700642 0.24296607 0.208454 0.49556565
0000c0 5b 09 a1 3e 69 9b 7d 3e 39 ea 5c be 5e 40 26 bc
       0.3145245 0.24766316 -0.21573724 -0.010147182
0000d0 65 0f 94 bd fa ed bc bd 8b 74 1f 3e 32 f7 b0 3b
       -0.07229499 -0.09225078 0.15571801 0.0054005617
0000e0 6b b6 b7 b9 a5 03 32 3c e5 8c e6 3e 32 aa a8 3e
       -0.00035040392 0.010865127 0.4502937 0.3294235
0000f0 34 19 e4 3e c8 48 b4 be 12 23 07 3e 34 53 8e ba
       0.44550478 -0.35211778 0.13196972 -0.0010858537
000100 e1 b2 cd bd cd 80 b6 3d 21 48 8a 3e 04 7a 09 3f
       -0.10043884 0.089112855 0.27008155 0.53701806
000110 8a a0 4d 3c 34 1f d3 3d 3e 97 7f 3e 60 85 37 3f
       0.0125504825 0.10308686 0.24960038 0.7168789
000120 99 11 eb be f1 bd d2 3d 8d 18 c9 3c 77 b4 45 be
       -0.45911863 0.10290135 0.02454784 -0.19307123
000130 f7 a7 a9 be b1 a0 cc be c9 93 12 3f de c5 62 3e
       -0.3313596 -0.39966348 0.5725675 0.22145793
000140 e9 3f 93 3e 5e fb 6c 3e 98 52 d5 3c 3b 0c 27 be
       0.28759697 0.23142764 0.02604036 -0.1631326
000150 ce 2f 61 3d bf 20 60 be 18 17 4d bd c5 5e f0 3d
       0.05497723 -0.21887492 -0.050070852 0.11736826
000160 eb 58 e6 bd 3c 18 88 bd 26 e1 c9 be b8 24 4c bd
       -0.112474285 -0.06645247 -0.39429587 -0.049839705
000170 11 b6 66 3e b3 5c 06 3f 33 03 e1 3c 9b 60 bc 3e
       0.2253039 0.524852 0.027467346 0.36792454
000180 16 3e 26 3e a7 f1 aa be 8c ba 8d 3e 8c c7 86 3e
       0.16234621 -0.3338749 0.27681386 0.26324117
000190 5d 9c d1 3e 81 2a c5 3d 0e 2a 9b 3e b6 b6 8b 3e
       0.40939608 0.096272476 0.30305523 0.27287835
0001a0 b5 2c ad 3e b2 79 ef be 65 a1 a8 3e e2 78 98 bd
       0.3382317 -0.46772534 0.32935634 -0.074449316
0001b0 50 82 02 bf 21 fa 3f be 48 88 5a be 77 90 1b be
       -0.5098009 -0.1874776 -0.2134105 -0.15191828
0001c0 97 a2 8b be cd d7 04 3e 20 e6 3e be 38 e1 42 3e
       -0.27272484 0.12972946 -0.18642473 0.19031227
0001d0 bc 38 88 bd b5 02 1e 3d 00 2c b9 3d 1f bd 87 be
       -0.06651446 0.0385768 0.090415955 -0.26511475
0001e0 a1 b1 81 3d bb d6 a0 3e 7d 06 21 3e 92 70 ba be
       0.06332708 0.31413826 0.15725131 -0.3641401
0001f0 af 4c 8f be 0c 07 7c be 3b 16 39 3e 26 37 5d 3c
       -0.27988192 -0.24612063 0.18074887 0.013501918
000200 d9 1a 91 3e 0b 92 99 3e 41 d5 59 be f1 cc 2c bd
       0.28340796 0.29994234 -0.21272756 -0.042187635
000210 e1 90 5e 3c 7c 2b f2 3d f4 4f 4a 3e 5d 8f 0d be
       0.0135843465 0.118247 0.19757062 -0.1382422
000220 f5 46 d5 3d b0 46 2e bd bf 46 33 3e fa 1b 2b 3d
       0.104139246 -0.04254788 0.17507456 0.041774727
000230 d7 64 ad 3d ae c7 64 3e d8 e8 54 3e 67 5a b7 be
       0.08466499 0.22341797 0.20791948 -0.3581116
000240 b7 ed 0d 3e 61 f8 60 3e 44 66 0b be 32 39 c5 3e
       0.13860212 0.21969749 -0.1361323 0.385202
000250 26 93 07 be 6a 09 a3 be 0d 2a f3 3c ab a8 17 be
       -0.13239726 -0.3184312 0.029683137 -0.14810435
000260 5b 63 77 3e 4d f9 e2 bd 8c 9e 8e 3d f2 7a d3 3e
       0.24158995 -0.110827066 0.06963834 0.41304737
000270 a7 70 4c be c5 7e 02 3f a4 8a 0f 3d 08 99 77 be
       -0.19964848 0.50974685 0.035044327 -0.2417947
000280 3f fb e1 be 51 cc 86 3d 38 5a e3 be 65 4e 60 3c
       -0.44136998 0.06581939 -0.4440477 0.013690566
000290 a4 ad 8d 3e a1 53 07 3d 37 1c 63 be 47 c9 aa 3d
       0.2767154 0.03303874 -0.22178732 0.08339172
0002a0 e9 9b 13 3e 19 54 57 bd f7 9f 61 3e 8a 5d 33 be
       0.14414944 -0.052570436 0.22033678 -0.17516151
0002b0 9b 35 87 3c 16 9b 3b 3e 53 bc 69 be 1e 90 70 be
       0.016505053 0.1832088 -0.22825746 -0.23492476
0002c0 8a c6 ae be fe b5 87 3e 47 14 d5 3d 10 a1 2f 3e
       -0.34135848 0.26506037 0.10404258 0.17151284
0002d0 04 7a 7f 3e 54 8e e1 3e e4 b2 00 be 2d d5 53 3e
       0.24948889 0.440539 -0.12568241 0.20686789
0002e0 be 8a ba bd f7 28 fe be d7 95 58 bd bd af d7 3d
       -0.09108494 -0.4964063 -0.052877273 0.10531566
0002f0 77 19 9b be 5d 70 82 3e b1 3d bd bd 78 06 88 be
       -0.30292866 0.2547635 -0.09240282 -0.26567435
000300 73 c0 98 3d 27 91 26 3e 38 ac 27 3e 4c 96 80 3e
       0.07458582 0.16266309 0.1637429 0.25114667
000310 c9 1e 0b 3e f1 61 12 3e 65 83 4a 3e 77 07 ac bd
       0.13585962 0.14295174 0.19776686 -0.08399861
000320 04 5b 7a be de c3 a8 3e da fe d3 3e b6 bb 08 be
       -0.24448782 0.32961935 0.41405374 -0.13352856
000330 30 d7 93 be ee 91 a2 3e ae 2d 10 3d 09 d8 9c 3d
       -0.28875113 0.3175196 0.035199814 0.07658393
000340 30 7c 0a be 62 4d b2 bc 1b 47 a6 be 46 6a 72 3e
       -0.13523936 -0.021765415 -0.32476124 0.23673353
000350 dd fb 68 be 99 8f 23 be f6 88 ea bd 51 fe d3 3e
       -0.22752328 -0.15972747 -0.114519045 0.41404966
000360 44 de 99 bc 7b 36 4c bd ae 62 cd 3d fe 24 ae be
       -0.018782742 -0.049856644 0.10028587 -0.34012598
000370 f0 95 7c 3d 30 08 6b be 56 e0 ad bd f8 fc 84 3e
       0.06166643 -0.22952342 -0.08490054 0.2597425
000380 84 64 b7 bd 74 eb aa 3e 43 43 86 be 4b 84 0d 3e
       -0.08954719 0.3338276 -0.26223192 0.13819997
000390 cb f5 34 3e 97 52 ac bd 13 e5 aa bd ae 68 7c be
       0.17671888 -0.0841419 -0.08344474 -0.24649307
0003a0 5e ed 52 be 39 67 83 bc 9b 72 24 3e 6e 35 09 be
       -0.20598361 -0.016040431 0.16059344 -0.13399288
0003b0 67 6c af be f2 5b ee 3d df 9a 9d be 88 29 45 be
       -0.34262392 0.11638631 -0.3078222 -0.19254124
0003c0 77 9a 71 3d 45 f2 55 3e bb cb 34 3d d5 b1 f7 be
       0.0589852 0.208932 0.044139605 -0.48377863
0003d0 30 4a d9 3e 76 e3 e2 3b ea 40 fe bd 1f 28 c3 bd
       0.42439413 0.006924088 -0.12414725 -0.09529137
0003e0 b9 e6 80 3e 21 63 19 bc 5e 4e 94 3e 22 25 b1 3e
       0.25176027 -0.009362013 0.2896604 0.34598643
0003f0 37 01 ea be 53 84 a0 3d 03 05 f9 3e 11 30 7d bc
       -0.45704052 0.07837739 0.48636636 -0.015453354

gru_dp_fw.gru_cell.bias_ih f4 [33]
000000 85 e4 53 be fb f5 bd 3e 5c 13 1a 3f fe 2d 97 3e
       -0.20692642 0.3710173 0.6018579 0.29527277
000010 2e f0 3b bd f3 33 12 3e 64 e6 21 3f 70 92 1c 3e
       -0.04588335 0.1427763 0.63242173 0.15290236
000020 49 63 b9 bd 2e a3 00 3d 4c 00 84 3e 31 6c d9 3d
       -0.0905214 0.03140562 0.25781476 0.10616339
000030 92 8e fa 3d 9c d9 5a be f7 8f 96 3e f4 05 b2 3e
       0.122342244 -0.21372074 0.2940671 0.34770167
000040 60 5a 3e 3f 16 5b a8 3e 75 03 cb bd 32 7a d6 bc
       0.7435665 0.32881993 -0.09912769 -0.026181314
000050 be da 9d 3e d0 85 e9 3d 6a 14 7b 3e 96 0e a4 ba
       0.3083095 0.11402476 0.24519506 -0.0012516554
000060 97 35 99 3e a7 57 d5 3e 1a 1b 07 bd 94 a0 98 3e
       0.29923698 0.41668436 -0.03298483 0.2981001
000070 3c 7e 8c be 11 05 af be 74 69 9c bc ef 53 2c bd
       -0.2744006 -0.34183553 -0.019093253 -0.042072233
000080 92 bc 4e be
       -0.20189121

gru_dp_fw.gru_cell.bias_hh f4 [33]
000000 1d 72 cd 3d df 46 a8 3e b9 3c 7d 3e 66 71 ec 3c
       0.10031531 0.3286657 0.24730195 0.028862666
000010 2a e3 2b 3e 1d 46 ef 3e 97 f0 2b 3e 0a c2 8e 3e
       0.16785875 0.4673318 0.16790996 0.27882415
000020 9a 6a 26 be e3 bd 02 bd a2 87 5b bd 64 f7 d5 bc
       -0.16251603 -0.03191937 -0.053596146 -0.026118942
000030 70 19 76 3d b2 91 06 3e 48 8c 94 3e 64 44 29 3e
       0.060082853 0.13141516 0.29013276 0.16529995
000040 e1 0d 03 3f b5 c5 81 3e 5e ab 51 3d a8 fb f7 3b
       0.5119305 0.2534615 0.05118882 0.0075678416
000050 d0 7c b0 3e db e6 05 be 4a 45 42 bd 0b ef de 3d
       0.34470224 -0.13076346 -0.04742936 0.108854376
000060 9b 73 d9 3e 24 7a ca 3d f9 bb d6 3d 33 15 bf 3e
       0.42471012 0.09886578 0.10485072 0.3732086
000070 aa 79 47 3d 67 85 92 3a 51 3c 2d be b8 83 00 be
       0.048700012 0.0011178673 -0.1691754 -0.12550247
000080 05 fd a0 be
       -0.3144304

gru_dp_fw.ode_net.odeblock.odefunc.fc1.weight f4 [11, 11]
000000 95 38 34 be 4c 49 cd 3e 2d 6f 0a 3e 43 ea 3b 3f
       -0.1759971 0.40094984 0.13518973 0.7340433
000010 09 33 c3 3e 80 36 fd 3e e2 06 3c bf 90 15 f2 3e
       0.38124874 0.49455643 -0.73448 0.47282076
000020 f5 27 14 be e3 b9 1d bf 40 b7 d6 3d e0 6d 22 bf
       -0.14468367 -0.61611766 0.10484171 -0.63448906
000030 88 d9 45 3e 07 a0 80 bd bf da c8 3e ec 04 bf 3d
       0.19321263 -0.06280523 0.3922939 0.09327111
000040 a9 eb fe 3d 87 ae d5 be 9f 19 08 bd 3f 4f 23 bf
       0.12447292 -0.41734716 -0.03322756 -0.63792795
000050 a2 bb 92 be d1 7b 7b 3e 56 69 14 bf 62 5e 40 3e
       -0.28658777 0.24558951 -0.5797323 0.18786004
000060 7b 1d d6 bd 61 41 e2 3e b4 6d 44 3e 16 51 7e 3d
       -0.10454842 0.44190505 0.19182473 0.06208905
000070 aa c7 0a bf 0f e7 34 3e ef f5 cf be 92 81 e5 be
       -0.54210913 0.17666267 -0.4061732 -0.44825417
000080 2b 8a 51 3e 7f b0 38 be 75 9e 99 3e f8 b1 21 3e
       0.20462863 -0.18036078 0.30003706 0.15790546
000090 39 bc 2d 3f e0 53 cd 3e 7f eb c1 3d 7d 4f d9 be
       0.6786533 0.40103054 0.094687454 -0.42443457
0000a0 ce ca 48 bd f9 01 01 be 55 9d 96 be bd 45 f6 3e
       -0.049021535 -0.12598409 -0.2941691 0.4810008
0000b0 66 94 34 3e 9a c2 2a 3e 12 76 48 3e 96 63 ca 3e
       0.17634735 0.16675797 0.1957629 0.39529103
0000c0 1b 0f c3 3e 5f 94 ad 3e e7 17 0c bf d0 80 0d 3e
       0.38097462 0.3390226 -0.5472397 0.1381867
0000d0 51 75 24 be 4b e2 c2 bd a2 04 c5 3d 62 b3 b5 be
       -0.16060378 -0.09515818 0.09620024 -0.3548842
0000e0 f1 e7 f8 3e f7 eb da 3d f6 89 2c 3f 50 bc 15 3f
       0.48614457 0.10689538 0.6739801 0.5849047
0000f0 a5 98 7c 3e 07 38 1a bf 66 3a 22 3e 52 f0 f3 be
       0.24667604 -0.6024174 0.1584259 -0.47644287
000100 ed 2a 24 bf ec cd cf 3d b5 b8 61 be 11 4a 20 3f
       -0.64128 0.10146698 -0.22043116 0.62613016
000110 0d 2e 96 bd e4 07 fc 3e 37 a5 c8 3e 5c 92 34 3d
       -0.07333002 0.4922477 0.3918855 0.04408489
000120 40 da 38 bf 85 b7 0e 3f d3 00 8b bc 3e ad 9e be
       -0.72208023 0.5574878 -0.016968166 -0.30991548
000130 3a 0e 05 3f e8 04 ae bd 24 98 1c 3f eb 71 90 3d
       0.51974833 -0.084970295 0.6116965 0.07052978
000140 35 13 40 3f a0 97 23 3f 95 22 09 3f e7 67 68 be
       0.7502931 0.63903236 0.53568393 -0.22695886
000150 45 3e c4 3e db 39 0f bf 33 38 ad be c7 07 c6 3e
       0.38328758 -0.55947655 -0.3383194 0.3867781
000160 36 ae ba be fd a6 a0 3d d7 c9 b5 3c 23 6f 02 3f
       -0.36461037 0.078443505 0.022190971 0.5095083
000170 fc c6 cd 3e 95 35 b2 bd 3b 8d a0 bc 60 8c 6b 3e
       0.40190876 -0.08701626 -0.019598594 0.23002768
000180 6b 5a b4 be 74 f5 da be 0e 73 94 3e 01 df c7 be
       -0.35225233 -0.4276539 0.2899403 -0.39037326
000190 4e d9 12 3f d4 b2 04 3e 45 e8 2e 3f 60 a3 22 3f
       0.5736283 0.12958843 0.68323165 0.6353054
0001a0 c8 8f 08 3f c4 2f ee be c8 f7 a4 3e f5 6c 9d be
       0.5334439 -0.46520817 0.32220292 -0.3074719
0001b0 1f 13 11 bf 3a 82 e0 3e be 29 50 bd a2 91 ae bd
       -0.566698 0.43849355 -0.05082106 -0.08523871
0001c0 79 ad 6e 3e d8 5c f8 3e 81 ae c8 3e 28 91 69 3e
       0.23308362 0.48508334 0.39195636 0.22809279
0001d0 9f ae 91 be 0d 67 68 3d 1d fc 47 be a2 7d d2 bd
       -0.28453538 0.056738902 -0.19529767 -0.10277869
0001e0 01 0e e0 3d
       0.10940171

gru_dp_fw.ode_net.odeblock.odefunc.fc1.bias f4 [11]
000000 53 69 40 3f dc 52 69 3e a7 26 fd 3e 67 44 a0 3e
       0.7516071 0.22785515 0.49443552 0.31302187
000010 65 3d 6c 3e 1b b0 2b 3f b8 3f 40 3f 5d 2b ac 3e
       0.23070295 0.6706559 0.7509723 0.33626834
000020 eb b7 81 3e 1d 56 35 3f ef e7 2b 3e
       0.2533563 0.70834523 0.16787694

gru_dp_fw.ode_net.odeblock.odefunc.fc2.weight f4 [11, 11]
000000 a7 4a 92 3d c0 c8 ef 3d 16 fc 1c be 85 ce 07 3e
       0.07143145 0.11708212 -0.15330538 0.13262375
000010 11 70 b1 3e b7 18 a7 3e 76 d4 97 3e 0b c3 d1 3d
       0.34655812 0.32636043 0.29654282 0.102422796
000020 ef 98 b9 3e 95 f7 fc bd c8 2f aa 3e d6 4d ed 3e
       0.36249492 -0.1235191 0.3323958 0.46348447
000030 3d cc eb 3e 81 50 23 3f 8d 66 ea 3e 4b 82 d0 3e
       0.4605426 0.63794714 0.45781365 0.40724406
000040 31 19 37 3f fb 42 4b 3f 8d d2 47 3f 4a fa bc 3e
       0.71522814 0.7939908 0.7805565 0.36909705
000050 ff 2d 38 3f 1f 59 0d 3f 40 be 9f 3e 51 9e f6 3e
       0.71945184 0.55214113 0.31199837 0.4816766
000060 56 28 18 3f ee c8 ed 3e 04 d0 9e 3e 7b 56 af 3d
       0.5943655 0.4644236 0.31018078 0.08561417
000070 6e 17 10 3f dd ff aa 3e 9c 25 03 3f ba 59 96 3e
       0.5628575 0.33398333 0.5122926 0.2936533
000080 db 3d 38 3e 79 1d 8d be 00 a9 81 3e e0 6f 26 be
       0.17992346 -0.27561548 0.2532425 -0.16253614
000090 f0 12 22 3e 9e e6 7b be fd c0 52 be 82 e0 4c be
       0.15827537 -0.24599692 -0.20581432 -0.20007518
0000a0 14 70 50 be 6a 09 19 3e 2e fc a6 bd ec cf 31 3e
       -0.20355254 0.14944997 -0.08153568 0.17364472
0000b0 32 65 1d 3f 8e c8 36 3f c7 26 eb 3e 77 97 e9 3e
       0.61482537 0.7139977 0.45928022 0.4562337
0000c0 e3 3c 4d 3e 5d a1 12 3f 8d 73 72 3e 27 67 c7 3e
       0.20042758 0.5727747 0.23676892 0.38945886
0000d0 f4 8d 86 3e 9c 87 bf 3e a5 b3 dc 3e 10 59 71 3e
       0.26280177 0.3740815 0.43105808 0.23569131
0000e0 1d 6c db 3e 23 81 dd bd ad b4 a7 bc c4 0b cf 3e
       0.4285592 -0.108156465 -0.020471895 0.40438664
0000f0 68 95 b9 3e 0d 64 9b 3e 8d 06 11 3d 2b 0b b4 bc
       0.362468 0.3034977 0.035406638 -0.021977982
000100 9e ba 59 3e 06 d6 2f 3e 86 43 83 bd 9a ea 00 3d
       0.21262595 0.17171487 -0.064093634 0.031473733
000110 15 18 a1 3d d0 78 e7 3d d0 b3 8b be b2 eb b9 3d
       0.078659214 0.1130234 -0.27285624 0.090781584
000120 5f fa 89 be 1a 7a 17 3e 22 46 66 3e 35 a2 52 3e
       -0.2694883 0.14792672 0.22487691 0.2056969
000130 7b 8f 7b 3e 62 8b d5 3e 0d 4d 89 3e 0b bf 69 3e
       0.24566452 0.41707903 0.26816598 0.22826783
000140 24 f9 27 3f 32 50 ae 3e eb 46 3c 3f 7d b1 94 3e
       0.65614533 0.3404556 0.7354571 0.29041663
000150 3e 29 b6 3e ac 18 b3 3e 78 71 49 3f 20 2e 7c 3e
       0.3557834 0.3497976 0.78688765 0.2462697
000160 14 fb 80 bc 73 6d 9f be 67 e9 77 bd 18 85 82 be
       -0.015744723 -0.3113819 -0.060525324 -0.25492167
000170 cc 3f 4b be e8 b9 8b 3d 77 81 58 3d 3d bf 5b 3e
       -0.19848555 0.06822568 0.052857842 0.2145967
000180 69 b0 86 be a5 b5 1d be bb 3f 6d 3e 8c 45 3c 3f
       -0.26306465 -0.15401323 0.23168842 0.7354362
000190 ae 48 18 3f e5 bf a6 3e c7 e1 b9 3e d6 29 b3 3e
       0.594859 0.3256828 0.36305067 0.34992856
0001a0 e0 cd e9 3e d3 98 59 3f 0a 5f 37 3f 0a 8c 74 3e
       0.45664883 0.84998816 0.71629393 0.23881546
0001b0 7c 7e 13 3f 47 da 00 3f d0 cd 40 be 75 9e d0 3d
       0.57614875 0.50333065 -0.18828511 0.10186473
0001c0 15 80 59 be 30 40 e6 bd a0 e5 9b be ca 6c 41 3d
       -0.21240266 -0.112427115 -0.30448627 0.04722289
0001d0 f5 e5 79 be 06 5c 61 bd c6 f7 93 be 26 1b a1 be
       -0.24404128 -0.0550194 -0.28899974 -0.31466025
0001e0 56 29 83 3d
       0.064043686

gru_dp_fw.ode_net.odeblock.odefunc.fc2.bias f4 [11]
000000 da 56 32 be 9b 97 1e 3f ad 09 f7 bd 2e 00 d1 be
       -0.17415944 0.6195008 -0.120623924 -0.4082045
000010 85 86 f3 3e 34 bb 63 3e 95 85 80 be 11 c6 c2 3e
       0.47563568 0.22239381 -0.25101915 0.38041738
000020 69 7e d4 3d 79 db 7c 3e 69 29 48 3d
       0.10375673 0.24693097 0.048867617

gru_dp_fw.ode_net.odeblock.odefunc.fc3.weight f4 [11, 11]
000000 8f 4b 32 be 69 c7 52 bc 75 fb 33 3d fc 8c d6 3c
       -0.17411636 -0.012864926 0.04394098 0.026190273
000010 03 6f 3a 3e 70 97 1c be 71 9e 5f 3d f6 62 3a 3e
       0.1820641 -0.15292144 0.05459446 0.18201813
000020 75 0e 3c be ad 89 ef bc 9f 3e 9b 3d 0c 78 9b bd
       -0.1836489 -0.029240454 0.075803034 -0.075912565
000030 ce fa a6 be 89 46 10 bf 5a 7d 6b be 71 a1 22 bf
       -0.32613224 -0.5635763 -0.22997037 -0.6352759
000040 e3 a7 88 3c 0e 7b d5 3d 95 81 3a bf 4a 1b 40 be
       0.016681617 0.104238614 -0.72853976 -0.1876041
000050 6c 3f cd be 4f 7e 5f bd 1e 89 5b be 0b 13 d6 3e
       -0.4008745 -0.054563817 -0.21439025 0.41811404
000060 18 60 a4 3e cb a1 43 be b3 8b e8 3e 35 39 d7 3c
       0.32104564 -0.19104688 0.45419082 0.026272396
000070 4e 4e 79 3e 8f c4 c6 3e 2e 6e 84 3e 79 b0 fb 3e
       0.24346277 0.38821837 0.2586531 0.49158075
000080 21 dc 02 be eb 67 89 be 10 1c f9 be a4 5f 5f be
       -0.12779285 -0.26837096 -0.48654222 -0.21813828
000090 eb 70 20 be aa 1c 1a bf 4b 8e ef be 68 2a 6a be
       -0.15668075 -0.6019999 -0.46788248 -0.22867739
0000a0 7e 8a 06 bf f6 07 28 bd 18 f8 af be ce 1b f4 bd
       -0.5255507 -0.041023217 -0.34368968 -0.11919366
0000b0 f6 ff d9 3d e9 65 07 be a9 a7 86 be 89 ac 86 be
       0.10644524 -0.1322247 -0.2629979 -0.2630351
0000c0 f1 fd 20 bf 2d b9 48 bc 81 6d 77 be 24 7a 04 bf
       -0.62887484 -0.012251181 -0.24162866 -0.5174887
0000d0 9d 54 84 3d 90 7d 65 bd e2 90 f6 3b ab 89 0a be
       0.06461451 -0.05602795 0.0075245956 -0.13529079
0000e0 3b 8f 4f bf b6 f1 d5 be cc ea 10 3d 8c 46 da be
       -0.8107793 -0.41785973 0.03538017 -0.42631948
0000f0 52 91 4d be a3 89 f4 3c 77 61 13 bf a1 e3 81 3d
       -0.20074967 0.029850787 -0.57570595 0.06342245
000100 89 bf 41 bf 52 36 8a 3d 12 15 04 3e f9 41 93 3e
       -0.75682884 0.06748642 0.12898663 0.2876127
000110 11 0b fa 3e fc e2 5c bc 5c 0e 13 3f f1 e5 d6 3d
       0.48836568 -0.013481852 0.57443786 0.104930766
000120 3c 2d 06 3e b8 d9 99 3e 85 f1 43 3e ce fe bd 3e
       0.13103193 0.3004892 0.19135101 0.37108463
000130 98 51 78 3e 32 4a 3f be 8f 3e c0 be b3 40 0f be
       0.24249876 -0.18680647 -0.37547728 -0.13989525
000140 e5 51 02 be 09 e4 4a be f6 4a 9f be 03 84 39 3d
       -0.12726553 -0.19813551 -0.31111878 0.04529191
000150 ab f8 0b bf d4 f7 26 be 34 1b 96 be 5e f9 b9 be
       -0.5467631 -0.16305476 -0.2931763 -0.36323065
000160 d4 d1 8f 3e 9c b5 a1 3e 91 32 90 3e 57 ec 31 bd
       0.28089774 0.3158387 0.2816358 -0.043438282
000170 5a f9 ae 3e fc 6a d4 bd e9 0a 2c be 6e 09 d4 3e
       0.34174615 -0.10371968 -0.16801037 0.41413444
000180 4a 40 56 bd e1 ac b5 3d 4a 69 18 3e 8e 58 37 3e
       -0.052307405 0.08870865 0.14883915 0.17904875
000190 9f 3f bc 3e 78 d3 6e 3e 54 ef e2 3e 2c d8 3a 3f
       0.3676729 0.23322856 0.44323218 0.729861
0001a0 16 ce 14 bd 1d 78 c3 3e 66 14 d1 3e f7 25 3e be
       -0.03632935 0.38177577 0.40835875 -0.1856917
0001b0 fe 6f 47 3e a8 bb 99 3d 7e 5f a8 3e 80 59 3a 3e
       0.19476315 0.07506496 0.32885355 0.18198204
0001c0 5a ac 69 be b2 65 28 be be a0 64 be 14 8a 4d 3e
       -0.22819653 -0.16445044 -0.22326943 0.20072204
0001d0 e5 6c a7 3e f5 f8 1d be 0a e5 4e 3d 3e bb 67 be
       0.32700267 -0.15427001 0.050511397 -0.22630021
0001e0 0f b8 a7 3e
       0.32757613

gru_dp_fw.ode_net.odeblock.odefunc.fc3.bias f4 [11]
000000 1b 8d a3 3d 89 1f 35 bd 69 05 23 3d 83 97 8c be
       0.07985898 -0.044219527 0.03980008 -0.27459344
000010 87 5f 21 3e 20 0a c2 be 6b 58 cb 3e fe 26 28 3d
       0.15759097 -0.3789835 0.39715895 0.04105281
000020 af 2b b9 bc cf 78 87 bc 88 ff e2 bd
       -0.022603838 -0.016537098 -0.11083895

gru_cp_fw.decays f4 [9]
000000 10 8d 5d 59 a2 7f 00 00 60 c8 66 06 00 00 00 00
       3.8975669e+15 4.5786e-41 4.3405404e-35 0.0
000010 f0 a0 ef 58 a2 7f 00 00 70 fa ec 58 a2 7f 00 00
       2.107796e+15 4.5786e-41 2.0844829e+15 4.5786e-41
000020 f0 d4 47 b7
       -1.1910903e-05

gru_cp_fw.gru_cell.weight_ih f4 [27, 9]
000000 ee 96 87 bd 69 43 49 be 8e 27 33 be 88 f2 4c 3e
       -0.066205844 -0.19654621 -0.17495558 0.20014393
000010 0e 44 90 3e 45 1a 52 3e 81 e3 89 be 3f 22 3a 3e
       0.28176922 0.20517834 -0.26931384 0.18177126
000020 10 0f 37 3e ea 1f 9e bd c9 0e 0b 3e 1f 0f 1d 3e
       0.1787684 -0.07720931 0.13579859 0.153378
000030 42 8a a5 be 8a 0a 99 3e 19 5d ad 3e 07 9d 5c 3d
       -0.32332045 0.29890853 0.3386009 0.05386069
000040 20 a8 29 3e c7 16 96 be e9 f7 86 3e 1a 23 a5 3e
       0.16568041 -0.29314253 0.26361015 0.32253343
000050 63 9d 69 be 51 12 01 bd 5b da 36 be 76 82 55 be
       -0.22813945 -0.03151161 -0.17856734 -0.20850548
000060 f4 15 d3 3d b5 19 31 3e 8c 56 21 be 07 e3 33 bd
       0.103069216 0.17294963 -0.15755671 -0.043917682
000070 1a a3 e4 3e f3 90 93 3e a7 c9 c7 be 22 ac a0 3e
       0.44655687 0.28821525 -0.39021036 0.31381327
000080 b6 d6 ef bd 9b 33 b7 bd 73 86 6d bd 57 2b 29 3e
       -0.11710875 -0.0894539 -0.05798955 0.16520439
000090 66 72 ee bd 77 39 58 bc 11 b4 8e 3e fc e1 11 3e
       -0.116429135 -0.013197294 0.27871755 0.14246362
0000a0 40 f8 b2 be b2 cc 8b 3e 5c 9c 3b 3e 91 41 82 3d
       -0.34955025 0.27304608 0.18321365 0.06360162
0000b0 3d c0 23 3e 25 f9 76 bd 4e 0c 75 be 7c 9e 6d 3e
       0.15991302 -0.060296196 -0.23930475 0.23204988
0000c0 2b 8f a2 be 1f 7d e8 3d fc cb 0b be 6e f9 0d be
       -0.31749853 0.1135199 -0.13652033 -0.13864681
0000d0 4a a8 e2 bd a2 d9 8d 3e f0 4f bf bd 3f 1a ff bd
       -0.11067255 0.27705103 -0.09341419 -0.12456178
0000e0 02 07 cd 3d b8 8e 82 be de 99 b3 be ec 8e a1 3e
       0.10011102 -0.2549951 -0.3507833 0.31554353
0000f0 17 2f a6 bd d8 e1 ad bd d0 86 96 3e a9 91 4d 3e
       -0.081144504 -0.08490342 0.2939973 0.20075096
000100 e1 47 96 3e 41 66 99 3d a8 c1 af 3e 3d 33 26 3e
       0.29351714 0.074902065 0.34327435 0.16230483
000110 38 fa 09 3b f6 ae e0 3d 89 29 2c 3e b4 1d 1c bd
       0.0021053683 0.10970871 0.1681272 -0.038114265
000120 08 24 7b 3e d1 df 60 be d9 67 0a be a1 c1 d7 bd
       0.24525464 -0.21960379 -0.13516177 -0.10534979
000130 65 84 80 3d dc 85 2d 3e c4 0d 37 3d 1a d6 0a 3e
       0.06275252 0.16945595 0.044690862 0.13558236
000140 7b e0 79 3e f6 11 fa 3e 65 0f 92 3e f7 ad 6d be
       0.24402039 0.48841828 0.2852737 -0.23210894
000150 1a 01 0d 3e ae 18 49 3d ad fb bb 3d cf 0b 41 be
       0.13769951 0.049095802 0.09178863 -0.18852161
000160 d7 30 df be 4b bd 16 bd f4 0d 38 3e eb f2 23 3e
       -0.4359195 -0.036801618 0.17974073 0.16010635
000170 1b bb 9e 3e 6e 33 ba 3e e9 1f 65 be 4f 64 c1 3c
       0.31002125 0.36367363 -0.22375454 0.023607401
000180 1c d3 a0 be 65 1c a3 3d 9f 8a 6e 3e 76 b0 8e bd
       -0.31411064 0.079644 0.23295067 -0.06967251
000190 bc 44 85 3d 8d 6e 41 3e fa 00 55 be 9b 9f 0a bd
       0.06507251 0.18889828 -0.20801154 -0.033843618
0001a0 c9 05 15 be 27 e0 fb bd c1 24 33 3e 43 91 ad 3e
       -0.14552988 -0.12298613 0.17494489 0.33899888
0001b0 22 04 b0 be aa 74 f7 bd d5 40 5a be 78 1e 0a be
       -0.34378153 -0.12082799 -0.21313794 -0.13488185
0001c0 e0 a2 ff 3d a9 66 4c bd bd ea 97 3e 43 2d 86 bd
       0.12482238 -0.04990259 0.2967128 -0.06551602
0001d0 40 e2 4c 3e 14 16 98 3d 30 e1 29 3d 16 7a c3 3e
       0.20008183 0.07426086 0.04147452 0.38179082
0001e0 f3 32 c9 bc 81 fb 64 3e 57 a7 ff bd 25 ce 22 be
       -0.024560427 0.22361566 -0.124830894 -0.1589895
0001f0 47 61 d7 bd 57 68 3e 3e f8 70 2b 3e 2f 99 b8 3e
       -0.10516601 0.1859449 0.16742313 0.3605437
000200 96 9a 44 3e 02 55 2d be 6a bb 17 be f6 77 da 3e
       0.19199595 -0.16926959 -0.14817587 0.42669648
000210 73 c5 11 be 69 f4 80 3e 24 2c 7b 3e bd ab d0 3d
       -0.14235477 0.2518647 0.24528557 0.101890065
000220 84 e5 4a 3e 86 16 0d 3e 5d 93 1a be 9a e2 72 3e
       0.19814116 0.13778123 -0.15095277 0.23719254
000230 55 13 8e bd 4b 4b b6 be 4b bb 84 be 60 f6 10 bc
       -0.06937281 -0.3560432 -0.25924143 -0.008847803
000240 0a 14 80 be d8 10 98 be 93 62 1f 3e 58 40 32 be
       -0.2501529 -0.2970035 0.15564947 -0.17407358
000250 70 41 73 bd d7 6f 93 be ee 03 bb be d1 98 5e 3e
       -0.059388578 -0.28796265 -0.36526436 0.21737982
000260 15 09 d0 bd 13 07 b1 be d4 b9 9a 3d ac a6 f2 bc
       -0.10157982 -0.3457571 0.07554975 -0.029620491
000270 c8 6f b2 3d 26 d1 dc 3d a6 ef d0 be 19 86 51 3d
       0.08712727 0.107820794 -0.40807837 0.051153276
000280 87 ff 80 3e 1d 14 99 be 88 1a 1a be 77 1f bb bd
       0.25194952 -0.29898158 -0.15049183 -0.09136861
000290 0c 5a 60 3e f0 fe f4 be 13 ac 4b be 4d 7c c2 be
       0.2190935 -0.47850752 -0.1988986 -0.3798546
0002a0 35 33 b8 3d 14 60 d1 bc 04 34 69 be 86 2c 4f be
       0.08994142 -0.025558509 -0.22773749 -0.20231828
0002b0 61 59 cb be 84 0e 4d be ad b0 b6 3e bd 20 80 bd
       -0.39716628 -0.20025069 0.35681668 -0.06256244
0002c0 3d e7 3d bd cd 8d 6b be e3 1a a2 be a5 b6 fb bc
       -0.046363104 -0.23003311 -0.31661138 -0.03072674
0002d0 b8 e1 a7 bd b3 b8 a8 be 1c 98 89 be c5 96 e1 bd
       -0.08197349 -0.32953414 -0.26873863 -0.11015085
0002e0 e5 97 a0 3e 7a d6 92 3e 18 a3 89 3d f0 a8 f2 3d
       0.31365886 0.28679258 0.06720561 0.118486285
0002f0 37 4d 17 be 56 95 2d bd 12 3a bc 3a ad 44 bf 3e
       -0.14775549 -0.042378746 0.0014360568 0.37357083
000300 6d 4a 9f 3d 09 bd 76 3e 93 36 55 3e 4b 91 84 3e
       0.077778675 0.24095549 0.208216 0.258921
000310 1e 65 8d 3d c4 e4 cd 39 f1 3c 4e 3c 38 d4 61 be
       0.06904052 0.0003927109 0.012587772 -0.22053611
000320 4c 61 c6 bd 70 67 81 3e 88 88 cf 3e ff 0c 86 3c
       -0.09686527 0.2527423 0.40533853 0.016363619
000330 9a 69 31 bd bd 02 a9 bd 43 87 ec 3c ba f9 af 3e
       -0.0433136 -0.082524754 0.028873092 0.34370214
000340 c9 b3 e5 3b 83 f4 da 3d 6d da 17 bd ca 0d c6 bd
       0.0070099575 0.10691168 -0.03707354 -0.09670599
000350 34 9f a6 3d 9b b0 5a 3e 7c db b4 bd d8 33 fb 3d
       0.08135834 0.21356432 -0.08830926 0.12265748
000360 70 ad e2 3c 68 7e 7e 3d 70 46 36 be fa e5 11 be
       0.027670592 0.06213227 -0.17800307 -0.14247885
000370 28 88 4b 3e ed 21 09 bf 16 d9 dd bc b4 65 ad be
       0.19876158 -0.5356739 -0.027081054 -0.33866656
000380 95 ff 80 3d b0 07 f3 be bc 32 61 be c7 5f 69 3e
       0.062987484 -0.47466803 -0.2199201 0.22790442
000390 a1 ae 26 3e 7f 0f 0c 3e c9 b8 aa 3e ec 2f c5 3d
       0.16277553 0.13677786 0.33344105 0.09628281
0003a0 d2 43 b1 3a 97 05 9b 3e 01 d0 b7 3e aa 9d f8 3d
       0.001352424 0.30277702 0.35900882 0.12139447
0003b0 92 4c 63 3d 16 fd eb be 59 b7 2d 3e 20 68 f7 bc
       0.055492945 -0.46091527 0.16964473 -0.030201018
0003c0 d5 23 70 bd db ee 6f be 3d c6 57 be
       -0.058627922 -0.2343096 -0.21071716
