base_models/birnn_concat_time_delta_attention/final_model.pt (torch, 56511 bytes, 27 tensors)

embed_dp.weight f4 [1292, 6]
0	0x00000000	0.0
1	0x00000000	0.0
2	0x00000000	0.0
3	0x00000000	0.0
4	0x00000000	0.0
5	0x00000000	0.0
6	0x3fc53863	1.5407833
7	0x3df2da8f	0.11858093
8	0xbe2d39c2	-0.16916564
9	0x3ee4cd0d	0.4468769
10	0xbe2536b8	-0.16134155
11	0xc0162846	-2.346208
12	0x3f0a31d5	0.5398229
13	0x3e714a18	0.23563421
14	0x400f93bb	2.2433918
15	0x3febe02a	1.8427784
16	0xbf2fcaf6	-0.6866907
17	0xbf0da57b	-0.5533063
18	0xc004f42e	-2.0774035
19	0xbd09beb2	-0.033629127
20	0x3fa070ca	1.253442
21	0xbf003238	-0.5007663
22	0xbf8d1160	-1.1020927
23	0xbf0a6347	-0.54057735
24	0x3f3c0c36	0.7345613
25	0xbf35ed34	-0.7106507
26	0xbd9bd495	-0.07608906
27	0xbeddd848	-0.43329072
28	0x3ea9bf0f	0.3315358
29	0xbe65cd7a	-0.22441664
30	0xbd687fc5	-0.056762476
31	0x3f6d3d35	0.9267152
32	0x3efea6f4	0.4973675
33	0xbfa2b8f4	-1.2712693
34	0xbfa9b17d	-1.325729
35	0x3e375c83	0.17906384
36	0xbd282c77	-0.04105803
37	0x3fc5fb18	1.5467253
38	0xbf8d5bc5	-1.1043631
39	0x3ee3c5ff	0.44486997
40	0xbc81e73b	-0.01585733
41	0xbe318108	-0.17334378
42	0xc0080570	-2.1253319
43	0xbfbc08f4	-1.4690232
44	0xbf2aea4f	-0.66763777
45	0xbff36b8a	-1.9017193
46	0x3dda3e9e	0.106564745
47	0xbf4bd739	-0.7962528
48	0xbf30c67a	-0.6905285
49	0xbd40a35a	-0.047030784
50	0x3e700b0d	0.23441716
51	0x404b1091	3.1728861
52	0xbe37de73	-0.17955951
53	0xbf063b86	-0.52434576
54	0xbf9c6852	-1.2219336
55	0xbf12ddc9	-0.5736967
56	0xbfd2cec0	-1.6469345
57	0x3ea0ccaa	0.31406146
58	0xbf37fd0b	-0.7187049
59	0x3f6024dd	0.8755625
60	0x3f6ac448	0.9170575
61	0xbf5170cd	-0.81812745
62	0xbed55812	-0.41668755
63	0xbf7e0f50	-0.99242115
64	0xbd1dbbb7	-0.038509097
65	0xbf56c267	-0.83890384
66	0xbe0f308c	-0.13983363
67	0xbf13555d	-0.5755213
68	0xbee9476e	-0.4556231
69	0xbf68f88c	-0.9100425
70	0x3e5d7ad8	0.21628892
71	0xbeeeb85d	-0.46625033
72	0xbee52e9e	-0.4476213
73	0xbdc168e2	-0.09443833
74	0xbf90b62e	-1.1305597
75	0x3f05814d	0.5215042
76	0x3f2c9eac	0.67429614
77	0xbe8fc4bf	-0.28079793
78	0xbe953483	-0.29141626
79	0x3ff8d6cf	1.9440554
80	0x3f30600e	0.6889657
81	0x4018ea08	2.3892841
82	0xbf2b0fc2	-0.6682092
83	0x3f3d0d38	0.73848295
84	0xbe25bd0a	-0.16185394
85	0xbfe8872f	-1.8166255
86	0x3f57cd20	0.8429737
87	0xbecd0a30	-0.40046835
88	0xbf2d2c5c	-0.6764581
89	0xbfcf6e6c	-1.6205573
90	0xbf4b2d22	-0.7936574
91	0xbebb6051	-0.3659692
92	0xbe5f3565	-0.21797712
93	0xbee2743b	-0.44229302
94	0x3fb84541	1.4396135
95	0xbfe18285	-1.7617956
96	0xbf7084b7	-0.93952507
97	0xbfc1297b	-1.5090784
98	0x3ebd3722	0.36956125
99	0xbfbdddc8	-1.4833307
100	0xbdc81658	-0.09769887
101	0xbf56414c	-0.83693385
102	0x3fa46941	1.2844621
103	0x3f3c183f	0.73474497
104	0xbfdcfc87	-1.7264565
105	0x3f21e5fa	0.6324154
106	0x3dcee136	0.10101549
107	0xbf1170c0	-0.5681267
108	0xbedce829	-0.43145874
109	0x3cc8f875	0.024532536
110	0xbf3f2436	-0.7466463
111	0x3f13c137	0.577167
112	0x3f1ad0e6	0.60475004
113	0xbee802f9	-0.45314768
114	0xbf7540b7	-0.9580187
115	0xbfa24d5a	-1.2679856
116	0x3f56838e	0.83794487
117	0x3f975532	1.1822875
118	0xc014b8d4	-2.323781
119	0x3f51bc34	0.819278
120	0xbf63246c	-0.8872745
121	0xc00365e9	-2.053095
122	0xbe978706	-0.29595202
123	0x3f926af8	1.1438894
124	0xbe587e14	-0.21141845
125	0x3f151eea	0.58250296
126	0x3f5c8f6d	0.8615635
127	0xbeeaee83	-0.45885095
128	0x3dd1d0ed	0.102449276
129	0x3ebec6f9	0.3726118
130	0x3f190a31	0.59781176
131	0x3ee4a7e9	0.44659355
132	0xbff30c14	-1.8988061
133	0xbf39ef59	-0.7263084
134	0xbf3aaf81	-0.7292405
135	0xbe5cdf77	-0.2156962
136	0x3fdf3ed4	1.7441049
137	0x3eac0cd3	0.33603534
138	0x3de82c84	0.11336616
139	0x3f700855	0.93762714
140	0xbee49855	-0.4464747
141	0xbf228185	-0.6347888
142	0x3f9a1d72	1.2040236
143	0xbe25f9f1	-0.16208626
144	0xbf33ba56	-0.702062
145	0xbf9003da	-1.1251175
146	0xbd8f79a5	-0.07005624
147	0xbf12bf67	-0.57323307
148	0x3cea4ec3	0.02860201
149	0x3fdf5db4	1.7450471
150	0x4000c84d	2.0122254
151	0xbeaaf506	-0.33390063
152	0xbf9d8083	-1.2304844
153	0x3f0f7d37	0.5605044
154	0x3f3f084d	0.7462204
155	0xbf21d006	-0.63208044
156	0x3e5182d1	0.20460059
157	0x3e01fc20	0.12693834
158	0xbdc573e0	-0.09641242
159	0xbd9663e3	-0.07343271
160	0xbeff6dcc	-0.49888456
161	0xbf895a5b	-1.0730699
162	0xbe2ebc7b	-0.17064087
163	0x4009fdae	2.1561084
164	0x3e551584	0.20808989
165	0xbf4385a6	-0.76375806
166	0x3eb74af7	0.3579938
167	0xbfa5387d	-1.2907864
168	0x3dd149d5	0.102191605
169	0x3f95cb5a	1.1702683
170	0x3ef37d78	0.47556663
171	0x3f79e563	0.9761564
172	0xbeecacbf	-0.46225545
173	0x3e0eca11	0.1394427
174	0xbf17a0c8	-0.5922971
175	0x3f0ec8a1	0.55774885
176	0x3d700fcb	0.05860881
177	0xc00ecf06	-2.2313857
178	0xbe978ebd	-0.29601088
179	0x4012814e	2.2891421
180	0x3e9a5e7a	0.30150205
181	0x3e076fdd	0.13226266
182	0xbdbfc8ab	-0.09364446
183	0xbfa3cb59	-1.2796432
184	0x3e9533ec	0.29141176
185	0xbf1aebc5	-0.60516006
186	0xbee0b38a	-0.43886977
187	0x3f0377e7	0.5135483
188	0xbf9e0fd0	-1.2348576
189	0xbe73bb1c	-0.23801845
190	0x3fcfb4a6	1.6227005
191	0x3e1877d1	0.14889456
192	0x3e8437f5	0.25823942
193	0xbe89482c	-0.26812875
194	0xbe983d45	-0.29734245
195	0x3fae809d	1.3633
196	0xbf26c62e	-0.6514615
197	0x3f19ca16	0.60073984
198	0xbf33e548	-0.7027173
199	0xbf0ef7ff	-0.5584716
200	0x3e999f8d	0.3000454
201	0xc03f3c56	-2.9880576
202	0xbed07cb0	-0.4072013
203	0xbe84da83	-0.2594796
204	0xbef648f1	-0.48102525
205	0xbfd78856	-1.6838481
206	0x3fecd035	1.850104
207	0xbd274042	-0.040832765
208	0x3e8ad1ab	0.2711309
209	0xbf92786e	-1.1443002
210	0xbf3b882a	-0.73254645
211	0x3fd2339e	1.6422002
212	0xbf65092b	-0.89467114
213	0x3de64761	0.11244083
214	0x3e1635ae	0.14668915
215	0x3f3cb479	0.7371288
216	0x3e6d5fde	0.23181102
217	0xbef0f170	-0.47059202
218	0x3efe7780	0.49700546
219	0x3f9de82e	1.2336481
220	0xbee80fa1	-0.45324424
221	0x3f1508fd	0.5821684
222	0x3f7f0ecb	0.9963195
223	0x3fa09d9d	1.25481
224	0x3d974bb4	0.07387486
225	0xbec52f08	-0.38512444
226	0x3fc88ab5	1.566733
227	0xbf809c33	-1.0047668
228	0xbf34daf1	-0.7064658
229	0xbf92f229	-1.1480151
230	0xbe989d0e	-0.29807323
231	0x3f5a33f5	0.8523553
232	0xbc9bb5d3	-0.019007599
233	0x3fd0af3b	1.6303476
234	0xbf92c102	-1.1465151
235	0x3ea333d3	0.31875476
236	0xbf3456b4	-0.704448
237	0x3feb742d	1.8394829
238	0xbfe9a444	-1.8253255
239	0x4001c16e	2.027431
240	0x3eed1a72	0.4630924
241	0x3e99e3ca	0.30056602
242	0xbf89c2b6	-1.0762546
243	0x3e9edc0f	0.31027266
244	0x3f7feec1	0.99973685
245	0x3f824f79	1.0180503
246	0xbf295da8	-0.66158533
247	0xbe2d7c15	-0.16941865
248	0xbdd41e99	-0.103573985
249	0x3fa5022f	1.2891291
250	0xbf9e57b7	-1.2370518
251	0x3ee94a2b	0.45564398
252	0x3f57a025	0.84228736
253	0x3d9c4cea	0.07631858
254	0x3dbe45da	0.09290667
255	0x3e608de1	0.21929123

embed_cp.weight f4 [620, 5]
0	0x00000000	0.0
1	0x00000000	0.0
2	0x00000000	0.0
3	0x00000000	0.0
4	0x00000000	0.0
5	0x3e00ea2d	0.12589331
6	0x3ec11c9a	0.37717134
7	0xbed80ed9	-0.42198828
8	0xbf905e96	-1.1278865
9	0x3f8a1975	1.0789019
10	0xbe0ae916	-0.13565478
11	0xbec2b963	-0.38032064
12	0xbfa64b7b	-1.2991785
13	0x3f512b94	0.8170712
14	0x3eeebcbf	0.46628377
15	0xbf0c7654	-0.54868054
16	0x3f20f017	0.6286635
17	0x3e05abc4	0.13053805
18	0x3e975b69	0.29561928
19	0xbf205153	-0.6262409
20	0xbec0ba79	-0.37642267
21	0xbfba7a18	-1.456851
22	0x3f6b3483	0.91877
23	0x3f3de177	0.7417216
24	0x3f06dea3	0.52683467
25	0xbf8f03c1	-1.1173021
26	0xbefea607	-0.49736044
27	0x40137d2c	2.304515
28	0x3e5738f1	0.21017815
29	0x3da08fba	0.07839914
30	0x3f7fb6eb	0.99888486
31	0xbdd1728e	-0.10226928
32	0x3f1b7365	0.60722953
33	0xbf829ba9	-1.0203754
34	0x3f161e5d	0.5864008
35	0x3ed0a6dd	0.40752307
36	0xbee4d4eb	-0.44693694
37	0x3d9f187e	0.077683434
38	0x3f243399	0.6414123
39	0xbf47b855	-0.78015643
40	0xbf7fa85a	-0.9986626
41	0x3ed9a27b	0.42506775
42	0xbaf96efa	-0.0019030266
43	0xbf56d7f5	-0.83923274
44	0xbf3ca868	-0.7369447
45	0xbeb4f396	-0.3534209
46	0xbf380926	-0.7188896
47	0x3f94af64	1.1616025
48	0x3f794251	0.97366816
49	0xbd8948ab	-0.067033134
50	0xbe060b8f	-0.13090347
51	0x3e8dc234	0.27687228
52	0x3e246d6c	0.16057366
53	0x3f791c38	0.97308683
54	0xbd19de2d	-0.0375654
55	0xbd46b288	-0.048510104
56	0xbfcaa530	-1.5831661
57	0xbf0a1a7a	-0.5394665
58	0x3f78df53	0.97215766
59	0x3fac22f0	1.3448162
60	0xbeeb8899	-0.46002653
61	0x3d937e10	0.07201779
62	0x3e1498bb	0.14511387
63	0x3ea9c00a	0.33154327
64	0xbf82645a	-1.0186875
65	0xbe4dd8c0	-0.20102215
66	0x3f9dcd92	1.232836
67	0xbf83993c	-1.0281138
68	0xbfba5304	-1.4556584
69	0x3f57b2a6	0.8425697
70	0xbfdd923f	-1.7310256
71	0xc01dc13d	-2.4649193
72	0xbff52fcb	-1.915521
73	0x3f89991c	1.074985
74	0x3df14f29	0.11782677
75	0xbf09c0b8	-0.5380969
76	0xbd301302	-0.042986877
77	0x3f43c09b	0.7646577
78	0x3efe06d3	0.4961458
79	0xbedc47b6	-0.4302346
80	0x3fb01fcf	1.3759707
81	0xbf0f5449	-0.55987984
82	0x3e81d997	0.2536132
83	0xbf8b75ab	-1.0895284
84	0x3e95e972	0.29279667
85	0x3f6e8535	0.9317201
86	0xbeec7f5b	-0.46190915
87	0xbfdabc07	-1.7088631
88	0xbf523680	-0.8211441
89	0xbf993b1a	-1.1971161
90	0xbf910ef6	-1.1332691
91	0x3f569603	0.8382265
92	0xbf15cc41	-0.5851479
93	0xbfb059f3	-1.377745
94	0xc012f842	-2.2964025
95	0x3ef6bdb9	0.48191622
96	0xbf23e21b	-0.64016885
97	0xbfa60624	-1.2970624
98	0xbf61b168	-0.88161325
99	0x3f4ecd68	0.80782175
100	0x3ef235a7	0.47306558
101	0xbe8f9423	-0.28042707
102	0x3ef091e3	0.46986303
103	0xbf8708f4	-1.0549607
104	0xbf1f29c3	-0.621731
105	0xc04ce150	-3.201252
106	0x3f02ecde	0.5114268
107	0xbf01b9b8	-0.5067401
108	0x3f807835	1.0036684
109	0xbfb8e0a5	-1.4443556
110	0xbf1e29ee	-0.6178273
111	0x3f9f03db	1.2423052
112	0xbdeff395	-0.117163815
113	0xbd80759f	-0.062724344
114	0xbfa16620	-1.2609291
115	0xbdaf07cd	-0.0854641
116	0x3f3854d8	0.7200446
117	0x3fcfebdd	1.6243855
118	0xbe48866a	-0.19582525
119	0xc0207cc1	-2.5076144
120	0xbf9a062f	-1.2033137
121	0x3e05858f	0.1303923
122	0xbfa12b01	-1.2591249
123	0xbfc260d3	-1.5185798
124	0x3f3577ac	0.7088573
125	0x3fcd88c1	1.6057359
126	0x3f6fbcc5	0.93647414
127	0x3f262bc9	0.6491056
128	0xbf0bcd51	-0.5461016
129	0x3e20dded	0.15709658
130	0x40083cb7	2.1287057
131	0x3e9a0741	0.3008366
132	0x3e3d075e	0.18459842
133	0xbfabdb0e	-1.3426225
134	0xbfd0f811	-1.6325704
135	0xbfb551f1	-1.4165632
136	0x3f81bac1	1.0135118
137	0x3ff46689	1.9093791
138	0x3fbc2203	1.469788
139	0x3fd11cc1	1.63369
140	0x3fe0063c	1.7501903
141	0xbf1b7a2c	-0.60733294
142	0xbf404f1b	-0.75120705
143	0xbf1636f8	-0.58677626
144	0x3e40b5b2	0.18819311
145	0x3e529308	0.205639
146	0xbcee407a	-0.02908348
147	0xbf07b595	-0.5301145
148	0xbf44872e	-0.7676877
149	0x3f15501b	0.58325356
150	0xbf0c62d6	-0.5483831
151	0xc01166cd	-2.2718995
152	0x3fb1f473	1.3902725
153	0xbe2a8b22	-0.16654637
154	0xbe116651	-0.14199187
155	0xbecd0d75	-0.4004933
156	0x3e6d9159	0.23199977
157	0x3c300abe	0.010744749
158	0x3ece2136	0.40259713
159	0x3ef55c33	0.47921905
160	0x3e599e1d	0.21251722
161	0xc00b1f78	-2.1737957
162	0x3edd676f	0.43242976
163	0x3e35ac16	0.17741427
164	0xbed4a414	-0.41531432
165	0x3f828e4f	1.0199679
166	0xbd6b8fef	-0.057510313
167	0xbdfa97b1	-0.12235964
168	0xbfe043ec	-1.7520728
169	0x3fc9580a	1.5729992
170	0x3ebaee4b	0.36509928
171	0x3e5d9af4	0.21641141
172	0x3f0fe689	0.56211144
173	0x3e37378a	0.1789228
174	0xbf8328b2	-1.0246794
175	0xbf70d322	-0.94072163
176	0xbe9b4f2f	-0.3033385
177	0xc00bda95	-2.1852162
178	0xbff98c7a	-1.9495995
179	0x3f8316dd	1.0241352
180	0x3faebf41	1.3652116
181	0x3f9bc421	1.2169229
182	0x3f868d08	1.0511789
183	0xbf7a385d	-0.97742254
184	0x3e239cd7	0.15977798
185	0xbf634d57	-0.88789886
186	0xbfe9a1ed	-1.8252541
187	0xbeaaf952	-0.3339334
188	0xbe6a81fc	-0.22901148
189	0xbf9c2d8c	-1.22014
190	0xbd625f11	-0.055266444
191	0xbec51bb9	-0.38497713
192	0xbe6a7f6b	-0.22900169
193	0x3e5b48da	0.2141451
194	0x3eb3d543	0.35123643
195	0x3fa0d51f	1.2565039
196	0xbd244cad	-0.040112186
197	0x3f866585	1.0499731
198	0xbeb82a77	-0.35969898
199	0xbfa46ebb	-1.2846292
200	0x3e9ff965	0.3124496
201	0xbeeb4b81	-0.45956042
202	0x3dcc89af	0.099871986
203	0xbf22f45d	-0.6365412
204	0xbf01ded0	-0.5073061
205	0x3e21ded5	0.1580766
206	0x3fcbeeff	1.5932311
207	0x3ed8726b	0.42274794
208	0x3ed50dea	0.41612178
209	0xbe4ddcb2	-0.2010372
210	0xbe228145	-0.15869625
211	0xbce0bca9	-0.02743371
212	0x3e90040d	0.2812809
213	0xbf446e9c	-0.76731277
214	0xc0051d68	-2.0799198
215	0xbdc3cb23	-0.0956023
216	0xbff24dc3	-1.8929981
217	0x3dd84740	0.10560465
218	0xc01f4c90	-2.489048
219	0x3d8ed14f	0.06973516
220	0x3f90e145	1.1318747
221	0x3f42669e	0.7593783
222	0x3dd3a968	0.10335046
223	0x3ea433dd	0.3207082
224	0xbf069f6e	-0.5258702
225	0xbdaed7d8	-0.08537263
226	0xbf400d42	-0.7502023
227	0xbf2534a5	-0.64533454
228	0x3d144720	0.036200643
229	0xbea0a6bb	-0.31377205
230	0x400c8b2b	2.1959941
231	0x3f46829e	0.77543056
232	0x3f6559b2	0.8958999
233	0x4002537b	2.0363452
234	0x3f3afd97	0.730432
235	0xc004b47a	-2.0735154
236	0xbea99618	-0.33122325
237	0x3efb3ec5	0.49071327
238	0xbfa66fb3	-1.3002838
239	0xbfc82fb9	-1.5639564
240	0x3fc50d30	1.539465
241	0x3ea02326	0.31276816
242	0x3fb6a4cb	1.4269041
243	0x3d69ba9a	0.057062723
244	0x3ef0b8ca	0.47015983
245	0x3ea9a8a9	0.3313649
246	0x3eaa195f	0.33222482
247	0xbecd855b	-0.40140805
248	0xc01fdc7a	-2.4978318
249	0xbf0bb3b8	-0.54571104
250	0x3f945176	1.158736
251	0x3e237d58	0.15965784
252	0xbf28856c	-0.65828586
253	0xbf46ee80	-0.7770767
254	0x3f16d32b	0.58915967
255	0x3f0043d3	0.5010349

gru_dp_fw.weight_ih_l0 f4 [21, 7]
0	0xbde53fee	-0.11193834
1	0xbe084b05	-0.13309868
2	0x3e01b172	0.12665346
3	0xbe71a98b	-0.23599832
4	0x3d2df388	0.042468578
5	0x3dc14f28	0.09438926
6	0xbd990bef	-0.07472979
7	0xbdaf0af5	-0.08547012
8	0x3e88d0f9	0.26721933
9	0xbea92e6d	-0.33043233
10	0x3e552fcb	0.20819013
11	0x3d1afabe	0.037836783
12	0x3e0f4384	0.13990599
13	0x3d8dfc6b	0.069329105
14	0xbdfda45e	-0.12384866
15	0x3e479ebd	0.19494148
16	0xbde20393	-0.11035838
17	0x3e70a576	0.23500618
18	0xbe360f91	-0.17779376
19	0x3e9b230b	0.30300173
20	0x3d91aca9	0.071130104
21	0x3d9599f1	0.073047526
22	0x3e937292	0.28798348
23	0xbeaf4698	-0.34233546
24	0xbd65bd68	-0.056088835
25	0x3d765c1f	0.060146447
26	0xbde1cd35	-0.11025468
27	0xbe6d583d	-0.23178191
28	0xbe98e45c	-0.29861724
29	0xbe2ac07d	-0.16674991
30	0xbda92264	-0.082585126
31	0x3ed845eb	0.42240843
32	0x3d5e37a6	0.05425229
33	0x3e4259ee	0.18979618
34	0xbecda0b8	-0.4016168
35	0xbc8d56dc	-0.017253332
36	0x3e0072b7	0.1254376
37	0x3e5c2a42	0.21500495
38	0xbe8b9cb9	-0.27268007
39	0x3e9f6cd5	0.3113772
40	0xbe23e1c6	-0.16004094
41	0xbeb3010e	-0.34961742
42	0x3d9c8790	0.07643044
43	0xbee81a72	-0.45332676
44	0x3b6607ce	0.0035099867
45	0x3f04dd27	0.5189995
46	0x3eda80f8	0.4267652
47	0xbdde37af	-0.108504646
48	0xbe45c7fe	-0.19314572
49	0x3e83e0e6	0.2575752
50	0xbee31299	-0.44350126
51	0x3e4a36c9	0.19747461
52	0xbe8948e8	-0.26813436
53	0xbd7c5fc7	-0.061614778
54	0xbeb1e2d9	-0.34743384
55	0x3e2ef600	0.17086029
56	0x3e57edb3	0.21086769
57	0x3e1b2a11	0.15152766
58	0x3ea5126b	0.32240614
59	0x3eacafa5	0.33727756
60	0xbd559482	-0.05214358
61	0x3bf829f6	0.0075733615
62	0x3e8f7102	0.28015906
63	0xbda9a75a	-0.08283873
64	0x3e8209dd	0.2539815
65	0x3e9a809f	0.30176255
66	0xbeac444e	-0.33645862
67	0x3e8b3898	0.27191615
68	0x3d65b094	0.0560766
69	0xbdc2834e	-0.09497701
70	0xbe7088de	-0.2348971
71	0x3e0d5a3a	0.1380395
72	0xbebb7a2e	-0.36616653
73	0x3e9ca8b8	0.30597472
74	0x3e588a47	0.21146499
75	0x3e847ab4	0.25874865
76	0x3e231fb9	0.1593007
77	0x3e51dda1	0.20494701
78	0xbe1c9d1c	-0.15294307
79	0x3eb571f3	0.354385
80	0xbeabe709	-0.33574703
81	0x3e5893d6	0.21150145
82	0x3df482d8	0.11939019
83	0x3e60cd5f	0.21953343
84	0x3d83d225	0.06436566
85	0xbe5e5961	-0.21713783
86	0xbe231c7d	-0.15928836
87	0x3e4494de	0.19197413
88	0xbe541154	-0.20709735
89	0x3eca74a5	0.39542118
90	0x3eb225e1	0.34794524
91	0x3df12422	0.1177447
92	0x3e0afb37	0.13572393
93	0x3e1b73a1	0.15180828
94	0xbe9a1b78	-0.30099082
95	0x3e35541c	0.17707866
96	0x3dac1c08	0.08403784
97	0x3ec8c96d	0.39216176
98	0x3e8a828b	0.2705272
99	0x3db075b9	0.08616204
100	0x3e8898bf	0.26679036
101	0x3ea5c02d	0.3237318
102	0xbda98089	-0.08276469
103	0x3e249de2	0.16075853
104	0xbe383ff0	-0.1799314
105	0x3db657cc	0.08903465
106	0xbe87fdab	-0.2656072
107	0xbeca8ae9	-0.39559105
108	0x3b0f05ff	0.0021823642
109	0xbed3919f	-0.41322038
110	0x3e955a81	0.29170612
111	0x3d34fecf	0.044188317
112	0x3d39922d	0.04530542
113	0xbe844882	-0.2583657
114	0x3e4fc914	0.20291549
115	0x3e3fc1ae	0.18726227
116	0x3dddd348	0.10831314
117	0xbe1532e9	-0.14570202
118	0x3e79dde6	0.24401054
119	0x3df691e6	0.12039547
120	0x3e8baf0c	0.27281988
121	0xbe14694b	-0.14493291
122	0xbe1a7150	-0.15082288
123	0x3f12e617	0.5738234
124	0xbc31d36c	-0.01085363
125	0xbda88c96	-0.0822994
126	0xbe10ed74	-0.14153081
127	0xbd698800	-0.057014465
128	0xbea0bdc9	-0.31394795
129	0xbe9529be	-0.2913341
130	0xbe9c6c9e	-0.30551618
131	0x3ded6c13	0.11592879
132	0x3e1a9d83	0.15099148
133	0x3b68f050	0.0035543628
134	0xbe4f20f4	-0.20227414
135	0x3e079a14	0.1324237
136	0x3e2e2484	0.17006117
137	0x3ebc3a11	0.3676305
138	0x3d6ba1e6	0.057527445
139	0xbe432438	-0.19056785
140	0xbe8d2f36	-0.27575082
141	0x3dd892df	0.105748884
142	0x3d832656	0.064037964
143	0xbd6dfb07	-0.058100726
144	0xbedb2e90	-0.42808962
145	0x3d903bd3	0.070426606
146	0x3ee1d40a	0.44107085

gru_dp_fw.weight_hh_l0 f4 [21, 7]
0	0xbdc020de	-0.09381269
1	0x3da8f468	0.08249742
2	0x3e60d29c	0.21955341
3	0x3ce66eb4	0.02812896
4	0xbebc6c00	-0.36801147
5	0xbdb8a8b6	-0.09016554
6	0xbe24f191	-0.16107775
7	0x3e08a3f1	0.13343789
8	0xbea7a163	-0.32740316
9	0x3e10ad23	0.14128546
10	0xbe8def5d	-0.27721682
11	0x3d7e625c	0.06210552
12	0x3e06df17	0.1317104
13	0xbd170e0f	-0.03687864
14	0x3dea349b	0.11435815
15	0xbe31259f	-0.17299508
16	0xbe32b624	-0.17452294
17	0xbd352b46	-0.044230722
18	0xbe8bd4f5	-0.2731091
19	0xbcbaac6e	-0.022787299
20	0x3e2cef15	0.16888078
21	0x3d78dabf	0.060755488
22	0xbe80cdc8	-0.25157
23	0x3d5ace6f	0.053419527
24	0xbe589ebc	-0.21154302
25	0x3ef48a5a	0.47761804
26	0xbf007501	-0.50178534
27	0x3e749119	0.23883475
28	0x3ed0892c	0.40729654
29	0x3d9499bf	0.07255887
30	0x3e584ee5	0.21123846
31	0x3bf6555a	0.007517499
32	0xbf1d057a	-0.6133648
33	0x3eab47b8	0.33453155
34	0xbf137fe7	-0.5761704
35	0x3e507579	0.20357312
36	0x3efc10dd	0.49231616
37	0x3ea55ca8	0.32297254
38	0xbda89cf0	-0.082330585
39	0xbea2bd0a	-0.3178485
40	0x3e51a056	0.2047132
41	0xbd396922	-0.045266278
42	0x3f10d252	0.56570923
43	0x3db7dc79	0.08977599
44	0x3de44c6b	0.11147388
45	0x3d866b6e	0.06563459
46	0xbde09c33	-0.10967293
47	0x3bb8ac48	0.005635772
48	0xbe86804d	-0.2626976
49	0xbd9a742d	-0.0754169
50	0x3ce1f645	0.02758325
51	0x3d9662da	0.07343073
52	0xbe17292c	-0.147618
53	0xbdf1109b	-0.11770745
54	0xbe35fbfc	-0.17771906
55	0xbe84a71a	-0.25908738
56	0xbe0c977d	-0.13729663
57	0xbe147d4a	-0.14500919
58	0x3d7f7d7d	0.062375534
59	0x3d4d73e1	0.05015934
60	0xbb844e2d	-0.0040376396
61	0x3e235012	0.15948513
62	0xbe0ec12c	-0.13940877
63	0xbca65e40	-0.020308614
64	0xbe6210bf	-0.220767
65	0x3dc374df	0.09543776
66	0x3ea142fc	0.31496418
67	0xbea748be	-0.32672685
68	0x3c1c880a	0.009553919
69	0xbec0b663	-0.3763915
70	0x3daf682f	0.08564793
71	0xbdd48a29	-0.103779145
72	0xbc74343b	-0.014905031
73	0x3f0e84d8	0.55671453
74	0x3f007f81	0.50194556
75	0xbea30f33	-0.31847534
76	0x3c6cf2a6	0.014462149
77	0xbd01f200	-0.03172493
78	0xbe5ae68b	-0.21377008
79	0xbe311ea9	-0.17296852
80	0xbe7f9b0f	-0.24961494
81	0x3d6ab1a1	0.057298306
82	0xbe80b8b0	-0.25140905
83	0xbdb48f78	-0.08816427
84	0xbe03c917	-0.12869678
85	0xbeebb013	-0.4603277
86	0xbea02cbc	-0.3128413
87	0x3d5e4e43	0.054273855
88	0xbddd01ae	-0.10791336
89	0x3cf15837	0.02946101
90	0x3ead2000	0.33813477
91	0x3e71d50c	0.23616427
92	0x3e7addd8	0.24498689
93	0xbe2ca491	-0.16859652
94	0xbd438f11	-0.04774386
95	0xbe43573d	-0.19076248
96	0xbe8fec5f	-0.28110024
97	0xbdcc53b2	-0.09976901
98	0xbe76cccf	-0.24101566
99	0x3e2f6dc5	0.17131718
100	0x3dd7f4c1	0.1054473
101	0xbe00f331	-0.1259277
102	0xbe1ee758	-0.15517938
103	0x3ec4a7cb	0.38409266
104	0xbf056677	-0.52109474
105	0xbea772b6	-0.32704705
106	0x3bb33c34	0.0054698233
107	0xbd1e8bf8	-0.038707703
108	0x3ea9cd26	0.33164328
109	0xbe3f5468	-0.18684542
110	0x3df6f444	0.12058309
111	0x3ed3b855	0.41351572
112	0xbe3d43c0	-0.18482876
113	0xbdc31768	-0.09525949
114	0xbe2f8ddd	-0.1714396
115	0xbe73917e	-0.2378597
116	0xbe4b758d	-0.19869061
117	0x3e9c1c2b	0.3049024
118	0x3e192324	0.14954811
119	0xbe35819e	-0.17725226
120	0x3b87503c	0.0041294377
121	0x3d6416c2	0.055685766
122	0xbe55e07c	-0.20886415
123	0xbf05e484	-0.5230181
124	0xbe3c2d61	-0.18376686
125	0xbea696a2	-0.325368
126	0xbe61a067	-0.22033845
127	0xbea2024f	-0.31642386
128	0xbd6b3bac	-0.057429954
129	0x3ebf44d8	0.3735721
130	0x3dde9b3c	0.10869452
131	0xbed18055	-0.40918222
132	0x3f1d87c0	0.61535263
133	0x3eeb70bc	0.45984447
134	0xbe52a951	-0.20572402
135	0x3ed4c99f	0.41560075
136	0xbebce0fb	-0.36890396
137	0xbf06d259	-0.52664715
138	0xbe211fe4	-0.15734822
139	0xbed4e8e5	-0.41583934
140	0xbe1d3046	-0.15350446
141	0xbee313b4	-0.4435097
142	0x3d8294f6	0.06376068
143	0x3e0c36b9	0.1369275
144	0x3e52e5f7	0.20595537
145	0xbe30560e	-0.17220327
146	0x3f0a9670	0.541358

gru_dp_fw.bias_ih_l0 f4 [21]
0	0x3e445a0c	0.19174975
1	0x3dad4355	0.08460108
2	0xbeebab86	-0.460293
3	0x3ddefdcd	0.108882524
4	0xbe499d20	-0.19688845
5	0x3ee62c91	0.44955876
6	0xbd493d99	-0.04913101
7	0x3e972ea5	0.29527774
8	0xbeb43296	-0.35194844
9	0x3e092937	0.13394628
10	0x3d6b7b0e	0.0574904
11	0xbe9d3452	-0.3070398
12	0xbeb74869	-0.35797432
13	0x3e23ad2f	0.15984033
14	0xbe78aa52	-0.24283722
15	0x3ea52d1f	0.32260987
16	0xbc70655a	-0.014672602
17	0xbe10244a	-0.14076343
18	0x3d8c2032	0.06842078
19	0xbe5220ef	-0.20520376
20	0x3e1e11bc	0.15436453

gru_dp_fw.bias_hh_l0 f4 [21]
0	0x3e577b89	0.21043219
1	0x3ec078b9	0.37592104
2	0x3e3ffda3	0.18749098
3	0x3d50b9c5	0.050958414
4	0x3eb0111c	0.34388053
5	0x3e55c859	0.20877208
6	0x3e5a0fd5	0.21295102
7	0xbdbbe666	-0.091748044
8	0xbeac2db7	-0.33628628
9	0xbe276614	-0.16347533
10	0x3c5e1df3	0.013556945
11	0x3e79de59	0.24401225
12	0xbec2b0eb	-0.38025603
13	0xbe669d14	-0.22520858
14	0x3ecdaa39	0.40168932
15	0x3e8672f5	0.2625958
16	0xbc579eb5	-0.013160397
17	0xbeb3afb3	-0.35094985
18	0xbed02548	-0.40653443
19	0x3e365804	0.17807013
20	0xbea4e94c	-0.3220924

gru_cp_fw.weight_ih_l0 f4 [18, 6]
0	0xbec2884d	-0.37994614
1	0xbe5681cc	-0.20947951
2	0xbe9a15ff	-0.30094907
3	0x3ed60be3	0.41805944
4	0xbefd4f75	-0.49474683
5	0xbe487216	-0.1957477
6	0xbd813b10	-0.063100934
7	0x3e458509	0.1928903
8	0x3e19a009	0.15002455
9	0x3eac30df	0.33631036
10	0xbe433b85	-0.19065674
11	0xbdf987ff	-0.12184142
12	0xbea0f715	-0.3143851
13	0xbd48f371	-0.04906029
14	0xbcc26433	-0.02372942
15	0xbe957fe3	-0.29199132
16	0x3e1e1f82	0.15441707
17	0x3ed5f09c	0.41785133
18	0x3aaeac2b	0.0013326457
19	0x3dd755f5	0.10514442
20	0xbe9d3ec6	-0.30711955
21	0x3e3fd777	0.18734537
22	0x3e806a3f	0.2508106
23	0xbe053e00	-0.13011932
24	0x3eceb280	0.4037056
25	0xbe88c94c	-0.26716077
26	0x3e80c4da	0.25150186
27	0xbe1de468	-0.15419161
28	0x3e07ac8b	0.13249414
29	0x3ba08afe	0.0048993817
30	0xbe8ea9e6	-0.27863997
31	0xbe8a1625	-0.2697002
32	0x3eb3f900	0.3515091
33	0x3edc95e9	0.43083122
34	0xbe8d7616	-0.27629155
35	0x3e47b18d	0.19501324
36	0x3e271377	0.16316019
37	0xbe754d14	-0.23955184
38	0x3ef0b183	0.4701043
39	0xbc8b1c87	-0.016981376
40	0x3c80d520	0.015726626
41	0xbe8921fa	-0.26783735
42	0x3ddc9abf	0.10771703
43	0xbe88ebd7	-0.26742432
44	0x3ea74333	0.32668456
45	0xbd4ba579	-0.049718354
46	0xbf03d0ee	-0.51490676
47	0xbd770408	-0.06030658
48	0xbdee1d3e	-0.11626671
49	0xbdf0806a	-0.11743243
50	0xbe676c66	-0.22599944
51	0xbe894234	-0.2680832
52	0xbe04a8f3	-0.12955074
53	0xbea9314a	-0.33045417
54	0xbd72de8b	-0.059294265
55	0xbe7be4ce	-0.24599001
56	0x3e943e9b	0.28954014
57	0xbe93cdf3	-0.28868064
58	0x3c92bbde	0.017911848
59	0xbbd0afc4	-0.006368609
60	0x3d6bf96f	0.057610925
61	0xbe6ac9d3	-0.22928552
62	0x3e7928a9	0.24331917
63	0xbea2c82c	-0.31793344
64	0xbd2b91ef	-0.04188722
65	0x3c20e724	0.009820733
66	0x3dcc07fb	0.0996246
67	0x3e6a032c	0.22852772
68	0x3e6c2edc	0.2306475
69	0xbece233e	-0.40261263
70	0x3e2bcc15	0.1677707
71	0xbec6eafe	-0.3885116
72	0xbdb71313	-0.08939185
73	0xbdc62a6e	-0.096760616
74	0x3e1e531d	0.15461393
75	0xbd7988b3	-0.060921382
76	0xbf0d8d35	-0.5529359
77	0xbdf4d1d4	-0.11954084
78	0xbe88493a	-0.26618367
79	0x3ea5badb	0.32369122
80	0xbe767add	-0.24070306
81	0xbec7a88e	-0.38995785
82	0x3d839390	0.0642463
83	0xbd868446	-0.06568198
84	0x3eb19648	0.34684968
85	0x3e5c3390	0.21504045
86	0x3e895d1d	0.26828852
87	0xbe8ae7d4	-0.27129996
88	0x3e825023	0.25451764
89	0x3cb10557	0.021608992
90	0xbe0a2d81	-0.13493921
91	0xbd9441fc	-0.07239148
92	0xbe7f1a2d	-0.24912329
93	0xbeb3c867	-0.35113832
94	0xbcb5d554	-0.02219645
95	0xbdd6e868	-0.10493547
96	0xbeaf4c13	-0.34237728
97	0xbe898225	-0.26857105
98	0xbe4636ee	-0.19356892
99	0x3eca9061	0.39563277
100	0xbe95f77c	-0.29290378
101	0x3e4204a7	0.18947087
102	0xbe6b4d4f	-0.2297871
103	0x3d81508f	0.063141935
104	0x3f01883a	0.5059849
105	0x3ec67751	0.38762906
106	0xbd86b7cf	-0.065780275
107	0x3c586024	0.013206515

gru_cp_fw.weight_hh_l0 f4 [18, 6]
0	0xbe3142e2	-0.1731067
1	0x3ea3268d	0.3186535
2	0xbec5b68f	-0.38615844
3	0x3e53d073	0.20684986
4	0x3e13139d	0.1436295
5	0x3d888e8c	0.06667814
6	0x3f0e8855	0.55676776
7	0xbe3682eb	-0.17823379
8	0xbc952841	-0.018207671
9	0xbe61eee9	-0.22063793
10	0xbd66d08b	-0.056351226
11	0xbd860ed5	-0.06545798
12	0xbea03b7e	-0.3129539
13	0xbe12caa2	-0.14335111
14	0xbe3f0add	-0.18656488
15	0xbca2b0ad	-0.019859636
16	0xbd8c09e0	-0.06837821
17	0xbeaacfbd	-0.33361617
18	0xbd1b30b6	-0.03788825
19	0xbe01dfcf	-0.12683032
20	0x3d670f31	0.056410972
21	0x3ec03d94	0.3754698
22	0x3e90d9b6	0.282911
23	0x3e852580	0.26005173
24	0x3eca46cb	0.39507136
25	0xbe6e3291	-0.23261477
26	0x3e0383dd	0.1284327
27	0x3ba82106	0.00513089
28	0x3e9645b0	0.29350042
29	0x3dc0d837	0.0941624
30	0x3de5a656	0.11213367
31	0xbe7564f5	-0.23964293
32	0x3c59171b	0.013250138
33	0xbd7e1686	-0.0620332
34	0xbea30cb2	-0.31845623
35	0x3ebaad08	0.36460137
36	0x3e620d05	0.22075279
37	0x3ea0f311	0.31435445
38	0x3e8fb28d	0.2806591
39	0xbeb295b1	-0.3487983
40	0xbd3da561	-0.046300296
41	0xbe17b222	-0.14814046
42	0x3b00c566	0.0019648909
43	0xbe8e8eb9	-0.27843264
44	0x3f0703da	0.5274025
45	0xbe2745d8	-0.16335237
46	0xbe3c38c0	-0.18381023
47	0xbdbebeeb	-0.093137585
48	0xba937db1	-0.0011252669
49	0xbecf09b2	-0.40437084
50	0xbd8be88f	-0.068314664
51	0x3eaded24	0.33969986
52	0x3e9742b8	0.2954309
53	0x3da79c91	0.081841595
54	0x3d428db3	0.047498416
55	0xbd6d8783	-0.057990562
56	0x3d85d623	0.06534984
57	0x3e2a0e20	0.16606951
58	0xbf379cbc	-0.7172353
59	0x3e065aad	0.13120528
60	0x3c7d6726	0.015466487
61	0xbef54db8	-0.47910857
62	0xbdd1417b	-0.102175675
63	0x3b5fb738	0.0034136306
64	0xbe13a644	-0.14418894
65	0xbda10421	-0.07862116
66	0x3dc43fdf	0.09582495
67	0xbecd4082	-0.40088278
68	0x3f0327ee	0.512328
69	0xbe461e96	-0.19347605
70	0xbdbed4a7	-0.09317904
71	0x3ec9eabd	0.39436904
72	0x3f272db2	0.653041
73	0x3d652b49	0.055949483
74	0xbe6e4819	-0.2326969
75	0x3dd29f88	0.102843344
76	0x3ee0a5b4	0.4387642
77	0xbe27088a	-0.16311851
78	0x3bbd5db1	0.005778991
79	0x3dac5e0c	0.084163755
80	0x3e16a86e	0.14712688
81	0x3d0e4978	0.034738034
82	0xbec8881f	-0.39166352
83	0xbda94d32	-0.08266677
84	0xbf125837	-0.57165855
85	0x3e5021dc	0.20325416
86	0x3f01cc6d	0.50702554
87	0x3e5a36f8	0.21310031
88	0xbf0da9e2	-0.55337346
89	0x3e5eb84c	0.21749991
90	0xbd080ac9	-0.03321341
91	0x3e149771	0.14510895
92	0xbeceaf8c	-0.40368307
93	0xbe85f80e	-0.26165813
94	0x3e1404f2	0.14455011
95	0xbe90b288	-0.2826121
96	0x3eca4700	0.39507294
97	0x3e51fca6	0.20506534
98	0xbd1d4b79	-0.038402054
99	0xbe09a23c	-0.13440794
100	0x3d55b8aa	0.052178062
101	0x3ebc04c0	0.36722374
102	0xbe746526	-0.2386671
103	0x3da1dc99	0.07903404
104	0xbd0ed44a	-0.034870423
105	0x3e0efbbf	0.13963221
106	0x3ec0c94e	0.37653583
107	0x3d57242a	0.052524723

gru_cp_fw.bias_ih_l0 f4 [18]
0	0xbe97db44	-0.29659474
1	0x3ec5c0fd	0.386238
2	0x3d721052	0.059097596
3	0x3ea9902e	0.33117813
4	0xbebfc3fe	-0.37454218
5	0xbda203f0	-0.07910907
6	0x3ea688fe	0.32526392
7	0xbe5649fa	-0.20926657
8	0xbe8d3e3c	-0.27586544
9	0xbe8037a0	-0.25042439
10	0xbe65532f	-0.22395013
11	0x3e0ca748	0.13735688
12	0xbe96a847	-0.2942526
13	0x3d9524db	0.0728242
14	0xbdaa8cba	-0.08327623
15	0x3e78e67a	0.2430667
16	0x3dc33201	0.09531022
17	0xbe8b42b9	-0.27199343

gru_cp_fw.bias_hh_l0 f4 [18]
0	0xbd112ce4	-0.0354432
1	0x3eaa456d	0.33256093
2	0x3eb30017	0.34961006
3	0x3e9f30ab	0.31091818
4	0xbba2d868	-0.0049696453
5	0x3ed49540	0.4152012
6	0x3ec395ca	0.38200217
7	0x3ebe40ec	0.37158906
8	0x3eabfdcd	0.33592072
9	0x3e55e587	0.20888339
10	0xbe417a2f	-0.18894266
11	0x3bdc1920	0.0067168623
12	0x3eb56c9a	0.3543442
13	0xbeb3eebb	-0.35143074
14	0x3d3379de	0.043817393
15	0xbed14237	-0.4087083
16	0x3e7ced5f	0.24699925
17	0x3e691c95	0.2276481

gru_dp_bw.weight_ih_l0 f4 [21, 7]
0	0x3e30f621	0.1728139
1	0xbd243510	-0.040089667
2	0x3c5b1e2a	0.013373891
3	0xbe3f1ec7	-0.18664084
4	0x3de45ca7	0.111504845
5	0xbe7a2394	-0.24427634
6	0xbd9ac7e6	-0.07557659
7	0xbe63fbea	-0.22264066
8	0xbe71fe01	-0.23632051
9	0xbe172d03	-0.14763264
10	0x3e0cc758	0.13747919
11	0xbe4248db	-0.18973105
12	0x3dd04e75	0.101712145
13	0xbe4610a6	-0.19342288
14	0xbe5bcb58	-0.21464288
15	0x3da11dbe	0.07867001
16	0x3db00377	0.08594411
17	0x3d9fcc0f	0.07802593
18	0xbde150a0	-0.11001706
19	0xbdab6758	-0.08369321
20	0x3e219b07	0.15781794
21	0xbda5c6e8	-0.08094579
22	0xbd808cfb	-0.0627689
23	0xbe148cac	-0.14506787
24	0x3e669e23	0.22521262
25	0xbe3d503b	-0.18487637
26	0x3dc9c900	0.09852791
27	0x3ec224c0	0.37918663
28	0xbe6fb128	-0.23407423
29	0x3de252e4	0.110509664
30	0xbe23e53f	-0.16005419
31	0xbe843d1f	-0.25827882
32	0x3c8389ca	0.016056914
33	0x3cbae604	0.022814758
34	0x3e79595b	0.24350493
35	0x3ca4a9f8	0.020100579
36	0x3e86d5d1	0.26335004
37	0x3bf6b1ea	0.007528533
38	0x3d565799	0.052329633
39	0x3db22c8f	0.08699905
40	0x3dcba1d9	0.09942979
41	0x3db0b944	0.086290866
42	0x3e581df8	0.21105182
43	0xbe682b53	-0.22672777
44	0x3e11b63b	0.14229672
45	0xbe835999	-0.25654295
46	0xbdfb3d33	-0.12267532
47	0xbe9030fa	-0.28162366
48	0x3db9a4a5	0.090646066
49	0x3cd1fd5f	0.025633512
50	0xbe5107bd	-0.20413108
51	0xbe83803d	-0.25683776
52	0x3ecee4ed	0.40409032
53	0xbe34d741	-0.17660238
54	0x3c8c5387	0.017129673
55	0xbe2fb522	-0.1715894
56	0xbea50afe	-0.3223495
57	0x3e78d273	0.2429903
58	0xbdbcb66e	-0.09214483
59	0xbe21257f	-0.1573696
60	0xbee2776f	-0.44231746
61	0xbea7d7ec	-0.32781923
62	0x3f08adb9	0.5339008
63	0x3e39b341	0.18134786
64	0xbec5919e	-0.3858766
65	0x3e388bf3	0.18022136
66	0x3d6f9ac9	0.058497224
67	0x3e486bcf	0.19572376
68	0x3ebd5706	0.36980456
69	0xbdd6f9d9	-0.104968734
70	0xbe096a65	-0.13419493
71	0x3e3fbabb	0.18723576
72	0x3dffeb7e	0.124960884
73	0xbcb7f77b	-0.022456875
74	0x3e588542	0.21144584
75	0x3da9f154	0.08297983
76	0x3d7e59ac	0.062097237
77	0xbe8a5616	-0.27018803
78	0x3e9d28b2	0.3069511
79	0xbe6eb76c	-0.23312157
80	0x3e14125b	0.14460127
81	0x3e872641	0.26396373
82	0xbea8ecfd	-0.32993308
83	0xbe520fe6	-0.20513877
84	0x3de9d36e	0.1141728
85	0x3e522e31	0.20525433
86	0x3d349d25	0.044095177
87	0x3cc1d30f	0.02366021
88	0xbe6eee27	-0.23333035
89	0x3eb71150	0.35755396
90	0xb9f63e00	-0.0004696697
91	0xbd62057f	-0.055181023
92	0x3d4b3293	0.04960878
93	0xbd853c55	-0.06505648
94	0xbe3700bd	-0.17871375
95	0xbde08d15	-0.10964409
96	0x3dfdad0c	0.12386522
97	0x3dc85acc	0.09782943
98	0xbe045c65	-0.1292587
99	0xbe0376e8	-0.12838328
100	0xbe7ee21c	-0.24890941
101	0x3ebd5004	0.3697511
102	0xbf15318f	-0.58278745
103	0xbe9aff8c	-0.30273092
104	0x3ea27d21	0.3173609
105	0x3e399c76	0.18126091
106	0xbe5eb684	-0.21749312
107	0x3e08b8e9	0.13351788
108	0x3ea84eba	0.32872564
109	0x3ec72499	0.3889511
110	0x3e4a218d	0.19739361
111	0xbda2ea28	-0.07954818
112	0xbe595c7c	-0.21226686
113	0xbe875b26	-0.26436728
114	0x3d082069	0.033234034
115	0x3e84a0f4	0.25904047
116	0xbe29b418	-0.16572607
117	0x3e7bb27f	0.2457981
118	0xbdb5a502	-0.08869363
119	0x3d1bc5a3	0.038030278
120	0xbe80f150	-0.25184107
121	0x3d1fa2ef	0.038973745
122	0x3d8a6fcb	0.06759604
123	0x3d2821b9	0.041047785
124	0xbdc54dd7	-0.096339874
125	0xbec6f503	-0.38858804
126	0xbd804058	-0.062622726
127	0x3e2061d0	0.15662313
128	0x3da338e0	0.079698324
129	0x3eb998ed	0.36249486
130	0x3e0925b8	0.13393295
131	0xbe6559f6	-0.22397599
132	0xbeb15e84	-0.34642422
133	0xbdabba72	-0.08385171
134	0x3ec1b66f	0.37834498
135	0x3e6e43ab	0.23268001
136	0xbe9904df	-0.2988653
137	0x3d3264af	0.04355305
138	0x3e9dcfe8	0.30822682
139	0x3ebba24e	0.36647266
140	0x3dba7a0b	0.09105309
141	0xbc35b396	-0.01109018
142	0xbeed0a8d	-0.46297112
143	0xbf0cf5f5	-0.550628
144	0xbeb91210	-0.36146593
145	0x3ec9314f	0.39295432
146	0x3ebbb31f	0.36660096

gru_dp_bw.weight_hh_l0 f4 [21, 7]
0	0xbd18ecd9	-0.03733525
1	0xbf039e81	-0.5141373
2	0xbea3adc8	-0.31968522
3	0xbea34a0b	-0.31892428
4	0x3dab0e8f	0.08352386
5	0x3d5c1f40	0.05374074
6	0x3cf913c2	0.03040493
7	0x3e860c2d	0.26181164
8	0xbec456b4	-0.383474
9	0xbe52ad29	-0.20573868
10	0xbe815362	-0.2525893
11	0x3d5614a4	0.05226578
12	0x3ce0f201	0.027459146
13	0x3ddf19c8	0.10893589
14	0x3e09a030	0.13440013
15	0xbe1f1588	-0.15535557
16	0x3cadd475	0.021219471
17	0x3e0c9588	0.13728917
18	0x3dab16f7	0.083539896
19	0x3de93a6b	0.113880955
20	0x3f0abe7b	0.541969
21	0x3f05b600	0.52230835
22	0xbe5657a0	-0.20931864
23	0xbf029f57	-0.51024383
24	0x3e13903f	0.14410494
25	0xbde61b63	-0.11235692
26	0xbdc434be	-0.09580372
27	0x3ca56d4d	0.02019372
28	0x3e289375	0.164625
29	0xbde2f981	-0.11082745
30	0xbe65e100	-0.22449112
31	0x3ef61694	0.480641
32	0xbef8ab41	-0.48568156
33	0xbebbb4b4	-0.36661303
34	0x3e3969b1	0.18106724
35	0x3f07658b	0.5288932
36	0xbc2a3397	-0.010388277
37	0x3dd86724	0.105665475
38	0xbccfa600	-0.02534771
39	0x3e493d6f	0.19652341
40	0x3e72d00b	0.23712175
41	0x3eb43d7b	0.35203156
42	0x3f1c9c4c	0.6117599
43	0xbf0055dc	-0.5013101
44	0x3d9c76f9	0.0763988
45	0xbf0d8321	-0.5527821
46	0xbe24a744	-0.16079432
47	0x3e11d05c	0.14239639
48	0x3e998ba8	0.29989362
49	0x3ec2b3d9	0.38027838
50	0x3d99e0a0	0.07513547
51	0xbe1015e8	-0.14070857
52	0xbf07cfe6	-0.530516
53	0xbdfd22cf	-0.12360155
54	0x3ef0c03d	0.47021666
55	0x3f13568b	0.5755393
56	0x3f14af73	0.58080214
57	0xbde9c32a	-0.11414178
58	0xbeb2dba8	-0.3493321
59	0xbea64276	-0.3247258
60	0xbf1f3cbe	-0.6220206
61	0xbe931d2d	-0.28733197
62	0x3e846186	0.25855654
63	0x3e869123	0.26282606
64	0x3e2a4a93	0.1663001
65	0x3e97fc4a	0.2968467
66	0x3e0a5031	0.13507153
67	0xbc5fd096	-0.013660571
68	0x3ecc9f8d	0.39965478
69	0x3e048ac0	0.12943554
70	0xbe36fd79	-0.1787013
71	0x3def5ba7	0.11687403
72	0x3dda2946	0.106524035
73	0xbeb1ceb7	-0.34728023
74	0xbf11f943	-0.5702097
75	0x3e812f88	0.25231576
76	0x3da79b2c	0.081838936
77	0x3e60dd8f	0.21959518
78	0xbd81dffc	-0.0634155
79	0xbf0eb4c9	-0.55744606
80	0xbe976801	-0.29571536
81	0x3ce6f955	0.028195063
82	0xbd77ef74	-0.060531095
83	0xbe75b3df	-0.23994397
84	0x3e2f3160	0.17108679
85	0xbeb6690a	-0.35627013
86	0xbeabfa64	-0.3358947
87	0xbdd1b1cc	-0.1023899
88	0xbebff868	-0.37494206
89	0xbefbeec7	-0.4920561
90	0xbe88466c	-0.26616228
91	0xbd7a0128	-0.06103626
92	0xbe4981c6	-0.19678411
93	0xbeecb582	-0.4623223
94	0xbea30886	-0.3184244
95	0xbd2c1ce4	-0.04201974
96	0x3ecf80c5	0.4052793
97	0xbd8183c5	-0.06323961
98	0x3e31a114	0.17346603
99	0xbea494d1	-0.32144788
100	0xbd16b7b9	-0.036796305
101	0xbf11276d	-0.56700784
102	0xbd9adf08	-0.07562071
103	0x3ecc324d	0.39882126
104	0x3d1f1982	0.038842686
105	0xbef4dac1	-0.47823146
106	0x3f003f6a	0.5009676
107	0xbe509b87	-0.20371829
108	0x3ee5fb35	0.44918218
109	0xbdb5860d	-0.08863459
110	0x3b609d25	0.0034273353
111	0xbef62a83	-0.4807931
112	0xbd538800	-0.05164337
113	0x3f0e635f	0.5562038
114	0x3ecadd9e	0.39622205
115	0x3ee4e36c	0.4470476
116	0x3e15cdc1	0.1462927
117	0xbf034951	-0.51283747
118	0xbef118ab	-0.47089133
119	0xbea2491e	-0.3169641
120	0x3f20887b	0.6270825
121	0x3e23363a	0.15938655
122	0x3f1d3c9b	0.614206
123	0xbe6211ae	-0.22077057
124	0xbef902f9	-0.4863508
125	0xbdb318d1	-0.08744968
126	0xbd1ba0c9	-0.037995134
127	0x3ee0e22b	0.43922552
128	0x3ec0b5cd	0.37638703
129	0x3ee7eb69	0.4529679
130	0x3d9e6114	0.0773336
131	0x3c915dbf	0.017744897
132	0xbb246b53	-0.0025088384
133	0x3f06d243	0.52664584
134	0x3d105d00	0.03524494
135	0xbec93de9	-0.39305046
136	0xbec753bc	-0.38931072
137	0xbdc28b78	-0.09499258
138	0x3d9931e1	0.07480217
139	0x3d85df15	0.0653669
140	0x3e6c516f	0.2307794
141	0xbf2df2fd	-0.67948896
142	0xbe9fe85e	-0.3123197
143	0xbdc822e3	-0.09772279
144	0xbdfaf8b6	-0.12254469
145	0xbc53ee00	-0.012935162
146	0xbd16e03e	-0.036834948

gru_dp_bw.bias_ih_l0 f4 [21]
0	0x3e87e80e	0.2654423
1	0x3e9ccadb	0.30623516
2	0x3e73ac09	0.23796095
3	0x3ebb069b	0.36528477
4	0x3eb68439	0.35647753
5	0xbe6fc68d	-0.23415585
6	0x3e944673	0.28959998
7	0x3dc28f5b	0.09499999
8	0x3e9da5d7	0.30790588
9	0x3e0e5115	0.13898118
10	0x3daf735d	0.08566926
11	0x3a4eda6a	0.00078908226
12	0x3ef985e4	0.48734963
13	0x3ec89598	0.3917663
14	0x3e01b847	0.12667952
15	0x3d51222a	0.051057972
16	0x3e43160e	0.19051382
17	0xbb9caab1	-0.00478109
18	0xbe66eac4	-0.22550493
19	0xbd64c822	-0.055854924
20	0x3decf369	0.11569864

gru_dp_bw.bias_hh_l0 f4 [21]
0	0x3e3a1a2f	0.18174051
1	0x3e89858f	0.2685971
2	0x3ef0a071	0.46997407
3	0x3e91f878	0.2850988
4	0x3e5ae61c	0.21376842
5	0xbe2c8f97	-0.1685165
6	0x3cb4e578	0.022082075
7	0x3f10232a	0.56303656
8	0x3e0e5863	0.13900904
9	0xbd4bc8cf	-0.049752053
10	0x3ef38984	0.47565854
11	0x3d983f39	0.07433934
12	0x3f025c88	0.5092244
13	0x3f023663	0.5086424
14	0x3e6f926e	0.23395702
15	0xbe152d16	-0.1456798
16	0xbce9a36f	-0.028520314
17	0x3e934329	0.28762177
18	0x3ddce958	0.10786694
19	0x3ebfe926	0.37482566
20	0xbd24741e	-0.0401498

gru_cp_bw.weight_ih_l0 f4 [18, 6]
0	0xbe00efc0	-0.12591457
1	0xbe264b52	-0.1623967
2	0x3d248a4b	0.04017095
3	0x3da684ed	0.08130822
4	0x3e9149bd	0.2837657
5	0xbd1cbfb3	-0.038268756
6	0x3e79b571	0.2438562
7	0xbd040486	-0.032230876
8	0x3eb667fc	0.3562621
9	0xbe80f439	-0.25186327
10	0x3de697f2	0.1125945
11	0xbe36f919	-0.1786846
12	0x3e7e1970	0.24814391
13	0x3eb13cf4	0.34616816
14	0x3f1b7278	0.6072154
15	0x3eb69101	0.35657504
16	0x3e92dae0	0.28682613
17	0xbebd2d1f	-0.36948487
18	0x3de81785	0.11332611
19	0xbdfec739	-0.124403425
20	0xbeed0669	-0.46293953
21	0xbe978d3e	-0.29599947
22	0x3d986f5b	0.07443114
23	0xbdfd0611	-0.12354673
24	0xbdf47914	-0.11937156
25	0xbdfc2b39	-0.123129316
26	0xbf0d7959	-0.55263287
27	0xbebb856f	-0.3662524
28	0x3e3648ed	0.17801256
29	0xbd872513	-0.06598868
30	0x3ee6c827	0.4507458
31	0xbd1c5cc4	-0.038174406
32	0x3e4c279c	0.19936985
33	0x3db6477f	0.089003555
34	0x3f03be9a	0.5146271
35	0xbe8d881e	-0.27642912
36	0xbe112242	-0.14173225
37	0x3e8e31d9	0.27772406
38	0xbda4800e	-0.08032237
39	0xbeb12647	-0.34599516
40	0x3ea4d4c7	0.32193586
41	0x3e4ea0ef	0.20178579
42	0x3d9cd53a	0.07657857
43	0xbe2e65a4	-0.1703096
44	0xbd3ee862	-0.046608336
45	0xbdb23b97	-0.08702772
46	0x3ea99e1a	0.33128434
47	0x3e612742	0.21987632
48	0xbebdfd73	-0.3710743
49	0xbe5e7874	-0.21725637
50	0x3e1b8567	0.15187608
51	0xbdaadf45	-0.083433665
52	0x3e399d87	0.18126498
53	0xbb902b55	-0.004399697
54	0xbed19a2c	-0.40937936
55	0xbdac98ee	-0.084276065
56	0xbf04856d	-0.5176609
57	0x3d477482	0.048695095
58	0xbeea1720	-0.45720768
59	0x3e860ed2	0.26183182
60	0x3ede1ee1	0.43382934
61	0x3ca3b8aa	0.019985516
62	0x3e8e81a9	0.27833298
63	0x3e02f50e	0.12788793
64	0x3e3d3ae2	0.18479493
65	0xbe861938	-0.26191115
66	0xbef7ecd5	-0.48422876
67	0xbe24f98c	-0.1611082
68	0xbea4baac	-0.3217367
69	0x3dad9d0f	0.08477222
70	0x3ebcf67f	0.36906812
71	0x3e197e73	0.14989643
72	0x3e8af29b	0.27138218
73	0x3e2f026b	0.17090766
74	0xbde51b2e	-0.11186825
75	0xbdd9a95e	-0.10628007
76	0x3ea8b101	0.32947543
77	0xbe541597	-0.20711361
78	0x3e68306b	0.2267472
79	0x3e6472e8	0.22309458
80	0xbd420ba4	-0.047374383
81	0xbe9205a2	-0.28519922
82	0x3edcd333	0.43129882
83	0x3dede646	0.11616187
84	0xbecb2a0e	-0.39680523
85	0xbe92671a	-0.28594285
86	0x3ecd53a8	0.40102887
87	0xbdb239ed	-0.08702455
88	0x3e0123cd	0.12611313
89	0x3f1776bd	0.59165555
90	0xbe80de2a	-0.25169498
91	0xbe6e1a4f	-0.23252223
92	0xbd8ea1b3	-0.069644354
93	0xbc89bdfc	-0.016814224
94	0x3dc6b9a0	0.09703374
95	0xbd96ccb9	-0.073632665
96	0x3ecf12b7	0.40443966
97	0x3ed26b0a	0.4109729
98	0xbe3ba205	-0.18323524
99	0xbec44df8	-0.38340735
100	0x3e1cc95c	0.15311188
101	0x3e9dc9d6	0.3081805
102	0x3e1edb6d	0.15513392
103	0x3eaf1939	0.3419893
104	0xbd904a51	-0.07045425
105	0x3cdc2f87	0.026878132
106	0x3ef24988	0.47321725
107	0x3de60fa0	0.11233449

gru_cp_bw.weight_hh_l0 f4 [18, 6]
0	0xbea1896c	-0.31550157
1	0x3ec3859e	0.3818788
2	0x3e5813d1	0.2110131
3	0xbe248941	-0.16067983
4	0xbe9920c1	-0.29907802
5	0x3eb95410	0.36196947
6	0xbec1fbcf	-0.37887427
7	0xbe701f48	-0.23449433
8	0x3d128514	0.035771444
9	0xbecc1fe2	-0.39868075
10	0xbe655d4d	-0.22398873
11	0x3e992633	0.29911956
12	0xbea8dd87	-0.32981512
13	0x3e94759c	0.2899598
14	0xbd521b55	-0.051295597
15	0x3e85037c	0.2597922
16	0xbe4e3790	-0.20138383
17	0xbdbcf593	-0.09226527
18	0xbe952b55	-0.29134622
19	0x3e4969a7	0.1966921
20	0xbee51020	-0.44738865
21	0xbd19fae0	-0.03759277
22	0x3e135c2e	0.14390633
23	0x3e04d0dd	0.129703
24	0x3e863dbe	0.2621898
25	0x3ee2a549	0.44266728
26	0xbe2e3cf7	-0.17015444
27	0xbed8461f	-0.42240998
28	0x3ec1cd28	0.37851834
29	0xbe82eb65	-0.25570217
30	0x3ef95259	0.4869564
31	0x3ed6b155	0.4193217
32	0xbce6acc1	-0.028158547
33	0x3da2a375	0.07941333
34	0x3e65884e	0.22415277
35	0x3eea116f	0.45716426
36	0xbeaa2db1	-0.33237985
37	0x3df70f6b	0.120634876
38	0x3efcb371	0.49355653
39	0xbd0feb8d	-0.035136748
40	0xbe8b2fd4	-0.27184927
41	0x3c4326d2	0.011911111
42	0x3d84865b	0.06470939
43	0xbf071716	-0.527696
44	0xbe05f2b8	-0.13080871
45	0xbe63caf5	-0.2224539
46	0xbd758f77	-0.05995127
47	0x3ba92e80	0.005163014
48	0xbdaa26b7	-0.083081655
49	0xbd908863	-0.07057264
50	0x3e7396a2	0.2378793
51	0xbe4c9bca	-0.19981304
52	0x3e85f6dd	0.26164904
53	0xbe3bcf8d	-0.18340893
54	0x3e1e86bd	0.15481086
55	0xbed612e6	-0.41811293
56	0x3eb22b58	0.34798694
57	0x3e6c6ae5	0.23087652
58	0x3e92598d	0.28583947
59	0xbdba110f	-0.09085285
60	0x3f0259d9	0.50918347
61	0xbd7614ed	-0.06007855
62	0x3c60349f	0.013684421
63	0xbf0e0cb5	-0.5548814
64	0xbe636f17	-0.22210346
65	0x3f03537e	0.51299274
66	0xbe8500eb	-0.25977263
67	0x3c14639d	0.009056953
68	0x3ecce71f	0.4002008
69	0x3dbfeaa7	0.09370928
70	0xbebd4ffb	-0.36975083
71	0xbdf00dc3	-0.11721375
72	0xbd7c5684	-0.061605945
73	0x3f2f704f	0.68530744
74	0xbef42b26	-0.4768917
75	0xbe83612b	-0.2566007
76	0x3ed579d2	0.41694504
77	0x3e442f47	0.1915866
78	0x3e896953	0.26838169
79	0x3f0f91db	0.5608193
80	0xbf1276d4	-0.5721257
81	0x3d3aa43c	0.045566782
82	0x3e116b51	0.14201094
83	0x3dd65cd1	0.10466922
84	0xbf149ac3	-0.5804865
85	0xbf0cbbb2	-0.549739
86	0x3eeff97a	0.46870023
87	0x3e36efa8	0.17864859
88	0xbed36463	-0.41287526
89	0xbef020eb	-0.46900114
90	0xbefc56d4	-0.49284995
91	0x3ea0a584	0.31376278
92	0xbd76bf18	-0.060240835
93	0x3db23558	0.08701581
94	0xbb1c2f85	-0.0023832035
95	0xbedf684c	-0.4363426
96	0xbec017fb	-0.37518296
97	0xbe87ac1e	-0.26498502
98	0xbec59d2d	-0.38596478
99	0x3e35cfe1	0.17755081
100	0x3defe56f	0.11713683
101	0xbe175836	-0.14779744
102	0x3e88c19c	0.26710212
103	0x3e479ee3	0.19494204
104	0x3d346ac2	0.044047125
105	0xbe6d0a03	-0.2314835
106	0x3ea4c94b	0.32184824
107	0x3e06781c	0.13131756

gru_cp_bw.bias_ih_l0 f4 [18]
0	0x3b594b47	0.003315644
1	0x3ea71a0e	0.32637066
2	0x3ea790fd	0.32727805
3	0xbe4a4566	-0.19753036
4	0xbe09284e	-0.13394281
5	0xbe6a9993	-0.22910146
6	0xbde322dc	-0.11090633
7	0xbe0cd0ee	-0.13751575
8	0xbe1302f5	-0.14356597
9	0x3cb88006	0.022521984
10	0x3d263b9e	0.0405842
11	0xbaa4d964	-0.0012576994
12	0x3db7c932	0.08973922
13	0x3e900f0d	0.28136483
14	0x3e912891	0.28351262
15	0xbd0512a2	-0.032488473
16	0x3e2abfea	0.16674772
17	0xbea0f59c	-0.31437385

gru_cp_bw.bias_hh_l0 f4 [18]
0	0x3deacc9a	0.11464806
1	0xbc0930cc	-0.0083734505
2	0xbe1cc8b1	-0.15310933
3	0x3e8c02f8	0.27346015
4	0xbe7a3650	-0.24434781
5	0x3e8ae1f2	0.27125508
6	0xbe198f20	-0.14996004
7	0xbe3e33bb	-0.18574421
8	0x3eb83fcd	0.35986176
9	0x3eb0fdf4	0.3456875
10	0x3bd6bef2	0.006553524
11	0xbd9e511c	-0.07730314
12	0x3de62781	0.112380035
13	0xbe66ab86	-0.22526368
14	0x3e45051d	0.19240232
15	0x3debb8dc	0.115098685
16	0x3e336219	0.1751789
17	0x3edcb047	0.4310324

attention_dp.context f4 [14]
0	0xbf0c27ba	-0.5474812
1	0x3ec50053	0.3847681
2	0xbea22097	-0.3166549
3	0x3e4400d4	0.19140941
4	0x3fa69106	1.3013008
5	0xbeb0e5b6	-0.34550256
6	0x3fe1a9cd	1.7629944
7	0x3e7cf767	0.24703752
8	0x3f909524	1.1295514
9	0xbf42a7c5	-0.76037246
10	0x3f0aa315	0.54155093
11	0x4000d61f	2.013069
12	0xbf0daea0	-0.5534458
13	0x3fda1b23	1.7039531

attention_dp.linear_hidden.weight f4 [14, 14]
0	0xbcf87d3f	-0.03033316
1	0xbd9e60f5	-0.07733337
2	0x3ea5e9e3	0.32405004
3	0xbe8f96ce	-0.28044742
4	0x3e360581	0.17775537
5	0xbe0f7c8e	-0.14012358
6	0xbe2797d8	-0.16366518
7	0xbd1b894b	-0.03797273
8	0xbd80b8d6	-0.06285255
9	0xbea298c5	-0.3175718
10	0xbe0fa74c	-0.14028662
11	0xbe2aa137	-0.16663061
12	0x3d5d74a5	0.05406632
13	0x3eeb32ad	0.459371
14	0x3e2bfc4b	0.16795461
15	0xbd1c7880	-0.038200855
16	0x3e375794	0.17904502
17	0x3d396fc9	0.045272622
18	0xbcfc9869	-0.030834394
19	0x3e5ffbed	0.21873446
20	0x3c8f7085	0.017509708
21	0xbe93b30f	-0.28847548
22	0x3eea50b1	0.45764688
23	0x3e5bab06	0.21451959
24	0x3e36d023	0.17852835
25	0x3e83c366	0.25735015
26	0xbe830134	-0.25586855
27	0x3c3f8845	0.011690204
28	0x3e2c42c8	0.1682235
29	0x3e10e4fa	0.14149848
30	0x3d94b14a	0.07260378
31	0xbe9c490f	-0.3052449
32	0x3e87239b	0.26394352
33	0x3db28d1e	0.08718322
34	0xbd944cfa	-0.072412446
35	0xbd0fec31	-0.03513736
36	0xbe58cb16	-0.21171221
37	0xbdff23b0	-0.12457979
38	0xbecf5cff	-0.40500638
39	0xbe97eaf0	-0.2967143
40	0x3d2bfe0f	0.041990336
41	0x3eb4d4d1	0.35318616
42	0xbdddc731	-0.10829008
43	0xbe15bcbe	-0.1462278
44	0xbdc6b32c	-0.09702143
45	0x3e012b86	0.12614259
46	0xbe53259e	-0.20619819
47	0x3e13b39a	0.14423981
48	0xbe0e6a59	-0.13907756
49	0xbe1b0954	-0.15140277
50	0x3ecc0727	0.39849207
51	0x3e93a612	0.2883764
52	0xbc56fb34	-0.013121415
53	0x3e8bd6c5	0.27312294
54	0xbd1a6511	-0.03769404
55	0xbe7eaede	-0.24871394
56	0xbe7cd5df	-0.2469096
57	0xbcef78fc	-0.029232495
58	0xbead4576	-0.33842057
59	0x3e2aeb5c	0.16691345
60	0xbbdb5062	-0.006692932
61	0x3db883ab	0.09009489
62	0xbe18383c	-0.14865202
63	0xbe3ae335	-0.18250735
64	0x3d69e9eb	0.057107847
65	0x3d0ca76c	0.034339353
66	0x3cfc5581	0.03080249
67	0x3e9cd7ea	0.3063348
68	0xbe7dbf74	-0.24780065
69	0xbbde83d5	-0.006790618
70	0xbe4a2c92	-0.19743565
71	0xbce527d8	-0.0279731
72	0xbdcb9448	-0.09940392
73	0xbef4dfc8	-0.47826982
74	0xbd00fbb2	-0.031490035
75	0xbeb2d37c	-0.34926975
76	0x3e94f2c0	0.29091454
77	0x3db9d9b2	0.09074725
78	0xbe88eace	-0.26741642
79	0xbea15612	-0.3151098
80	0xbec84a66	-0.39119262
81	0x3d222485	0.03958561
82	0x3e1f76dc	0.15572685
83	0x3eece3e0	0.46267605
84	0xbc619b4b	-0.013769935
85	0x3e4af0ef	0.19818471
86	0xbeba4111	-0.36377767
87	0x3dfb2342	0.12262584
88	0x3e338c22	0.17533925
89	0x3da14da4	0.07876137
90	0xbe4341a0	-0.19068003
91	0x3d7c9afa	0.061671235
92	0x3d9431be	0.0723605
93	0xbc9c820e	-0.019104984
94	0x3def7c91	0.11693681
95	0x3d877582	0.0661421
96	0xbe471009	-0.1943971
97	0x3c807d14	0.015684642
98	0xbd7460d6	-0.059662662
99	0x3e9b2bfb	0.30306992
100	0xbebaebb7	-0.3650796
101	0x3d6fd549	0.058553014
102	0xbe25b9d4	-0.16184169
103	0x3e5de46c	0.21669167
104	0x3cc28bf2	0.023748372
105	0x3d1f53a1	0.038898114
106	0x3d64ba55	0.055841763
107	0x3e31facc	0.17380828
108	0x3e23490e	0.15945837
109	0xbe047e24	-0.12938744
110	0x3e052cfc	0.13005441
111	0xbe8252ba	-0.2545374
112	0x3e70dc9b	0.23521654
113	0xbcab6481	-0.020921947
114	0x3c8b77b4	0.017024852
115	0x3ddc14c1	0.10746146
116	0xbcc82d08	-0.024435535
117	0xbde71278	-0.112828195
118	0xbea90b21	-0.33016303
119	0xbe76902a	-0.24078432
120	0x3e974583	0.2954522
121	0x3ce42ab3	0.027852392
122	0x3ed85c77	0.42258045
123	0x3eb99ae2	0.3625098
124	0x3dc13823	0.09434535
125	0xbcbfb482	-0.023401503
126	0xbd0278bf	-0.031853434
127	0xbe112e8d	-0.14177914
128	0x3e04db5a	0.12974301
129	0x3e810bd4	0.25204337
130	0xbe77e8d5	-0.24209912
131	0x3dbd4d28	0.09243232
132	0xbd9f933d	-0.07791755
133	0x3e50df3a	0.20397654
134	0xbeaca28d	-0.33717766
135	0xbdb59c55	-0.088677086
136	0xbec56e71	-0.38560823
137	0xbde84baa	-0.11342557
138	0xbda9038f	-0.08252632
139	0xbd9f326f	-0.07773291
140	0x3d5e0dcf	0.054212388
141	0xbdeeeb43	-0.11665966
142	0xbe27995c	-0.16367096
143	0x3e7f7a8c	0.24949092
144	0xbe95d2cb	-0.29262385
145	0x3e406b37	0.18790899
146	0xbd39b7a0	-0.045341134
147	0xbc8feacb	-0.017568013
148	0x3e94307f	0.2894325
149	0x3da90b9a	0.08254166
150	0x3e0599d0	0.13046956
151	0x3ea065a8	0.31327558
152	0x3dd75ea1	0.10516096
153	0xbe30cbf3	-0.172653
154	0x3e3bbd12	0.18333843
155	0xbe7af445	-0.24507244
156	0x3dc281f9	0.094974466
157	0x3e95519d	0.29163828
158	0xbde4d265	-0.11172942
159	0x3e55b90c	0.20871371
160	0xbe6d8499	-0.23195113
161	0xbe5d41ca	-0.21607128
162	0x3e9f598c	0.31123006
163	0x3ad5d092	0.0016312769
164	0x3e8429f0	0.25813246
165	0x3ed18160	0.40919018
166	0xbcc232ca	-0.023705859
167	0xbbc802f3	-0.006103867
168	0xbe827ad3	-0.25484332
169	0x3e814f6a	0.252559
170	0x3defe483	0.11713507
171	0xbe8a2274	-0.2697941
172	0x3ec06b73	0.37581977
173	0xbe177b9b	-0.14793245
174	0x3e9b48bd	0.30328932
175	0x3e40f270	0.18842483
176	0xbef734dd	-0.4828252
177	0xbe145607	-0.14485942
178	0xbde082c9	-0.10962445
179	0xbddf8670	-0.10914314
180	0x3e63eb13	0.22257642
181	0x3e494c56	0.19658026
182	0x3be61402	0.007021428
183	0x3d949f56	0.072569534
184	0x3e3e3f61	0.18578865
185	0xbde76f4d	-0.11300526
186	0xbe8f5187	-0.27991888
187	0xbcc7e449	-0.024400847
188	0x3dd59635	0.1042904
189	0xbdc4d976	-0.0961179
190	0x3ed72c27	0.42025873
191	0x3e85c614	0.26127684
192	0x3cdab487	0.02669741
193	0x3e64f9ab	0.22360866
194	0x3e39a8b3	0.1813076
195	0xbed045ef	-0.40678355

attention_dp.linear_hidden.bias f4 [14]
0	0x3e2b9829	0.16757263
1	0xbe856f90	-0.26061678
2	0x3e69b217	0.22821842
3	0xbea77e57	-0.32713577
4	0xbdd4f403	-0.10398104
5	0x3edb004d	0.42773667
6	0x3e773292	0.24140385
7	0xbe5211d7	-0.20514618
8	0xbe7b7d27	-0.2455946
9	0xbee6d712	-0.4508596
10	0xbe8ced02	-0.27524573
11	0xbec9daa9	-0.39424637
12	0x3f013ffe	0.5048827
13	0xbe695170	-0.22784972

attention_cp.context f4 [12]
0	0xbe8fd022	-0.2808848
1	0x3eb6523a	0.3560961
2	0xbfa0a45f	-1.2550162
3	0x3f33655b	0.7007653
4	0xbf118d6e	-0.5685643
5	0xbf50e94c	-0.8160598
6	0xbfb666a5	-1.4250075
7	0xc00767d4	-2.1157122
8	0xbf8a19fb	-1.0789179
9	0xbbec61d6	-0.0072138114
10	0x3e8ec44b	0.27884135
11	0xbc817d0e	-0.015806701
