base_models/ode_birnn/final_model.pt (torch, 66309 bytes, 33 tensors)

embed_dp.weight f4 [1292, 7]
0.0 0.0 0.0 0.0 0.0 0.0 0.0 0.17275153
-1.1095027 1.3147719 0.9591567 1.0974102 0.366136 0.40242288 -1.6607682 0.8153964
-0.523507 0.22731486 0.60307395 -0.18812467 -0.19189015 2.3833673 0.5126291 0.27665445
-0.5881828 0.7255964 1.0699565 0.06204701 -0.7297953 1.1637172 1.1934977 -0.7831757
0.49843514 -0.54311025 -0.5794937 -0.32450703 0.57389015 1.2770376 1.1897347 1.3783321
0.6657062 0.5456581 1.8504804 0.10410091 -1.5534447 -0.7332207 -1.804362 -0.32784674
-0.91017795 -1.2880708 -0.36275566 -1.2947127 1.635602 0.12623379 0.17277138 1.3085829
-0.34546524 0.45164618 1.2225027 0.066205636 -0.32984483 0.18535589 1.2643466 0.45254025
0.19213119 -0.5807738 -1.4977778 0.39765885 -0.0632494 0.75760627 0.4830072 -2.2674618
-0.83482605 0.75886124 -0.37799793 -0.89827025 -0.32971457 1.3108659 -0.025691766 -0.33271816
-0.8375652 -0.9407782 -0.73713994 -0.98424494 0.14045219 -0.6272747 1.2140367 0.79434633
1.1196797 0.036752395 -2.8554301 0.9661779 0.32524326 2.2788796 0.0025386894 0.9668258
-0.082594715 -0.16206637 -1.5411339 0.42399377 0.12969078 0.2040479 -1.8825061 0.30927774
0.6542319 0.91350585 -0.7514855 -0.35366887 -1.0131272 -0.7291508 0.7328438 0.8695394
-0.18143772 0.7597584 -0.37377533 -0.5737362 -0.5805916 -0.92669004 -0.1924722 0.064783044
-1.9310477 0.20802532 -0.8619517 1.1634558 -0.018758962 -0.46602044 0.23197387 -1.0301285
-1.1607126 0.7018439 0.80882096 -0.46547264 -0.5145749 -0.6827755 -1.6805247 0.19359843
0.52884656 -0.5788831 0.45813146 -1.1664395 1.7609282 -0.64519197 1.2742074 -0.91553265
1.3844569 0.7569368 -0.40360865 -1.0185537 -0.6622677 1.2383325 0.52061677 -2.4285417
-0.88329107 -0.8967452 -1.6423575 -1.9311465 -1.1611588 -0.4474291 0.8691549 0.23393214
-0.28153944 0.9221741 0.5085832 -0.50685686 0.66262263 -0.12653051 1.145707 -0.747842
-0.63258195 1.5022556 1.3967993 0.8116199 1.3291878 -0.8313758 -1.4554094 0.0820571
-0.025272043 0.20260896 1.4888691 1.3033761 0.7737001 1.4358298 -0.80966425 1.377935
0.09032262 -0.33710563 -0.85081464 -0.81866175 0.75346243 0.16307864 -0.12613672 0.9022517
0.6586278 -1.9231273 0.49030226 -0.5155363 -0.57089806 0.5146959 -2.3714595 -0.51195985
-0.20875807 0.9186231 0.04688593 -0.5147639 -1.4085621 -0.7496403 -1.3004004 -1.0962328
-0.4311614 0.9838093 -0.45704263 -0.3419273 0.3436127 -0.20031746 0.2542928 0.16250315
-0.8027894 0.25604063 0.24075483 -0.43840006 -0.064379334 -0.014071346 -2.0584674 -1.0587916
-1.1841497 0.28027925 -0.047360655 0.5606503 0.62581307 0.71904093 -0.38011667 0.6434919
0.807312 0.49259493 0.4468445 0.9429512 0.03970422 0.47839516 0.6449904 0.86013895
1.0164406 -0.4460231 -1.1614139 1.724504 0.87142926 -0.08272047 -0.48730558 0.2211208
-3.1164682 -1.8749709 0.34023607 0.55301136 0.4574896 -1.2193395 0.18897411 0.2935633
00000000: 0000 0000 0000 0000 0000 0000 0000 0000
00000010: 0000 0000 0000 0000 0000 0000 c7e5 303e
00000020: 2f04 8ebf 724a a83f 4b8b 753f f077 8c3f
00000030: 2e76 bb3e 5f0a ce3e 0d94 d4bf d2bd 503f
00000040: 8e04 06bf 3ac5 683e 0e63 1a3f c1a3 40be
00000050: da7e 44be 1789 1840 a93b 033f a7a5 8d3e
00000060: 2693 16bf b0c0 393f 56f4 883f 0125 7e3d
00000070: ddd3 3abf aff4 943f 88c4 983f 347e 48bf
00000080: e432 ff3e 4609 0bbf b359 14bf c925 a6be
00000090: 77ea 123f f875 a33f 3a49 983f 306d b03f
000000a0: b96b 2a3f 40b0 0b3f 8bdc ec3f dc32 d53d
000000b0: 47d7 c6bf 5ab4 3bbf 56f5 e6bf 87db a7be
000000c0: 6c01 69bf 81df a4bf 1cbb b9be 25b9 a5bf
000000d0: 685b d13f 6e43 013e fbea 303e a57f a73f
000000e0: d2e0 b0be 2b3e e73e f87a 9c3f d296 873d
000000f0: 6ce1 a8be efcd 3d3e 1cd6 a13f 5bb3 e73e
00000100: 0abe 443e 97ad 14bf 2fb7 bfbf f199 cb3e
00000110: e788 81bd 7cf2 413f b84c f73e 181e 11c0
00000120: 29b7 55bf bb44 423f f288 c1be 0af5 65bf
00000130: 59d0 a8be 74ca a73f 8a77 d2bc 095a aabe
00000140: ac6a 56bf d7d6 70bf 34b5 3cbf 7af7 7bbf
00000150: b3d2 0f3e 1395 20bf 8e65 9b3f 485a 4b3f
00000160: aa51 8f3f ae89 163d 5ebf 36c0 6f57 773f
00000170: 4986 a63e 2ad9 1140 2460 263b e581 773f
00000180: 6b27 a9bd baf4 25be e043 c5bf b615 d93e
00000190: a9cd 043e eff1 503e f6f5 f0bf a759 9e3e
000001a0: be7b 273f 85db 693f 5b61 40bf 1614 b5be
000001b0: 27ae 81bf a0a9 3abf a79b 3b3f 229a 5e3f
000001c0: cfca 39be 877f 423f 7b5f bfbe 60e0 12bf
000001d0: a7a1 14bf 8f3b 6dbf 6f17 45be f9ac 843d
000001e0: 922c f7bf 9704 553e dea8 5cbf 1fec 943f
000001f0: 65ac 99bc 3b9a eebe 8f8a 6d3e 40db 83bf
00000200: 3b92 94bf 0bac 333f e40e 4f3f 6e52 eebe
00000210: 2ebb 03bf 60ca 2ebf 6f1b d7bf ab3e 463e
00000220: 7d62 073f af31 14bf 3590 ea3e e44d 95bf
00000230: 1866 e13f 4d2b 25bf 3a19 a33f 5960 6abf
00000240: e235 b13f 9cc6 413f cba5 cebe f85f 82bf
00000250: 608a 29bf ae81 9e3f 2447 053f 3a6d 1bc0
00000260: 5d1f 62bf 1891 65bf c538 d2bf cf2f f7bf
00000270: daa0 94bf 6d15 e5be ef80 5e3f e88b 6f3e
00000280: f025 90be 9a13 6c3f 8232 023f 5fc1 01bf
00000290: a3a1 293f 3791 01be 87a6 923f 9372 3fbf
000002a0: e4f0 21bf e949 c03f 52ca b23f 52c6 4f3f
000002b0: d322 aa3f 0bd5 54bf db4a babf 8e0d a83d
000002c0: 5107 cfbc b978 4f3e 4393 be3f 07d5 a63f
000002d0: 3611 463f 45c9 b73f 2846 4fbf 2d60 b03f
000002e0: 11fb b83d 1c99 acbe fdce 59bf d193 51bf
000002f0: eae2 403f 16fe 263e fc29 01be f8f9 663f
00000300: d59b 283f 0929 f6bf e608 fb3e 30fa 03bf
00000310: 6026 12bf 1cc3 033f fec5 17c0 cd0f 03bf
00000320: adc4 55be e22a 6b3f 760b 403d 91c7 03bf
00000330: c34b b4bf 6de8 3fbf 8573 a6bf 5b51 8cbf
00000340: 30c1 dcbe edda 7b3f 7e01 eabe 1811 afbe
00000350: 01ee af3e 0520 4dbe aa32 823e 3a67 263e
00000360: 9b83 4dbf c217 833e 6f88 763e f975 e0be
00000370: 50d9 83bd 818b 66bc eebd 03c0 7c86 87bf
00000380: 3892 97bf c380 8f3e 3ffd 41bd c786 0f3f
00000390: 4935 203f 1113 383f a79e c2be e3bb 243f
000003a0: 00ac 4e3f 6735 fc3e cdc8 e43e 4065 713f
000003b0: e4a0 223d 36f0 f43e 171e 253f 1132 5c3f
000003c0: ba1a 823f 245d e4be 36a9 94bf 8cbc dc3f
000003d0: fd15 5f3f 5a69 a9bd 1e80 f9be 7e6d 623e
000003e0: 3774 47c0 0cff efbf 6c33 ae3e 2792 0d3f
000003f0: 143c ea3e 5113 9cbf 6e82 413e ee4d 963e

embed_cp.weight f4 [620, 6]
0.0 0.0 0.0 0.0 0.0 0.0 0.0028554488 0.047871973
-0.08888562 -0.5520257 0.38564688 -1.5791047 1.5107155 -0.04888314 1.0005808 0.60682845
-0.702661 0.70230854 0.8887215 -0.6728492 -0.14538828 0.38494527 -1.068682 -0.92337626
0.051133573 0.41185752 -1.6563753 0.99681675 -0.26856837 0.86238647 0.23274437 -0.38081792
0.09344329 0.07892105 -2.3217418 1.3772043 -2.6593485 -1.4266794 -1.6103299 -1.1693112
0.19856875 -0.6475267 -0.63300604 0.88162166 0.8999701 0.62199926 -2.9380732 -0.22303633
-0.80708265 0.6310848 0.55102277 -0.944209 1.4679117 0.53716487 -1.749486 -0.004827665
0.61715645 -0.95643306 1.4506333 -0.39407092 -1.9677811 0.26630732 -2.9090924 0.22778372
-0.16141935 0.3537641 -0.5983067 -0.20604207 1.1487951 0.3051858 -1.0607876 -2.3361027
0.09690502 -0.112222195 -1.284042 0.4486084 0.47970688 -0.8236429 0.26454303 -1.7885565
-0.14261073 0.47471628 -0.23835105 0.17547376 0.6009685 -0.30341408 0.47825572 0.06164451
0.92446434 0.8006977 -0.36401772 -1.1780776 -1.8612003 -1.1371478 0.7161088 0.7710938
-1.5766289 2.1191115 -0.3840845 -0.33331725 -0.7189192 -0.3243266 -0.122765854 -0.047081113
-1.0837243 0.26837993 -0.06995457 -0.8906247 -0.28441653 0.75470936 -1.149355 1.8265858
0.40455535 -1.0747955 0.9900686 -0.7234105 1.165468 -0.6629405 0.3016751 -1.8669511
0.810654 0.5459498 -0.74965537 -0.6979334 -0.19867426 -0.36156553 -0.3700581 -0.12860955
-0.48236924 -0.85748595 1.6672405 1.0120491 2.0835896 0.6266183 0.17326511 1.080332
0.52249175 -1.7315742 -2.2104511 1.932895 0.2894295 1.5009468 1.7215346 0.977937
-0.69991475 0.39870068 0.85275835 0.39119717 -1.4043304 -0.32764205 -0.550659 -0.19410756
0.41378075 1.657215 -0.7338654 -0.8085159 0.8865523 -0.782617 0.31704506 -0.38596457
1.0384746 0.90500546 0.41756034 1.79741 -0.85433656 1.9094076 -0.6147166 0.21612357
-0.74074703 -0.8599813 -1.4034154 -0.7918516 -1.5227056 0.22079138 0.18931843 -2.2972107
-0.47921425 -0.31194988 0.29580912 -0.9906445 0.033458795 -0.06759904 1.9222373 -0.48590317
1.2789296 -0.719413 -1.3510259 -0.009736725 0.60083675 -0.20514208 2.0899231 -1.2728281
0.8405813 -0.09787422 0.54518306 -0.9962168 -1.2788022 -0.027378973 -0.3098813 -0.90313244
0.46798933 0.18469952 0.13448854 0.7715129 -1.2125806 -0.84100544 0.67906404 1.9000732
-1.1500847 0.78727853 2.2186725 -0.4721712 -1.5012823 -0.5843618 -1.0852487 -0.9072852
0.7590095 0.11924325 -1.9321897 -0.74703795 -0.2914194 -0.20837383 -0.016779372 -2.3702667
-0.8978374 1.3454684 1.1078619 -0.21849455 -1.2721661 0.6232372 0.4523392 0.71392673
-1.0845014 -0.13112564 -0.047370117 1.0349818 1.5871894 1.3381383 0.075148456 -0.5909172
1.3797668 -0.84712917 0.97946376 -0.7954749 2.3384793 -1.3670907 1.1912274 -0.25240904
-1.6014721 -1.3494184 -1.8716902 1.3649812 -1.5297701 0.39886907 -1.0013821 0.20121826
00000000: 0000 0000 0000 0000 0000 0000 0000 0000
00000010: 0000 0000 0000 0000 7b22 3b3b 6715 443d
00000020: aa09 b6bd 8e51 0dbf 8273 c53e 1a20 cabf
00000030: 205f c13f b039 48bd 0813 803f 1c59 1b3f
00000040: 97e1 33bf 7eca 333f 4183 633f d83f 2cbf
00000050: aae0 14be 8c17 c53e 92ca 88bf 6362 6cbf
00000060: 7071 513d fdde d23e 1b04 d4bf 622f 7f3f
00000070: cb81 89be 5cc5 5c3f 8a54 6e3e 91fa c2be
00000080: 325f bf3d 5ca1 a13d 6b97 14c0 3b48 b03f
00000090: c432 2ac0 6e9d b6bf 4a1f cebf fdab 95bf
000000a0: 9b55 4b3e 4fc4 25bf af0c 22bf f5b1 613f
000000b0: 7164 663f 583b 1f3f 6409 3cc0 a363 64be
000000c0: f89c 4ebf c68e 213f d40f 0d3f aeb7 71bf
000000d0: 88e4 bb3f a383 093f 28ef dfbf 6431 9ebb
000000e0: f7fd 1d3f ccd8 74bf 5aae b93f aac3 c9be
000000f0: 40e0 fbbf 6f59 883e 922e 3ac0 2340 693e
00000100: 1d4b 25be 9120 b53e a12a 19bf b1fc 52be
00000110: b80b 933f 5041 9c3e e3c7 87bf b582 15c0
00000120: 2476 c63d c0d4 e5bd 7d5b a4bf 00b0 e53e
00000130: 249c f53e 43da 52bf 2f72 873e 6bef e4bf
00000140: 8c08 12be 030e f33e 4c12 74be 65af 333e
00000150: 12d9 193f 1759 9bbe efdd f43e f47e 7c3d
00000160: b2a9 6c3f 86fa 4c3f 8860 babe 3fcb 96bf
00000170: d03b eebf 0f8e 91bf e852 373f 6766 453f
00000180: face c9bf 869f 0740 b9a6 c4be 8fa8 aabe
00000190: 170b 38bf 230e a6be aa6c fbbd 20d8 40bd
000001a0: 7ab7 8abf 1869 893e 5744 8fbd fbff 63bf
000001b0: 0b9f 91be a234 413f 111e 93bf 90cd e93f
000001c0: e121 cf3e e692 89bf 2375 7d3f 6e31 39bf
000001d0: 0e2e 953f 78b6 29bf 2975 9a3e 41f8 eebf
000001e0: 0587 4f3f 5ec3 0b3f 6ae9 3fbf c3ab 32bf
000001f0: 4471 4bbe 1e1f b9be 4178 bdbe 39b2 03be
00000200: 1af9 f6be 3384 5bbf 2368 d53f d38a 813f
00000210: 8859 0540 0f6a 203f 696c 313e 5248 8a3f
00000220: 05c2 053f 39a4 ddbf 0878 0dc0 1a69 f73f
00000230: 1a30 943e 061f c03f 3f5b dc3f 145a 7a3f
00000240: 9d2d 33bf 7f22 cc3e 5f4e 5a3f ff4a c83e
00000250: 19c1 b3bf b3c0 a7be fdf7 0cbf 22c4 46be
00000260: 12db d33e 9f1f d43f 9ade 3bbf e6fa 4ebf
00000270: 17f5 623f 9659 48bf bb53 a23e 269d c5be
00000280: bcec 843f 70ae 673f 78ca d53e 8811 e63f
00000290: cdb5 5abf 7867 f43f 115e 1dbf 7f4f 5d3e
000002a0: 99a1 3dbf bc27 5cbf 1ea3 b3bf c9b6 4abf
000002b0: 04e8 c2bf 2317 623e b1dc 413e 8005 13c0
000002c0: 925b f5be e5b7 9fbe 4b74 973e e19a 7dbf
000002d0: 170c 093d 5e71 8abd df0b f63f 4dc8 f8be
000002e0: f7b3 a33f 732b 38bf 6bee acbf c986 1fbc
000002f0: 70d0 193f c410 52be 4dc1 0540 08ec a2bf
00000300: 5630 573f 4772 c8bd 1e91 0b3f 1008 7fbf
00000310: caaf a3bf de49 e0bc c3a8 9ebe b033 67bf
00000320: 4c9c ef3e df21 3d3e 5db7 093e df81 453f
00000330: d735 9bbf 224c 57bf 24d7 2d3f 9935 f33f
00000340: fa35 93bf 168b 493f bbfe 0d40 6cc0 f1be
00000350: 052a c0bf bc98 15bf 6ee9 8abf d843 68bf
00000360: 724e 423f ce35 f43d fe51 f7bf e13d 3fbf
00000370: ec34 95be f35f 55be e574 89bc 73b2 17c0
00000380: acd8 65bf 4f38 ac3f 6bce 8d3f 09bd 5fbe
00000390: 57d6 a2bf 798c 1f3f 0199 e73e e7c3 363f
000003a0: f1d0 8abf cd45 06be 2b07 42bd 497a 843f
000003b0: 0629 cb3f 1e48 ab3f 6fe7 993d 5a46 17bf
000003c0: 339c b03f 75dd 58bf 23be 7a3f 3ea4 4bbf
000003d0: a5a9 1540 d4fc aebf 247a 983f c23b 81be
000003e0: 0afd ccbf beb9 acbf 8b93 efbf b4b7 ae3f
000003f0: 82cf c3bf 9138 cc3e 4a2d 80bf 290c 4e3e

ode_dp.odeblock.odefunc.fc1.weight f4 [7, 7]
0.7449718 -0.28681943 0.12783733 0.30309582 -0.059023883 0.3949416 0.029698504 0.33591515
0.4916561 0.3009395 -0.27060044 0.14395116 -0.29237714 -0.21190162 0.9737743 -0.4242734
-0.15269554 -0.24039732 0.5677586 -0.27233645 0.10209949 0.35930383 0.5421129 0.10141283
0.3892586 -0.085274175 0.08466561 -0.16789946 -0.1325164 -0.057633385 0.18562272 0.14277746
-0.38347867 -0.29616472 -0.07302815 0.76728135 0.54403096 0.21636342 0.44886982 -0.37164143
0.1550651 0.31115386 -0.18065168 0.640141 -0.0037122658 -0.49149403 -0.06034495 -0.3083099
-0.53855187
00000000: 79b6 3e3f ffd9 92be cae7 023e 602f 9b3e
00000010: 07c3 71bd c935 ca3e 474a f33c 12fd ab3e
00000020: 59ba fb3e be14 9a3e 248c 8abe ef67 133e
00000030: 75b2 95be bdfc 58be 4649 793f 5d3a d9be
00000040: 385c 1cbe b72a 76be a158 113f af6f 8bbe
00000050: 8a19 d13d acf6 b73e e9c7 0a3f 88b1 cf3d
00000060: e74c c73e 3aa4 aebd 2a65 ad3d d6ed 2bbe
00000070: 61b2 07be fc10 6cbd e213 3e3e 4134 123e
00000080: 5157 c4be e7a2 97be c88f 95bd 8d6c 443f
00000090: 9d45 0b3f 5f8e 5d3e 44d2 e53e c947 bebe
000000a0: 63c9 1e3e 8f4f 9f3e c1fc 38be 48e0 233f
000000b0: 7c49 73bb 1ba5 fbbe 442c 77bd ccda 9dbe
000000c0: 89de 09bf

ode_dp.odeblock.odefunc.fc1.bias f4 [7]
0.7349924 0.811538 0.65911555 0.4929309 0.14604379 0.5236259 0.587935
00000000: 7628 3c3f f4c0 4f3f ccbb 283f 7061 fc3e
00000010: 818c 153e 590c 063f e882 163f

ode_dp.odeblock.odefunc.fc2.weight f4 [7, 7]
0.10485218 -0.17179553 -0.27975214 0.5796388 0.027858898 0.43905196 0.44334534 -0.22144492
-0.34433672 0.3392267 -0.4130936 0.0674559 0.1693796 -0.40480638 0.5192149 0.7158386
-0.14385392 0.1362609 0.39765245 0.12648076 0.7202702 0.4628575 0.7142125 0.32073352
0.6514412 0.1660793 0.9245199 0.8805223 0.8083808 0.28802735 0.5371288 0.8243357
0.20468436 0.76199114 -0.14774385 0.8227196 0.37056243 0.82966447 0.25260806 0.053712443
0.30760065 -0.12269824 0.67292047 0.25554487 0.37446988 1.0326285 0.49499786 0.35794872
0.7100272
00000000: bdbc d63d 2beb 2fbe ac3b 8fbe 3563 143f
00000010: 5838 e43c 6bcb e03e 29fe e23e 75c2 62be
00000020: e74c b0be 1faf ad3e 0181 d3be 5226 8a3d
00000030: d971 2d3e c842 cfbe 45eb 043f 3341 373f
00000040: 714e 13be fa87 0b3e 1a99 cb3e 2c84 013e
00000050: a163 383f a9fb ec3e a1d6 363f 2f37 a43e
00000060: dac4 263f b110 2a3e 56ad 6c3f e969 613f
00000070: 0bf2 4e3f 5278 933e 4681 093f aa07 533f
00000080: c798 513e da11 433f 2a4a 17be c09d 523f
00000090: 5cba bd3e e464 543f d855 813e 9401 5c3d
000000a0: d57d 9d3e 3749 fbbd 8444 2c3f c7d6 823e
000000b0: 84ba bf3e 2c2d 843f 5c70 fd3e 0e45 b73e
000000c0: 58c4 353f

ode_dp.odeblock.odefunc.fc2.bias f4 [7]
0.042481873 0.15923722 0.70005274 0.400714 0.061293285 0.28836387 0.77241504
00000000: 7901 2e3d 150f 233e a836 333f 632a cd3e
00000010: ab0e 7b3d 6ea4 933e febc 453f

ode_dp.odeblock.odefunc.fc3.weight f4 [7, 7]
0.1365598 -0.007985981 0.20584911 -0.25621796 -0.6254677 -0.63598216 -0.44531843 -0.5142323
0.20801869 -0.44511375 -0.017199792 -0.28954014 -0.25500178 -0.4724182 0.41465527 0.14219026
0.7488911 0.53246176 0.2565426 0.6684978 0.46074915 -0.21125512 0.17692189 -0.107181296
-0.08228203 -0.29008693 0.2155246 -0.2852765 -0.28190482 -0.46875766 -0.120687276 -0.5349596
-0.20537099 -0.6480502 -0.76201993 -0.38935682 -0.034572277 -0.6094522 -0.9232209 -0.7451321
-0.25676048 -0.61422825 0.033090595 -0.13013332 0.27712652 -0.030916462 -0.20995678 0.07047587
0.4046331
00000000: 55d6 0b3e a2d7 02bc 1cca 523e 002f 83be
00000010: a71e 20bf bacf 22bf c700 e4be baa4 03bf
00000020: da02 553e f3e5 e3be 94e6 8cbc 9b3e 94be
00000030: 988f 82be cce0 f1be b24d d43e 539a 113e
00000040: 54b7 3f3f 6a4f 083f 8d59 833e ac22 2b3f
00000050: 50e7 eb3e 4353 58be 032b 353e de81 dbbd
00000060: 7b83 a8bd 4686 94be 7bb2 5c3e c30f 92be
00000070: d455 90be 0101 f0be e42a f7bd 1df3 08bf
00000080: c64c 52be 9ee6 25bf bd13 43bf c759 c7be
00000090: a99b 0dbd 0f05 1cbf 3458 6cbf fac0 3ebf
000000a0: 1c76 83be 103e 1dbf 018a 073d ab41 05be
000000b0: 87e3 8d3e 8544 fdbc e9fe 56be a755 903d
000000c0: 122c cf3e

ode_dp.odeblock.odefunc.fc3.bias f4 [7]
-0.3150482 -0.398508 0.22730839 0.22597598 -0.45562124 -0.35388297 0.45471743
00000000: ff4d a1be 3e09 ccbe 88c3 683e 3f66 673e
00000010: 3047 e9be 2630 b5be b9d0 e83e

ode_cp.odeblock.odefunc.fc1.weight f4 [6, 6]
0.16405173 -0.007805589 -0.45835572 -0.31511188 0.13589557 0.12479649 0.10040328 -0.061674587
-0.37291256 -0.11702045 0.16509785 -0.3773395 0.16266795 -0.14188592 0.32495457 0.07903312
0.47358996 -0.14519395 -0.590248 0.22142677 -0.40490097 -0.21452005 -0.20767738 -0.064923994
0.12117387 0.58846045 -0.087657355 -0.21960649 0.59700894 -0.24733754 0.08000916 0.28704056
0.29911113 0.13670489 0.3516983 -0.014044079
00000000: 2dfd 273e 07c6 ffbb 9aad eabe 5856 a1be
00000010: 3528 0b3e 4d95 ff3d 3ca0 cd3d 7e9e 7cbd
00000020: 65ee bebe 6ba8 efbd 690f 293e a532 c1be
00000030: 6d92 263e 8b4a 11be 7260 a63e 1edc a13d
00000040: 627a f23e b9ad 14be 7e1a 17bf b3bd 623e
00000050: 2e4f cfbe 25ab 5bbe 61a9 54be dff6 84bd
00000060: 022a f83d 58a5 163f b385 b3bd 86e0 60be
00000070: 94d5 183f 0d46 7dbe d8db a33d fbf6 923e
00000080: 1825 993e 5efc 0b3e cd11 b43e 2319 66bc

ode_cp.odeblock.odefunc.fc1.bias f4 [6]
0.21598895 0.16472784 0.36978835 0.6888228 0.66115046 -0.06374224
00000000: 352c 5d3e 6aae 283e e654 bd3e b156 303f
00000010: 2841 293f 4b8b 82bd

ode_cp.odeblock.odefunc.fc2.weight f4 [6, 6]
0.35887548 -0.116611935 0.14368932 0.46018758 0.26443666 0.59992415 -0.1451293 -0.088307366
0.3521697 0.6340135 0.09749026 0.2846965 0.055180363 -0.21045807 0.12490327 0.004069554
0.37124047 -0.06337517 0.55195653 -0.060597748 0.09361388 0.026071204 0.05848728 0.15180084
0.3356014 0.7183165 0.3684767 0.10420822 0.26153427 0.04239235 0.4520793 0.14943056
0.5148921 0.8574278 0.71235543 0.51678115
00000000: 87be b73e 3dd2 eebd 4b23 133e b59d eb3e
00000010: 3e64 873e a194 193f c69c 14be 7eda b4bd
00000020: 964f b43e b54e 223f f9a8 c73d bdc3 913e
00000030: ce04 623d 5282 57be 49cd ff3d e559 853b
00000040: 3b13 be3e d7ca 81bd 064d 0d3f 5835 78bd
00000050: a2b8 bf3d 4793 d53c 5c90 6f3d ae71 1b3e
00000060: f2d3 ab3e 97e3 373f faa8 bc3e 1f6b d53d
00000070: d2e7 853e 9aa3 2d3d f076 e73e 5304 193e
00000080: f8cf 033f 6380 5b3f ed5c 363f c54b 043f

ode_cp.odeblock.odefunc.fc2.bias f4 [6]
0.19909005 0.22390111 -0.25511345 -0.08287971 0.37330022 0.3715735
00000000: 43de 4b3e 5546 653e 3b9e 82be d6bc a9bd
00000010: 3521 bf3e e23e be3e

ode_cp.odeblock.odefunc.fc3.weight f4 [6, 6]
-0.44662783 -0.26800555 -0.0182261 -0.018907757 -0.59140015 -0.21869364 0.24593562 0.5199024
0.07234416 0.44751766 0.8414867 0.54509115 -0.22117515 -0.2772341 -0.683913 -0.25456586
-0.07201725 -0.5253871 0.033332296 -0.10679958 -0.19709694 -0.045123238 -0.026997665 -0.3116141
0.2161923 -0.20172541 0.5118902 0.11984228 0.25994313 0.5246435 -0.34774026 -0.37843764
0.20149183 -0.26630104 0.2134488 -0.21841039
00000000: 67ac e4be 0638 89be e74e 95bc 71e4 9abc
00000010: 0066 17bf 3af1 5fbe 8cd6 7b3e 5318 053f
00000020: 2d29 943d 0921 e53e ac6b 573f 188b 0b3f
00000030: bd7b 62be a1f1 8dbe ec14 2fbf 7556 82be
00000040: c87d 93bd c57f 06bf 7287 083d bdb9 dabd
00000050: c8d3 49be 25d3 38bd 352a ddbc e28b 9fbe
00000060: 8461 5d3e 1b91 4ebe 3c0b 033f df6f f53d
00000070: 4417 853e 094f 063f 030b b2be 94c2 c1be
00000080: e053 4e3e 9c58 88be 5292 5a3e f9a6 5fbe

ode_cp.odeblock.odefunc.fc3.bias f4 [6]
-0.2543441 0.6054166 -0.39558554 0.06689823 0.1621302 -0.2050107
00000000: 6439 82be 95fc 1a3f 308a cabe f001 893d
00000010: 7605 263e 53ee 51be

gru_dp_fw.weight_ih_l0 f4 [21, 7]
-0.084665656 -0.22556919 0.041423805 0.15205154 0.2364958 -0.007837373 0.07001852 -0.19822656
0.25357527 -0.053180676 -0.15205169 0.18478942 0.3469115 -0.17448595 0.13998581 -0.30520704
-0.0074567324 -0.29915872 -0.29742002 -0.20539902 0.35509235 -0.27273715 -0.00025065138 0.21012008
-0.18972373 -0.06065079 -0.31878272 0.33121803 -0.28686038 -0.114981316 0.1653257 0.1812858
-0.044105906 -0.32475084 0.3170238 -0.30676463 0.32203484 -0.17280488 -0.061480556 -0.23809418
-0.015596978 -0.36254466 0.16897437 0.06246334 -0.13388214 -0.27423188 -0.2515452 0.34528694
0.23196541 0.15137371 -0.31476092 -0.22017741 0.32069555 0.35792115 -0.23406258 0.058918264
-0.2137527 0.368743 0.3362816 0.28297737 0.33754462 -0.2302478 0.26892358 -0.36285695
-0.12669525 -0.25736707 -0.020659659 -0.19128825 0.26264396 0.28560504 -0.2711539 -0.20476413
-0.12624986 -0.31923825 -0.2883742 0.18529324 -0.27111438 -0.37055054 -0.08425059 0.106696345
-0.21307103 -0.14831385 0.33305898 -0.34919116 -0.08327934 -0.20531148 0.006256553 -0.09064835
-0.041349325 0.05211909 -0.09945792 -0.34706184 -0.073282845 -0.36963594 0.3288238 0.26286915
0.16423795 -0.13568513 0.02250663 -0.14902972 -0.02303641 -0.10181547 -0.12177742 -0.14516681
0.035880774 -0.10032679 -0.090395495 -0.25058642 0.00729597 -0.25790823 -0.2900973 -0.22392799
-0.096798524 -0.009415896 -0.22112194 -0.0796729 0.23765804 -0.047534958 0.36578983 0.12783554
0.2380458 -0.11652798 -0.24981177 0.14976609 -0.23514593 -0.26972374 -0.25953287 -0.34630737
-0.07636397 -0.2506422 -0.20204332 -0.03266087 0.2083156 0.25756636 -0.25138456 -0.13137373
-0.1325757 -0.11499628 0.14999938 -0.36525428 0.17855531 -0.17098705 -0.15689318 0.00936417
0.027083913 0.27726248 0.22459672
00000000: 3065 adbd 9cfb 66be 02ac 293d 66b3 1b3e
00000010: f42b 723e 5368 00bc df65 8f3d e7fb 4abe
00000020: 9ed4 813e fbd3 59bd 70b3 1bbe 7039 3d3e
00000030: 629e b13e 72ac 32be 7158 0f3e 1944 9cbe
00000040: 9b57 f4bb 552b 99be 7047 98be 1f54 52be
00000050: aace b53e 34a4 8bbe dc69 83b9 b829 573e
00000060: f046 42be f66c 78bd 7d37 a3be 6995 a93e
00000070: 5ddf 92be 537b ebbd 244b 293e fca2 393e
00000080: 65a8 34bd be45 a6be f250 a23e 4110 9dbe
00000090: c0e1 a43e c3f3 30be 09d3 7bbd f6ce 73be
000000a0: 788a 7fbc 749f b9be 9e07 2d3e 8fd9 7f3d
000000b0: 6618 09be 1f68 8cbe 88ca 80be 73c9 b03e
000000c0: 5788 6d3e b601 1b3e 5828 a1be 3076 61be
000000d0: 3532 a43e 7141 b73e 1aae 6fbe 4754 713d
000000e0: fde1 5abe e2cb bc3e 1a2d ac3e 69e2 903e
000000f0: a6d2 ac3e 14c6 6bbe 5ab0 893e 63c8 b9be
00000100: 66bc 01be 9ec5 83be 723e a9bc 11e1 43be
00000110: 4579 863e d33a 923e afd4 8abe b0ad 51be
00000120: a547 01be 3273 a3be c8a5 93be 83bd 3d3e
00000130: 81cf 8abe cdb8 bdbe 938b acbd 9d83 da3d
00000140: 4b2f 5abe 96df 17be b586 aa3e 2fc9 b2be
00000150: 5c8e aabd 2c3d 52be c503 cd3b d8a5 b9bd
00000160: e95d 29bd d47a 553d 98b0 cbbd 17b2 b1be
00000170: 5115 96bd ec40 bdbe 985b a83e c996 863e
00000180: fe2d 283e 0bf1 0abe d35f b83c 3f9b 18be
00000190: dab6 bcbc a184 d0bd 7166 f9bd 9ca6 14be
000001a0: b8f7 123d 2278 cdbd 4621 b9bd dd4c 80be
000001b0: 0813 ef3b 8c0c 84be a287 94be 614d 65be
000001c0: 4e3e c6bd 2145 1abc ca6d 62be 8c2b a3bd
000001d0: a15c 733e 04b4 42bd ce48 bb3e 52e7 023e
000001e0: 47c2 733e 39a6 eebd a8ce 7fbe 485c 193e
000001f0: 18ca 70be 3b19 8abe 7ee1 84be 334f b1be
00000200: b764 9cbd 2d54 80be 72e4 4ebe 68c7 05bd
00000210: af50 553e bddf 833e 7ab5 80be d686 06be
00000220: edc1 07be 2b83 ebbd 7099 193e 9c02 bbbe
00000230: 34d7 363e 3b17 2fbe 9ba8 20be 2d6c 193c
00000240: 15df dd3c 59f5 8d3e affc 653e

gru_dp_fw.weight_hh_l0 f4 [21, 7]
-0.22336265 0.095456116 0.2585969 -0.33771163 -0.058454838 -0.055319127 0.16607502 0.15713665
0.025937986 -0.1660611 0.17778823 -0.016423311 0.13746378 -0.2099507 0.26469624 -0.371843
-0.16224416 -0.21080029 0.23488832 0.28831077 0.35487914 0.06456873 0.2575234 -0.17433535
0.04118753 -0.3432419 0.15583768 -0.09228803 0.30114648 0.21921377 0.43220899 0.15370026
-0.34909046 0.05824889 -0.012820417 -0.21092372 -0.09342362 0.042884503 -0.39412352 -0.30099064
0.4987353 0.14616516 0.40847695 -0.44244578 0.37075603 0.009516008 -0.09601357 0.12122273
-0.25918424 -0.08040607 0.37538654 0.1738237 0.02695371 -0.1311322 0.14767787 0.21304478
-0.2786616 -0.25362304 -0.08236593 0.19294839 0.36352882 -0.15657301 0.037484527 -0.22317393
-0.24176031 -0.051947027 -0.33157715 0.054351486 0.21088606 0.11951034 -0.33858228 -0.085922346
0.3042786 0.0274018 0.07598157 -0.29956743 -0.07312455 0.23212892 0.28721932 0.35255054
-0.34822997 -0.18568142 0.08558522 0.32709622 -0.15072665 -0.27458847 0.19123241 -0.30679363
-0.08636287 -0.35567057 0.07263715 -0.19117965 -0.19764785 -0.23826292 -0.37393984 0.15115252
-0.06816336 -0.101950705 -0.21694314 0.12962773 0.11519941 0.429952 0.13872217 -0.020932402
0.07588634 0.054242607 0.21842206 -0.25158504 -0.3004678 -0.19161686 0.15839715 0.011804442
-0.2874196 -0.27124622 -0.2955041 -0.074109085 -0.20645674 -0.091202945 0.13351527 0.022053737
-0.281242 0.023670312 -0.15091762 -0.08394049 0.2541034 -0.22313246 0.30238947 0.26767933
0.1154942 -0.00016613482 -0.40516454 -0.27608278 -0.06577528 -0.22736365 -0.17873557 0.21216665
0.27777845 0.10119406 -0.17816745 0.017259048 0.14608537 -0.00478508 0.2096974 0.14626697
0.15976937 -0.09360412 -0.029960828
00000000: 2eb9 64be 7f7e c33d d066 843e 8ae8 acbe
00000010: 576e 6fbd 4f96 62bd 920f 2a3e 6ee8 203e
00000020: e67b d43c ec0b 2abe 1e0e 363e 2e8a 86bc
00000030: 4ec3 0c3e 51fd 56be 4486 873e 3562 bebe
00000040: 5523 26be 08dc 57be 9086 703e 789d 933e
00000050: b8b2 b53e 9c3c 843d 1bda 833e f784 32be
00000060: 41b4 283d 67bd afbe ea93 1f3e 8201 bdbd
00000070: df2f 9a3e 9379 603e 7f4a dd3e 9a63 1d3e
00000080: fcbb b2be 6396 6e3d ba0c 52bc 63fc 57be
00000090: e254 bfbd a9a7 2f3d 8fca c9be 721b 9abe
000000a0: 3c5a ff3e 52ac 153e e423 d13e 4188 e2be
000000b0: bcd3 bd3e 08e9 1b3c c3a2 c4bd 9f43 f83d
000000c0: ccb3 84be f0ab a4bd aa32 c03e d7fe 313e
000000d0: 07ce dc3c 8547 06be de38 173e 6928 5a3e
000000e0: bcac 8ebe e1da 81be 78af a8bd 4394 453e
000000f0: 7320 ba3e ad54 20be 6089 193d b587 64be
00000100: 0490 77be 68c6 54bd 7bc4 a9be aa9f 5e3d
00000110: 84f2 573e d6c1 f43d a85a adbe 0ef8 afbd
00000120: 68ca 9b3e bd79 e03c 3a9c 9b3d e760 99be
00000130: 53c2 95bd 34b3 6d3e 690e 933e 8181 b43e
00000140: 334b b2be 4523 3ebe 4e47 af3d 2879 a73e
00000150: 1658 1abe dc96 8cbe 6ed2 433e 0e14 9dbe
00000160: 04df b0bd 741a b6be c9c2 943d 99c4 43be
00000170: 3364 4abe 32fb 73be 0b75 bfbe bac7 1a3e
00000180: 3b99 8bbd 88cb d0bd 5826 5ebe 22bd 043e
00000190: abed eb3d ab22 dc3e 2f0d 0e3e 6e7a abbc
000001a0: 4c6a 9b3d 7f2d 5e3d 08aa 5f3e c1cf 80be
000001b0: ead6 99be 3637 44be dd32 223e 6b67 413c
000001c0: a928 93be c9e0 8abe 504c 97be 81c6 97bd
000001d0: 6569 53be 9cc8 babd 3ab8 083e 0aaa b43c
000001e0: f4fe 8fbe 3ee8 c13c 268a 1abe fee8 abbd
000001f0: d719 823e d67c 64be cbd2 9a3e 440d 893e
00000200: 3988 ec3d 7a34 2eb9 ba71 cfbe b95a 8dbe
00000210: 31b5 86bd 04d2 68be 7506 37be 3742 593e
00000220: fa38 8e3e d53e cf3d 8771 36be d962 8d3c
00000230: 6797 153e 29cc 9cbb eaba 563e 02c7 153e
00000240: 959a 233e 84b3 bfbd 6970 f5bc

gru_dp_fw.bias_ih_l0 f4 [21]
-0.14944685 -0.21294346 -0.13039301 -0.21087505 -0.30242229 0.16811036 -0.24775495 -0.09042892
0.26920563 0.20473385 -0.19820072 0.3725794 0.1687607 0.26223943 0.018425986 0.16978538
-0.29254133 0.17555343 0.10807101 -0.087076426 0.0012596702
00000000: 9808 19be da0d 5abe bf85 05be a1ef 57be
00000010: 18d7 9abe 1f25 2c3e 79b3 7dbe cc32 b9bd
00000020: 52d5 893e c0a5 513e 21f5 4abe bac2 be3e
00000030: 9bcf 2c3e 3f44 863e 18f2 963c 38dc 2d3e
00000040: fac7 95be 47c4 333e 5554 dd3d 2055 b2bd
00000050: 851b a53a

gru_dp_fw.bias_hh_l0 f4 [21]
0.027729422 -0.43458986 -0.09955813 0.011946291 0.2115294 -0.48242897 -0.45299628 0.040635463
0.1616495 -0.16079538 -0.0010057947 0.15759687 -0.26563844 0.25474676 -0.20716183 -0.09887675
0.16565296 0.036317743 0.21261927 -0.17495103 -0.16613707
00000000: d028 e33c 9082 debe 22e5 cbbd 60ba 433c
00000010: 2a9b 583e ee00 f7be 21ef e7be 5f71 263d
00000020: 7287 253e 8ba7 24be dfd4 83ba 1361 213e
00000030: c301 88be 2b6e 823e 3b22 54be e57f cabd
00000040: eea0 293e eac1 143d deb8 593e 5d26 33be
00000050: d61f 2abe

gru_cp_fw.weight_ih_l0 f4 [18, 6]
0.14768453 0.15771002 -0.08521858 0.09139002 0.34947628 -0.18178348 -0.18903483 0.24211566
-0.43883136 0.03665901 -0.14947523 -0.34346786 0.20888306 0.3640864 -0.21796994 -0.3481888
0.22186592 -0.24733321 -0.52038646 0.2877674 -0.359164 0.23016956 -0.23576882 0.059462078
0.21613306 -0.07819796 0.12566103 0.48289606 0.32223684 0.2724759 0.19613734 -0.05222736
-0.21890326 0.12911896 -0.02390002 0.1382748 -0.023563862 0.24917659 -0.041007265 0.38739744
-0.13368085 0.16054419 -0.006783098 -0.015620776 -0.20891453 0.35607886 0.32040855 0.14006849
0.34447804 -0.07899473 0.2718405 0.0013719029 0.14424254 0.32557148 -0.36373654 -0.564357
0.076038465 -0.10863049 0.5286361 -0.41489562 -0.17496045 -0.16267125 -0.20534834 0.3550383
0.27522364 -0.09490423 0.3991731 0.2881518 -0.25371683 0.16190404 0.011515927 0.09533162
-0.3667494 0.04980214 -0.2657956 -0.23585166 0.3821061 0.1432802 0.22923002 -0.36053258
0.45589024 0.07881396 0.19251433 -0.08647546 0.25365046 -0.19176622 0.09201273 -0.15694256
0.4389655 -0.20085928 0.27344686 0.5725252 -0.20141782 0.10040217 -0.32356876 -0.09008863
-0.35010737 0.540325 -0.18734664 -0.41538674 -0.04958542 -0.4770852 -0.41567802 0.43522644
-0.13798472 0.06581112 -0.076012045 -0.37450892
00000000: 9d3a 173e bc7e 213e 1487 aebd b12a bb3d
00000010: 8eee b23e 7325 3abe 5992 41be 2bed 773e
00000020: 81ae e0be c227 163d 0910 19be 05db afbe
00000030: 71e5 553e 8869 ba3e 8333 5fbe cd45 b2be
00000040: d230 633e eb44 7dbe 0c38 05bf 4056 933e
00000050: 58e4 b7be 92b1 6b3e 626d 71be 828e 733d
00000060: fc51 5d3e 4126 a0bd 49ad 003e 273e f73e
00000070: 3afc a43e f681 8b3e 3ad8 483e 5bec 55bd
00000080: 2d28 60be c337 043e fac9 c3bc e997 0d3e
00000090: 0009 c1bc 2628 7f3e 3cf7 27bd f558 c63e
000000a0: a2e3 08be b265 243e c044 debb 49ee 7fbc
000000b0: b1ed 55be f84f b63e 970c a43e 1d6e 0f3e
000000c0: 6d5f b03e fdc7 a1bd ae2e 8b3e 6cd1 b33a
000000d0: 51b4 133e 4eb1 a63e ad3b babe b379 10bf
000000e0: 0eba 9b3d aa79 debd b254 073f 336d d4be
000000f0: d528 33be 4b93 26be d646 52be 94c7 b53e
00000100: 1dea 8c3e 265d c2bd 6b60 cc3e a288 933e
00000110: 2ce7 81be 2cca 253e 4cad 3c3c 393d c33d
00000120: 94c6 bbbe 54fd 4b3d 5c16 88be 1983 71be
00000130: 69a3 c33e 0bb8 123e 46bb 6a3e ba97 b8be
00000140: 726a e93e 3769 a13d 7a22 453e 0c1a b1bd
00000150: 79de 813e 5d5e 44be 2c71 bc3d 8db5 20be
00000160: 16c0 e03e 0eae 4dbe 3a01 8c3e 0391 123f
00000170: 7940 4ebe a79f cd3d ceaa a5be 6380 b8bd
00000180: 4641 b3be bd52 0a3f ccd7 3fbe 92ad d4be
00000190: 151a 4bbd 8344 f4be c0d3 d4be 00d6 de3e
000001a0: de4b 0dbe fbc7 863d 34ac 9bbd a2bf bfbe

gru_cp_fw.weight_hh_l0 f4 [18, 6]
-0.2572137 -0.21525046 0.3639247 -0.4344558 -0.12556292 -0.31874716 0.19704786 0.119900614
-0.04097532 0.17943834 -0.11319656 0.06352904 -0.22432071 0.14437045 0.043098833 0.43302244
0.023593385 0.1162542 -0.10323868 0.085521035 -0.27664602 -0.105027966 0.09459943 -0.29611605
-0.07359363 -0.072833225 0.008480196 -0.13888592 0.0021211791 -0.3489209 0.38645446 0.150533
0.26680082 0.3215757 -0.29472926 0.08918705 0.033521634 -0.18710099 -0.44895718 -0.20912036
-0.27147877 0.11596528 0.44490916 -0.44530484 0.19036743 -0.3993453 0.26322624 -0.3323987
0.35693708 0.08671933 -0.1285354 -0.11931994 0.1667447 -0.44780365 -0.035698052 -0.5330243
-0.31443098 -0.017215582 0.1822843 0.011655762 -0.22086866 0.4824088 0.016654506 -0.27187183
0.60303676 -0.27292386 0.0934149 -0.4161804 -0.382713 -0.084991604 -0.07875377 -0.04438293
0.31818342 0.20854932 0.25409395 -0.08831486 0.27685022 0.054653548 -0.36573696 0.20878386
0.3702107 -0.19916084 -0.050058644 -0.28874668 0.020814322 0.107166216 -0.085985355 0.51115483
0.3107558 0.32560366 0.29568747 -0.16872668 -0.24100362 0.47208455 0.30142576 0.34328082
-0.38961896 -0.3906326 -0.48656332 -0.044167027 0.088616 -0.08231839 0.20933779 0.02875845
0.16933134 0.58592206 -0.2109184 -0.35043782
00000000: 84b1 83be 9e6a 5cbe 5754 ba3e fe70 debe
00000010: 9193 00be d432 a3be eac6 493e 748e f53d
00000020: bdd5 27bd afbe 373e 99d3 e7bd 831b 823d
00000030: 54b4 65be d9d5 133e 6788 303d 1eb5 dd3e
00000040: ea46 c13c af16 ee3d cd6e d3bd a725 af3d
00000050: 8ca4 8dbe e718 d7bd 59bd c13d 869c 97be
00000060: 42b8 96bd 9629 95bd 85f0 0a3c 1c38 0ebe
00000070: 7b03 0b3b c3a5 b2be 5cdd c53e 5325 1a3e
00000080: 1e9a 883e 92a5 a43e c1e6 96be b3a7 b63d
00000090: fb4d 093d 6797 3fbe b7dd e5be a623 56be
000000a0: 44ff 8abe 347f ed3d 22cb e33e fffe e3be
000000b0: aeef 423e fd76 ccbe 97c5 863e 2a30 aabe
000000c0: 75c0 b63e e799 b13d c99e 03be 035e f4bd
000000d0: 1fbf 2a3e 8546 e5be 1f38 12bd 4874 08bf
000000e0: 19fd a0be b107 8dbc bca8 3a3e cff7 3e3c
000000f0: 652b 62be 49fe f63e 086f 883c c932 8bbe
00000100: 9e60 1a3f adbc 8bbe 5050 bf3d 9915 d5be
00000110: f5f2 c3be 1410 aebd a849 a1bd e0ca 35bd
00000120: f0e8 a23e f48d 553e 9a18 823e 6cde b4bd
00000130: 50bf 8d3e 66dc 5f3d e041 bbbe 70cb 553e
00000140: 428c bd3e d2f0 4bbe 4b0a 4dbd 9bd6 93be
00000150: cc82 aa3c f679 db3d 1719 b0bd 0bdb 023f
00000160: 621b 9f3e 86b5 a63e 5964 973e b0c6 2cbe
00000170: a7c9 76be 11b5 f13e 7a54 9a3e 81c2 af3e
00000180: 237c c7be ff00 c8be d41e f9be 7ce8 34bd
00000190: 4e7c b53d 8b96 a8bd a55c 563e d796 eb3c
000001a0: 3265 2d3e fdfe 153f fefa 57be 966c b3be

gru_cp_fw.bias_ih_l0 f4 [18]
0.0010331183 0.119938985 0.052232303 0.2687808 0.3345147 0.2588284 -0.29256943 -0.3478409
-0.26850405 0.38241288 -0.1932497 -0.35291764 0.1954421 -0.03833496 -0.20780061 -0.13780062
-0.19037136 0.23147368
00000000: b369 873a 92a2 f53d 8af1 553d a39d 893e
00000010: 8345 ab3e 2885 843e a9cb 95be 3418 b2be
00000020: 5d79 89be 9fcb c33e 40e3 45be 9fb1 b4be
00000030: f921 483e 1e05 1dbd afc9 54be 9b1b 0dbe
00000040: b6f0 42be 7007 6d3e

gru_cp_fw.bias_hh_l0 f4 [18]
0.39473534 -0.24769776 -0.094134115 -0.3600229 0.11797917 0.067906834 0.43156898 0.0006701305
-0.44063634 0.4893753 0.066209525 0.054996718 -0.36107808 -0.2039467 0.30732128 0.35464752
-0.24149752 0.0011832681
00000000: c01a ca3e 7ba4 7dbe 63c9 c0bd ec54 b8be
00000010: 109f f13d bd12 8b3d 9cf6 dc3e b2ab 2f3a
00000020: 169b e1be 668f fa3e dc98 873d 3d44 613d
00000030: 3adf b8be 67d7 50be 3759 9d3e 5c94 b53e
00000040: 204b 77be e417 9b3a

gru_dp_bw.weight_ih_l0 f4 [21, 7]
-0.027218226 -0.22415541 -0.07586598 -0.31797358 -0.077187344 0.40034324 -0.099010475 0.21363796
-0.010984817 -0.09849062 -0.015349745 -0.29400602 -0.12112383 0.24194548 0.054554638 -0.24776742
0.24443443 -0.3772077 -0.14101472 0.40245008 -0.06695897 -0.015631529 0.24876872 0.045434967
0.3198573 -0.4911427 0.3533222 0.2916473 0.0488615 0.09310408 0.018826842 -0.22991575
-0.44227913 -0.07090597 -0.15337646 -0.15729447 -0.14792815 0.29685163 0.00077143434 -0.17188448
0.04773244 -0.048708726 0.15235457 0.119641624 -0.27079907 0.026083339 -0.3118093 -0.17720766
0.31829503 -0.20998931 0.043195512 0.16509159 0.2218637 -0.22052857 0.13682923 -0.14349283
-0.06713022 -0.10496632 -0.14138359 0.1179252 0.1782144 -0.019001672 -0.050827533 -0.47211483
-0.024737738 0.099617824 0.2411673 0.025780413 -0.37293643 -0.28056735 -0.16267018 -0.10324631
-0.2235045 -0.20359875 0.18755984 -0.007241339 0.3260292 -0.025420234 0.06933062 -0.0602507
0.13128176 0.6176403 0.2852579 0.031669445 0.42309666 -0.41883335 -0.25068578 -0.33360514
0.0051686615 -0.23221168 0.36111745 -0.44362843 0.0604511 -0.11995164 0.54086363 -0.1262689
0.50123477 -0.37199393 -0.24123363 0.22275904 0.21690777 0.2334918 -0.42968565 -0.09229945
-0.091841415 -0.08406679 0.11728712 -0.109467514 0.24666241 -0.3470153 -0.014313939 0.19739833
0.31621808 0.005338449 -0.07505961 -0.22777557 0.0040083462 0.2775884 0.1578377 -0.18755388
-0.020624042 0.048757873 -0.023448335 -0.058050934 -0.0034506952 0.0482116 -0.24707259 0.10780922
0.17405234 0.14901683 0.41078132 0.0969698 0.01895717 0.2723093 -0.46044284 -0.04029682
-0.41241884 0.040603023 -0.19464602 0.2772602 -0.22495195 0.29250833 0.1008532 0.2967846
-0.012610468 0.18929674 -0.10505469
00000000: c2f8 debc ff88 65be 9f5f 9bbd 6fcd a2be
00000010: 6614 9ebd caf9 cc3e 01c6 cabd e9c3 5a3e
00000020: a9f9 33bc 73b5 c9bd 7f7d 7bbc f587 96be
00000030: c50f f8bd 8ec0 773e af74 5f3d beb6 7dbe
00000040: 054d 7a3e 5e21 c1be 2a66 10be f00d ce3e
00000050: c921 89bd b10d 80bc 3abd 7e3e 041a 3a3d
00000060: 56c4 a33e 0e77 fbbe a6e6 b43e cb52 953e
00000070: ff22 483d 5aad be3d c03a 9a3c 096f 6bbe
00000080: 6972 e2be 2637 91bd b80e 1dbe cd11 21be
00000090: 7a7a 17be f0fc 973e 153a 4a3a 7c02 30be
000000a0: 1783 433d cd82 47bd d602 1c3e ab06 f53d
000000b0: 2da6 8abe baac d53c 78a5 9fbe ed75 35be
000000c0: 91f7 a23e 7007 57be c7ed 303d c50d 293e
000000d0: 3d30 633e 3ed2 61be f61c 0c3e c9ef 12be
000000e0: 927b 89bd 95f8 d6bd dcc6 10be c482 f13d
000000f0: d67d 363e 65a9 9bbc 8830 50bd 09b9 f1be
00000100: cca6 cabc 6e04 cc3d 90f4 763e 7231 d33c
00000110: 86f1 bebe 86a6 8fbe 0393 26be cd72 d3bd
00000120: 5dde 64be 317c 50be b00f 403e c148 edbb
00000130: 4ded a63e 183e d0bc 36fd 8d3d 70c9 76bd
00000140: ba6e 063e ad1d 1e3f 530d 923e d2b7 013d
00000150: 20a0 d83e 5371 d6be e359 80be 4bce aabe
00000160: e05d a93b e6c8 6dbe 63e4 b83e 4423 e3be
00000170: 939b 773d 35a9 f5bd 0a76 0a3f a24c 01be
00000180: ec50 003f fd75 bebe f305 77be f21a 643e
00000190: 121d 5e3e 7918 6f3e c2ff dbbe 7e07 bdbd
000001a0: 5a17 bcbd 362b acbd 3b34 f03d 8130 e0bd
000001b0: 1295 7c3e fdab b1be 0385 6abc ca22 4a3e
000001c0: 56e7 a13e 28ee ae3b dab8 99bd 003e 69be
000001d0: 7258 833b 1120 8e3e 35a0 213e 200e 40be
000001e0: c0f3 a8bc 56b6 473d b916 c0bc d1c6 6dbd
000001f0: 0f25 62bb 8779 453d 9900 7dbe 15cb dc3d
00000200: c73a 323e de97 183e ee51 d23e 1a98 c63d
00000210: 114c 9b3c 206c 8b3e 2abf ebbe 470e 25bd
00000220: 9028 d3be 5b4f 263d 4951 47be 0df5 8d3e
00000230: ce59 66be a7c3 953e 1f8c ce3d 27f4 973e
00000240: 239c 4ebc 01d7 413e ea26 d7bd

gru_dp_bw.weight_hh_l0 f4 [21, 7]
0.43727478 0.07505604 -0.57687056 0.13396938 0.082668036 0.27244124 0.17563944 0.21822572
-0.33088294 -0.60225135 -0.1524675 0.4234725 0.6002507 -0.09846866 0.48663962 0.41248164
0.020816179 0.47329944 0.30268422 0.12490465 -0.30343115 0.26000258 -0.3079047 -0.5180766
0.15634465 0.4118603 0.021717101 0.28734198 -0.46989748 -0.5197876 0.5129329 0.027870223
0.44686547 0.20216629 0.7219229 0.34922045 -0.27664787 -0.45315468 0.1190695 0.21015458
0.087220445 0.6589136 0.1826676 -0.18932652 0.0063109174 -0.46694767 0.34984502 0.028105924
-0.23744167 -0.22432616 -0.16557229 -0.31337592 -0.3529193 -0.08320053 0.48681402 0.0186226
-0.05017454 0.46787766 -0.28167608 0.015987137 0.08265138 -0.4357298 0.1450302 -0.10808539
-0.48307598 -0.21275574 -0.06782186 0.14090165 -0.39038587 0.17235328 0.06643779 -0.12203971
0.008810022 0.32666007 -0.29634354 -0.22298922 -0.4809214 0.16564228 -0.116569854 0.05936484
0.4823085 0.048435535 0.009549641 -0.1068989 0.39981428 -0.044969663 -0.38038874 0.27455077
0.437558 -0.017298073 0.28617385 -0.3094801 0.39931795 -0.12917295 -0.051653128 -0.4882048
0.27837417 -0.059879515 0.22017899 0.27888107 -0.08907122 0.7523454 0.2522487 0.6744332
0.10848886 0.6694508 0.5320114 -0.3202367 0.49578097 -0.15317808 0.26948404 -0.40574163
-0.4461125 -0.17677853 0.39167675 -0.27515036 -0.19630611 -0.22303179 -0.064154066 0.5948643
0.08249041 -0.2944354 0.52395064 0.15945242 0.6314437 -0.09073562 -0.46001595 -0.65747017
-0.009041332 -0.13123734 0.3592846 0.027676703 0.21579213 0.5033535 -0.16134344 -0.56850266
0.5604394 0.121047 0.37139574 -0.013462741 -0.4669637 -0.78544474 0.18100369 -0.24177153
0.49157056 -0.3871193 -0.06909015
00000000: 7be2 df3e fbb6 993d caad 13bf 452f 093e
00000010: dc4d a93d 6b7d 8b3e d3da 333e 9076 5f3e
00000020: 7d69 a9be 252d 1abf 7120 1cbe 63d1 d83e
00000030: 08aa 193f f0a9 c9bd d428 f93e cb30 d33e
00000040: b186 aa3c 4e54 f23e 6df9 9a3e 02ce ff3d
00000050: 545b 9bbe 0f1f 853e afa5 9dbe aba0 04bf
00000060: d018 203e 5adf d23e 10e8 b13c 7d1e 933e
00000070: 6796 f0be cd10 05bf 924f 033f 1850 e43c
00000080: 8dcb e43e ae04 4f3e f0cf 383f 06cd b23e
00000090: caa4 8dbe e403 e8be b6da f33d c332 573e
000000a0: a2a0 b23d 90ae 283f 370d 3b3e d0de 41be
000000b0: d0cb ce3b c413 efbe e31e b33e 653e e63c
000000c0: e923 73be c2b5 65be c88b 29be cf72 a0be
000000d0: d7b1 b4be 0a65 aabd b03f f93e 6c8e 983c
000000e0: d283 4dbd a98d ef3e d937 90be 75f7 823c
000000f0: 2045 a93d fa17 dfbe cc82 143e df5b ddbd
00000100: bc55 f7be a4dc 59be 30e6 8abd 8648 103e
00000110: a8e0 c7be 617d 303e 8910 883d f5ef f9bd
00000120: e957 103c fd3f a73e 57ba 97be 4957 64be
00000130: 543b f6be 219e 293e 2dbc eebd 8c28 733d
00000140: 24f1 f63e 5764 463d 1976 1c3c cfed dabd
00000150: 75b4 cc3e 1c32 38bd 50c2 c2be eb91 8c3e
00000160: 9a07 e03e b0b4 8dbc 6185 923e 2d74 9ebe
00000170: 6773 cc3e ea45 04be 3b92 53bd fbf5 f9be
00000180: 0f87 8e3e 3944 75bd 9a76 613e 80c9 8e3e
00000190: f96a b6bd b599 403f be26 813e a7a7 2c3f
000001a0: 682f de3d 2161 2b3f e631 083f 11f6 a3be
000001b0: 01d7 fd3e b7da 1cbe d0f9 893e 5ebd cfbe
000001c0: dc68 e4be 6e05 35be db89 c83e 82e0 8cbe
000001d0: 7804 49be 7262 64be 3563 83bd 0749 183f
000001e0: bbf0 a83d 3dc0 96be a121 063f 7f47 233e
000001f0: 4ba6 213f 99d3 b9bd 3687 ebbe f74f 28bf
00000200: 1822 14bc 1563 06be 27f4 b73e 41ba e23c
00000210: 9df8 5c3e c6db 003f 3737 25be 6489 11bf
00000220: f578 0f3f 7de7 f73d 9527 be3e d492 5cbc
00000230: de15 efbe e812 49bf 0859 393e f592 77be
00000240: 23af fb3e 8034 c6be 237f 8dbd

gru_dp_bw.bias_ih_l0 f4 [21]
0.47482482 0.3521223 -0.14461647 0.09616699 0.15520652 0.31501523 0.32919917 0.50806415
0.8053681 0.11375222 0.6422962 0.47526658 0.86032474 -0.023402702 -0.31119478 -0.1857763
-0.001607549 -0.23230872 0.13827585 0.1880137 0.2160973
00000000: 3d1c f33e 6049 b43e 5716 14be 33f3 c43d
00000010: 75ee 1e3e ad49 a13e cb8c a83e 7e10 023f
00000020: 9b2c 4e3f edf6 e83d 866d 243f 2456 f33e
00000030: 3e3e 5c3f 06b7 bfbc ec54 9fbe 243c 3ebe
00000040: 65b4 d2ba 56e2 6dbe 2f98 0d3e aa86 403e
00000050: 9c48 5d3e

gru_dp_bw.bias_hh_l0 f4 [21]
-0.04708189 0.4655305 0.006422549 0.5406791 0.33329538 0.289866 0.14428401 0.59309036
0.25645643 0.37079307 0.38212973 0.56648296 0.62471825 0.06334467 0.08021083 -0.20443368
-0.4106795 -0.060120974 0.31974575 0.25157893 -0.04628765
00000000: f1d8 40bd 045a ee3e 3f74 d23b f269 0a3f
00000010: b1a5 aa3e 5169 943e 30bf 133e c5d4 173f
00000020: 424e 833e 97d8 bd3e 82a6 c33e 0705 113f
00000030: 89ed 1f3f daba 813d 9345 a43d 1057 51be
00000040: 9544 d2be 6941 76bd b7b5 a33e f4ce 803e
00000050: 1e98 3dbd

gru_cp_bw.weight_ih_l0 f4 [18, 6]
-0.051245764 0.2761771 -0.025533922 -0.3001377 -0.041541256 -0.2869492 -0.13445531 0.30135438
0.10377392 0.22278471 -0.06463965 0.097030185 0.13765252 0.2338619 0.10400093 0.010294855
0.05341909 -0.11075888 0.15213822 0.24983557 0.14899546 0.044695366 -0.10713525 0.083545074
-0.43231162 0.1552902 0.15130323 0.050351173 0.37026936 -0.17332245 0.18924904 -0.017436218
0.04389682 0.020980189 0.31821525 0.22580448 0.28853136 -0.25555974 0.3137985 -0.4470274
0.41689956 -0.14822197 0.40421063 0.09254513 -0.14858837 -0.099092245 -0.047617007 -0.029111702
-0.03951404 -0.25318006 0.25472194 -0.038317084 0.31979388 -0.26812133 0.4588147 -0.20438196
-0.26328957 0.21035555 0.19053903 -0.30459586 -0.5212569 0.2268011 -0.121648975 -0.1704752
-0.12786148 -0.10874072 0.13236766 0.63663775 -0.19466466 -0.103580914 0.059556536 -0.24733159
0.24071196 -0.35160145 0.16143063 0.11173312 0.044881675 -0.51668304 0.173323 -0.26868394
0.26291335 -0.03623308 -0.38681185 -0.13390581 0.0589013 -0.15910436 0.17884463 -0.31811702
-0.11001403 -0.17054784 -0.17323409 -0.45341492 0.013170431 -0.09260415 -0.2895799 0.30322695
0.44993836 -0.21922706 0.15473954 -0.19702248 -0.16409506 -0.00041216702 -0.29766846 0.2357415
-0.3390129 -0.1996961 0.2581538 -0.061877873
00000000: 14e7 51bd 1667 8d3e 842c d1bc a6ab 99be
00000010: 2a27 2abd 01eb 92be a7ae 09be 1f4b 9a3e
00000020: 6c87 d43d ad21 643e cb61 84bd c3b7 c63d
00000030: c8f4 0c3e 7e79 6f3e 71fe d43d c0ab 283c
00000040: facd 5a3d 8dd5 e2bd 1fca 1b3e e5d4 7f3e
00000050: 4492 183e 7d12 373d ba69 dbbd ae19 ab3d
00000060: f357 ddbe 6504 1f3e 3cef 1a3e 083d 4e3d
00000070: f293 bd3e 717b 31be 80ca 413e 66d6 8ebc
00000080: 27cd 333d a5de ab3c 1ced a23e 4a39 673e
00000090: 62ba 933e bad8 82be 32aa a03e c6e0 e4be
000000a0: dc73 d53e 80c7 17be b2f4 ce3e 4d88 bd3d
000000b0: 8d27 18be e0f0 cabd 0d0a 43bd aa7b eebc
000000c0: 79d9 21bd d1a0 81be ea6a 823e 60f2 1cbd
000000d0: 06bc a33e 3347 89be c3e9 ea3e 8149 51be
000000e0: e4cd 86be 7267 573e aa1c 433e fdf3 9bbe
000000f0: 1871 05bf 8c3e 683e 1923 f9bd 0d91 2ebe
00000100: 1fee 02be 74b3 debd 638b 073e b1fa 223f
00000110: 2c56 47be 3b22 d4bd 8ef1 733d 7e44 7dbe
00000120: 327d 763e 1b05 b4be 124e 253e 56d4 e43d
00000130: d9d5 373d 5745 04bf 967b 313e f190 89be
00000140: 949c 863e 2369 14bd 340c c6be 9b1e 09be
00000150: 7d42 713d 41ec 22be 0c23 373e 3ce0 a2be
00000160: 094f e1bd 18a4 2ebe 4764 31be 0026 e8be
00000170: cbc8 573c 3fa7 bdbd d143 94be 9040 9b3e
00000180: 525e e63e 0f7d 60be 0b74 1e3e 43c0 49be
00000190: 8908 28be 1f18 d8b9 0068 98be 3866 713e
000001a0: 1993 adbe 227d 4cbe bc2c 843e a773 7dbd

gru_cp_bw.weight_hh_l0 f4 [18, 6]
-0.02713919 -0.034108095 -0.058077395 0.37792417 0.017357692 -0.062574856 0.41277504 0.22455919
0.1359737 0.025322543 0.3280083 0.1299965 -0.14838699 -0.21180552 0.5068937 0.06429583
0.07553944 -0.07226944 -0.23196414 0.1929449 -0.15993953 -0.2318371 0.43323204 -0.1310138
-0.043621894 -0.29066727 0.16648589 -0.29823655 -0.019692512 -0.15364979 -0.18331447 -0.13325785
-0.40652987 0.51600224 0.24796134 -0.17052741 -0.18668729 0.024898427 -0.062467594 0.16891809
0.10930496 0.009160118 -0.15465783 -0.31627515 0.053176 0.28019407 -0.23985663 0.04703988
-0.44416687 -0.07979599 -0.047105785 0.11903664 -0.23059927 0.21610272 -0.305021 -0.3020266
0.3350865 0.06990725 0.30099002 -0.1730998 0.001955659 0.17111553 -0.08775903 0.36632475
0.56324506 0.22390665 -0.37499025 -0.043271814 0.38067034 -0.06777857 0.4547918 0.25846383
-0.13022365 0.012720141 -0.58213705 0.13259926 -0.46869794 -0.029120494 0.42233863 -0.0840107
0.3084345 -0.033942815 0.18412621 -0.371038 0.5027792 0.5535996 0.69449145 0.006598558
0.1317922 -0.5432914 0.17553806 0.6142354 0.31130415 0.483587 0.2795121 -0.0665522
0.37533778 0.0347765 0.68455464 -0.1430194 0.6949357 -0.53484404 -0.14482431 -0.15596454
-0.51977944 0.088269696 -0.35858515 0.57359284
00000000: 0253 debc eeb4 0bbd 90e2 6dbd 477f c13e
00000010: b831 8e3c 3f27 80bd 4057 d33e d8f2 653e
00000020: b13c 0b3e 3971 cf3c b4f0 a73e cd1d 053e
00000030: c2f2 17be 8ce3 58be c9c3 013f 88ad 833d
00000040: 6cb4 9a3d 0002 94bd 0288 6dbe 5993 453e
00000050: 30c7 23be b466 6dbe 97d0 dd3e 7b28 06be
00000060: dfac 32bd 57d2 94be 477b 2a3e 76b2 98be
00000070: 3152 a1bc 5f56 1dbe cab6 3bbe bf74 08be
00000080: af24 d0be b918 043f 94e9 7d3e bd9e 2ebe
00000090: f42a 3fbe c9f7 cb3c 05de 7fbd ddf8 2c3e
000000a0: 47db df3d 5214 163c 9f5e 1ebe d1ee a1be
000000b0: 14cf 593d 9975 8f3e fa9c 75be e4ac 403d
000000c0: d769 e3be 146c a3bd fff1 40bd 7bc9 f33d
000000d0: 3722 6cbe 084a 5d3e b62b 9cbe 3ba3 9abe
000000e0: 7590 ab3e 882b 8f3d 5d1b 9a3e 1341 31be
000000f0: 832a 003b e938 2f3e 02bb b3bd eb8e bb3e
00000100: d430 103f c947 653e b9fe bfbe c93d 31bd
00000110: 39e7 c23e 7ecf 8abd 79da e83e 5f55 843e
00000120: 5959 05be 2368 503c ef06 15bf 1ac8 073e
00000130: 2df9 efbe 1a8e eebc c53c d83e cd0d acbd
00000140: 20eb 9d3e 9f07 0bbd 958b 3c3e b1f8 bdbe
00000150: 23b6 003f b4b8 0d3f 31ca 313f b738 d83b
00000160: 89f4 063e 2515 0bbf 40c0 333e 883e 1d3f
00000170: 4263 9f3e b798 f73e 361c 8f3e 854c 88bd
00000180: 462c c03e ce71 0e3d f93e 2f3f ad73 12be
00000190: 4ee7 313f 8aeb 08bf d34c 14be 2bb5 1fbe
000001a0: 4410 05bf bec6 b43d 7998 b7be fbd6 123f

gru_cp_bw.bias_ih_l0 f4 [18]
-0.09232634 0.079199694 0.56129473 -0.108541735 0.116364 0.5247706 -0.4505876 0.58181006
-0.010750686 0.020305973 0.040376883 0.27917892 -0.19737399 0.33906883 0.003758354 0.28566384
0.098525465 -0.09384141
00000000: 9815 bdbd 7333 a23d 03b1 0f3f 214b debd
00000010: 4050 ee3d 5e57 063f 6bb3 e6be 81f1 143f
00000020: a523 30bc b658 a63c 3b62 253d 8af0 8e3e
00000030: 681c 4abe 6e9a ad3e b84e 763b 8842 923e
00000040: b8c7 c93d ed2f c0bd

gru_cp_bw.bias_hh_l0 f4 [18]
-0.07767486 0.22768585 0.6495841 0.38668555 0.5779155 0.04283601 -0.13252312 0.21594252
-0.24458791 0.028643023 -0.2568539 -0.035632286 0.08996566 0.2667978 0.4170948 -0.015480215
0.05406337 -0.009587059
00000000: ff13 9fbd 7b26 693e 254b 263f a6fb c53e
00000010: 45f2 133f d074 2f3d 24b4 07be 0920 5d3e
00000020: 4175 7abe c6a4 ea3c 5b82 83be 29f3 11bd
00000030: ea3f b83d b999 883e 738d d53e baa0 7dbc
00000040: 8d71 5d3d 0a13 1dbc

fc_dp.weight f4 [1, 14]
-0.046057943 0.17939693 -0.16395536 0.13332182 -0.018643731 -0.0986883 0.12732339 0.35097802
0.36165676 -0.3948249 0.36881116 -0.3323904 0.26678994 -0.40141287
00000000: 41a7 3cbd d4b3 373e eae3 27be 8485 083e
00000010: bdba 98bc 171d cabd 1061 023e 64b3 b33e
00000020: 132b b93e 7d26 cabe d1d4 bc3e 132f aabe
00000030: b198 883e fd85 cdbe

fc_cp.weight f4 [1, 12]
-0.018636864 0.17767975 -0.06276612 -0.17771935 -0.13785307 -0.24032074 0.13689102 -0.381044
-0.27072 -0.20380466 -0.25827378 0.3325949
00000000: 56ac 98bc aef1 353e 868b 80bd 10fc 35be
00000010: 5b29 0dbe a416 76be 292d 0c3e 3318 c3be
00000020: d09b 8abe 2bb2 50be 763c 84be e149 aa3e

fc_all.weight f4 [1, 25]
0.008881214 0.013737559 0.101879425 -0.0013522845 0.0034443345 -0.116117515 -0.0075612436 0.3235826
-0.066215746 0.08371786 0.15450907 -0.12525316 0.0037218262 -0.085886605 -0.40791285 -0.061033078
0.015536522 0.00025727824 -0.11506854 0.02630099 -0.072483286 -0.06066812 -0.091910236 -0.2476672
-0.17576829
00000000: 8382 113c 8013 613c 29a6 d03d 233f b1ba
00000010: 58ba 613b 05cf edbd 4fc4 f7bb 9eac a53e
00000020: 1f9c 87bd 4574 ab3d a037 1e3e 5d42 00be
00000030: e2e9 733b 51e5 afbd f4d9 d0be d2fd 79bd
00000040: e58c 7e3c 4de3 8639 0ea9 ebbd 2c75 d73c
00000050: 1e72 94bd 227f 78bd 6f3b bcbd 789c 7dbe
00000060: 9afc 33be
