ablation1_min_count/min_count_250/birnn_concat_time_delta_attention/final_model.pt (torch, 39231 bytes, 27 tensors)

embed_dp.weight f4 [707, 6]
0.0 0.0 0.0 0.0 0.0 0.0 0.83818537 0.57509756
0.16520147 -1.316763 -1.1779494 -0.36067724 0.2616576 0.8555604 0.768812 0.57177824
0.75615734 -1.0301852 -0.012887431 -0.31085068 -0.18787774 -0.42568552 0.05034822 -0.9340015
-1.5751786 -1.0570773 -0.5832186 -1.5237248 0.0844767 0.2561532 -0.9702812 0.018244887
0.5614087 1.2019005 0.7608478 0.21477325 1.2546293 -0.72402 -2.3286414 0.25103343
-0.10147484 0.4937611 0.765993 0.8750614 0.582378 0.5076084 -0.7293057 -0.35133964
1.0348328 -0.29055813 -0.38941085 -1.0353888 0.5336438 0.7571569 0.082517676 1.2959534
1.3058045 1.4351432 1.8811257 1.1457268 1.3368564 1.0415174 0.88801986 1.2301501
1.6205652 -0.41191366 1.8014045 0.9832849 0.22968644 -1.2146472 -0.38979933 0.3751806
-1.6825236 -0.7562387 0.40315184 -0.49928164 -0.15906033 -0.2028629 0.88145274 0.40715748
-0.15785854 -0.79809725 0.43737468 0.070136346 0.88967836 1.4358252 0.43928543 2.2290065
-1.63082 1.281288 -0.23484114 1.054162 0.6256129 -1.0030307 0.005870163 -0.9310423
-1.5106003 -1.5882117 1.7932976 -1.5688307 -0.76158136 0.47817704 -0.6002292 0.37260792
-0.46908712 -2.6301382 -0.23766285 -0.21545169 0.092846625 -0.99793273 -0.38050285 -1.309034
-0.5731163 0.559773 -0.75925624 -1.2129728 -0.86925197 0.33339426 -1.6203883 -1.4155331
-0.77661425 0.38542342 -0.2931506 0.19935346 0.39918652 0.7221152 1.5075049 -0.8174633
-0.75418574 1.5843111 -1.0369405 0.057411205 -0.9794796 0.38578746 0.34653598 -0.57837
0.12964073 1.6879041 -1.9164765 1.0827398 0.00856316 -0.27557734 0.47446328 0.42036778
-0.45298412 0.47291693 1.017921 -0.58391565 0.06138073 0.08815518 -1.1708187 0.43161413
1.6630445 -0.09661487 0.12505522 0.3983444 -0.014436669 1.1716123 0.5811402 -0.39942697
0.9258575 0.4532713 -0.6754351 0.36503872 2.0172234 -0.51539147 -0.7562353 -1.0787413
0.7024695 1.6027524 1.2307614 0.60708123 0.058566686 -0.43510565 -1.0969158 1.5694807
0.27569416 -0.13419887 -0.40217593 0.57503617 1.5014143 -0.61580586 -0.44981596 -1.8648497
-0.118698195 -0.19359247 -0.14739154 0.40017644 -0.48076016 -0.7493333 0.3155881 1.8002973
-1.093579 0.30182463 -0.21667884 -2.769267 -0.5584423 1.5721381 3.149673 0.62148446
0.6456374 1.7732245 -1.4387196 1.1595827 -0.42958346 -0.24735875 -0.34453446 0.38087487
1.2167044 1.4947814 0.6999783 -0.9987034 -0.45459273 -0.13712414 0.68734384 -0.010816689
0.43568423 0.084867895 0.5385201 -0.39590585 -0.1160314 -1.3932952 -0.33610302 -1.3012004
-1.01189 0.24229534 0.68563074 -0.09997731 0.354247 0.50960636 0.95213187 0.8027032
0.5202807 -0.10264805 0.39548093 1.3782436 -0.7265552 -0.32336375 0.4593193 0.5480549
-0.46606532 -1.2239597 -0.9120275 0.19628184 0.3285183 1.8312032 -0.6370846 -0.089171916
-1.3415406 0.36041635 0.44695684 -0.6796236 -0.58034617 -0.21410643 -1.1268809 -0.6760586
00000000: 0000 0000 0000 0000 0000 0000 0000 0000
00000010: 0000 0000 0000 0000 5193 563f 9839 133f
00000020: 932a 293e b18b a8bf 0cc7 96bf b0aa b8be
00000030: fcf7 853e 0206 5b3f ddd0 443f 0f60 123f
00000040: 8793 413f 1cdd 83bf ce25 53bc d227 9fbe
00000050: 0663 40be 74f3 d9be ef39 4e3d b91a 6fbf
00000060: 749f c9bf 4f4e 87bf d04d 15bf 6a09 c3bf
00000070: 1f02 ad3d 8326 833e 5964 78bf 4d76 953c
00000080: 7bb8 0f3f e0d7 993f ecc6 423f 85ed 5b3e
00000090: b197 a03f 6059 39bf 7608 15c0 7487 803e
000000a0: 0ad2 cfbd 41ce fc3e 1e18 443f 0604 603f
000000b0: b916 153f a0f2 013f c7b3 3abf cae2 b3be
000000c0: 6775 843f 09c4 94be dc60 c7be 9f87 84bf
000000d0: e19c 083f 09d5 413f 07ff a83d cde1 a53f
000000e0: 9a24 a73f c6b2 b73f bac8 f03f 2da7 923f
000000f0: 1c1e ab3f 7150 853f 4555 633f 8f75 9d3f
00000100: ae6e cf3f 59e6 d2be 6c94 e63f 8fb8 7b3f
00000110: ec32 6b3e 8f79 9bbf c793 c7be ac17 c03e
00000120: ef5c d7bf dc98 41bf eb69 ce3e d8a1 ffbe
00000130: b6e0 22be 4bbb 4fbe e3a6 613f f276 d03e
00000140: aba5 21be 1a50 4cbf 93ef df3e a5a3 8f3d
00000150: f6c1 633f 1fc9 b73f 05ea e03e 0ba8 0e40
00000160: b6be d0bf 3f01 a43f 327a 70be c8ee 863f
00000170: 2b28 203f 4f63 80bf 7f5a c03b ca58 6ebf
00000180: 5a5b c1bf 854a cbbf c78a e53f 72cf c8bf
00000190: fff6 42bf 9fd3 f43e 9fa8 19bf 77c6 be3e
000001a0: 302c f0be 2f54 28c0 e45d 73be 5e9f 5cbe
000001b0: 5f26 be3d 8578 7fbf 45d1 c2be 6d8e a7bf
000001c0: c0b7 12bf 494d 0f3f 9e5e 42bf b142 9bbf
000001d0: 4c87 5ebf a7b2 aa3e e268 cfbf 3030 b5bf
000001e0: 31d0 46bf 3856 c53e d617 96be 5023 4c3e
000001f0: 2d62 cc3e 8bdc 383f ecf5 c03f 4645 51bf
00000200: 5112 41bf b5ca ca3f 77ba 84bf 0328 6b3d
00000210: 2dbf 7abf ef85 c53e 2a6d b13e 0e10 14bf
00000220: 8ac0 043e 3e0d d83f 1a4f f5bf 3897 8a3f
00000230: 7f4c 0c3c 7918 8dbe daec f23e 723a d73e
00000240: 89ed e7be 2b22 f23e 3c4b 823f 7f7b 15bf
00000250: 5c6a 7b3d b48a b43d 63dd 95bf 87fc dc3e
00000260: a4de d43f 04de c5bd 7a0e 003e ccf3 cb3e
00000270: c787 6cbc 64f7 953f 9bc5 143f b181 ccbe
00000280: ff04 6d3f 2d13 e83e 51e9 2cbf 5be6 ba3e
00000290: 301a 0140 b2f0 03bf a398 41bf 3214 8abf
000002a0: 0bd5 333f fe26 cd3f 9789 9d3f ad69 1b3f
000002b0: 9fe3 6f3d 2bc6 debe bd67 8cbf bee4 c83f
000002c0: c927 8d3e 6e6b 09be 01ea cdbe 9235 133f
000002d0: 582e c03f 74a5 1dbf 474e e6be 65b3 eebf
000002e0: 0a18 f3bd 1b3d 46be cfed 16be ede3 cc3e
000002f0: 3226 f6be 4fd4 3fbf c394 a13e 2470 e63f
00000300: 66fa 8bbf c288 9a3e 0fe1 5dbe ac3b 31c0
00000310: 13f6 0ebf d23b c93f 3e94 4940 9b19 1f3f
00000320: 7e48 253f 05f9 e23f f727 b8bf 356d 943f
00000330: 5df2 dbbe 9d4b 7dbe d266 b0be 0802 c33e
00000340: f8bc 9b3f ff54 bf3f c731 333f 07ab 7fbf
00000350: 61c0 e8be 456a 0cbe c4f5 2f3f 7b38 31bc
00000360: 0112 df3e 38cf ad3d 74dc 093f 2cb4 cabe
00000370: dfa1 edbd 7f57 b2bf b215 acbe bc8d a6bf
00000380: 9d85 81bf 451c 783e 7f85 2f3f e7c0 ccbd
00000390: dd5f b53e 9075 023f eabe 733f f57d 4d3f
000003a0: 1e31 053f 2439 d2bd 7a7c ca3e 496a b03f
000003b0: 86ff 39bf ef8f a5be e62b eb3e 534d 0c3f
000003c0: 1da0 eebe b6aa 9cbf a27a 69bf 1bfe 483e
000003d0: 8d33 a83e de64 ea3f fa17 23bf c49f b6bd
000003e0: 9ab7 abbf 7e88 b83e 87d7 e43e d0fb 2dbf
000003f0: 9191 14bf b73e 5bbe a23d 90bf 2d12 2dbf

embed_cp.weight f4 [457, 5]
0.0 0.0 0.0 0.0 0.0 -0.33454877 0.55462897 1.255777
1.1103985 -0.46845812 0.7028764 1.0686275 0.785253 -0.23003373 0.90965384 1.4138565
-2.0497942 -0.34235984 -1.1305468 -0.79387814 -0.7486604 2.0541372 -0.3571422 -0.77707773
0.8564794 1.0959499 0.3125949 1.0262594 0.16448821 0.5255944 0.9153197 0.11704421
-1.3318753 0.1786257 1.0363964 1.011554 0.5847744 0.9316487 -1.6860858 -0.9520508
1.043249 -2.0084903 -0.08833116 1.3347301 1.3591741 1.0713326 0.32592013 -0.46735486
1.3231118 0.100162566 1.8937432 0.7191951 0.59617805 -0.36183023 -0.09667559 -0.22211425
-0.2791031 0.63499665 -1.2528834 0.4066977 -0.54585916 0.627998 -0.5907651 -0.44318375
-0.021994784 -1.6727586 0.3006251 0.26549712 -0.009366451 0.05014122 0.2325592 0.95676625
0.33303484 0.02245988 0.9133743 2.4234977 -1.3099974 -0.17083965 0.08380024 0.5564338
-0.1870425 -0.5950246 -0.81623715 0.66026616 1.4460726 -0.29628035 0.0102134 0.33252072
-0.010507728 0.093196996 -0.7002598 -0.5868157 0.48471627 -1.5954138 -0.37620857 -0.34311616
-0.123910844 -0.23130126 0.1855168 -1.2229217 -0.10323058 0.4381188 -0.3532044 -0.07422499
-1.192726 0.42769724 -0.5319688 0.57174546 0.49941918 1.2176085 -1.5095304 0.1487043
0.6222014 0.5684742 0.73932403 -0.6761837 -0.1843222 -0.0951194 -0.57920206 1.7479411
0.5892987 0.4998469 0.411997 0.2701987 -1.9403597 -0.6858634 1.6524475 0.9354241
-0.9478976 -0.32304478 1.9218272 -0.81687057 0.55227214 0.33912978 0.22576837 0.4423419
-0.8729905 -2.1710598 1.6924022 0.20285246 0.55049694 -0.28560406 -0.7934466 -0.59566677
1.3592932 0.28561214 0.8559035 -0.68177605 -0.3631602 -1.1285933 0.19076324 -1.2147834
-0.28021088 0.27952695 0.21126264 0.28684142 1.1208419 -1.4883299 -0.72366434 -0.1487288
0.73742026 0.26947233 -0.8126657 0.99022025 1.0555028 0.5558555 -0.61105746 0.6671267
0.48881802 -0.011592906 -0.5412265 0.27010012 -0.63788694 1.5457739 1.2355138 0.35980013
-0.58744687 1.1133783 -0.39649945 -1.1631808 -0.62248015 -0.39759645 -0.5700563 -1.0392089
0.6853067 0.5540302 0.59112555 -1.176374 2.0232291 0.14354344 -1.4316305 0.969524
0.52369213 -1.0814942 0.1525373 1.7398219 0.6456097 -0.5381633 0.88030076 -0.05550836
2.6047788 0.99827445 0.16639933 -0.2792004 1.2695012 1.3922898 -0.48913407 0.7468101
-1.4647682 1.3941219 -0.5530659 -0.25560933 -0.92670864 0.33132762 1.5938023 -2.3442264
-1.3851025 -0.017265854 -0.25466678 1.352256 -0.19237375 -1.7272111 0.6251649 0.08249184
0.81226736 0.8456804 0.8513582 -0.18122983 -1.5376804 0.024661643 -1.4386432 -1.6394175
-1.7353612 -1.1430416 0.5235385 -0.41138506 0.32134816 1.614354 0.5601474 -0.37184364
-1.1984645 -0.54871553 -2.1111584 0.4903407 1.6526967 -0.52433854 0.048939675 1.0490084
1.1145768 -1.53974 0.39226884 -0.12388427 0.7074005 -0.56102973 -1.3526713 -0.3645087
00000000: 0000 0000 0000 0000 0000 0000 0000 0000
00000010: 0000 0000 fa49 abbe 2afc 0d3f 4dbd a03f
00000020: 8a21 8e3f bed9 efbe b5ef 333f c9c8 883f
00000030: 5706 493f f68d 6bbe 13df 683f 40f9 b43f
00000040: d42f 03c0 ca49 afbe c2b5 90bf 993b 4bbf
00000050: 35a8 3fbf fc76 0340 58db b6be 91ee 46bf
00000060: 3c42 5b3f 1648 8c3f 700c a03e 785c 833f
00000070: 996f 283e 5b8d 063f 6452 6a3f e0b4 ef3d
00000080: e47a aabf a8e9 363e a3a8 843f 9a7a 813f
00000090: c6b3 153f 8780 6e3f a9d1 d7bf 9ab9 73bf
000000a0: 2f89 853f 1b8b 00c0 f8e6 b4bd 70d8 aa3f
000000b0: 6bf9 ad3f 6d21 893f 01df a63e 2349 efbe
000000c0: ba5b a93f 0822 cd3d 2d66 f23f 2c1d 383f
000000d0: 209f 183f d041 b9be dafd c5bd eb71 63be
000000e0: 9ae6 8ebe 248f 223f 7c5e a0bf ae3a d03e
000000f0: 6dbd 0bbf 7ac4 203f 623c 17bf fbe8 e2be
00000100: 682e b4bc f41c d6bf 88eb 993e 3def 873e
00000110: be75 19bc e160 4d3d 0024 6e3e a2ee 743f
00000120: 8b83 aa3e c8fd b73c e6d2 693f 961a 1b40
00000130: ffad a7bf 97f0 2ebe 769f ab3d 7272 0e3f
00000140: 1288 3fbe 8853 18bf ebf4 50bf 3407 293f
00000150: e818 b93f 0fb2 97be 1b56 273c 2840 aa3e
00000160: 9b28 2cbc 11de be3d 3a44 33bf 8e39 16bf
00000170: bb2c f83e 8536 ccbf 699e c0be ecac afbe
00000180: f8c4 fdbd 3dda 6cbe 1ef8 3d3e b388 9cbf
00000190: 8e6a d3bd 1b51 e03e 35d7 b4be 4603 98bd
000001a0: 3fab 98bf 22fb da3e 1b2f 08bf e95d 123f
000001b0: dfb3 ff3e 98da 9b3f 4b38 c1bf f145 183e
000001c0: 9748 1f3f 8687 113f 5744 3d3f 601a 2dbf
000001d0: f5be 3cbe f6cd c2bd 9646 14bf 89bc df3f
000001e0: 48dc 163f efeb ff3e 45f1 d23e 7c57 8a3e
000001f0: b55d f8bf be94 2fbf 6683 d33f f477 6f3f
00000200: 6ba9 72bf 2066 a5be 6ffe f53f 6e1e 51bf
00000210: b561 0d3f 6ba2 ad3e d32f 673e a37a e23e
00000220: 4e7c 5fbf a5f2 0ac0 a3a0 d83f 8eb8 4f3e
00000230: 5eed 0c3f b23a 92be 511f 4bbf 9e7d 18bf
00000240: 52fd ad3f c13b 923e 7e1c 5b3f e088 2ebf
00000250: 22f0 b9be bf75 90bf 7057 433e 067e 9bbf
00000260: cd77 8fbe 281e 8f3e 3c55 583e e1dc 923e
00000270: bf77 8f3f 9881 bebf 1142 39bf 5d4c 18be
00000280: 93c7 3c3f 47f8 893e dc0a 50bf 137f 7d3f
00000290: b71a 873f 8c4c 0e3f 436e 1cbf d1c8 2a3f
000002a0: 5b46 fa3e 2cf0 3dbc d28d 0abf 904a 8a3e
000002b0: 8f4c 23bf ebdb c53f 5125 9e3f b937 b83e
000002c0: eb62 16bf 2e83 8e3f fa01 cbbe 1ce3 94bf
000002d0: dc5a 1fbf c391 cbbe 36ef 11bf cc04 85bf
000002e0: 4370 2f3f ecd4 0d3f 0154 173f 6c93 96bf
000002f0: 967c 0140 0dfd 123e ab3f b7bf ba32 783f
00000300: b010 063f 676e 8abf bd32 1c3e 7cb2 de3f
00000310: ad46 253f 12c5 09bf 645b 613f bc5c 63bd
00000320: b2b4 2640 ea8e 7f3f 9664 2a3e 5bf3 8ebe
00000330: 047f a23f 8d36 b23f c86f fabe f22e 3f3f
00000340: 867d bbbf 9672 b23f ba95 0dbf 3adf 82be
00000350: c73c 6dbf c6a3 a93e b701 cc3f ce07 16c0
00000360: 0a4b b1bf 1f71 8dbc af63 82be b916 ad3f
00000370: a0fd 44be 4115 ddbf cf0a 203f 7bf1 a83d
00000380: c1f0 4f3f 837e 583f 9cf2 593f 5094 39be
00000390: b6d2 c4bf 3707 ca3c 7625 b8bf 6fd8 d1bf
000003a0: 5120 debf 304f 92bf 9e06 063f 10a1 d2be
000003b0: bf87 a43e 27a3 ce3f d265 0f3f 4a62 bebe
000003c0: 4967 99bf 9f78 0cbf 381d 07c0 f00d fb3e
000003d0: 918b d33f 0d3b 06bf f874 483d e845 863f
000003e0: 74aa 8e3f 3316 c5bf 76d7 c83e 09b7 fdbd
000003f0: 3318 353f a59f 0fbf 5524 adbf e2a0 babe

gru_dp_fw.weight_ih_l0 f4 [21, 7]
-0.14543001 -0.17254362 -0.2154215 -0.14010717 -0.31983405 0.07742373 0.1793982 -0.0401154
0.21700247 0.0635162 0.058374736 0.083698675 0.0722488 -0.135221 -0.33950436 0.18281102
0.3295805 -0.1058564 -0.18070613 -0.07657256 -0.41638988 0.036097463 -0.040001485 0.006881958
-0.37677205 0.09484801 -0.44881055 -0.09265497 0.26844463 -0.22319454 0.12386905 0.22275507
-0.07459063 -0.16916585 -0.06457831 0.13798574 0.16954434 -0.26408264 0.0867604 -0.2990439
-0.061095517 0.34903237 -0.2104646 0.34038743 -0.37304205 0.36830834 0.13002634 -0.25000733
-0.40556502 -0.24933618 0.06911692 0.278909 0.1273339 0.115204245 -0.15978135 0.16077651
-0.30401772 -0.3799554 -0.13411325 -0.072044246 -0.051254418 0.41437286 0.12951879 0.48408344
0.067487985 -0.35044396 0.057966217 0.2746311 -0.08481451 0.27347517 0.2785874 0.25684527
0.04590636 0.20323724 -0.32701927 -0.12610929 0.46685344 -0.029859668 0.3045406 -0.12112615
-0.34213442 0.08656058 -0.1442931 -0.35005257 -0.34099045 -0.2921476 0.07061468 0.077093475
-0.2944028 0.23230852 -0.21961461 0.5106105 0.20070088 0.17523067 -0.17230345 0.19418561
0.21166755 -0.18095295 0.14907585 0.38223684 0.02830183 -0.0046333936 -0.0133701945 -0.188693
-0.32055834 0.22902545 -0.31950578 0.0780802 0.41393426 -0.26273185 -0.15150203 -0.116878174
0.15098017 0.13006756 -0.15901482 0.14298768 -0.19547077 0.047767244 0.41904148 -0.23053242
-0.08678999 0.218209 0.1989353 0.22397369 -0.31069428 -0.18638544 0.22840765 0.13816242
-0.22146477 -0.0049127056 0.25387302 0.12205021 -0.7243017 -0.20736001 0.08079469 0.12058196
-0.07200132 -0.06266643 0.12901513 0.24076055 0.42683974 0.00080216804 -0.20892797 0.08155631
0.07499732 0.045182776 -0.13561817
00000000: 9beb 14be 46af 30be 7497 5cbe 4178 0fbe
00000010: 4ac1 a3be 5590 9e3d 29b4 373e 0c50 24bd
00000020: e535 5e3e c814 823d 591a 6f3d 366a ab3d
00000030: 2ef7 933d 6077 0abe 84d3 adbe d032 3b3e
00000040: c6be a83e 3ecb d8bd 070b 39be 13d2 9cbd
00000050: 0e31 d5be efda 133d 99d8 23bd 0c82 e13b
00000060: 44e8 c0be ac3f c23d 7fca e5be e4c1 bdbd
00000070: 9371 893e 1c8d 64be 0eaf fd3d e819 643e
00000080: f9c2 98bd d039 2dbe a241 84bd 224c 0d3e
00000090: 089d 2d3e d735 87be 70af b13d 481c 99be
000000a0: 4b3f 7abd 5fb4 b23e 0884 57be 4347 ae3e
000000b0: 5eff bebe e992 bc3e a025 053e f600 80be
000000c0: 38a6 cfbe fc51 7fbe 2c8d 8d3d 29cd 8e3e
000000d0: d163 023e 34f0 eb3d b99d 23be 99a2 243e
000000e0: 36a8 9bbe 8489 c2be fc54 09be ef8b 93bd
000000f0: 27f0 51bd ae28 d43e 93a0 043e c9d9 f73e
00000100: 2437 8a3d 646d b3be fc6d 6d3d 739c 8c3e
00000110: 3bb3 adbd f004 8c3e 02a3 8e3e 3981 833e
00000120: 4f08 3c3d 6c1d 503e 126f a7be cb22 01be
00000130: 6a07 ef3e 439c f4bc bfec 9b3e fd10 f8bd
00000140: 3e2c afbe ac46 b13d 92c1 13be 173a b3be
00000150: 4d96 aebe 5f94 95be 6e9e 903d 2fe3 9d3d
00000160: f7bb 96be 49e2 6d3e a7e2 60be 5fb7 023f
00000170: 8884 4d3e ab6f 333e 5170 30be 98d8 463e
00000180: 61bf 583e bb4b 39be 57a7 183e 8cb4 c33e
00000190: 3dd9 e73c b9d3 97bb a90e 5bbc bd38 41be
000001a0: 3920 a4be a685 6a3e 4396 a3be 83e8 9f3d
000001b0: 31ef d33e ca84 86be 5923 1bbe d35d efbd
000001c0: 8c9a 1a3e 6e30 053e c8d4 22be 5d6b 123e
000001d0: 7d29 48be 96a7 433d 9b8c d63e b110 6cbe
000001e0: f3be b1bd 2e72 5f3e b2b5 4b3e 5c59 653e
000001f0: 5213 9fbe d3db 3ebe b2e3 693e 737a 0d3e
00000200: a9c7 62be c3fa a0bb a5fb 813e 76f5 f93d
00000210: d66b 39bf 2f56 54be b077 a53d adf3 f63d
00000220: 6e75 93bd 4257 80bd 8b1c 043e ef89 763e
00000230: bd8a da3e 9648 523a 37f1 55be ff06 a73d
00000240: 3298 993d 9311 393d 7ddf 0abe

gru_dp_fw.weight_hh_l0 f4 [21, 7]
0.33080864 0.25609997 -0.23821123 -0.14588466 0.22874254 0.36766896 0.048396435 0.26353428
-0.21462768 -0.311022 0.4252136 0.17587365 -0.41959783 -0.15383406 0.19735484 -0.017970271
0.24636918 0.002720089 0.31706086 0.008691927 -0.49356887 0.21188353 -0.04800237 -0.0062528406
0.4592803 0.52312243 -0.37071642 -0.55954874 0.4104757 -0.5913787 -0.57514995 0.54530936
0.5123082 -0.30976915 -0.5220524 0.13518675 0.2155113 -0.06266535 0.15951751 -0.5447158
0.046562657 0.45778805 0.05011705 -0.277972 -0.49219817 0.1411466 0.13883898 -0.42638502
-0.41491205 0.08782 0.27135953 0.17880717 0.253594 -0.2567818 -0.20861913 0.13454159
-0.41312182 0.1540926 0.30057138 -0.023476208 -0.303391 0.095603466 0.07240826 -0.27419627
-0.18086897 -0.50925016 0.4210083 -0.011930674 -0.107573405 -0.3612859 -0.049650326 0.1511031
-0.29295996 0.5252139 -0.21317726 -0.07673662 -0.52492267 0.4837762 0.2395067 -0.1529554
-0.66445893 0.3098892 -0.03812652 0.2115313 -0.14236279 0.31948552 0.28690606 -0.22014065
-0.14136003 -0.33154243 -0.27437872 -0.1371443 -0.33356103 0.07440474 -0.279592 -0.14881115
0.4505294 0.09859463 -0.12596548 -0.5167903 -0.22446615 0.6464139 0.10594753 -0.2714729
0.016758453 -0.3668151 0.42252317 0.56923205 -0.13323615 -0.40455344 -0.02584397 0.47024742
-0.12649944 0.20818655 0.13577548 -0.50919545 -0.19724393 0.18284222 0.42014137 0.5427082
-0.25691774 -0.0813263 0.19052264 0.120627776 -0.57573026 -0.18536273 -0.13460484 -0.32452714
-0.28426376 0.30548593 0.2661802 -0.41048393 -0.12569235 -0.04884173 -0.042295467 -0.1535711
-0.19271846 0.09062445 0.041203547 -0.11794418 -0.012987646 -0.1647123 0.051571418 -0.6870797
0.07710828 0.3922766 0.10147418
00000000: c05f a93e 891f 833e a5ed 73be ca62 15be
00000010: 7c3b 6a3e 1b3f bc3e 573b 463d f7ed 863e
00000020: 5cc7 5bbe 473e 9fbe 99b5 d93e 3918 343e
00000030: 87d5 d6be ad86 1dbe 6317 4a3e 6436 93bc
00000040: 3448 7c3e 8543 323b cd55 a23e 9668 0e3c
00000050: 0fb5 fcbe fff7 583e 229e 44bd a1e4 ccbb
00000060: ca26 eb3e 5aeb 053f 8bce bdbe 963e 0fbf
00000070: df29 d23e 9864 17bf 073d 13bf 6599 0b3f
00000080: a126 033f 109a 9ebe 3aa5 05bf 656e 0a3e
00000090: ffae 5c3e b156 80bd 8f58 233e 7f72 0bbf
000000a0: 7cb8 3e3d 3263 ea3e 8947 4d3d 5952 8ebe
000000b0: 6601 fcbe bc88 103e ce2b 0e3e 234f dabe
000000c0: 5a6f d4be f9da b33d a3ef 8a3e 3a19 373e
000000d0: 13d7 813e e778 83be 41a0 55be 45c5 093e
000000e0: b484 d3be 73ca 1d3e 7ee4 993e 2d51 c0bc
000000f0: 1156 9bbe c0cb c33d c84a 943d 7463 8cbe
00000100: b735 39be 385e 02bf 668e d73e e078 43bc
00000110: 724f dcbd 77fa b8be 245e 4bbd c5ba 1a3e
00000120: d9fe 95be 6b74 063f 244b 5abe 1728 9dbd
00000130: 5561 06bf 84b1 f73e 3f41 753e 57a0 1cbe
00000140: fb19 2abf cca9 9e3e 8e2a 1cbd a99b 583e
00000150: 8dc7 11be 9b93 a33e 5ae5 923e 8d6c 61be
00000160: afc0 10be eebf a9be 5e7b 8cbe 8e6f 0cbe
00000170: 83c8 aabe 8361 983d af26 8fbe f361 18be
00000180: caab e63e fbeb c93d 18fd 00be 5e4c 04bf
00000190: 74da 65be 627b 253f 05fb d83d 7ffe 8abe
000001a0: 0649 893c 30cf bbbe f554 d83e 31b9 113f
000001b0: 0f6f 08be a121 cfbe bcb6 d3bc 45c4 f03e
000001c0: 1289 01be db2e 553e ba08 0b3e a25a 02bf
000001d0: 50fa 49be fe3a 3b3e c51c d73e edee 0a3f
000001e0: b98a 83be 678e a6bd 5e18 433e b20b f73d
000001f0: 0f63 13bf bacf 3dbe dad5 09be 6c28 a6be
00000200: 058b 91be a768 9c3e c548 883e f32a d2be
00000210: 7fb5 00be 440e 48bd 033e 2dbd be41 1dbe
00000220: fd57 45be 5099 b93d 0dc5 283d b88c f1bd
00000230: 23ca 54bc 57aa 28be 8d3c 533d 75e4 2fbf
00000240: f2ea 9d3d 7ad8 c83e b2d1 cf3d

gru_dp_fw.bias_ih_l0 f4 [21]
-0.12177271 0.66548353 0.5786984 0.46275467 0.46930903 -0.23905152 0.088011794 0.19834481
0.24701923 0.2918685 0.072266795 0.45857957 0.058930844 0.08527809 0.34344488 0.053227413
0.19239457 0.28953877 0.40726233 -0.075044915 -0.49480197
00000000: f863 f9bd 215d 2a3f 9425 143f 2eee ec3e
00000010: 4649 f03e ecc9 74be 873f b43d e71a 4b3e
00000020: 9cf2 7c3e ca6f 953e 9d00 943d f1ca ea3e
00000030: 7861 713d 47a6 ae3d 02d8 af3e fd04 5a3d
00000040: 1503 453e 6d3e 943e b084 d03e 26b1 99bd
00000050: af56 fdbe

gru_dp_fw.bias_hh_l0 f4 [21]
-0.057554446 0.5001786 0.58286357 0.3159441 -0.19334824 -0.17325969 0.15389813 0.32386798
-0.37168315 -0.027117593 0.13086748 -0.10249893 -0.016271697 0.41437614 -0.41958326 0.3806814
0.22382838 0.26388144 0.22786298 -0.19406947 -0.450141
00000000: 36be 6bbd b40b 003f 8c36 153f 6dc3 a13e
00000010: 15fd 45be fd6a 31be 7997 1d3e 06d2 a53e
00000020: 414d bebe b725 debc 2002 063e f6ea d1bd
00000030: 394c 85bc 1c29 d43e 9ed3 d6be ace8 c23e
00000040: 4433 653e 781b 873e ea54 693e 26ba 46be
00000050: e278 e6be

gru_cp_fw.weight_ih_l0 f4 [18, 6]
0.072110206 -0.1538305 -0.26845205 -0.32582864 0.26990494 0.01586837 0.19042411 0.44614395
-0.33648622 0.409816 -0.2902923 0.10269944 0.44599974 -0.11854615 -0.22379851 0.36011833
0.5128631 0.38372362 -0.3349798 0.32705316 -0.4016211 -0.40231538 -0.25313967 0.37097526
-0.5351063 -0.14722297 0.18534797 0.029999562 -0.2467462 -0.11999155 0.2028501 0.11339646
-0.12282724 0.18478484 -0.42146072 0.10489586 -0.52747124 -0.25765565 -0.23849583 0.06675036
-0.16170675 -0.21125726 -0.07691185 0.0021818834 0.12022414 -0.34901813 0.0047116573 0.30751556
-0.114547834 0.39974186 -0.48247418 0.20223093 -0.0893417 0.0017237368 -0.13525824 0.13930245
0.29254976 0.36765748 0.00089684053 -0.42815787 0.2285826 -0.36041707 0.33256248 0.19586413
0.011813151 -0.17904754 -0.40023276 0.047868066 -0.10419125 0.39817238 -0.16489145 0.19902444
-0.27631152 0.058094278 -0.040336728 0.26671806 -0.61827666 -0.02485797 0.22897254 -0.04999748
-0.3113933 0.056951497 0.5402092 -0.14449373 0.0032129313 0.68710977 0.37360075 -0.0048023
-0.01599847 0.11432978 -0.12301108 0.058033668 -0.26374578 0.09977933 -0.3877489 -0.15438385
-0.04251257 0.10926869 0.04257785 0.21914513 0.15225935 -0.14747308 -0.34914902 0.40759456
-0.26347965 -0.35673726 -0.43333852 -0.18199134
00000000: 84ae 933d be85 1dbe 8c72 89be 03d3 a6be
00000010: fb30 8a3e 62fe 813c 8afe 423e fb6c e43e
00000020: ec47 acbe 67d3 d13e 31a1 94be 1654 d23d
00000030: 145a e43e 53c8 f2bd 702b 65be 6e61 b83e
00000040: ff4a 033f 6c77 c43e 7982 abbe 8373 a73e
00000050: 48a1 cdbe 48fc cdbe 869b 81be 78f0 bd3e
00000060: bafc 08bf 9ec1 16be dccb 3d3e a4c1 f53c
00000070: 09ab 7cbe 21be f5bd f0b7 4f3e 673c e83d
00000080: d98c fbbd 3d38 3d3e b3c9 d7be a4d3 d63d
00000090: 5b08 07bf 71eb 83be 4038 74be 6ab4 883d
000000a0: 7496 25be d353 58be f683 9dbd eefd 0e3b
000000b0: 1338 f63d 81b2 b2be 3f64 9a3b ae72 9d3e
000000c0: 0e98 eabd f7aa cc3e db06 f7be a015 4f3e
000000d0: c8f8 b6bd 02ef e13a 2381 0abe 4da5 0e3e
000000e0: 15c9 953e 9a3d bc3e f319 6b3a 8237 dbbe
000000f0: 8f11 6a3e 9688 b8be a145 aa3e 9b90 483e
00000100: f28b 413c 3d58 37be 4feb ccbe 4e11 443d
00000110: 3962 d5bd 40dd cb3e 4ed9 28be 10cd 4b3e
00000120: b478 8dbe 44f4 6d3d 2038 25bd 458f 883e
00000130: 6147 1ebf f1a2 cbbc c777 6a3e 28ca 4cbd
00000140: f16e 9fbe f945 693d 264b 0a3f 2af6 13be
00000150: 0b90 523b 6de6 2f3f 9948 bf3e 9d5c 9dbb
00000160: 390f 83bc bb25 ea3d 3ced fbbd b6b4 6d3d
00000170: b009 87be 1b59 cc3d 0687 c6be cd16 1ebe
00000180: a921 2ebd 43c8 df3d 1d66 2e3d 9567 603e
00000190: e0e9 1b3e 2f03 17be a9c3 b2be 3cb0 d03e
000001a0: cee6 86be 44a6 b6be 8cde ddbe f05b 3abe

gru_cp_fw.weight_hh_l0 f4 [18, 6]
-0.004745537 0.32427174 0.13058642 0.002984079 -0.1821566 0.012867266 -0.2655079 0.0025402773
0.28554636 -0.4994244 0.070968464 0.033944502 -0.1496213 0.12129264 0.013933136 -0.31537205
-0.16409163 -0.5699241 0.19817652 -0.122894876 0.35711265 -0.09753151 -0.032864742 0.24528548
0.08311055 -0.21881036 -0.31606367 -0.46327424 -0.3075898 -0.33120427 0.22687401 -0.48391452
0.4017849 0.02704536 -0.19418827 -0.10989262 0.1666822 0.4422408 -0.17304738 -0.26654568
0.042370133 -0.41114274 -0.35807142 -0.17185713 -0.52836514 0.07425924 0.22466694 -0.056559674
0.4923556 0.056265328 0.2736583 0.11862815 0.005958597 0.09270832 0.03119923 -0.004902395
-0.56938964 0.17136617 -0.16592829 -0.30944744 0.061887242 0.010975451 -0.34661415 -0.19780402
0.13147338 -0.21609071 -0.3961011 0.24270424 -0.39511707 -0.16583483 -0.3373455 0.32042265
-0.023257993 -0.04018299 -0.11896189 0.17417315 0.29765102 0.62354934 -0.4310404 0.37799913
0.029345207 -0.29816982 0.4113427 -0.4343414 -0.10463684 -0.34019485 0.19553253 0.28838465
0.051694658 0.36754414 0.0024911796 -0.07200315 -0.19454505 0.10070021 0.1477694 0.79345894
-0.5357877 0.3629374 -0.27488926 -0.32591105 -0.13767847 -0.08311543 0.086785585 -0.12610473
0.43884417 -0.28024423 -0.32799652 0.2076898
00000000: 7380 9bbb f206 a63e 72b8 053e 8a90 433b
00000010: 4287 3abe 3ad1 523c a7f0 87be c87a 263b
00000020: 2233 923e 8eb4 ffbe ea57 913d 6409 0b3d
00000030: 5336 19be 4768 f83d cf47 643c 7278 a1be
00000040: a307 28be 8ce6 11bf c9ee 4a3e 4fb0 fbbd
00000050: 78d7 b63e 9abe c7bd 2e9d 06bd 1e2c 7b3e
00000060: dd35 aa3d d30f 60be 19d3 a1be 4832 edbe
00000070: 697c 9dbe 9b93 a9be a951 683e a5c3 f7be
00000080: c0b6 cd3e 3b8e dd3c 4ad9 46be 620f e1bd
00000090: bdae 2a3e 636d e23e 5533 31be ad78 88be
000000a0: 4e8c 2d3d 4d81 d2be 2355 b7be 51fb 2fbe
000000b0: f042 07bf 3a15 983d 170f 663e 1eab 67bd
000000c0: 0916 fc3e 7976 663d f11c 8c3e 51f3 f23d
000000d0: 5640 c33b dcdd bd3d 8795 ff3c 45a4 a0bb
000000e0: 85c3 11bf 9d7a 2f3e 1be9 29be e56f 9ebe
000000f0: 7a7d 7d3d 61d2 333c 6977 b1be 238d 4abe
00000100: f5a0 063e e246 5dbe c3cd cabe 7687 783e
00000110: c94c cabe 9bd0 29be 8db8 acbe 700e a43e
00000120: 8c87 bebc eb96 24bd 4ba2 f3bd 725a 323e
00000130: b765 983e eea0 1f3f 54b1 dcbe 1a89 c13e
00000140: 5c65 f03c b7a9 98be 839b d23e ff61 debe
00000150: d74b d6bd 052e aebe ae39 483e 27a7 933e
00000160: c7bd 533d bf2e bc3e 0f43 233b 6376 93bd
00000170: d136 47be e93b ce3d dd50 173e 2020 4b3f
00000180: 6229 09bf eed2 b93e 49be 8cbe d0dd a6be
00000190: 96fb 0cbe 6c38 aabd a4bc b13d 9921 01be
000001a0: 2fb0 e03e 2c7c 8fbe 29ef a7be a3ac 543e

gru_cp_fw.bias_ih_l0 f4 [18]
-0.15740411 0.53678507 -0.067284256 0.056831144 -0.06401118 0.23124063 0.055943105 0.31857362
-0.1407076 0.19500633 0.019073253 0.19411454 0.1240442 0.25473827 0.0024758766 -0.319268
-0.31193343 -0.021790538
00000000: 8b2e 21be bf6a 093f 54cc 89bd c6c7 683d
00000010: 4b18 83bd 58ca 6c3e 9924 653d 151c a33e
00000020: a715 10be bdaf 473e 833f 9c3c f6c5 463e
00000030: e30a fe3d 0e6d 823e 5142 223b 1877 a3be
00000040: bdb5 9fbe 1282 b2bc

gru_cp_fw.bias_hh_l0 f4 [18]
0.336197 0.44856918 -0.013743063 0.41923052 -0.11634486 0.30988535 0.26644397 0.093305394
0.4727804 0.27450153 -0.00680311 -0.12069432 -0.32441548 -0.27451822 -0.20461538 0.021621719
-0.009719171 0.062326446
00000000: 0322 ac3e dcaa e53e 962a 61bc 62a5 d63e
00000010: 3746 eebd 4ba9 9e3e 586b 883e e616 bf3d
00000020: 4610 f23e 778b 8c3e 9fec debb 952e f7bd
00000030: c919 a6be a78d 8cbe b286 51be 0820 b13c
00000040: 283d 1fbc 044a 7f3d

gru_dp_bw.weight_ih_l0 f4 [21, 7]
-0.3367354 0.039643668 -0.38062263 -0.016732957 0.14885965 -0.24856865 0.1663182 -0.10516761
-0.36051378 -0.533606 -0.18182707 0.057011675 0.24206352 0.7913386 -0.27743286 0.47904196
0.25031424 0.0771986 0.085351035 0.32386804 0.5713667 -0.084743805 -0.12660019 0.118654005
-0.2902759 0.44660234 -0.57713276 0.19892578 0.0629322 -0.12613279 0.01946826 -0.062107023
0.49170586 -0.34140635 0.47424883 0.12910774 -0.1785708 0.19719823 -0.20749179 0.30006108
0.5617535 0.22362515 0.39440128 0.36921886 0.24550359 0.51641893 -0.2107281 -0.4151387
0.5513583 0.10273686 -0.091495536 -0.10286768 -0.012726785 0.08583445 -0.14236422 0.083457045
0.0733751 -0.17574571 -0.11160364 0.17391336 0.30140713 0.023837233 0.17916733 -0.08148042
-0.22119759 -0.22705314 0.3946141 -0.18380046 -0.13781223 0.29526037 0.2040604 -0.07456752
0.31749827 0.023004625 -0.30940542 0.20793368 -0.125959 -0.18285544 0.071040794 0.008998822
-0.17255901 -0.19258538 0.16157562 0.49624515 -0.3009957 -0.011087735 0.21176934 0.10854754
0.14044796 -0.19849917 0.5199727 0.4157666 0.18638423 -0.17342997 -0.3281992 0.06538255
-0.198211 0.3401358 -0.05848731 -0.384427 0.030657716 0.1440888 0.026142731 0.21822628
0.4087972 -0.39139238 -0.048991583 0.062669136 0.3728969 -0.11467895 -0.04798391 0.61293834
-0.30111408 0.10320185 0.4342843 -0.2988661 -0.044079576 0.19898225 -0.29465127 0.0065729762
0.44098794 -0.5165908 -0.06996723 0.39289084 -0.04268969 0.10556447 0.097892486 -0.0043920414
-0.09695649 0.35939407 -0.20760456 -0.04622368 -0.010220069 -0.2939211 -0.26086497 0.09819184
0.4933076 -0.041277047 0.6095506 0.6429875 -0.3552436 -0.10500933 0.35741618 0.42722946
0.1033245 -0.16222237 -0.48550546
00000000: 9568 acbe 6661 223d f8e0 c2be 8e13 89bc
00000010: aa6e 183e c888 7ebe 514f 2a3e 1e62 d7bd
00000020: 4395 b8be 679a 08bf e030 3abe 1385 693d
00000030: 80df 773e 2b95 4a3f ae0b 8ebe fd44 f53e
00000040: 3029 803e 4d1a 9e3d 86cc ae3d 08d2 a53e
00000050: 1745 123f 298e adbd 7ba3 01be df00 f33d
00000060: 0b9f 94be 10a9 e43e f9be 13bf 33b3 4b3e
00000070: 99e2 803d f428 01be e77b 9f3c ef63 7ebd
00000080: dfc0 fb3e d0cc aebe bed0 f23e d234 043e
00000090: 44db 36be 55ee 493e ba78 54be 9ba1 993e
000000a0: 14cf 0f3f fefd 643e f7ee c93e 410a bd3e
000000b0: 4b65 7b3e 0834 043f 1bc9 57be 0f8d d4be
000000c0: d125 0d3f b467 d23d 0362 bbbd 4aac d2bd
000000d0: 0184 50bc f9c9 af3d edc7 11be 87eb aa3d
000000e0: af45 963d aff6 33be 7390 e4bd 5816 323e
000000f0: 0952 9a3e 4d46 c33c a477 373e 35df a6bd
00000100: 9f81 62be 9e80 68be dc0a ca3e 3036 3cbe
00000110: a61e 0dbe 5e2c 973e 36f5 503e dbb6 98bd
00000120: 228f a23e 3274 bc3c 636a 9ebe 91ec 543e
00000130: 65fb 00be 753e 3bbe d67d 913d cc6f 133c
00000140: 4fb3 30be 1a35 45be 1474 253e d813 fe3e
00000150: 1c1c 9abe 55a9 35bc 10da 583e 2c4e de3d
00000160: 97d1 0f3e 5e43 4bbe ee1c 053f 5cdf d43e
00000170: 82db 3e3e a097 31be ba09 a8be 49e7 853d
00000180: d3f7 4abe 4826 ae3e 6490 6fbd 9ed3 c4be
00000190: e425 fb3c 048c 133e 4829 d63c b676 5f3e
000001a0: de4d d13e 9564 c8be 66ab 48bd ad58 803d
000001b0: 58ec be3e ccdc eabd c78a 44bd 87e9 1c3f
000001c0: a02b 9abe 7e5b d33d 835a de3e fa04 99be
000001d0: c98c 34bd 01c2 4b3e 88dc 96be 1f62 d73b
000001e0: 2cc9 e13e 4b3f 04bf fb4a 8fbd fd28 c93e
000001f0: 62db 2ebd 2f32 d83d db7b c83d 1deb 8fbb
00000200: 2091 c6bd 8002 b83e 4a96 54be 0b55 3dbd
00000210: 1472 27bc d47c 96be 1890 85be ce18 c93d
00000220: d092 fc3e 1f12 29bd 820b 1c3f d49a 243f
00000230: 7de2 b5be 220f d7bd 41ff b63e d2bd da3e
00000240: cc9b d33d 9f1d 26be 2c94 f8be

gru_dp_bw.weight_hh_l0 f4 [21, 7]
-0.0351014 0.22056597 -0.637044 0.020808963 0.052974474 0.4317114 -0.052636135 0.47545904
-0.18676911 -0.23149714 -0.045249924 0.1621874 0.028450778 -0.21129613 0.5435312 0.40028384
-0.056302465 -0.31702 0.39030567 0.4368642 -0.64263314 0.0918651 0.3916366 0.08380655
-0.3064324 0.30265328 0.33467254 -0.3475593 -0.15226696 0.47432578 -0.4477304 0.329487
-0.01319271 0.14314122 0.037310064 0.21894357 0.025603237 -0.43890935 -0.3229867 0.17375557
0.503664 -0.23486175 0.0022164932 0.37178576 -0.11404518 -0.36704907 0.37598646 0.34825546
-0.28913206 -0.24088897 0.26469955 0.16873528 -0.090426885 0.32798302 -0.043733865 -0.29100877
-0.16488282 -0.3608137 -0.40729427 -0.29469404 0.46415466 0.29888737 -0.5874156 0.65081275
-0.047734223 0.26832968 -0.35874075 -0.15845977 0.08987943 -0.32450533 0.5257309 0.13397422
-0.7128629 0.3210258 -0.11119388 0.27389827 -0.09317955 0.22052798 0.2897218 0.3091398
-0.37624875 -0.19127697 0.33283895 -0.35631877 0.2433261 0.26139194 -0.28767636 -0.0069401907
0.08969237 -0.26389852 -0.5628158 0.29809096 0.42426747 -0.48810008 -0.4119468 0.6430718
0.31867346 -0.026089804 -0.011491208 -0.050789203 -0.23471501 -0.5538443 0.06969816 0.5851658
-0.4893923 0.021702074 0.29856935 -0.42967537 -0.43213978 0.28469107 0.47194287 -0.439711
-0.2712439 -0.24356754 0.116732866 0.49865136 -0.07997542 -0.16170773 0.31719282 -0.5078937
-0.34617737 0.39751667 0.09281669 0.31242555 0.080500424 0.3885727 0.05266231 0.17985871
-0.027004713 -0.1543669 0.46275336 0.6129457 -0.5576325 0.22753958 0.1504976 -0.15544525
-0.20577283 0.3180391 -0.010185031 -0.79160404 -0.20857586 -0.16456388 0.590537 0.6707461
0.12186653 -0.23085001 0.07227528
00000000: 7cc6 0fbd 0cdc 613e 5115 23bf 8f77 aa3c
00000010: c3fb 583d 4709 dd3e fd98 57bd 5e6f f33e
00000020: 6740 3fbe 960d 6dbe fc57 39bd 7414 263e
00000030: 9b11 e93c 035e 58be dc24 0b3f 01f2 cc3e
00000040: 6a9d 66bd 7250 a2be 25d6 c73e aaac df3e
00000050: 9b83 24bf c523 bc3d 9884 c83e c5a2 ab3d
00000060: b5e4 9cbe 5ff5 9a3e 335a ab3e 4bf3 b1be
00000070: dfeb 1bbe d4da f23e eb3c e5be 85b2 a83e
00000080: 3c26 58bc 9d93 123e 70d2 183d be32 603e
00000090: e1bd d13c bab8 e0be 835e a5be fbec 313e
000000a0: 20f0 003f 997f 70be 9642 113b b45a be3e
000000b0: 8590 e9bd dbed bbbe 4c81 c03e 8a4e b23e
000000c0: 1e09 94be 99ab 76be b386 873e f1c8 2c3e
000000d0: bb31 b9bd 64ed a73e 4822 33bd 1aff 94be
000000e0: 0bd7 28be 93bc b8be e088 d0be 23e2 96be
000000f0: aea5 ed3e c407 993e de60 16bf aa9b 263f
00000100: f684 43bd 8262 893e deac b7be 4743 22be
00000110: b512 b83d 9025 a6be 4d96 063f 8a30 093e
00000120: 2f7e 36bf 7e5d a43e 9eb9 e3bd 653c 8c3e
00000130: ebd4 bebd 16d2 613e 6a56 943e 9247 9e3e
00000140: ada3 c0be 1cde 43be de69 aa3e 6a6f b6be
00000150: 7a2a 793e 2ad5 853e 514a 93be 8a6a e3bb
00000160: a2b0 b73d b51d 87be b214 10bf 619f 983e
00000170: 9639 d93e 41e8 f9be b1ea d2be 5aa0 243f
00000180: 2b29 a33e 49ba d5bc 9f45 3cbc 5708 50bd
00000190: 2259 70be bdc8 0dbf e9bd 8e3d 6dcd 153f
000001a0: a191 fabe 8cc8 b13c 15de 983e 69fe dbbe
000001b0: 6d41 ddbe 07c3 913e 7fa2 f13e cd21 e1be
000001c0: 7be0 8abe c569 79be a411 ef3d 3b4f ff3e
000001d0: 27ca a3bd b696 25be 1967 a23e 5205 02bf
000001e0: 293e b1be 4e87 cb3e ad16 be3d 3ef6 9f3e
000001f0: 68dd a43d 00f3 c63e 6fb4 573d e22c 383e
00000200: fd38 ddbc 5b12 1ebe 02ee ec3e 02ea 1c3f
00000210: 01c1 0ebf 2300 693e 0b1c 1a3e 0a2d 1fbe
00000220: 1db6 52be 05d6 a23e 1edf 26bc 90a6 4abf
00000230: e994 55be 6f83 28be 6f2d 173f 04b6 2b3f
00000240: 2995 f93d f263 6cbe 1005 943d

gru_dp_bw.bias_ih_l0 f4 [21]
0.06558189 0.28134862 -0.13264011 0.22206223 0.47931337 -0.22533393 -0.012929 0.4330366
0.029883046 0.298122 0.22754368 0.36550632 0.32986614 0.49123904 0.24580504 -0.14724092
-0.10841827 -0.32091618 0.1756315 0.17314304 0.23889506
00000000: cc4f 863d ed0c 903e cfd2 07be 4864 633e
00000010: 9068 f53e f0bd 66be 28d4 53bc f9b6 dd3e
00000020: 4acd f43c 72a3 983e 3601 693e a523 bb3e
00000030: 37e4 a83e af83 fb3e 51b4 7b3e 53c6 16be
00000040: 660a debd 204f a4be bed8 333e 694c 313e
00000050: e8a0 743e

gru_dp_bw.bias_hh_l0 f4 [21]
0.44097608 0.01566743 0.042287607 -0.025444092 -0.13159738 -0.06079302 0.45790797 0.43384668
0.24283454 0.07338143 0.31862226 0.20874311 0.11946359 0.29896453 -0.26148254 -0.028840443
0.02279352 0.27479014 -0.27625358 0.023168374 -0.06231751
00000000: 9ec7 e13e fb58 803c c535 2d3d 2170 d0bc
00000010: 77c1 06be 1a02 79bd ea72 ea3e 2721 de3e
00000020: 9ea9 783e 0149 963d 7522 a33e c1c0 553e
00000030: 54a9 f43d e111 993e 0ae1 85be cb42 ecbc
00000040: 7ab9 ba3c 4bb1 8c3e 1c71 8dbe 9acb bd3c
00000050: a540 7fbd

gru_cp_bw.weight_ih_l0 f4 [18, 6]
0.055872515 -0.34852433 -0.40646043 -0.012735629 -0.16989899 0.15486148 0.20757844 -0.09812651
0.17443463 -0.218596 -0.7371821 -0.26538962 -0.047278248 0.36055952 0.24510048 -0.12250238
0.13997088 -0.18171288 0.03917115 -0.27181864 -0.2176517 0.45764303 -0.067018464 -0.048618864
-0.019031895 0.23851629 -0.3211436 0.049114663 -0.10985197 0.17134248 0.29225633 -0.1700842
0.30028328 -0.2548096 0.55526215 0.14501986 -0.16720119 0.014140881 -0.21189232 -0.44303018
-0.3253843 0.1265457 -0.3329333 0.16017589 -0.49636346 0.13735113 0.06378667 -0.36657688
0.061408084 0.33131883 0.4134796 0.03224377 -0.17274089 0.061781615 -0.35567653 -0.17112474
-0.005916876 -0.15443265 -0.115789965 -0.09324251 -0.2375775 0.17931794 -0.40779284 -0.15255475
-0.17830308 0.37639663 0.3808012 -0.32938096 -0.18725634 0.3716311 0.107553035 -0.100287355
0.2671118 0.28647828 -0.12380173 0.13425499 -0.3109714 -0.37676024 -0.26979735 0.29794466
0.18206239 -0.1122908 -0.16356027 -0.48460713 -0.33815464 0.34259203 0.030836403 0.3536859
0.6218422 -0.22933094 -0.18794176 0.000992842 0.24060534 -0.23070447 -0.06799221 0.02009537
-0.19764431 0.2719082 0.35948566 0.1851425 -0.52103674 -0.30672377 -0.04772969 -0.19321111
-0.3958158 0.20722327 0.079920255 0.38475764
00000000: 94da 643d c871 b2be 951b d0be 1aa9 50bc
00000010: 00fa 2dbe 0294 1e3e 718f 543e 8df6 c8bd
00000020: fe9e 323e a1d7 5fbe f7b7 3cbf 26e1 87be
00000030: d6a6 41bd 429b b83e 9ffb 7a3e 87e2 fabd
00000040: 8754 0f3e f112 3abe ee71 203d d02b 8bbe
00000050: 16e0 5ebe 3050 ea3e fa40 89bd 9324 47bd
00000060: c7e8 9bbc 9d3d 743e ef6c a4be 752c 493d
00000070: 12fa e0bd 6774 2f3e 9fa2 953e 8d2a 2ebe
00000080: bbbe 993e 6776 82be a925 0e3f 1680 143e
00000090: ca36 2bbe 27af 673c 4dfa 58be dad4 e2be
000000a0: c598 a6be 3295 013e 3c76 aabe 2605 243e
000000b0: 5a23 febe c6a5 0c3e 96a2 823d f7af bbbe
000000c0: 0b87 7b3d 9fa2 a93e 99b3 d33e 0b12 043d
000000d0: fde2 30be b80e 7d3d 3c1b b6be 533b 2fbe
000000e0: 5ae2 c1bb 9823 1ebe 4a23 edbd eef5 bebd
000000f0: 8447 73be 1f9f 373e 39ca d0be 5037 1cbe
00000100: 1595 36be 0fb7 c03e 60f8 c23e 9fa4 a8be
00000110: 20c0 3fbe 6e46 be3e c444 dc3d 7563 cdbd
00000120: e1c2 883e 48ad 923e c38b fdbd 247a 093e
00000130: a537 9fbe b8e6 c0be e122 8abe 348c 983e
00000140: 906e 3a3e b8f8 e5bd 587c 27be 6d1e f8be
00000150: 9b22 adbe 3968 af3e a09c fc3c 5116 b53e
00000160: 0d31 1f3f bbd5 6abe ce73 40be 4022 823a
00000170: 3f61 763e cb3d 6cbe 803f 8bbd 0c9f a43c
00000180: 4563 4abe 8d37 8b3e 810e b83e ff95 3d3e
00000190: aa62 05bf e60a 9dbe 3580 43bd 22d9 45be
000001a0: 5ea8 cabe 5632 543e 3bad a33d f4fe c43e

gru_cp_bw.weight_hh_l0 f4 [18, 6]
-0.0061294124 -0.34915543 -0.114014134 0.26621053 -0.28325415 -0.21076663 0.3964943 -0.15547794
0.105437994 -0.13482045 0.22069034 -0.3044347 0.26359499 0.587785 0.22529656 0.17179105
0.119633295 0.12063968 0.3395228 -0.14500684 -0.38590276 -0.25995257 0.35063362 -0.41883808
0.10312245 -0.34777647 0.596608 0.24032398 0.29351264 -0.31243342 -0.5479916 -0.24387535
-0.20024306 -0.4559195 -0.1476148 -0.22272535 0.13958131 0.17937383 -0.43216965 0.29354584
0.36815667 -0.51381534 -0.14236459 -0.24513187 -0.17022064 -0.03515764 0.11173756 -0.07322279
-0.25105923 -0.5494871 0.17090324 0.27987522 -0.4821488 0.27875662 -0.33088347 0.17515762
0.28461406 0.2167524 0.049228955 -0.13317546 -0.1967956 -0.24913445 -0.3617801 0.14035074
-0.25437853 -0.17021903 -0.22873531 -0.09847427 0.36439484 -0.26891875 -0.17020534 -0.36130872
-0.18812622 0.0069824206 0.007735156 -0.4904286 0.015025216 -0.051050432 0.36194998 0.45692918
0.015851788 0.3825915 0.10785112 -0.38524437 -0.49179754 -0.34522367 0.21491562 -0.27748978
-0.41463718 0.33334288 0.13989347 0.44889322 0.22577986 0.48288783 0.025606798 -0.24998385
0.5147544 0.3307674 0.40571922 0.24481402 0.50919217 0.015380226 -0.4742948 -0.0039890185
0.3241451 0.16611247 -0.114336625 0.26973748
00000000: 3dd9 c8bb 80c4 b2be 3e80 e9bd bf4c 883e
00000010: b006 91be 35d3 57be 4d01 cb3e 9c35 1fbe
00000020: e0ef d73d 5f0e 0abe a6fc 613e ddde 9bbe
00000030: ecf5 863e 1479 163f 24b4 663e fee9 2f3e
00000040: 4d02 f53d f011 f73d efd5 ad3e ac7c 14be
00000050: 0c95 c5be 8118 85be 4086 b33e f271 d6be
00000060: dd31 d33d c20f b2be 4dbb 183f 7d17 763e
00000070: 4a47 963e 46f7 9fbe 2d49 0cbf 76ba 79be
00000080: 840c 4dbe 486e e9be 5628 17be 1d12 64be
00000090: 67ee 0e3e c6ad 373e 5745 ddbe a44b 963e
000000a0: 087f bc3e 6789 03bf 06c8 11be d903 7bbe
000000b0: 524e 2ebe 7501 10bd a9d6 e43d d5f5 95bd
000000c0: d68a 80be 30ab 0cbf 4201 2f3e ce4b 8f3e
000000d0: 35dc f6be 30b9 8e3e 8f69 a9be 855c 333e
000000e0: efb8 913e 57f4 5d3e 4da4 493d 265f 08be
000000f0: c984 49be 1a1d 7fbe 3e3b b9be 1bb8 0f3e
00000100: e73d 82be e64d 2ebe 9739 6abe e1ac c9bd
00000110: f691 ba3e b8af 89be 4f4a 2ebe 75fd b8be
00000120: 29a4 40be cacc e43b 3177 fd3b 7519 fbbe
00000130: 532c 763c 421a 51bd 8251 b93e 9ff2 e93e
00000140: 9cdb 813c 08e3 c33e 0ce1 dc3d c03e c5be
00000150: e3cc fbbe 28c1 b0be d712 5c3e 2413 8ebe
00000160: 534b d4be ebab aa3e 3c40 0f3e 55d5 e53e
00000170: d632 673e 133d f73e 59c5 d13c c4fb 7fbe
00000180: f2c6 033f 585a a93e 6eba cf3e 87b0 7a3e
00000190: 6b5a 023f 58fd 7b3c c5d6 f2be 50b6 82bb
000001a0: 59f6 a53e 6319 2a3e 5229 eabd 081b 8a3e

gru_cp_bw.bias_ih_l0 f4 [18]
-0.08121959 -0.13746648 0.09371156 -0.063317746 0.60221577 0.24222867 0.371387 0.48052382
-0.21746482 0.15080893 0.3153729 0.08992731 -0.01801326 -0.03525358 0.23392192 0.10705616
-0.25200248 0.008940246
00000000: 7556 a6bd 03c4 0cbe d9eb bf3d bcac 81bd
00000010: d02a 1a3f cb0a 783e 7026 be3e 3807 f63e
00000020: 19af 5ebe a86d 1a3e 8f78 a13e cf2b b83d
00000030: 8b90 93bc 0f66 10bd 3a89 6f3e 4340 db3d
00000040: 7806 81be 1c7a 123c

gru_cp_bw.bias_hh_l0 f4 [18]
-0.07691426 0.48281005 0.17343488 0.035278283 -0.08969886 -0.2524679 -0.053325366 0.47522068
-0.5104311 -0.09607764 -0.41954663 0.4602432 0.082430154 0.38710222 0.04839605 0.18671319
-0.01068831 0.35262215
00000000: 3985 9dbd e132 f73e ea98 313e f67f 103d
00000010: 09b4 b7bd 7943 81be b36b 5abd 2050 f33e
00000020: 9dab 02bf 5bc4 c4bd d1ce d6be ffa4 eb3e
00000030: 24d1 a83d 4332 c63e f03a 463d be31 3f3e
00000040: 051e 2fbc e48a b43e

attention_dp.context f4 [14]
-0.26160362 1.2322297 1.2446116 0.28340146 1.2709273 0.31045723 0.9741238 0.9651579
-2.026357 -0.8238376 0.3129627 0.052784264 1.6639581 -0.683802
00000000: e9f0 85be b4b9 9d3f 6f4f 9f3f ff19 913e
00000010: bfad a23f 40f4 9e3e 2d60 793f 9714 773f
00000020: d5af 01c0 05e7 52bf a63c a03e 5034 583d
00000030: 94fc d43f a60d 2fbf

attention_dp.linear_hidden.weight f4 [14, 14]
0.16017312 -0.0049051954 0.25677198 -0.05601179 0.00536518 -0.047552828 0.22175507 -0.021975748
-0.026125364 -0.36255684 0.15679044 0.20950174 0.039008334 -0.25724328 -0.20688158 -0.15751892
0.036781114 0.046237774 0.17596598 -0.13267866 0.045601584 -0.427823 -0.2085834 -0.06998791
0.04159405 -0.27382627 -0.037064075 0.029457944 0.07439711 0.08176173 0.108591914 -0.17362407
0.08603952 -0.08607895 -0.22981499 0.091234855 0.11804094 -0.0072662216 0.07440699 -0.18752787
0.02835777 0.13830848 0.25656784 -0.13420115 -0.21926367 -0.16499038 -0.015493095 0.03491897
-0.2746336 -0.4711904 -0.1370096 0.3110369 0.011884728 -0.12152029 -0.1580449 -0.019998483
0.085003875 -0.14915457 -0.28123367 0.03811362 0.18768954 -0.10976717 -0.2688328 -0.29494375
-0.01427469 0.11658818 0.30036283 -0.24801524 -0.4617482 0.33207533 0.1730284 0.059367143
-0.1864343 0.08752104 0.0023050297 -0.020866873 0.020569645 -0.032976504 -0.027594144 -0.058100123
0.24273391 0.045922708 -0.16468701 0.15106754 0.06475509 -0.038795717 -0.19860394 -0.1406357
-0.17458032 0.22730058 0.10238055 0.03305725 -0.35233957 0.09355818 0.23035043 -0.1416639
-0.12580383 -0.07583198 0.27665743 -0.042584326 0.27832198 -0.013427302 0.3083034 0.19402146
-0.3432722 0.050947808 -0.067030706 -0.12165447 -0.25074756 0.029607818 -0.039646324 -0.020717265
-0.02896367 0.13270453 -0.0549826 0.06606125 -0.030970434 0.09116032 0.17475727 0.12646642
-0.08578278 -0.43541083 -0.18492259 0.18379031 0.3545069 0.0063937576 0.18568325 -0.121469654
-0.11156013 0.12585019 -0.2973334 -0.16547552 0.3251244 0.2656985 -0.086966455 -0.2902424
0.105885856 0.19765362 0.21935269 0.060724255 -0.1011363 -0.19718884 -0.008056477 -0.016545234
-0.1510183 0.25783268 -0.21906681 -0.14528576 -0.21964128 0.33476254 -0.114009455 -0.18300913
-0.35604525 0.03139772 0.21372241 -0.058075678 -0.10770957 0.07572217 0.15174557 -0.055408146
-0.08134186 -0.43027315 0.037561156 0.24122928 0.050408844 -0.28299776 -0.16976996 0.13986406
0.1497615 -0.15857172 0.013371082 -0.07149879 0.01915308 -0.040937547 -0.29094553 -0.32618332
-0.11055213 0.22971249 -0.015489619 -0.050536044 -0.4321521 0.042128716 0.13384241 0.29959106
0.31294724 -0.18503927 0.09177454 0.07563688 0.0029940717 0.31202105 0.31927478 -0.4020499
-0.28282076 -0.0118420245 -0.0032449288 -0.2926959
00000000: 6c04 243e c3bb a0bb 9e77 833e 9e6c 65bd
00000010: 64ce af3b c1c6 42bd c313 633e 7c06 b4bc
00000020: dc04 d6bc 0da1 b9be ac8d 203e a087 563e
00000030: 34c7 1f3d 64b5 83be c4d8 53be a44c 21be
00000040: cba7 163d d263 3d3d 6d30 343e eadc 07be
00000050: bac8 3a3d 9e0b dbbe e396 55be d255 8fbd
00000060: 865e 2a3d f532 8cbe 80d0 17bd c951 f13c
00000070: 835d 983d b272 a73d 7065 de3d 82ca 31be
00000080: 7d35 b03d 294a b0bd 9f54 6bbe 57d9 ba3d
00000090: 73bf f13d 7c19 eebb b162 983d 4e07 40be
000000a0: 8e4e e83c bda0 0d3e dc5c 833e 076c 09be
000000b0: a886 60be 3df3 28be c0d6 7dbc 3207 0f3d
000000c0: c69c 8cbe de3f f1be 3f4c 0cbe 3b40 9f3e
000000d0: 2ab8 423c a1df f8bd 86d6 21be dcd3 a3bc
000000e0: 8316 ae3d fabb 18be dcfd 8fbe 071d 1c3d
000000f0: b031 403e 9ccd e0bd 74a4 89be de02 97be
00000100: 64e0 69bc c9c5 ee3d 28c9 993e b5f7 7dbe
00000110: 436a ecbe c705 aa3e 5b2e 313e f62a 733d
00000120: a2e8 3ebe 3b3e b33d fb0f 173b 01f1 aabc
00000130: ac81 a83c 5f12 07bd 1d0d e2bc 65fa 6dbd
00000140: 3d8f 783e 7319 3c3d b6a3 28be 73b1 1a3e
00000150: 519e 843d 42e8 1ebd d55e 4bbe ce02 10be
00000160: 2fc5 32be 7cc1 683e e5ac d13d 0a67 073d
00000170: da65 b4be 6e9b bf3d fce0 6b3e 5710 11be
00000180: b8d2 00be cc4d 9bbd 0ba6 8d3e e76c 2ebd
00000190: 3880 8e3e 30fe 5bbc f1d9 9d3e 90ad 463e
000001a0: 60c1 afbe a6ae 503d 6547 89bd fb25 f9bd
000001b0: fc61 80be 188c f23c 2f64 22bd 41b7 a9bc
000001c0: 3845 edbc b2e3 073e 6f35 61bd 1f4b 873d
000001d0: b5b5 fdbc 43b2 ba3d 92f3 323e 6a80 013e
000001e0: e2ae afbd 2bee debe 595c 3dbe 8733 3c3e
000001f0: ee81 b53e ba82 d13b c023 3e3e 15c5 f8bd
00000200: a379 e4bd dfde 003e 153c 98be 6a72 29be
00000210: b576 a63e a209 883e 781b b2bd a79a 94be
00000220: afda d83d b665 4a3e fe9d 603e ffb9 783d
00000230: 8c20 cfbd dfeb 49be 50ff 03bc df89 87bc
00000240: 8ba4 1abe a502 843e 0d53 60be cac5 14be
00000250: a5e9 60be ff65 ab3e ca7d e9bd bf66 3bbe
00000260: 904b b6be e59a 003d 0cda 5a3e c3e0 6dbd
00000270: d696 dcbd 3a14 9b3d 3163 1b3e a7f3 62bd
00000280: 9096 a6bd c34c dcbe bad9 193d cf04 773e
00000290: 8179 4e3d 15e5 90be 2dd8 2dbe 8638 0f3e
000002a0: 145b 193e a060 22be 6212 5b3c f56d 92bd
000002b0: ece6 9c3c 21ae 27bd d0f6 94be 8001 a7be
000002c0: 2869 e2bd c039 6b3e 2cc8 7dbc e2fe 4ebd
000002d0: 0a43 ddbe 298f 2c3d fc0d 093e 0064 993e
000002e0: 9f3a a03e ef7a 3dbe 4af4 bb3d 82e7 9a3d
000002f0: 3038 443b 39c1 9f3e fc77 a33e 7cd9 cdbe
00000300: e2cd 90be 0d05 42bc dfa8 54bb 3ddc 95be

attention_dp.linear_hidden.bias f4 [14]
0.13229086 0.022811115 0.36251372 -0.40177774 -0.41250807 -0.38290805 0.058964655 0.06416848
0.22514045 -0.07072664 -0.18617569 -0.17786117 -0.33439896 0.2390917
00000000: 4177 073e 60de ba3c 669b b93e d0b5 cdbe
00000010: 4234 d3be 860c c4be ec84 713d c46a 833d
00000020: 388b 663e 21d9 90bd d7a4 3ebe 3d21 36be
00000030: 5736 abbe 74d4 743e

attention_cp.context f4 [12]
0.5591026 -0.2903338 2.7496245 0.8401342 -0.32303092 0.9476877 -0.2868854 0.5984203
-0.9388261 0.36547622 -0.2240876 0.43592295
00000000: 5921 0f3f a2a6 94be d9f9 2f40 0913 573f
00000010: 4f64 a5be a99b 723f a5e2 92be 1332 193f
00000020: e856 70bf b31f bb3e 3877 65be 4b31 df3e

attention_cp.linear_hidden.weight f4 [12, 12]
0.24344417 -0.025725584 0.09397133 -0.07847243 -0.20407893 -0.18730891 0.2504524 -0.28896666
-0.50442 -0.04089749 -0.12419993 0.16973169 -0.39365152 0.31139803 0.35471994 -0.15256819
0.2745949 0.20854093 -0.09353521 0.3714029 -0.042531062 0.24337411 0.16374622 0.2461529
0.07213966 -0.11428732 -0.20696992 0.3794968 0.0031053342 0.10180302 0.33938384 0.026497971
-0.27384904 -0.07992921 0.06512098 -0.15127192 0.06635286 0.18311769 0.06134682 0.41796863
0.020574097 0.17662047 0.2653093 0.010041588 -0.41106597 -0.17844394 0.14431806 0.033039436
-0.2458671 -0.16679019 0.12975709 -0.1338433 -0.04963399 -0.12817171 0.07573237 -0.1501093
0.3336055 -0.0068247947 -0.27027282 0.023170479 0.39206168 -0.027078059 -0.07418271 0.3029273
-0.17506681 -0.13283 0.1069112 -0.361522 0.0157355 0.1330598 -0.06526338 0.14777716
0.13147031 0.28056103 0.33368292 -0.21905911 -0.0032034873 -0.012804722 -0.23760422 0.25803602
0.32011625 -0.11458783 -0.1860316 0.19485886 0.25815374 -0.113829926 0.051988643 -0.017640948
-0.2244154 -0.0963458 0.03920978 -0.31942388 -0.37383422 -0.24797843 -0.20565294 0.105394505
0.014552664 -0.04914536 0.072395705 -0.37369224 0.042711977 0.019932589 -0.16017148 -0.06889403
0.32504275 0.37544668 -0.09562054 0.09528234 0.13713084 -0.09541234 -0.20038821 0.15834738
0.014591556 0.08498883 0.050907195 -0.21905097 -0.19532958 -0.26570058 0.2683186 -0.22369042
-0.29772225 0.15579328 0.38977394 -0.04746592 -0.14952296 0.21890816 -0.12656453 -0.15781723
0.5261152 0.022204816 0.06693282 -0.084045544 0.07904442 -0.113750756 -0.11524566 0.2737287
0.23408301 -0.15324385 0.22488095 0.124524236 -0.016323237 -0.08062697 -0.070006445 0.100493066
00000000: 6e49 793e 76be d2bc 0a74 c03d 27b6 a0bd
00000010: 11fa 50be e8cd 3fbe 4c3b 803e 70f3 93be
00000020: ab21 01bf 2084 27bd 885c febd 25ce 2d3e
00000030: b18c c9be 906f 9f3e da9d b53e d63a 1cbe
00000040: b497 8c3e c18b 553e 638f bfbd 8528 be3e
00000050: 0d35 2ebd 1037 793e 17ad 273e 810f 7c3e
00000060: f5bd 933d 780f eabd ecef 53be 684d c23e
00000070: dd82 4b3b 1a7e d03d b8c3 ad3e 4612 d93c
00000080: f135 8cbe edb1 a3bd 265e 853d 07e7 1abe
00000090: 02e4 873d 3483 3b3e ce46 7b3d fcff d53e
000000a0: 028b a83c ffdb 343e 9fd6 873e 7985 243c
000000b0: 3d77 d2be 02ba 36be 1dc8 133e 5c54 073d
000000c0: 96c4 7bbe 0ccb 2abe 0bdf 043e 380e 09be
000000d0: 034d 4bbd 723f 03be 9319 9b3d 41b6 19be
000000e0: 57ce aa3e 87a2 dfbb 3361 8abe 04d0 bd3c
000000f0: 4fbc c83e ced2 ddbc 1bed 97bd 4919 9b3e
00000100: b744 33be 9604 08be 42f4 da3d 6919 b9be
00000110: bce7 803c d440 083e cfa8 85bd e552 173e
00000120: 27a0 063e b2a5 8f3e 7dd8 aa3e 0851 60be
00000130: 99f1 51bb e6ca 51bc 854e 73be 4c1d 843e
00000140: 47e6 a33e 06ad eabd 117f 3ebe 1589 473e
00000150: ba2c 843e aa1f e9bd 0bf2 543d c083 90bc
00000160: 27cd 65be f250 c5bd 6f9a 203d 878b a3be
00000170: 3367 bfbe 0fee 7dbe af96 52be 13d9 d73d
00000180: 4c6e 6e3c a54c 49bd 3344 943d 9754 bfbe
00000190: c1f2 2e3d ab49 a33c fe03 24be 5018 8dbd
000001a0: 016c a63e 8c3a c03e b4d4 c3bd 6323 c33d
000001b0: 076c 0c3e 8b67 c3bd 9132 4dbe d125 223e
000001c0: 6c11 6f3c a00e ae3d 1084 503d e64e 60be
000001d0: 7a04 48be e809 88be 0e61 893e 1a0f 65be
000001e0: 0d6f 98be 4688 1f3e 7390 c73e a06b 42bd
000001f0: 8c1c 19be 7629 603e 229a 01be d79a 21be
00000200: 7caf 063f e0e6 b53c 1314 893d 1220 acbd
00000210: 0ae2 a13d 28f6 e8bd eb05 ecbd 2b26 8c3e
00000220: 75b3 6f3e f5eb 1cbe 3147 663e 9006 ff3d
00000230: 4fb8 85bc c11f a5bd 8a5f 8fbd 4fcf cd3d

attention_cp.linear_hidden.bias f4 [12]
0.011466307 0.27779812 -0.117171906 -0.21167432 0.22822142 0.25108525 0.04865872 -0.23182063
-0.06266132 -0.02933598 -0.026008766 -0.14915329
00000000: 2ddd 3b3c 8e3b 8e3e d3f7 efbd 27c1 58be
00000010: e0b2 693e 3f8e 803e 5e4e 473d 6362 6dbe
00000020: 9454 80bd 0252 f0bc 5610 d5bc a4bb 18be

fc_dp.weight f4 [1, 14]
0.122545496 -0.27720022 -0.33972362 0.08400554 0.09085517 0.11487064 -0.01127051 -0.37657997
-0.27647936 0.31795627 0.35721993 -0.3018696 -0.30885002 0.42445403
00000000: 22f9 fa3d 30ed 8dbe 41f0 adbe 190b ac3d
00000010: 4612 ba3d 4c41 eb3d f2a7 38bc 17cf c0be
00000020: b48e 8dbe 2acb a23e 88e5 b63e a78e 9abe
00000030: 9721 9ebe 0a52 d93e
