ablation1_min_count/min_count_250/ode_birnn_attention/final_model.pt (torch, 49419 bytes, 39 tensors)

embed_dp.weight f4 [707, 7]
00000000: 0000 0000 0000 0000 0000 0000 0000 0000
00000010: 0000 0000 0000 0000 0000 0000 787b 4bbd
00000020: 96a2 ec3e 1421 323f d508 913f e9ef 933f
00000030: b448 d93e 14b0 0bbf 2b5e 973f 52ec f13c
00000040: e375 053f 49b6 54be 53ae a23d 2e8a 2ebe
00000050: 3a27 92bf 58c1 e5bf 777f 1a3f d72a ab3f
00000060: 5bb2 1e3f 2972 02bd a681 4e3e 1c1d c7be
00000070: d90c ce3f dbb5 913f 242a 68bf edf9 57bf
00000080: e642 16bf 0ea6 513f 1491 dc3d 8241 933e
00000090: 61f7 313d 793b ffbd 2423 c73f a4ba 0ebf
000000a0: 0763 d93e db4d 7f3e 474b a8be 4f82 b4be
000000b0: 9e82 8a3f 8145 a63f 9e5b bfbe 3650 5d3f
000000c0: 14f5 d7be 932f e73e 6131 5040 deb9 04bf
000000d0: 74d3 19be 1c53 f9bc 17ed f33e dd48 d9bf
000000e0: 03c7 0e3f 8951 a4bf f3ae b2be e7f2 063d
000000f0: 817a ff3f 6427 7ebf 4d15 2ac0 082f 783f
00000100: 3d1f 95bf b966 62bf 961b 883f 83cf 07bf
00000110: 33a3 443f 6a05 0abf 4909 5fbe 127c 84bf
00000120: 7bec 963f d351 9dbe 5b02 86bf a00f 413f
00000130: 1d44 88bf 5307 d2be 5073 913f 45d7 37bf
00000140: 4fd7 413f 76cb 53bf 7b96 2e3f cfba 81bf
00000150: 1876 883e 5b61 36c0 d5b5 1b3d 29f3 923f
00000160: f9ab 153f 7eb9 51bd 71ef 87bf e7df d6bc
00000170: d336 1ebf 4948 c0be 8d76 c1bf 8119 f53e
00000180: 0727 f4bf 2589 c8be 4f26 6fbd ff4b 5bbf
00000190: 782d 3abf df5c d63f 1c5d 37be bc1e 073e
000001a0: 2d70 8a3f 1846 55be 485e 19bf 7d7f 87bf
000001b0: 226e eebe 6d9a be3f 2314 5b3f 7fa4 043f
000001c0: c76d 243f 0f97 d73d 8b0d 013e 1195 bd3f
000001d0: 6fa8 e7bf 4518 00c0 edc9 423f 1333 213f
000001e0: b34d 313f b024 d43f ba9c b93d 280c 4cbe
000001f0: 5dbd 00c0 65a4 223f 8174 f03f 22a8 833f
00000200: aba4 ffbe 47ba 2bbf e3d0 c83e 0f36 ab3e
00000210: fa11 72bf df9a b03d 23f0 b6bf 5aff cbbf
00000220: 10a0 543f c95c b83f bf82 b23e 08b8 16bf
00000230: 7981 0fbe 9086 d73e 2d01 78bf 8bfd 0b3e
00000240: 4be8 1040 4974 173f 989a d1bd b148 c13c
00000250: 8659 9c3f c95f 3040 0cd9 cfbb af6a 653e
00000260: ca23 243e 4c7e 0dbe ffd4 a43f 0342 f5bf
00000270: d08a 413e fa51 8c3f fda1 b03f fa50 8bbf
00000280: 68c8 9ebf 40aa 753f 6bf6 a3bf 8758 e93e
00000290: 2ee4 a83f aaaf 05bf c5ce 52bf 442d 6bbf
000002a0: b18d 143f edcd 8a3e c66d 9a3f 6b83 93bf
000002b0: 0a56 2a3f a21f 7abf 6e08 7c3e 40ae c33e
000002c0: d4b3 13c0 505f 023f da2f 933f 4035 05c0
000002d0: 2bae 433f 710e 823f d207 d6be 97ef a83e
000002e0: d344 d1bf e032 903f 7a1a 3dbf 6d39 d13f
000002f0: d026 3740 e88c 7c3f 173d 413e c41f 50bf
00000300: 8d0c 13bc 3b32 333d 98cc 473f 6ea6 10c0
00000310: f81c 78bf 1064 a0bf b2c6 103e 841e 6abf
00000320: 1346 b1be cbaf eabf f4b5 0ebf 4130 793f
00000330: 73b4 95be cc67 82bf 2c91 c03f 936b 31be
00000340: 1d65 033f f51a a03e d2c0 8abf dcec 2e3f
00000350: 20bb 233f 9be5 95bf 1e7a b43e e0ce e73d
00000360: 72d6 f93d 02c6 75be 4a09 38bd 9355 bcbd
00000370: 7cbb 7ebf ef48 70be ab14 c63f 8423 fe3f
00000380: e08f 203f 1bc9 2b40 41ab 123f dcf8 d0bd
00000390: 68c5 2e3e 0a0f 86bf 1f5f 0e3d 7204 fa3e
000003a0: b93a eabc 3604 933d 03cd f9bf a2c9 bebf
000003b0: 4e3b bd3f 1f9b b6be ac70 363f cf02 d63e
000003c0: c408 1f40 2ed3 13c0 c83c 49be ae72 b63e
000003d0: 8cfa eabe fa8c 92be 7597 9e3e dd4b 33bf
000003e0: a773 1140 c597 cabe 5b6e d6bd df0e 553f
000003f0: a679 96bf cf76 36be 80a6 f53f 03ae 59bd
0.0 0.0 0.0 0.0 0.0 0.0 0.0 -0.049678296
0.46217793 0.69581723 1.133082 1.155759 0.4243828 -0.5456555 1.1825613 0.029531632
0.52133006 -0.20772661 0.07943406 -0.17044899 -1.1418221 -1.7949629 0.60350746 1.3372449
0.619909 -0.031847153 0.20166644 -0.38889396 1.6097671 1.1383623 -0.906893 -0.8436573
-0.5869583 0.81894004 0.10769859 0.28760916 0.04344881 -0.124625154 1.5557599 -0.5575354
0.42458364 0.24932043 -0.32869932 -0.35255668 1.0821111 1.2989961 -0.37374586 0.8645052
-0.42179167 0.45153484 3.2530138 -0.5184611 -0.15022069 -0.030435137 0.47641823 -1.6975361
0.5577242 -1.2837383 -0.348991 0.032946493 1.995926 -0.99278855 -2.65755 0.96946764
-1.1650158 -0.8843799 1.0633419 -0.5305101 0.7681152 -0.5391451 -0.21780886 -1.0350363
1.1790918 -0.3072649 -1.0469469 0.75414467 -1.0645787 -0.41021213 1.1363316 -0.7181285
0.7571916 -0.8273233 0.68198365 -1.0135134 0.26652598 -2.849692 0.038015205 1.1480457
0.58465534 -0.05120229 -1.0619947 -0.026229812 -0.61802405 -0.3755515 -1.5114304 0.4787102
-1.907441 -0.39167133 -0.058386143 -0.85662836 -0.7272563 1.6747092 -0.17906612 0.13195318
1.0815483 -0.2082752 -0.59909487 -1.0585781 -0.465684 1.4890877 0.855776 0.518135
0.64230007 0.10526859 0.12602822 1.4811116 -1.8098277 -2.0014813 0.76089364 0.6296856
0.69259185 1.6573696 0.09063096 -0.19926512 -2.0115578 0.63532096 1.8785554 1.0285685
-0.4993032 -0.6708111 0.39221868 0.3343968 -0.9455868 0.08623289 -1.4292034 -1.5937302
0.83056736 1.4403316 0.34865376 -0.5887456 -0.14014234 0.4209485 -0.96876794 0.13670938
2.264178 0.5916181 -0.102345645 0.023594232 1.221482 2.7558463 -0.0063430127 0.22403978
0.16029277 -0.1381771 1.2877501 -1.916077 0.18900609 1.0962517 1.3799435 -1.0884087
-1.2404909 0.95962906 -1.2809576 0.45575354 1.3194635 -0.5222117 -0.82346755 -0.91865945
0.58028704 0.27110234 1.206475 -1.152448 0.66537535 -0.9770452 0.2461259 0.3821888
-2.3078508 0.50926685 1.1498978 -2.0813751 0.76437634 1.0160657 -0.4180284 0.32995293
-1.6349128 1.1265526 -0.73868525 1.634565 2.861744 0.98652506 0.1887096 -0.8129847
-0.00897516 0.043749075 0.7804656 -2.260158 -0.969192 -1.2530537 0.14138296 -0.91452813
-0.34623775 -1.8334898 -0.5574639 0.97339255 -0.29239234 -1.0187926 1.5044303 -0.17326193
0.5132616 0.31270567 -1.0840094 0.6833017 0.63957405 -1.1710695 0.35249418 0.11318755
0.12199105 -0.24001315 -0.044930734 -0.091960095 -0.9950483 -0.23465322 1.5475057 1.9854589
0.62719536 2.6841495 0.5729256 -0.10203716 0.17067492 -1.047334 0.034758683 0.48831517
-0.028592454 0.071785375 -1.951569 -1.4905283 1.4783723 -0.35665223 0.71265674 0.41799018
2.48491 -2.3097644 -0.19652092 0.3563437 -0.45894277 -0.28623182 0.30974928 -0.70037633
2.2726839 -0.39568916 -0.104702674 0.83225816 -1.1755874 -0.1781876 1.9191437 -0.053144466

embed_cp.weight f4 [457, 6]
00000000: 0000 0000 0000 0000 0000 0000 0000 0000
00000010: 0000 0000 0000 0000 8b55 05bf b45f 4f3e
00000020: 8001 3d3e 0d8e 9dbe ffb5 ab3e 2ca7 b03d
00000030: dc58 c3be 5f90 3d3f 2ab2 51bf 2685 b1bf
00000040: 7f87 56bf 519f 1abf 1bfc 59be 20d2 b9bf
00000050: 9a6c 0abf c7f5 8c3f 6efe 37bd ada0 1ebf
00000060: 1620 803e e0e3 dabe 7350 87be ffe3 fbb9
00000070: 5b1b 94bf 6f36 fd3e 355a ec3e 4eed 0dbf
00000080: 4a4e ef3f a292 9fbe eb87 2c3f dc06 063f
00000090: 46c5 52bf beb6 193f 154b 133f 32f3 8cbf
000000a0: 9777 abbe e603 dbbe e207 e23f 3b64 b93e
000000b0: 23ca 43be fb5e 0340 2abe 013f 9bf3 9bbe
000000c0: 0c25 1e3e be8b 003d 8579 08bf c389 49bf
000000d0: a36e 683f a0f2 acbe c853 e1bf 76c6 5040
000000e0: fc6d 69bf 5faa 76bf ea2b bf3f 9004 2fbf
000000f0: f031 353f 7f32 b4bf fd1b 5a3e c72c 88bf
00000100: 8b10 ad3e 2bec 0bc0 d391 4f3e 9a62 f63e
00000110: 5339 e03f 3e4a 0dc0 fb80 18be 39c6 52bf
00000120: 8f09 ebbc d46e 8f3e fcb1 bc3e 6328 76bf
00000130: ceed 6abf ebed d2bf 83df 8f3f abe7 a8bf
00000140: 3030 d3bc 5505 e63e f87c 90be a49a 94bc
00000150: 8bf4 2440 7de7 873e baa2 7d3f 4228 9bbf
00000160: f4d7 763f 8cec bcbf 4cba f4be eeb5 83bf
00000170: 37a8 473f 2a79 5a3f 60d2 0b3f d33d bfbf
00000180: 2927 9fbe 764b d23d ba8c cc3e 6178 113f
00000190: 3b66 a63f 3d72 97bd 0b90 263f 062f 56bf
000001a0: ff45 2a3f d1ff 17bf 725c 4b3f 7a50 76bf
000001b0: 401a de3d 81d6 e2bd 898d aabf 5458 eabf
000001c0: 10d0 f43f 9b8b ac3f 4fe6 01bf 7751 253e
000001d0: daf0 79bf fedc 7d3f 3f15 82be b9a9 f93f
000001e0: 45db 15c0 a23a 48be e7e2 073d d9d9 ad3e
000001f0: 09f0 9c3f 263f e13e c7ba 973f d2e8 143f
00000200: 388e 3ebf 9378 05c0 2149 923f 4a27 a3bf
00000210: 8ec5 afbf 0488 f5be 52d8 393f c3bd 973f
00000220: 9385 713c ce8f 033f ad1f dbbf ba06 7cbf
00000230: fc45 8f3f 5a65 c8bd 99c7 a73d 0d14 4abf
00000240: ac95 fc3e 10e8 1abf 5f3d 13bf 2f43 2640
00000250: 2a11 56bf e708 1dbf a9f7 0e3f 14d9 b03e
00000260: bd45 7ebe 57ee 74bd 832f 60bf 8623 943f
00000270: d217 c5be af0c 34bf f6fe cc3e d2e0 c93e
00000280: 1803 f4be 318f d4bd 97ba 04bf 4356 b3be
00000290: 7f8a a73d 9235 0e3e fb35 ae3f 40fa a23d
000002a0: cee7 a13f c291 103f 4b47 98bf 8bbb aebe
000002b0: de29 45bf 7f36 5bbf 8145 8b3f dcc0 e83e
000002c0: 0983 683e 101e ea3d b35f 0bbf 33c2 823f
000002d0: eb49 a9bc a482 0d3f eb38 b23f f8ff 43be
000002e0: c55c 833f 4c86 9abf e955 1b3f 759f cfbf
000002f0: 40f8 f73f edd5 1ac0 e01c 15bf bf56 49be
00000300: 14ae 35be 01c5 cf3f 2e76 c5bf 0672 c1be
00000310: 6008 b0be b99e e43f 9833 b03e 146a 1d3f
00000320: 133e a53f 49e9 8fbe f1ab ca3f 6527 963f
00000330: 15af 83bf 4cc8 f0be a54e b8bd a583 30be
00000340: 7ece cd3f 6fbb a93f 23da de3e d0a8 a23e
00000350: 6fae a83f d3e9 69bf 7ab0 81bf ee9e 923f
00000360: e258 d0be 3c07 163f 410e 0ebe e93f 333e
00000370: f8e3 49bf 3ab2 10be 12da febd 836b edbe
00000380: a921 2640 7806 923f 0841 f23e eb4a d03e
00000390: eab8 0b3e 307e f73e 62d3 163f 63fc 903f
000003a0: bbe6 82bf 297a 05be 90ff 5bbf 2786 ebbe
000003b0: 9dd6 14c0 746d 0740 f045 45bf cd7a 0f40
000003c0: 0750 d93f aeb1 4e3e f9c5 2340 db2e 06be
000003d0: 391e 483f 5a8a ba3f d35a 85bf b7e5 db3e
000003e0: 5ad9 32bf 6ce5 1e3d bb7d 493f 26b5 b63f
000003f0: 65a4 253f 7495 97bf 5b26 763f 33be 5e3f
0.0 0.0 0.0 0.0 0.0 0.0 -0.52083653 0.20251352
0.18457603 -0.3077244 0.3353729 0.086256355 -0.38153732 0.7404842 -0.8191248 -1.3868759
-0.838005 -0.6039935 -0.21287577 -1.451725 -0.5407196 1.1012505 -0.044920377 -0.6196392
0.2502448 -0.4275198 -0.26428565 -0.0004804432 -1.1570848 0.49455592 0.46162573 -0.55440223
1.8695767 -0.3116656 0.67394894 0.52354217 -0.82332265 0.6004447 0.5753644 -1.1011717
-0.33489677 -0.42776412 1.7658656 0.36209282 -0.19120078 2.0526721 0.5068079 -0.30459294
0.1544382 0.03138327 -0.53310424 -0.7872583 0.9079382 -0.33778858 -1.7603693 3.262113
-0.9118345 -0.96353716 1.4935277 -0.68366337 0.70779324 -1.407791 0.21299739 -1.0638665
0.33801684 -2.1862895 0.20270471 0.48122102 1.7517494 -2.2076564 -0.14892952 -0.82333714
-0.028691081 0.28014243 0.3685454 -0.96155375 -0.9176911 -1.6478857 1.1240085 -1.31957
-0.025779814 0.44925943 -0.28220344 -0.018140145 2.5774257 0.265438 0.99076426 -1.2121661
0.9642327 -1.4759688 -0.47798383 -1.0289896 0.7799105 0.8534113 0.5461788 -1.4940742
-0.31084564 0.10268299 0.39951116 0.5682431 1.2999948 -0.07394836 0.6506354 -0.836655
0.66513056 -0.5937472 0.79437935 -0.9621655 0.108448505 -0.110760696 -1.3324443 -1.8308206
1.9125996 1.3480104 -0.5074205 0.16144358 -0.97633135 0.9916533 -0.25406834 1.950492
-2.3415082 -0.19553617 0.033175375 0.33955267 1.2260753 0.4399349 1.1853875 0.58167756
-0.7443576 -2.0854843 1.1428567 -1.2746365 -1.3732164 -0.47955334 0.72595704 1.1854786
0.014741319 0.51391304 -1.7119042 -0.98447764 1.1193233 -0.09784956 0.08192367 -0.78936845
0.4933294 -0.6051035 -0.5751552 2.5978506 -0.8361994 -0.6134171 0.5584665 0.34540617
-0.2483129 -0.05979761 -0.875725 1.1573341 -0.38494736 -0.70331854 0.4003827 0.39429337
-0.4765861 -0.10378874 -0.51847214 -0.3502675 0.08180713 0.13887623 1.3610224 0.07957888
1.2648866 0.5647241 -1.1896757 -0.3412746 -0.7701701 -0.8563003 1.0880586 0.4545964
0.22706236 0.11431515 -0.544429 1.0215515 -0.02066513 0.55277467 1.392362 -0.19140613
1.0262686 -1.2072234 0.60677963 -1.6220537 1.9372635 -2.419307 -0.58247185 -0.19661997
-0.17742187 1.6231996 -1.542669 -0.37782305 -0.3438139 1.7860938 0.34414363 0.6148999
1.2909569 -0.2810767 1.5833722 1.1730772 -1.0287806 -0.47027814 -0.08999375 -0.17237718
1.6078641 1.3260325 0.435258 0.3176942 1.3178233 -0.9137241 -1.0131981 1.1454751
-0.40692812 0.5860479 -0.13872625 0.17504849 -0.7886348 -0.14130488 -0.12443937 -0.46371087
2.5958045 1.1408224 0.4731524 0.40682158 0.13644758 0.4833846 0.58916295 1.1327022
-1.0226663 -0.13034882 -0.8593683 -0.46000788 -2.325599 2.1160555 -0.7705984 2.2418702
1.6977547 0.20184967 2.5589583 -0.13103811 0.78171116 1.4573472 -1.0418342 0.42948696
-0.698629 0.038793012 0.78707474 1.4274032 0.6470397 -1.1842484 0.96152276 0.8700897

ode_dp.odeblock.odefunc.fc1.weight f4 [7, 7]
00000000: 1f70 4f3e 460c ce3e 89e9 a3bd 3152 5cbe
00000010: 77e7 bebe 8705 c9bd a216 28bd 7dcd aabe
00000020: c163 823e 2f7b 45bc 2c79 283d 5586 c0be
00000030: 55ac 9ebe 48c5 b43c f3d0 35be 384e 573e
00000040: c394 12be 9386 7e3d 6330 5fbe 06cd adbe
00000050: 93be 82bd de91 763e 8cc7 abbe 6b91 443e
00000060: 3eff e9bd 2996 24bd 986e 1abe 87bb 153e
00000070: 6c5b bcbd 2d34 e1bd a588 51be 8d53 aebe
00000080: 364a 963e 158f eebd d600 e4bd 45ec 4ebe
00000090: 0c01 1dbd a415 f33d 2f66 c4bd deec c83d
000000a0: b8c9 93bd bab0 74be ebc1 b5be 3663 e0bd
000000b0: d31f 81be 7feb 163d e61a 9b3d 2072 9cbc
000000c0: 969b 87be
0.20257615 0.4024374 -0.08003528 -0.21515729 -0.3728597 -0.098155074 -0.04103721 -0.333599
0.2546673 -0.012053295 0.041131184 -0.37602487 -0.30990854 0.022066727 -0.17755489 0.21025932
-0.1431456 0.06214006 -0.21795802 -0.33945483 -0.063840054 0.24079081 -0.3355068 0.19196098
-0.11425637 -0.040182266 -0.1508125 0.14622317 -0.09197125 -0.1099628 -0.20462282 -0.3404812
0.29353493 -0.116483845 -0.11132972 -0.20207317 -0.038331077 0.11869362 -0.095898025 0.09810804
-0.07216209 -0.23895541 -0.3549951 -0.10956423 -0.25219592 0.03684568 0.0757349 -0.019097388
-0.2648589

ode_dp.odeblock.odefunc.fc1.bias f4 [7]
00000000: c8ca 9bbe 6070 30bd 4e42 bdbe 71aa c23e
00000010: 479f e73d 8056 74be 9c56 d5be
-0.30428147 -0.04307592 -0.3696465 0.3802066 0.113096766 -0.23861122 -0.4166764

ode_dp.odeblock.odefunc.fc2.weight f4 [7, 7]
00000000: 59ef 243e c7be cc3e df95 e4bd 2371 9fbe
00000010: c241 fbbd 84e7 dfbd 3111 0d3d b27b 933e
00000020: 4e3a ba3e 07b8 b43e 8b19 86be d100 6e3d
00000030: d988 88be a39c 33bc 18cb 1d3e fb9d ad3e
00000040: 56f2 e23c 7be1 043e 250f a3bd 7f5f 9b3d
00000050: 4fc7 c0bd 8977 6b3e 29f3 f6bd bfe4 afbb
00000060: 243a d1be f67d 073e 8b81 883e 1d2f 7e3d
00000070: 3191 663e 0c10 523e 6254 653c ccb7 72be
00000080: 4128 7abe 2bf8 483d c46d 573e d58a a4bd
00000090: f609 8f3e 3a81 b33d 625a 51be e840 10be
000000a0: 79e2 8e3e 329b 503e 7bb4 7dbe 74f6 95ba
000000b0: c08a e7bd 44a3 77be 3697 babe 8dc4 893c
000000c0: 4214 a83e
0.16106929 0.39989302 -0.11161398 -0.31141004 -0.12268402 -0.1093283 0.034440223 0.2880531
0.36372608 0.35296652 -0.26191363 0.058106247 -0.26666906 -0.010962638 0.15409505 0.33909592
0.027703445 0.12976639 -0.07961873 0.07586574 -0.09413015 0.22994818 -0.12058098 -0.005367845
-0.4086467 0.13231644 0.26661333 0.06205665 0.22516324 0.20513934 0.013997169 -0.23702925
-0.24429418 0.049064796 0.21037966 -0.080342926 0.27937287 0.087648824 -0.20444635 -0.1408726
0.2790716 0.20371702 -0.24775879 -0.0011441247 -0.11305761 -0.24183375 -0.3644349 0.016817356
0.32827955

ode_dp.odeblock.odefunc.fc2.bias f4 [7]
00000000: b857 253e aae5 373e d7d7 6abe d4b9 763e
00000010: a5fb 42be babb 5f3e 2d2a 8a3e
0.16146743 0.17958704 -0.22933899 0.24094325 -0.19041307 0.21848956 0.26985303

ode_dp.odeblock.odefunc.fc3.weight f4 [7, 7]
00000000: 7f92 b03e 9f4e ec3e 415f 79be 2bb8 853e
00000010: 1829 493d 9ec3 21be e71f 51be fcb6 fdbd
00000020: 6d0b 14be e81d 78be d016 a73e 9f3c b53e
00000030: abc9 a13e 5809 58be d8c8 6f3e fd77 2c3d
00000040: e81d 3c3e fdbc 953d f1eb 16bd ed19 ae3e
00000050: ff07 583e 182d 613d 2e05 033e 50a2 95be
00000060: eae6 aa3e 69d2 883e 1ca9 a63e ef38 aabc
00000070: d96f 48bd f9b4 30be 3513 5bbe abc7 bdbe
00000080: 7aac a7be 7843 963e 2409 3dbe cd15 d73d
00000090: fa49 8bbe b4a5 59bd f326 50be 7932 8e3d
000000a0: fabd b2bd 0602 7b3e 6be5 8b3e 84e0 863e
000000b0: fe67 f63b 358c 863e 7f5a 9bbe b824 b93e
000000c0: 30ab f3bd
0.34486768 0.46153733 -0.24352743 0.26117072 0.049111456 -0.15797278 -0.20422326 -0.12388417
-0.14457484 -0.24230158 0.32634592 0.35397813 0.31599173 -0.21097314 0.2341646 0.042106617
0.18370783 0.07311437 -0.036846105 0.34004155 0.210968 0.054974645 0.12794945 -0.29225397
0.33379298 0.2672303 0.32550895 -0.020779101 -0.04893479 -0.17256536 -0.21394046 -0.37066397
-0.32748777 0.2934835 -0.18460518 0.10502205 -0.27204877 -0.053136542 -0.20327358 0.06943221
-0.087276414 0.2451249 0.2732347 0.26343167 0.007519721 0.26278844 -0.3034248 0.36160827
-0.11897886

ode_dp.odeblock.odefunc.fc3.bias f4 [7]
00000000: 3bc9 6fbd 3cc8 a73d 498b ab3d e246 9ebe
00000010: 950a afbe cc34 91be 1505 a93e
-0.058541518 0.081924886 0.08376176 -0.30913454 -0.3418776 -0.28360593 0.3301169

ode_cp.odeblock.odefunc.fc1.weight f4 [6, 6]
00000000: 9b5c 10bf ef57 ca3e 840f 3fbe a3db d1be
00000010: 651d 17be 8536 d5be 2105 1cbe d461 94bd
00000020: 7e4b 4c3e f5d4 d33e e4e6 863c 3875 06bf
00000030: 2675 0ebf 4d28 1f3f 4753 a6be 0ba5 d5be
00000040: 453f 9dbe ec81 303e d8cc c4be 2802 a43e
00000050: cf21 89bb 5ec5 d53e c185 19be 622b cfbe
00000060: 52f1 07be fed5 113f 6773 32be fad6 0ebe
00000070: 7503 183e a29e bcbd bec2 27bc 6ab4 023f
00000080: f19f fe3c 6898 193a 0f5b ddbe 262d ff3d
-0.56391305 0.39520213 -0.18658262 -0.40987882 -0.14757307 -0.41643158 -0.15236332 -0.07245222
0.19950673 0.4137341 0.01646752 -0.5252261 -0.55647504 0.6217087 -0.3248541 -0.4172748
-0.30712333 0.17237061 -0.38437533 0.32032895 -0.0041849385 0.41752142 -0.1499243 -0.40462786
-0.1327565 0.5696715 -0.17426835 -0.13949195 0.14845069 -0.09209944 -0.010239301 0.5105654
0.031082125 0.0005859197 -0.43233535 0.12459783

ode_cp.odeblock.odefunc.fc1.bias f4 [6]
00000000: d410 12be 044c 293f 608f 723e b3e6 1c3f
00000010: cc53 2c3e 1060 1f3e
-0.14264232 0.66131616 0.23687506 0.6128952 0.16828841 0.15563989

ode_cp.odeblock.odefunc.fc2.weight f4 [6, 6]
00000000: 33ca 7f3c 3137 1b3f 1112 733e a284 eb3e
00000010: 25c1 153e b4d3 19be cb9f 42be e71b 983e
00000020: e12a 9dbd 0266 e63e 4b29 dabc 54f9 d33e
00000030: bf23 cd3e 636f ba3e adf9 1b3e 615b 033f
00000040: 2bc0 88bd 116d cdbd 3808 15bd f9a7 99be
00000050: dbdf 70be c022 683b 71c0 d1be 0885 5b3e
00000060: 6937 8b3e 33ae f43e 571e dc3e eabf 183f
00000070: e54b db3e ad08 a83e 24d5 b63e 86f0 5f3d
00000080: 8a08 883c 3070 a1bd bd0a dfbd b377 e9bc
0.015612173 0.6063109 0.2373736 0.45999628 0.1462446 -0.15022165 -0.19006269 0.29708788
-0.07674194 0.449997 -0.026631018 0.4140116 0.40066335 0.36413106 0.15231963 0.5131131
-0.06677278 -0.100305684 -0.03638479 -0.30010965 -0.23522894 0.0035421103 -0.40967134 0.21437466
0.27190712 0.47789153 0.42991897 0.5966784 0.4283134 0.3281912 0.35709488 0.05467274
0.016605634 -0.07882726 -0.1089072 -0.02849946

ode_cp.odeblock.odefunc.fc2.bias f4 [6]
00000000: 832b ad3e f8ba cc3d ebc4 99bd 9854 7cbe
00000010: b396 273c 49b2 8f3e
0.3382226 0.09996599 -0.07508262 -0.24641645 0.010228801 0.28065708

ode_cp.odeblock.odefunc.fc3.weight f4 [6, 6]
00000000: e507 8ebd 3b6c e1bd 95a5 a8bd 3f6a 8d3e
00000010: ceae ab3e 4048 01be b309 bf3d 0e3c 073f
00000020: 05dc 8b3e 6b47 ddbd 8e3f 023f d1ee ce3e
00000030: 6acd 1abf 0c2e 1bbe d5f9 09bf 4c90 78be
00000040: 8a9e 7a3d 362e 123d 32bb 243e f82c c03d
00000050: ccd7 7b3e 2104 cd3d d1dd ee3e e9c9 b33e
00000060: 294a 50bc 6f7c 28bc ddc4 b03c 2b66 20be
00000070: 348f 82be 14d5 10bf 4847 003f 75c4 113e
00000080: f6b7 273f d19a a8bd c0b2 b0bd 241a 013f
-0.069350995 -0.110069714 -0.08234707 0.27620122 0.33531803 -0.12625217 0.09328022 0.5282601
0.273163 -0.108046375 0.50878227 0.40416577 -0.60469687 -0.15154284 -0.5389684 -0.24273795
0.06118635 0.0356886 0.16087034 0.09383577 0.24594039 0.10010553 0.46653607 0.35114983
-0.012712994 -0.0102835735 0.021578247 -0.15663974 -0.2549988 -0.5657513 0.50108767 0.14235099
0.6551508 -0.08232654 -0.08627844 0.5043051

ode_cp.odeblock.odefunc.fc3.bias f4 [6]
00000000: aa77 903e 429d 343e c44d 0abf f5ca be3e
00000010: 49f2 f8bc 4fae fd3e
0.28216296 0.17638114 -0.5402491 0.3726422 -0.030388968 0.4954705

gru_dp_fw.weight_ih_l0 f4 [21, 7]
00000000: 115d 9fbc 0ea0 c739 94a8 2dbe 182e 84be
00000010: 4ded 543d 92bd a8be 1893 95be 0e0a 1ebe
00000020: fa1c 213e f7f1 a23e da28 a7bd 36aa 9abe
00000030: 6384 2f3e 4a57 7abc ecb6 8b3e 2ce5 9d3e
00000040: 498e 3abd b99c e7bd 470b 92be d473 1bbd
00000050: 0c0c 67bc 3fd7 c3bd c226 6e3e 6545 bf3d
00000060: 9a76 8ebe b0d5 99bb d304 ae3e a04c 4fbe
00000070: d423 413e 69ee 513e d64c 41be a7e3 5ebe
00000080: 3af7 bc3e 0d1f 3ebe 2a31 22be a8f4 023e
00000090: 2349 babd 97d7 6c3e c980 bd3d 64da e8bd
000000a0: d69c 58bd 23f8 04bf 2aab 9b3e ddaf b7bd
000000b0: 314f 93bd 73e7 223e d865 8fbe 3d35 84bc
000000c0: 5f81 e23e 21ef a5bb 07eb a73e 94bc 543e
000000d0: 94a8 87b8 024b bc3e 0f3d 8fbc 0054 e4bd
000000e0: 4982 4d3e ecb7 f3bd 2559 823e ed3a 03be
000000f0: 5a78 ed3e 6262 99bd 0d90 0fbe 5c11 02bf
00000100: a7ab cabd 2a55 9a3d 316d 803c 7700 a83e
00000110: 5590 1ebe 6771 5dbd c8b9 b33e a8e9 b33c
00000120: f952 be3e dda2 c83e df18 1abf 28bd 79be
00000130: b714 52be 7bbc 39be d318 c03e 5bdb 62be
00000140: 53dc 9f3d 6dbd 583e 3ebf 723d 0073 a93e
00000150: cb62 00bf c196 5cbd bc22 78be 3632 363e
00000160: a21b b7be 06a5 06bf ed1d 81be 6205 9f3d
00000170: 6bae ad3e 1dd7 9abd 8192 773d 2818 d93d
00000180: 7b4e 04bf 5cef fdba 212d 843e 8bc6 f1be
00000190: 2123 273e 7c72 c03d 965a 0cbf b8a1 0cbe
000001a0: 0c49 80bc 5db6 e2bd e5a8 23be 942c 0a3d
000001b0: fbca 883d c709 84bd 770e 37be 641f de3d
000001c0: 1faf 8b3e fda5 97be 8206 353e 0016 253e
000001d0: 6d2e 2dbe d937 09be 3ce2 a23b b5c2 a93d
000001e0: 058c 023e e5e5 d13c bc3a 62be 0b3f 9fbe
000001f0: 8b2a 5c3e c42d 883e e57c b53c dc25 7cbd
00000200: 674a 64bd 936e 31be cd3a 7bbe 5988 d4bd
00000210: 33d1 c2be e347 cebe 210c 003f 7cd8 42be
00000220: 36b2 25be 3e9b 57be 6480 7cbc 74aa 7abe
00000230: 2034 9dbe 9606 c83e e278 dcbe d2e8 d2bd
00000240: 4437 e73e 0339 89bc 1f7f b0be
-0.019453557 0.00038075488 -0.16958839 -0.25816417 0.05198412 -0.3295713 -0.29213786 -0.15433523
0.1573371 0.3182523 -0.08162089 -0.30207986 0.17140345 -0.0152796 0.27287996 0.30838907
-0.04554585 -0.11309189 -0.2852423 -0.03795226 -0.014101993 -0.09562539 0.23256972 0.09339408
-0.2782486 -0.004694663 0.33988056 -0.20244074 0.18861324 0.20501103 -0.18876967 -0.2176653
0.3690737 -0.18566532 -0.15839067 0.12788641 -0.09095981 0.23129116 0.092530794 -0.1136978
-0.052883945 -0.51941127 0.30404025 -0.0896909 -0.07192839 0.15908603 -0.28007388 -0.016138667
0.44239327 -0.005063907 0.327965 0.20775062 -6.468702e-05 0.36775976 -0.01748517 -0.11148834
0.20069231 -0.11900315 0.25458637 -0.12815447 0.46380883 -0.07489468 -0.14019795 -0.5080774
-0.09896021 0.07535775 0.015677067 0.32812855 -0.15484746 -0.054063227 0.35102677 0.021962002
0.37172678 0.39186755 -0.601942 -0.24388564 -0.20515715 -0.18138306 0.3751894 -0.2215399
0.078056954 0.2116601 0.059264414 0.3309555 -0.50150746 -0.053854708 -0.24232 0.17792591
-0.3576327 -0.52595556 -0.25218144 0.077646986 0.33922133 -0.07560561 0.06044245 0.106003106
-0.5168225 -0.0019373703 0.2581568 -0.4722179 0.16321994 0.09396836 -0.54825723 -0.13733566
-0.015659831 -0.11069939 -0.15982397 0.03373392 0.066793405 -0.064471774 -0.17876612 0.10845831
0.27282044 -0.29618827 0.17678264 0.16121674 -0.16912241 -0.1340021 0.004970817 0.082890905
0.12748726 0.025622318 -0.22092718 -0.31102785 0.21500604 0.26597416 0.02215428 -0.061559543
-0.055735018 -0.17327337 -0.2453415 -0.10377569 -0.3805023 -0.4028922 0.5001851 -0.19027895
-0.16181263 -0.21055314 -0.01541147 -0.24479085 -0.3070383 0.39067525 -0.43060976 -0.10298313
0.45159352 -0.016750818 -0.34471986

gru_dp_fw.weight_hh_l0 f4 [21, 7]
00000000: d447 cfbd c082 d8bc fdb2 e3bd cd5f d6be
00000010: d3f8 423e 6e4b 11be 567b bc3e 26a2 983b
00000020: 82bb 7ebe 6b8c 9abc b456 d63e 681a d6bd
00000030: 5f5a 08bf 4c1b 3cbe e64a 2b3e 17fe 20be
00000040: fea4 103e abd7 dc3e 7985 b73e 4f7e 3fbe
00000050: f266 3abf 51f3 c13e 6028 3d3e 2730 663e
00000060: 3aaa bb3d 47a1 9e3d db81 0abf 628d d2be
00000070: 06f7 a93e 8374 53bd 1a64 67bb 56fb e5bd
00000080: 4301 123e f813 ccbe 9fe1 463e d77d e43d
00000090: 79c1 cf3d 9563 263e 8e49 93bd 1e07 b43e
000000a0: e660 13be 8fd1 eabd d67b 593c a6d9 953d
000000b0: 59a9 29bd a1cf 103f bc4a 60be 389d 39be
000000c0: 7266 b83d ddea e9bd 8008 d13e 9af7 9bbe
000000d0: d245 81be 86c0 6ebd d727 a7bd f01a 6ebe
000000e0: 8eec 843e bb44 a4bc 8169 9c3e e36f 553e
000000f0: 4faf b0be 9b04 b5bd 1181 a0bd 3cb8 f43e
00000100: 28c5 cfbd 5713 27be a8ee 22bd 5835 0d3e
00000110: 25b7 843d 4f99 d9be fe89 4bbe 349b 2a3d
00000120: b124 023e 143d d6be c3e0 af3d aa83 3c3e
00000130: 7bae 58be 9a5e a9bd 4e56 95bd 16d6 6c3e
00000140: 3ac9 9ebe 7dc3 293e ad2f 92be 52d3 c43e
00000150: 55fb ad3d 03b9 68bd 1dbf 60be 161f 803d
00000160: 6983 9ebe 35a4 8fbc 5f93 dabe 9e15 a8be
00000170: 42db 043e 1781 2e3d f847 0abe a8e0 5a3d
00000180: df0f aa3e a3ab 7d3d 51bf 83bd 1ced 2ebe
00000190: 6089 2c3e b811 183f 6983 27bf 0576 b8bd
000001a0: 2458 f4be cac0 0a3f a857 993e 1e90 44be
000001b0: 4dd2 443e ef97 4fbe fc0f 15bf 8ebe a4be
000001c0: a897 3f3e 9e68 3ebe 676c 973d 24b7 243f
000001d0: 459c c1bd fb69 d5be 905c 10bf 78bf 1cbb
000001e0: e48b 923d b9fa 03bf ccb2 cf3d d1a9 783e
000001f0: ae89 0c3f 612e 3d3f 2f94 b63d 625f 9d3e
00000200: 04cf 023f 3878 0bbf fe03 1c3e ba38 e1be
00000210: e26a 173e 257f 22bf 2c09 5bbe ea75 a2be
00000220: 6a25 efbe fc99 a33c 8758 873d 5d10 1f3f
00000230: 6a7c c0be c750 7a3e 7bb6 a2be 01e7 cabe
00000240: 3a52 5dbd 4734 753e 8a01 373e
-0.10121122 -0.026429534 -0.11118124 -0.41869965 0.19040231 -0.1418893 0.36812848 0.0046580015
-0.24876216 -0.018865785 0.41863024 -0.10454255 -0.53262895 -0.18369788 0.1672779 -0.15721928
0.1412544 0.43133292 0.3584402 -0.18700527 -0.7281333 0.37880948 0.18472433 0.22479306
0.091633275 0.07745605 -0.54104394 -0.41123492 0.33196276 -0.051624786 -0.0035307468 -0.11229579
0.14258294 -0.39858985 0.19422005 0.111568145 0.10144324 0.16248925 -0.07191764 0.3516168
-0.14392433 -0.114657514 0.013274154 0.07316904 -0.041421268 0.56566817 -0.21903509 -0.1812638
0.09003915 -0.1142175 0.40826797 -0.30462343 -0.2524858 -0.058289073 -0.08161896 -0.23252463
0.25961727 -0.020052304 0.30549243 0.20843463 -0.3450875 -0.08838769 -0.078371175 0.4779681
-0.101450264 -0.16315971 -0.03977838 0.1378988 0.064802445 -0.42499778 -0.19876859 0.04165192
0.12709309 -0.41843474 0.08587792 0.18409601 -0.21160309 -0.08269997 -0.07291852 0.23128542
-0.310129 0.16578479 -0.28552 0.38442475 0.084952034 -0.056817066 -0.21947904 0.06255929
-0.30959633 -0.017534355 -0.4269056 -0.32828993 0.12974265 0.04260358 -0.13504016 0.053436905
0.33215234 0.061931264 -0.06432975 -0.17082638 0.1684928 0.59402037 -0.6543489 -0.090068854
-0.47723496 0.5420042 0.2994969 -0.19195601 0.19220848 -0.20272802 -0.58227515 -0.32176632
0.18710196 -0.18594596 0.07393723 0.6434195 -0.09453634 -0.4168242 -0.5639124 -0.0023917835
0.07155588 -0.5155445 0.10141525 0.2428353 0.5489758 0.73898894 0.089149825 0.30736834
0.5109713 -0.54480314 0.15235898 -0.4398859 0.14786866 -0.6347526 -0.21390218 -0.31730586
-0.46708232 0.019970886 0.06608682 0.62134343 -0.3759492 0.24444877 -0.31779847 -0.39629367
-0.054033495 0.23945723 0.17871681

gru_dp_fw.bias_ih_l0 f4 [21]
00000000: 73fb 1d3f a718 143f a8e7 103f 6e47 8f3e
00000010: 75d1 a83e 4678 d73e 64dc 54be c3b6 29bd
00000020: f593 9c3d 29b2 2abf 021c dbbe 3ca4 603e
00000030: e89c 3fbe b501 ac3d c686 3e3e f33b 4a3d
00000040: c75d b23e 5457 8cbd 184a a13e 7f39 abbe
00000050: f0d5 d23d
0.61711806 0.57850116 0.5660348 0.27984184 0.32972303 0.4208395 -0.20787197 -0.04143406
0.07645408 -0.666781 -0.42794806 0.2193765 -0.18712199 0.08398763 0.186061 0.04937358
0.3483717 -0.06852594 0.31501842 -0.33442304 0.102947116

gru_dp_fw.bias_hh_l0 f4 [21]
00000000: 11c8 243e fe11 2b3e 68ce 2c3f 10fc 943e
00000010: 4753 b03e 970a e73c a193 53be 5c20 90be
00000020: ce09 0dba 585c 29be 96d9 bebd 592c 45be
00000030: e6d9 a5be b965 58be 2c58 f43d 3e62 da3e
00000040: c57a fc3e 8cbf bbbe e77c 0c3f 711c 0b3e
00000050: 098e 93be
0.16091944 0.16706082 0.6750245 0.29098558 0.34438536 0.028203292 -0.20661785 -0.28149688
-0.0005380184 -0.16539133 -0.09318845 -0.19255199 -0.32392806 -0.21132554 0.1193088 0.42653078
0.49312416 -0.36669576 0.54878086 0.13585068 -0.28819302

gru_cp_fw.weight_ih_l0 f4 [18, 6]
00000000: e0ab 013f 1a77 c23e d0d5 533d 40cb c53e
00000010: b6ba a7be f91b 7b3e 45da e13e fd7a b4bd
00000020: 7de6 b7be fccf f3be 47f6 b63e de6e 1dbe
00000030: 8ffd dfbd 311b 35be 1df7 93bd 32fa 343e
00000040: 5a02 75be 7577 f13c f83f 8dbe 5929 d0be
00000050: 90e9 f23e dfa9 a53e 8450 c4be 30b5 5f3e
00000060: 6275 d7be 0172 32bf b487 cbbc 4341 e7be
00000070: d6ff 613e d3a7 e4bd 7ea1 fc3c 6b8e 6f3c
00000080: 864d 413e 2ecf cd3d fd6f 68be 7515 6f3e
00000090: 9bef 12be 6484 0abe 9b9e d43e 8656 4cbe
000000a0: 215e ecbd 8b0a e2be bfdb 3f3b 4583 453c
000000b0: dc37 85be edc5 95be 86bd c1be b036 17be
000000c0: 0e54 69be 8083 4abe b8f5 a1bd c5a1 0fbe
000000d0: 5562 8e3d 31b0 133e 4dcc 37be 70d4 a8bc
000000e0: 35ae c2be 7369 c4bd 1c6b 873d 527d a0bd
000000f0: 261a 873d 8997 d03e 4e2e babd be9c 673e
00000100: b687 82be bcc6 7fbe c341 623d c248 a73c
00000110: ec48 223e f177 d83e 0e51 cbbc 48cf b33d
00000120: 91fe 903d bffa b23d e87a a4be 8d2d bc3e
00000130: c4bf 863c 0fc7 233e f3fe 403d 5266 0b3e
00000140: d319 24bd 418c 573e 161b 68be 6d54 f03e
00000150: 0b3b 34be f757 a03e 3e4a cfbe d4bd dc3b
00000160: 7f14 30bf bf82 a2bd 2754 833e 262e 9e3e
00000170: 40aa afbe 83b1 db3d 3ee5 b93d 7dee 5a3e
00000180: 3673 ab3c c365 323e d9ef 4cbe 0b53 fb3d
00000190: ab05 70be 5ef9 993e 6191 223e dcfe 3f3d
000001a0: e3ac c4be 36b2 d4be 605c aa3e c6e2 fc3e
0.50652885 0.37981492 0.05171758 0.3863163 -0.32759637 0.2452239 0.4411184 -0.08812521
-0.35918036 -0.47619617 0.3573477 -0.15374324 -0.10937034 -0.17686154 -0.072248675 0.17673567
-0.23926678 0.029475907 -0.27587867 -0.40656546 0.4744382 0.32356164 -0.3834268 0.21846461
-0.42081743 -0.69705206 -0.024844982 -0.45166978 0.2207025 -0.111648224 0.030838724 0.014621357
0.18877229 0.10049282 -0.2269897 0.23348029 -0.14349215 -0.13527066 0.41527256 -0.19954881
-0.11541391 -0.4414867 0.0029275266 0.012055223 -0.2601918 -0.29252568 -0.37839907 -0.14766955
-0.2278597 -0.19776726 -0.07908195 -0.14026554 0.06952349 0.1442268 -0.17949028 -0.02060911
-0.38023534 -0.09590425 0.06612226 -0.07836403 0.06596784 0.40740612 -0.09090863 0.22618386
-0.25494164 -0.24978155 0.055238497 0.020420436 0.1584813 0.42279008 -0.024818923 0.0877977
0.07079805 0.08739232 -0.3212502 0.36753502 0.016448863 0.15993904 0.04711814 0.13613251
-0.04006369 0.21049596 -0.22666582 0.46939412 -0.17600648 0.31317112 -0.4048633 0.0067364965
-0.68781275 -0.07935094 0.2565014 0.30894583 -0.34309578 0.10727217 0.090769276 0.21380039
0.02092896 0.17421632 -0.2001337 0.122716986 -0.23439662 0.30073065 0.1587577 0.046873912
-0.38413152 -0.41542214 0.33273602 0.49391764

gru_cp_fw.weight_hh_l0 f4 [18, 6]
00000000: fde4 473d e18f 15be 4d61 733e edaf 913e
00000010: 5bbd 943e de5c 573e 3723 ce3e c529 b33e
00000020: d2a4 4d3e 8705 ac3e f8b2 503c 7664 9a3e
00000030: 15da 3f3e 901e 8abe 1f54 003e 9870 9e3e
00000040: a825 2d3f ae5b fa3d 44f9 823e 9bf8 d9bc
00000050: 6b07 c83e a852 963e 465c 553e 5b1b 2f3f
00000060: 6bc8 963e ce9a 153e b8e5 cf3d 0d80 893e
00000070: e9d9 053c c7c9 41be 2a1b 44be 6fde 9ebe
00000080: fc9f 753e 6dc9 46be cad7 493e 8458 953d
00000090: c983 e43c 20b4 90be 0220 0d3f fba2 e13e
000000a0: 6255 af3e 61b3 d83e 740c fe3e 22ca bc3e
000000b0: 85b8 23bd 7f6e 55bd 7424 633e 77aa 963d
000000c0: 9204 bdbe b03e 15bc 2fb7 133e dad0 813d
000000d0: e7a4 2c3d c1ae 253e 619c ca3e 829a d33e
000000e0: 45b0 08be 96af 803e 8564 313f fd35 d8be
000000f0: 031e 833e 843a e4be d300 443e fc5d 47be
00000100: e684 fb3e ccd9 263e 096c 9e3d 42d9 60bd
00000110: 45c0 9abd c619 683e 8f86 2a3f 6245 b53e
00000120: 2db0 02be cea9 94bd 2bd4 073f 4fb9 6b3e
00000130: c954 033f 08fb 123f 952e 7e3b c42f cebd
00000140: ce52 123e 97ad 983d a8db 24bc cc46 39bd
00000150: f747 353e d0c5 ba3e efa7 7cbd e3b1 283f
00000160: 58f1 583e d113 303e 73f2 ec3c 4295 be3d
00000170: 8f2a d23e 295a b83e 8a98 673f 2a05 2bbe
00000180: 9879 233f 256d 733d 67a9 833e 64f8 1c3f
00000190: 12ab 333f 9caa 46be 0811 5dbe 3a5a 1ebe
000001a0: 6998 b63e 7932 c1be 21af 03bf 4df0 edbd
0.048802365 -0.14605667 0.23767586 0.28454533 0.29050717 0.2103152 0.40261242 0.34992805
0.20082405 0.33597967 0.012737982 0.3015477 0.18735535 -0.26976442 0.1253209 0.30945277
0.67635584 0.12224518 0.255808 -0.026607802 0.3906816 0.29359937 0.20835981 0.68401116
0.29449782 0.14609835 0.10151237 0.26855507 0.00816963 -0.18924628 -0.19150987 -0.31029078
0.2398681 -0.19412775 0.19711223 0.07292274 0.027894871 -0.28262424 0.55126965 0.44069657
0.3424483 0.42324355 0.49618876 0.36872965 -0.039970893 -0.05210733 0.22181875 0.07356732
-0.3691755 -0.009109184 0.14425348 0.063386634 0.04214945 0.16179945 0.39572433 0.41328818
-0.13348491 0.2513396 0.69294006 -0.4222869 0.25608835 -0.44575894 0.1914094 -0.19469446
0.4912483 0.1629402 0.0773545 -0.054894693 -0.07556204 0.22666082 0.6661157 0.35404497
-0.12762518 -0.0725895 0.5305812 0.23019908 0.51301247 0.57414293 0.003878509 -0.10067704
0.142894 0.07454985 -0.010062136 -0.045233533 0.17703234 0.36479044 -0.06168359 0.65896434
0.21185815 0.1719506 0.028924203 0.093058124 0.41048095 0.36006287 0.9046713 -0.16701189
0.6385741 0.05943026 0.2571518 0.61316514 0.7018291 -0.1940102 -0.21588528 -0.15464106
0.35663155 -0.3773382 -0.514391 -0.11618099

gru_cp_fw.bias_ih_l0 f4 [18]
00000000: 2b5a 253d 1704 4c3e a3fb cf3d 7a56 f03e
00000010: 8745 6d3e 530e 6fbe 18cd 813d 2bd6 74bd
00000020: c4ca 243f 2932 6d3e bd25 90be 81a8 2d3e
00000030: ba80 1bbe ff64 54be cbc3 553e 534a b23c
00000040: a33d e53e 62f0 203e
0.040369194 0.19923435 0.10155418 0.46940976 0.23171054 -0.23345308 0.06337947 -0.05977456
0.64371896 0.23163666 -0.28153792 0.1695881 -0.15185824 -0.20741652 0.2087547 0.021763956
0.44773588 0.15716699

gru_cp_fw.bias_hh_l0 f4 [18]
00000000: 5b89 ea3e 629b 05be 7beb cd3d fa89 e63d
00000010: 81cb be3e d2ad b53e c608 a4bd 78b5 1cbe
00000020: 0318 bd3e da6b 8fbe abb3 2e3c f6c4 be3e
00000030: 0702 46be bd9a cdbb 712a c73e 6cdb 1c3e
00000040: 8ace 42be a7ef ca3e
0.4580792 -0.13047555 0.1005468 0.11256786 0.37264636 0.35484177 -0.08009486 -0.153036
0.36932382 -0.28011972 0.010662953 0.37259644 -0.19336711 -0.0062745498 0.38899568 0.15318078
-0.19024101 0.39635965

gru_dp_bw.weight_ih_l0 f4 [21, 7]
00000000: 5974 8cbe e949 083e f8c8 a73e 5b54 acbe
00000010: 139b 05bf 9cfb 92be 3e85 923e a351 95bd
00000020: d2be ad3e 3d29 7cbd 64a6 bc3d f6aa 943e
00000030: 7b1e 763e fa5c 35be bbec 79be 0ebd 02bd
00000040: d602 d13e e1f0 8dbe a8fb 833c a93f 77bb
00000050: 4e1f c83e e98e e43d 94c2 47be 8c4c 9b3e
00000060: d9ea e83d b900 bc3e aac1 b83d 0bc4 32bd
00000070: 895b b8be d106 003e 9086 b13d 2232 23bd
00000080: a26a 94be edb4 d4be 5743 5cbe c44c 05be
00000090: 16c7 e93e afb7 64be 52c3 26bd 70ce e6bd
000000a0: 4163 ed3e a3d0 85bd f882 083e 055d 28bd
000000b0: 91ba 803e 56e3 9dbe c5c9 063e 6b19 cebc
000000c0: 263d a1be 73f1 4cbe d337 38be c98c a3be
000000d0: 3bd1 71be 8fe6 06be 0b93 debe af3e 45be
000000e0: 3424 1ebf 6ba0 8d3e 1c5a 83be 5892 29be
000000f0: aece cebc 9c17 6d3b 863c c7bd 9847 54bd
00000100: 960b 533e 89ce 8c3e adb2 78be 23c6 b63e
00000110: fb19 31be da39 17bd f137 9a3d 5c20 e83d
00000120: 9ba0 96be d981 9fbd d3ab 27be c10e 573e
00000130: a84e 22ba 6b4d b13e d0ea 61be aff7 d53e
00000140: 43e0 cbbd 41b6 a2be 53f8 5ebe 63f0 853c
00000150: c68d 653e 62c1 213e 5bd9 0cbd e570 723a
00000160: 055a 603d befa f6bd 325f 1f3e 4241 5ebc
00000170: f39c a0be 39d8 853d 59f6 673d fb73 9abe
00000180: 33dc f53b 0779 ee3e 35f0 b2be 3146 e23d
00000190: ec81 c1be cb5e 40be 2f36 273f 2eac 75bd
000001a0: 4c47 a8bd f0e8 babe 4117 febb 98d8 49bd
000001b0: 0181 5a3e 35ea ac3e 60b2 e73c f750 ec3e
000001c0: 33d6 8b3e 10e5 37bd 6f2a b33d 1082 673e
000001d0: e163 d8be 74a1 cabe 7d98 823d 6e60 f5bd
000001e0: bafa 31be 492f c23e c6a8 463e 8e0b acbd
000001f0: 36cf e33d dad2 04be 860e 183e 3c68 bf3e
00000200: dd38 d03b da2b e2be de8d 25bd b17f 48bd
00000210: 0e85 91be 371a d5bc 50b5 27be 5e53 8d3e
00000220: 1fd5 233e d895 1ebe 52bf 6abb 36d9 b93d
00000230: b71e 843e 5886 153e 8745 8cbe 569d babe
00000240: 7d21 8abd fe1d f4bc ffdb 373e
-0.27432516 0.13309444 0.32770514 -0.33658108 -0.5218975 -0.28707588 0.2861728 -0.072909616
0.33934647 -0.061562765 0.09211424 0.29036683 0.24035065 -0.17711249 -0.24406712 -0.031918578
0.40822476 -0.2772284 0.01611121 -0.0037727153 0.39086384 0.111600704 -0.1950782 0.30331838
0.11372919 0.367193 0.090213135 -0.043643992 -0.36007336 0.125026 0.08668244 -0.039842732
-0.28987604 -0.41544285 -0.21510063 -0.13017565 0.45659703 -0.22335695 -0.040713616 -0.112698436
0.46364787 -0.06533935 0.1333121 -0.041104335 0.2514234 -0.30837506 0.13162906 -0.025158605
-0.31491965 -0.2001398 -0.17990045 -0.31943348 -0.23614971 -0.13173889 -0.4347156 -0.19262193
-0.6177399 0.27661452 -0.25654685 -0.16559732 -0.025245037 0.0036177402 -0.09728341 -0.05182609
0.20609888 0.27501324 -0.2428691 0.3569804 -0.17295067 -0.036920406 0.07530201 0.11334297
-0.29419407 -0.07788438 -0.1637414 0.21001722 -0.000619153 0.34629378 -0.2206223 0.4179053
-0.09954884 -0.31779674 -0.21774416 0.016349977 0.22417364 0.15796426 -0.034386974 0.000924839
0.05477335 -0.12059544 0.15563658 -0.013565363 -0.31369743 0.06535382 0.05663142 -0.3016661
0.0075030564 0.46576712 -0.34948888 0.11048544 -0.37794435 -0.1878616 0.6531705 -0.059978656
-0.08216724 -0.36505842 -0.007754237 -0.049278826 0.21338274 0.33772436 0.028283298 0.4615552
0.2731186 -0.044896185 0.08748328 0.22608209 -0.42263702 -0.39576304 0.06376741 -0.11981283
-0.17380801 0.379267 0.1940032 -0.084006414 0.11123507 -0.12971058 0.1484929 0.37384212
0.006354435 -0.4417408 -0.0404185 -0.0489499 -0.28421825 -0.026013477 -0.16377759 0.27602667
0.15999268 -0.15486848 -0.0035819602 0.09074633 0.25804684 0.1460203 -0.27396795 -0.36448163
-0.06744669 -0.029799458 0.17955016

gru_dp_bw.weight_hh_l0 f4 [21, 7]
00000000: 1238 81be 718c 8fbe 75d5 9dbd 86d3 9ebe
00000010: c354 38be 2bbb 903a 59ca 95be f40f e53d
00000020: 2c3e 4a3e 82ba 583e 2269 213b 6fc2 3cbe
00000030: 0cb9 67be 4fec bc3b c89b c33d 5a05 6a3e
00000040: e728 01be 0ae5 ab3e 708a 32be fbd6 f63e
00000050: a0b2 a1be 001f 9fbe ea73 623d 5d2e 523c
00000060: c49b e13d 8113 e3bd 30c1 a63d 5dff 1ebd
00000070: 9234 6cbd 6a6d 123e 48e0 f3bd ae7f a7be
00000080: a445 90be 8c37 003e fb4e 24be e9fb b8be
00000090: 3c82 183e 9887 c13e abce 133e ac7a b6bd
000000a0: 02e4 4a3e 08cb d1be a25b fcbe b113 c23d
000000b0: 38e9 ebbd 5e5f 983e bb89 e3be cfdd 303e
000000c0: d358 1fbf 3d8d 97bd 0d9f 753c 8fcf c6bd
000000d0: 3cf6 dc3d 1bc8 a2be b663 a03d 3779 08be
000000e0: 38b2 ffbd c672 e2be 7310 fc3e 68f7 2fbe
000000f0: d10a 1a3e 2b2b fd3c 1fbd 4bbe 9bc7 a2be
00000100: b9d1 f93d 64a2 343e 6662 e2be 5db5 a93d
00000110: e2a9 23be a7b6 96be 1ad3 9fbe 0b94 95be
00000120: af3f a43d 85de 5e3d a2c5 d13d f8a9 b9bc
00000130: e423 dcbe 1a07 fdbe dd1b a63e 79ab 313b
00000140: c096 b8bc 5301 0b3e 4af0 50bd 68ef 0dbe
00000150: 4910 b6be ddd4 19be d638 94be a547 11be
00000160: ecee 5f38 4c9e 0c3e 1641 c23d 9fc0 fbbc
00000170: d496 03bd e2af b63e 53e8 cabd ac4c abbe
00000180: 6503 7c3e 2b7c 933e 5e9b 12be 1415 14bf
00000190: 0bcc d4be 5636 1c3e 43ec 6d3e e208 7dbe
000001a0: cecf b23b f942 8b3b f728 b03d 7b4f 8e3d
000001b0: 5d93 9bbe 227b 493e 8d2a 6f3e 080b 6dbe
000001c0: 6632 19bf a6bb cf3e e91d 233e 71e6 cabe
000001d0: b581 19bf 6b31 0f3e 7f62 43bd c05c 11be
000001e0: f6a8 c33d 532d b93e 82a7 4abe 5fdd 9cbe
000001f0: 6f50 3fbb e77f b63d a56f e53e 5e0b f6be
00000200: 135a 98bd 7123 ad3e c299 9a3e 19ab d5be
00000210: 22cd 52be 71d7 07be 08f4 b33e 498d 543e
00000220: 707d a2be 8398 c3be 4f85 19be 8358 92be
00000230: 022d 0e3f 9f96 0bbf b583 55bc 9410 c9be
00000240: a7aa de3c 3ea3 d5be 61cc 58be
-0.2523809 -0.28036836 -0.07706729 -0.31020755 -0.18001084 0.0011042109 -0.29255942 0.111846834
0.19750279 0.21164897 0.0024629314 -0.18433546 -0.22629184 0.005765475 0.09551197 0.22853604
-0.1261326 0.3357318 -0.17435622 0.48210892 -0.31581593 -0.3107834 0.055286326 0.012828437
0.11016038 -0.110877044 0.08142316 -0.038817752 -0.057667322 0.1429955 -0.11908013 -0.327146
-0.28178132 0.1252119 -0.16045754 -0.36129692 0.1489343 0.37798762 0.14434306 -0.089101166
0.1981354 -0.40975213 -0.4928866 0.09476412 -0.11519092 0.2976026 -0.44441018 0.17272113
-0.6224491 -0.07399986 0.014991534 -0.097075574 0.10789153 -0.31793293 0.07831518 -0.1332749
-0.124851644 -0.4422819 0.492313 -0.17184222 0.15043189 0.030904373 -0.19896363 -0.31792912
0.121982045 0.17640072 -0.44215697 0.082865454 -0.15982774 -0.29436228 -0.31215745 -0.2921451
0.08019959 0.05441143 0.102427736 -0.022664055 -0.42996132 -0.4941948 0.32443133 0.0027110262
-0.02253282 0.13574724 -0.051010408 -0.13860857 -0.355593 -0.15022607 -0.28949612 -0.14187486
5.3389856e-05 0.1373226 0.094850704 -0.030731497 -0.032126263 0.35681063 -0.099075936 -0.33456933
0.2461067 0.2880567 -0.1431708 -0.5784466 -0.41561922 0.15255103 0.23234658 -0.2471042
0.005456901 0.004249927 0.086015634 0.069487534 -0.30385867 0.19675878 0.23356076 -0.2314874
-0.59842527 0.40572852 0.15929379 -0.39628938 -0.5996354 0.13983695 -0.047701355 -0.14195538
0.09553711 0.36167392 -0.19790462 -0.30637643 -0.002919223 0.08911114 0.4481174 -0.48055547
-0.07439055 0.33816102 0.30195433 -0.417321 -0.20586064 -0.13265778 0.3514712 0.20757021
-0.31736326 -0.38202295 -0.1499226 -0.28583154 0.55537426 -0.54526705 -0.01303189 -0.3927046
0.027180983 -0.41726106 -0.21171714

gru_dp_bw.bias_ih_l0 f4 [21]
00000000: 4786 f63e b5f4 413e 8c43 143f 7feb 41be
00000010: 96b6 ea3e 2ba7 173f 267d c93e 56e7 04bf
00000020: 89ab 6bbd 1cda 5c3e ca52 623e 77fa e53e
00000030: ce21 98be 8463 51bc 345b 3dbe b4b4 0e3e
00000040: da78 55be 1feb 2cbe 4639 d6be dd57 503e
00000050: ade0 0ebe
0.4814932 0.18941005 0.5791557 -0.18937491 0.45842427 0.59239453 0.39353293 -0.5191549
-0.057536636 0.21567577 0.22101894 0.44917652 -0.2971329 -0.012780074 -0.18491822 0.1393612
-0.20846882 -0.16886567 -0.4184057 0.20346017 -0.13952895

gru_dp_bw.bias_hh_l0 f4 [21]
00000000: 951e f33e c3df efbe b602 083e 0015 99bd
00000010: f123 2abd d70b bc3e 77c2 b93e 7522 b1bc
00000020: a937 d1be d84f afbe 8564 fe3b 7f5f 6d3d
00000030: 0fbb d1be 82d6 753e deee 55be 7d64 8f3e
00000040: 5d1e b93e fe74 603e fce8 56be bd4a 65be
00000050: 7555 a5be
0.4748427 -0.46850404 0.13282284 -0.074747086 -0.041538183 0.36727783 0.36281177 -0.021622876
-0.40862778 -0.34240603 0.0077634477 0.0579524 -0.40963027 0.2400761 -0.20891902 0.28006354
0.36155978 0.21919629 -0.20987314 -0.22391792 -0.3229176

gru_cp_bw.weight_ih_l0 f4 [18, 6]
00000000: 77ae 913d a4da 223e 0e77 a03c 2241 95be
00000010: d42d 1c3d 8e72 cebe 64fa 613e 8a8a ac3d
00000020: 2a1b 53bd e128 a43e 0fb3 003e 8dc9 a6be
00000030: 4051 85be 6a40 9cbc 5a82 073e 3950 1a3e
00000040: 2ce8 7fbe 6767 a7be 8b2e ec3d db35 04be
00000050: 638d 8abe cf8c 8f3e 8394 3ebd da13 b1be
00000060: ba0a 2a3e c5d6 c8bd 7ba5 9abe 489e ee3e
00000070: 9cf2 d8be a88d f03d f383 ef3d 6a60 0c3f
00000080: 07cc 9fbe 05dc 153e 6baa 89bd 11c5 353d
00000090: 56ed b13e 9b85 15bd bbdd 813e 9f9f 79be
000000a0: afc4 393e 78ae c83e cf94 7e3e 4b38 91be
000000b0: 14e4 453c 1e3c 823e 999a ea3c e32f c73e
000000c0: 02de af3e 9147 c23d 5264 463e 8b03 bd3d
000000d0: 88d2 f2be 0fea b53e df64 e8bd 1cd1 ab3e
000000e0: 8ba7 763e 68e2 1b3e c7d0 bebe 7c5d c43e
000000f0: 4f0d 953e 725e 753e 7e3a cebe 0558 40be
00000100: 37b1 8e3d c6ec b73e 4cb2 c7bd 8f0b f1bd
00000110: 368a db3d 8fb2 88be 9de1 4fbd 8505 84be
00000120: 9c92 95be 6ae3 95bd e12f ef3e 1ffe 0abe
00000130: 8b0c c23e 037c 44be 095c 93bd 1265 c0be
00000140: eec2 d83e c6fd d5bd 55e6 373e a603 52be
00000150: e70b 51be 3aca 37bd 1def a53e 9b3f 99be
00000160: b504 b73e c4a7 a7be fa78 71be 1081 ff3e
00000170: eda6 a23d 5a6d 913d ef64 11bf 593b 6a3e
00000180: b963 83be b817 abbe cba4 763e 0819 70be
00000190: c0f9 94bc dacc 6cbe 5951 90be ed09 3fbe
000001a0: 9c80 093e d9b2 0d3d 408f 03be cca4 c13e
0.07113355 0.15903717 0.01958802 -0.29151255 0.038129643 -0.40321773 0.22068173 0.08424862
-0.051539578 0.32062438 0.12568305 -0.32575646 -0.2603855 -0.019073684 0.13233319 0.15069665
-0.2499091 -0.32696077 0.11532315 -0.12911169 -0.27060995 0.28037116 -0.04652835 -0.34585458
0.16605654 -0.09806589 -0.30204377 0.46605134 -0.42372596 0.11745769 0.11695089 0.54834616
-0.31210348 0.14634712 -0.06721958 0.04437739 0.34751385 -0.03650437 0.2536448 -0.24377297
0.18141435 0.3919561 0.24861453 -0.2836326 0.012078304 0.2543649 0.028638171 0.38903722
0.34349066 0.094863065 0.19374207 0.092291914 -0.47426248 0.35530135 -0.11347365 0.33557975
0.2408735 0.15223086 -0.3726866 0.38352573 0.29111716 0.2396181 -0.40279 -0.18783577
0.06967395 0.3592283 -0.09750804 -0.11769783 0.10719721 -0.2669873 -0.05075227 -0.2578546
-0.29213417 -0.073187664 0.46716216 -0.13573502 0.37900195 -0.19187932 -0.07195289 -0.3757711
0.4233622 -0.10448794 0.17958958 -0.20509204 -0.20414697 -0.044870593 0.3240899 -0.2993134
0.3574578 -0.32745183 -0.23581305 0.49903154 0.07941995 0.07100935 -0.5679464 0.22874202
-0.2566202 -0.33416533 0.24086301 -0.23447049 -0.018185496 -0.2312502 -0.28187063 -0.1865613
0.13427967 0.03459439 -0.12847614 0.37821043

gru_cp_bw.weight_hh_l0 f4 [18, 6]
00000000: cfdd 64be 99c5 6f3e 5f2e 033f cdb3 23be
00000010: 811b 6abe 994c bdbd d5ef d03d fe82 6fbd
00000020: e0b1 a4bd 4ccb 2b3e c852 24bf a255 d5bd
00000030: 3792 663d 9594 fdbd 0c1a 4cbe 1629 b7be
00000040: b565 4c3e 8476 5f3e c1c8 3ebe dd82 573e
00000050: 1aa6 673e 377e 463e c7aa 343e 2ad4 b1be
00000060: c60c 7fbe 3dfb 433e bc78 88bd 057d 5dbe
00000070: b4a0 a4be 21b4 c83e 45f5 a8be 4ba4 ae3e
00000080: 661d b6be b292 a13e 2d97 f7bd 8686 6abe
00000090: e934 a2be 0746 84be 9be1 a53e 13ec bcbc
000000a0: 1d36 35be 2043 ccbe 1b92 ba3d 21a9 073d
000000b0: a515 9dbe dea2 a13e 389e ca3d 95a4 7fbd
000000c0: ae6f 953e 22e7 79be 7230 ae3e 7733 9dbd
000000d0: d088 1cbe b1a9 b0be 69cc 093f db5e 8b3e
000000e0: 2718 fb3e 149b 90be 3ac3 ea3e 823a 493e
000000f0: a2e0 903e 95cc 41be b655 9ebd 40ce 6e3d
00000100: 0861 3bbd 4ffb 6fbe 7789 643e b889 71be
00000110: 6cbc a7be c61f d33d 6c90 86be 44f2 dd3e
00000120: a3ab 703e 98f1 213e 8147 cd3e ce61 bbbb
00000130: 1698 1c3f d4cc 9dbe e80a 363c ffe6 0bbe
00000140: 4eb1 c4be c17b 43be 40ab 8b3e a614 29be
00000150: baf3 133f d025 2d3f 6516 4c3e 4de5 903e
00000160: be2f a73e 562b 14be 9101 04bb 1362 193e
00000170: 9a4c a8bd 4ebf 99bc 5194 05bf 3815 5cbe
00000180: 9946 f23d 393c 2a3f 3e98 9e3e 3e02 2cbe
00000190: 329e eb3e 0c55 8b3e 7f95 d43e fe9f b0bd
000001a0: 1147 093f ac5e dcbd ef0d 033f f615 24be
-0.22350238 0.23415221 0.5124263 -0.15986557 -0.22862054 -0.092431255 0.10201994 -0.058474533
-0.080417395 0.1677677 -0.64188814 -0.10416724 0.056291785 -0.123818554 -0.19931811 -0.35773534
0.19960673 0.21822554 -0.18631269 0.21046014 0.22621956 0.19384085 0.17643271 -0.3473218
-0.24907216 0.19138809 -0.06663653 -0.21629722 -0.32153857 0.39199927 -0.32999626 0.3410972
-0.35569304 0.31557232 -0.12089381 -0.22902879 -0.31680992 -0.25834677 0.32398686 -0.023061788
-0.17696424 -0.39894962 0.09109899 0.03312028 -0.30680576 0.3156957 0.09893459 -0.062412817
0.29186767 -0.24404576 0.34021336 -0.07675832 -0.15286565 -0.34504464 0.5382753 0.27220806
0.49041864 -0.28243315 0.4585207 0.19651225 0.2829638 -0.18925698 -0.07731192 0.058302164
-0.045746833 -0.2343571 0.22318064 -0.23587692 -0.32760942 0.10308795 -0.2628206 0.43348897
0.23502974 0.15814817 0.40093616 -0.0057184463 0.61169565 -0.30820334 0.011110999 -0.13662337
-0.38416523 -0.19090177 0.2727909 -0.16511783 0.5779377 0.6763582 0.19930418 0.28299943
0.32653612 -0.14469656 -0.0020142535 0.14978819 -0.082177356 -0.018767979 -0.5217944 -0.2149247
0.11829872 0.6649814 0.30975527 -0.1679773 0.4601913 0.27213323 0.41520306 -0.08624266
0.53624064 -0.10760245 0.51193136 -0.16024002

gru_cp_bw.bias_ih_l0 f4 [18]
00000000: b4db 59bc 83a3 1d3d a63e dc3e f52a 58be
00000010: 5ebb aebe 14fa a73e 99e3 83be 885a 8abd
00000020: 2337 84be fea3 d3bd 8db6 78be cfa9 aebe
00000030: f82f d6bd ab0b a13d 9554 b0bc 05f2 e73c
00000040: 5a2f 8a3d b5eb 113e
-0.01329701 0.038486015 0.43016547 -0.21110137 -0.34127325 0.32807982 -0.2575958 -0.06755549
-0.25823316 -0.103340134 -0.24288388 -0.3411393 -0.10458368 0.078635536 -0.021524707 0.028313646
0.06747313 0.14250071

gru_cp_bw.bias_hh_l0 f4 [18]
00000000: b1f7 c33d 8f0b 51be 5fb7 363f c8bd 873e
00000010: 01be edbd 7455 493e a7fc 1dbd 695b b4be
00000020: 95d1 243e d961 4cbe b47f bfbe ff99 6c3e
00000030: baaf b53e 1fd6 823e c498 873e cea0 683e
00000040: 550c 22be 700c 0b3d
0.09568728 -0.20414566 0.7137355 0.2651198 -0.11608506 0.19661504 -0.038571026 -0.3522599
0.16095574 -0.19959201 -0.37402117 0.2310562 0.3548563 0.25553986 0.26483738 0.22717592
-0.15825017 0.03394741

attention_dp.context f4 [14]
00000000: c19d c6bf e78a 87bf f350 a23f 10f6 66bf
00000010: 02b6 eb3e 6142 16bf c8ed b9bf 626b 00bf
00000020: b21c efbf 913d 52bf e916 d13f 5eed 893f
00000030: e9e9 b2be 0161 24bf
-1.5516893 -1.0589265 1.2680954 -0.9021921 0.46037298 -0.58695036 -1.452569 -0.50163853
-1.8680632 -0.8212519 1.6335117 1.0775564 -0.34944084 -0.64210516
