ablation2_activation_function/birnn_time_decay/final_model.pt (torch, 64457 bytes, 25 tensors)

embed_dp.weight f4 [1292, 7]
0.0 0.0 0.0 0.0 0.0 0.0 0.0 -0.27749014
1.4271985 1.4187721 -0.11459706 -0.864177 -1.551907 1.8711523 -0.051905703 -0.5860455
-1.7713661 0.82601863 0.9539283 0.5032464 -0.1962466 0.2828466 -0.34762982 0.5561977
-0.28077468 -0.4962105 -0.44821066 -0.1211315 0.9046947 -0.53284 0.8991736 -0.49921972
-1.605554 -1.1975114 2.0119846 0.29619926 0.070694566 0.97109634 -0.79408896 0.19436836
-0.6561251 -0.6445222 -0.5033759 1.7013971 -0.9680262 -2.6430566 1.6947614 0.2866351
-1.3375769 -1.2018025 -0.116870485 -0.7096119 -0.33887652 -0.7488897 0.2976815 -0.7474741
0.22971955 -1.0387225 0.0012369654 0.40826926 -0.7484173 -1.2918205 -0.91105884 -1.551278
0.9028882 -0.07344898 0.46471944 -0.873008 -0.76758415 0.017407319 -0.11585901 -0.10620899
-0.19854988 0.29891756 -0.42634732 0.77199787 -0.25340915 -0.2733301 0.39166078 -1.4101152
1.0440108 0.16063233 -0.76069057 -0.13994816 0.25554314 -2.329068 1.461602 0.75780857
0.22759213 0.1766097 1.9498553 -0.105712414 0.24840027 -2.5642788 -1.3899826 -0.8422559
-1.2569082 -0.72159666 -1.7899567 1.078357 -0.2725111 1.309351 -0.8266805 -1.0460513
0.25181368 -1.5164429 2.6797059 0.4387077 -1.0059686 -0.3721238 -0.6409022 -0.69922763
-2.7564926 0.5845647 1.4131821 1.2944127 0.31327078 -0.70345706 1.29202 0.9014657
0.54491425 1.4722021 0.23472929 -1.3070681 -1.2340401 0.18135776 1.4524215 0.28353694
-0.092575505 0.90332794 -1.2367886 -0.12660791 -0.6328183 0.7873979 -1.6013086 1.4274714
0.44742948 -0.88543653 0.10855231 -0.9689501 -1.4800358 1.0964519 0.51327884 -0.86880684
-1.380386 -0.45987925 0.7925221 -1.2863203 0.9591571 -0.7462072 2.4432411 2.0498064
1.0684892 -1.3580487 -0.20791237 0.20347095 0.24474487 1.114923 -0.5787153 -0.8425427
1.198043 0.38040587 -0.27530098 -1.1545528 1.0780624 -0.19002269 1.1171442 -0.36848766
-0.30805346 0.053324085 0.2857684 0.54681385 -1.3461426 0.7507658 2.4249074 -0.6263622
-0.60171497 -0.6600325 -0.17192 0.30310494 -1.1233454 -0.59366184 0.3958243 0.109190606
0.69413656 1.6804457 -0.3076174 1.2403862 0.64991087 0.24884295 -0.44689977 -1.0430733
-0.50437987 0.8791241 0.2781062 0.6337109 -0.7867586 0.042183165 -0.025833353 0.03436217
-0.91208786 -0.57450926 0.12368276 -0.020894814 0.56223375 2.574293 0.7416922 -0.76941985
0.60685515 -0.09334363 -0.8218073 1.5026314 -0.061783187 1.0954717 -0.9437866 0.12652743
-1.1568855 -1.1984934 0.14990172 -0.16209625 1.2760276 0.7214001 -0.03771325 0.7684276
-1.0681604 0.7671919 -0.54995745 1.4794419 0.072334856 1.678783 -0.54355085 -0.051395494
0.08961887 0.0044002132 1.3675386 -0.7425143 0.974197 1.1414433 0.08720589 0.09404651
0.56849194 0.20298482 0.11496269 -0.72636795 -0.8204744 -0.025955511 -0.5500455 -0.7840935
-0.57168007 -1.021756 0.7030245 0.40470257 0.39307237 0.17673506 -1.9900111 1.1288986
00000000: 0000 0000 0000 0000 0000 0000 0000 0000
00000010: 0000 0000 0000 0000 0000 0000 3013 8ebe
00000020: 71ae b63f 539a b53f ddb1 eabd b43a 5dbf
00000030: e3a4 c6bf eb81 ef3f 139b 54bd 1407 16bf
00000040: 20bc e2bf f575 533f a534 743f c2d4 003f
00000050: def4 48be 45d1 903e 89fc b1be f962 0e3f
00000060: b3c1 8fbe 4d0f febe de7b e5be cb13 f8bd
00000070: 129a 673f 3468 08bf 3e30 663f ba99 ffbe
00000080: cb82 cdbf 0e48 99bf 5bc4 0040 6ea7 973e
00000090: 50c8 903d c599 783f 6a49 4bbf 8008 473e
000000a0: d1f7 27bf 68ff 24bf 3edd 00bf 61c7 d93f
000000b0: 91d0 77bf d727 29c0 f1ed d83f d6c1 923e
000000c0: b835 abbf aad4 99bf cb59 efbd 20a9 35bf
000000d0: 3981 adbe 3cb7 3fbf b669 983e 765a 3fbf
000000e0: 9a3b 6b3e dcf4 84bf ac21 a23a ab08 d13e
000000f0: 4798 3fbf 605a a5bf 273b 69bf 4790 c6bf
00000100: ae23 673f 6b6c 96bd b5ef ed3e 747d 5fbf
00000110: 6580 44bf cb99 8e3c 7d47 edbd 1984 d9bd
00000120: a950 4bbe b90b 993e 324a dabe a7a1 453f
00000130: d8be 81be ecf1 8bbe c387 c83e a87e b4bf
00000140: 25a2 853f cd7c 243e 9ebc 42bf 924e 0fbe
00000150: 8dd6 823e 730f 15c0 c615 bb3f beff 413f
00000160: e90d 693e 2cd9 343e dc94 f93f c07f d8bd
00000170: a45c 7e3e 251d 24c0 f3ea b1bf 159e 57bf
00000180: 5ee2 a0bf 8fba 38bf 4d1d e5bf 9a07 8a3f
00000190: 9386 8bbe d098 a73f 55a1 53bf 02e5 85bf
000001a0: b9ed 803e cd1a c2bf 4d80 2b40 4c9e e03e
000001b0: 94c3 80bf 0387 bebe 2b12 24bf 9500 33bf
000001c0: 606a 30c0 08a6 153f 27e3 b43f 51af a53f
000001d0: 0765 a03e c315 34bf e960 a53f 75c6 663f
000001e0: 807f 0b3f 1e71 bc3f e05c 703e 024e a7bf
000001f0: 07f5 9dbf d9b5 393e f3e8 b93f c12b 913e
00000200: 3a98 bdbd 8040 673f 174f 9ebf 81a5 01be
00000210: 6100 22bf e992 493f aef7 ccbf 62b7 b63f
00000220: 7a15 e53e f8ab 62bf ac50 de3d 1d0d 78bf
00000230: d071 bdbf 8958 8c3f 3e66 033f 206a 5ebf
00000240: 7db0 b0bf 4b75 ebbe bae2 4a3f 25a6 a4bf
00000250: 528b 753f 6f07 3fbf 105e 1c40 0730 0340
00000260: 41c4 883f 8ad4 adbf fbe6 54be b05a 503e
00000270: 669e 7a3e ccb5 8e3f b026 14bf e1b0 57bf
00000280: 7959 993f 8fc4 c23e 40f4 8cbe 63c8 93bf
00000290: f3fd 893f 4f95 42be 95fe 8e3f 6aaa bcbe
000002a0: 2fb9 9dbe 5b6a 5a3d 3c50 923e fefb 0b3f
000002b0: 674e acbf 3032 403f af31 1b40 4659 20bf
000002c0: fe09 1abf e4f7 28bf cc0b 30be 9230 9b3e
000002d0: c8c9 8fbf 39fa 17bf 7ca9 ca3e 539f df3d
000002e0: efb2 313f d818 d73f 0780 9dbe fac4 9e3f
000002f0: 8f60 263f b0d0 7e3e 0cd0 e4be 6d83 85bf
00000300: 0a1f 01bf 470e 613f f063 8e3e e13a 223f
00000310: 0369 49bf 41c8 2c3d 78a0 d3bc 59bf 0c3d
00000320: 977e 69bf 0a13 13bf 634d fd3d 9a2b abbc
00000330: 8dee 0f3f 37c1 2440 8adf 3d3f b3f8 44bf
00000340: dc5a 1b3f f22a bfbd f761 52bf 3a56 c03f
00000350: 5e10 7dbd 6b38 8c3f 009c 71bf 6890 013e
00000360: d314 94bf 3b68 99bf d67f 193e 8ffc 25be
00000370: df54 a33f adad 383f 3579 1abd acb7 443f
00000380: 7bb9 88bf b066 443f 03ca 0cbf 5a5e bd3f
00000390: 4c24 943d 5de2 d63f 2626 0bbf 1584 52bd
000003a0: 198a b73d aa2f 903b 810b af3f 6b15 3ebf
000003b0: f964 793f d01a 923f 0099 b23d 759b c03d
000003c0: b088 113f 41db 4f3e 8f71 eb3d 40f3 39bf
000003d0: 9c0a 52bf a7a0 d4bc c8cf 0cbf 5aba 48bf
000003e0: a059 12bf e7c8 82bf 6af9 333f 2d35 cf3e
000003f0: c840 c93e 09fa 343e afb8 febf c07f 903f

embed_cp.weight f4 [620, 6]
0.0 0.0 0.0 0.0 0.0 0.0 0.23850495 -0.6762234
-2.0492334 -0.061832443 0.5579541 1.714312 0.6911408 -0.53271747 -1.1209382 0.34038568
0.36347792 -1.6482868 0.6313625 -0.56624764 -2.362305 -0.9231172 -0.041942455 1.3266848
-1.7706962 -0.034905016 -0.16013089 0.825593 1.0109714 0.3619375 1.3219599 -0.9529652
0.7419559 0.9882422 -0.45067197 2.0052083 -0.37236306 -1.06215 -0.42628613 -0.48273504
0.370388 -0.10214049 1.199753 2.3585482 -0.59378964 -0.7128294 0.74477255 -0.36749816
0.4204891 -1.0515901 -0.40746945 0.5394209 -1.0515094 -0.19699922 -0.07869946 -0.4547399
-0.41957575 -0.30711704 -1.8520894 0.18236524 2.0280411 -1.0559958 0.26628566 0.7225408
-0.9973593 1.5693942 0.68168664 -0.80715877 0.28577653 -0.17870137 -0.4712817 0.22808328
-0.5723402 1.6777008 1.6919589 -0.6980695 0.71308565 1.1073974 0.6325392 -0.32607043
-0.8311138 -1.2104486 0.01859942 0.2246756 -0.95977014 0.34537262 -0.91644686 -2.660284
-0.16916037 -1.4160143 2.3139572 1.3555413 -1.342576 0.6242232 -1.3650575 0.9346657
1.1304418 0.22563523 0.49153358 -0.16899523 0.9545843 0.11488097 1.0195645 0.20258297
-1.6695769 -0.15997688 -0.06357268 1.3084744 0.807605 -0.21459319 -0.12217282 -0.38772437
-2.4333754 0.5913959 0.46459252 0.7636246 -1.6223898 -1.1256444 -2.4899988 -0.38604194
0.6029404 1.026389 -0.32922694 -0.86963177 -0.46488884 -0.47206816 -0.40871564 0.97641635
2.730112 0.8615477 -1.7770501 0.45807335 0.17563966 0.08767614 -1.0797036 0.30143887
-1.1937749 -1.019556 1.839283 -1.7647731 -0.6757648 -0.23377292 0.6723534 1.1475258
0.43525428 1.264413 1.6706474 -1.0275432 -0.17145039 2.360651 -0.18513922 -0.1038565
0.91521907 0.71795624 0.62487006 0.929853 -1.3380868 -0.4010843 -1.7563037 -0.5190454
-0.59136045 0.6021269 -1.807994 0.7049207 0.73085797 1.5301625 0.86171275 -0.43640146
1.7818551 -0.082254544 0.2670708 1.4784663 -0.6333566 -0.29237285 -0.61084205 1.1268121
-0.972223 -0.41915518 -0.47260854 0.92167443 -2.0214224 -1.9756986 0.4333648 2.1832676
0.31707492 0.6502575 0.08288385 0.34371206 1.5601853 -0.1447659 -0.04762276 0.09795754
-0.06391376 -0.91838187 0.39553392 -2.494657 0.22412853 0.18697658 -1.5475762 0.4457726
0.37840593 -0.54446983 0.7727481 0.7760671 1.2203487 1.5574311 1.1114552 1.1880199
-1.493824 -1.7778208 0.3274749 1.6836473 -0.5938202 -1.2868218 0.84693205 -0.33262318
-1.1698717 0.32857877 1.4601071 0.7882643 1.0228738 0.08841362 -0.15344845 0.059412077
-0.05517287 -0.24432024 0.23853266 1.8639548 -0.18878615 0.893282 -1.136342 -0.3454596
0.39376286 -1.2819809 4.785655e-05 -1.9918753 -0.124065824 -1.0648018 -1.5634719 1.446615
0.81440467 0.22786446 -1.0633972 -0.6138649 -2.373579 -0.48363608 -0.9999188 -0.2635813
-0.73880136 0.4599951 1.5612487 -1.6887673 0.4822983 -0.3535673 -2.2154284 -0.17207788
00000000: 0000 0000 0000 0000 0000 0000 0000 0000
00000010: 0000 0000 0000 0000 a43a 743e fa1c 2dbf
00000020: a426 03c0 0444 7dbd 14d6 0e3f 936e db3f
00000030: 9aee 303f 2c60 08bf e77a 8fbf 0847 ae3e
00000040: c719 ba3e 10fb d2bf f9a0 213f 9bf5 10bf
00000050: 0130 17c0 6951 6cbf dacb 2bbd cfd0 a93f
00000060: 2ca6 e2bf 90f8 0ebd 5af9 23be 105a 533f
00000070: 8367 813f df4f b93e fb35 a93f 87f5 73bf
00000080: d2f0 3d3f 71fd 7c3f 7abe e6be 5555 0040
00000090: 5fa6 bebe 88f4 87bf 2d42 dabe 0c29 f7be
000000a0: 7fa3 bd3e 092f d1bd 8291 993f 74f2 1640
000000b0: 9902 18bf fd7b 36bf 6aa9 3e3f b828 bcbe
000000c0: 594a d73e 819a 86bf d69f d0be 7d17 0a3f
000000d0: dc97 86bf 2aba 49be 2f2d a1bd abd3 e8be
000000e0: a2d2 d6be 723e 9dbe 4411 edbf f4bd 3a3e
000000f0: 6dcb 0140 df2a 87bf 9856 883e 6ff8 383f
00000100: f052 7fbf e9e1 c83f 0483 2e3f f5a1 4ebf
00000110: 4d51 923e 7efd 36be d64b f1be aa8e 693e
00000120: e384 12bf e6be d63f 1c92 d83f afb4 32bf
00000130: c88c 363f 33bf 8d3f 17ee 213f b4f2 a6be
00000140: e0c3 54bf fbef 9abf d05d 983c 5c11 663e
00000150: 7fb3 75bf aed4 b03e 439c 6abf 1842 2ac0
00000160: 6038 2dbe f53f b5bf e017 1440 6182 ad3f
00000170: 88d9 abbf 17cd 1f3f 34ba aebf 4046 6f3f
00000180: 51b2 903f ec0c 673e 4aaa fb3e 160d 2dbe
00000190: a35f 743f b746 eb3d 1781 823f e971 4f3e
000001a0: b2b4 d5bf fbd0 23be 6532 82bd 177c a73f
000001b0: 34bf 4e3f 51be 5bbe be35 fabd cf83 c6be
000001c0: 6cbc 1bc0 b965 173f 12df ed3e e77c 433f
000001d0: 78aa cfbf 1e15 90bf 245c 1fc0 4aa7 c5be
000001e0: 4d5a 1a3f b760 833f 6f90 a8be 30a0 5ebf
000001f0: e905 eebe ebb2 f1be 2d43 d1be 6cf6 793f
00000200: 28ba 2e40 648e 5c3f 6176 e3bf 9788 ea3e
00000210: e2da 333e 8c8f b33d ba33 8abf 3256 9a3e
00000220: 9ecd 98bf d080 82bf a06d eb3f 16e4 e1bf
00000230: ecfe 2cbf 2b62 6fbe 5a1f 2c3f 20e2 923f
00000240: a6d9 de3e 49d8 a13f c6d7 d53f 8986 83bf
00000250: b190 2fbe e814 1740 2395 3dbe b7b2 d4bd
00000260: cc4b 6a3f fbcb 373f 7cf7 1f3f d90a 6e3f
00000270: 6e46 abbf ec5a cdbe 8fce e0bf 29e0 04bf
00000280: 6663 17bf fd24 1a3f 596c e7bf af75 343f
00000290: 8219 3b3f 5ddc c33f 3599 5c3f 0370 dfbe
000002a0: d413 e43f 1275 a8bd 81bd 883e 623e bd3f
000002b0: a823 22bf e5b1 95be 2560 1cbf 613b 903f
000002c0: 9be3 78bf 829b d6be bff9 f1be dbf2 6b3f
000002d0: fc5e 01c0 b1e3 fcbf fee1 dd3e a8ba 0b40
000002e0: a557 a23e 4777 263f 02bf a93d 07fb af3e
000002f0: 27b4 c73f 833d 14be 1510 43bd f69d c83d
00000300: 38e5 82bd 131b 6bbf 6c83 ca3e 76a8 1fc0
00000310: f381 653e ca76 3f3e fa16 c6bf 4e3c e43e
00000320: 6cbe c13e 6062 0bbf d2d2 453f 55ac 463f
00000330: 6334 9c3f e759 c73f 2a44 8e3f 0911 983f
00000340: a035 bfbf a28f e3bf caaa a73e c181 d73f
00000350: 9a04 18bf 94b6 a4bf 8ad0 583f 964d aabe
00000360: 5bbe 95bf 7a3b a83e cae4 ba3f b0cb 493f
00000370: 87ed 823f 3312 b53d 9721 1dbe 145a 733d
00000380: f3fc 61bd 162f 7abe e841 743e 1296 ee3f
00000390: 2851 41be 21ae 643f a873 91bf 15e0 b0be
000003a0: 499b c93e f317 a4bf 94b9 4838 c5f5 febf
000003b0: 3916 febd 6d4b 88bf d91f c8bf ae2a b93f
000003c0: d37c 503f 4d55 693e 661d 88bf 4026 1dbf
000003d0: b8e8 17c0 269f f7be aefa 7fbf 21f4 86be
000003e0: 1622 3dbf 7a84 eb3e ffd6 c73f 8729 d8bf
000003f0: ceef f63e c606 b5be 94c9 0dc0 2f35 30be

gru_dp_fw.decays f4 [7]
-2.0870554e+09 2.6699404e-26 -2.0870554e+09 -5.3291465e-32 -5.349054e-32 8.6225055e-26 -5.249641e-32
00000000: e0cb f8ce 8435 0415 e0cb f8ce 415a 8a8b
00000010: 90de 8a8b 9f7b d515 d949 888b

gru_dp_fw.gru_cell.weight_ih f4 [21, 7]
0.1839984 0.024964258 -0.15957221 0.37350163 0.22184965 0.0026621856 -0.12960231 0.3612074
0.008582208 -0.15543361 0.1553438 0.2642795 -0.23976272 0.21428373 0.27662668 -0.10841982
-0.2812087 -0.12701952 0.27581534 0.15342394 -0.1795366 0.18156885 -0.08077044 -0.14026228
-0.128726 0.027326725 -0.23074418 0.055815376 -0.09824873 0.2561067 0.050610002 -0.057238948
-0.0757621 -0.15003696 -0.080139466 0.35501304 -0.30077133 -0.15646459 0.29387078 -0.3088444
0.3289367 -0.27200451 -0.13654211 0.017383168 -0.342216 -0.118331924 0.19139205 -0.094089076
-0.15416665 0.08394168 -0.24037096 -0.27999064 -0.36053914 -0.011020056 0.28976983 0.07411946
0.083143994 -0.18043476 0.30278814 0.31306735 -0.35785922 -0.060246 0.25364876 0.25543103
0.064620525 0.37677673 0.21452512 0.22532435 0.11473594 -0.13327774 0.30638406 0.14083467
-0.28498614 -0.081710555 0.1534845 0.36664888 0.32956785 -0.3236079 0.06903975 0.3205106
0.13775757 0.13406967 0.2694365 0.22169362 -0.13410462 -0.18307433 0.0011710733 0.26587972
0.2594555 0.16812171 0.29427025 -0.33128303 0.2082148 0.106281236 0.121436074 -0.018907622
0.17741524 -0.19864157 0.2571572 -0.09477709 0.33684453 0.12691922 -0.37610942 0.019768119
-0.18572702 -0.09798762 -0.114087075 -0.18178439 0.060893063 -0.3452529 0.2634451 -0.123987466
-0.35319075 0.23219417 -0.17901097 0.20964 -0.36137673 -0.23632587 0.03348771 0.2557415
-0.1479037 -0.06612579 0.20750119 -0.35656163 -0.32943726 0.11896489 0.24346425 -0.21826726
0.24262065 0.27137482 -0.042934876 -0.35253152 0.121482074 0.167899 -0.29957843 0.26819605
0.34223711 -0.30128592 0.36128518 -0.3340579 0.23240457 0.20364262 0.090170436 0.10396671
-0.061840426 0.046878524 -0.26686692
00000000: 146a 3c3e d881 cc3c e666 23be 9b3b bf3e
00000010: 8e2c 633e 1078 2e3b 78b6 04be 2df0 b83e
00000020: 649c 0c3c fd29 1fbe 7212 1f3e a54f 873e
00000030: 5c84 75be 326d 5b3e 03a2 8d3e 360b debd
00000040: 96fa 8fbe 6811 02be ab37 8d3e 2a1b 1d3e
00000050: 71d8 37be 2fed 393e f96a a5bd eaa0 0fbe
00000060: c0d0 03be 4cdc df3c 3448 6cbe aa9e 643d
00000070: a136 c9bd 6b20 833e 6f4c 4f3d 6373 6abd
00000080: 2929 9bbd 4aa3 19be 2920 a4bd 45c4 b53e
00000090: b3fe 99be 4138 20be 3b76 963e da20 9ebe
000000a0: 646a a83e 2d44 8bbe b2d1 0bbe 2567 8e3c
000000b0: f036 afbe 0258 f2bd 47fc 433e c6b1 c0bd
000000c0: dddd 1dbe 9ee9 ab3d ce23 76be ef5a 8fbe
000000d0: 9698 b8be 778d 34bc b65c 943e f2cb 973d
000000e0: 6647 aa3d e4c3 38be 0c07 9b3e 5d4a a03e
000000f0: 5339 b7be 82c4 76bd 40de 813e dbc7 823e
00000100: c457 843d e1e8 c03e 79ac 5b3e 6dbb 663e
00000110: adfa ea3d f679 08be 5fde 9c3e f736 103e
00000120: b4e9 91be dd57 a7bd 0a2b 1d3e 67b9 bb3e
00000130: 1ebd a83e efaf a5be b664 8d3d f719 a43e
00000140: 5210 0d3e 8f49 093e 95f3 893e a703 633e
00000150: b952 09be d677 3bbe b37e 993a 6321 883e
00000160: 5ad7 843e 1928 2c3e 97aa 963e ee9d a9be
00000170: 4336 553e faa9 d93d 7ab3 f83d 28e4 9abc
00000180: 57ac 353e b268 4bbe 1caa 833e 7e1a c2bd
00000190: e376 ac3e 1df7 013e 6a91 c0be c0f0 a13c
000001a0: 392f 3ebe bcad c8bd 7ca6 e9bd b025 3abe
000001b0: 016b 793d fdc4 b0be 47e2 863e 24ed fdbd
000001c0: 6bd5 b4be 4fc4 6d3e a74e 37be deab 563e
000001d0: 5f06 b9be 69ff 71be 692a 093d 8df0 823e
000001e0: 1174 17be f56c 87bd 317b 543e 3f8f b6be
000001f0: 00ac a8be dda3 f33d b14e 793e 7481 5fbe
00000200: 8c71 783e a4f1 8a3e 7bdc 2fbd 037f b4be
00000210: 98cb f83d b7ed 2b3e 5862 99be fe50 893e
00000220: b439 af3e 2642 9abe 5ffa b83e a309 abbe
00000230: 77fb 6d3e b187 503e 47ab b83d 80ec d43d
00000240: 634c 7dbd b203 403d c8a2 88be

gru_dp_fw.gru_cell.weight_hh f4 [21, 7]
-0.06516043 -0.21025293 -0.35839957 -0.28040743 -0.34834215 0.06284667 0.12223703 -0.43452907
-0.28244838 0.06066929 0.1403282 -0.06934572 -0.06929611 -0.096458815 -0.4077345 0.28253892
-0.20847067 0.28671318 -0.40011072 0.005877192 -0.2965121 -0.068237446 0.11785079 0.2755833
0.05766806 -0.23180605 -0.21298015 0.014849998 0.19235699 -0.029668111 -0.052069776 0.1346807
-0.38532612 0.27900487 0.23070318 -0.12791671 0.13990998 0.08556889 -0.1849519 0.047187887
0.010325576 -0.4180813 0.057168078 -0.021776373 -0.14597294 -0.30637482 0.24358378 -0.18024468
0.2642903 -0.1861898 -0.054713853 -0.20665355 -0.36457056 0.29768327 0.31070775 -0.057402913
0.3651386 -0.23305431 -0.22729321 -0.24463665 -0.27837944 0.35279214 -0.0034602103 -0.016140718
0.30723426 -0.19379698 -0.35616466 -0.19031657 -0.2905183 0.22872302 0.10225731 -0.043188173
-0.27769214 0.32911503 0.292176 0.045794785 0.2475536 -0.27770707 0.28244263 -0.044851687
-0.04262206 0.09122232 0.040759016 0.1243817 -0.12207707 0.30917636 -0.070136845 -0.14241974
-0.31659922 0.28228337 0.2942695 0.015352966 -0.20428358 -0.02692008 -0.059788875 -0.12989877
-0.05895639 0.057477314 0.32058772 0.2837869 0.15884732 0.38547218 -0.077440664 0.21280177
-0.25131714 0.18631196 0.14915775 -0.23268421 -0.2308232 0.10122521 -0.16131888 0.33320656
0.30922058 -0.01315834 0.070646256 0.23583923 0.009766072 -0.3714185 -0.04722516 0.025600785
-0.053362355 -0.20880376 -0.016951928 0.2703598 -0.1693571 0.094716355 0.088718206 0.06716826
-0.3894048 -0.17490269 0.0021129597 0.34508425 0.071522795 0.24463403 -0.07614991 -0.004054082
0.014415287 -0.36188772 0.34034947 -0.26636684 -0.16707532 0.21512057 -0.31030452 0.0025364384
-0.069085255 -0.09138821 0.10476869
00000000: d572 85bd 8b4c 57be 2680 b7be 9091 8fbe
00000010: e759 b2be c1b5 803d 6857 fa3d 987a debe
00000020: 139d 90be 5d80 783d 32b2 0f3e 2105 8ebd
00000030: 1eeb 8dbd 338c c5bd 94c2 d0be f1a8 903e
00000040: 5679 55be 12cc 923e 50db ccbe 7695 c03b
00000050: 6fd0 97be 13c0 8bbd c15b f13d 4119 8d3e
00000060: 5835 6c3d 915e 6dbe 7817 5abe 684d 733c
00000070: 3bf9 443e 8a0a f3bc 1e47 55bd bde9 093e
00000080: 7749 c5be bad9 8e3e 743d 6c3e 99fc 02be
00000090: 9044 0f3e be3e af3d 0864 3dbe 1648 413d
000000a0: 9b2c 293c c10e d6be 1329 6a3d 5d64 b2bc
000000b0: ee79 15be 29dd 9cbe 076e 793e 1092 38be
000000c0: 0f51 873e 8aa8 3ebe a21b 60bd fd9c 53be
000000d0: fea8 babe f169 983e 1615 9f3e 511f 6bbd
000000e0: 72f3 ba3e caa5 6ebe 8dbf 68be 0882 7abe
000000f0: c087 8ebe 2ca1 b43e b2c4 62bb 8a39 84bc
00000100: cf4d 9d3e b772 46be 375b b6be 59e2 42be
00000110: d1be 94be 5e36 6a3e 486c d13d 15e6 30bd
00000120: aa2d 8ebe c481 a83e 1898 953e 5093 3b3d
00000130: b17e 7d3e 9f2f 8ebe 529c 903e 67b6 37bd
00000140: 7894 2ebd c5d2 ba3d edf2 263d d5bb fe3d
00000150: 8b03 fabd 5d4c 9e3e e8a3 8fbd 7bd6 11be
00000160: 4b19 a2be 7287 903e 7eaa 963e 028b 7b3c
00000170: b72f 51be 8087 dcbc 2ee5 74bd 2f04 05be
00000180: 417c 71bd 556d 6b3d 1324 a43e 844c 913e
00000190: dfa8 223e 9c5c c53e 3699 9ebd b5e8 593e
000001a0: a4ac 80be 90c8 3e3e cfbc 183e c544 6ebe
000001b0: eb5c 6cbe 2a4f cf3d c730 25be 0d9a aa3e
000001c0: 2952 9e3e 1496 57bc fcae 903d d77f 713e
000001d0: e001 203c 912a bebe 2b6f 41bd bdb8 d13c
000001e0: 7c92 5abd a7d0 55be c5de 8abc 9a6c 8a3e
000001f0: f36b 2dbe a6fa c13d e4b1 b53d 838f 893d
00000200: 1160 c7be b119 33be 9579 0a3b e2ae b03e
00000210: 8b7a 923d 5881 7a3e 7cf4 9bbd 1bd8 84bb
00000220: 192e 6c3c 5949 b9be 4942 ae3e 3c61 88be
00000230: cb15 2bbe 9148 5c3e 3ce0 9ebe 603a 263b
00000240: 927c 8dbd be29 bbbd f890 d63d

gru_dp_fw.gru_cell.bias_ih f4 [21]
-0.19724385 0.12411819 -0.15140747 -0.3867307 -0.14614075 -0.10721807 0.02629565 0.1401034
-0.27914047 0.07467951 0.19531411 -0.064327866 -0.1051591 -0.24754848 -0.1666577 0.108311355
-0.1776694 -0.15067932 -0.16818382 0.396408 0.23044223
00000000: 4bfa 49be ad31 fe3d 8f0a 1bbe 9101 c6be
00000010: eca5 15be 2695 dbbd fa69 d73c 4477 0f3e
00000020: 80eb 8ebe 92f1 983d 6c00 483e 54be 83bd
00000030: a75d d7bd 597d 7dbe 51a8 2abe 58d2 dd3d
00000040: f8ee 35be ae4b 1abe 6138 2cbe fdf5 ca3e
00000050: 0cf9 6b3e

gru_dp_fw.gru_cell.bias_hh f4 [21]
0.031785678 -0.14621249 0.114891924 -0.23672083 0.15174292 -0.091793865 0.2397348 0.07559545
-0.21857688 0.2446677 0.34614006 -0.02399198 0.2873957 0.23207453 -0.12270794 0.014445946
0.014095381 0.061682764 0.071092464 -0.25022554 -0.192259
00000000: b331 023d bab8 15be 754c eb3d f266 72be
00000010: 7f62 1b3e 6cfe bbbd 0a7d 753e cad1 9a3d
00000020: 9ed2 5fbe 2b8a 7a3e 4539 b13e d48a c4bc
00000030: 8725 933e f2a4 6d3e 4d4e fbbd b0ae 6c3c
00000040: 50f0 663c 11a7 7c3d ed98 913d 901d 80be
00000050: 8bdf 44be

gru_cp_fw.decays f4 [6]
-0.0046115895 -0.0052334773 -0.0016943044 -0.0032188168 -0.0019083723 -0.0018615883
00000000: d11c 97bb 977d abbb 6c13 deba c9f2 52bb
00000010: 5922 faba 8a00 f4ba

gru_cp_fw.gru_cell.weight_ih f4 [18, 6]
-0.35723087 0.20898883 0.11507921 0.4177196 0.123672456 0.008619022 0.34050483 0.04588897
-0.4344473 0.23105784 -0.21501164 0.26230907 0.36389318 0.31527832 0.019316126 -0.018997297
0.060319312 -0.21421716 -0.41324878 -0.00018443949 -0.019418942 -0.055692162 0.14040947 0.32793283
-0.28872538 -0.38842127 0.1660273 0.39376143 0.38929728 0.264289 -0.25217456 -0.2248099
0.42493862 0.28332698 0.16161852 0.44235098 -0.021489201 -0.09459757 0.4857273 -0.06461411
0.30266392 0.20767443 0.53387195 -0.28209218 -0.29358172 -0.63948643 -0.20005096 0.030395176
-0.1768396 -0.32922578 -0.089136206 0.24817303 -0.57650447 -0.5333947 -0.17657386 -0.31145024
0.5186696 -0.026716053 0.47298673 -0.37431043 0.04206194 -0.040489674 0.30207515 -0.100805186
0.009967821 -0.3553789 0.06690923 -0.21919718 -0.13907294 0.44080663 0.0027751091 0.08892693
0.34642693 0.14821087 -0.6354919 0.32153633 -0.29380405 0.010987552 -0.21064316 0.4437725
0.06030787 0.5330651 0.113458216 0.0075205136 0.39173326 0.22572228 -0.21490927 -0.20456788
0.5693361 0.47234097 -0.50812733 -0.25066 0.5007587 -0.060681112 0.4218582 -0.28766936
-0.1493184 -0.02351792 0.28383234 0.3511615 0.21521954 -0.3062373 -0.111911796 -0.22475252
0.31049463 0.006293326 0.20740247 -0.5242423
00000000: f7e6 b6be 2b01 563e a6ae eb3d 58df d53e
00000010: fc47 fd3d cc36 0d3c a656 ae3e 13f6 3b3d
00000020: e06f debe 6d9a 6c3e 032c 5cbe 604d 863e
00000030: 3550 ba3e 296c a13e da3c 9e3c 38a0 9bbc
00000040: 6211 773d be5b 5bbe 5895 d3be 1966 41b9
00000050: 7914 9fbc 771d 64bd 80c7 0f3e d0e6 a73e
00000060: d0d3 93be 27df c6be 0f03 2a3e 199b c93e
00000070: f951 c73e e350 873e 061d 81be 9134 66be
00000080: 8e91 d93e 3c10 913e 537f 253e d47b e23e
00000090: 1f0a b0bc 5fbc c1bd 40b1 f83e 6754 84bd
000000a0: c4f6 9a3e 9ba8 543e d5ab 083f 636e 90be
000000b0: 5850 96be 62b5 23bf 29da 4cbe 4eff f83c
000000c0: 7115 35be 4890 a8be 0b8d b6bd 1221 7e3e
000000d0: cc95 13bf 8e8c 08bf c7cf 34be 6876 9fbe
000000e0: 88c7 043f a0db dabc 512b f23e 9ea5 bfbe
000000f0: 2449 2c3d 80d8 25bd 98a9 9a3e f372 cebd
00000100: 1250 233c 39f4 b5be b507 893d 3a75 60be
00000110: 2369 0ebe 68b1 e13e 9bde 353b 531f b63d
00000120: df5e b13e 97c4 173e 99af 22bf 69a0 a43e
00000130: 7c6d 96be 2205 343c d7b2 57be 2636 e33e
00000140: 6305 773d f476 083f c85c e83d a46e f63b
00000150: 4391 c83e be23 673e 2d11 5cbe 3e7a 51be
00000160: 03c0 113f add6 f13e a214 02bf 8256 80be
00000170: b931 003f c28c 78bd ccfd d73e 6649 93be
00000180: ece6 18be a7a8 c0bc 7952 913e 71cb b33e
00000190: 8362 5c3e 23cb 9cbe 0332 e5bd 8625 66be
000001a0: 27f9 9e3e 3f38 ce3b 5061 543e be34 06bf

gru_cp_fw.gru_cell.weight_hh f4 [18, 6]
0.157745 -0.41948244 0.1774041 -0.075132266 -0.21037635 -0.33472857 -0.03051534 0.18070586
-0.188723 -0.08276089 -0.18676417 -0.05731661 0.29672456 0.29459116 0.057618257 0.21929827
-0.26112852 0.1955219 0.22805318 0.18022804 -0.22355801 0.27392873 -0.3318835 -0.08298113
-0.30264342 -0.145716 0.08370299 0.19975136 -0.28558666 0.26489174 -0.20920013 -0.07116038
-0.14365062 0.014617971 0.28204682 -0.3807309 0.50194013 -0.12979725 -0.19951744 -0.5766187
-0.38888028 -0.26650023 0.43915462 0.0476829 0.002808781 0.22653195 -0.09629653 -0.13594544
0.5972808 -0.57904136 0.5558289 -0.24255742 -0.32866883 -0.5261812 -0.05198075 -0.23483418
0.33408275 -0.52083224 -0.5307658 0.019737152 0.057170942 -0.3334152 -0.01093498 -0.13757382
-0.16407193 0.21446656 0.117276974 0.024875904 -0.02382006 -0.5034122 -0.41459188 -0.31678793
0.11083747 -0.26732495 0.5478781 -0.123317756 -0.35539404 -0.3273781 0.060298532 0.07206434
0.03263476 -0.29267067 -0.17426467 -0.020087834 0.16498405 0.20541471 -0.09445931 -0.4530663
0.13358203 -0.27911076 0.18600166 -0.2645501 -0.2673168 -0.14251906 0.31352815 -0.33137417
0.37608066 -0.17893076 0.019865785 -0.15926188 -0.4255828 0.17477566 -0.2028999 0.03930292
0.33515018 0.27555132 0.36974365 0.20128903
00000000: e887 213e 67c6 d6be 6ca9 353e f2de 99bd
00000010: e66c 57be 8b61 abbe 4efb f9bc f50a 393e
00000020: 9a40 41be 8b7e a9bd 1b3f 3fbe d2c4 6abd
00000030: 48ec 973e a7d4 963e 1f01 6c3d ba8f 603e
00000040: a3b2 85be e536 483e c686 693e b38d 383e
00000050: 64ec 64be 6340 8c3e a2ec a9be 03f2 a9bd
00000060: 14f4 9abe 9336 15be 796c ab3d 9f8b 4c3e
00000070: 6a38 92be e49f 873e 8f38 56be 89bc 91bd
00000080: 2619 13be 3780 6f3c 7168 903e 29ef c2be
00000090: 267f 003f 92e9 04be 4d4e 4cbe 489d 13bf
000000a0: 511b c7be b872 88be e0d8 e03e 254f 433d
000000b0: 8713 383b fef7 673e 1d37 c5bd 4835 0bbe
000000c0: 65e7 183f 0e3c 14bf ce4a 0e3f f960 78be
000000d0: 4847 a8be d0b3 06bf c4e9 54bd 5f78 70be
000000e0: e50c ab3e 4355 05bf 44e0 07bf cfaf a13c
000000f0: 142c 6a3d 66b5 aabe a128 33bc 27e0 0cbe
00000100: 7902 28be 1f9d 5b3e e92e f03d 8dc8 cb3c
00000110: 4922 c3bc 9fdf 00bf 6345 d4be 0732 a2be
00000120: c1fe e23d d1de 88be bd41 0c3f 058e fcbd
00000130: 35f6 b5be 1a9e a7be 98fb 763d 7896 933d
00000140: 07ac 053d eed8 95be 7072 32be 3e8f a4bc
00000150: 94f1 283e 3c58 523e e273 c1bd 4ef8 e7be
00000160: bac9 083e 9be7 8ebe 3877 3e3e 1c73 87be
00000170: bfdd 88be 84f0 11be c386 a03e e0a9 a9be
00000180: a58d c03e a039 37be 92bd a23c 8c15 23be
00000190: fde5 d9be 64f8 323e fec4 4fbe 19fc 203d
000001a0: ce98 ab3e 1015 8d3e 0a4f bd3e b61e 4e3e

gru_cp_fw.gru_cell.bias_ih f4 [18]
0.4121787 -0.01877374 -0.22620763 0.3959438 -0.060631666 0.49096882 0.30319297 0.38959473
0.2683254 0.61513513 -0.25934154 -0.38777432 0.16577953 0.0075317775 -0.18988085 0.15508191
0.061166734 0.27239814
00000000: 1609 d33e 63cb 99bc f9a2 67be 25b9 ca3e
00000010: e958 78bd 4460 fb3e 1c3c 9b3e f678 c73e
00000020: f261 893e 7f79 1d3f 6ac8 84be 5b8a c6be
00000030: 1cc2 293e 21cd f63b 2070 42be cbcd 1e3e
00000040: f889 7a3d c577 8b3e

gru_cp_fw.gru_cell.bias_hh f4 [18]
0.28373325 0.21997997 0.33566573 -0.16396138 -0.3530637 0.07892782 0.28949273 0.49467987
0.171644 0.32480583 -0.405727 0.10696808 -0.24060866 -0.21721755 -0.37773275 0.0064361203
0.013846517 -0.37923008
00000000: 7c45 913e 6e42 613e 61dc ab3e 7ee5 27be
00000010: c4c4 b4be e9a4 a13d 6438 943e ae46 fd3e
00000020: 72c3 2f3e f34c a63e 73bb cfbe 1512 db3d
00000030: 1e62 76be 476e 5ebe 3066 c1be 17e6 d23b
00000040: 80dc 623c 722a c2be

gru_dp_bw.decays f4 [7]
-1.3503304e-06 -0.0006771028 -3.7134436e-05 0.359766 -0.0047466415 -2.2977877e-06 -0.003317624
00000000: 003d b5b5 9a7f 31ba ccc0 1bb8 4033 b83e
00000010: b789 9bbb b133 1ab6 7f6c 59bb

gru_dp_bw.gru_cell.weight_ih f4 [21, 7]
-0.23488481 0.07204746 -0.01858186 -0.19408478 -0.51844877 -0.12051905 -0.09673087 0.30842406
-0.20199305 -0.36713386 -0.01803911 -0.12410089 -0.4489734 -0.47708842 -0.05464521 -0.052055154
-0.09521714 -0.23300582 -0.43668982 -0.040291004 0.17038895 -0.09199515 0.17079636 0.3612499
-0.08790613 -0.10689186 -0.42470175 0.1511986 0.19982919 0.011380791 -0.33480883 0.1345408
-0.5127879 -0.07877052 -0.103046425 -0.026407247 0.043614373 0.2643339 0.008630683 -0.11437018
0.20213369 -0.48174903 -0.024452114 -0.43831646 0.14422138 -0.06192925 0.25013018 -0.119985975
0.11811869 0.022043325 0.32329583 -0.32714188 -0.13534613 -0.08948468 0.042784456 0.3198084
0.23412561 0.36516067 0.21373336 -0.06467202 0.3195909 0.16303694 0.16837482 0.24500991
0.034607645 0.29109243 0.17191051 0.4364916 0.24197608 -0.52296895 0.29786506 -0.06993068
-0.62564087 0.22144438 -0.05927378 0.33847624 -0.09394326 -0.23891072 0.110340305 0.27901042
0.4147887 0.32971612 0.013844131 -0.46496943 0.041849487 -0.1230904 0.088439845 0.22921818
0.052841563 -0.16027433 0.071629405 0.5717529 -0.054745816 -0.13666323 -0.02474096 -0.3135249
-0.22799166 -0.17000481 0.15614127 -0.2831356 0.18398872 0.2607901 -0.27150205 -0.10923272
-0.2694915 -0.1712129 -0.04531613 -0.018916067 0.22026601 -0.27386853 0.1399112 -0.20160796
-0.23603718 0.063267626 -0.30945724 -0.022790108 -0.3126212 -0.19299029 0.23697168 0.1354258
0.10819409 -0.16857977 0.0056258477 0.19403628 0.3852574 0.13038476 0.09633348 0.007945109
-0.122522876 -0.2533137 -0.2216639 0.30527344 0.4035839 -0.30046842 0.23670542 -0.007391343
0.031251125 0.018367821 -0.29210386 -0.1840285 -0.20281568 0.23712884 0.16064009 0.2799508
-0.19132926 0.14709486 0.09811613
00000000: a585 70be 9e8d 933d fc38 98bc 29be 46be
00000010: 0fb9 04bf b1d2 f6bd d61a c6bd c2e9 9d3e
00000020: 44d7 4ebe f8f8 bbbe c1c6 93bc 9b28 febd
00000030: d7df e5be ef44 f4be a8d3 5fbd c937 55bd
00000040: 3401 c3bd 1499 6ebe cf95 dfbe 2e08 25bd
00000050: 717a 2e3e f467 bcbd 3ee5 2e3e bff5 b83e
00000060: 2108 b4bd 1fea dabd 8272 d9be ced3 1a3e
00000070: 06a0 4c3e 7f76 3a3c 106c abbe 10c5 093e
00000080: 1146 03bf 7052 a1bd 010a d3bd 0354 d8bc
00000090: fca4 323d c656 873e b567 0d3c ea3a eabd
000000a0: 22fc 4e3e cfa7 f6be cd4f c8bc 046b e0be
000000b0: c5ae 133e 86a9 7dbd 1011 803e 35bb f5bd
000000c0: 36e8 f13d 3494 b43c 0887 a53e 247f a7be
000000d0: 2d98 0abe be43 b7bd c13e 2f3d edbd a33e
000000e0: a0be 6f3e 57f6 ba3e ebdc 5a3e c472 84bd
000000f0: 6ba1 a33e 28f3 263e 736a 2c3e e1e3 7a3e
00000100: bfc0 0d3d 110a 953e 4f09 303e d47b df3e
00000110: 94c8 773e 4be1 05bf c581 983e d137 8fbd
00000120: 002a 20bf 51c2 623e 10c9 72bd c24c ad3e
00000130: 5365 c0bd 03a5 74be 19fa e13d 74da 8e3e
00000140: 2f5f d43e 8dd0 a83e 7ed2 623c 7910 eebe
00000150: 5e6a 2b3d d216 fcbd f31f b53d 2cb8 6a3e
00000160: 6570 583d f41e 24be 70b2 923d 665e 123f
00000170: 263d 60bd 72f1 0bbe 8ead cabc 5686 a0be
00000180: a576 69be be15 2ebe 7fe3 1f3e 26f7 90be
00000190: 8a67 3c3e 4886 853e 5102 8bbe 68b5 dfbd
000001a0: cafa 89be 6f52 2fbe 689d 39bd def5 9abc
000001b0: 6a8d 613e 7f38 8cbe e244 0f3e 5172 4ebe
000001c0: bbb3 71be 7592 813d 2e71 9ebe 52b2 babc
000001d0: e30f a0be 3f9f 45be b4a8 723e 10ad 0a3e
000001e0: dd94 dd3d 2da0 2cbe 0859 b83b 72b1 463e
000001f0: 7540 c53e 9583 053e 7d4a c53d 342c 023c
00000200: 46ed fabd 55b2 81be ddfb 62be cd4c 9c3e
00000210: 8da2 ce3e ffd6 99be e862 723e 1433 f2bb
00000220: 2e01 003d 1d78 963c a38e 95be f871 3cbe
00000230: eaae 4fbe e7d1 723e d67e 243e b655 8f3e
00000240: d1eb 43be 09a0 163e 1cf1 c83d

gru_dp_bw.gru_cell.weight_hh f4 [21, 7]
0.19176441 -0.15916821 0.22978368 0.069460504 -0.17555267 0.11148298 0.04724871 0.2374128
-0.5518611 0.23973134 0.3267531 0.4729927 -0.038152542 0.16924627 -0.47231263 -0.34044027
0.113990165 0.44531935 0.6031478 -0.18923749 -0.4740639 0.2825818 0.20237693 0.56815034
0.06314808 0.13359453 0.05511079 -0.32687977 -0.59452695 -0.56403065 0.18510714 0.01807616
0.36823764 -0.22842354 -0.0016693489 0.1281296 -0.45123833 0.32181415 0.52822834 0.2631896
0.02563699 -0.34344578 0.1048871 -0.22213933 0.2507597 0.12838173 0.14918631 0.059357937
-0.15563127 -0.23912649 0.1049017 -0.3139005 0.25692767 -0.34465197 0.13253507 0.0569952
0.34504354 0.20141944 -0.26988825 0.16784893 0.3191067 -0.027266854 0.38394254 0.27085173
0.2776045 0.06613596 0.046663407 0.2687948 -0.22013982 -0.20352979 0.20985548 -0.36934724
-0.06550223 0.08657072 -0.11384638 -0.07675625 0.10349465 -0.037265815 -0.19104907 0.3906341
0.15483464 0.19277543 -0.07728116 0.18067735 -0.031163635 -0.032067947 0.4529226 0.22442174
0.1668859 0.30793026 -0.31217614 -0.23024973 0.32124662 0.2566125 0.341407 -0.054030906
-0.4171372 0.31305286 0.47860655 -0.0018642193 -0.068860896 -0.9028742 -0.18971129 0.1907908
0.51445794 0.1552577 -0.03907555 -0.19759315 -0.10174948 -0.6940144 0.470242 0.5480991
0.2045155 0.044029575 0.8775193 0.023982195 0.82929415 -0.5678284 0.23033522 -0.12819798
-0.4311638 0.038672213 0.43546832 0.558662 -0.4044688 -0.33781746 -0.053978417 -0.23089352
0.96954894 -0.105257206 0.56974953 -0.752722 0.1342837 -0.20938326 0.0030517024 -0.5011878
0.02646968 -1.0781325 0.31299946 0.4646006 0.28065705 -0.074371174 -0.25199285 -0.7391677
-0.8739614 0.0891696 0.046833634
00000000: e45d 443e fefc 22be 6a4c 6b3e 4f41 8e3d
00000010: 14c4 33be 3051 e43d dd87 413d 571c 733e
00000020: c546 0dbf 227c 753e 2f4c a73e 192c f23e
00000030: d745 1cbd e54e 2d3e f6d2 f1be 304e aebe
00000040: ad73 e93d e600 e43e e567 1a3f 79c7 41be
00000050: 81b8 f2be 90ae 903e e63b 4f3e 4d72 113f
00000060: c853 813d 01cd 083e dabb 613d c95c a7be
00000070: eb32 18bf 5064 10bf ba8c 3d3e 7514 943c
00000080: a589 bc3e dce7 69be 0ece daba 6834 033e
00000090: b608 e7be d3c4 a43e f939 073f cac0 863e
000000a0: aa04 d23c 20d8 afbe 0ccf d63d 7e78 63be
000000b0: 9363 803e 8076 033e 4cc4 183e 4f21 733d
000000c0: ce5d 1fbe 93dd 74be b4d6 d63d 91b7 a0be
000000d0: 068c 833e 3976 b0be 46b7 073e cd73 693d
000000e0: 8ca9 b03e e640 4e3e cb2e 8abe 97e0 2b3e
000000f0: f461 a33e bd5e dfbc 1e94 c43e 14ad 8a3e
00000100: 2d22 8e3e 4a72 873d 2122 3f3d 799f 893e
00000110: 556c 61be 1d6a 50be 5be4 563e 151b bdbe
00000120: 0826 86bd fd4b b13d 4a28 e9bd 6132 9dbd
00000130: 01f5 d33d 0aa4 18bd 5ea2 43be 3101 c83e
00000140: f98c 1e3e ec66 453e 9645 9ebd 7c03 393e
00000150: e14a ffbc ae59 03bd 79e5 e73e d0ce 653e
00000160: 23e4 2a3e 09a9 9d3e 8dd5 9fbe 96c6 6bbe
00000170: 707a a43e b762 833e e6cc ae3e 834f 5dbd
00000180: 0293 d5be 7748 a03e eb0b f53e d258 f4ba
00000190: f106 8dbd c322 67bf ad43 42be aa5e 433e
000001a0: 84b3 033f e0fb 1e3e af0d 20bd dc55 4abe
000001b0: 0862 d0bd edaa 31bf 8fc3 f03e 3950 0c3f
000001c0: 836c 513e 5b58 343d 1ba5 603f 4f76 c43c
000001d0: 9f4c 543f 345d 11bf ffdc 6b3e 5546 03be
000001e0: 80c1 dcbe c166 1e3d b4f5 de3e 7904 0f3f
000001f0: 8916 cfbe 69f6 acbe 7918 5dbd 5a6f 6cbe
00000200: 5c34 783f 1791 d7bd 1bdb 113f 64b2 40bf
00000210: ab81 093e 9168 56be 12ff 473b d84d 00bf
00000220: f1d6 d83c 3f00 8abf 7741 a03e 21e0 ed3e
00000230: 48b2 8f3e ea4f 98bd 3505 81be 183a 3dbf
00000240: efbb 5fbf 8d9e b63d a0d4 3f3d

gru_dp_bw.gru_cell.bias_ih f4 [21]
0.20324096 0.13846654 0.8749681 0.6925685 0.27883348 0.26945177 0.6709381 0.18780914
0.019102933 0.75450253 0.026114577 0.87426525 0.4795045 -0.047906116 -0.31056014 -0.23730245
-0.110826306 0.38534173 -0.028823104 -0.0029657485 0.023093259
00000000: 661e 503e 2cca 0d3e e9fd 5f3f 2b4c 313f
00000010: 43c3 8e3e 95f5 893e 99c2 2b3f 0a51 403e
00000020: c17d 9c3c 1427 413f 3dee d53c d9cf 5f3f
00000030: 9d81 f53e 3439 44bd bd01 9fbe 6aff 72be
00000040: e7f8 e2bd 834b c53e 6e1e ecbc 015d 42bb
00000050: 132e bd3c

gru_dp_bw.gru_cell.bias_hh f4 [21]
0.34586814 0.29176477 0.65038645 0.466661 0.4915156 0.262492 0.14393851 0.2035395
0.096501715 0.6861961 0.49971664 0.85927427 0.19383559 0.057189036 0.09063523 -0.024793591
0.053083297 -0.049214516 -0.074794054 -0.19895148 0.020121826
00000000: a115 b13e 3162 953e ba7f 263f 31ee ee3e
00000010: efa7 fb3e 5a65 863e 9e64 133e a96c 503e
00000020: b1a2 c53d 8caa 2f3f dcda ff3e 66f9 5b3f
00000030: d67c 463e 0d3f 6a3d f79e b93d ee1b cbbc
00000040: df6d 593d 2995 49bd a02d 99bd f0b9 4bbe
00000050: 87d6 a43c

gru_cp_bw.decays f4 [6]
-0.0004339117 -0.0016095465 -1.1512422e+09 0.3423286 -0.0023344292 -0.00088598655
00000000: a47e e3b9 6bf7 d2ba 203d 89ce b245 af3e
00000010: 39fd 18bb 8d41 68ba

gru_cp_bw.gru_cell.weight_ih f4 [18, 6]
-0.038861886 -0.326566 0.11832107 0.34317178 -0.23070641 0.19192274 -0.3548353 0.22866808
-0.16570099 -0.3919886 -0.14730187 -0.12651382 -0.3569973 -0.26674634 0.053293955 0.3413238
0.0012876986 -0.29141667 -0.4196779 0.32656962 -0.30909112 -0.19929677 0.37581864 -0.3064248
0.081263736 0.14650746 -0.39512777 -0.21945636 -0.26029223 -0.26885763 0.027417395 -0.30110693
-0.3340187 -0.35803863 0.6303189 -0.07617382 0.013078798 -0.27790004 0.10057556 0.4268237
0.10436409 0.1547458 0.14247216 0.34623384 0.41672182 0.26598004 0.0048929024 0.12712197
0.3450681 -0.10339089 -0.21627131 0.21866338 0.2564625 0.54667634 0.3655348 -0.6890702
-0.042111654 -0.116504975 -0.014678067 0.5165552 -0.07589243 -0.29831207 0.31781498 0.14916958
0.23791043 0.24448526 0.016274208 0.4253169 0.3923513 0.46688792 0.44701296 0.0029673965
0.13163166 -0.14936242 0.20405205 0.3219195 -0.13909778 0.6120538 0.32237044 -0.03153303
-0.14898841 0.15172736 -0.1957033 0.41091716 -0.017327882 0.17204332 -0.09352138 -0.27585483
0.002892455 -0.15143135 -0.38900775 0.075165845 0.025455352 0.3788035 -0.43089357 -0.09397498
-0.22236931 0.1299655 0.37294585 -0.0019287104 0.2193198 -0.49119556 -0.38858488 -0.019530991
0.10819661 -0.34512296 -0.2688147 -0.20708016
00000000: a42d 1fbd a933 a7be 5152 f23d 36b4 af3e
00000010: 4d3e 6cbe 6587 443e f9ac b5be f727 6a3e
00000020: 85ad 29be bbb2 c8be 4dd6 16be d78c 01be
00000030: 5ac8 b6be fa92 88be c34a 5a3d fec1 ae3e
00000040: ffc7 a83a 9134 95be 06e0 d6be 2234 a73e
00000050: 3141 9ebe 7414 4cbe 4d6b c03e b6e3 9cbe
00000060: 9a6d a63d 0d06 163e 304e cabe 2bb9 60be
00000070: 0645 85be b5a7 89be 729a e03c b02a 9abe
00000080: 8004 abbe d750 b7be 945c 213f 0501 9cbd
00000090: 7448 563c ea48 8ebe 8ffa cd3d a388 da3e
000000a0: d7bc d53d af75 1e3e 39e4 113e 9045 b13e
000000b0: 905c d53e 892e 883e a454 a03b 432c 023e
000000c0: c4ac b03e 9abe d3bd 3a76 5dbe 4be9 5f3e
000000d0: 0e4f 833e fbf2 0b3f 6127 bb3e e866 30bf
000000e0: 457d 2cbd 299a eebd 467c 70bc f63c 043f
000000f0: 7e6d 9bbd 5cbc 98be a5b8 a23e e9bf 183e
00000100: cb9e 733e 585a 7a3e 7d51 853c 23c3 d93e
00000110: 45e2 c83e ef0b ef3e e2de e43e a778 423b
00000120: 73ca 063e 76f2 18be 05f3 503e a2d2 a43e
00000130: a66f 0ebe 8faf 1c3f bd0d a53e c728 01bd
00000140: 6b90 18be 6b5e 1b3e 7266 48be bc63 d23e
00000150: 34f3 8dbc 202c 303e 2388 bfbd d83c 8dbe
00000160: 588f 3d3b d210 1bbe 062c c7be 8df0 993d
00000170: be87 d03c 88f2 c13e 159e dcbe f475 c0bd
00000180: c8b4 63be ad15 053e c2f2 be3e c8cc fcba
00000190: 5f95 603e fc7d fbbe 99f4 c6be 75ff 9fbc
000001a0: 2f96 dd3d f5b3 b0be 15a2 89be d20c 54be

gru_cp_bw.gru_cell.weight_hh f4 [18, 6]
-0.04169991 0.33659047 -0.19402936 0.47675422 -0.6182969 -0.5801251 0.1865038 -0.18742462
-0.3534818 -0.21534963 0.3397102 0.33833626 0.34242025 -0.06867568 0.27806008 0.11901032
0.18149908 0.3979772 0.23675424 0.33858964 -0.32079646 -0.36480677 0.38621774 0.49057788
0.36934882 -0.54101354 -0.13236295 0.24511579 -0.022206811 0.18915297 -0.058746293 -0.6461587
-0.027184175 0.014950353 0.19179791 0.26422775 0.02871327 0.2797784 -0.10497245 0.33939862
0.3137274 0.25227484 -0.40086865 0.1289861 0.35695162 -0.0733756 0.32847172 0.36143088
-0.31803662 -0.50424606 -0.11057329 0.08727877 0.26348567 -0.20773894 -0.2656556 -0.2246493
0.06322567 -0.21351162 -0.32283035 0.10043171 -0.11979493 0.033342265 -0.21679445 0.19118315
-0.34763232 0.026598128 0.0016624624 0.27952504 0.41166335 -0.15226349 -0.27140212 -0.10941317
0.29303357 -0.094031006 -0.18040645 -0.24541408 -0.22821733 0.0054733832 -0.076811746 0.06749618
-0.417652 0.6120185 -0.73309034 -0.33200634 -0.71356106 -0.46160093 -0.058345992 -0.3444784
0.36752024 0.05218575 -0.10760272 0.40382752 0.17962693 -0.22285663 -0.85130936 -0.048725598
-0.39172733 -0.46555638 0.26758912 -0.06007515 0.44024283 0.40022877 -0.35201588 -0.63465333
0.69189346 -0.11458791 0.2978905 0.3516094
00000000: 86cd 2abd 9655 ac3e a2af 46be 2119 f43e
00000010: b548 1ebf 1483 14bf dafa 3e3e 3dec 3fbe
00000020: 91fb b4be 9d84 5cbe 7fee ad3e 693a ad3e
00000030: b551 af3e d6a5 8cbd e45d 8e3e afbb f33d
00000040: e5da 393e abc3 cb3e b46f 723e 9f5b ad3e
00000050: 6f3f a4be f4c7 babe 55be c53e 062d fb3e
00000060: 4a1b bd3e dd7f 0abf 278a 07be a2ff 7a3e
00000070: 0feb b5bc 51b1 413e f49f 70bd a86a 25bf
00000080: 59b1 debc 53f2 743c ac66 443e dc48 873e
00000090: 1738 eb3c 1d3f 8f3e ccfb d6bd a8c5 ad3e
000000a0: e1a0 a03e 2b2a 813e a83e cdbe ef14 043e
000000b0: 5dc2 b63e f245 96bd 722d a83e 780d b93e
000000c0: b2d5 a2be 4516 01bf 4074 e2bd 36bf b23d
000000d0: 98e7 863e 84b9 54be 0304 88be 770a 66be
000000e0: 767c 813d caa2 5abe 054a a5be 24af cd3d
000000f0: 0b57 f5bd e691 083d 5dff 5dbe 84c5 433e
00000100: ddfc b1be 51e4 d93c fbe6 d93a e81d 8f3e
00000110: 8ac5 d23e f6ea 1bbe 38f5 8abe 0314 e0bd
00000120: 7f08 963e 5493 c0bd 78bc 38be d44d 7bbe
00000130: ceb1 69be 115a b33b 7a4f 9dbd 703b 8a3d
00000140: 7cd6 d5be 3fad 1c3f cfab 3bbf bcfc a9be
00000150: f0ab 36bf f556 ecbe 35fc 6ebd 795f b0be
00000160: 9d2b bc3e bac0 553d d15e dcbd 7bc2 ce3e
00000170: 1ff0 373e 8734 64be 69ef 59bf 7e94 47bd
00000180: 7c90 c8be 685d eebe 7101 893e 5c11 76bd
00000190: 8267 e13e c9ea cc3e 6d3b b4be a478 22bf
000001a0: ee1f 313f 11ad eabd 1b85 983e 2606 b43e

gru_cp_bw.gru_cell.bias_ih f4 [18]
0.2641649 0.16762795 0.60629916 -0.23057027 0.15595222 0.38587686 0.071800634 -0.16735667
-0.10597755 0.5079686 -0.103534356 -0.29388762 0.12576978 -0.31081253 -0.10837765 -0.2347568
0.4581421 0.049131546
00000000: 9f40 873e a9a6 2b3e 6c36 1b3f 9d1a 6cbe
00000010: f0b1 1f3e a791 c53e 360c 933d 8c5f 2bbe
00000020: c20a d9bd 3b0a 023f d209 d4bd 7078 96be
00000030: cbc9 003e d222 9fbe 1af5 ddbd 1664 70be
00000040: 9a91 ea3e 293e 493d

gru_cp_bw.gru_cell.bias_hh f4 [18]
-0.14593711 0.5401559 0.17330255 0.27084038 0.49429145 0.12605017 -0.28643858 -0.26116475
0.26312682 0.4516963 -0.07939705 0.24773552 0.38037956 -0.026552677 0.1827242 -0.17815974
-0.11504533 -0.042020366
00000000: 8a70 15be a847 0a3f 3976 313e 97ab 8a3e
00000010: c513 fd3e 4c13 013e 14a8 92be 63b7 85be
00000020: 8fb8 863e bd44 e73e ec9a a2bd 61ae 7d3e
00000030: 1cc1 c23e 0085 d9bc 0d1c 3b3e 826f 36be
00000040: e39c ebbd 8c1d 2cbd

fc_dp.weight f4 [1, 14]
-0.09417178 0.17608659 -0.07862367 0.047086135 0.2018045 0.1347195 0.09602859 0.32176962
0.286562 -0.17780349 -0.33299887 -0.24761602 0.31604907 0.40478092
00000000: 22dd c0bd 0b50 343e 7205 a1bd 64dd 403d
00000010: d7a5 4e3e e9f3 093e a3aa c43d fdbe a43e
00000020: 41b8 923e 1e12 36be d47e aabe 0e8f 7dbe
00000030: 2fd1 a13e 723f cf3e

fc_cp.weight f4 [1, 12]
0.413255 0.22400372 0.09639308 -0.3126987 0.08318387 -0.17857127 -0.15415865 -0.23685272
0.253356 -0.14660439 0.39600137 0.2706713
00000000: 2996 d33e 3b61 653e bc69 c53d 0b1a a0be
00000010: 4e5c aa3d 63db 36be c4db 1dbe 8589 72be
00000020: e1b7 813e 761f 16be b1c0 ca3e 6e95 8a3e

fc_all.weight f4 [1, 25]
0.007928578 0.015186748 0.12009841 -0.00036724785 0.01775784 -0.11030958 -0.030518956 0.11559135
-0.1070303 0.069816664 0.18949087 -0.18946561 0.0026248342 -0.11942173 -0.3823525 -0.112077
-0.0140864365 -0.0049771033 -0.052383974 0.06812502 -0.085865974 -0.051500067 -0.07655228 -0.23480824
0.18128043
00000000: dee6 013c d6d1 783c 28f6 f53d 2c8b c0b9
00000010: e478 913c fde9 e1bd e402 fabc 28bb ec3d
00000020: b432 dbbd 0afc 8e3d e509 423e 4603 42be
00000030: 6905 2c3b 6193 f4bd b5c3 c3be a088 e5bd
00000040: ccca 66bc f816 a3bb 9490 56bd 2185 8b3d
00000050: 80da afbd bcf1 52bd 71c7 9cbd 9271 70be
00000060: 94a1 393e
