ablation3_epochs/ode_birnn/final_model.pt (torch, 66309 bytes, 33 tensors)

embed_dp.weight f4 [1292, 7]
0	0x00000000	0.0
1	0x00000000	0.0
2	0x00000000	0.0
3	0x00000000	0.0
4	0x00000000	0.0
5	0x00000000	0.0
6	0x00000000	0.0
7	0x3ec99de8	0.39378285
8	0x3f472a9a	0.7779938
9	0xc032a3e2	-2.7912526
10	0x3f65899a	0.8966309
11	0xbe987ec8	-0.29784226
12	0xbfa99dae	-1.3251245
13	0x3e0b983c	0.13632292
14	0x3edcd7af	0.43133304
15	0xbfe83cda	-1.814357
16	0x3ea11df3	0.31468162
17	0x3fa9597b	1.3230432
18	0x3fdc000a	1.7187512
19	0xbfbc7964	-1.4724545
20	0x3fedde34	1.8583436
21	0xbe890760	-0.2676344
22	0xbeea6e1e	-0.45787138
23	0x3f514885	0.8175128
24	0x3fac8e3a	1.3480904
25	0xbf2dde03	-0.6791689
26	0x3e89afb0	0.2689185
27	0x3d32b194	0.043626383
28	0xbe9fd439	-0.312166
29	0x3e507da4	0.20360428
30	0xc02ff608	-2.7493916
31	0xbe348018	-0.17626989
32	0x3fc63b82	1.548691
33	0xbffe6604	-1.9874883
34	0xbe58d208	-0.2117387
35	0xbf0ef031	-0.55835253
36	0xbe7d3499	-0.24727096
37	0x3f438b96	0.76384866
38	0x3fcbffb8	1.5937414
39	0xbe839d5b	-0.2570599
40	0x3f748bd1	0.9552584
41	0x3e3efcf8	0.18651187
42	0xbf247da5	-0.6425422
43	0xbf79a6f8	-0.975204
44	0xbe4c4a1d	-0.19950147
45	0xbd7f0e14	-0.062269285
46	0xbf4eff5d	-0.80858403
47	0x3fe1a190	1.762743
48	0xbe9bfeb3	-0.30467758
49	0x3d80d388	0.062903464
50	0xbf13ba3d	-0.5770605
51	0xbec16a10	-0.37776232
52	0x3f3f7d26	0.74800336
53	0x40343e67	2.8163087
54	0x3d22b8fd	0.0397272
55	0xbf264806	-0.6495365
56	0xbefde528	-0.49588895
57	0x3e940472	0.28909642
58	0xbf74cc4b	-0.95624226
59	0x3dd7052b	0.104990326
60	0xbf1db1c7	-0.6159939
61	0xbf840e16	-1.0316799
62	0xbfa68b00	-1.301117
63	0x3e6d7c1b	0.23191874
64	0xbf1c0af8	-0.60954237
65	0xbf3cec1f	-0.7379779
66	0xbdccadb1	-0.099940665
67	0xbf102f7d	-0.5632246
68	0x3f17d8ff	0.59315485
69	0xbf6d7b97	-0.9276671
70	0xbeb239ae	-0.3480963
71	0xbe124fc1	-0.14288236
72	0xbc4be7d7	-0.012445412
73	0x3f974242	1.1817095
74	0xbec3bf3a	-0.38231832
75	0xbf06de33	-0.526828
76	0xbfedd023	-1.8579143
77	0xbe43b892	-0.19113377
78	0x3feb6290	1.8389454
79	0x3dcc693e	0.09981011
80	0x3ee6249a	0.449498
81	0xbfab1667	-1.3366212
82	0x3e8b6f4e	0.27233356
83	0xbf13df05	-0.57762176
84	0xbe70536c	-0.23469323
85	0x3f8c7f24	1.09763
86	0x3ccf70c3	0.025322324
87	0x3f7ea640	0.9947243
88	0x3c71061a	0.014710927
89	0x3ef5e40d	0.4802555
90	0x3f1db809	0.6160894
91	0x3f20f3ed	0.628722
92	0xbede2658	-0.4338863
93	0x3f240073	0.64063185
94	0xbef2f16d	-0.47449818
95	0x3ed79f23	0.421136
96	0xbf45444c	-0.7705734
97	0xbf822733	-1.0168213
98	0xbf3336b9	-0.70005375
99	0x3dacea88	0.08443171
100	0xbf590b2a	-0.8478266
101	0x3f5bae17	0.85812515
102	0xbfce3e1e	-1.6112707
103	0xbee7a4ff	-0.4524307
104	0x3ec78cf0	0.38974714
105	0x3fa26628	1.2687426
106	0x3ea775dc	0.32707107
107	0xbf3a871e	-0.7286242
108	0xbe00a3fd	-0.12562557
109	0x3ddcb4da	0.10776682
110	0x3f67e91f	0.9059009
111	0xbfb6dee0	-1.4286766
112	0xbfad54f1	-1.3541547
113	0x3f2c5c79	0.673286
114	0xbe064bc2	-0.13114837
115	0xbfcaa9d0	-1.5833073
116	0x3f54cafd	0.83122236
117	0xbfcc9608	-1.5983286
118	0xbe3203e7	-0.17384301
119	0xbf37be06	-0.7177433
120	0xbf497f6d	-0.7871006
121	0xbf205758	-0.62633276
122	0x3eb7602b	0.35815558
123	0xbe61d218	-0.220528
124	0x3fa6f9f6	1.3045032
125	0xbf1b5053	-0.6066944
126	0xbf558e4a	-0.8342024
127	0x3f9f6f9a	1.2455933
128	0xbfd45ca3	-1.659077
129	0xbece8b28	-0.40340543
130	0xbf8bc2a5	-1.0918776
131	0xbeb2223b	-0.3479174
132	0x3df3fa04	0.11912921
133	0xbf9cc7f5	-1.2248522
134	0xbf295221	-0.66140944
135	0xbe80b26c	-0.25136125
136	0x3f84f807	1.0388192
137	0x3f28f353	0.65996283
138	0x3f80c327	1.0059556
139	0xbf649c37	-0.89300865
140	0x3f9cf65d	1.2262684
141	0xbf84fa70	-1.0388927
142	0x3f9c781f	1.2224158
143	0x3e8922e2	0.26784426
144	0xbfb580b9	-1.4179908
145	0x3faa8c57	1.3324078
146	0x3ccbfde1	0.024901332
147	0x3ee27df5	0.44236723
148	0xbf8f0a77	-1.1175069
149	0x3e838d64	0.2569381
150	0xbebf33d0	-0.37344217
151	0xbe025554	-0.12727863
152	0x4038435d	2.8791115
153	0x3f918a38	1.1370306
154	0x3e7b3091	0.24530245
155	0x3f925931	1.1433469
156	0x3f8a3c7f	1.0799712
157	0xbdbd45f1	-0.09241856
158	0x3f29c8a1	0.6632176
159	0xbdf803d0	-0.12110102
160	0xbd44a05f	-0.048004504
161	0x3e1a339e	0.15058753
162	0xbe129145	-0.14313228
163	0xbe5ba580	-0.21449852
164	0x3f5c0a7d	0.85953504
165	0xbf5d9083	-0.8654863
166	0xbf3ab42a	-0.7293116
167	0x3fc47983	1.5349582
168	0x3ebce738	0.36895156
169	0xc0085976	-2.1304603
170	0xbff46aba	-1.909507
171	0xbde93ac0	-0.11388159
172	0xbd8a3b1f	-0.06749558
173	0x40117f94	2.2734118
174	0xbf856ec5	-1.0424429
175	0x3f86c1a6	1.0527847
176	0x3fbe1073	1.484877
177	0x3e8b7527	0.27237818
178	0x3f013ce0	0.5048351
179	0xbf9ea98e	-1.2395494
180	0x3fc1d672	1.5143569
181	0x3f0d9e40	0.55319595
182	0x3e69fad4	0.2284959
183	0xbf8af76a	-1.0856755
184	0x3e3ba2f7	0.18323885
185	0xbfc7d146	-1.561074
186	0x3ea73fa5	0.32665744
187	0x3fbbe33e	1.4678724
188	0x3f017cf4	0.5058129
189	0x3f999972	1.1999953
190	0x3fca8111	1.5820638
191	0xbf35af86	-0.7097095
192	0xbec9003f	-0.39258
193	0x3d08b3d7	0.033374634
194	0xbb08ce5f	-0.002087496
195	0xbe6a449f	-0.2287774
196	0x3d43f7bb	0.047843676
197	0x3f908026	1.1289108
198	0x3f3934c3	0.72346133
199	0xc00c5740	-2.1928253
200	0x3f0d813c	0.5527532
201	0xbddfe64a	-0.10932596
202	0xbc3a2e04	-0.01136351
203	0x3effe4e4	0.49979317
204	0x3db751cd	0.08951149
205	0x3f13fbe2	0.5780622
206	0x3eeeb17d	0.46619788
207	0xbe1da840	-0.15396214
208	0xbfc1db81	-1.5145112
209	0xbf43dd0f	-0.76509184
210	0x3fa5197a	1.28984
211	0xbf4011c0	-0.75027084
212	0x3fc1fd9a	1.5155518
213	0xbf19e29c	-0.60111403
214	0x3f0244a6	0.50886
215	0xbd27a472	-0.04092831
216	0x3dfc172a	0.12309106
217	0xbf90d210	-1.1314106
218	0x3e2df1f6	0.16986832
219	0xbf82ef3d	-1.022926
220	0x3da7197a	0.08159156
221	0x3ed66d55	0.4188029
222	0xbe4ab0ee	-0.19794056
223	0x3f248932	0.64271843
224	0x3f524e36	0.8215059
225	0xbee78792	-0.4522062
226	0xbf530077	-0.82422584
227	0x3e62fefa	0.22167578
228	0xbf8f769c	-1.1208072
229	0x3f817bb9	1.0115882
230	0x3f8e0657	1.1095685
231	0x3fc16c79	1.5111228
232	0xbfed86e0	-1.8556786
233	0xbfd1f9c2	-1.6404345
234	0x3f88515b	1.0649828
235	0xbe9ee8f1	-0.31037095
236	0xbf83084f	-1.023691
237	0x3fad7206	1.3550422
238	0xbe2589e3	-0.16165881
239	0xbf8204ae	-1.0157678
240	0x3f1126b7	0.566997
241	0xbec37e69	-0.3818238
242	0x3dbdbc9f	0.09264492
243	0xbf31f3b8	-0.6951251
244	0xbf35c67b	-0.7100598
245	0xbf563c27	-0.83685535
246	0x3f61a8e2	0.8814832
247	0xba90e2ab	-0.001105388
248	0x3e708fdc	0.23492378
249	0xbe65c7af	-0.22439454
250	0x3f613887	0.8797688
251	0xbf27a67b	-0.65488404
252	0xbf04f5ed	-0.5193775
253	0xbf2ec080	-0.6826248
254	0xbfc5f6b7	-1.5465916
255	0x3f2b4236	0.66897905

embed_cp.weight f4 [620, 6]
0	0x00000000	0.0
1	0x00000000	0.0
2	0x00000000	0.0
3	0x00000000	0.0
4	0x00000000	0.0
5	0x00000000	0.0
6	0x3f844626	1.0333908
7	0xbdc26730	-0.09492338
8	0xbf4a628a	-0.7905661
9	0xbf9419e8	-1.1570406
10	0x3f36fef7	0.71482795
11	0x3f0cfc9b	0.55072945
12	0x3f10b87e	0.5653151
13	0xbf6aa9f0	-0.91665554
14	0x3e859d0a	0.26096374
15	0x3d0135c1	0.031545404
16	0xbfa0d431	-1.2564756
17	0x3f3b007a	0.730476
18	0xbf5036ee	-0.81333816
19	0x3ed47050	0.41491938
20	0xbece21c3	-0.40260133
21	0x3f489fc3	0.7836878
22	0xbfa9fae4	-1.3279691
23	0xbdf084ad	-0.11744056
24	0xbe0ae27b	-0.13562958
25	0x3eca16c8	0.39470506
26	0xbf5e3485	-0.8679889
27	0x3e2aee79	0.16692533
28	0xbfb547ef	-1.4162577
29	0xc018756f	-2.3821676
30	0xbf29d21c	-0.66336226
31	0x3dba9af0	0.09111583
32	0x3f3b8aa9	0.73258454
33	0x3f98caca	1.1936886
34	0xbfaeec12	-1.3665793
35	0xbf29884d	-0.66223603
36	0x3e55062b	0.20803134
37	0xbf7d6a2f	-0.9899015
38	0x3d866353	0.06561913
39	0x3f8da0f6	1.1064746
40	0xbed454c6	-0.41470927
41	0xbf81445e	-1.0098989
42	0x3f044465	0.5166686
43	0xbfb86b09	-1.4407665
44	0x40360c10	2.8444862
45	0xbed03711	-0.40667012
46	0x3fd085e5	1.6290861
47	0x3e07558c	0.13216227
48	0x3ee26e18	0.4422462
49	0xbfd49dab	-1.6610616
50	0x3caf311d	0.021385724
51	0xbe994fdc	-0.2994374
52	0x3f280b45	0.65642196
53	0xc01d941e	-2.4621654
54	0x3fa0912e	1.2544305
55	0x3e738da7	0.23784505
56	0x3d3396a7	0.043844845
57	0x4005b0ee	2.088924
58	0x3fa66ce5	1.3001982
59	0x3e7187f8	0.23587024
60	0x3f4a9797	0.7913756
61	0x3f043446	0.5164226
62	0xbfe1b6c6	-1.7633903
63	0xbf70a383	-0.939995
64	0xbecc3d84	-0.39890683
65	0xbf5fd6ed	-0.87437326
66	0xbf2e90ba	-0.68189585
67	0x3f0cebc3	0.55047244
68	0xbeabc690	-0.3354993
69	0xbd3786a1	-0.044806127
70	0xbfcc7ef9	-1.5976249
71	0x3f820641	1.0158159
72	0x4008f139	2.139723
73	0x3f9f777b	1.2458338
74	0x3dd68bf1	0.104759105
75	0xbfbd789b	-1.4802431
76	0xbfd155ce	-1.635431
77	0xbff39873	-1.9030899
78	0xc019df53	-2.4042556
79	0x3eee72c9	0.4657195
80	0x3ed79367	0.42104647
81	0xbf8474a5	-1.0348097
82	0x3e1e1407	0.15437327
83	0x3ff17545	1.8863913
84	0xbf2812fd	-0.65653974
85	0x3da7b921	0.081896074
86	0x3e0ad758	0.1355871
87	0x3ea8c251	0.32960752
88	0x4017b693	2.3705184
89	0xbe2c36d5	-0.16817792
90	0x3f2687c0	0.6505089
91	0x4001750e	2.0227695
92	0xbe438cb3	-0.19096641
93	0xbf2f39fd	-0.6844786
94	0xbf041132	-0.5158874
95	0x3f1a7e42	0.60348904
96	0x3ef38123	0.4755946
97	0x3fae696f	1.3625926
98	0xbeb34c8d	-0.3501934
99	0xbe694623	-0.22780661
100	0xbf02a6e8	-0.5103593
101	0x3f1e03e1	0.6172467
102	0x3f358722	0.7090932
103	0x3d53b0e3	0.051682364
104	0x3e54a5c1	0.20766355
105	0xc004ac64	-2.073022
106	0xbf4d088b	-0.8009116
107	0x3f7f4411	0.99713236
108	0xbe39977b	-0.18124191
109	0x3dd6226b	0.104557835
110	0xbf42ffd7	-0.7617163
111	0x3ed4a845	0.4153463
112	0xbe586124	-0.21130806
113	0xbe8bd08b	-0.27307543
114	0x3d15ae10	0.036542952
115	0xbf0ee22b	-0.55813855
116	0xbf61375e	-0.8797511
117	0xbf672e69	-0.9030519
118	0x3efa7f73	0.4892536
119	0x3fef62c4	1.8702016
120	0x3fabe12a	1.342809
121	0xbea241d4	-0.31690848
122	0xbe2c5f05	-0.16833122
123	0x3f779496	0.967111
124	0xbec565f2	-0.3855434
125	0xbf5c6c24	-0.8610251
126	0xbe0742b1	-0.13209035
127	0x3e7e7155	0.2484792
128	0xbf33cd29	-0.70234925
129	0xbf7e1650	-0.99252796
130	0xbfa132a2	-1.2593577
131	0xbfe05a03	-1.7527469
132	0xbf4f3a88	-0.80948687
133	0xbee98b83	-0.45614251
134	0x3fbbc19e	1.4668462
135	0x3f9359f6	1.1511829
136	0x3e6e418c	0.23267192
137	0x3eeb16bb	0.4591578
138	0x3f10f6e9	0.56626755
139	0x3ed3287a	0.4124182
140	0xbffd0199	-1.9766113
141	0x3f6416e4	0.8909743
142	0xbf9434c6	-1.1578605
143	0xbf4e8804	-0.80676293
144	0x3fb39dcf	1.4032534
145	0xbe2a3a61	-0.16623832
146	0xbfdee23c	-1.7412791
147	0x3fc9b3df	1.5758017
148	0x3fadf842	1.3591387
149	0x3f21792a	0.63075507
150	0xbeb0e7ad	-0.34551755
151	0xbf8a4116	-1.0801113
152	0x3f3ea026	0.7446312
153	0x3e823fb2	0.2543922
154	0xbe9fbaef	-0.31197307
155	0x3fb32d63	1.3998226
156	0x3e11fda1	0.14256908
157	0x3fa2a04f	1.2705172
158	0x3f4c5faf	0.798335
159	0xbf8114ef	-1.0084513
160	0x3fa661bf	1.299858
161	0xbf6980b2	-0.91212
162	0x3f299d5c	0.66255736
163	0xbf102bde	-0.56316936
164	0xbf0d42e7	-0.5518021
165	0xbe8ec9df	-0.2788839
166	0xbdbde835	-0.092728056
167	0xc00c62cf	-2.1935308
168	0xbf66d9cf	-0.901761
169	0x40236553	2.5530593
170	0xbfc7822d	-1.5586601
171	0x3ee570b4	0.44812548
172	0xbf4b0d36	-0.79317033
173	0xbf023cb7	-0.50873893
174	0x3efa3aff	0.48873135
175	0xbe4cd86e	-0.20004436
176	0x3f632eb9	0.8874317
177	0x3f176c8a	0.5914999
178	0x3eb1e1ba	0.34742528
179	0xbf8919ac	-1.071096
180	0xbea90712	-0.33013207
181	0xbf430cc9	-0.76191384
182	0x3fa9bd7f	1.3260955
183	0x3da37967	0.0798214
184	0x3ffeb545	1.9899069
185	0x3ff52ca5	1.915425
186	0x3f65ff24	0.8984244
187	0xbd587b5c	-0.05285202
188	0xbde4c129	-0.11169655
189	0xbe860cd7	-0.2618167
190	0x3f179cb1	0.5922347
191	0xbf2c6e70	-0.67356014
192	0x3b2970c1	0.002585456
193	0xbf467351	-0.7751971
194	0xbe8ad2af	-0.27113864
195	0x3f00ccbc	0.503124
196	0x3fd0ae7f	1.6303252
197	0xbd1454a1	-0.03621352
198	0xbef6c0e7	-0.48194048
199	0xbeffadda	-0.49937326
200	0x3e63ab6b	0.2223336
201	0x3ef1a9e5	0.47199932
202	0x3f80b0cf	1.0053958
203	0xbe2a3a74	-0.1662386
204	0x3e20c6d3	0.15700845
205	0x3eceef8a	0.4041713
206	0xbeec1685	-0.4611093
207	0xbe8d5005	-0.27600113
208	0xbf811ef6	-1.0087574
209	0x3ef31d97	0.47483513
210	0xbee38525	-0.4443752
211	0xbf7cae62	-0.9870359
212	0x3f8b025c	1.0860095
213	0xbeec839f	-0.4619417
214	0xbeb6a931	-0.35675958
215	0x3e5a8bd1	0.21342398
216	0xbf8544b9	-1.0411597
217	0x3f644740	0.8917122
218	0x3f26e8a7	0.6519875
219	0x3fbade00	1.4598999
220	0x3f82020e	1.0156877
221	0xbfcc0b55	-1.5940958
222	0xc01393ed	-2.3059037
223	0x3ddeb81e	0.10874961
224	0x3ec37bf7	0.38180515
225	0x402af24d	2.6710389
226	0xbf2f22b6	-0.6841234
227	0xbf4eaf36	-0.807361
228	0xba788a28	-0.0009481036
229	0xbffa71e4	-1.9566007
230	0x3f2abd18	0.66694784
231	0x3fc1887d	1.5119778
232	0x3f49a17b	0.78762025
233	0x3f213316	0.62968576
234	0xbf961675	-1.1725603
235	0xbecf646d	-0.40506306
236	0xbf3f54b7	-0.7473864
237	0xbeec54fb	-0.46158585
238	0xbd079bcb	-0.03310756
239	0xbf0ec831	-0.5577422
240	0x3fc3e774	1.5305009
241	0x3f93564e	1.1510713
242	0xbf4c58aa	-0.7982279
243	0xbf279c5e	-0.6547297
244	0xbfa83d8a	-1.314378
245	0xbf506548	-0.8140454
246	0x3e27c076	0.16382012
247	0x3fc0629a	1.5030091
248	0x3f29b5d5	0.6629308
249	0x3df5eed4	0.120084435
250	0xbf84b44b	-1.0367521
251	0xbedcebb0	-0.43148565
252	0xbf8de99b	-1.1086916
253	0x3d63c431	0.055607025
254	0xbf65c83c	-0.8975866
255	0xbe55400a	-0.2082521

ode_dp.odeblock.odefunc.fc1.weight f4 [7, 7]
0	0xbed8165a	-0.42204553
1	0x3e121dfc	0.1426925
2	0xbe4bd5f6	-0.19905838
3	0x3ed25f24	0.41088212
4	0xbf3d2549	-0.7388502
5	0xbdc07503	-0.09397318
6	0x3d9c1737	0.076216154
7	0x3f3b1e0b	0.73092717
8	0xbed1ecb4	-0.41000903
9	0xbd55be69	-0.052183542
10	0xbee63081	-0.4495888
11	0xbec34986	-0.3814203
12	0xbe770649	-0.24123491
13	0xbef545b2	-0.47904736
14	0xbd0a04c5	-0.033695955
15	0x3e80d3c5	0.25161567
16	0xbf15625f	-0.5835323
17	0x3d0ad48d	0.03389411
18	0xbf0aecc0	-0.542675
19	0xbd98197d	-0.074267365
20	0xbe0dbe90	-0.13842225
21	0x3f119b44	0.5687754
22	0xbf1ca657	-0.61191314
23	0xbf1c01cc	-0.6094024
24	0x3e0c20ee	0.13684437
25	0xbed28655	-0.41118112
26	0x3eff103c	0.49817073
27	0xbf4a9443	-0.7913248
28	0xbdab4777	-0.0836324
29	0xbf44911b	-0.76783913
30	0xbf1a756b	-0.60335416
31	0x3d613dc0	0.05499053
32	0x3d135cce	0.035977177
33	0x3ec0358a	0.37540847
34	0xbf5ccb07	-0.86247295
35	0xbecedb5a	-0.40401727
36	0x3dc99c68	0.09844285
37	0xbe2ff272	-0.1718233
38	0x3ead0b05	0.3379747
39	0x3e941f6b	0.2893022
40	0x3eaa8ab3	0.33308944
41	0x3e3a9bd4	0.18223506
42	0x3f0826c7	0.5318417
43	0x3d9c5d03	0.07634928
44	0xbf2e623c	-0.68118644
45	0x3e834477	0.25638172
46	0x3d53c872	0.05170483
47	0x3cb7b892	0.022426877
48	0xbf3870ab	-0.7204692

ode_dp.odeblock.odefunc.fc1.bias f4 [7]
0	0x3f6f13ce	0.93389595
1	0x3eb492c8	0.35268235
2	0x3f21a37b	0.63140076
3	0x3ea40307	0.3203356
4	0x3f16ae97	0.5886015
5	0x3ed9368f	0.42424437
6	0x3f73e19e	0.9526614

ode_dp.odeblock.odefunc.fc2.weight f4 [7, 7]
0	0x3e43d198	0.19122922
1	0x3f2f967a	0.68588984
2	0x3ecc0d74	0.39854014
3	0x3eae737f	0.34072492
4	0x3f1bb269	0.6081911
5	0xbb69abc7	-0.0035655366
6	0x3eb889d2	0.3604265
7	0x3da13e9d	0.07873271
8	0x3ed62562	0.41825396
9	0x3cd1d523	0.025614327
10	0x3e7457b1	0.23861577
11	0x3e40cfb9	0.1882924
12	0x3e4cd312	0.20002392
13	0x3e857d7f	0.26072308
14	0x3f626b2e	0.88444793
15	0x3f10547d	0.5637892
16	0x3f50dfce	0.815915
17	0x3f22113e	0.6330756
18	0x3f017755	0.5057271
19	0x3f22dc45	0.63617355
20	0x3f5abac4	0.8544123
21	0x3f4aee2a	0.7926966
22	0x3f3042d6	0.68851984
23	0x3eb4bdd1	0.35301068
24	0x3f0d50e3	0.5520155
25	0x3eb186ef	0.3467326
26	0x3f032aa3	0.51236933
27	0x3ebe8e38	0.3721788
28	0x3f5910eb	0.8479144
29	0x3eb45a84	0.35225308
30	0x3f234a6f	0.6378545
31	0x3f5b6848	0.85705996
32	0x3f574645	0.840916
33	0x3eabc0b0	0.33545446
34	0x3f567ca2	0.83783925
35	0x3eb99a7b	0.36250672
36	0x3f5eb468	0.8699403
37	0x3eaea3b4	0.3410927
38	0x3eb3f0bf	0.35144612
39	0x3f62ec45	0.8864177
40	0x3efc3c93	0.49264964
41	0x3f3c15e0	0.7347088
42	0x3e0bc575	0.13649543
43	0x3f68f040	0.9099159
44	0x3e5781b7	0.21045576
45	0x3e335553	0.17513017
46	0x3ed21858	0.41034198
47	0x3e840a3f	0.25789067
48	0x3eb1398b	0.34614214

ode_dp.odeblock.odefunc.fc2.bias f4 [7]
0	0x3f0d55dd	0.5520914
1	0xbdb11698	-0.086468875
2	0x3ed141d2	0.4087053
3	0x3e895c18	0.26828074
4	0x3f460d72	0.77364266
5	0x3ebb694c	0.36603773
6	0x3dd6ea64	0.10493925

ode_dp.odeblock.odefunc.fc3.weight f4 [7, 7]
0	0x3e2ddbbe	0.16978356
1	0xbe828c75	-0.25497785
2	0x3f0a248c	0.53962016
3	0x3ef26a70	0.4734683
4	0x3e9dce77	0.30821583
5	0x3ee01be6	0.43771285
6	0x3ebee726	0.37285727
7	0x3f0c8334	0.548877
8	0x3d96c597	0.07361906
9	0x3e77da0c	0.24204272
10	0x3f41c403	0.75689715
11	0x3e06e84e	0.13174555
12	0x3edc40d7	0.4301822
13	0x3ea5c651	0.32377866
14	0xbc8f6684	-0.017504938
15	0xbdd13da7	-0.102168374
16	0x3f1e912f	0.6194028
17	0x3daa2958	0.08308667
18	0x3ee499ea	0.44648677
19	0x3f1cad92	0.6120235
20	0x3e8fb9db	0.28071484
21	0x3ee0687f	0.43829724
22	0x3e8ed120	0.27893925
23	0x3bce8cad	0.006303391
24	0x3ea5adb2	0.32359082
25	0x3da59821	0.08085657
26	0x3f1e59a5	0.61855537
27	0x3f0fa23b	0.5610692
28	0x3eeb6ef1	0.4598308
29	0x3f0f21f6	0.55911195
30	0x3e9eb773	0.30999336
31	0x3d49d73e	0.049277537
32	0x3f39626e	0.72415817
33	0x3db08533	0.08619156
34	0x3e189276	0.1489962
35	0x3e9300c5	0.28711525
36	0x3f260a5c	0.6485956
37	0x3f4a76c5	0.7908748
38	0x3f2b7338	0.66972685
39	0x3f6b0dd0	0.9181795
40	0x3f32f758	0.69908667
41	0x3ef9108d	0.4864544
42	0x3e9490bc	0.29016674
43	0x3e64704d	0.22308464
44	0x3f042613	0.51620597
45	0x3eb24023	0.34814557
46	0x3f1502ec	0.58207583
47	0x3edffdc2	0.4374829
48	0x3e92fd86	0.28709048

ode_dp.odeblock.odefunc.fc3.bias f4 [7]
0	0xbdab5fc8	-0.08367878
1	0x3e615181	0.22003748
2	0x3eaaacbd	0.33334914
3	0x3f00d69a	0.50327456
4	0x3e9e4e8f	0.3091931
5	0x3e0ff6f2	0.14059046
6	0x3f16c928	0.5890069

ode_cp.odeblock.odefunc.fc1.weight f4 [6, 6]
0	0x3ef8216f	0.48463008
1	0x3ec88d7c	0.39170444
2	0xbee3e031	-0.44506982
3	0x3e8315fa	0.25602704
4	0xbb306c91	-0.002692018
5	0x3cadede5	0.021231601
6	0x3e65f1a9	0.22455467
7	0x3e330171	0.17481019
8	0x3d0e5584	0.034749523
9	0xbecdb3ef	-0.4017634
10	0x3d86b24c	0.06576976
11	0xbd24d9c4	-0.04024674
12	0x3ee71734	0.4513489
13	0x3e8ef58a	0.27921706
14	0x3c83a994	0.016072072
15	0xbe21d982	-0.15805629
16	0xbe965443	-0.29361162
17	0x3ed2e5d8	0.41190982
18	0x3f0b03e2	0.543028
19	0x3b9cdfd3	0.004787424
20	0xbe772bd6	-0.24137816
21	0xbc1b97f1	-0.009496675
22	0x3ec44afa	0.38338453
23	0xbddfa406	-0.10919957
24	0x3ea0ea24	0.31428635
25	0xbef05678	-0.4694097
26	0x3ebe7cc9	0.3720458
27	0x3e84df05	0.259514
28	0x3d46b5aa	0.048513092
29	0xbdcf5386	-0.10123353
30	0x3e62e3c3	0.22157197
31	0xbf0738d8	-0.5282111
32	0x3e5c6547	0.21523009
33	0xbe10353c	-0.14082807
34	0x3ec26b7e	0.37972635
35	0x3e428f92	0.1900008

ode_cp.odeblock.odefunc.fc1.bias f4 [6]
0	0x3f098dbd	0.537319
1	0x3e8d6a3a	0.27620107
2	0x3e8904a3	0.2676135
3	0x3f18c5dc	0.5967691
4	0x3d7eb9e4	0.062188998
5	0x3ebb4be3	0.36581334

ode_cp.odeblock.odefunc.fc2.weight f4 [6, 6]
0	0x3ed8ef61	0.42370132
1	0x3d052b18	0.0325118
2	0x3ed2ebd6	0.41195554
3	0x3e539d77	0.20665537
4	0x3e237fd8	0.15966737
5	0xbe054c5f	-0.13017415
6	0x3eb9815c	0.36231506
7	0x3f2b6bb4	0.66961217
8	0x3f3d0e26	0.73849714
9	0x3eeac8ec	0.45856416
10	0x3e6e39a3	0.23264174
11	0x3eb8d3d0	0.360991
12	0x3e1f3781	0.15548517
13	0x3f43ef64	0.76537156
14	0x3e0da0dc	0.13830894
15	0x3ec2f8a5	0.38080326
16	0x3e4dd73e	0.2010164
17	0x3efba94f	0.4915261
18	0x3ef76bf2	0.48324543
19	0x3e941011	0.28918508
20	0x3eee91a6	0.46595496
21	0x3ecec821	0.4038706
22	0xbe05d006	-0.13067636
23	0x3f21e84b	0.63245076
24	0xbe12d4b1	-0.14338948
25	0x3d63a4f5	0.055577237
26	0xbda027e7	-0.07820111
27	0xbd4f379c	-0.050590143
28	0x3ed067a8	0.40704083
29	0xbd8d035e	-0.06885408
30	0xbc89c967	-0.016819669
31	0x3e3aecc8	0.18254387
32	0x3f288ab0	0.6583662
33	0x3dd41868	0.103562176
34	0x3f5294d8	0.8225837
35	0x3ea4d921	0.32196906

ode_cp.odeblock.odefunc.fc2.bias f4 [6]
0	0x3e897d7a	0.26853544
1	0x3e959a1e	0.29219145
2	0x3ed41189	0.41419628
3	0x3ea1d7e4	0.31610024
4	0xbe071966	-0.13193282
5	0x3e3c3fb8	0.18383682

ode_cp.odeblock.odefunc.fc3.weight f4 [6, 6]
0	0xbd4ac645	-0.04950549
1	0x3e9191f2	0.2843166
2	0x3d92146e	0.07132803
3	0x3e29cbf1	0.16581704
4	0xbdd47e79	-0.10375685
5	0x3ea61346	0.3243658
6	0x3dc0b5e0	0.0940969
7	0x3f15400d	0.5830086
8	0x3f003f09	0.50096184
9	0x3e380a8d	0.17972775
10	0x3e5783b0	0.21046329
11	0x3f4476d4	0.7674382
12	0xbf53d7d8	-0.82751226
13	0xbf338d72	-0.70137703
14	0xbf4c3d37	-0.79780906
15	0xbf48e897	-0.78479904
16	0xbdec188b	-0.11528119
17	0xbec118e5	-0.37714306
18	0x3e4b0540	0.19826221
19	0x3ee42454	0.44558966
20	0x3e3e45cc	0.18581313
21	0xbd8b69a6	-0.0680726
22	0x3f215216	0.6301588
23	0x3ec53c77	0.38522694
24	0xbe4ab1b4	-0.19794351
25	0x3e7cf461	0.24702598
26	0x3dd60163	0.10449483
27	0x3f04b89a	0.5184418
28	0xbe7e5fb5	-0.24841197
29	0x3f083173	0.53200454
30	0xbd2608f9	-0.0405359
31	0x3ead0d51	0.33799222
32	0xbe64f42b	-0.22358768
33	0x3ed79d90	0.42112398
34	0x3e9eeeb5	0.31041494
35	0xbc756bcb	-0.014979313

ode_cp.odeblock.odefunc.fc3.bias f4 [6]
0	0x3f0bd4ec	0.5462177
1	0x3c1319ea	0.008978346
2	0xbeae5d24	-0.34055436
3	0x3f20d624	0.6282675
4	0x3e46b2c3	0.1940413
5	0xbd5ad429	-0.053424988

gru_dp_fw.weight_ih_l0 f4 [21, 7]
0	0x3e7ba4cf	0.24574588
1	0x3e885d6b	0.26633772
2	0x3d97fd8d	0.07421408
3	0xbdcbbb57	-0.099478416
4	0xbdb11901	-0.08647347
5	0x3dbb60d1	0.09149326
6	0xbeb9d62a	-0.36296207
7	0x3e0018d3	0.1250947
8	0xbeb21ff0	-0.3478999
9	0xbea8984d	-0.32928696
10	0xbe24927f	-0.16071509
11	0xbea0f39a	-0.31435853
12	0x3eb00ed7	0.34386322
13	0xbe40ca6f	-0.18827222
14	0xbe0b6483	-0.13612561
15	0xbdd1889f	-0.102311365
16	0x3eb103a3	0.34573087
17	0xbe385559	-0.18001308
18	0x3e8ade84	0.2712289
19	0x3ea40ed2	0.32042557
20	0x3d12a34a	0.035800256
21	0x3e50df79	0.20397748
22	0xbd47a314	-0.048739508
23	0x3ddc875f	0.107680075
24	0xbea4e67f	-0.32207105
25	0xbdd697d6	-0.10478179
26	0x3e83f3d5	0.25771967
27	0xbe4f81bd	-0.20264335
28	0xbd12cc10	-0.03583914
29	0xbe845742	-0.25847822
30	0xbe1fb3c7	-0.15595923
31	0xbe59663d	-0.21230407
32	0xbe7a7cb8	-0.24461639
33	0xbea01b72	-0.3127094
34	0xbe1662e8	-0.14686167
35	0x3e2aabbc	0.16667074
36	0xbe943461	-0.28946212
37	0xbe6738f8	-0.22580326
38	0xbd834c3d	-0.06411026
39	0x3e629415	0.22126801
40	0x3e665a44	0.22495371
41	0x3e0bb30c	0.1364252
42	0x3e34cf71	0.17657258
43	0x3e8a9d8b	0.2707332
44	0xbe8b5498	-0.27212977
45	0x3e7e0778	0.24807537
46	0x3db19995	0.086718716
47	0x3d87a0b1	0.06622446
48	0xbe83f957	-0.2577617
49	0xbe90af9c	-0.2825898
50	0xbd65f396	-0.056140505
51	0x3e97e388	0.2966578
52	0x3e358b84	0.17729002
53	0x3e25ecf5	0.16203673
54	0x3e09d017	0.13458286
55	0x3ea44f39	0.32091692
56	0x3e24b67c	0.16085237
57	0x3d60b907	0.054863956
58	0x3ea22656	0.31669873
59	0xbe262f32	-0.16228941
60	0xbe4dc849	-0.20095934
61	0x3e3f8823	0.18704276
62	0xbe95aac3	-0.29231843
63	0xbe2ca326	-0.16859111
64	0xbe97b0aa	-0.2962697
65	0x3d932617	0.071849994
66	0xbe6e32b8	-0.23261535
67	0x3e78ea66	0.24308166
68	0xbeb5fc58	-0.35544086
69	0x3e47f540	0.19527149
70	0x3d9cccf6	0.07656281
71	0x3dbba3fa	0.091621354
72	0x3d9eb661	0.0774963
73	0x3d6c6421	0.057712678
74	0x3e30c151	0.17261244
75	0x3e8201cc	0.25391996
76	0xbdcc0a56	-0.09962909
77	0xbeaaa77f	-0.33330914
78	0xbd0c9634	-0.034322932
79	0xbd8de1c5	-0.06927828
80	0x3cfe7a0d	0.031064058
81	0xbe3b38e8	-0.18283427
82	0xbe443521	-0.19160892
83	0x3e94f963	0.29096517
84	0x3e42ff57	0.19042717
85	0x3eb68e58	0.35655475
86	0xbbc82def	-0.0061089913
87	0x3eb93ee0	0.36180782
88	0xb8faaf58	-0.00011953589
89	0x3e63d51d	0.22249265
90	0x3eaf5fc1	0.34252742
91	0xbeabc8fa	-0.3355177
92	0xbe887674	-0.26652873
93	0xbe004928	-0.12527907
94	0xbe5f577d	-0.21810718
95	0x3e99416c	0.29932725
96	0xbc0bc799	-0.0085314745
97	0xbe9a9346	-0.30190486
98	0x3e8a71bc	0.27039897
99	0x3e3a4cf3	0.18193416
100	0xbe88c838	-0.26715255
101	0x3e4733e9	0.19453396
102	0xbe8e0794	-0.27740157
103	0x3e337d76	0.17528328
104	0x3d95b1a1	0.07309271
105	0x3ea05427	0.31314203
106	0xbe37a308	-0.17933285
107	0x3dce086c	0.100602
108	0x3e5fdd77	0.21861826
109	0x3e81faf1	0.25386766
110	0xbe064282	-0.13111308
111	0xbd128ce5	-0.0357789
112	0xbbe8f6a3	-0.0071094795
113	0xbe1d8ca0	-0.15385675
114	0xbdb8d339	-0.090246625
115	0xbe937d87	-0.28806707
116	0xbdaaed77	-0.08346074
117	0x3dd9e362	0.10639073
118	0xbe673dd9	-0.22582187
119	0x3ebdac98	0.3704574
120	0xbe4ceb12	-0.20011547
121	0xbe639359	-0.22224177
122	0x3dd03a68	0.1016739
123	0x3c96b868	0.018398479
124	0x3e6205d9	0.22072543
125	0x3e12de92	0.14342716
126	0x3eb00a1f	0.34382722
127	0x3e6c8481	0.23097421
128	0xbe232e4f	-0.15935634
129	0xbbc0238a	-0.0058636116
130	0xbced5826	-0.028972697
131	0xbd6f24fc	-0.05838488
132	0xbeaed69b	-0.34148106
133	0xbe7748f6	-0.24148926
134	0x3e1f88c9	0.15579523
135	0xbb807d7e	-0.00392121
136	0x3e517617	0.20455204
137	0xbda461e1	-0.080264814
138	0x3ea25b57	0.31710312
139	0x3e9aeb0a	0.30257446
140	0x3e783c77	0.24241816
141	0xbe5d7e35	-0.21630175
142	0x3e535b7b	0.20640366
143	0xbc864c98	-0.016393945
144	0xbeaf0e37	-0.34190533
145	0xbd8e064b	-0.06934794
146	0xbe47f1f8	-0.19525898

gru_dp_fw.weight_hh_l0 f4 [21, 7]
0	0xbd87ae1a	-0.06625004
1	0xbeb02a63	-0.34407339
2	0xbe0dd60f	-0.13851188
3	0xbe7c7321	-0.24653293
4	0xbd4b5dac	-0.04964988
5	0xbe8950ae	-0.26819366
6	0xbee9cd43	-0.45664415
7	0xbcfbde73	-0.03074572
8	0xbe788265	-0.24268492
9	0x3ddb4b3f	0.107077114
10	0x3e2511f6	0.16120133
11	0xbe80f74f	-0.2518868
12	0x3d5c6a6b	0.053812426
13	0xbdf838cf	-0.121202104
14	0xbe43e41c	-0.19129986
15	0x3dec4327	0.11536246
16	0x3ea3cb72	0.31991154
17	0xbe9e6e61	-0.30943587
18	0x3e2eca3f	0.17069338
19	0x3c54ec06	0.0129957255
20	0x3e4db1b7	0.20087324
21	0xbe687644	-0.22701365
22	0xbab08eca	-0.0013470289
23	0x3de6ed2b	0.11275705
24	0x3ddd5511	0.10807241
25	0xbe203d87	-0.15648471
26	0x3e77b6c9	0.24190821
27	0x3eab01d9	0.33399847
28	0xbdc1af8f	-0.09457313
29	0x3dd13132	0.102144614
30	0x3bfe9a98	0.007769894
31	0x3ee08fad	0.43859616
32	0xbed2fc99	-0.41208342
33	0x3ed16a55	0.40901437
34	0x3dde09f7	0.108417444
35	0x3e6e35d9	0.23262729
36	0x3ea574d3	0.32315692
37	0xbe58001a	-0.21093789
38	0x3ea84013	0.32861385
39	0xbe6fc419	-0.23414649
40	0xbe0b3751	-0.1359532
41	0x3e30401d	0.17211957
42	0xbe354abe	-0.17704293
43	0xbe248347	-0.16065703
44	0x3ece2531	0.4026275
45	0xbc14822a	-0.009064237
46	0x3eb24043	0.34814653
47	0xbcc3e6f8	-0.023913845
48	0x3de459f0	0.11149967
49	0xbea36157	-0.31910202
50	0x3e89f249	0.2694266
51	0x3e888c5f	0.26669595
52	0x3eabf31a	0.3358391
53	0x3ebb0ac4	0.3653165
54	0xbdab32ee	-0.083593234
55	0x3e0b5c4f	0.13609432
56	0x3e8b974c	0.27263868
57	0xbe91408e	-0.28369564
58	0x3ebe4bf7	0.37167332
59	0x3dcd74cd	0.100320436
60	0xbca634a3	-0.020288771
61	0x3d91547a	0.07096191
62	0xbe6bf361	-0.2304206
63	0x3d41e7c2	0.047340162
64	0x3dbee608	0.09321219
65	0xbe37ba8b	-0.17942254
66	0xbe00d16f	-0.12579893
67	0x3ebc340a	0.36758453
68	0x3ebab4f5	0.36466184
69	0xbe8f5cc6	-0.28000468
70	0xbddf62b5	-0.10907499
71	0xbd88e806	-0.0668488
72	0xbe8bde7f	-0.2731819
73	0x3ea49e73	0.32152137
74	0x3caf8f1d	0.021430546
75	0xbd9ced90	-0.07662499
76	0x3cbbccd3	0.022924816
77	0x3d03696a	0.032082953
78	0x3e273656	0.16329321
79	0xbea5cc92	-0.32382637
80	0xbd53f75b	-0.05174957
81	0xbc9821f9	-0.018570887
82	0xbea42d3e	-0.32065767
83	0xbe7ae7b3	-0.24502449
84	0x3eb4444f	0.35208365
85	0xbe8544b2	-0.26028973
86	0xbe2c1352	-0.16804245
87	0x3e26a7c0	0.16274929
88	0xbe4ba0e4	-0.19885594
89	0x3e162989	0.14664282
90	0x3e2280f5	0.15869506
91	0xbe40ae8a	-0.18816581
92	0xbe26c9b1	-0.16287877
93	0x3d10059b	0.035161596
94	0xbd45b4b4	-0.048268035
95	0xbe607130	-0.21918178
96	0x3e80fe78	0.25194144
97	0xba439673	-0.00074610783
98	0x3dd1c88e	0.10243331
99	0xbea8cb10	-0.32967424
100	0x3e882954	0.2659403
101	0xbe8e599b	-0.2780274
102	0xbe684a4d	-0.22684593
103	0x3cbf343d	0.023340339
104	0xbe52c5b1	-0.20583226
105	0x3e1ce781	0.15322687
106	0x3e7a0196	0.24414667
107	0xbb38cc73	-0.0028198033
108	0xbd2db21f	-0.042406198
109	0x3e31712a	0.17328325
110	0x3e6ab2b2	0.2291973
111	0xbead66ad	-0.33867398
112	0xbe90a088	-0.28247476
113	0x3ea96a3e	0.3308887
114	0x3e80cdbb	0.2515696
115	0x3e565698	0.2093147
116	0x3e5c7b98	0.21531522
117	0x3e5ceb9e	0.21574256
118	0x3e6723ad	0.22572203
119	0x3e8484d9	0.25882605
120	0xbd6a30f4	-0.05717559
121	0xbc2a79b1	-0.01040499
122	0x3c5b1ce1	0.0133735845
123	0x3e60fc30	0.21971202
124	0x3e5330f4	0.20624143
125	0xbd70e870	-0.05881542
126	0xbe2ba239	-0.16761102
127	0xbd77f7c4	-0.060539022
128	0xbc90a56d	-0.017657006
129	0x3ea453f2	0.32095295
130	0x3e4e06b3	0.20119743
131	0xbe28b8de	-0.16476771
132	0xbe40b046	-0.18817243
133	0x3e114147	0.14185058
134	0x3ea2636c	0.31716478
135	0xbea44c3e	-0.32089418
136	0xbea9147d	-0.33023444
137	0xbe1102af	-0.1416118
138	0x3e636484	0.22206312
139	0xbe63814a	-0.22217289
140	0xbe1d3b2d	-0.15354605
141	0x3e35061d	0.17678113
142	0x3d883003	0.066497825
143	0xbe8620c5	-0.26196876
144	0xbdec1f84	-0.11529449
145	0x3e059ba7	0.13047658
146	0x3ead796e	0.33881706

gru_dp_fw.bias_ih_l0 f4 [21]
0	0x3e9e8f14	0.30968535
1	0xbd9420dd	-0.07232831
2	0xbe417b09	-0.1889459
3	0x3ea1f410	0.31631517
4	0x3e311ed7	0.1729692
5	0xbd294cc3	-0.04133297
6	0x3e166005	0.14685066
7	0xbd5d705a	-0.054062225
8	0x3e86ca4d	0.26326218
9	0x3db509fb	0.08839794
10	0x3e005911	0.12533976
11	0x3ec0122f	0.37513873
12	0x3e86f9ff	0.26362607
13	0x3d282d53	0.04105885
14	0xbdfcad12	-0.12337698
15	0x3e05606c	0.13025063
16	0xbe15f67f	-0.14644812
17	0xbe7d2a35	-0.24723132
18	0x3d230805	0.03980257
19	0x3d2570ba	0.040390708
20	0x3d0b1647	0.033956792

gru_dp_fw.bias_hh_l0 f4 [21]
0	0x3d807422	0.062721506
1	0x3d0fcea2	0.03510917
2	0xbe1d7f2c	-0.15380543
3	0xbe6af7c5	-0.22946079
4	0x3d1d79a2	0.038446076
5	0x3e5673cc	0.2094261
6	0xbe326843	-0.17422585
7	0x3ea954c0	0.33072472
8	0xbdbde5a0	-0.09272313
9	0xbe391c0a	-0.18077102
10	0x3e8e6df3	0.2781826
11	0x3e363fd4	0.17797786
12	0x3e8b0a27	0.27156183
13	0xbda161d3	-0.078799866
14	0xbe8228e1	-0.25421813
15	0xbe1c6a14	-0.1527484
16	0x3e3a363a	0.18184748
17	0x3ec6c79e	0.3882417
18	0x3df58571	0.119883426
19	0xbdfc0376	-0.123053476
20	0xbd82ca13	-0.06386199

gru_cp_fw.weight_ih_l0 f4 [18, 6]
0	0xbea2f76f	-0.31829402
1	0xbde88e25	-0.11355237
2	0xbe5a8ad3	-0.2134202
3	0x3e1656a4	0.14681488
4	0x3e753227	0.23944913
5	0x3e911f80	0.28344345
6	0x3ecac0b2	0.3960014
7	0x3e950de3	0.29112157
8	0xbec16b02	-0.37776953
9	0x3c6a575e	0.0143030565
10	0x3ed13239	0.4085863
11	0x3eaa2725	0.3323299
12	0xbe7c348a	-0.24629417
13	0x3e745c7a	0.23863402
14	0xbe91ac7b	-0.28451905
15	0xbe990730	-0.29888296
16	0x3ac0c902	0.0014708342
17	0xbebb277e	-0.36553568
18	0x3e8531d9	0.26014593
19	0xbe054838	-0.1301583
20	0xbe2f61ad	-0.17127104
21	0x3d814f05	0.063139
22	0x3ec7e4dc	0.39041793
23	0xbdae06ff	-0.08497428
24	0x3f20fbf1	0.6288443
25	0x3e4791e9	0.19489254
26	0xbedc9f6a	-0.43090373
27	0x3e8bd679	0.27312067
28	0x3e68acad	0.2272212
29	0xbe81daaf	-0.25362155
30	0xbe522386	-0.20521364
31	0xbe429bc6	-0.19004735
32	0x3e8ca8b3	0.27472457
33	0xbeb44906	-0.35211962
34	0xbe808308	-0.2509997
35	0x3e8c0391	0.2734647
36	0xbe461e6e	-0.19347546
37	0xbec71521	-0.38883308
38	0x3dd48d5c	0.10378525
39	0xbe8f84a9	-0.280309
40	0xbce0209d	-0.027359301
41	0x3f01fd9d	0.5077761
42	0x3ddf05d8	0.108897865
43	0xbe5d9bd4	-0.21641475
44	0x3eb8b6e3	0.36077031
45	0x3e94f1f0	0.29090834
46	0xbe2f5e32	-0.17125776
47	0xbecae1a4	-0.39625275
48	0xbe170743	-0.14748864
49	0x3e0b9b65	0.13633497
50	0x3e1af9e3	0.15134387
51	0xbce17330	-0.027520746
52	0xbe04928e	-0.12946531
53	0xbeefe845	-0.46856895
54	0xbe1ae9ff	-0.15128325
55	0x3df0065c	0.11719963
56	0x3eae7638	0.3407457
57	0xbd3c4b72	-0.045970388
58	0xbd93cc4f	-0.07216703
59	0xbd9b0df0	-0.07571018
60	0xbea22be2	-0.31674105
61	0x3e7ea166	0.24866256
62	0xbe03f8dc	-0.12887901
63	0xbe404ce0	-0.18779325
64	0x3e79d004	0.24395758
65	0xbe605ec0	-0.21911144
66	0xbed7f5ea	-0.42179805
67	0xbee64e1a	-0.44981462
68	0xbe028aeb	-0.12748305
69	0xbe919310	-0.28432512
70	0xbe02648b	-0.12733667
71	0xbedd02ac	-0.431661
72	0xbee33afe	-0.44380945
73	0xbe24660d	-0.16054554
74	0x3d82b1a2	0.06381537
75	0xbe8bb90e	-0.27289623
76	0xbead8e43	-0.338976
77	0x3e937bda	0.2880543
78	0x3d82fad4	0.06395498
79	0x3e5bf73d	0.21481033
80	0xbebe4687	-0.37163183
81	0x3bd8038b	0.006592219
82	0x3e73bb47	0.2380191
83	0x3e81a3a4	0.2532016
84	0xbe30a48c	-0.1725027
85	0xbe00b2a1	-0.12568142
86	0x3da91968	0.08256799
87	0xbe00aafb	-0.12565224
88	0xbe98b19c	-0.29823005
89	0xbeb7be6b	-0.35887465
90	0x3eb3fc29	0.3515332
91	0x3d591403	0.0529976
92	0xbed7335a	-0.42031366
93	0x3eb6536d	0.35610524
94	0xbd2116d0	-0.039328396
95	0x3e2a0549	0.16603579
96	0x3d783e67	0.060606387
97	0x3daf03cc	0.08545646
98	0xbddeb53f	-0.10874414
99	0x3ce423fa	0.027849186
100	0xbe81c9cf	-0.2534928
101	0xbe92e3d9	-0.2868946
102	0x3e969b39	0.294153
103	0x3cd52a8e	0.026021268
104	0x3d193cca	0.03741149
105	0x3ea70d28	0.32627225
106	0x3d471e3a	0.04861281
107	0x3ef0a372	0.469997

gru_cp_fw.weight_hh_l0 f4 [18, 6]
0	0x3e3d2fe3	0.18475299
1	0x3efd3e05	0.4946138
2	0xbddbea23	-0.107380174
3	0xbe670b7a	-0.22562972
4	0xbe9b9208	-0.3038485
5	0xbe6c086e	-0.2305009
6	0x3c26eec5	0.010188763
7	0x3d225ab8	0.039637297
8	0xbdfdb89a	-0.123887256
9	0xbe951f9e	-0.29125684
10	0x3e6ca9d1	0.23111655
11	0x3e32739c	0.17426914
12	0xbe4f904e	-0.20269892
13	0xbe9e17de	-0.30877584
14	0xbef7b74e	-0.48382038
15	0x3e7d23bc	0.24720663
16	0x3e0434fc	0.12910837
17	0x3ea6a23a	0.32545644
18	0xbccf4558	-0.02530162
19	0x3ccf4f67	0.025306417
20	0xbd83134a	-0.064001635
21	0xbd97c449	-0.07410485
22	0x3ce0675c	0.027393036
23	0xbd6bc85e	-0.057564132
24	0x3d918242	0.07104923
25	0x3ef42603	0.4768525
26	0xbe3d57dd	-0.18490548
27	0xbd002039	-0.03128073
28	0xbed53a99	-0.4164627
29	0x3eae584b	0.34051737
30	0xbe8c8517	-0.2744529
31	0x3de52d3b	0.11190268
32	0x3e474d60	0.1946311
33	0x3e961dac	0.29319513
34	0x3de72035	0.1128544
35	0xbda453f6	-0.08023827
36	0xbe0ac24d	-0.13550682
37	0x3ec91279	0.39271906
38	0xbe0cf64a	-0.13765827
39	0x3eb41e6d	0.35179463
40	0xbe970709	-0.29497555
41	0x3e679753	0.2261632
42	0x3d8564c0	0.06513357
43	0x3f14a359	0.5806175
44	0xbf1763ee	-0.59136856
45	0x3f10ae08	0.5651555
46	0xbf0b9a80	-0.54532623
47	0x3ef8bf28	0.4858334
48	0xbf049435	-0.51788646
49	0x3e7224ce	0.23646852
50	0x3d7a1d25	0.06106295
51	0x3eaac69c	0.33354652
52	0xbed119bb	-0.40839943
53	0x3d596678	0.053076237
54	0x3d5d218f	0.053987082
55	0x3ebb1af8	0.36544013
56	0xbea2a02e	-0.31762832
57	0xbdc4c6ec	-0.09608254
58	0xbecf7b39	-0.405237
59	0x3e235756	0.15951285
60	0x3ea95c8f	0.3307843
61	0xbd5f09eb	-0.054452818
62	0xbdf4d2b3	-0.1195425
63	0xbeb11d62	-0.3459273
64	0x3dd75a5d	0.10515282
65	0xbe8e069d	-0.2773942
66	0xbd0cda25	-0.034387726
67	0xbdc49091	-0.09597886
68	0x3e11da39	0.14243402
69	0x3eb13e74	0.3461796
70	0x3e8e34cc	0.27774656
71	0x3e84ed2f	0.25962207
72	0xbe310a21	-0.1728902
73	0xbe6c59ec	-0.23081177
74	0x3db7e097	0.08978384
75	0xbea7f8cb	-0.32807
76	0xbe24dc00	-0.16099548
77	0xbef7ee56	-0.48424023
78	0xbe596ad8	-0.21232164
79	0xbe39666d	-0.18105479
80	0xbee11911	-0.43964437
81	0xbd65a732	-0.056067653
82	0xbe82c14b	-0.25538096
83	0xbd7c9410	-0.06166464
84	0x3ed213f9	0.41030863
85	0x3e7a5049	0.24444689
86	0x3e5d45fc	0.21608728
87	0xbeab65c1	-0.3347607
88	0x3e604131	0.21899869
89	0xbed530f6	-0.41638917
90	0xbe006094	-0.12536842
91	0x3ee53fcf	0.44775245
92	0xbeb41679	-0.35173395
93	0xbdb430b4	-0.08798352
94	0xbe68af10	-0.22723031
95	0x3ebef2d2	0.37294632
96	0x3e42411b	0.18970148
97	0xbdbc489f	-0.09193539
98	0x3e6e405c	0.23266739
99	0xbeac575f	-0.3366041
100	0x3a2576a6	0.00063119305
101	0xbe3c2fe0	-0.18377638
102	0x3c36db48	0.011160679
103	0x3ea96f3b	0.33092675
104	0xbe1d87d7	-0.1538385
105	0x3c983886	0.01858164
106	0x3e03eb99	0.12882842
107	0xbeaec235	-0.34132543

gru_cp_fw.bias_ih_l0 f4 [18]
0	0x3e6dd7e9	0.23226894
1	0xbe83df58	-0.25756335
2	0x3d55e9b5	0.052224834
3	0xbe3e6f69	-0.18597187
4	0xbe0ba17b	-0.13635819
5	0xbdb0a0ec	-0.086244434
6	0x3e894431	0.26809838
7	0x3ea13288	0.31483865
8	0xbd416476	-0.047214948
9	0xbe8334ed	-0.25626317
10	0xbe211200	-0.15729523
11	0x3dc0fddc	0.0942342
12	0x3d8c7206	0.06857686
13	0x3dbbe1d1	0.091739304
14	0xbe01967c	-0.12655061
15	0xbe43c74d	-0.19118996
16	0x3debfdd6	0.11523025
17	0xbd3e61ff	-0.046480175

gru_cp_fw.bias_hh_l0 f4 [18]
0	0x3e9b1d78	0.3029592
1	0x3eab7b77	0.33492634
2	0xbeadd77e	-0.3395347
3	0x3deb7f8b	0.11498936
4	0xbdc239a7	-0.094836526
5	0xbdba2af4	-0.09090224
6	0x3e33cca2	0.1755853
7	0xbd1663a5	-0.036716122
8	0x3e32142b	0.17390506
9	0x3e318d15	0.17338975
10	0x3c636a38	0.013880305
11	0x3e7316ce	0.23739168
12	0xbeac9109	-0.33704403
13	0x3e7191ef	0.23590825
14	0x3e502c0a	0.203293
15	0x3e07ef43	0.13274865
16	0xbeb5be73	-0.35496864
17	0x3d7ac0cf	0.061219033

gru_dp_bw.weight_ih_l0 f4 [21, 7]
0	0x3ef86456	0.4851405
1	0x3e826eb4	0.25475085
2	0x3ca253b5	0.019815305
3	0xbd0726bc	-0.032995924
4	0x3e019e47	0.12658034
5	0x3d6fffd6	0.058593594
6	0x3dbd6f4f	0.09249746
7	0x3e55c674	0.20876485
8	0xbdc4f8d8	-0.09617776
9	0x3e187906	0.14889917
10	0xbd923c10	-0.07140362
11	0xbe5e415c	-0.2170462
12	0xbcae9260	-0.021310031
13	0x3e261c2c	0.16221684
14	0x3e266510	0.1624949
15	0x3d1ef33f	0.038806196
16	0xbe8a84af	-0.27054355
17	0x3ed0a460	0.40750408
18	0xbd6f2aa2	-0.058390267
19	0xbf117e6e	-0.5683354
20	0x3e41d340	0.18928242
21	0xbe9703be	-0.29495043
22	0x3efbe426	0.491975
23	0x3e7300ad	0.23730727
24	0x3edb857d	0.4287528
25	0x3ed31778	0.41228843
26	0x3e69cefe	0.22832868
27	0x3dd8518d	0.105624296
28	0x3da687a1	0.08131338
29	0x3e8ee527	0.27909204
30	0xbe9f6184	-0.31129086
31	0xbe3ad5d5	-0.18245633
32	0x3d795777	0.06087443
33	0xbe8143b7	-0.25246975
34	0x3ca74e3a	0.020423044
35	0x3e0de8f3	0.13858394
36	0x3deeb527	0.11655646
37	0x3e57556c	0.2102868
38	0x3e286f4a	0.16448703
39	0x3d4068da	0.046974994
40	0xbba2cc1a	-0.0049681785
41	0x3e7f2960	0.24918127
42	0x3e849096	0.2589156
43	0xbecd4464	-0.4009124
44	0x3e1e63e5	0.15467794
45	0xbe3ad38b	-0.1824476
46	0xbe0c9571	-0.13728882
47	0xbe8b2b46	-0.27181453
48	0xbe180751	-0.14846541
49	0x3e035f3e	0.12829301
50	0xbe04784d	-0.12936516
51	0x3cb61604	0.022227295
52	0x3e18f290	0.1493628
53	0x3d14028f	0.036135253
54	0xbb6bd0a3	-0.0035982511
55	0xbe6a93c5	-0.22907932
56	0xbea11cac	-0.31467187
57	0x3e80ea72	0.25178868
58	0xbed9acfd	-0.42514792
59	0x3e8eda9e	0.27901167
60	0x3e1b8676	0.15188012
61	0x3e589362	0.21149972
62	0xbe8d73b3	-0.27627334
63	0xbd2b4d5f	-0.041821834
64	0x3df31052	0.11868347
65	0xbeacb4e7	-0.33731768
66	0x3e8071a2	0.25086695
67	0xbeb79806	-0.35858172
68	0xbce7c944	-0.028294213
69	0xbe4b7cb9	-0.19871797
70	0xbe54ba7d	-0.20774265
71	0xbd665181	-0.056230072
72	0x3e5cac42	0.21550086
73	0x3eb87efa	0.36034375
74	0xbd81d9a4	-0.0634034
75	0x3ef2c70a	0.4741748
76	0x3e2afc7c	0.16697878
77	0x3e1f25c8	0.15541756
78	0x3f158cd7	0.5841803
79	0xbefe37c8	-0.49651933
80	0x3e5ffaec	0.21873063
81	0x3f38f3f5	0.7224725
82	0x3e1d9314	0.15388137
83	0xbf001e14	-0.50045896
84	0xbd0868dc	-0.033303127
85	0x3e784c4e	0.24247858
86	0xbf1041de	-0.56350505
87	0x3d510851	0.05103332
88	0xbe818cc7	-0.25302717
89	0xbe0404dd	-0.1289248
90	0xbc9087c3	-0.017642861
91	0x3e5d5eff	0.2161827
92	0x3d87c9be	0.06630276
93	0x3e7dfc60	0.24803305
94	0xbdf6c411	-0.120491154
95	0xbe37f6cb	-0.17965238
96	0x3ce6a7d4	0.028156199
97	0x3d40f699	0.047110174
98	0xbeb7a50e	-0.35868114
99	0xbe0bc19e	-0.13648078
100	0xbd716cb9	-0.058941577
101	0xbe4f8a71	-0.20267655
102	0x3d720a6e	0.059091978
103	0xbde31143	-0.11087277
104	0x3c17cb37	0.009264759
105	0x3e0b5cee	0.13609669
106	0xbe6a7580	-0.22896385
107	0xbe19a7ba	-0.15005389
108	0xbb419d7c	-0.002954333
109	0xbe085dde	-0.13317057
110	0x3cd20649	0.025637763
111	0x3ac60f07	0.001511068
112	0xbd9660df	-0.073426954
113	0xbed2caa7	-0.41170236
114	0x3eae64f1	0.34061387
115	0xbe91868e	-0.2842297
116	0x3e9a22bd	0.30104628
117	0x3d329b10	0.04360491
118	0x3e49eff9	0.19720449
119	0x3e9e856a	0.30961162
120	0xbd6b2cb3	-0.057415675
121	0xbe6def69	-0.23235859
122	0xbe7d1ca3	-0.24717955
123	0xbe8b1ccc	-0.27170408
124	0xbecac635	-0.39604345
125	0xbeb36051	-0.3503442
126	0xbd793449	-0.06084088
127	0xbee5f26e	-0.44911522
128	0x3ea72b22	0.32650095
129	0xbbefad2e	-0.007314346
130	0xbee05e2f	-0.43821856
131	0xbc11b559	-0.008893334
132	0x3e95f089	0.29285076
133	0xbc764766	-0.015031671
134	0x3ddb1b28	0.10698539
135	0x3e31ea7f	0.1737461
136	0xbe4d3704	-0.20040518
137	0xbde031cf	-0.10947
138	0x3d52f184	0.05149986
139	0xbd4e481c	-0.050361738
140	0xbdf0c167	-0.117556386
141	0xbe883b1a	-0.2660759
142	0xbea29745	-0.31756034
143	0x3e106476	0.14100823
144	0xbe52daa3	-0.20591216
145	0xbd38052a	-0.0449268
146	0xbe444d7d	-0.19170184

gru_dp_bw.weight_hh_l0 f4 [21, 7]
0	0xbda78b8a	-0.08180912
1	0x3e4e4f83	0.20147519
2	0xbed0e872	-0.40802342
3	0x3cfab699	0.030604647
4	0x3e1c86f7	0.1528586
5	0xbe9010d6	-0.28137845
6	0x3d52e8f2	0.051491685
7	0xbdfcbec2	-0.12341072
8	0xbe61ce6c	-0.220514
9	0xbeaf4120	-0.34229374
10	0x3e913545	0.28360954
11	0x3e99bc86	0.30026644
12	0xbecffe83	-0.40623865
13	0xbe7713aa	-0.24128595
14	0x3a030fc7	0.00049996044
15	0x3d05cdec	0.032667086
16	0xbcd98b7e	-0.026555773
17	0x3d2eaca1	0.0426451
18	0xbdc7bf90	-0.097533345
19	0xbe4c3755	-0.19942982
20	0xbdc71a1e	-0.09721778
21	0xbebe1c3e	-0.37130922
22	0xbd6f0c97	-0.058361616
23	0xbe993721	-0.29924873
24	0xbe967934	-0.29389346
25	0xbd9ebc0d	-0.077507116
26	0x3e5b9048	0.21441758
27	0xbf4285bf	-0.7598533
28	0xbd333ae3	-0.04375733
29	0xbdd4cd9c	-0.103907794
30	0x3d92ca5e	0.07167505
31	0x3eb910ad	0.36145535
32	0xbd02d3fa	-0.031940438
33	0x3e518db1	0.20464207
34	0x3e2ef6a6	0.17086276
35	0xbd1bf185	-0.038072128
36	0xbc55a3a6	-0.013039505
37	0x3e2666c3	0.16250138
38	0xbe4ffd11	-0.20311381
39	0xbddfe057	-0.10931461
40	0xbe324d99	-0.17412414
41	0xbea04ae4	-0.31307137
42	0x3e5269d0	0.20548177
43	0x3c5277b8	0.012845926
44	0xbf01093a	-0.50404704
45	0xbeffb932	-0.4994598
46	0x3d82a2bb	0.063786946
47	0xbe2f6bf9	-0.17131032
48	0xbcfad835	-0.030620674
49	0x3e943c94	0.28952467
50	0x3ddc42ea	0.1075495
51	0xbe267eca	-0.16259304
52	0x3e15cbbf	0.14628504
53	0x3ecc46e0	0.39897823
54	0xbede6063	-0.43432912
55	0xbe9286ef	-0.2861857
56	0xbead1899	-0.3380783
57	0xbe4fd626	-0.20296535
58	0x3e97d54d	0.29654923
59	0xbe234cc3	-0.15947251
60	0x3ecb240a	0.39675933
61	0xbe8d87ce	-0.27642673
62	0xbd0c8b86	-0.034312747
63	0xbc340be2	-0.010989161
64	0x3eda9aff	0.42696378
65	0xbecb9889	-0.39764813
66	0xbf0c9ee4	-0.5492995
67	0x3d6532a0	0.055956483
68	0x3eafa0ff	0.34302518
69	0xbd5a3d1e	-0.053280942
70	0x3e82c0ea	0.25537807
71	0x3d2a0356	0.041507088
72	0xbf14d381	-0.5813523
73	0xbe80454b	-0.25052866
74	0x3f384749	0.7198377
75	0x3d6a3422	0.057178624
76	0x3e7db65a	0.24776593
77	0xbd9a63b0	-0.07538545
78	0x3f10ee18	0.566133
79	0xbe84522b	-0.2584394
80	0x3d889163	0.06668355
81	0x3e4db7b9	0.20089616
82	0xbd21d138	-0.039506167
83	0x3d670b4e	0.056407265
84	0xbd82344f	-0.06357633
85	0x3e2cc08b	0.16870324
86	0xbed732ea	-0.42031032
87	0x3e405065	0.18780668
88	0x3ecd0638	0.40043807
89	0x3eb465e4	0.35233986
90	0x3e38dae5	0.18052252
91	0x3e9b7446	0.30362147
92	0x3e7be7b5	0.24600108
93	0xbe7d2a6b	-0.24723212
94	0x3e67061d	0.22560926
95	0x3f1d04f7	0.613357
96	0xbe4a4146	-0.19751462
97	0xbea839f6	-0.3285672
98	0x3ee44395	0.4458281
99	0xbcceb47d	-0.025232548
100	0x3e88f4e8	0.2674935
101	0x3f36c1e2	0.7138959
102	0x3ed9da69	0.42549446
103	0xbe1585cf	-0.14601825
104	0x3f0bd1b5	0.5461686
105	0xbf0fd5cf	-0.5618562
106	0x3e987e66	0.29783934
107	0x3e9af18b	0.30262408
108	0xbedf62b6	-0.43629998
109	0xbd370ec1	-0.044691805
110	0xbee49071	-0.4464145
111	0xbed17009	-0.4090579
112	0x3dcdb313	0.10043921
113	0x3eae7be6	0.34078902
114	0xbdb7f935	-0.08983079
115	0x3e751ff5	0.23937972
116	0xbe350c75	-0.17680533
117	0xbe93fa53	-0.2890192
118	0x3ecc55cf	0.39909217
119	0x3ea55895	0.32294145
120	0x3d240f2f	0.040053543
121	0x3f181ee7	0.59422153
122	0x3f1d25c8	0.61385775
123	0x3ea3e509	0.32010677
124	0x39a63bc2	0.0003170651
125	0x3e7fb061	0.24969627
126	0x3e5d2830	0.21597362
127	0xbe240412	-0.16017178
128	0xbda82bcd	-0.08211479
129	0xbe08bc5d	-0.13353105
130	0x3e96d7ee	0.29461616
131	0x3e2c8d55	0.16850789
132	0x3dffbb0e	0.1248685
133	0x3f4e447f	0.80573267
134	0xbe28e639	-0.16494073
135	0xbd83bdbc	-0.06432673
136	0x3e5cf597	0.2157806
137	0xbe027e85	-0.12743576
138	0x3f0aab0b	0.5416724
139	0x3ee20631	0.4414535
140	0x3f1f38e5	0.6219619
141	0xbcd7a63f	-0.02632439
142	0x3e8695e2	0.26286227
143	0x3ec183cb	0.37795863
144	0x3ee7387e	0.45160288
145	0x3e5c8adb	0.21537344
146	0x3ef92c51	0.48666623

gru_dp_bw.bias_ih_l0 f4 [21]
0	0x3d45841a	0.048221685
1	0x3e1ea38f	0.1549208
2	0x3ee79964	0.45234215
3	0x3d1a3807	0.037651088
4	0x3e6930f9	0.22772588
5	0x3e9881e7	0.29786608
6	0x3f257aa0	0.64640236
7	0x3f4331a4	0.7624762
8	0x3beee595	0.007290552
9	0x3eaafe25	0.33397022
10	0x3f3feecd	0.74973756
11	0x3eaabecb	0.33348688
12	0x3f24fc13	0.64447135
13	0x3f3c1109	0.73463494
14	0xbd0a06d0	-0.033697903
15	0xbe51f946	-0.20505247
16	0xbed79afa	-0.42110425
17	0xbc8ff823	-0.017574375
18	0x3e216183	0.15759854
19	0x3eaba3b2	0.33523327
20	0x3e1a4727	0.15066205

gru_dp_bw.bias_hh_l0 f4 [21]
0	0x3f2a369a	0.66489565
1	0x3edba19c	0.42896736
2	0x3d6fb599	0.058522794
3	0x3ebebae4	0.3725196
4	0x3d7dae2f	0.061933693
5	0x3e8f4b08	0.27986932
6	0x3e1ee6e6	0.15517768
7	0x3e59843b	0.21241848
8	0x3f075580	0.5286484
9	0xbd9286a3	-0.07154586
10	0x3ebc0185	0.3671991
11	0x3f139a30	0.57657146
12	0xbd5683de	-0.052371852
13	0x3efc93cf	0.4933152
14	0x3ea93d5b	0.33054623
15	0xbd9199b0	-0.07109392
16	0xbee4fcda	-0.4472416
17	0xbe43b40a	-0.19111648
18	0x3e2c337e	0.16816518
19	0xbe5b5db4	-0.21422464
20	0xbe0973e9	-0.13423122

gru_cp_bw.weight_ih_l0 f4 [18, 6]
0	0xbdf8cdf3	-0.12148657
1	0x3eadbe16	0.33934087
2	0x3eb3b35b	0.35097775
3	0x3ebfa7d1	0.3743272
4	0x3eb863c4	0.36013615
5	0x3e70f010	0.23529077
6	0xbdd9ae73	-0.10628977
7	0xbe1581c9	-0.1460029
8	0xbe0cb6c6	-0.13741598
9	0xbcf4e75c	-0.029895477
10	0xbe935497	-0.28775474
11	0x3e8e103c	0.2774676
12	0xbe8fd11f	-0.28089234
13	0xbda52903	-0.08064463
14	0xbe05c7a4	-0.13064438
15	0x3e067d65	0.13133772
16	0xbe6b61ea	-0.2298657
17	0xbe443051	-0.19159056
18	0xbe9420da	-0.28931314
19	0xbd8f543b	-0.069984876
20	0x3ed03358	0.40664172
21	0x3eb2d03e	0.349245
22	0x3f04063f	0.5157203
23	0xbe41d0f4	-0.18927366
24	0x3df85036	0.12124674
25	0xbd0641cc	-0.032777593
26	0x3ecbb7e3	0.39788732
27	0x3ed62463	0.41824636
28	0xbe8653c7	-0.26235792
29	0x3e6058ef	0.21908925
30	0xbd843c7e	-0.064568505
31	0xbdfd9db1	-0.12383593
32	0x3e966b3e	0.29378694
33	0x3e850c13	0.25985774
34	0x3cf0d6f9	0.029399382
35	0xbe17242f	-0.14759897
36	0x3f267459	0.6502128
37	0xbd93a11d	-0.07208464
38	0xbd06b0b4	-0.03288336
39	0xbe49faa9	-0.19724526
40	0xbead9afe	-0.33907312
41	0xbe68afaf	-0.22723268
42	0xbd3cd4d4	-0.046101406
43	0x3c0cdc82	0.008597495
44	0xbe491c45	-0.1963969
45	0x3e980f02	0.2969895
46	0x3f189c9e	0.5961398
47	0xbd4e86b0	-0.050421417
48	0xbde796f9	-0.113080926
49	0xbe8cd7f6	-0.27508515
50	0x3db0bab5	0.086293615
51	0x3dcad4a5	0.0990384
52	0x3e8f821c	0.28028953
53	0xbd897390	-0.06711495
54	0x3e763a0d	0.24045582
55	0x3ed4b6c0	0.41545677
56	0x3d449a9b	0.047999006
57	0xbe3f928a	-0.18708244
58	0xbe50bfe6	-0.20385703
59	0x3e3d0ca0	0.18461847
60	0x3e79ade6	0.24382743
61	0x3e7eb47a	0.24873534
62	0x3db059a5	0.08610848
63	0x3e5c8199	0.21533813
64	0x3d9c4714	0.076307446
65	0x3ec63059	0.3870876
66	0x3e2dfe1f	0.16991471
67	0x3e8203fe	0.2539367
68	0xbe9d71a4	-0.30750763
69	0xbeaa24a5	-0.33231083
70	0xbebae136	-0.36499947
71	0x3e848cee	0.2588877
72	0xbee3146e	-0.44351524
73	0xbe2d2bd6	-0.16911253
74	0x3d3ccfe8	0.046096712
75	0xbe5509bd	-0.20804496
76	0x3e53c9c2	0.20682433
77	0x3e7deca7	0.24797307
78	0xbdb8c8aa	-0.09022649
79	0xbbf60149	-0.0075074774
80	0x3eb8f7d7	0.36126587
81	0x3ea01dd8	0.3127277
82	0x3dbcbcb4	0.0921568
83	0xbe10c006	-0.14135751
84	0x3d077907	0.033074405
85	0x3daab8bb	0.08336016
86	0x3bfdaa1d	0.0077412263
87	0xbe6485dd	-0.2231669
88	0xbdb5e220	-0.088810205
89	0xbe0b6b6a	-0.13615194
90	0xbd8d3673	-0.06895151
91	0xbed540bf	-0.4165096
92	0x3dbdffed	0.092773296
93	0xbde0e291	-0.10980714
94	0xbc6ee831	-0.014581726
95	0x3efd02a8	0.4941609
96	0x3e0378c5	0.12839039
97	0x3f19ec56	0.60126245
98	0xbea38539	-0.31937578
99	0x3e5293f8	0.20564258
100	0xbe9f6cb9	-0.31137636
101	0xbdbe5d8a	-0.09295185
102	0xbe3ba928	-0.18326247
103	0xbe5b5608	-0.21419537
104	0x3f04a938	0.5182071
105	0xbe608b1b	-0.21928065
106	0x3e70557c	0.2347011
107	0x3d73b218	0.059496015

gru_cp_bw.weight_hh_l0 f4 [18, 6]
0	0x3eaf10ec	0.34192598
1	0x3e18cae7	0.14921151
2	0x3d810598	0.06299895
3	0x3e39d99e	0.1814942
4	0x3d863200	0.065525055
5	0xbd122595	-0.035680372
6	0x3e308bae	0.17240784
7	0xbcb97e77	-0.022643311
8	0xbe5a271a	-0.21303979
9	0x3f15db31	0.58537585
10	0x3e63c987	0.22244845
11	0x3d675b34	0.056483462
12	0x3e4b72fd	0.19868083
13	0x3f115d88	0.5678334
14	0xbd5b505a	-0.053543426
15	0xbd97c192	-0.074099675
16	0xbf0622ed	-0.5239704
17	0xbd73ab0e	-0.059489302
18	0x3f0f065a	0.55869067
19	0x3e79a33b	0.24378674
20	0x3e0cd327	0.13752423
21	0x3e45f7b0	0.19332767
22	0xbe3cc662	-0.18435052
23	0x3e8a147e	0.2696876
24	0xbd6844bc	-0.056706175
25	0x3e071736	0.13192448
26	0xbe9a04a7	-0.30081674
27	0x3e89933c	0.26870143
28	0xbe15d4dd	-0.14631982
29	0x3ebdd936	0.3707978
30	0xbd232738	-0.039832324
31	0x3f158f0c	0.584214
32	0xbee97cae	-0.45602936
33	0xbe999556	-0.29996747
34	0x3e8def96	0.27721852
35	0x3e5fadaf	0.21843599
36	0x3e64e95b	0.22354643
37	0x3cc64dad	0.02420696
38	0xbe6aca0c	-0.22928637
39	0x3e8ebb9d	0.27877513
40	0xbe738935	-0.23782809
41	0xbed3a389	-0.41335705
42	0xbdc1bdd9	-0.09460039
43	0x3e7264d6	0.23671278
44	0x3e74c1c3	0.23902039
45	0xbe7e5faf	-0.24841188
46	0x3e4ac835	0.19802935
47	0xbed9d872	-0.42547947
48	0x3e04e319	0.12977256
49	0xbe1916b5	-0.14950068
50	0x3e6b065a	0.22951642
51	0xbc882c7b	-0.016622772
52	0x3e886f1e	0.26647276
53	0xbe36264a	-0.17788044
54	0xbed17fe1	-0.40917876
55	0xb92507a6	-0.00015738475
56	0xbe82d3a0	-0.25552082
57	0xbe1569d2	-0.14591148
58	0xbe75ecd0	-0.24016118
59	0xbcf206de	-0.02954429
60	0x3e03bd27	0.12865125
61	0x3e8788ba	0.26471502
62	0x3e2942f5	0.16529448
63	0x3e40aa59	0.18814982
64	0xbc9b838a	-0.018983621
65	0x3ebda056	0.3703639
66	0x3db3c5b0	0.0877794
67	0x3e3a2bf8	0.18180835
68	0xbe6b9552	-0.2300618
69	0x3e2e4fff	0.17022704
70	0xbd3c4aa6	-0.045969628
71	0xbe7133ab	-0.23554866
72	0xbc00b16a	-0.007854799
73	0xbdc0b0ce	-0.09408723
74	0xbed95dee	-0.42454475
75	0x3efa5234	0.4889084
76	0xbed68f50	-0.41906214
77	0x3e27ca2a	0.16385713
78	0x3eefb2fc	0.46816242
79	0x3eda98d9	0.42694739
80	0xbe126960	-0.1429801
81	0x3f14701e	0.5798358
82	0xbe8d261b	-0.27568135
83	0x3eef285d	0.46710482
84	0xbe76978e	-0.24081251
85	0xbead85d5	-0.33891168
86	0x3e2450d7	0.16046463
87	0xbf2ffe11	-0.6874705
88	0x3e73e64d	0.23818322
89	0xbee304c1	-0.44339564
90	0x3e97719d	0.29578868
91	0x3ebf0954	0.37311804
92	0xbe42f46e	-0.19038555
93	0x3dc3596e	0.09538542
94	0xbe283c3f	-0.16429232
95	0x3e89bcbe	0.2690181
96	0xbbf0da4f	-0.007350243
97	0xbf1bab00	-0.608078
98	0x3d559974	0.052148297
99	0xbe904ccb	-0.28183588
100	0x3e7f26de	0.2491717
101	0x3e166ca7	0.14689885
102	0x3f04de77	0.51901954
103	0xbe1d1cab	-0.15342967
104	0xbc038c20	-0.008029014
105	0x3f2a8746	0.6661266
106	0xbf0fd86f	-0.56189626
107	0x3e4fb0c5	0.20282276

gru_cp_bw.bias_ih_l0 f4 [18]
0	0x3c4f483e	0.012651501
1	0x3edf964c	0.43669355
2	0x3dce7614	0.10081115
3	0xbd571f85	-0.052520294
4	0x3e5853ac	0.21125668
5	0x3ee7b9c7	0.45258924
6	0x3ca3ed9c	0.020010762
7	0xbdf5dfc7	-0.12005573
8	0x3d8bba1e	0.068226084
9	0x3eb6dc96	0.3571517
10	0xbe7a152c	-0.24422139
11	0xbd0c65cd	-0.034276772
12	0xbe3e2ad7	-0.1857103
13	0x3e4d26ee	0.20034382
14	0x3d8664a9	0.06562168
15	0x3dba7d82	0.0910597
16	0xbea3c3af	-0.31985232
17	0x3d9668f8	0.0734424
