ablation1_min_count/min_count_250/birnn_time_decay_attention/final_model.pt (torch, 47567 bytes, 31 tensors)

embed_dp.weight f4 [707, 7]
0	0x00000000	0.0
1	0x00000000	0.0
2	0x00000000	0.0
3	0x00000000	0.0
4	0x00000000	0.0
5	0x00000000	0.0
6	0x00000000	0.0
7	0x3e7d1278	0.24714077
8	0xbea657f6	-0.32488984
9	0x3ed68276	0.4189641
10	0xbd17a242	-0.037019975
11	0x3f6dc918	0.9288497
12	0x3ec6c418	0.38821483
13	0xbe49471a	-0.1965603
14	0xbf10050a	-0.5625769
15	0x3f16ba1c	0.5887773
16	0x3f30bffa	0.69042933
17	0xbec67d57	-0.38767502
18	0xbf25c58b	-0.6475455
19	0x3f4907f3	0.78527755
20	0xbdc82b3a	-0.0977387
21	0xbe48e4e2	-0.19618562
22	0x3f890979	1.0706016
23	0x3eb2ea95	0.34944597
24	0xbf75dcc5	-0.9603999
25	0xbf172675	-0.59043056
26	0x3e26c77c	0.16287035
27	0x3fb3daf6	1.4051197
28	0x3f55ac1b	0.8346574
29	0xbf12d3de	-0.57354534
30	0xbc0e8822	-0.008699449
31	0xbe9205e4	-0.2852012
32	0xbfa8251e	-1.3136327
33	0xbf9b9990	-1.2156239
34	0xbe80167b	-0.2501715
35	0x3f601e81	0.87546545
36	0xbf48da4c	-0.78458095
37	0xbf7ce29b	-0.9878327
38	0x3f3cd51e	0.7376269
39	0xbf905acf	-1.1277713
40	0x3feada04	1.8347783
41	0x3f52cbdf	0.8234233
42	0x3fb29d86	1.3954322
43	0xbed9e699	-0.42558745
44	0x3f837cd1	1.0272466
45	0xbdcdbed0	-0.1004616
46	0x3c4cad9a	0.012492562
47	0xbea11ee9	-0.31468895
48	0xbe260268	-0.16211855
49	0xbf8f5a69	-1.1199466
50	0xbe271621	-0.16317035
51	0x3d47b13a	0.048753
52	0x3fb96a38	1.448554
53	0xbf4ade7d	-0.7924574
54	0xbe827a54	-0.25483954
55	0xbfeac5e7	-1.8341645
56	0x3e106e92	0.14104679
57	0xbd13b92d	-0.03606527
58	0x3cacf034	0.021110632
59	0xbf37cb99	-0.7179504
60	0x3f8e40f1	1.1113569
61	0xbe9ea31a	-0.30983812
62	0x3f31f51e	0.69514644
63	0x3de0296f	0.10945403
64	0xbe0a39fe	-0.13498685
65	0xbfc8543e	-1.5650709
66	0x3eb44d7b	0.35215363
67	0x3fcbdd7c	1.5926967
68	0xc01c7acd	-2.4449952
69	0x401cd4a3	2.4504783
70	0x3f8906b7	1.0705174
71	0x3d8bf763	0.06834295
72	0x3f6d21d3	0.92629737
73	0x3fbf57fd	1.4948727
74	0x3fac7420	1.3472939
75	0x3f531a1b	0.8246171
76	0x3f049dfe	0.51803577
77	0xbd1f831b	-0.03894339
78	0x3f767082	0.96265423
79	0xbed2a61a	-0.4114235
80	0x3fc8a2b9	1.5674659
81	0xbc99617e	-0.018723246
82	0x3fc7e42f	1.5616511
83	0xbfa8deb6	-1.3192966
84	0x3f4de86b	0.80432767
85	0x3ff84cd8	1.9398451
86	0x400cb047	2.198259
87	0xbf85eadf	-1.0462302
88	0x3e4f0e8c	0.20220393
89	0xbf27ab64	-0.65495896
90	0x3f22ee6a	0.6364504
91	0xbf7bb773	-0.98326796
92	0xbef402d0	-0.47658396
93	0xbf08342a	-0.53204596
94	0x3e990a31	0.29890588
95	0xbf906aa6	-1.1282547
96	0xbee58563	-0.44828328
97	0xbf709044	-0.9397013
98	0xbfa75ce6	-1.3075225
99	0xbe741261	-0.23835136
100	0x3ea2de1a	0.31810075
101	0xbfd0b2fe	-1.6304624
102	0x3e570f00	0.21001816
103	0x3df17b85	0.117911376
104	0xbec745ab	-0.3892034
105	0x3fa05547	1.2526025
106	0xbe28bd83	-0.16478543
107	0xbeead850	-0.45868158
108	0x3d58d690	0.052938998
109	0x3f845b95	1.0340449
110	0x3fc1ffce	1.515619
111	0x3ed54ff9	0.41662577
112	0x3fd42879	1.6574851
113	0xbf8a0598	-1.0782957
114	0xbeccb663	-0.399829
115	0xbe12ee08	-0.14348614
116	0xbe799246	-0.24372205
117	0x3f3ced46	0.7379955
118	0xbdf2243a	-0.11823316
119	0xbd0e6b17	-0.034770098
120	0x3e059669	0.13045658
121	0xbf225235	-0.6340669
122	0xbfec7701	-1.8473817
123	0xc0163399	-2.3468993
124	0x3fe460e0	1.7842064
125	0x3ec9130e	0.3927235
126	0xc013d707	-2.3099992
127	0x3f0d3525	0.5515922
128	0xbd0f56e4	-0.034994975
129	0x3e54c9a6	0.20780048
130	0x3f0f4009	0.55957085
131	0x3f8ebd20	1.1151466
132	0x3f36588c	0.7122886
133	0xbf17c538	-0.59285307
134	0x3fbdb835	1.482184
135	0x3f2ee5fd	0.68319684
136	0xc0021b75	-2.0329258
137	0xbf13a5fb	-0.5767514
138	0xbf07098a	-0.5274893
139	0x3f89e804	1.077393
140	0x3f7d0017	0.9882826
141	0xc0276b76	-2.615934
142	0x3f79140d	0.9729622
143	0x3e50b2bc	0.20380682
144	0xbe87b9ae	-0.2650885
145	0x3ee275ac	0.44230402
146	0x3e23f672	0.1601198
147	0xbfbe2dd3	-1.4857734
148	0xbeee0c13	-0.46493587
149	0xbffb2685	-1.962113
150	0xc0142717	-2.3148859
151	0xbe13b25e	-0.1442351
152	0x3e585d5b	0.21129362
153	0x3f1992e2	0.5998975
154	0x3e9deff8	0.30847144
155	0xbf36530b	-0.71220464
156	0xbf48a3e2	-0.78375065
157	0x3deacad5	0.114644684
158	0xbe2a1390	-0.16609025
159	0x40090732	2.1410642
160	0x3e8f294e	0.279612
161	0x3eacd06f	0.33752772
162	0x3e180f42	0.1484957
163	0x402ffe90	2.7499123
164	0xbfc29ab1	-1.5203458
165	0xbf55d2fc	-0.8352506
166	0x3e4aa7c8	0.19790566
167	0x3f6d74db	0.9275643
168	0xbf98fd52	-1.1952307
169	0x3f38fda1	0.72262007
170	0xbfc6d874	-1.5534806
171	0x3e6916aa	0.22762552
172	0x3e780bfd	0.24223323
173	0xbf8e47da	-1.1115677
174	0xbfa889e9	-1.3167087
175	0x3faf19b9	1.3679725
176	0xbf556450	-0.8335619
177	0xbf099ac5	-0.53751785
178	0x3e6370f3	0.22211055
179	0xbfdcd977	-1.7253865
180	0xbfa09f02	-1.2548525
181	0xbfaf27c4	-1.368401
182	0x3efba333	0.4914795
183	0xbfa00975	-1.2502886
184	0xbbe74523	-0.0070578023
185	0x3e92d7b4	0.28680193
186	0x3fb32c75	1.3997942
187	0x3e2fd401	0.17170717
188	0xbeed4880	-0.46344376
189	0x3fc7c618	1.5607328
190	0xbfe9bb3d	-1.8260266
191	0xbfa74792	-1.3068717
192	0xbea56478	-0.32303214
193	0x3f3f06b4	0.74619603
194	0x3fe0b95e	1.755657
195	0xc02a28ec	-2.6587477
196	0xbeae7255	-0.34071603
197	0x3f7f014c	0.99611354
198	0x3e91f808	0.28509545
199	0xbd17ccd4	-0.037060574
200	0xbd0702da	-0.032961704
201	0x3dcbc4c6	0.09949641
202	0xbe98db4f	-0.2985482
203	0x3d4e303e	0.050338976
204	0x3e6546ef	0.2239034
205	0xbe868278	-0.26271415
206	0x3eea7bfa	0.45797712
207	0x3eaacdae	0.33360046
208	0xbe024566	-0.12721786
209	0x3f5970b7	0.84937614
210	0x3f3290e4	0.69752336
211	0xbea79c81	-0.3273659
212	0xbf195dab	-0.5990855
213	0xbfd7dfb1	-1.686514
214	0xbe1b055c	-0.15138763
215	0xbf9228d4	-1.141871
216	0xbded984b	-0.11601313
217	0x3ff9d18b	1.9517072
218	0xbf22eb0c	-0.63639903
219	0x3fc6cd59	1.5531417
220	0xbd48c90e	-0.049019866
221	0x3f13f1b1	0.57790667
222	0x3e758975	0.23978217
223	0x3ec7d8db	0.39032635
224	0x3fd12aa3	1.6341137
225	0x3f42346b	0.75861233
226	0x3e7a4e2a	0.2444388
227	0x3f536452	0.8257495
228	0x3e8030d8	0.25037265
229	0x3fe78217	1.8086575
230	0xbf14b816	-0.5809339
231	0xbed1f608	-0.4100802
232	0x400e8d33	2.227368
233	0x3f7dd5f5	0.991546
234	0x3e860e05	0.2618257
235	0xc0148b6c	-2.3210096
236	0xbc14c40f	-0.009079947
237	0x3ebcdbb7	0.3688638
238	0x3f1f3034	0.6218293
239	0x3f6863f3	0.9077751
240	0x3e130f24	0.14361244
241	0x3e86f293	0.26356944
242	0xbf4807b7	-0.7813677
243	0xbe945572	-0.2897144
244	0x3f58851f	0.84578127
245	0xbf143bf3	-0.57903975
246	0x3f058d7d	0.5216902
247	0x3f7a3deb	0.9775073
248	0xbfbd9ea2	-1.4814036
249	0x3c3e3344	0.011608902
250	0xbf1295ac	-0.5725963
251	0xbf0614a1	-0.5237523
252	0x3f2d68df	0.67738146
253	0xbd932fe6	-0.0718687
254	0xbf867aff	-1.0506285
255	0x3f275421	0.65362746

embed_cp.weight f4 [457, 6]
0	0x00000000	0.0
1	0x00000000	0.0
2	0x00000000	0.0
3	0x00000000	0.0
4	0x00000000	0.0
5	0x00000000	0.0
6	0xbf6246c3	-0.88389224
7	0xbe3af8f4	-0.1825903
8	0x3f5c604b	0.8608443
9	0x3eb36103	0.35034952
10	0x400e2b9f	2.2214124
11	0x3d8811b1	0.06643999
12	0x3fcd2ee8	1.602994
13	0xbe9ef7ca	-0.31048423
14	0x3e1814ca	0.1485168
15	0xbefc357d	-0.49259558
16	0x3ee93143	0.45545396
17	0x3ece4afc	0.40291584
18	0x3e9473b7	0.28994533
19	0x3fbcfd22	1.476475
20	0x3f50caf3	0.81559676
21	0x3efd7c80	0.49509048
22	0x3e77410c	0.24145907
23	0xbf634559	-0.8877769
24	0x3eee7e88	0.4658091
25	0xbee0abd7	-0.43881103
26	0xbed2eaca	-0.41194755
27	0xbea92d41	-0.33042338
28	0x3d672c42	0.056438692
29	0xbe42aa29	-0.19010223
30	0xbf590bb0	-0.8478346
31	0x3e03eba2	0.12882856
32	0xbf18ef3d	-0.5974005
33	0xbf4edd01	-0.80805975
34	0xbfbb1778	-1.4616537
35	0xbf266245	-0.649937
36	0x3f4e5823	0.80603236
37	0xbf7270da	-0.9470345
38	0x3f84f734	1.038794
39	0x3f889e64	1.0673337
40	0xbe2ac0d6	-0.16675124
41	0x3f75ef21	0.96068007
42	0x3f022864	0.5084288
43	0xbf7ca4f8	-0.9868922
44	0x3ef571ca	0.47938377
45	0x3fe9e462	1.8272822
46	0x3f95dccd	1.1708008
47	0xbf4a0eca	-0.78928816
48	0x3fa7c06f	1.3105601
49	0x3f8e27ab	1.1105856
50	0x3dd77425	0.105202
51	0x4001f0b1	2.0303156
52	0xbfb93837	-1.447028
53	0x3ea20419	0.3164375
54	0x3f4e8970	0.80678463
55	0x3ee5b213	0.44862422
56	0xbf062972	-0.5240699
57	0x3f5b260a	0.8560492
58	0xbf4389c7	-0.76382107
59	0xbf001326	-0.5002922
60	0xbf8236ec	-1.0173011
61	0x3d5fe591	0.05466229
62	0x3f19bf5e	0.6005763
63	0x3ef74b2c	0.4829954
64	0xbd4d13c7	-0.05006769
65	0xbd566f90	-0.052352488
66	0xbfe9baf2	-1.8260176
67	0xbf426f25	-0.75950843
68	0xbe8f2b8e	-0.27962917
69	0x3f513494	0.8172085
70	0xbefcc7a5	-0.49371067
71	0x3f6fc7be	0.9366416
72	0xbdf50d5d	-0.119654395
73	0x3eff6142	0.4987889
74	0x3f0e77a3	0.556513
75	0xbde7b613	-0.11314025
76	0xbe39b133	-0.18134002
77	0x3e259733	0.16170959
78	0xbfb325c8	-1.3995905
79	0x3eaac8b2	0.33356243
80	0xbd1d4d27	-0.038403656
81	0x3e70b6c8	0.23507226
82	0xbf873823	-1.0564007
83	0xbfcc6c64	-1.5970578
84	0xbfad1acd	-1.3523804
85	0xbf71be40	-0.94430923
86	0xbe49f4cf	-0.19722293
87	0xbf5d95e4	-0.8655684
88	0xbf2af9a3	-0.66787165
89	0x3e08dcc5	0.13365467
90	0xbf25e25e	-0.64798534
91	0x4017612c	2.365306
92	0x3f71cb04	0.944504
93	0x3e2928c3	0.16519456
94	0x3f8188bd	1.0119854
95	0x3ee21ca2	0.4416247
96	0xbe655159	-0.22394313
97	0x3fd2a18f	1.6455554
98	0x3e41de1d	0.18932386
99	0x3d1f62ed	0.038912702
100	0xbff8a3df	-1.942501
101	0x3fe95558	1.822917
102	0xbe28ce6d	-0.16484995
103	0x3fea4b37	1.8304204
104	0x3dfc7113	0.12326255
105	0xbf51c260	-0.8193722
106	0x3f27c377	0.6553263
107	0x3f646ecd	0.8923157
108	0xbfde772c	-1.7380118
109	0x3de35c2f	0.11101567
110	0x3e200aa2	0.15629056
111	0xbfd6576c	-1.6745429
112	0xbf1b2835	-0.60608226
113	0x3f741cfb	0.9535672
114	0xbf8e894c	-1.113565
115	0xbff58ea2	-1.9184153
116	0x3bafeaeb	0.0053685806
117	0xbf109d7b	-0.56490296
118	0x3e0b5973	0.13608341
119	0x3fca6dbf	1.5814742
120	0x3f724160	0.94631004
121	0x3f126aa0	0.57193947
122	0x40001609	2.001345
123	0xbf01a750	-0.50645924
124	0xbfbbac7e	-1.4662015
125	0x3f0b100a	0.5432135
126	0xbfa5dafd	-1.2957455
127	0x3f24c139	0.64357334
128	0x3f720e7d	0.9455336
129	0xbf9445e0	-1.1583824
130	0xbf81154f	-1.0084628
131	0x3d306419	0.04306421
132	0xbff60345	-1.9219748
133	0xbd83e849	-0.06440789
134	0x3f090d5f	0.5353603
135	0xbed61641	-0.41813853
136	0x3fdd09c1	1.7268602
137	0xbefc0f38	-0.4923036
138	0xbf739c18	-0.95160055
139	0x3f44e0b7	0.7690539
140	0xbe59edd2	-0.21282127
141	0x400ea4d7	2.228811
142	0xbee15db3	-0.440168
143	0xbe4f98b5	-0.20273097
144	0x3fde2335	1.7354494
145	0x3ee587ab	0.4483007
146	0xbe8b270d	-0.2717823
147	0x400c04f5	2.1878026
148	0xbfb2ca81	-1.3968049
149	0xbfb773d8	-1.4332228
150	0x3f908ecd	1.1293579
151	0x3ea4c413	0.32180843
152	0xbe55d20f	-0.20880912
153	0x3f277431	0.6541167
154	0xbde0ee24	-0.10982922
155	0xbf8d26b0	-1.1027431
156	0xc0244d83	-2.567231
157	0xbf7b1ff7	-0.9809565
158	0x3e144187	0.14478122
159	0xbffac6ca	-1.9591916
160	0xbfd7d68d	-1.6862351
161	0x3db13c62	0.08654095
162	0xbf28a991	-0.6588374
163	0x3e4bd9af	0.19907258
164	0x3e5468fd	0.20743175
165	0x3f5c443f	0.86041635
166	0xbfd91d15	-1.6962
167	0xbed818a1	-0.4220629
168	0xbe8a8de2	-0.27061373
169	0x40435eb8	3.0526562
170	0xbf8104fe	-1.0079648
171	0x3f856cbc	1.0423808
172	0x3f083269	0.5320192
173	0xbfd9d05d	-1.7016712
174	0xbedba955	-0.42902628
175	0x3f046fe0	0.5173321
176	0xbf725e6c	-0.94675326
177	0x3fce5638	1.6120062
178	0xbe91acc6	-0.28452128
179	0x400b0693	2.1722763
180	0x3ed51c81	0.4162331
181	0x3f088681	0.53330237
182	0x3f3d899e	0.7403811
183	0xbeab627a	-0.3347357
184	0xbed73b67	-0.42037508
185	0xbdb04854	-0.086075455
186	0xbebcdf2c	-0.36889017
187	0x3e988c66	0.29794616
188	0xbfc10440	-1.5079422
189	0xbf19fd41	-0.6015206
190	0xbfb85752	-1.4401648
191	0x3e8fc045	0.28076378
192	0xbe8884b7	-0.26663753
193	0x3f6f87e2	0.93566716
194	0xbf84625c	-1.0342517
195	0x3f21a8f7	0.63148445
196	0x3f3b70b1	0.7321883
197	0xbff7825b	-1.9336656
198	0x3ec7c6df	0.39018914
199	0xbfa72ea4	-1.3061109
200	0xbf918da7	-1.1371354
201	0x3eb9f57e	0.36320108
202	0x3f6ca316	0.9243635
203	0xbf89ffba	-1.0781167
204	0x3f08e6c4	0.5347712
205	0xbed78b1d	-0.42098323
206	0x3f2739ba	0.6532246
207	0x3ec9953d	0.39371672
208	0xbfa95f4d	-1.3232208
209	0xc000ca5b	-2.0123508
210	0xbe58bb7e	-0.21165273
211	0xbf1d8871	-0.6153632
212	0x3ea4a386	0.32156008
213	0xbcfcd397	-0.030862613
214	0x3e863652	0.26213318
215	0xbea80329	-0.3281491
216	0xbfde7b6f	-1.7381419
217	0x3fa4cf5f	1.2875785
218	0x40062b47	2.0963914
219	0xbf8a110e	-1.0786455
220	0xbfe5f5b9	-1.7965614
221	0x3d815cc4	0.06316522
222	0xbf38e08c	-0.7221763
223	0x3e475cdb	0.19469015
224	0xbf8fba54	-1.1228738
225	0x3cc1835a	0.023622204
226	0xbf2981ad	-0.66213495
227	0xbdcff2e2	-0.10153748
228	0x3f935cea	1.151273
229	0xbeb24dde	-0.34825033
230	0xbf1fd2db	-0.62431115
231	0x3f8a379d	1.0798222
232	0x3f9d7f47	1.2304467
233	0xbebb0810	-0.3652959
234	0x3f8278ac	1.0193076
235	0x3f1bae72	0.6081306
236	0x3f5f8ce7	0.87324375
237	0x3f8afdb1	1.085867
238	0xbf069e6e	-0.52585495
239	0x3e290706	0.16506585
240	0xbf8b57aa	-1.0886128
241	0x3f035cdf	0.51313585
242	0x3d509ff2	0.050933786
243	0x3faed89f	1.3659858
244	0xbf8ac3b4	-1.0840974
245	0x4011f038	2.2802868
246	0xbdd0efb9	-0.102019735
247	0xbf326e9f	-0.69700044
248	0xbfcc7b3c	-1.5975108
249	0xbe501579	-0.20320691
250	0x3f833253	1.0249733
251	0xbfa096f8	-1.2546072
252	0xbdeedcc6	-0.11663203
253	0xbf5d58ee	-0.8646382
254	0x400316c5	2.0482647
255	0x4014e43c	2.3264303

gru_dp_fw.decays f4 [7]
0	0x7dd67be0	3.5637248e+37
1	0xbbb2d4be	-0.0054574898
2	0x7dd67be0	3.5637248e+37
3	0xbbbe7859	-0.0058126864
4	0xbb832574	-0.0040022675
5	0xbbc05f15	-0.0058707097
6	0xbbc3b0fc	-0.005972026

gru_dp_fw.gru_cell.weight_ih f4 [21, 7]
0	0xbe825df1	-0.25462297
1	0x3d2a0a74	0.041513875
2	0x3e4033ec	0.18769807
3	0x3e411e1e	0.18859145
4	0x3ed91faf	0.42406985
5	0x3dbc1e71	0.09185494
6	0x3de17fea	0.11010726
7	0x3db254b9	0.08707566
8	0xbe287802	-0.1645203
9	0x3e34f767	0.17672502
10	0x3d72ab8b	0.059245627
11	0xbe2ce29a	-0.16883317
12	0x3da69ad6	0.08135001
13	0xbebdbe7e	-0.37059397
14	0x3b9f8b7a	0.004868922
15	0xbed39424	-0.4132396
16	0xbe3f50ec	-0.18683213
17	0x3ec3f95a	0.38276178
18	0x3d8cee4c	0.06881389
19	0x3eaf469e	0.34233564
20	0xbc84ecd0	-0.016226202
21	0xbe5ef2e8	-0.21772349
22	0x3c4bbe62	0.0124355275
23	0xbca3876f	-0.01996204
24	0x3dd3c1f0	0.10339725
25	0x3e6f875c	0.23391479
26	0x3ed086ff	0.40727994
27	0xbe5ed46b	-0.21760719
28	0x3eb8628a	0.3601268
29	0x3d0dae87	0.03459027
30	0xbe3cb7aa	-0.18429437
31	0xbcfbd219	-0.03073983
32	0x3ca89c8a	0.020582456
33	0xbec2cc5f	-0.38046548
34	0xbf39f389	-0.7263723
35	0x3d496bd7	0.04917511
36	0x3e7c1a4f	0.24619411
37	0xbe93eb79	-0.2889059
38	0x3d80b766	0.062849805
39	0x3dad47aa	0.084609345
40	0xbe5ab7b2	-0.21359137
41	0x3da0949a	0.078408435
42	0xbe2ede69	-0.1707703
43	0x3e92fc10	0.28707933
44	0x3dfbe8ef	0.12300288
45	0x3ee66816	0.45001286
46	0xbde0fa27	-0.10985213
47	0xbe07cfdf	-0.1326289
48	0x3d82ec01	0.063926704
49	0x3e5a0ac1	0.21293165
50	0xbeab7b51	-0.3349252
51	0x3e70ba02	0.23508456
52	0xbb17a8a5	-0.0023141291
53	0x3dcb5c2d	0.099296905
54	0xbed2c5dc	-0.4116658
55	0x3df22f7a	0.11825462
56	0xbdc842db	-0.09778377
57	0xbe497d0c	-0.19676608
58	0xbe72adc0	-0.23699093
59	0xbedc0968	-0.42975926
60	0x3e9ebb6e	0.31002373
61	0xbda5ca89	-0.08095271
62	0xbd3e7464	-0.046497717
63	0xbeafa4fc	-0.3430556
64	0xbdf8ebab	-0.12154325
65	0x3ebb8b91	0.36629918
66	0x3c41bf8f	0.011825456
67	0x3e00ea2e	0.12589332
68	0x3e9a66f3	0.3015667
69	0x3de5d80c	0.11222848
70	0x3e13f485	0.14448746
71	0x3cceff98	0.025268361
72	0xbe4d94f0	-0.20076346
73	0x3dd99816	0.10624711
74	0xbec86f67	-0.39147493
75	0x3cfb154e	0.030649807
76	0xbef88a37	-0.4854295
77	0xbe1bfa51	-0.15232207
78	0xbdf4b74a	-0.11949022
79	0xbd441f39	-0.04788134
80	0xbe888a80	-0.26668167
81	0x3ee46fec	0.4461664
82	0x3e42c986	0.19022188
83	0x3eb7ee77	0.35924122
84	0xbdd104b3	-0.102059744
85	0xbd1d6d22	-0.038434155
86	0x3dee6bb3	0.11641636
87	0x3e83efba	0.25768834
88	0xbe81af8c	-0.25329244
89	0x3ec04a64	0.37556756
90	0xbe5467f6	-0.20742783
91	0xbe7cf19b	-0.2470154
92	0xbe8f7dcd	-0.28025666
93	0xbe175e9e	-0.14782187
94	0xbeb73b90	-0.3578763
95	0xbe04a28c	-0.12952632
96	0x3e493e62	0.19652703
97	0x3d34951e	0.04408752
98	0x3e63fca1	0.22264339
99	0x3e817a1f	0.25288484
100	0x3d9e4d8e	0.07729636
101	0x3dc91c5f	0.098198645
102	0xbe6d3124	-0.23163277
103	0x3f068dc2	0.52560055
104	0xbe785bec	-0.24253815
105	0xbb172263	-0.0023061268
106	0x3e8a3d1e	0.26999754
107	0xbd9e6d89	-0.07735736
108	0xbd227a6c	-0.03966753
109	0xbb0be2f9	-0.0021345003
110	0x3d9ba7f8	0.07600397
111	0x3e9db653	0.30803165
112	0x3ec94461	0.3930998
113	0x3ece2640	0.40263557
114	0xbda76b0c	-0.081747144
115	0x3ec0de81	0.37669757
116	0xbe85000f	-0.25976607
117	0xbe58154d	-0.21101876
118	0xbd397c77	-0.045284715
119	0x3d1b86dc	0.03797041
120	0xbcf513e0	-0.029916704
121	0xbd7ded0f	-0.061993655
122	0x3c070ee3	0.008243295
123	0xbdf3f4e6	-0.11911945
124	0xbe6bd47b	-0.23030274
125	0x3ebd93b0	0.3702674
126	0xbdd7c41a	-0.1053545
127	0xbe1a77fa	-0.1508483
128	0x3e35644b	0.1771404
129	0x3e92b9c8	0.28657365
130	0xbeca5174	-0.3951527
131	0xbe9b575f	-0.30340096
132	0xbcdf0263	-0.027222818
133	0xbead7ca1	-0.33884147
134	0xbdd98d97	-0.10622709
135	0x3e887b24	0.2665645
136	0x3d0a88eb	0.03382198
137	0xbeabaed1	-0.33531812
138	0xbd735f64	-0.059417143
139	0xbe7b47ae	-0.24539062
140	0xbe3a560c	-0.18196887
141	0xbdcb4208	-0.09924704
142	0x3c84ff27	0.016234947
143	0x3e61cc4d	0.22050591
144	0x3d00a85b	0.031410556
145	0xbe6626d4	-0.22475749
146	0x3deb6b7c	0.114951104

gru_dp_fw.gru_cell.weight_hh f4 [21, 7]
0	0x3e9d0800	0.30670166
1	0xbe312160	-0.17297888
2	0xbde41da1	-0.11138464
3	0x3d9bd9cd	0.076099016
4	0xbecc9a26	-0.39961356
5	0x3eeaa2d2	0.45827347
6	0x3da07339	0.07834477
7	0x3f3f8b55	0.7482198
8	0x3d7303bb	0.05932973
9	0xbe07ef58	-0.13274896
10	0x3ca6f3fd	0.020380015
11	0x3d59e5e1	0.053197745
12	0x3e9b2804	0.30303967
13	0xbe3a8c7a	-0.1821765
14	0x3e169f83	0.14709286
15	0x3ebd50b4	0.36975634
16	0x3f099353	0.53740424
17	0x3c3c1184	0.011478785
18	0x3e96d728	0.29461026
19	0xbeb3aa14	-0.35090697
20	0xbe8b5de5	-0.27220073
21	0xbe1d7f78	-0.15380657
22	0xbee2aa3a	-0.44270498
23	0x3e9cb048	0.30603242
24	0x3e066062	0.13122705
25	0x3dab83f7	0.0837478
26	0x3cf23a43	0.029568797
27	0xbed1149f	-0.40836045
28	0xbe00f821	-0.12594654
29	0x3ec62cf4	0.38706172
30	0x3d18c245	0.037294645
31	0xbd89d5e7	-0.06730252
32	0x3ee1455a	0.43998224
33	0x3db8d809	0.090255804
34	0xbe9cdaae	-0.3063559
35	0x3cffd343	0.031228667
36	0x3e646b8d	0.22306652
37	0xbe1aaef9	-0.1510581
38	0xbcbbbb03	-0.022916323
39	0xbedc67a6	-0.43047827
40	0xbd42cbdb	-0.047557693
41	0x3efa912e	0.48938888
42	0x3f56b77f	0.8387374
43	0x3e922ed0	0.2855134
44	0x3e64022c	0.22266454
45	0xbe3fb0f0	-0.1871984
46	0x3e272ec2	0.1632643
47	0xbe6d025e	-0.23145434
48	0xbf067240	-0.5251808
49	0x3eb7f5eb	0.35929808
50	0x3ec9aa5b	0.39387783
51	0xbbb4c165	-0.0055162185
52	0xbeb6d704	-0.3571092
53	0x3e68afec	0.22723359
54	0xbe802e70	-0.2503543
55	0xbe22c4e7	-0.15895425
56	0xbd4ae51b	-0.0495349
57	0x3efcdeb1	0.4938865
58	0xbc8e1e4b	-0.01734843
59	0x3edbf0e9	0.42957237
60	0x3d1f2eba	0.03886292
61	0xbee15409	-0.44009426
62	0x3ac0197c	0.0014656032
63	0x3ed4eec2	0.41588408
64	0x3e9e9b47	0.30977842
65	0x3e5c381f	0.21505783
66	0x3ea36899	0.3191574
67	0x3e485aad	0.1956584
68	0xbea0131d	-0.31264582
69	0xbe997e7e	-0.29979318
70	0x3d460972	0.04834885
71	0x3d490f58	0.0490869
72	0xbe1c2c17	-0.15251194
73	0x3e4cbb15	0.19993241
74	0xbe0fe6f8	-0.14052951
75	0xbe3420ec	-0.17590684
76	0x3f2f3f65	0.6845611
77	0xbe411650	-0.18856168
78	0xbe4553b8	-0.19270217
79	0x3df658f7	0.120286874
80	0xbe9b7514	-0.3036276
81	0x3e32c97f	0.17459677
82	0xbee83082	-0.4534951
83	0xbd4c0b31	-0.04981536
84	0xbe72dbb7	-0.23716627
85	0x3e557258	0.208444
86	0x3e5bc159	0.21460475
87	0x3e32e10b	0.1746866
88	0x3e8f20fe	0.2795486
89	0x3e794b57	0.24345146
90	0x3efd9f79	0.4953573
91	0x3de5c8e3	0.11219957
92	0xbe8e1b12	-0.27755028
93	0x3dd1ca75	0.10243694
94	0x3dfaa24d	0.12237988
95	0xbeac1701	-0.336113
96	0xbed7853e	-0.42093843
97	0xbe986762	-0.29766375
98	0x3f0054f0	0.50129604
99	0x3de59d0b	0.11211594
100	0x3d213067	0.0393528
101	0x3e11d1eb	0.14240234
102	0xbe0e2f50	-0.13885236
103	0x3e836828	0.25665402
104	0xbef15905	-0.4713823
105	0x3f030c3d	0.5119055
106	0x3e9337fc	0.2875365
107	0x3e695da6	0.2278963
108	0x3e2962b3	0.16541557
109	0xbe9b17ca	-0.30291587
110	0x3ecd45f9	0.40092447
111	0xbf7d5af4	-0.9896691
112	0xbca149fd	-0.0196886
113	0x3f1d3201	0.61404425
114	0x3eaf81ac	0.3427862
115	0x3e2ef30d	0.17084904
116	0xbe68dcf8	-0.22740543
117	0xbe689c33	-0.22715835
118	0xbe8f9844	-0.28045857
119	0xbe184a29	-0.1487204
120	0x3de04038	0.10949749
121	0xbe2529e0	-0.16129255
122	0xbe2c2b9a	-0.16813508
123	0x3f0ad0d4	0.54224896
124	0x3ed260f2	0.41089588
125	0x3e28c237	0.16480337
126	0xbe027ae5	-0.12742193
127	0xbecf34a1	-0.4046984
128	0xbe345091	-0.17608859
129	0xbf036889	-0.51331383
130	0xbe525c7b	-0.20543091
131	0x3e357e6e	0.1772401
132	0x3f26a58c	0.65096354
133	0x3ee25121	0.4420252
134	0x3d2f235b	0.042758327
135	0x3e805039	0.25061205
136	0xbbcabee8	-0.0061873086
137	0xbea604f4	-0.32425654
138	0x3d64f912	0.055901594
139	0xbd288a70	-0.04114765
140	0xbf243339	-0.6414066
141	0xbef1bab5	-0.4721276
142	0x3e266aea	0.16251722
143	0xbdf68956	-0.120379135
144	0xbeb7cdc9	-0.3589919
145	0xbdf34765	-0.11878852
146	0x3f45c645	0.7725566

gru_dp_fw.gru_cell.bias_ih f4 [21]
0	0x3e29418e	0.16528913
1	0x3e496836	0.1966866
2	0xbe881051	-0.26574948
3	0x3f0fb175	0.5613015
4	0x3df9c610	0.121959805
5	0xbe820abb	-0.25398812
6	0xbd97ecc5	-0.07418207
7	0x3dca2ca0	0.09871793
8	0xbe4de00d	-0.20105
9	0xbe79c7fe	-0.24392697
10	0xbea80d51	-0.3282266
11	0xbea8df31	-0.32982782
12	0x3eb6e327	0.35720178
13	0x3f331957	0.6996054
14	0x3ed1991d	0.4093713
15	0xbd842c79	-0.06453795
16	0xbe299011	-0.16558863
17	0x3da67bfe	0.081291184
18	0xbd91103a	-0.07083173
19	0x3e973b7b	0.29537567
20	0xbeae09fa	-0.33991987

gru_dp_fw.gru_cell.bias_hh f4 [21]
0	0x3f08236a	0.5317904
1	0x3f217a7e	0.63077533
2	0x3e5effd6	0.21777281
3	0xbc92ff14	-0.017943896
4	0x3e88ac98	0.2669418
5	0xbe8abe52	-0.27098328
6	0x3e29e2fb	0.16590492
7	0x3efee14e	0.4978127
8	0xbee67177	-0.45008442
9	0x3d76c69f	0.060248014
10	0xbc6209d8	-0.013796292
11	0xbec04ebb	-0.37560067
12	0xbc7bcda4	-0.015368853
13	0x3f4df452	0.8045093
14	0xbd807d7e	-0.06273936
15	0xbe3dc604	-0.18532568
16	0x3e91d61c	0.28483665
17	0x3e131e42	0.14367011
18	0x3ec48563	0.38383016
19	0xbe541a8b	-0.2071325
20	0xbe8e4b46	-0.27791804

gru_cp_fw.decays f4 [6]
0	0x7dd67d00	3.5637979e+37
1	0xbbeb5551	-0.0071818014
2	0xbbbd5375	-0.005777771
3	0xbbc19813	-0.0059080212
4	0xbc50fa71	-0.012755022
5	0xbbc19bfb	-0.005908487

gru_cp_fw.gru_cell.weight_ih f4 [18, 6]
0	0xbc9e4e85	-0.01932455
1	0x3dd91b53	0.10600915
2	0xbe688699	-0.22707595
3	0xbf0bec2a	-0.5465723
4	0xbed0142b	-0.40640387
5	0xbe7f48dc	-0.24930137
6	0x3eb18eee	0.3467936
7	0x3e68f5ba	0.22749987
8	0xbe14523d	-0.14484496
9	0x3d740c15	0.059581835
10	0xbe2fed4f	-0.1718037
11	0x3c6f1394	0.01459207
12	0x3cdd967c	0.027049296
13	0xbcaa7fea	-0.020812947
14	0x3eca5dcc	0.39524686
15	0x3e7452db	0.23859732
16	0x3eecc274	0.46242106
17	0xbc909293	-0.017648017
18	0x3dc23103	0.094820045
19	0x3e01d9b3	0.12680702
20	0x3c679a4d	0.014135909
21	0xbec35c3a	-0.381563
22	0x3e8b9c4e	0.2726769
23	0xbedf73e0	-0.43643093
24	0xbdc6bd61	-0.0970409
25	0x3e015ed6	0.12633833
26	0x3e747aba	0.23874941
27	0x3e411f99	0.1885971
28	0xbe01067f	-0.12600134
29	0x3e658f97	0.22418056
30	0x3e2fc504	0.17164999
31	0x3ea3e746	0.32012385
32	0x3ea77a48	0.3271048
33	0xbcaa4409	-0.020784395
34	0x3c165795	0.009176155
35	0x3d9dc6ce	0.077039346
36	0x3e8aac28	0.2708447
37	0x3cbd1afa	0.023084152
38	0x3d16b9b8	0.03679821
39	0xbe5448ca	-0.20730892
40	0xbe319333	-0.17341308
41	0x3dc3a064	0.095520765
42	0xbe2c987f	-0.16855048
43	0xbe04a71c	-0.12954372
44	0xbea4d61b	-0.321946
45	0x3c5e85cc	0.013581704
46	0xbdd2f6b3	-0.103009604
47	0xbddf3921	-0.10899568
48	0x3ea7560a	0.3268283
49	0xbecffb9e	-0.40621656
50	0xbdd38998	-0.10328978
51	0x3dd697a2	0.104781404
52	0xbe58aff8	-0.21160877
53	0x3e6aed57	0.229421
54	0x3e2a4460	0.16627645
55	0xbec87bc6	-0.39156932
56	0x3e94b92a	0.2904752
57	0x3e8e7d5f	0.27830026
58	0xbed2925b	-0.41127285
59	0x3edb21fe	0.4279937
60	0xbda488ff	-0.080339424
61	0xbe1ca814	-0.15298492
62	0xbe21b856	-0.15792975
63	0x3cf3efff	0.029777525
64	0x3e1f8888	0.15579426
65	0xbe1c6c18	-0.1527561
66	0xbc5c8b67	-0.0134609705
67	0x3ede3202	0.43397528
68	0xbeb140b6	-0.34619683
69	0xbd0dc2fb	-0.034609776
70	0x3ed3b39d	0.41347972
71	0x3e26c84b	0.16287343
72	0xbdcba6f1	-0.09943951
73	0x3ee15b82	0.44015127
74	0xbe25e5b6	-0.16200909
75	0xbd69ea8d	-0.05710845
76	0xbe84c22c	-0.2592939
77	0x3ec361f4	0.3816067
78	0x3e83c8ea	0.25739223
79	0x3e5f2591	0.21791674
80	0x3ee19d94	0.44065535
81	0xbe40a182	-0.1881161
82	0x3e18cecd	0.14922638
83	0x3e9cb444	0.30606282
84	0x3e634059	0.22192515
85	0x3e64774f	0.22311138
86	0xbdee7af8	-0.11644548
87	0xbde89fc0	-0.11358595
88	0xbc8bc8d9	-0.017063545
89	0x3f076a13	0.5289623
90	0xbf105a8f	-0.5638818
91	0x3e50e65c	0.20400375
92	0xbd88fa8c	-0.06688413
93	0xbe807930	-0.2509246
94	0xbcf439da	-0.029812742
95	0x3e17d818	0.14828527
96	0x3f157da0	0.58394814
97	0xbe931155	-0.2872416
98	0x3da6d3b7	0.0814585
99	0x3e318d1b	0.17338984
100	0xbd0c6917	-0.03427991
101	0xbecc63fc	-0.39920032
102	0xbe738a4c	-0.23783225
103	0x3e836736	0.2566468
104	0x3e1d2eef	0.15349935
105	0x3eb72053	0.3576685
106	0xbb144098	-0.0022621509
107	0x3e99ceb0	0.30040503

gru_cp_fw.gru_cell.weight_hh f4 [18, 6]
0	0xbe119320	-0.1421628
1	0x3e2fd0f3	0.17169552
2	0x3e9b3eb5	0.3032128
3	0xbe4f0f23	-0.20220618
4	0xbe7b8158	-0.2456106
5	0x3e930c09	0.2872012
6	0xbe81c20c	-0.2534336
7	0xbdac0be1	-0.08400703
8	0x3e0deb60	0.1385932
9	0xbe0acf53	-0.1355565
10	0x3e65c011	0.22436549
11	0xbcccba6b	-0.024991235
12	0x3e284000	0.16430664
13	0x3ef70666	0.4824707
14	0xbe9c7e7f	-0.3056526
15	0xbe11c7a5	-0.14236315
16	0xbe5ffc64	-0.21873623
17	0x3e8f336b	0.27968916
18	0xbe711b99	-0.23545684
19	0xbd755295	-0.05989321
20	0x3eb302a5	0.34962955
21	0x3d30b3cb	0.043140214
22	0x3ed7d30f	0.42153212
23	0xbdb7df9e	-0.089781985
24	0x3e579c87	0.21055804
25	0xbe191690	-0.14950013
26	0xbead1792	-0.33807045
27	0x3eb487e9	0.3525994
28	0x3b885c8a	0.004161422
29	0xbda20d11	-0.079126485
30	0xbe1ecf3e	-0.15508744
31	0x3d030592	0.031987734
32	0x3df5bfc6	0.119994685
33	0xbe3984db	-0.18117087
34	0x3e0da71d	0.1383328
35	0xbe8ef0ff	-0.2791824
36	0xbecc8e1c	-0.3995217
37	0xbda79d0d	-0.08184252
38	0x3e4736f2	0.19454554
39	0xbe2e7e36	-0.17040333
40	0xbc978c80	-0.018499613
41	0x3d69bdf9	0.057065938
42	0xbe163cd3	-0.1467164
43	0x3e831aee	0.25606483
44	0x3e8fb77a	0.2806967
45	0xbdbf0cda	-0.09328623
46	0xbd655d7b	-0.055997353
47	0xbe99f7d6	-0.30071896
48	0x3ddbe302	0.10736658
49	0x3eac5a6a	0.3366273
50	0xbea7c736	-0.32769173
51	0x3e0155e5	0.12630422
52	0x3eeded2b	0.46470007
53	0x3bed739e	0.0072464487
54	0x3df09897	0.11747854
55	0x3e78dd02	0.24303058
56	0x3ec1825a	0.37794763
57	0x3d62c79a	0.055366136
58	0x3e8f96fe	0.28044885
59	0x3e888c98	0.26669765
60	0x3e6f9ea3	0.23400359
61	0x3e70963b	0.23494808
62	0x3e822b0c	0.25423467
63	0xbe0857c4	-0.1331473
64	0xbe5fb452	-0.2184613
65	0x3efce709	0.49395016
66	0xbe9d2cbb	-0.3069819
67	0xbec8cc35	-0.39218298
68	0x3c745c84	0.014914636
69	0x3ee65699	0.44987944
70	0xbd664149	-0.056214605
71	0x3e939107	0.28821585
72	0xbe072b6a	-0.13200155
73	0xbd5bc01b	-0.053650003
74	0x3eaebe07	0.34129354
75	0xbe1e3fd4	-0.15454036
76	0x3d095aa2	0.0335337
77	0x3dc93f89	0.098265715
78	0x3ecaaee2	0.3958655
79	0xbd7c45d5	-0.061590035
80	0xbec15a1a	-0.37764055
81	0xbe1bc93b	-0.15213482
82	0x3e8b8aec	0.27254426
83	0xbe8453e5	-0.25845256
84	0x3e89fc5e	0.26950353
85	0x3e19fc35	0.15037616
86	0x3ec27fe0	0.37988186
87	0x3e355b61	0.1771064
88	0xbf198787	-0.59972423
89	0x3e3a1b80	0.18174553
90	0xbe082be9	-0.13298
91	0xbe9a84e1	-0.30179504
92	0xbe8d29c9	-0.27570942
93	0xbe97cc14	-0.29647887
94	0xbef1530e	-0.47133678
95	0x3e796f53	0.24358873
96	0xbe928492	-0.28616768
97	0x3cbafaa3	0.022824591
98	0xbee9d7b7	-0.4567239
99	0xbe1dc589	-0.15407385
100	0x3f15d67b	0.58530396
101	0xbeeae3f0	-0.45877028
102	0x3e9a8be4	0.30184853
103	0xbdc00833	-0.09376564
104	0x3ea75999	0.32685545
105	0x3ea05ead	0.31322232
106	0xbcdce5a1	-0.026964964
107	0x3dbaa0d3	0.09112706

gru_cp_fw.gru_cell.bias_ih f4 [18]
0	0x3e18c42b	0.14918582
1	0xbda84805	-0.08216862
2	0xbe5ef534	-0.21773225
3	0x3eada64c	0.33915937
4	0x3f16db77	0.58928627
5	0x3ebf629d	0.37379923
6	0x3e243c2a	0.16038576
7	0xbce6d119	-0.028175877
8	0x3e8241bd	0.2544078
9	0xbdd19c64	-0.10234907
10	0x3e6ad7c0	0.22933865
11	0xbe266318	-0.16248739
12	0x3da997bf	0.082808964
13	0xbe32e322	-0.17469457
14	0x3d9769aa	0.07393201
15	0x3e871fac	0.2639135
16	0x3dec5ee8	0.115415394
17	0x3e87f5be	0.26554674

gru_cp_fw.gru_cell.bias_hh f4 [18]
0	0xbcf9f243	-0.030511027
1	0xbec734a7	-0.38907358
2	0x3d966835	0.07344095
3	0x3c838479	0.016054379
4	0x3e0b59e4	0.1360851
5	0x3e869bf7	0.26290867
6	0xbde941d3	-0.11389508
7	0xbe9320ca	-0.28735954
8	0x3e212545	0.15736873
9	0xbd430e2b	-0.047620934
10	0x3eda55ee	0.42643684
11	0xbdd4f2a0	-0.103978395
12	0x3e9f842b	0.31155524
13	0x3d43ad3d	0.047772635
14	0x3d4134ec	0.04716961
15	0xbde26132	-0.11053695
16	0x3e2bd133	0.16779022
17	0x3e268a2f	0.1626365

gru_dp_bw.decays f4 [7]
0	0xbbd67e64	-0.0065458287
1	0xbb9e7649	-0.004835878
2	0xbbc3608c	-0.005962437
3	0xbb6e31de	-0.003634564
4	0xbbbfdf0c	-0.0058554467
5	0xbbc47120	-0.005994931
6	0xbbce8776	-0.0063027693

gru_dp_bw.gru_cell.weight_ih f4 [21, 7]
0	0xbd2162e6	-0.039400958
1	0xbef651a0	-0.4810915
2	0xbd2982a3	-0.04138435
3	0xbe504c13	-0.2034152
4	0xbe3ac9ff	-0.18241118
5	0x3e326f15	0.17425187
6	0x3d0398f4	0.03212829
7	0x3e704ff8	0.23468006
8	0xbe8c56a6	-0.27409858
9	0xbd5ce18a	-0.05392603
10	0x3ec0aad5	0.37630334
11	0xbe030804	-0.12796026
12	0x3b54cd82	0.0032471125
13	0x3dbd0a8b	0.092305265
14	0x3e6f3f7f	0.23364066
15	0x3e708427	0.23487912
16	0xbe89a586	-0.26884097
17	0x3eef8126	0.4677822
18	0xbebc67ce	-0.36797947
19	0xbece2ebc	-0.4027003
20	0xbd161c2f	-0.03664797
21	0x3ba49716	0.0050228937
22	0xbefcc269	-0.49367073
23	0x3e633e6d	0.22191782
24	0xbe0701cf	-0.13184284
25	0x3e17d708	0.14828122
26	0x3d9072b3	0.07053127
27	0x3e068e29	0.13140167
28	0xbefd0e84	-0.49425137
29	0xbedf96be	-0.43669695
30	0xbc53a4f1	-0.012917743
31	0xbdf8a628	-0.12141067
32	0x3e9ce9c7	0.30647108
33	0x3e5fb897	0.21847759
34	0x3dd85f97	0.10565107
35	0xbd1fdfc5	-0.039031763
36	0xbc8fad7e	-0.017538782
37	0xbdfae75a	-0.12251158
38	0x3daa7abd	0.08324192
39	0xbd261d05	-0.04055502
40	0xbe4ca9f5	-0.19986708
41	0x3dc827e2	0.09773232
42	0x3eac743c	0.3368243
43	0xbe5d9ad2	-0.2164109
44	0x3ed13aa1	0.40865043
45	0xbbd065bf	-0.0063597853
46	0x3e4bb994	0.19895011
47	0x3eaf5873	0.3424717
48	0x3dad9d65	0.08477286
49	0x3dc22826	0.09480314
50	0xbd747f83	-0.059691917
51	0x3ecba09e	0.3977098
52	0x3ddcd80c	0.10783395
53	0xbe5cb158	-0.21552026
54	0x3e34a1a8	0.17639792
55	0x3dc51431	0.09622992
56	0xbe12147d	-0.14265628
57	0xbe46645f	-0.19374226
58	0xbebd0fcb	-0.36926112
59	0xbe09a58b	-0.13442056
60	0x3dcdea5c	0.10054466
61	0xbd80aff9	-0.06283564
62	0xbe38e934	-0.1805771
63	0xbe002dc2	-0.12517455
64	0x3e075051	0.13214232
65	0x3c9cd937	0.019146545
66	0x3e2478cf	0.1606171
67	0x3e168e7f	0.14702795
68	0x3c795b57	0.015219531
69	0xbd2e46af	-0.042547878
70	0x3e4ac56c	0.19801873
71	0xbe1f7bd0	-0.15574574
72	0xbe8666d6	-0.26250333
73	0x3e7ae205	0.24500282
74	0xbdbfdb06	-0.09367947
75	0xbd9d634b	-0.07684954
76	0x3e8f6aeb	0.2801126
77	0x3d96c12f	0.073610656
78	0x3dcb3a5e	0.09923242
79	0x3cf13e89	0.029448764
80	0x3da7fa21	0.08202005
81	0xbe733c47	-0.23753463
82	0x3e66ff5d	0.22558351
83	0xbe7acd33	-0.2449234
84	0x3f1d29d1	0.6139193
85	0x3ef390ee	0.4757151
86	0x3e0cc279	0.1374606
87	0xbe8e6c06	-0.2781679
88	0xbe40d62c	-0.188317
89	0x3e81b7fe	0.25335687
90	0xbefacfa2	-0.48986536
91	0xbde0c7df	-0.109756224
92	0x3e685585	0.22688873
93	0xbe9f1cbe	-0.31076616
94	0xbcfb5a0a	-0.030682582
95	0x3ecdf3ea	0.40225154
96	0x3e36dd64	0.17857891
97	0x3dde1cf1	0.10845364
98	0xbdbcf1e1	-0.09225822
99	0xbc82a9ec	-0.015950166
100	0xbea7beb5	-0.32762685
101	0x3e42bb3f	0.19016741
102	0x3e822af2	0.2542339
103	0x3e9846f8	0.29741645
104	0xbe7e1f75	-0.24816687
105	0x3ec9d329	0.39418915
106	0x3e2a2c83	0.16618542
107	0x3e9ca5ee	0.30595344
108	0xbdb104b4	-0.08643475
109	0xbdbc20bd	-0.09185932
110	0x3f24ebbb	0.64422196
111	0xbd22bfe7	-0.039733794
112	0x3d663eba	0.056212164
113	0xbe4e8354	-0.20167285
114	0x3df88853	0.12135377
115	0xbedc9210	-0.43080187
116	0xbe816796	-0.25274342
117	0xbd0a042e	-0.033695392
118	0xbe093b5e	-0.13401553
119	0xbe417e12	-0.18895748
120	0x3ee60601	0.44926456
121	0xbcb1c845	-0.021701941
122	0x3ea3d80b	0.32000765
123	0x3e0cd9aa	0.13754907
124	0xbe54e0e7	-0.20788918
125	0xbdb697c8	-0.08915669
126	0x3e98cda5	0.29844394
127	0x3eaf63c8	0.34255815
128	0xbe23a7f9	-0.15982045
129	0x3d8de660	0.06928706
130	0xbd37046b	-0.044681948
131	0x3ee232ef	0.44179484
132	0x3e1003db	0.1406397
133	0xbee52051	-0.44751218
134	0xbea4da56	-0.32197827
135	0x3d98eb85	0.07466797
136	0xbdb5dc61	-0.088799246
137	0xbe1773f1	-0.14790322
138	0xbe0cefe2	-0.13763383
139	0x3ea99699	0.3312271
140	0xbdbb2bcf	-0.09139215
141	0xbe931908	-0.28730035
142	0x3e3e9e72	0.1861513
143	0xbe25455a	-0.16139737
144	0xbe8ecee0	-0.27892208
145	0xbe1f6b2c	-0.15568227
146	0x3dd07c0d	0.10179911

gru_dp_bw.gru_cell.weight_hh f4 [21, 7]
0	0xbeddadd7	-0.43296692
1	0xbf0c2e57	-0.5475821
2	0x3e516d5f	0.20451878
3	0xbd02754d	-0.031850148
4	0xbede341a	-0.43399125
5	0xbe513ec4	-0.204341
6	0xbeb64517	-0.35599586
7	0xbf15239f	-0.5825748
8	0xbe1f74bd	-0.15571876
9	0x3d575001	0.052566532
10	0x3da56175	0.08075229
11	0xbedd849d	-0.43265238
12	0x3e231492	0.15925816
13	0x3ed71f54	0.4201609
14	0xbea0897b	-0.3135489
15	0xbf055a14	-0.52090573
16	0x3cfdd602	0.030985836
17	0xbecebbdd	-0.40377703
18	0xbe346a39	-0.17618646
19	0xbdb5aa69	-0.08870394
20	0x3f0d5907	0.5521397
21	0x3d44f39d	0.04808389
22	0x3cfad965	0.03062124
23	0x3c8e930b	0.0174041
24	0xbe92471c	-0.28569877
25	0x3e2424d9	0.16029681
26	0x3e3bf161	0.18353797
27	0xbea160ed	-0.3151926
28	0xbf2838c1	-0.657116
29	0xbf22ce21	-0.6359578
30	0xbd4be87b	-0.049782258
31	0xbece7f09	-0.40331295
32	0xbe7cb57c	-0.24678606
33	0xbe9c108a	-0.30481368
34	0x3e333ad8	0.17502916
35	0xbdbcac24	-0.09212521
36	0xbefb0154	-0.4902445
37	0x3d547fc3	0.051879656
38	0xbd80f34c	-0.06296405
39	0xbf1a0e53	-0.6017811
40	0x3daf8bdd	0.08571599
41	0x3ea649b2	0.324781
42	0xbed75cf1	-0.42063096
43	0xbeea3ebf	-0.45750996
44	0x3e9fece5	0.31235424
45	0xbd95fbb6	-0.07323401
46	0xbb96b4d2	-0.004599192
47	0xbef1b24f	-0.4720635
48	0x3df40f2a	0.11916955
49	0x3ed16ef7	0.40904972
50	0xbed44ac6	-0.41463298
51	0xbccf2e2e	-0.025290575
52	0xbda89bad	-0.08232818
53	0xbea6bae1	-0.32564452
54	0xbe927d4a	-0.28611213
55	0xbdf2cc00	-0.11855316
56	0xbe8058df	-0.25067803
57	0xbe9bb535	-0.30411687
58	0x3c716992	0.014734643
59	0xbf29284e	-0.66077125
60	0xbd751b49	-0.059840474
61	0xbe118e21	-0.14214374
62	0x3e0d7385	0.13813598
63	0xbf13f6e5	-0.57798606
64	0xbf0757e9	-0.52868515
65	0x3e1998dc	0.14999717
66	0x3d1070fe	0.035264008
67	0xbf075efd	-0.52879316
68	0xbd01a34c	-0.031649873
69	0x3f20f67b	0.628761
70	0xbe9e5480	-0.30923843
71	0x3edcbfe1	0.43115142
72	0xbeb622de	-0.35573477
73	0x3e8b9abe	0.27266496
74	0xbe8ce1e2	-0.27516085
75	0x3e236c2a	0.1595923
76	0xbe37170c	-0.17879885
77	0xbec4e4a6	-0.38455695
78	0x3bdfd44e	0.0068307286
79	0xbe05be69	-0.13060917
80	0x3e5bfa0d	0.21482106
81	0xbecf1a7c	-0.40449893
82	0xbee25282	-0.44203573
83	0x3ecba80d	0.3977665
84	0xbe1884c0	-0.1489439
85	0xbd0cc3df	-0.034366485
86	0x3ed56910	0.4168172
87	0x3bd24267	0.006416607
88	0xbd44cdb1	-0.048047725
89	0x3e06c63b	0.13161556
90	0x3f1a7f7c	0.60350776
91	0xbd96cc4d	-0.07363186
92	0xbf016543	-0.5054514
93	0x3e276a28	0.16349089
94	0xbec2ef6f	-0.38073298
95	0xbebe3353	-0.37148532
96	0xbd92f8a3	-0.0717633
97	0x3e3ec5b3	0.18630104
98	0x3ee9fc41	0.45700267
99	0x3eaa9526	0.33316916
100	0x3e8c684b	0.2742332
101	0xbd8dda63	-0.069264196
102	0x3f01f892	0.50769913
103	0x3ec8d937	0.39228222
104	0x3e0887dd	0.13333078
105	0x3e8328c1	0.2561703
106	0x3d289947	0.0411618
107	0x3ea0da9a	0.3141678
108	0x3e94de97	0.29076073
109	0x3e57a911	0.21060587
110	0x3f07f825	0.53113014
111	0xbdfe489d	-0.12416194
112	0x3f0eadb8	0.55733824
113	0x3f0ede05	0.55807525
114	0x3f05a60c	0.5220649
115	0xbe19652d	-0.14980002
116	0xbd1412dc	-0.0361508
117	0x3db083cb	0.086188875
118	0x3e5b50d4	0.21417552
119	0x3ef97ded	0.48728886
120	0x3e98f7c2	0.29876524
121	0xbc2e4675	-0.010636915
122	0x3e487a2b	0.19577853
123	0x3e9735d5	0.29533258
124	0x3e9d4507	0.30716726
125	0x3df85c5a	0.1212699
126	0x3e9c3553	0.30509433
127	0x3f2dbce0	0.67866325
128	0x3e52c170	0.20581603
129	0xbd19c948	-0.037545472
130	0xbddfaf88	-0.10922152
131	0x3f11ecc3	0.57001895
132	0xbeb035cb	-0.3441604
133	0x3f1284a7	0.5723366
134	0x3e9e7864	0.30951226
135	0x3f277913	0.6541912
136	0x3d179b7d	0.03701352
137	0x3da35513	0.07975211
138	0x3da61167	0.08108788
139	0x3e531107	0.20611964
140	0xbe8c46a9	-0.2739766
141	0xbee13e47	-0.43992826
142	0xbefe67ea	-0.49688655
143	0xbddb2101	-0.10699654
144	0xbeb74701	-0.3579636
145	0xbe69ee73	-0.22844867
146	0x3dc5a28e	0.096501455

gru_dp_bw.gru_cell.bias_ih f4 [21]
0	0x3f035abc	0.51310325
1	0x3f005eb5	0.5014451
2	0x3eb4710a	0.35242492
3	0xbd6d41a7	-0.05792394
4	0x3f02003f	0.50781626
5	0x3e61a0f3	0.22034054
6	0x3e8f548c	0.27994192
7	0x3e09caf9	0.13456334
8	0x3f04a1bd	0.51809293
9	0x3da077db	0.078353606
10	0xbd8887b6	-0.0666651
11	0xbd1a8248	-0.037721902
12	0x3ea89ca6	0.32932013
13	0xbd37a014	-0.044830397
14	0xbb30a4cc	-0.0026953695
15	0xbe6b194d	-0.2295887
16	0x3e9201a1	0.28516868
17	0xbd7fb5c9	-0.062429223
18	0x3e6a4c02	0.22880557
19	0xbe791155	-0.24323018
20	0xbe8e4ed0	-0.27794504

gru_dp_bw.gru_cell.bias_hh f4 [21]
0	0x3d5be294	0.05368288
1	0x3f24e47a	0.6441113
2	0x3da30a4b	0.079609476
3	0x3e805591	0.25065282
4	0x3e8645fa	0.26225263
5	0x3eec3aaf	0.46138522
6	0x3f31e538	0.69490385
7	0x3efb6b25	0.49105182
8	0x3e5b2650	0.21401334
9	0x3eab2b3b	0.3343142
10	0x3e8b562d	0.27214184
11	0xbe8c094b	-0.2735084
12	0xbc18be08	-0.009322651
13	0xbea2b124	-0.31775773
14	0xbc0a3295	-0.008434911
15	0x3d7c8dd3	0.06165869
16	0xbd3d2e41	-0.04618669
17	0x3e57a0d8	0.21057451
18	0xbe1de020	-0.15417528
19	0x3dd81116	0.10550134
20	0x3e1517c5	0.14559849

gru_cp_bw.decays f4 [6]
0	0xbb0343d7	-0.002002945
1	0xbbbdbe63	-0.005790518
2	0x756ff96c	3.0420357e+32
3	0xbbc1160f	-0.005892522
4	0xd2345930	-1.936476e+11
5	0xbba7d576	-0.005121882

gru_cp_bw.gru_cell.weight_ih f4 [18, 6]
0	0x3d31d740	0.04341817
1	0x3d26fa3c	0.040765986
2	0xbe80ab20	-0.25130558
3	0xbe30b819	-0.17257728
4	0xbd90adf5	-0.0706443
5	0xbd3877ee	-0.04503625
6	0x3e3d13ff	0.18464659
7	0x3cf72c84	0.030172594
8	0xbcc93b23	-0.024564331
9	0x3e150af7	0.14554964
10	0x3d28627b	0.041109543
11	0x3e9b4965	0.30329433
12	0xbcf2faee	-0.029660668
13	0xbf18b6be	-0.5965384
14	0x3e95ba2c	0.292436
15	0xbe969baf	-0.29415652
16	0x3ed09ff8	0.40747046
17	0xbe077273	-0.13227253
18	0x3e413ccf	0.18870853
19	0x3d9869e9	0.07442076
20	0xbe05f927	-0.13083325
21	0xbe8f99aa	-0.28046924
22	0x3dec0c87	0.11525827
23	0x3e21694a	0.15762821
24	0xb9ff78d5	-0.00048727417
25	0x3ef9700f	0.48718306
26	0x3cef2752	0.029193554
27	0xbe53c95c	-0.20682281
28	0xbe99fdf0	-0.3007655
29	0x3e87a0ee	0.26489967
30	0xbe3f2aee	-0.1866872
31	0xbe5fe918	-0.21866262
32	0x3dce0884	0.10060218
33	0xbec1b18e	-0.37830776
34	0x3efe557c	0.49674594
35	0xbe1ff81d	-0.15621991
36	0x3eda8c62	0.4268523
37	0x3c958a7d	0.018254513
38	0xbec2ba6c	-0.38032854
39	0x3e737554	0.23775226
40	0x3e827fa8	0.2548802
41	0xbea5a605	-0.32353225
42	0x3b9d54c5	0.004801365
43	0xbe156c28	-0.1459204
44	0xbe146fdb	-0.14495794
45	0xbf0237aa	-0.50866187
46	0xbe8e286c	-0.27765214
47	0xbe283f50	-0.16430402
48	0xbe2dfda9	-0.16991295
49	0xbce02df3	-0.02736566
50	0xbd11e254	-0.035616234
51	0x3e4c2394	0.19935447
52	0xbea9469e	-0.3306169
53	0x3db7d066	0.08975296
54	0xbe7fe691	-0.24990298
55	0xbeb29529	-0.34879425
56	0xbdb9f7e2	-0.09080483
57	0xbe4694e9	-0.19392742
58	0x3e960261	0.2929869
59	0xbe21ca63	-0.1579986
60	0xbe126b61	-0.14298774
61	0x3e202d6c	0.15642327
62	0xbea9b759	-0.33147696
63	0xbe8a8f61	-0.27062514
64	0x3d58c310	0.0529204
65	0xbed7d696	-0.42155904
66	0x3e035b9c	0.12827915
67	0xbe7d06e6	-0.24709663
68	0xbec296df	-0.3800573
69	0xbe7e61ea	-0.24842039
70	0x3dfcbafc	0.12340352
71	0xbe44453b	-0.19167034
72	0xbe3ff0ed	-0.1874425
73	0x3ef2d0d1	0.4742494
74	0xbe88f73c	-0.26751125
75	0x3e55393c	0.20822614
76	0x3b9b1fbe	0.0047340086
77	0xbd19503a	-0.037430026
78	0xbedb2b58	-0.42806506
79	0x3e692b85	0.22770508
80	0xbe05f4aa	-0.13081613
81	0xbd415606	-0.04720118
82	0xbd9fe5b1	-0.07807482
83	0xbd648aac	-0.05579631
84	0xbef7f43d	-0.48428527
85	0xbbd2bd56	-0.006431262
86	0x3eb771ca	0.35829002
87	0xbdb680ca	-0.08911283
88	0x3e587e3f	0.21141909
89	0x3e2b82c8	0.16749108
90	0xbe49b231	-0.19696881
91	0xbe63c503	-0.22243123
92	0xbe0e4b4e	-0.13895914
93	0x3d1bc249	0.03802708
94	0xbed75fd8	-0.4206531
95	0x3e220b02	0.15824512
96	0xbee246a5	-0.44194523
97	0x3edb328a	0.42811996
98	0x3dfbced4	0.12295309
99	0xbe21e6d7	-0.15810715
100	0xbe8ffc50	-0.28122187
101	0xbd7fbc90	-0.062435687
102	0x3dff8e35	0.12478296
103	0x3daa6aa4	0.08321121
104	0x3f05997a	0.5218731
105	0x3e3c61bc	0.18396658
106	0x3eb03ac3	0.34419832
107	0xbd059483	-0.032612335

gru_cp_bw.gru_cell.weight_hh f4 [18, 6]
0	0x3eaf39b2	0.34223706
1	0x3f00de3f	0.5033912
2	0x3f04626d	0.51712686
3	0xbe470ba8	-0.1943804
4	0x3f038070	0.51367855
5	0xbeb7514e	-0.35804218
6	0x3d351bc8	0.044215947
7	0xbe775b13	-0.24155836
8	0x3eaa9878	0.3331945
9	0x3e4d1ba4	0.20030075
10	0x3d7bc0d1	0.06146318
11	0x3cf9dfa5	0.03050215
12	0x3e448325	0.19190653
13	0xbe111f45	-0.14172085
14	0xbed7031b	-0.41994557
15	0x3dd25cf0	0.10271633
16	0x3e084d25	0.13310678
17	0x3e718278	0.23584926
18	0xbde37007	-0.11105352
19	0x3e5f97ab	0.218352
20	0x3ededfe5	0.43530193
21	0xbe226881	-0.15860178
22	0x3f02f876	0.5116037
23	0xbea548ed	-0.322822
24	0xbdca4308	-0.098760664
25	0xbe5dfefe	-0.21679303
26	0x3da599f2	0.08086003
27	0x3d17c375	0.037051637
28	0x3e556a51	0.20841338
29	0x3db5447c	0.08850953
30	0x3de86b51	0.11348594
31	0x3e945ca9	0.28976944
32	0xbe3df176	-0.18549141
33	0xbc23b916	-0.009992858
34	0xbe96c942	-0.29450423
35	0xbeb3fb42	-0.35152632
36	0xbceb6da5	-0.028738806
37	0x3ea06255	0.3132502
38	0xbf000e6d	-0.5002201
39	0xbeb3a192	-0.35084206
40	0x3e1d1acb	0.15342252
41	0x3e5199ca	0.20468822
42	0xbe89c75d	-0.26909915
43	0xbe684c87	-0.22685443
44	0x3d84f7ab	0.064925514
45	0xbe2823ea	-0.1641995
46	0x3e0a4077	0.13501154
47	0x3ee8dbcc	0.45480192
48	0xbdbcb2b3	-0.09213772
49	0x3eb1d081	0.34729388
50	0x3ea2fdc3	0.3183423
51	0xbc231d20	-0.009955674
52	0x3f01d8a0	0.5072117
53	0xbe83ae1c	-0.25718772
54	0x3e649e3d	0.22325988
55	0xbe9575d3	-0.29191455
56	0xbebc4026	-0.3676769
57	0xbe4e75cc	-0.20162123
58	0x3eb311bb	0.34974465
59	0xbeb3e3c3	-0.35134706
60	0xbeebfa58	-0.46089435
61	0xbe8676bd	-0.26262465
62	0x3e292fb6	0.16522107
63	0x3ea02e25	0.31285205
64	0xbedac3ee	-0.42727607
65	0x3e006b4c	0.1254093
66	0xbe8c02ba	-0.2734583
67	0xbe8907cf	-0.2676377
68	0xbe5e33f3	-0.21699505
69	0x3ed2574f	0.41082236
70	0x3e40aeea	0.18816724
71	0x3edbe2f3	0.42946586
72	0x3eb4f488	0.35342813
73	0x3e888cff	0.2667007
74	0x3cd74996	0.026280206
75	0x3ea9f73f	0.33196446
76	0xbe095a3f	-0.13413332
77	0xbe7ca8af	-0.24673723
78	0xbe5eab6e	-0.21745083
79	0x3e34cfe0	0.17657423
80	0xbdece028	-0.11566192
81	0x3ee7754e	0.45206684
82	0x3d09e9a4	0.033670083
83	0xbd8525e8	-0.06501371
84	0x3f0092ed	0.5022419
85	0x3eb72f63	0.3577834
86	0x3ec4cc75	0.38437238
87	0x3db483c2	0.08814193
88	0x3f192e2c	0.5983608
89	0xbd5273ac	-0.051379845
90	0x3dd35089	0.10318095
91	0x3a1fc565	0.0006094783
92	0x3dca93ab	0.09891447
93	0xbdef50d7	-0.11685341
94	0x3ed96ec5	0.42467323
95	0x3e6ef92e	0.23337242
96	0x3ed7aaa2	0.4212237
97	0xbe67ea7a	-0.2264804
98	0x3e8c835d	0.27443972
99	0x3f0567ff	0.5211181
100	0xbd5f86b9	-0.05457184
101	0x3e01810a	0.12646881
102	0x3d89fa45	0.06737188
103	0x3eaba4c8	0.33524156
104	0x3e550e99	0.2080635
105	0xbe204f4f	-0.15655254
106	0x3b8a85df	0.0042273845
107	0xbe4cb449	-0.19990648

gru_cp_bw.gru_cell.bias_ih f4 [18]
0	0xbd8e78c1	-0.06956626
1	0x3c9eb5ad	0.01937374
2	0x3eb51c7b	0.3537329
3	0xbe9d4958	-0.3072002
4	0x3e715f5c	0.23571533
5	0xbc2f7d0a	-0.010710964
6	0x3db92d2c	0.09041819
7	0xbe245d48	-0.16051209
8	0x3ebca830	0.36847067
9	0xbe00deb4	-0.12584955
10	0xbdf59e3b	-0.11993071
11	0xbe896558	-0.26835132
12	0xbe8fc197	-0.28077385
13	0x3e0b925b	0.13630049
14	0xbd464dcb	-0.048414033
15	0xbe14e97e	-0.14542195
16	0x3e894446	0.268099
17	0xbe1174ac	-0.14204663

gru_cp_bw.gru_cell.bias_hh f4 [18]
0	0x3db7b188	0.08969408
1	0x3e31a872	0.17349413
2	0xbe5e64c0	-0.2171812
3	0x3d8fa2b8	0.07013458
4	0xbeb317c2	-0.34979063
5	0xbe1e41ad	-0.15454741
6	0xbea74564	-0.32670128
7	0xbd8cbae6	-0.068715855
8	0x3d884436	0.06653635
9	0x3e4d641c	0.2005772
10	0xbe8147ab	-0.2524999
11	0xbeab7da3	-0.3349429
12	0x3e837212	0.25672966
13	0xbd95e184	-0.07318404
14	0xbe8e4ab1	-0.2779136
15	0x3eb53c96	0.35397786
16	0x3e6c8193	0.23096304
17	0x3e55d3b1	0.20881535

attention_dp.context f4 [14]
0	0xbe9128dd	-0.2835149
1	0xbfb936a6	-1.4469802
2	0xbf798192	-0.97463334
3	0xbf59577e	-0.8489913
4	0xbc8a6578	-0.016894087
5	0xc0171355	-2.360555
6	0x3f2b585e	0.6693171
7	0xbe75fea5	-0.2402292
8	0xbec80945	-0.39069572
9	0xbf8af06b	-1.085462
10	0xbf5ceef9	-0.86302143
11	0x3f7d96cb	0.99058217
12	0xbfa5b301	-1.2945253
13	0x3d1714d5	0.0368851

attention_dp.linear_hidden.weight f4 [14, 14]
0	0xbd951eee	-0.0728129
1	0xbe560090	-0.20898652
2	0xbd3930d8	-0.045212597
3	0x3d83c380	0.06433773
4	0x3e946a92	0.28987557
5	0x3c09cd34	0.008410741
6	0x3d9261bc	0.071475476
7	0x3dd79e9b	0.105282985
8	0xbe594bb1	-0.2122028
9	0xbdf3022a	-0.11865647
10	0xbeaa7a9d	-0.33296672
11	0xbea9e17b	-0.3317984
12	0xbd6ed894	-0.058312014
13	0xbda973a9	-0.082740135
14	0xbe58d80b	-0.21176164
15	0xbe21680b	-0.15762345
16	0xbe973a3c	-0.29536617
17	0xbdc80a60	-0.09767604
18	0x3ea1de57	0.31614944
19	0xbdcb75e8	-0.09934598
20	0xbe6f9ccf	-0.23399661
21	0xbdb74bcf	-0.08950006
22	0x3e4098a8	0.18808234
23	0xbdd535bd	-0.104106404
24	0xbdd12652	-0.10212387
25	0xbe5d6139	-0.21619119
26	0xbea4b669	-0.32170418
27	0x3d991840	0.074753284
28	0xbd403aab	-0.04693095
29	0xbe803963	-0.25043783
30	0xbe86d2af	-0.26332614
31	0xbce91ff9	-0.028457629
32	0x3e5e3208	0.21698773
33	0xbe550f4c	-0.20806617
34	0x3cdb448e	0.026766088
35	0xbe9c0209	-0.30470303
36	0x3d5fba2e	0.054620914
37	0x3d93ff9d	0.07226489
38	0x3d7743fa	0.060367562
39	0xbe36eb7f	-0.17863272
40	0xbe35f16f	-0.17767881
41	0x3e3e81b7	0.1860417
42	0x3e0a5332	0.13508299
43	0xbd879112	-0.06619467
44	0x3dfbbedf	0.12292265
45	0x3e05090a	0.1299173
46	0x3e80eb56	0.25179547
47	0x3d53e493	0.051731657
48	0xbbdc73a3	-0.006727652
49	0x3d888cac	0.06667456
50	0xbea46ed4	-0.32115805
51	0x3e1ae649	0.1512691
52	0x3d8021c2	0.06256439
53	0xbe491fbe	-0.19641015
54	0x3d89b832	0.067245856
55	0x3e288509	0.16456999
56	0xbd815af5	-0.06316177
57	0x3cb676d9	0.022273468
58	0xbe0e790c	-0.13913363
59	0xbcb79c4b	-0.022413393
60	0xbdcc9c3e	-0.09990738
61	0xbe23d65a	-0.15999737
62	0x3cc289a2	0.023747269
63	0x3e84e910	0.25959063
64	0x3d1b55f7	0.03792378
65	0xbe74133e	-0.23835465
66	0xbe5ca49c	-0.21547168
67	0x3e0c9b21	0.13731052
68	0x3e3bb0c8	0.18329155
69	0x3e1a2c45	0.1505595
70	0x3e3accf3	0.18242244
71	0x3ce95124	0.028481074
72	0x3e6fc02b	0.2341315
73	0x3e9955b9	0.29948214
74	0x3de09db7	0.10967582
75	0xbe007d5e	-0.12547824
76	0xbb8372b8	-0.0040114783
77	0xbe941e7a	-0.28929502
78	0x3e806274	0.25075114
79	0xbcd70782	-0.026248697
80	0x3e218dc5	0.15776737
81	0xbea1fa42	-0.31636244
82	0x3d79f63d	0.061025847
83	0x3e31a7bc	0.17349142
84	0xbe15274d	-0.14565773
85	0x3e3edab3	0.18638115
86	0x3db59877	0.08866971
87	0x3e2045c3	0.15651612
88	0x3e30fe88	0.17284596
89	0xbe36f719	-0.17867698
90	0xbd87fae2	-0.06639649
91	0x3cb0a1ac	0.021561466
92	0xbe2404bd	-0.16017433
93	0x3e1d4c08	0.15361035
94	0xbd25670b	-0.040381473
95	0x3d7b881f	0.061409112
96	0x3ea7016e	0.32618278
97	0xbe2af62f	-0.16695474
98	0xbdfb33c0	-0.1226573
99	0xbe340c2a	-0.17582765
100	0x3e33f0e0	0.17572355
101	0xbe2749f6	-0.16336808
102	0xbe7831c4	-0.24237734
103	0x3e313e39	0.17308892
104	0xbe1b60c7	-0.15173636
105	0x3e4620b2	0.1934841
106	0xbd5631a5	-0.05229344
107	0xbcf95f39	-0.030440914
108	0xbd33a64a	-0.043859757
109	0x3c64a94c	0.013956379
110	0xbeb04353	-0.34426364
111	0xbe547081	-0.20746042
112	0xbe67a350	-0.22620893
113	0xbe472fb4	-0.19451791
114	0xbe88b877	-0.26703236
115	0xbd17e7a3	-0.03708614
116	0x3e94ef72	0.29088932
117	0x3e2c0023	0.16796927
118	0xbd8cea76	-0.068806574
119	0xbe8c54cf	-0.27408454
120	0xbe8e57ac	-0.27801263
121	0xbdd7d455	-0.10538546
122	0x3c800e62	0.015631858
123	0xbe940e07	-0.28916952
124	0x3d57abad	0.052653957
125	0x3e457942	0.19284537
126	0x3d28046a	0.041019835
127	0x3e817552	0.2528482
128	0x3e241e4b	0.16027181
129	0x3e355d5e	0.17711398
130	0x3e006b9f	0.12541054
131	0xbd1674b3	-0.036732387
132	0xbd9afe41	-0.07568026
133	0x3d2b717b	0.04185627
134	0xbe9c8ef1	-0.30577806
135	0xbe76060f	-0.24025749
136	0x3e3bb4db	0.1833071
137	0xbe11d675	-0.14241965
138	0xbe355537	-0.17708288
139	0xbe1e295e	-0.15445468
140	0xbe4dc1bc	-0.20093435
141	0x3e3804da	0.179706
142	0x3da00442	0.07813312
143	0xbd8299e2	-0.06377007
144	0xbe583d44	-0.21117121
145	0xbe909318	-0.28237224
146	0x3e4ff342	0.20307639
147	0xbe97d608	-0.2965548
148	0xbd1cf2ad	-0.03831737
149	0xbbe1f9a1	-0.006896213
150	0x3db0b340	0.08627939
151	0xbe968144	-0.29395497
152	0xbec2f989	-0.38081005
153	0xbd83ed9f	-0.06441807
154	0x3e74f766	0.239225
155	0xbe6dc731	-0.23220517
156	0x3e5097ef	0.20370458
157	0xbe70f6e0	-0.23531675
158	0xbe3a6b0f	-0.18204902
159	0x3dfee1f6	0.124454424
160	0xbe61c926	-0.22049388
161	0xbde81541	-0.11332179
162	0x3d41c392	0.04730565
163	0xbe053954	-0.1301015
164	0xbdc3930e	-0.09549533
165	0xbe0ec2f4	-0.13941556
166	0x3ea114b8	0.3146112
167	0x3dbcbd89	0.092158385
168	0x3e4d0ebe	0.20025155
169	0x3d87d88e	0.066331014
170	0x3e57d099	0.21075667
171	0xbd014fa8	-0.031570107
172	0x3e050aa9	0.12992348
173	0x3d656e3e	0.05601334
174	0x3e8da7d0	0.27667093
175	0x3e186be0	0.14884901
176	0xbe05a97d	-0.13052936
177	0x3e451ab9	0.19248475
178	0xbe25d1ca	-0.1619331
179	0xbe831190	-0.25599337
180	0x3da1897d	0.07887552
181	0x3d82d617	0.06388491
182	0x3e91bf5d	0.2846631
183	0x3e6aeb92	0.22941425
184	0x3e55a2e8	0.20862925
185	0x3c670901	0.014101268
186	0x3e6980a7	0.22802983
187	0xbd9ceac7	-0.07661968
188	0x3db05905	0.08610729
189	0xbd9b502e	-0.075836524
190	0xbc51ece5	-0.012812828
191	0x3e024ca2	0.12724546
192	0x3de8fb05	0.11376003
193	0x3e3e0643	0.18557076
194	0x3e459341	0.19294454
195	0xbce8a23f	-0.028397677

attention_dp.linear_hidden.bias f4 [14]
0	0x3eda5e8f	0.42650267
1	0x3e9b8d07	0.30381033
2	0x3f04c92c	0.51869464
3	0x3e676810	0.2259829
4	0x3e540090	0.2070334
5	0xbe652966	-0.22379074
6	0x3e960d41	0.29306987
7	0x3d91f5c2	0.07126953
8	0x3eeafb5b	0.45894894
9	0xbe800bfd	-0.25009146
10	0xbe41eadf	-0.18937252
11	0xbd95752b	-0.07297739
12	0x3dc8933a	0.09793706
13	0xbe960516	-0.29300755

attention_cp.context f4 [12]
0	0xbf3676f2	-0.71275246
1	0x3f7a431e	0.9775866
2	0x3fb6ae45	1.4271933
3	0x3eaeff7c	0.34179294
4	0x3f5db551	0.8660479
5	0xbf7aaa39	-0.9791599
6	0x3f4a4a4c	0.7901962
7	0x3f48e78e	0.78478324
8	0xbf99d07e	-1.2016752
9	0xbfae740b	-1.3629164
10	0x3fd95c94	1.6981378
11	0x3eb51107	0.35364553
