ablation3_epochs/birnn_time_decay_attention/final_model.pt (torch, 67855 bytes, 31 tensors)

embed_dp.weight f4 [1292, 7]
0.0 0.0 0.0 0.0 0.0 0.0 0.0 1.7227476
-0.89717215 -0.40043145 0.43799204 -0.7109264 1.173681 1.7515508 0.40587395 -0.61439013
0.44697666 1.7891243 -0.506976 1.2743183 -0.10944188 -0.6967301 0.09160702 -0.29067954
-0.60747886 -0.56546044 1.0058324 -0.25159687 0.39791006 -1.2396282 -0.69026697 -0.40539292
-0.24208827 0.61810577 0.0018546544 -0.020180132 1.4997638 0.44897258 -0.12198811 0.7142754
-0.29049623 -0.9998551 -0.055085592 2.392926 0.57811767 0.23053433 0.7543143 -0.2384524
-0.08173534 -0.411066 -0.8901878 0.65746534 -0.8694746 -0.30812433 0.6346997 1.0925564
0.018894816 -0.14112374 -2.575469 0.28122476 -0.6899238 0.08442819 2.415378 -0.033471264
0.4418605 0.7089589 -0.64760613 0.30518502 0.8260841 -0.75608724 -0.7909791 0.65162224
0.0011309546 -1.7967331 1.2621993 0.52183926 -0.026657837 0.15954517 -1.8783774 0.92943597
0.51678234 1.5059006 1.0331777 0.5470034 -0.41848674 1.2434702 -0.1949375 -1.1046329
-0.65708035 1.4916121 -2.073761 -1.5123044 2.3086452 0.33468083 -0.50075835 0.0042345254
-1.8479897 1.1302853 0.871678 -1.5294763 1.410628 1.8743709 -0.5724643 -0.42035922
-0.97098327 1.91672 0.80333376 0.3613773 -1.1472112 2.247347 2.122512 0.5743723
-1.7903396 1.7636383 1.5991286 -0.7605745 -0.561868 -1.4513098 1.0706968 0.8392306
-0.20651971 -0.07360026 -0.3357347 0.8351306 0.563126 0.5097245 -0.15442896 -0.8997446
0.7425454 0.14698246 0.16522047 0.8661343 -1.1134017 0.9617758 -0.3276025 0.48639488
-0.8452519 -0.16614453 -0.18669532 -0.6312881 1.3700066 0.36015064 -1.1237117 0.9932808
-2.0192676 -1.4869491 -0.4351525 -0.048601568 0.25108746 1.2584819 -0.1764762 0.6199746
1.327038 -1.3520278 -0.3640432 -1.2952965 -0.94957894 -1.8371185 1.4848769 0.6777635
-1.2744823 0.57661647 -0.6361402 0.9792554 -0.7296843 0.60793334 0.0690231 0.560069
1.1206985 1.6144509 -0.85267377 0.55743176 0.5581874 -0.7983701 -0.22312693 0.19574767
0.56996316 -1.5039506 -0.90127957 0.031625707 0.69606864 -0.22874425 -0.5286398 1.0610638
-0.7195663 -1.2465997 1.9385312 -0.4992808 1.4701908 0.4355623 -3.7632165 1.2526702
-0.33129543 -0.31581432 0.6112552 1.0606174 -0.48045307 -0.9865343 1.1364836 -0.9046124
0.62676305 -0.97601473 -2.2610114 -1.6331652 0.15113223 0.5561559 -0.57703674 2.0800161
-1.0760894 0.027644418 1.2521306 1.2228086 0.034968253 -0.9631514 0.5566763 0.007815918
-0.74469066 -0.4224786 -0.4636251 0.5010906 0.77331173 1.7020717 0.652334 -0.6738121
0.2341375 -0.8222326 -1.4527746 0.9186551 -1.2424983 -0.2609584 -0.62634706 -1.1098292
-2.990939 -0.066064104 0.4504136 0.9229303 1.3322802 0.14969166 1.0705196 -1.2460904
0.12540582 -1.324304 1.1040692 1.4086137 0.30123928 2.2982342 -0.21267596 -0.6479615
0.27640194 -1.3482533 2.3078933 0.6385979 0.57480156 0.22344163 1.3875229 2.416887
00000000: 0000 0000 0000 0000 0000 0000 0000 0000
00000010: 0000 0000 0000 0000 0000 0000 fe82 dc3f
00000020: 13ad 65bf 5a05 cdbe 7e40 e03e 46ff 35bf
00000030: 2e3b 963f d132 e03f b6ce cf3e ac48 1dbf
00000040: 20da e43e 0602 e53f 2ec9 01bf dd1c a33f
00000050: 1023 e0bd e75c 32bf 769c bb3d f3d3 94be
00000060: bc83 1bbf 04c2 10bf 1ebf 803f 4ed1 80be
00000070: deba cb3e 23ac 9ebf 56b5 30bf a98f cfbe
00000080: fde5 77be 2e3c 1e3f e017 f33a ce50 a5bc
00000090: 43f8 bf3f bcdf e53e e7d4 f9bd c1da 363f
000000a0: ecbb 94be 81f6 7fbf 6ea1 61bd b325 1940
000000b0: 85ff 133f 3111 6c3e be1a 413f de2c 74be
000000c0: dc64 a7bd 3e77 d2be 59e3 63bf a64f 283f
000000d0: e395 5ebf 79c2 9dbe ae7b 223f e3d8 8b3f
000000e0: 4dc9 9a3c be82 10be 7cd4 24c0 b1fc 8f3e
000000f0: d99e 30bf b0e8 ac3d 8e95 1a40 2a19 09bd
00000100: 8a3b e23e 557e 353f 84c9 25bf 3641 9c3e
00000110: 3f7a 533f ef8e 41bf 9b7d 4abf b7d0 263f
00000120: 8a3c 943a 5afb e5bf bf8f a13f 4297 053f
00000130: 8961 dabc cf5f 233e ac6e f0bf 84ef 6d3f
00000140: d94b 043f 5ac1 c03f 2b3f 843f 6a08 0c3f
00000150: e543 d6be 082a 9f3f b29d 47be 9c64 8dbf
00000160: 6b36 28bf 25ed be3f 80b8 04c0 3193 c1bf
00000170: d8c0 1340 495b ab3e b331 00bf c6c1 8a3b
00000180: ed8a ecbf 30ad 903f 4a26 5f3f e1c5 c3bf
00000190: 758f b43f 63eb ef3f 058d 12bf 5339 d7be
000001a0: 5c92 78bf 1557 f53f 48a7 4d3f 7206 b93e
000001b0: d1d7 92bf 89d4 0f40 3dd7 0740 100a 133f
000001c0: d929 e5bf e6be e13f 3fb0 cc3f 03b5 42bf
000001d0: 95d6 0fbf 85c4 b9bf 980c 893f d1d7 563f
000001e0: e779 53be bcbb 96bd 6be5 abbe 1ecb 553f
000001f0: 0729 103f 4e7d 023f a022 1ebe a955 66bf
00000200: 7517 3e3f 9282 163e 8e2f 293e faba 5d3f
00000210: f283 8ebf f036 763f 84bb a7be c008 f93e
00000220: 6e62 58bf cb21 2abe 0f2d 3fbe 199c 21bf
00000230: 605c af3f aa65 b83e c9d5 8fbf a747 7e3f
00000240: ae3b 01c0 5954 bebf 4fcc debe 7012 47bd
00000250: 898e 803e ef15 a13f 2db6 34be a8b6 1e3f
00000260: 62dc a93f 3f0f adbf df63 babe 47cc a5bf
00000270: 9b17 73bf b326 ebbf 7210 be3f e981 2d3f
00000280: 3c22 a3bf 239d 133f 16da 22bf 7bb0 7a3f
00000290: 97cc 3abf 85a1 1b3f fc5b 8d3d af60 0f3f
000002a0: 0c73 8f3f 54a6 ce3f d448 5abf d9b3 0e3f
000002b0: 5fe5 0e3f fc61 4cbf 637b 64be 1472 483e
000002c0: 1be9 113f 7481 c0bf 42ba 66bf f589 013d
000002d0: 8e31 323f ef3b 6abe f054 07bf f0d0 873f
000002e0: 7f35 38bf 9490 9fbf ca21 f83f bca1 ffbe
000002f0: 362f bc3f 0602 df3e 8ad8 70c0 7f57 a03f
00000300: 8e9f a9be 6ab2 a1be 397b 1c3f 50c2 873f
00000310: f2fd f5be 838d 7cbf 4b78 913f ae94 67bf
00000320: 8b73 203f 1adc 79bf 69b4 10c0 8f0b d1bf
00000330: 68c2 1a3e 3c60 0e3f aeb8 13bf fc1e 0540
00000340: 4cbd 89bf 8c76 e23c d145 a03f fe84 9c3f
00000350: df3a 0f3d 1791 76bf 5782 0e3f 560e 003c
00000360: 0ca4 3ebf 1d4f d8be 4560 edbe 7947 003f
00000370: c2f7 453f 7cdd d93f 5cff 263f f37e 2cbf
00000380: bec1 6f3e d67d 52bf 85f4 b9bf fb2c 6b3f
00000390: 2f0a 9fbf 579c 85be 4858 20bf e20e 8ebf
000003a0: 8b6b 3fc0 9e4c 87bd 9d9c e63e 2945 6c3f
000003b0: 2888 aa3f c548 193e c906 893f e47f 9fbf
000003c0: 626a 003e cb82 a9bf 2452 8d3f 744d b43f
000003d0: 093c 9a3e 4516 1340 bac7 59be cee0 25bf
000003e0: 8e84 8d3e 9093 acbf 86b4 1340 277b 233f
000003f0: 3226 133f e2cd 643e 5a9a b13f 47ae 1a40

embed_cp.weight f4 [620, 6]
0.0 0.0 0.0 0.0 0.0 0.0 0.8760654 -0.42631784
-0.9253618 1.021271 1.3053567 0.7543418 -0.7465846 0.6410533 0.033075046 0.93507904
-1.420416 -0.4021683 -0.5642125 -1.2580193 0.9402642 1.0496529 -0.766932 1.4062864
-0.3746681 1.0561348 -0.6710705 -0.13087928 -0.15621959 -0.63533443 0.89790595 0.42904252
-0.5600728 1.466055 1.1403397 0.34368318 1.0236108 0.8634196 0.23708615 -1.9917985
-0.3098272 -0.7118724 -0.4362206 0.21611544 0.6488916 0.20708175 0.5383385 -1.6928355
0.3926483 0.8129563 -0.22832349 1.6265557 -0.39342812 -0.6565259 -1.4987726 0.057534736
-1.3360795 -0.30053377 -0.08426664 0.5262792 -1.4050485 0.9470571 0.7665569 1.9414427
-0.3773784 0.52633345 0.6380859 -0.74236465 0.7488371 -1.2789912 0.2823918 -1.4974457
-0.114107296 0.7281898 -0.2023949 0.308552 0.6848726 -0.8714995 -0.8342667 -2.0809429
-0.63836163 0.8672345 -0.8224884 -0.10659657 -1.4109787 1.232867 -0.100886896 -1.4696875
-0.53389233 1.6893346 1.1238475 0.055541303 0.14215705 -1.8983502 0.02030285 1.7875398
0.7540916 0.26300716 -1.5711432 0.35614872 -0.5434673 -0.23763016 0.15287623 1.8944756
-0.1718031 0.37552157 -0.2854611 1.2934829 -0.28910092 0.6307168 0.0869039 0.697674
0.013239875 -0.49489328 0.41086614 0.14551543 0.9364868 1.0889399 1.1191508 1.307526
0.66736394 -0.7444445 -0.37749696 -1.722225 0.7328817 -1.2945071 1.5076065 -1.1182553
0.42294577 1.6159302 0.83975685 1.0671649 0.08123855 -1.7492499 -1.0058655 -0.5279446
-0.37151212 -0.15190989 0.45645946 0.7672978 1.1183846 0.3539322 1.1034242 1.024074
1.4819583 0.6576181 -0.6328136 0.058512904 0.9892193 -1.8300028 0.70390713 -0.25834587
0.39447325 -0.5257859 -2.4759748 -0.11640573 0.6935724 0.48991922 -1.7780691 0.45768246
-0.09663128 0.26870915 0.48003003 0.48947132 0.70769703 -0.752388 1.0716131 -0.38338357
0.26921418 0.91360444 0.19771391 -0.23921867 -0.07307028 -0.18175216 -2.0526545 0.1294277
-0.31278944 0.84594125 1.2567992 0.8766662 -0.09021101 0.43461642 2.0488508 0.7427188
-0.5450791 1.3581538 -1.1440687 0.41398844 0.9838921 0.8022458 -0.40550968 0.48879358
1.2405366 0.5488033 0.18833329 1.1634308 -0.6219456 -0.81971306 0.3539186 0.33243564
-0.15071853 1.1244048 0.016146017 1.256252 1.7707167 -0.72022617 0.68336385 -1.1752623
0.051557135 -1.8850553 -1.3447067 -2.7137566 -0.63198346 0.6670029 -0.7429184 -0.35355267
0.67991126 0.47760007 0.21096341 -0.1158158 -1.7487303 -0.12530379 1.0452147 -0.30025172
0.47699058 0.5040793 -0.08221275 -0.7828897 -0.41656032 0.38714656 -0.22504652 1.2181133
0.32430983 -0.50841 0.399045 1.3641518 -0.702377 1.9066949 0.4857028 -2.7953777
0.12111292 0.7139562 -0.4184921 -0.11065252 -0.28300923 1.5884199 0.61338234 0.8021107
-0.22489923 0.11147573 -1.4914181 -0.5512794 1.1558594 1.9294096 -2.4059865 0.34421363
00000000: 0000 0000 0000 0000 0000 0000 0000 0000
00000010: 0000 0000 0000 0000 d245 603f 5546 dabe
00000020: 83e4 6cbf 02b9 823f ee15 a73f 8b1c 413f
00000030: 2b20 3fbf 121c 243f b379 073d 5761 6f3f
00000040: 31d0 b5bf 01e9 cdbe 3b70 10bf c706 a1bf
00000050: 28b5 703f 075b 863f a855 44bf 3101 b43f
00000060: 7fd4 bfbe 6d2f 873f 47cb 2bbf 3805 06be
00000070: 07f8 1fbe 47a5 22bf 2add 653f 76ab db3e
00000080: ee60 0fbf b1a7 bb3f a7f6 913f 3ef7 af3e
00000090: ae05 833f 1109 5d3f b6c6 723e 41f3 febf
000000a0: aca1 9ebe 453d 36bf 4e58 dfbe 5e4d 5d3e
000000b0: c31d 263f 3d0d 543e 8dd0 093f d5ae d8bf
000000c0: 3309 c93e e71d 503f a2cd 69be fa32 d03f
000000d0: 696f c9be 1512 28bf c8d7 bfbf 8ba9 6b3d
000000e0: a704 abbf 90df 99be fd93 acbd 3cba 063f
000000f0: a1d8 b3bf 5672 723f 133d 443f 3281 f83f
00000100: be37 c1be cabd 063f 9959 233f 9c0b 3ebf
00000110: cab3 3f3f fcb5 a3bf a895 903e 4dac bfbf
00000120: 16b1 e9bd a66a 3a3f 9c40 4fbe 87fa 9d3e
00000130: d053 2f3f 971a 5fbf 8192 55bf 2b2e 05c0
00000140: ab6b 23bf 1503 5e3f 9a8e 52bf 4d4f dabd
00000150: f39a b4bf 96ce 9d3f ca9d cebd b81e bcbf
00000160: 2bad 08bf 1e3c d83f 3cda 8f3f 477f 633d
00000170: 9e91 113e 24fd f2bf 2a52 a63c 1bce e43f
00000180: 260c 413f e0a8 863e 381b c9bf 2059 b63e
00000190: ac20 0bbf 5255 73be 968b 1c3e 2d7e f23f
000001a0: 27ed 2fbe 5d44 c03e f527 92be d990 a53f
000001b0: 0905 94be a876 213f acfa b13d c39a 323f
000001c0: 10ec 583c a762 fdbe 0c5d d23e ff01 153e
000001d0: 99bd 6f3f 6262 8b3f 5540 8f3f 035d a73f
000001e0: 5dd8 2a3f ea93 3ebf 4847 c1be de71 dcbf
000001f0: 239e 3b3f 69b2 a5bf 40f9 c03f fd22 8fbf
00000200: 598c d83e cdd6 ce3f 4efa 563f dc98 883f
00000210: 6660 a63d 6ce7 dfbf 33c0 80bf 6127 07bf
00000220: d636 bebe 448e 1bbe 0eb5 e93e a16d 443f
00000230: 3a27 8f3f 9a36 b53e 013d 8d3f db14 833f
00000240: cfb0 bd3f a959 283f 1200 22bf 3aab 6f3d
00000250: 7a3d 7d3f 883d eabf 4233 343f e945 84be
00000260: 66f8 c93e e899 06bf 5f76 1ec0 2166 eebd
00000270: f68d 313f b1d6 fa3e c597 e3bf 5b55 ea3e
00000280: 9fe6 c5bd 3f94 893e 7fc6 f53e fc9b fa3e
00000290: a22b 353f 809c 40bf 9e2a 893f da4a c4be
000002a0: 71d6 893e fbe1 693f 8475 4a3e bdf5 74be
000002b0: dfa5 95bd 3d1d 3abe b15e 03c0 b288 043e
000002c0: f025 a0be 9b8f 583f ccde a03f 326d 603f
000002d0: 8dc0 b8bd 0b86 de3e 5f20 0340 d222 3e3f
000002e0: 4e8a 0bbf fcd7 ad3f d870 92bf 4bf6 d33e
000002f0: 5ae0 7b3f fb5f 4d3f f79e cfbe 2743 fa3e
00000300: e7c9 9e3f 607e 0c3f 71da 403e 4deb 943f
00000310: d437 1fbf b7d8 51bf d234 b53e 0135 aa3e
00000320: f555 1abe 7fec 8f3f a744 843c decc a03f
00000330: d8a6 e23f be60 38bf eff0 2e3f ff6e 96bf
00000340: 932d 533d 7e49 f1bf 591f acbf 30ae 2dc0
00000350: abc9 21bf b4c0 2a3f e62f 3ebf db04 b5be
00000360: aa0e 2e3f ff87 f43e cb06 583e d630 edbd
00000370: 65d6 dfbf a34f 00be 98c9 853f 98ba 99be
00000380: 1c38 f43e 570b 013f 295f a8bd 766b 48bf
00000390: 6547 d5be 1338 c63e 9872 66be 23eb 9b3f
000003a0: f00b a63e 2827 02bf a04f cc3e 879c ae3f
000003b0: fbce 33bf 940e f43f 0aae f83e 78e7 32c0
000003c0: 0d0a f83d d5c5 363f 9944 d6be ca9d e2bd
000003d0: 96e6 90be 5851 cb3f a006 1d3f 2057 4d3f
000003e0: fc4b 66be 634d e43d cae6 bebf a620 0dbf
000003f0: 33f3 933f e5f6 f63f affb 19c0 c53c b03e

gru_dp_fw.decays f4 [7]
-9.186886e+34 -0.004715109 -9.186886e+34 -0.0047230753 -0.005947508 -0.0058792555 -0.005117104
00000000: e08b 8df9 3381 9abb e08b 8df9 07c4 9abb
00000010: 50e3 c2bb c5a6 c0bb 61ad a7bb

gru_dp_fw.gru_cell.weight_ih f4 [21, 7]
0.07593044 0.58165133 0.13896786 0.26862726 -0.05799209 -0.06801494 -0.017646557 0.01716109
-0.20158757 -0.28575492 -0.0034797622 -0.32596415 -0.053510983 0.17420574 -0.06743599 0.27496126
-0.28512537 0.011917103 0.09244802 -0.22777787 -0.2692407 0.06100527 -0.06685362 0.059502523
-0.1385707 0.08893265 0.030069508 -0.13740732 -0.24250779 0.2658463 0.18440072 -0.011640761
-0.07541352 0.31216487 0.11281731 0.026076993 -0.18806425 -0.11718467 -0.13218585 -0.12690856
0.23512691 0.107374795 -0.14181378 -0.05761049 0.22791477 0.14670022 0.103771575 0.4129602
-0.25406885 0.5038759 -0.17852437 0.23854144 0.1350371 -0.073603354 -0.004513133 -0.071628034
0.25229365 0.03422688 0.21608508 0.22986944 0.008094713 0.1668866 0.061007734 -0.0053735934
-0.40704882 0.29633728 -0.2085757 0.009803615 0.0042213323 -0.22345753 -0.2804733 -0.23701869
-0.24930239 0.3740781 0.18732654 0.19983734 0.2502137 -0.051730353 -0.2621508 0.03532065
-0.08789973 0.26220512 -0.18951692 -0.07287885 -0.05273619 0.48328257 -0.3625342 -0.03000798
-0.16911225 -0.20265068 0.33421597 -0.40717992 0.08421649 0.31236857 0.16435343 0.21192156
-0.33601698 -0.0865988 0.263864 0.1391974 0.15650561 0.15743797 -0.1943107 -0.055480883
-0.15477219 -0.34299216 -0.21037352 -0.04113302 -0.07976828 0.15759529 -0.0024108973 -0.13093379
-0.27985388 0.28804892 -0.24170905 -0.18322086 0.23219827 0.13328484 0.14929299 -0.02210953
0.02209518 -0.03943349 -0.17409135 -0.20786098 0.08105809 -0.11511004 -0.030366538 0.09144459
-0.02166752 0.06082463 0.14025606 0.023353174 0.093374416 -0.09057413 -0.1530454 -0.014359877
-0.10150461 0.15682021 0.14475617 -0.17606525 -0.26454005 -0.061696663 0.36980402 0.16505496
0.1250374 -0.0126607055 -0.3270636
00000000: 6b81 9b3d 1ae7 143f 974d 0e3e 8389 893e
00000010: 1d89 6dbd 6b4b 8bbd 838f 90bc 6a95 8c3c
00000020: f96c 4ebe 784e 92be b90c 64bb c6e4 a6be
00000030: 552e 5bbd fd62 323e e11b 8abd b9c7 8c3e
00000040: f4fb 91be f43f 433c 6355 bd3d 9a3e 69be
00000050: ebd9 89be a9e0 793d 8dea 88bd ebb8 733d
00000060: 7ae5 0dbe 5222 b63d 5454 f63c 81b4 0cbe
00000070: f653 78be 021d 883e 8bd3 3c3e e4b8 3ebc
00000080: 6772 9abd 13d4 9f3e c30c e73d 6b9f d53c
00000090: ea93 40be 84fe efbd ba5b 07be 51f4 01be
000000a0: 1cc5 703e 51e7 db3d a237 11be faf8 6bbd
000000b0: 7d62 693e 9538 163e 3186 d43d 856f d33e
000000c0: 5015 82be 03fe 003f 18cf 36be 3544 743e
000000d0: 2a47 0a3e 5bbd 96bd e7e2 93bb b8b1 92bd
000000e0: a22c 813e 7c31 0c3d 6845 5d3e e562 6b3e
000000f0: b09f 043c 52e4 2a3e 3fe3 793d f814 b0bb
00000100: b468 d0be 85b9 973e de94 55be 579f 203c
00000110: 1a53 8a3b 0dd2 64be 329a 8fbe 07b5 72be
00000120: 2049 7fbe 2a87 bf3e 87d2 3f3e 29a2 4c3e
00000130: 031c 803e 35e3 53bd a138 86be 63ac 103d
00000140: c604 b4bd c03f 863e b910 42be 8241 95bd
00000150: e701 58bd d070 f73e 159e b9be 4cd3 f5bc
00000160: c32b 2dbe a983 4fbe 5b1e ab3e e379 d0be
00000170: b279 ac3d c6ee 9f3e 444c 283e f701 593e
00000180: 6b0a acbe b65a b1bd 2f19 873e c389 0e3e
00000190: 0243 203e 6b37 213e 62f9 46be ec3f 63bd
000001a0: 9a7c 1ebe ab9c afbe 286c 57be 197b 28bd
000001b0: 8d5d a3bd a960 213e 2500 1ebb 8213 06be
000001c0: 0249 8fbe 267b 933e 9482 77be 409e 3bbe
000001d0: 62c5 6d3e d27b 083e 43e0 183e 0c1f b5bc
000001e0: f300 b53c 0385 21bd 0145 32be 82d9 54be
000001f0: c901 a63d d0be ebbd 3fc3 f8bc 4d47 bb3d
00000200: 1580 b1bc 3f23 793d 499f 0f3e 284f bf3c
00000210: 163b bf3d ee7e b9bd efb7 1cbe b145 6bbc
00000220: a6e1 cfbd 7a95 203e f63a 143e 734a 34be
00000230: cb71 87be a4b5 7cbd f456 bd3e 2b04 293e
00000240: ce09 003e d96e 4fbc e174 a7be

gru_dp_fw.gru_cell.weight_hh f4 [21, 7]
-0.28401047 0.39602166 0.7474757 -0.37092695 0.51541257 -0.30109504 -0.8087171 -0.16529968
-0.18507518 0.5544095 -0.38874662 -0.34385633 -0.7037368 -0.34703144 -0.2701284 0.2809128
0.4212865 0.28250185 0.34286183 0.1013549 -0.14983846 -0.28041795 0.26152492 0.30577227
-0.06700693 0.2116739 0.049326535 -0.14121167 -0.16188452 0.49191377 0.2697549 0.2762361
0.30014032 0.18201204 -0.27043614 -0.5767533 -0.19891357 0.2226361 -0.27308393 0.46362478
0.081822686 -0.08075641 -0.7172905 0.050674614 0.3991171 -0.11568866 0.19442227 0.3093882
-0.5008077 -0.55142367 0.39624393 0.2958637 -0.102616936 0.57837284 0.18305291 0.098963775
-0.060018577 -0.1416756 -0.28790623 -0.056266353 -0.36712223 -0.15672193 0.01907999 0.49392402
0.3254284 0.11742609 0.22318457 0.49457356 0.43609828 0.47457698 -0.109271176 0.26690003
-0.3336847 -0.41880646 0.22724737 0.13887423 0.5527937 0.54769707 -0.027718892 -0.25491187
-0.10918708 -0.0125498725 -0.35451084 0.23109151 0.031691793 -0.14827818 0.18411852 0.25046608
-0.084517576 0.19402853 0.54928315 -0.59419996 0.0955811 0.5226182 -0.19809537 0.4156894
-0.39781135 0.07720136 0.64001304 0.09898215 -0.13914037 0.3643455 -0.24670157 0.19147475
0.7502961 0.4918506 -0.17665362 0.1768034 0.6619008 0.22935945 0.10590243 0.30601874
0.047003023 0.38307393 -0.16395272 0.40138906 0.7590894 0.41574192 -0.00434207 0.34704423
0.09099937 -0.4638345 0.10378163 0.36009791 0.5680785 0.4252804 0.70291615 0.31034127
-0.35358125 0.6687322 0.090200484 0.54368067 0.03917129 0.5164597 0.22120166 -0.12102648
0.16257803 0.2755377 0.3168371 0.60327655 0.71407324 -0.17928915 -0.40408382 0.10711339
-0.09222534 0.28953892 0.33660707
00000000: d269 91be 5ac3 ca3e 915a 3f3f 23ea bdbe
00000010: 14f2 033f 2129 9abe 1508 4fbf 5244 29be
00000020: 5984 3dbe c8ed 0d3f cc09 c7be f00d b0be
00000030: 1828 34bf 1bae b1be 454e 8abe cdd3 8f3e
00000040: ddb2 d73e 15a4 903e 968b af3e 2893 cf3d
00000050: 416f 19be f192 8fbe 98e6 853e 2f8e 9c3e
00000060: ee3a 89bd 0bc1 583e 9f0a 4a3d cb99 10be
00000070: 0ec5 25be 1fdc fb3e 501d 8a3e d16e 8d3e
00000080: feab 993e 5d61 3a3e 9b76 8abe 1ba6 13bf
00000090: 00b0 4bbe b8fa 633e a8d1 8bbe 3a60 ed3e
000000a0: a792 a73d 9e63 a5bd 5aa0 37bf 2f90 4f3d
000000b0: 1459 cc3e 2dee ecbd a216 473e 2168 9e3e
000000c0: ef34 00bf 1a2a 0dbf 7ce0 ca3e 727b 973e
000000d0: d428 d2bd 3e10 143f 3972 3b3e 85ad ca3d
000000e0: 0ad6 75bd 6913 11be 7268 93be 8c77 66bd
000000f0: 72f7 bbbe b77b 20be a44d 9c3c 9ce3 fc3e
00000100: 8d9e a63e 177d f03d 7f8a 643e bf38 fd3e
00000110: 4648 df3e c1fb f23e 91c9 dfbd 1fa7 883e
00000120: b9d8 aabe cd6d d6be 89b3 683e 0c35 0e3e
00000130: e383 0d3f e035 0c3f bb12 e3bc cf83 82be
00000140: 7a9d dfbd fb9d 4dbc 7282 b5be 41a3 6c3e
00000150: 41cf 013d 3cd6 17be 9189 3c3e 173d 803e
00000160: 8d17 adbd 6aaf 463e d29d 0c3f 7d1d 18bf
00000170: 06c0 c33d 4eca 053f 83d9 4abe 3ed5 d43e
00000180: eead cbbe bf1b 9e3d e5d7 233f 27b7 ca3d
00000190: d07a 0ebe 7e8b ba3e 569f 7cbe f511 443e
000001a0: 6813 403f d8d3 fb3e b0e4 34be f30b 353e
000001b0: 5572 293f 34dd 6a3e 60e3 d83d 7dae 9c3e
000001c0: 3e86 403d 4422 c43e 39e3 27be de82 cd3e
000001d0: af53 423f 20dc d43e ec47 8ebb c8af b13e
000001e0: e15d ba3d b77b edbe 778b d43d c15e b83e
000001f0: 986d 113f 5abe d93e 50f2 333f 0de5 9e3e
00000200: 9a08 b5be 0932 2b3f 08bb b83d a82e 0b3f
00000210: 1372 203d b436 043f b082 623e bbdc f7bd
00000220: db7a 263e 4713 8d3e 7938 a23e 5570 1a3f
00000230: 81cd 363f 9397 37be 13e4 cebe 445e db3d
00000240: a4e0 bcbd 723e 943e c357 ac3e

gru_dp_fw.gru_cell.bias_ih f4 [21]
0.40149394 -0.06703765 0.38526165 0.76179516 0.3672057 0.17434771 0.78932196 0.7947711
0.013701467 0.016986473 -0.38388965 -0.92305773 0.037673533 0.6494871 -0.25810543 0.4148512
0.032733303 0.15286687 0.3587096 0.47891724 -0.3526043
00000000: 9d90 cd3e 094b 89bd 0441 c53e 0205 433f
00000010: 6302 bc3e 3588 323e 0111 4a3f 1e76 4b3f
00000020: 1e7c 603c 3727 8b3c 2f8d c4be 834d 6cbf
00000030: 904f 1a3d c944 263f 6526 84be 6067 d43e
00000040: 5b13 063d 2289 1c3e c9a8 b73e a434 f53e
00000050: 8d88 b4be

gru_dp_fw.gru_cell.bias_hh f4 [21]
0.27483875 -0.097257346 0.33641225 0.8307281 0.9185698 0.1871645 0.14925165 0.6488869
-0.36029467 -0.28052604 -0.14017773 -0.7835873 -0.33307466 0.86518 -0.49967486 -0.27182445
0.2812086 0.053014737 0.43366903 -0.16289853 -0.0482466
00000000: aab7 8c3e dc2e c7bd 3a3e ac3e 99aa 543f
00000010: 6427 6b3f 0da8 3f3e 6dd5 183e 741d 263f
00000020: 8b78 b8be 1ca1 8fbe c08a 0fbe 2d99 48bf
00000030: c388 aabe 707c 5d3f 62d5 ffbe 932c 8bbe
00000040: 93fa 8f3e fb25 593d de09 de3e dfce 26be
00000050: 3a9e 45bd

gru_cp_fw.decays f4 [6]
-0.006801792 -0.0035908057 -0.007938737 -0.002719837 -0.0018441034 -0.005803873
00000000: 91e1 debb b953 6bbb 7a11 02bc 4b3f 32bb
00000010: d8b5 f1ba 6a2e bebb

gru_cp_fw.gru_cell.weight_ih f4 [18, 6]
0.27605513 0.287338 0.16104393 0.14407699 0.14239937 -0.034700956 -0.33272985 0.36418134
0.15174104 0.04142428 0.44244474 0.06233345 -0.03420286 -0.024041206 -0.122326404 0.22947654
-0.07012469 -0.25548768 0.11738405 0.30861932 0.1365492 -0.0308716 -0.022216525 -0.5988369
-0.05394102 0.5450702 -0.2996925 0.42600882 0.2195785 0.08487212 -0.01795009 0.429004
-0.33578113 -0.28610456 0.002941379 0.24660054 0.15830468 0.16615805 0.43842825 -0.003264107
0.2615749 -0.20693007 0.16842397 0.19638671 -0.35437047 -0.1968754 0.5149907 0.09071494
0.29509342 -0.080656946 0.027953962 0.1845733 0.47056887 0.042177707 0.051783018 -0.081787206
-0.1026788 0.42213744 0.5489426 0.44008356 0.37182656 -0.20546976 0.15815674 -0.35849434
-0.38513696 0.0071697067 -0.06769839 0.20581867 0.29799864 -0.23368154 0.46837533 -0.13360277
0.051267467 0.20480654 0.2734589 -0.25420472 0.031437267 0.2080159 -0.02623586 0.202991
-0.13596651 0.3030694 0.10281201 0.3541001 0.2774037 -0.021272423 0.17909083 -0.33535117
-0.20688824 -0.46322793 0.5231233 -0.16643721 0.34477165 0.1316365 -0.10189003 -0.31526121
0.04222346 0.06312303 0.10853425 0.12702186 -0.6364963 0.14572228 -0.08884794 0.21419722
0.15556987 -0.27017945 0.3235543 -0.108154394
00000000: 1957 8d3e f71d 933e b3e8 243e eb88 133e
00000010: 24d1 113e 9722 0ebd 915b aabe fa75 ba3e
00000020: 0162 1b3e 81ac 293d 1e88 e23e 5c51 7f3d
00000030: 4c18 0cbd 10f2 c4bc 4486 fabd e6fb 6a3e
00000040: 899d 8fbd 48cf 82be 0c67 f03d 5a03 9e3e
00000050: 8ed3 0b3e 70e6 fcbc 6eff b5bc 604d 19bf
00000060: 42f1 5cbd b889 0b3f 4c71 99be d41d da3e
00000070: 30d9 603e 6fd1 ad3d 110c 93bc 6aa6 db3e
00000080: 81eb abbe 4c7c 92be 27c4 403b da84 7c3e
00000090: 9f1a 223e 5625 2a3e ab79 e03e a1ea 55bb
000000a0: 25ed 853e 7ae5 53be 5577 2c3e 9919 493e
000000b0: 0c70 b5be b499 49be 6ed6 033f c1c8 b93d
000000c0: 7c16 973e 782f a5bd b5ff e43c c800 3d3e
000000d0: 67ee f03e 88c2 2c3d 6e1a 543d 0d80 a7bd
000000e0: 4349 d2bd 6622 d83e 8187 0c3f a252 e13e
000000f0: 0d60 be3e aa66 52be d7f3 213e 928c b7be
00000100: ac30 c5be dcef ea3b 74a5 8abd 21c2 523e
00000110: 4793 983e 374a 6fbe e4ce ef3e 2acf 08be
00000120: d6fd 513d ceb8 513e ce02 8c3e 1f27 82be
00000130: 5dc4 003d 1f02 553e 96ec d6bc dfdc 4f3e
00000140: ce3a 0bbe ea2b 9b3e 1a8f d23d 9c4c b53e
00000150: dc07 8e3e 8143 aebc 9663 373e 26b3 abbe
00000160: 83da 53be 362c edbe 69eb 053f 846e 2abe
00000170: e985 b03e b8cb 063e b8ab d0bd eb69 a1be
00000180: 82f2 2c3d a646 813d 3447 de3d 0512 023e
00000190: 6cf1 22bf 3938 153e e9f5 b5bd 8456 5b3e
000001a0: b54d 1f3e f654 8abe e9a8 a53e 0d80 ddbd

gru_cp_fw.gru_cell.weight_hh f4 [18, 6]
-0.7175707 -0.37600762 -0.52420735 0.50795364 -0.10920815 -0.21277139 0.27781624 0.3023756
-0.23859003 0.029641896 0.2273716 -0.36694673 -0.16675834 0.12406406 -0.34672165 -0.37830976
-0.14195392 -0.045989677 -0.14368883 -0.7433669 -0.16448916 0.12735267 -0.08206933 -0.46455926
-0.4435971 -0.42835286 -0.48799536 0.14673994 -0.3820447 -0.3841874 -0.33500612 -0.21304885
-0.010820548 -0.0012242697 -0.37426046 -0.13614678 0.1524271 -0.20130983 -0.062223233 0.37431607
-0.559089 -0.52900714 -0.66235775 0.38944316 -0.46289098 0.3176916 0.063496724 -0.8163572
-0.05075822 0.4540633 0.19919422 0.097443655 0.28575727 0.07308173 0.22652161 -0.2638748
0.33332297 -0.1882914 -0.066906705 -0.20515682 -0.4807684 -0.05138732 -0.61899734 0.42693898
0.020370558 -0.15182781 -0.20184031 0.5530636 -0.03711921 -0.12975998 0.24014151 -0.14836591
0.52788174 0.12569025 0.27997464 -0.6190312 0.67391616 0.40334073 0.22577089 0.6965448
-0.061798256 -0.32082462 0.18226233 0.14865401 -0.083264634 -0.16188765 0.2865237 0.4624636
-0.095332384 0.20360559 -0.35515672 -0.6091344 -0.038060635 0.11820019 -0.34280667 -0.17378195
0.66147053 0.18303278 0.050240725 -0.4724628 0.25593144 0.11892963 0.39806435 -0.23452964
0.018120844 -0.38403845 -0.024750572 0.19867994
00000000: b7b2 37bf 1284 c0be 7432 06bf 4009 023f
00000010: 86a8 dfbd bee0 59be ee3d 8e3e fad0 9a3e
00000020: f250 74be 90d3 f23c 1ad4 683e 71e0 bbbe
00000030: b3c2 2abe 4c15 fe3d 8085 b1be d1b1 c1be
00000040: 5e5c 11be ac5f 3cbd 2a23 13be 4b4d 3ebf
00000050: d96f 28be bd68 023e f713 a8bd b6da edbe
00000060: 291f e3be 1151 dbbe 87da f9be ff42 163e
00000070: 5d9b c3be 36b4 c4be ec85 abbe 7a29 5abe
00000080: ab48 31bc ad77 a0ba 119f bfbe 106a 0bbe
00000090: da15 1c3e 2a24 4ebe cadd 7ebd 5ba6 bf3e
000000a0: 7520 0fbf 036d 07bf 4790 29bf 1865 c73e
000000b0: 0c00 edbe 79a8 a23e 920a 823d c9fc 50bf
000000c0: dae7 4fbd fc7a e83e 92f9 4b3e 8a90 c73d
000000d0: c74e 923e e0ab 953d 48f5 673e 991a 87be
000000e0: 4fa9 aa3e 76cf 40be 6206 89bd a114 52be
000000f0: 4727 f6be 837b 52bd 9c76 1ebf bf97 da3e
00000100: 28e0 a63c c078 1bbe 3aaf 4ebe 9395 0d3f
00000110: 500a 18bd cddf 04be a8e7 753e 3ced 17be
00000120: 4223 073f f2b4 003e d658 8f3e d478 1ebf
00000130: c585 2c3f ad82 ce3e 7c30 673e c350 323f
00000140: 2b20 7dbd 2043 a4be faa2 3a3e c238 183e
00000150: a686 aabd e0c5 25be 3cb3 923e 07c8 ec3e
00000160: a03d c3bd fc7d 503e 1ad7 b5be 3bf0 1bbf
00000170: 78e5 1bbd f112 f23d 5b84 afbe e5f3 31be
00000180: 2256 293f f26c 3b3e 38c9 4d3d a5e6 f1be
00000190: 7209 833e 6191 f33d 17cf cb3e 8a28 70be
000001a0: 2a72 943c b0a0 c4be b6c1 cabc c172 4b3e

gru_cp_fw.gru_cell.bias_ih f4 [18]
0.38921186 0.55323714 0.067722276 -0.19885342 -0.022800364 -0.31551942 0.37293988 0.10030269
0.46578676 0.23653904 0.3995418 0.40154412 -0.042353347 -0.04838823 -0.28842744 -0.040210776
0.210176 -0.39891535
00000000: c746 c73e f3a0 0d3f fab1 8a3d 3ba0 4bbe
00000010: d4c7 babc c38b a1be faf1 be3e 7f6b cd3d
00000020: 9a7b ee3e 4a37 723e be90 cc3e 3197 cd3e
00000030: b47a 2dbd bd32 46bd c3ac 93be 0eb4 24bd
00000040: 6138 573e a23e ccbe

gru_cp_fw.gru_cell.bias_hh f4 [18]
0.3973363 0.5524349 0.16300024 0.3797541 0.5302704 0.4180554 0.16422445 0.33208495
-0.10197735 0.62988764 -0.15222162 0.6720587 -0.22210996 0.2535294 -0.32308736 0.3887219
0.077262364 0.060728017
00000000: aa6f cb3e 606c 0d3f 89e9 263e 216f c23e
00000010: cdbf 073f 5b0b d63e 742a 283e 0a07 aa3e
00000020: 80d9 d0bd 5140 213f fcdf 1bbe 0a0c 2c3f
00000030: cb70 63be 9bce 813e b56b a5be 8f06 c73e
00000040: bb3b 9e3d f1bd 783d

gru_dp_bw.decays f4 [7]
-0.0059695537 8.119327e+32 -0.0034015418 2.679964e+20 -0.005885593 7.7455215e+26 -0.0064016995
00000000: 3f9c c3bb 2020 2076 67ec 5ebb 2873 6861
00000010: efdb c0bb 732c 206c 59c5 d1bb

gru_dp_bw.gru_cell.weight_ih f4 [21, 7]
-0.35217154 -0.028315512 -0.00380698 -0.3011169 0.4504189 0.4843788 -0.12196548 -0.07333055
0.19454905 -0.24288931 0.2852864 -0.3148407 -0.057348564 0.0555793 0.25878307 0.35712415
0.3922023 0.04648217 -0.107604034 0.1705277 0.0690714 0.48774654 0.2480622 -0.27591506
0.06499327 0.42312324 0.3942859 0.11265899 -0.007311702 -0.24066794 -0.62275475 -0.073763
0.057328798 -0.5087238 0.077309296 -0.14803492 -0.29446602 -0.028817842 -0.32309777 -0.38999596
0.04790093 -0.46278894 0.14158279 0.05595884 0.3610259 -0.008749097 0.07393465 0.38347852
0.24516156 -0.040661555 0.30140224 -0.28503892 -0.109566726 -0.025545591 0.008478018 0.13250455
0.08921106 0.25909132 -0.10922518 0.03766993 0.13957793 -0.03446729 -0.15768215 -0.36552322
0.09943457 -0.05915277 -0.4307726 -0.4026838 0.07468917 -0.14317572 0.21428432 -0.13106029
0.49023893 -0.08760585 0.080870785 0.39246818 0.11680322 0.04188912 0.309182 0.34544688
-0.034995742 0.3207702 0.25256142 -0.38415402 -0.105192974 0.107241906 0.020085119 0.0052730395
-0.30241078 0.1420853 -0.10220886 0.34980276 -0.25450787 -0.2848298 -0.10555524 -0.18398984
-0.021546839 0.35960126 -0.27784184 -0.36680588 -0.1427117 -0.21029268 0.35674825 0.21109858
-0.3514421 -0.033763546 -0.17287327 -0.081202224 -0.042708855 0.20949791 0.1747462 -0.49661064
-0.27154619 0.22653411 -0.008989092 -0.13322549 -0.40890914 -0.13791831 0.4499785 -0.36649257
-0.09602834 -0.37324017 -0.23451956 -0.14293185 -0.3394942 0.41169724 -0.045694027 -0.048996694
-0.59487975 0.013741946 -0.112670824 0.13322559 0.2265305 -0.4024473 -0.5256233 0.092960976
0.08731845 -0.08752256 0.16239701 0.017858336 -0.23801287 -0.10754871 0.07143582 0.13874473
-0.32474616 -0.36152437 -0.022779588
00000000: d44f b4be eff5 e7bc 877e 79bb ff2b 9abe
00000010: 4e9d e63e 8000 f83e 0ac9 f9bd 542e 96bd
00000020: de37 473e fab7 78be 0f11 923e cd32 a1be
00000030: 54e6 6abd 1fa7 633d 377f 843e fad8 b63e
00000040: bdce c83e 1664 3e3d 815f dcbd d09e 2e3e
00000050: 4e75 8d3d eab9 f93e 0404 7e3e bd44 8dbe
00000060: 311b 853d 9ca3 d83e d7df c93e c2b9 e63d
00000070: 0097 efbb a871 76be db6c 1fbf 0e11 97bd
00000080: 9ad1 6a3d b93b 02bf 5654 9e3d 7796 17be
00000090: 40c4 96be 6513 ecbc 126d a5be 8dad c7be
000000a0: c433 443d acf2 ecbe 14fb 103e 1935 653d
000000b0: 63d8 b83e 5f58 0fbc 0d6b 973d 4c57 c43e
000000c0: a20b 7b3e bb8c 26bd 6551 9a3e 9ff0 91be
000000d0: 8564 e0bd fd44 d1bc 63e7 0a3c 46af 073e
000000e0: 4ab4 b63d 9ea7 843e 73b1 dfbd c94b 1a3d
000000f0: 84ed 0e3e 932d 0dbd 6e77 21be dc25 bbbe
00000100: 5aa4 cb3d 2d4a 72bd 3a8e dcbe 922c cebe
00000110: a3f6 983d a89c 12be 596d 5b3e ab34 06be
00000120: 9900 fb3e b26a b3bd 959f a53d 97f1 c83e
00000130: 8736 ef3d ed93 2b3d 1a4d 9e3e 6ade b03e
00000140: b257 0fbd fe3b a43e bb4f 813e d6af c4be
00000150: 6a6f d7bd a5a1 db3d 8c89 a43c 76c9 ac3b
00000160: 96d5 9abe cf7e 113e e152 d1bd 5919 b33e
00000170: db4e 82be 36d5 91be 582d d8bd d567 3cbe
00000180: ff82 b0bc a81d b83e 4941 8ebe fbcd bbbe
00000190: 0423 12be f756 57be b5a7 b63e 3a2a 583e
000001a0: 38f0 b3be a54b 0abd b105 31be 5a4d a6bd
000001b0: 7bef 2ebd 9f86 563e abf0 323e c043 febe
000001c0: 1a08 8bbe 8ff8 673e fc46 13bc 436c 08be
000001d0: 8a5c d1be 753a 0dbe 9563 e63e eaa4 bbbe
000001e0: 82aa c4bd 5619 bfbe e525 70be ba5c 12be
000001f0: 2fd2 adbe fbc9 d23e a929 3bbd c2b0 48bd
00000200: 0a4a 18bf e625 613c f6bf e6bd 4a6c 083e
00000210: 9df7 673e 930d cebe 408f 06bf 5362 be3d
00000220: 04d4 b23d 073f b3bd 674b 263e a54b 923c
00000230: a5b9 73be 8042 dcbd f14c 923d 1913 0e3e
00000240: 2145 a6be b919 b9be 429c babc

gru_dp_bw.gru_cell.weight_hh f4 [21, 7]
0.40431282 0.35173717 -0.10418418 -0.6000655 -0.0688917 -0.09349592 -0.2168507 -0.39629441
-0.0017009041 0.20510688 -0.008388332 0.06336409 0.13916142 0.36371902 0.13918804 0.2756963
0.082649745 -0.33425057 0.025973557 0.07199992 -0.08746725 -0.012142584 -0.16998184 0.30084163
-0.16084713 -0.32028213 0.1833147 -0.5513096 0.10449064 0.32342887 -0.30815008 0.3944586
0.2100392 -0.013770661 0.27569884 0.48169535 -0.33165917 -0.0016511674 -0.35269484 -0.43309167
0.3237123 -0.017339302 -0.019205559 -0.3128962 -0.108373895 -0.7200793 -0.0963566 -0.0041975477
0.022147851 -0.3804509 -0.28570604 0.6634158 0.040789846 0.18563147 -0.48568442 -0.0953313
-0.068692684 -0.41223827 0.28571886 0.1439111 0.083337195 -0.0027331999 -0.344566 0.09243823
0.515661 -0.46535757 -0.6152743 -0.065466434 -0.03753369 0.10793904 0.3113392 0.027490605
0.25107315 0.23251297 -0.04635215 -0.11986995 0.3780334 -0.051780395 -0.10226873 -0.15373321
-0.25929397 0.121658646 0.23362051 -0.2940937 -0.17899917 0.038801596 -0.30371106 -0.29204053
-0.32073182 -0.15194748 -0.34013057 -0.18825933 0.015489154 0.15850051 0.4018605 -0.2573775
0.2718097 0.10351602 0.23889713 0.22964408 0.532609 -0.26365972 -0.35212976 0.43386525
-0.050674643 0.0983215 0.0991612 0.08836518 -0.031901497 0.23746067 0.3034741 -0.29943657
0.35086733 -0.083598025 0.387941 -0.03940172 0.18944846 0.6863829 -0.56807375 -0.5692511
-0.41703635 -0.40326738 -0.049258202 -0.17876518 -0.45483252 0.112803444 0.08774855 0.17530864
0.026795866 -0.46254015 0.31479532 0.48454025 -0.36774454 0.7750763 0.08408207 -0.017962871
-0.29133418 -0.3407694 0.09847933 -0.4255544 -0.7202504 -0.072208904 -0.03364364 0.1659347
0.29181805 -0.65430015 -0.10833579
00000000: 1702 cf3e e516 b43e 845e d5bd e59d 19bf
00000010: 1717 8dbd ca7a bfbd 1c0e 5ebe 1ae7 cabe
00000020: dff0 deba 8a07 523e 376f 09bc 08c5 813d
00000030: 5580 0e3e 6139 ba3e 4f87 0e3e 1128 8d3e
00000040: 4544 a93d e422 abbe 7fc6 d43c b274 933d
00000050: 0822 b3bd b0f1 46bc b80f 2ebe ea07 9a3e
00000060: 1cb5 24be 05fc a3be d9b6 3b3e a022 0dbf
00000070: 30ff d53d 7898 a53e d9c5 9dbe 7af6 c93e
00000080: 8414 573e 579e 61bc 6628 8d3e c6a0 f63e
00000090: 3bcf a9be fc6b d8ba 6b94 b4be 31be ddbe
000000a0: 9ebd a53e 270b 8ebc fa54 9dbc ee33 a0be
000000b0: 22f3 ddbd 1e57 38bf 9c56 c5bd 958b 89bb
000000c0: 696f b53c 76ca c2be 1048 92be 9ed5 293f
000000d0: 4113 273d 2d16 3e3e a1ab f8be 0e3d c3bd
000000e0: c0ae 8cbd e510 d3be be49 923e 6e5d 133e
000000f0: b1ac aa3d 7c1f 33bb f46a b0be 4150 bd3d
00000100: 5c02 043f 5943 eebe 9e82 1dbf 4413 86bd
00000110: edbc 19bd 250f dd3d da67 9f3e fa33 e13c
00000120: a98c 803e e117 6e3e c1db 3dbd 607e f5bd
00000130: 988d c13e ae17 54bd 4572 d1bd 3d6c 1dbe
00000140: 2ec2 84be 2b28 f93d 373a 6f3e 7393 96be
00000150: 8f4b 37be 6cee 1e3d 0480 9bbe 5686 95be
00000160: f636 a4be 1f98 1bbe 9825 aebe 0ec7 40be
00000170: 38c6 7d3c f54d 223e a9c0 cd3e fcc6 83be
00000180: a42a 8b3e 3500 d43d 73a1 743e d127 6b3e
00000190: 1059 083f 68fe 86be 5a4a b4be 9623 de3e
000001a0: 3790 4fbd c85c c93d 0715 cb3d cef8 b43d
000001b0: 25ab 02bd e428 733e f560 9b3e c04f 99be
000001c0: e2a4 b33e 7135 abbd 34a0 c63e b363 21bd
000001d0: c7fe 413e cab6 2f3f 486d 11bf 71ba 11bf
000001e0: ca85 d5be 1079 cebe f8c2 49bd 380e 37be
000001f0: cfdf e8be 7e05 e73d 83b5 b33d 1c84 333e
00000200: 0183 db3c 10d2 ecbe da2c a13e a915 f83e
00000210: 0349 bcbe 676b 463f 3833 ac3d df26 93bc
00000220: c129 95be 5479 aebe 88af c93d 44e2 d9be
00000230: 5562 38bf 43e2 93bd eacd 09bd c9ea 293e
00000240: 2d69 953e 3780 27bf 28df ddbd

gru_dp_bw.gru_cell.bias_ih f4 [21]
0.3979395 0.32920226 0.506454 0.38221666 0.4023784 -0.0036591527 0.21875574 -0.35675845
0.16167265 0.055580672 0.17705056 0.10012348 -0.6292818 -0.11530092 -0.0615652 0.1233796
0.24240912 -0.16171713 -0.24457169 -0.2220361 -0.094092265
00000000: babe cb3e 338d a83e f8a6 013f e7b1 c33e
00000010: 8b04 ce3e 65ce 6fbb 8101 603e 0ba9 b6be
00000020: 848d 253e 8fa8 633d be4c 353e 8a0d cd3d
00000030: 9d18 21bf e422 ecbd cb2b 7cbd 72ae fc3d
00000040: 193a 783e 2d99 25be 0071 7abe 6e5d 63be
00000050: 72b3 c0bd

gru_dp_bw.gru_cell.bias_hh f4 [21]
0.2752027 -0.23152581 -0.062061664 -0.2022338 -0.23999728 0.46865445 0.5085606 0.16079344
-0.26994666 -0.070763834 0.086244985 -0.10584942 0.025875034 -0.023260973 0.13796295 -0.35762691
-0.2214469 -0.109290704 0.12591952 0.41478613 0.1454261
00000000: 5ee7 8c3e 1a15 6dbe 5f34 7ebd 6116 4fbe
00000010: d9c1 75be 7af3 ef3e 0731 023f 09a7 243e
00000020: 7336 8abe a1ec 90bd 36a1 b03d 95c7 d8bd
00000030: e1f7 d33c cc8d bebc 2946 0d3e e01a b7be
00000040: fac2 62be ced3 dfbd 0cf1 003e d95e d43e
00000050: 94ea 143e

gru_cp_bw.decays f4 [6]
7.8899054e+34 7.737667e+34 7.1220753e+28 3.310286e+30 6.977296e+22 -0.005945576
00000000: 6120 7379 6e6f 6e79 6d20 666f 7220 2772
00000010: 6566 6c65 1bd3 c2bb

gru_cp_bw.gru_cell.weight_ih f4 [18, 6]
0.14915858 -0.34946018 0.033618603 -0.07134254 0.1262499 -0.007474029 -0.5196778 -0.15571438
-0.256236 -0.11812681 0.050502636 0.34933454 -0.07773888 -0.059511848 -0.50371015 -0.23014168
0.009910873 -0.60344 -0.087469585 -0.39330488 -0.11979669 -0.09496148 -0.14389428 -0.35290274
-0.3398497 -0.1223639 0.2772921 0.4219273 0.020610798 -0.3965202 0.005594945 -0.2557368
0.20246169 0.21366096 -0.08516206 0.12403282 0.14196643 -0.10497734 -0.117391266 -0.1622019
-0.31648266 0.25756449 0.28944293 0.43268085 -0.07994014 -0.39718714 0.6908838 0.17367274
0.21054237 0.07887342 0.25732276 -0.25775024 0.45600623 0.3292865 0.13557552 0.18188018
0.11150068 0.32950717 0.3776888 -0.08629322 0.22125296 0.40025723 -0.34617656 -0.36756974
0.20336209 -0.1756523 0.046771515 0.22391395 -0.015217249 -0.0211173 -0.5888443 -0.59495735
0.08717651 0.3265965 -0.035989184 0.071032874 -0.3064848 0.47908148 -0.18829326 0.2816453
0.46708965 0.2652311 0.4635192 -0.08031101 0.28755113 -0.025303463 0.20978071 -0.06287088
-0.16044573 -0.19856204 -0.15043424 -0.1524948 0.13361563 -0.111861154 0.033303313 0.5169521
-0.0113768745 -0.21772994 -0.16482416 -0.22348481 -0.175294 -0.31395268 -0.15548304 -0.3278826
0.10121581 0.2739732 0.47395682 -0.3654973
00000000: 07bd 183e 72ec b2be a9b3 093d 0a1c 92bd
00000010: a747 013e b3e8 f4bb 9b09 05bf 9773 1fbe
00000020: 5d31 83be 78ec f1bd dadb 4e3d fadb b23e
00000030: 9035 9fbd b2c2 73bd 26f3 00bf 43aa 6bbe
00000040: 3761 223c 0b7b 1abf 4123 b3bd 425f c9be
00000050: f857 f5bd 2a7b c2bd 0659 13be abaf b4be
00000060: c800 aebe ed99 fabd 3bf9 8d3e db06 d83e
00000070: fad7 a83c b204 cbbe cd55 b73b efef 82be
00000080: 1e52 4f3e f0c9 5a3e 7269 aebd eb04 fe3d
00000090: a65f 113e 5cfe d6bd d56a f0bd 4118 26be
000000a0: 040a a2be 7edf 833e dd31 943e 5888 dd3e
000000b0: a8b7 a3bd 1d5c cbbe c3dd 303f 44d7 313e
000000c0: 6b98 573e 6388 a13d cfbf 833e d7f7 83be
000000d0: a679 e93e 3d98 a83e 4fd4 0a3e cc3e 3a3e
000000e0: 785a e43d 2ab5 a83e 6d60 c13e 80ba b0bd
000000f0: 2390 623e 84ee cc3e 0e3e b1be 1a32 bcbe
00000100: 273e 503e 32de 33be 7d93 3f3d b349 653e
00000110: c551 79bc 30fe acbc 80be 16bf 204f 18bf
00000120: 9989 b23d a837 a73e 6569 13bd af79 913d
00000130: 93eb 9cbe 2b4a f53e f3cf 40be d033 903e
00000140: 6026 ef3e 5fcc 873e 6352 ed3e 197a a4bd
00000150: e739 933e 3549 cfbc c1d0 563e 73c2 80bd
00000160: e34b 24be d953 4bbe 6f0b 1abe 9927 1cbe
00000170: 89d2 083e 7617 e5bd 0e69 083d f956 043f
00000180: 1266 3abc 99f4 5ebe aac7 28be 34d9 64be
00000190: 4580 33be 68be a0be f236 1fbe 3ae0 a7be
000001a0: 3c4a cf3d 3746 8c3e 78aa f23e 7622 bbbe

gru_cp_bw.gru_cell.weight_hh f4 [18, 6]
-0.08432636 -0.511028 0.3838578 0.26738822 0.21757619 -0.4083926 -0.2603077 0.019271392
0.103393346 0.36039102 -0.22046618 0.18965925 -0.2328772 -0.72952056 -0.11212277 -0.18170285
0.33829525 0.42918357 -0.11443204 -0.26868546 -0.010950804 -0.42187947 0.24045148 0.28110117
0.18509208 0.19181217 0.35659647 -0.23388505 0.4559396 -0.26349866 0.32497483 -0.10558747
0.46095 0.044749226 0.5332777 0.10927621 -0.3009608 -0.0034122362 -0.2066143 0.073780455
-0.07898824 0.101947196 -0.20152141 -0.44003516 0.3455341 0.49525344 0.23555034 -0.030607026
0.41063818 -0.31762522 0.4002854 -0.10470581 -0.2097414 0.07058292 -0.15556699 0.46836388
0.12339982 0.014160449 0.20453851 -0.16117078 0.059763834 -0.31521893 0.25695327 -0.048140503
-0.13632846 0.25227574 -0.16663477 -0.55812764 0.12945451 0.36306363 0.070226826 -0.15558521
0.19343504 0.37571535 -0.29186946 -0.23194538 -0.29378155 -0.25693855 0.15873636 0.01604064
-0.27691242 0.43393147 -0.065860614 0.21108621 0.052315675 -0.5170958 0.3055262 -0.502985
0.42624483 0.2975666 0.35200647 0.20099074 0.27321103 0.08125988 -0.040585447 -0.3628203
-0.2592028 -0.2439882 0.21072794 0.10493708 0.41282338 0.2745509 -0.15859206 0.115909934
0.3170285 0.078180306 0.29483786 0.035803724
00000000: 4cb3 acbd bbd2 02bf 0289 c43e 1ce7 883e
00000010: 4bcc 5e3e d618 d1be 0d47 85be 0adf 9d3c
00000020: e4bf d33d 2c85 b83e e3c1 61be 0936 423e
00000030: 5c77 6ebe dcc1 3abf 9fa0 e5bd 5010 3abe
00000040: 0935 ad3e f3bd db3e 585b eabd 2491 89be
00000050: 006b 33bc 9600 d8be ea38 763e 7eec 8f3e
00000060: c788 3d3e 696a 443e d093 b63e 907f 6fbe
00000070: ea70 e93e 4ce9 86be 1a63 a63e 3e3e d8bd
00000080: a301 ec3e f74a 373d e384 083f 35cc df3d
00000090: 8917 9abe d39f 5fbb b392 53be 351a 973d
000000a0: 96c4 a1bd b1c9 d03d a15b 4ebe 4a4c e1be
000000b0: d8e9 b03e dc91 fd3e 1c34 713e 96bb fabc
000000c0: 2b3f d23e c69f a2be 35f2 cc3e 0070 d6bd
000000d0: 73c6 56be c78d 903d f44c 1fbe 64cd ef3e
000000e0: 0bb9 fc3d 3a01 683c 8b72 513e f409 25be
000000f0: ecca 743d 6064 a1be 618f 833e fa2e 45bd
00000100: b099 0bbe 492a 813e 4ea2 2abe 74e1 0ebf
00000110: b98f 043e 7ae3 b93e 15d3 8f3d bb51 1fbe
00000120: d613 463e c35d c03e ea6f 95be 1783 6dbe
00000130: 896a 96be 738d 83be c98b 223e a967 833c
00000140: 77c7 8dbe 442c de3e eee1 86bd fc26 583e
00000150: f648 563d 6460 04bf ee6d 9c3e a0c3 00bf
00000160: c33c da3e a65a 983e 313a b43e 84d0 4d3e
00000170: 51e2 8b3e 946b a63d ed3c 26bd 95c3 b9be
00000180: 3bb6 84be 0bd8 79be 11c9 573e 40e9 d63d
00000190: 965d d33e f091 8c3e f565 22be 3062 ed3d
000001a0: 8f51 a23e ff1c a03d fdf4 963e eda6 123d

gru_cp_bw.gru_cell.bias_ih f4 [18]
0.3260421 0.13442084 -0.18955287 0.35730356 0.16986145 -0.055446632 0.19972861 0.5900921
-0.1465434 0.044928294 0.0384333 -0.47393727 -0.055651523 -0.087090075 -0.32496798 0.14513288
0.019387756 0.33111092
00000000: fdee a63e 9ea5 093e 261a 42be 7ef0 b63e
00000010: 29f0 2d3e 021c 63bd a885 4c3e 4710 173f
00000020: 790f 16be bb06 383d 3c6c 1d3d e8a7 f2be
00000030: daf2 63bd 485c b2bd 3462 a6be b79d 143e
00000040: 12d3 9e3c 5f87 a93e

gru_cp_bw.gru_cell.bias_hh f4 [18]
0.14269252 -0.24970949 0.39664182 -0.17190258 0.36634818 -0.21499254 0.14418013 0.6444029
-0.19442058 -0.35946006 -0.23865974 -0.45957097 0.043276638 0.19408241 0.2438846 -0.15872674
0.18376444 0.27412212
00000000: fd1d 123e d8b3 7fbe a314 cb3e 3b07 30be
00000010: fd91 bb3e 0127 5cbe f5a3 133e 97f7 243f
00000020: 3016 47be 260b b8be 3863 74be e34c ebbe
00000030: d842 313d 8abd 463e e2bc 793e 4389 22be
00000040: bf2c 3c3e bc59 8c3e

attention_dp.context f4 [14]
-0.16223578 0.9708313 0.021614227 0.6858687 -0.29624584 1.4924041 -1.0533633 -0.5116206
-0.07463617 -0.24863328 1.3046962 -1.0311414 -2.0020528 -0.31158075
00000000: 2321 26be 6688 783f 5210 b13c 1795 2f3f
00000010: 89ad 97be 1907 bf3f 9cd4 86bf 91f9 02bf
00000020: d9da 98bd b999 7ebe 4900 a73f 71fc 83bf
00000030: a221 00c0 8387 9fbe

attention_dp.linear_hidden.weight f4 [14, 14]
-0.11513172 0.08890048 0.25243565 -0.01638968 0.06371928 0.059221767 0.011096084 -0.13326629
0.04412505 -0.18904684 -0.0012411085 0.3105542 -0.106815845 0.04244452 -0.085036434 -0.09785701
-0.16014887 0.27955002 -0.23983893 -0.23683877 0.16275096 -0.15568566 0.025845122 -0.2190156
-0.23521465 -0.037149362 0.16617657 0.07393066 0.25437003 -0.18570165 -0.012177569 -0.08535384
-0.27938786 -0.1010497 -0.18237062 -0.2139436 -0.21781792 -0.07298049 -0.022908084 -0.2581758
0.023017626 -0.17893061 -0.22601892 0.27081946 -0.29379368 -0.020337993 -0.031348165 -0.321388
0.029266415 -0.13171665 0.12749317 -0.18271695 -0.0025592793 -0.08842461 -0.13232245 0.2856164
0.17800345 0.26437226 -0.049346294 -0.11306592 0.5752971 0.32311556 -0.04375399 0.0471837
0.43187422 -0.1599008 -0.15978046 0.30398035 0.11290127 -0.0020312604 0.12689714 -0.18652661
0.07530155 -0.20908938 -0.2023494 -0.35853815 -0.14884798 -0.52697545 -0.23359165 -0.04883815
0.012405221 0.044498943 -0.08499226 0.18877257 0.32626948 0.08565354 -0.25041592 0.035711687
0.02448359 0.07606359 -0.0119232 -0.12709956 -0.027466612 -0.11324866 -0.035767127 0.15736702
-0.0036683376 0.057269327 0.082764536 -0.13824764 -0.0929828 -0.16075365 0.16284965 -0.016505467
-0.035067312 0.10113554 0.1702856 0.16810432 0.2790857 -0.13740805 0.16567011 0.0916333
0.26285097 -0.2697362 0.13208914 -0.2096188 0.2526628 -0.04303739 0.09113358 -0.20528148
-0.025494061 -0.072118364 -0.116471305 -0.14954072 -0.048532173 0.17405257 0.29416534 0.17772727
0.08287737 -0.21917397 0.5217454 0.3772467 -0.26315153 0.50472075 0.37997726 -0.16589329
-0.07720996 -0.05135018 -0.023825642 -0.08695575 -0.20759805 -0.17794716 -0.3428436 -0.12331166
-0.12667677 -0.2212423 -0.10223367 -0.021364583 0.037548542 -0.19018298 0.24764521 -0.27926815
-0.29628527 0.40702605 -0.00043861443 -0.14188765 0.06858 0.12309892 -0.06975188 -0.04761722
-0.10067478 -0.10524136 0.00036743726 -0.026634691 -0.19355576 0.10795345 -0.1497673 -0.114575595
0.37409735 0.15124677 0.16302672 -0.27809167 0.13208686 -0.09655641 0.16997679 -0.16404605
-0.13783664 0.1360434 0.087340206 -0.13097204 0.22378334 -0.21019562 0.109176785 0.033224434
-0.08758313 0.13303703 0.532523 0.14893863 -0.1559327 0.46574077 0.14374267 0.12657179
-0.27086812 0.105364926 0.03881204 -0.010601963
00000000: 2eca ebbd 7411 b63d 3f3f 813e a643 86bc
00000010: 417f 823d 8692 723d 59cc 353c f576 08be
00000020: 78bc 343d 7f95 41be b1ac a2ba f600 9f3e
00000030: 44c2 dabd 4eda 2d3d 9527 aebd 4269 c8bd
00000040: 11fe 23be 2e21 8f3e 5698 75be dd85 72be
00000050: 30a8 263e 106c 1fbe 26b9 d33c a045 60be
00000060: 1cdc 70be ee29 18bd 312a 2a3e f568 973d
00000070: ca3c 823e 9328 3ebe 6d84 47bc fecd aebd
00000080: ed0b 8fbe 25f3 cebd 5dbf 3abe 0814 5bbe
00000090: a90b 5fbe cc76 95bd bca9 bbbc 9e2f 84be
000000a0: 768f bc3c 9639 37be 8171 67be d9a8 8a3e
000000b0: 206c 96be dd9b a6bc ef66 00bd f88c a4be
000000c0: 1fc0 ef3c bbe0 06be 928d 023e 271a 3bbe
000000d0: 95b9 27bb f617 b5bd 897f 07be 503c 923e
000000e0: 8946 363e cd5b 873e 571f 4abd 1b8f e7bd
000000f0: ac46 133f 676f a53e 6237 33bd b243 413d
00000100: 9e1e dd3e 09bd 23be 7d9d 23be 50a3 9b3e
00000110: c838 e73d e51e 05bb 53f1 013e d500 3fbe
00000120: b337 9a3d 871b 56be ae34 4fbe 5092 b7be
00000130: 9b6b 18be dde7 06bf a632 6fbe 830a 48bd
00000140: 453f 4b3c 8644 363d 6c10 aebd 994d 413e
00000150: cb0c a73e 206b af3d 8436 80be 6b46 123d
00000160: cf91 c83c 3ac7 9b3d 8759 43bc 6326 02be
00000170: a901 e1bc eaee e7bd 8d80 12bd d224 213e
00000180: 7e68 70bb 3e93 6a3d 7480 a93d ca90 0dbe
00000190: c46d bebd 9b9c 24be 0fc2 263e 7936 87bc
000001a0: bea2 0fbd 2620 cf3d 595f 2e3e 8a23 2c3e
000001b0: 52e4 8e3e b2b4 0cbe 6da5 293e 3daa bb3d
000001c0: 6794 863e dd1a 8abe 6042 073e 50a6 56be
000001d0: 055d 813e f947 30bd 3ea4 ba3d 4f35 52be
000001e0: ecd8 d0bc cbb2 93bd 8288 eebd 3421 19be
000001f0: acc9 46bd d63a 323e d79c 963e 23fe 353e
00000200: 9cbb a93d 246f 60be 1b91 053f 7b26 c13e
00000210: ccbb 86be 6135 013f 618c c23e eedf 29be
00000220: 4120 9ebd 9154 52bd fe2d c3bc db15 b2bd
00000230: 9594 54be c837 36be 3289 afbe d38a fcbd
00000240: 8eb7 01be 578d 62be e35f d1bd c704 afbc
00000250: 80cc 193d 54bf 42be b596 7d3e 3cfc 8ebe
00000260: b4b2 97be b865 d03e d5f5 e5b9 ff4a 11be
00000270: ac73 8c3d 491b fc3d 13da 8ebd 460a 43bd
00000280: 942e cebd c888 d7bd 98a4 c039 ff30 dabc
00000290: 7b33 46be b316 dd3d 995c 19be 9ca6 eabd
000002a0: b089 bf3e 6fe0 1a3e 7af0 263e 0862 8ebe
000002b0: c741 073e 5ebf c5bd 650e 2e3e b0fb 27be
000002c0: 0c25 0dbe f64e 0b3e 6cdf b23d 891d 06be
000002d0: 7627 653e 853d 57be 1498 df3d 5816 083d
000002e0: c95e b3bd dc3a 083e 6d53 083f 5e83 183e
000002f0: d2ac 1fbe 9375 ee3e 4731 133e 099c 013e
00000300: 3aaf 8abe 91c9 d73d 60f9 1e3d dbb3 2dbc

attention_dp.linear_hidden.bias f4 [14]
0.07040378 -0.047790665 -0.32152492 -0.52137893 0.5914283 -0.5968861 0.11022996 0.108504936
-0.22411951 0.45312363 -0.71961194 0.30152905 -0.17014565 0.4966627
00000000: db2f 903d 25c0 43bd ea9e a4be 1779 05bf
00000010: d867 173f 87cd 18bf 3fc0 e13d d637 de3d
00000020: 967f 65be d2ff e73e 7d38 38bf 0462 9a3e
00000030: a93a 2ebe 934a fe3e

attention_cp.context f4 [12]
-0.4317127 0.57212925 -0.7121872 -1.535895 0.7352696 1.4401933 0.3034383 -0.6677564
-1.3977174 -0.59128255 -0.48317498 -0.11526541
00000000: 7209 ddbe 1077 123f e651 36bf 3598 c4bf
00000010: a13a 3c3f 4158 b83f 445c 9b3e 15f2 2abf
00000020: 67e8 b2bf 4b5e 17bf b662 f7be 4510 ecbd

attention_cp.linear_hidden.weight f4 [12, 12]
-0.05035402 -0.069181725 0.038043834 0.0031542822 -0.0975443 -0.39353204 -0.009932442 -0.25254023
-0.26407075 -0.071893245 -0.2512496 0.28646615 0.11791166 0.08764592 0.2883038 0.0392851
0.22914979 0.38085234 0.08054406 0.073131144 0.05227884 -0.23550227 -0.14774367 0.10161826
-0.22402695 0.12961683 0.17730197 -0.20588294 0.05161056 -0.09291089 0.1994418 0.17227408
-0.13622816 -0.10307148 0.2083634 0.06795229 0.016509103 0.31146005 0.13655187 -0.06171486
-0.23446973 -0.27480453 -0.117072605 -0.29878926 0.034898367 0.0057316273 -0.29350725 0.23956822
-0.016982442 0.22344668 0.17877802 -0.0032312633 -0.22147565 0.28329578 -0.21284218 -0.14800757
0.05929098 0.32198918 0.2911547 -0.27705085 0.17296863 -0.26987556 0.32311362 -0.0951011
0.17660841 -0.100848585 0.0240968 -0.1349514 -0.105693735 -0.18572618 -0.15478405 -0.09340823
0.14144748 -0.29813138 -0.17710763 -0.19851412 0.047112867 0.21317598 0.2706772 0.007854796
0.40539315 -0.044187147 -0.20734149 0.11465697 0.0038665908 0.15754277 -0.13197333 0.08807998
-0.27503628 -0.28805283 0.102940165 0.1777826 0.10489601 -0.03461819 -0.14368397 0.08783784
-0.23702139 -0.1267222 0.24603674 0.19463976 -0.20778646 -0.36517638 0.22983013 -0.29285422
-0.08820195 0.059125733 0.16244166 -0.0059434306 -0.15551525 0.047454726 -0.1860454 -0.12041874
-0.2300511 -0.10645335 -0.08667575 -0.19202511 -0.14054304 0.19108202 0.046894398 0.1460637
-0.28220904 -0.084942386 -0.28550914 -0.02955436 -0.086016074 -0.26233423 0.24178243 -0.10980178
-0.034380812 -0.1104058 0.11594896 0.22180423 -0.08138642 -0.069078065 -0.25318402 0.28508386
-0.15520321 0.061985027 0.019123776 -0.30510712 0.15219103 -0.2896762 -0.3245211 0.09825152
00000000: 0440 4ebd 26af 8dbd dad3 1b3d 13b8 4e3b
00000010: 4ec5 c7bd 087d c9be aebb 22bc f44c 81be
00000020: 4834 87be c43c 93bd caa3 80be b1ab 923e
00000030: ab7b f13d b47f b33d 8e9c 933e 6ae9 203d
00000040: 3ea6 6a3e 14ff c23e 49f4 a43d c8c5 953d
00000050: 5622 563d 8227 71be 1e4a 17be 3c1d d03d
00000060: 5267 65be 46ba 043e a68e 353e fad2 52be
00000070: 9865 533d 1148 bebd 793a 4c3e 9e68 303e
00000080: 657f 0bbe 2417 d3bd 375d 553e 922a 8b3d
00000090: 193e 873c b177 9f3e 41d4 0b3e b9c8 7cbd
000000a0: d518 70be 2eb3 8cbe c3c3 efbd e8fa 98be
000000b0: 97f1 0e3d 60d0 bb3b 9546 96be 5f51 753e
000000c0: c31e 8bbc 35cf 643e 9611 373e 9ac3 53bb
000000d0: 83ca 62be 250c 913e 4df3 59be 4c8f 17be
000000e0: 19db 723d c4db a43e 3b12 953e 9cd9 8dbe
000000f0: b01e 313e 212d 8abe 266f a53e 5ec4 c2bd
00000100: d6d8 343e b489 cebd a766 c53c b330 0abe
00000110: f575 d8bd 012f 3ebe b67f 1ebe d04c bfbd
00000120: 9cd7 103e ada4 98be b45b 35be 4947 4bbe
00000130: 6cf9 403d ce4a 5a3e 3496 8a3e 67b1 003c
00000140: b18f cf3e 95fd 34bd 5451 54be 46d1 ea3d
00000150: a166 7d3b e452 213e 0424 07be 4763 b43d
00000160: 8ed1 8cbe a97b 93be 4bd2 d23d a40c 363e
00000170: b8d3 d63d cecb 0dbd e421 13be 53e4 b33d
00000180: bcb5 72be 77c3 01be 0ef1 7b3e a54f 473e
00000190: f9c5 54be 66f8 babe 9758 6b3e fdf0 95be
000001a0: 39a3 b4bd d32d 723d 1b57 263e 1cc1 c2bb
000001b0: 643f 1fbe e35f 423d af82 3ebe 1a9e f6bd
000001c0: 8492 6bbe 3704 dabd 0e83 b1bd 3ba2 44be
000001d0: 84ea 0fbe 01ab 433e 5714 403d b991 153e
000001e0: b47d 90be 46f6 adbd 412e 92be fc1b f2bc
000001f0: 3229 b0bd ac50 86be d095 773e c1df e0bd
00000200: e5d2 0cbd 701c e2bd a676 ed3d a620 633e
00000210: ecad a6bd cd78 8dbd 56a1 81be 83f6 913e
00000220: 97ed 1ebe 03e4 7d3d 77a9 9c3c 0037 9cbe
00000230: f7d7 1b3e 7050 94be a127 a6be 1838 c93d
