ablation2_activation_function/birnn_ode_decay_attention/final_model.pt (torch, 79399 bytes, 55 tensors)

embed_dp.weight f4 [1292, 7]
000000 00 00 00 00 00 00 00 00 00 00 00 00 00 00 00 00
       0.0 0.0 0.0 0.0
000010 00 00 00 00 00 00 00 00 00 00 00 00 b6 8a db bf
       0.0 0.0 0.0 -1.7151706
000020 1b 58 92 be 67 19 17 3f 95 9d 64 3f d7 e8 6a 3e
       -0.28582844 0.59023136 0.8930295 0.22940384
000030 7d 79 c7 bf 99 39 04 40 1d 83 e2 be 6e b3 3c 3e
       -1.558395 2.0660155 -0.44240656 0.18427822
000040 dd a5 70 bf 49 f7 7b 3f ad 95 24 c0 6a ac 16 c0
       -0.9400309 0.984242 -2.5716355 -2.3542733
000050 0f b4 c9 bf a2 d7 09 3e 41 1f 26 40 b0 21 b0 be
       -1.5758075 0.13461164 2.5956576 -0.34400702
000060 07 3d 1c bf ae c6 d3 bf c6 ae 91 3f 6d 51 ad 3f
       -0.6103062 -1.6545007 1.1381462 1.3540474
000070 8f 7e f8 3e 97 50 9f 3d 50 34 ef 3f 7a ae ad 3e
       0.48534057 0.07779043 1.868784 0.33922178
000080 95 93 cd bf e2 1a 39 bf 32 e3 df 3d a5 f6 0d 3f
       -1.6060663 -0.72306645 0.10932006 0.55454475
000090 db 86 f1 bd 28 38 b8 be 7a 7c 4a be 9d 84 d2 bf
       -0.117933 -0.35980344 -0.19774047 -1.644672
0000a0 3b e1 ba bf 78 2a f2 3f 19 df 8a 3e 56 7d d1 be
       -1.4599985 1.891921 0.27123335 -0.40915936
0000b0 1a bf 1d bf 8e 5b ab 3f 6e 87 04 be 6a 32 90 3f
       -0.6161972 1.3387315 -0.12942287 1.1265385
0000c0 94 95 61 3f 1d 5f d9 3e 3c 6b 96 3c 56 76 0b 3f
       0.88118863 0.42455378 0.01836168 0.5447744
0000d0 c4 41 6e bf 56 1a 7c 3e c3 e8 95 3e 94 28 84 3f
       -0.930691 0.24619421 0.29279146 1.0324883
0000e0 99 dd eb bf 59 d4 70 3e df 8b 5c 3f b9 48 6d 3f
       -1.8427001 0.23518504 0.86150926 0.9268909
0000f0 86 b2 54 3f 7a 51 89 be a9 c3 38 bf 5c c8 87 3f
       0.83084905 -0.26819974 -0.72173554 1.060802
000100 d7 5b 86 3d 53 d0 5c bf f2 1f 85 bd 52 41 ca be
       0.06560486 -0.8625538 -0.06500234 -0.3950296
000110 31 7f 9a 3e 1b 55 75 3f 9d 91 5c be 56 36 6e 3f
       0.30175164 0.95832986 -0.21539922 0.9305166
000120 c0 d1 c7 3d 4e 13 02 3f 73 c7 a3 bd 37 3c 73 bf
       0.097568035 0.50810707 -0.07997026 -0.95013756
000130 3a 87 15 3f e5 0b cb 3e 79 87 07 bf 63 f7 8d 3d
       0.58409464 0.39657512 -0.5294109 0.06931951
000140 a8 f0 0d 3f 21 b7 b9 bf 1e 5a 05 3e 75 ae df 3e
       0.5544534 -1.4509012 0.13022658 0.43687788
000150 52 00 14 40 39 b8 bf 3f f3 1e 83 3f f5 bc 10 3f
       2.3125196 1.4978095 1.024382 0.56538326
000160 1b 99 cd bf e2 42 33 bf 63 a6 c3 3f df 6a 35 bf
       -1.6062349 -0.7002393 1.5285152 -0.708662
000170 ac 11 48 be 0d 8e 07 3f f2 1a e7 3c 0d 83 f4 3f
       -0.19537991 0.5295113 0.02821109 1.9102494
000180 29 46 8b bf 2a 4a c0 be 32 98 3d 3f 16 a9 3e bf
       -1.0880786 -0.37556583 0.74060357 -0.74476755
000190 b6 31 07 bf c9 7e 26 be 30 1d 1a 3e fa 84 ba bc
       -0.5281023 -0.16259302 0.15050197 -0.022768486
0001a0 54 90 22 3e 43 93 1a 3e 40 de 00 bf db 2c 69 3f
       0.1587537 0.15095238 -0.50339127 0.9108407
0001b0 01 d1 99 bd 77 15 65 bd c1 fc 0c bd 85 44 e7 3d
       -0.075105675 -0.055928674 -0.034420732 0.11292366
0001c0 a9 73 94 bf 7d e3 18 3f 51 6a 0b 3f 3f 00 20 3f
       -1.1597797 0.5972212 0.544591 0.62500376
0001d0 0d b2 45 3f a6 fd fc 3e 60 df 3a 3f 48 78 9d 3d
       0.7722481 0.49412268 0.72997093 0.076889575
0001e0 3d 12 86 3f ac 04 8c bf 0d d8 b3 3f 8f 35 2b bf
       1.0474316 -1.0938926 1.4050308 -0.668786
0001f0 f0 b2 13 3f 1c ed 82 3e 29 3c 6e bf 62 c9 2e bf
       0.5769491 0.25571525 -0.9306055 -0.68276036
000200 de a1 47 bf 80 96 7e 3f 48 62 55 3f aa 7c 12 bf
       -0.77981365 0.99448395 0.8335309 -0.5722147
000210 e4 e4 06 bf 39 69 c1 bf f6 b0 14 be 69 a5 2b bf
       -0.5269301 -1.5110236 -0.1452063 -0.6704927
000220 0f a5 b6 3f c6 1c e5 be eb 35 14 bd 67 e1 26 3f
       1.4269122 -0.44748515 -0.036184233 0.65187687
000230 c3 f2 20 bf 30 ef de bf 24 d9 2b 3f fa eb a5 3f
       -0.62870425 -1.7416744 0.67128205 1.2962639
000240 94 2a 84 be 4e 1f 9e bf 42 f0 39 3f ac 15 ef 3e
       -0.25813735 -1.2353303 0.7263223 0.46696222
000250 c7 5a 9e bd b6 b6 cc be 89 7d 79 3f 87 30 c9 be
       -0.07732158 -0.39983147 0.97457176 -0.39294836
000260 55 0a ba be 7d 75 bc 3f 6d c1 3c 40 12 13 19 40
       -0.36336008 1.4723355 2.9493058 2.391789
000270 1d f4 9f bf 6b 47 8e bf 2e 55 cd bf 4d b9 8a 3f
       -1.2496372 -1.1115545 -1.604162 1.0837799
000280 bc ef db 3f 3b b1 a3 3f f0 f2 60 3e ce c6 cd bf
       1.7182536 1.2788461 0.21967673 -1.6076295
000290 c2 7d 1c bf ef 00 7a 3e 5e 45 2f bf 4d 00 11 40
       -0.6112939 0.24414419 -0.6846522 2.2656434
0002a0 6c 38 a5 3f 50 d1 d2 bf 55 ef 4b 3e 57 cf bc bf
       1.2907844 -1.6470127 0.19915517 -1.4750775
0002b0 fb f7 c4 bf 6a 26 07 3f 30 ef d8 3e f9 85 7b 3f
       -1.5388178 0.5279299 0.42369986 0.982513
0002c0 f3 7c e3 be aa 26 ad 3f c4 8b d7 3f 0a f3 3f 3f
       -0.44431266 1.3527424 1.6839528 0.74980223
0002d0 64 79 ac bf 8e b0 39 3d ca 6f ae 3f 2d 0d 93 be
       -1.3474545 0.04533439 1.3627865 -0.2872099
0002e0 1e af a8 3e d3 97 5a 3f 6d 43 91 3e 5d c9 e9 3e
       0.32946104 0.85387915 0.28371754 0.4566144
0002f0 53 d0 b9 bf 70 4b de 3e 12 d1 6d 3f 0d c8 2f be
       -1.45167 0.4341693 0.9289714 -0.17166157
000300 50 3a f9 3e 29 55 bd be b7 60 6d bf 26 fd b5 be
       0.486773 -0.36979035 -0.927257 -0.355447
000310 0f a4 0e 3f 8a b2 81 bf 24 e9 04 40 83 07 48 3b
       0.55719084 -1.0132611 2.0767298 0.0030522055
000320 7c a5 72 bf 1c b7 44 be f2 2b 99 3f 03 65 99 bb
       -0.9478376 -0.19210476 1.1966536 -0.004681231
000330 41 4b 61 bf 35 4d ca be 71 ba 7e 3f ee 4b 08 3f
       -0.88005453 -0.3951203 0.99503237 0.5324086
000340 55 7a 2f bf 5f 91 aa be 99 be 78 3f 6e 94 e4 bf
       -0.6854604 -0.33314034 0.9716583 -1.7857797
000350 d5 c2 8b 3f 0b 76 4a 3f 37 a4 d4 3f f9 36 4a 3f
       1.0918833 0.7908637 1.6612614 0.7899013
000360 4e 95 53 3f bc bb 34 bf fb 93 28 bf c2 1c 94 3f
       0.82649696 -0.7059896 -0.658508 1.1571276
000370 ad fd 1f be 9c 39 70 bf ce fa 3b bf 1a 9f 39 bf
       -0.15624113 -0.93837905 -0.7342957 -0.72508395
000380 90 c9 1c 3f 9c c0 74 bf 3c 31 10 40 db 57 80 3e
       0.6124506 -0.956064 2.253005 0.25067028
000390 64 64 22 c0 bc 65 cb 3f 8d 4f 24 3f 58 bb 80 3f
       -2.5373774 1.5890422 0.64183885 1.0057173
0003a0 40 c9 11 bd 8e 81 0d 40 37 8e 29 3e 54 5f a0 bf
       -0.035592318 2.2110324 0.16558157 -1.2529092
0003b0 2e b2 e8 bb 1c 54 ca bf d5 40 41 3f 7d db b7 be
       -0.007101319 -1.5806918 0.7548955 -0.35909644
0003c0 81 a0 7f bf 75 b3 2a 3f 3c fe 8e 3e 2e 37 94 bf
       -0.99854285 0.6668008 0.2792834 -1.157934
0003d0 50 03 6a bf 21 14 4b bf 45 c3 5f be 80 73 27 bf
       -0.91411304 -0.7932759 -0.21851833 -0.65410614
0003e0 1e 31 80 3f 6a 90 88 bf 28 a0 43 3e b1 92 3f 3f
       1.0014989 -1.0669072 0.19104064 0.7483321
0003f0 d2 7b 7f bf 55 cd 9b bf 9c 23 6f bf e2 ed af bf
       -0.9979831 -1.2172037 -0.9341371 -1.3744471

embed_cp.weight f4 [620, 6]
000000 00 00 00 00 00 00 00 00 00 00 00 00 00 00 00 00
       0.0 0.0 0.0 0.0
000010 00 00 00 00 00 00 00 00 2f e1 12 3f 1c de 96 bf
       0.0 0.0 0.5737485 -1.1786532
000020 47 c0 a8 3e e1 ca d3 3e 0a dd 93 3e f9 3b ce be
       0.32959196 0.41365722 0.28879577 -0.4028013
000030 d5 c2 5d bf 28 cd 8d bf d6 73 c2 bf 3c 85 35 3f
       -0.86625415 -1.1078234 -1.51916 0.70906425
000040 e9 e9 43 bf 3e 21 85 bf 60 0e 9e be ad 86 9b bf
       -0.76528794 -1.040077 -0.30870342 -1.2150475
000050 24 c9 86 3f cb 41 06 c0 17 79 5a bf 26 13 0d bf
       1.0530133 -2.0977657 -0.8534102 -0.55107343
000060 9f a5 3d 3e 79 b9 6b 3f ab 43 ed be dd ca 29 3f
       0.1852021 0.92079884 -0.4634069 0.6632517
000070 55 6f 89 be ad a8 9e 3f 2d 47 4d 3f e4 8a 96 3e
       -0.26842752 1.2395226 0.8018673 0.2940284
000080 d5 2b f4 3e 79 6e 24 3f a0 4a 43 3e 32 c3 87 3f
       0.4768969 0.6423107 0.19071436 1.0606444
000090 34 fa 5c be a9 a4 1f bf 1f 89 9f 3c 9c 37 10 bf
       -0.2157982 -0.62360626 0.019474564 -0.56334853
0000a0 57 4f a9 bf 19 f8 5b be 60 26 16 bf e4 81 98 bf
       -1.3227338 -0.2148136 -0.58652306 -1.191464
0000b0 8a 71 b2 3f 07 0b 82 bf 22 db c8 bf c5 57 02 3f
       1.3940899 -1.0159615 -1.5691874 0.50915176
0000c0 eb 9f 0e 40 48 25 5c 3e a6 4c d8 bb e1 09 07 c0
       2.2285106 0.21498597 -0.006600934 -2.109978
0000d0 c9 e8 1d bf 33 db 20 40 1a 83 52 bf 42 54 58 3f
       -0.61683327 2.5133789 -0.82231295 0.8450357
0000e0 84 56 37 3e f3 a4 a2 be d7 69 be bc 83 6c c5 3f
       0.17904097 -0.3176647 -0.023243828 1.542374
0000f0 2a 81 09 40 bf 23 8b 3f 47 7e 04 c0 42 86 80 bf
       2.1485085 1.0870284 -2.0702074 -1.0040972
000100 b3 1a 10 be 7f 55 4f bc 98 50 b4 3e 18 46 ce 3f
       -0.14072685 -0.012654661 0.35217738 1.6115141
000110 ce 47 53 be 6d 18 86 be 8c fe dc bf ac 89 65 3e
       -0.2063286 -0.2619051 -1.7265182 0.22415799
000120 24 1b 18 3f a4 5b 7d be 1e 0c f4 3f 87 c1 ac bd
       0.59416413 -0.2474199 1.9066198 -0.0843535
000130 6d 29 52 bf 27 b2 f8 3f d2 4c 28 bf cb 7f cd bd
       -0.8209446 1.9429368 -0.6574222 -0.1003414
000140 1a 78 d7 be 07 55 66 bf d4 6c e1 bf 0f 91 fa be
       -0.42083818 -0.8997349 -1.7611337 -0.48938796
000150 ad 37 a5 3e 49 e8 d1 3f 55 c6 a0 bf 1b 03 1b 3c
       0.3226904 1.6399013 -1.2560526 0.00946119
000160 cd 8a 3b bf 67 76 b0 3c 4d 99 97 be 06 00 e3 bf
       -0.7325867 0.021540834 -0.29609147 -1.7734382
000170 38 f9 40 be ae ab 20 3e 62 5f d2 be 8a 7d ea 3f
       -0.1884507 0.1569049 -0.41088396 1.8319561
000180 5a fe bd bf 90 4a 41 3f 5d c3 b7 bf 0c 8d 6c 3f
       -1.4843247 0.755044 -1.4356495 0.9240272
000190 33 72 90 be 36 7e e2 bf 09 1e 59 bf c5 4b b4 3f
       -0.28212127 -1.7694767 -0.84811455 1.4085623
0001a0 bf fb e4 bf 8f e9 c9 3e 87 76 46 bf 6f ba 96 3e
       -1.7889327 0.39436004 -0.7752461 0.29439113
0001b0 d0 13 9a 3f 20 7c dd 3f b1 12 ae bf cf 68 d9 bf
       1.2037296 1.7303505 -1.3599454 -1.698511
0001c0 b9 9f 86 3f 2a 1d 2e 3f 5d 38 a9 3f e3 97 2e c0
       1.0517493 0.6801325 1.3220326 -2.7280204
0001d0 46 c1 a4 be e6 43 f9 3e 38 20 d8 be 4e cb 11 3f
       -0.32178706 0.48684615 -0.4221208 0.56950843
0001e0 84 3e 30 3f 18 c8 a1 bf 43 1c a2 3f 1a 7d 7d bf
       0.6884539 -1.2639189 1.2664875 -0.99019015
0001f0 a7 d5 0e 3f fc 9d 94 be a2 2d 92 3f d5 f2 61 3f
       0.5579476 -0.29026783 1.1420176 0.8826116
000200 4a c1 12 3f aa 2d a1 bf b6 11 0a 40 e0 af 72 3e
       0.57326186 -1.259206 2.157331 0.23699903
000210 96 ed 10 bf 0c d2 06 bf 61 8b 80 3f 92 56 e1 be
       -0.5661253 -0.52664256 1.0042535 -0.4401136
000220 3c 2a d0 be b7 07 89 3f 53 75 8b 3f 14 24 14 3f
       -0.40657222 1.0705479 1.089518 0.5786755
000230 18 98 c7 be 33 f5 fe be b7 c9 99 3f a1 58 9a bf
       -0.38983226 -0.49796447 1.2014683 -1.2058297
000240 40 11 05 40 6f a7 5c bf 70 bb f8 3e 47 61 5d be
       2.0791779 -0.86192983 0.48580503 -0.2161914
000250 35 bc 60 3f ee f2 40 be 10 28 ad 3f 80 56 c2 bd
       0.8778718 -0.1884267 1.3527851 -0.09489155
000260 2a 2a 5b be 65 91 b0 3e a2 35 17 3f 82 2a b8 be
       -0.21402803 0.34485927 0.5906621 -0.3596993
000270 09 80 48 3e eb 49 3b 3e 68 85 80 3f 2e 15 9f 3f
       0.19580092 0.18289916 1.0040712 1.2428339
000280 f0 ac 41 3f b2 a3 96 bf ea 04 ba bf ec a2 e3 bf
       0.75654507 -1.1768706 -1.453275 -1.7784095
000290 ee fb 01 bf cb a2 ca bf ca f2 0d bf 98 81 94 3e
       -0.5077504 -1.583093 -0.5544859 0.29005122
0002a0 a5 29 d0 3f 54 91 75 3e d6 92 38 3e e0 73 90 3e
       1.6262709 0.2398122 0.18024763 0.28213406
0002b0 8a 48 26 3f 2c 4e 81 bf 73 4d 10 bd 79 56 f3 3d
       0.64954436 -1.0101981 -0.03523011 0.11881728
0002c0 dc 49 95 3f 8d b2 61 3e 58 8a e7 3f 0b c0 78 bf
       1.1663165 0.22040768 1.8089094 -0.97168034
0002d0 cc da a1 3f 1c df 72 3e 57 c8 84 3e b3 7a 13 c0
       1.2644897 0.23717922 0.25934097 -2.304364
0002e0 35 c3 8c 3f 08 3f 4c 40 1f 13 b6 bd 86 98 24 bf
       1.0997072 3.1913471 -0.08890366 -0.6429523
0002f0 93 68 0d 3f 1c ae 1c 3f 33 dc 35 bf 8a de eb 3f
       0.5523769 0.6120317 -0.7103912 1.8427289
000300 e0 da 20 3e 99 fe 38 bd b7 8f 7d bf e2 38 a1 3f
       0.15708494 -0.04516468 -0.99047416 1.2595484
000310 81 32 8c 3e 28 db 0d 40 35 aa f2 be 4e a9 b1 be
       0.2738228 2.2165012 -0.47395483 -0.34699482
000320 06 dc 5c bd 8c 5f 43 bf 7b a9 40 be 71 96 58 3d
       -0.05392077 -0.7631767 -0.18814652 0.052877847
000330 2f e5 3c be a5 6b fb 3f 74 71 a1 bf 72 6f d7 3f
       -0.18446802 1.9642226 -1.2612748 1.6830885
000340 d1 16 af 3f 0e 53 a6 be 6a 9f 07 3f e0 f7 27 bf
       1.3678838 -0.3248524 0.5297762 -0.656126
000350 c7 d2 60 be 77 a3 d5 3f 4a 07 89 3f c1 53 c8 3f
       -0.21955405 1.669051 1.070535 1.565056
000360 75 9d 25 bf 53 42 82 be ae f8 63 3e 16 8a 95 bd
       -0.64693385 -0.25441226 0.22262833 -0.073017284
000370 9c 5c 34 3f 76 27 ac 3f da 71 ca 3e c8 28 bf 3f
       0.7045381 1.3449543 0.39539987 1.493432
000380 79 c6 5d bf e2 c7 6e bf f6 e7 71 bf 72 6f a4 3f
       -0.8663097 -0.93273747 -0.9449457 1.284651
000390 92 b8 12 bf e7 db 79 3f 8a da 10 bf 7c 1e 99 3f
       -0.5731288 0.9760117 -0.56583464 1.1962428
0003a0 89 30 16 40 d8 6f 98 bf e1 6c ef 3d 64 f7 bc 3d
       2.3467124 -1.1909132 0.11690689 0.092268735
0003b0 24 0c 93 be 81 20 fe be 92 0a 14 3f 11 cd 7e 3f
       -0.287202 -0.49634174 0.5782863 0.99531657
0003c0 cf 2f 66 bf 8b da fc be 27 2c 0e 40 10 04 29 3f
       -0.899167 -0.49385485 2.2214448 0.66021824
0003d0 5b 49 03 3f 3f e5 b4 bc 72 ee 2f 3f 38 21 01 3f
       0.51283807 -0.02208197 0.68723214 0.5044131
0003e0 21 48 10 3f 13 8a c6 3f 41 56 f4 bd 96 8a cd be
       0.5636006 1.5510887 -0.11930514 -0.40144795
0003f0 5a ba c3 3e 92 87 63 3d c0 1d 4e 3f bf c1 e8 be
       0.38228112 0.05554921 0.80514145 -0.45460317

gru_dp_fw.decays f4 [7]
000000 e0 6b e4 5d 7d 7f 00 00 e0 6b e4 5d 7d 7f 00 00
       2.057437e+18 4.5734e-41 2.057437e+18 4.5734e-41
000010 00 00 00 00 00 00 00 00 00 00 00 00
       0.0 0.0 0.0

gru_dp_fw.gru_cell.weight_ih f4 [21, 7]
000000 3c c7 97 be e5 63 a7 3e b0 29 47 be 82 9e 61 3e
       -0.2964419 0.326934 -0.19449496 0.22033122
000010 23 be 45 3c 39 36 7d 3e 35 13 b7 bd 36 68 8d 3e
       0.012069258 0.24727716 -0.0893921 0.2761857
000020 f7 7f bc be cd 35 84 bd 0d 0a 4e bd 7e a6 1d 3e
       -0.3681638 -0.06455574 -0.050302554 0.15395543
000030 1e 69 65 3e d9 72 41 bd 01 46 56 3e f6 ae a1 bc
       0.2240338 -0.047228668 0.20925142 -0.019736748
000040 b4 85 a3 be 73 72 29 3e b1 93 12 be 9e cf 2e be
       -0.31937945 0.16547565 -0.14314152 -0.17071387
000050 13 29 c0 be 2b 10 5b be 9b f8 c2 3c 57 d4 86 bd
       -0.37531337 -0.21392886 0.023800185 -0.06583469
000060 9f 44 4b bd e5 54 56 bd 12 68 c4 be de 6a c6 be
       -0.04962599 -0.052327055 -0.3836065 -0.38753408
000070 c5 92 45 3e c2 cd 35 3e 3f 9f 82 3e fb 57 3e be
       0.1929427 0.17754272 0.2551212 -0.1858825
000080 04 22 55 3e 94 42 a8 bd 01 2d 00 be e7 f6 ad be
       0.20813757 -0.08215824 -0.12517168 -0.33977434
000090 7a 8f 9b be 5f 50 c9 bc 95 54 d4 3c e3 50 9b be
       -0.303829 -0.024574457 0.025919238 -0.3033515
0000a0 89 a6 18 3e 61 36 e4 3d 96 de 8d 3d e4 eb 84 3d
       0.14907278 0.111431845 0.069272205 0.06490305
0000b0 ea 2d 0a 3d 4e 17 26 be 8c 6a 55 bd cd 6a bd 3d
       0.033735193 -0.16219828 -0.052103564 0.09248886
0000c0 ae 70 b7 3d 09 04 8a 3d cc 8b d2 bd 09 8d 52 bd
       0.08957039 0.06739051 -0.102805704 -0.051404033
0000d0 48 d9 86 3b d7 b2 d2 3c c8 d8 bd be 20 b6 3a be
       0.0041152574 0.025720043 -0.37079453 -0.18233538
0000e0 ad 58 bb 3e 11 71 2f 3e 74 31 98 3d 04 01 68 3e
       0.36591092 0.17132975 0.074313074 0.22656637
0000f0 bb 13 31 be 31 81 13 3e ef 40 59 bc 3f 81 ad be
       -0.17292683 0.14404751 -0.01326011 -0.3388767
000100 85 53 d6 3d 99 c1 be 3c 8d ed 07 3e f2 6f 8b 3e
       0.10465149 0.023285674 0.13274212 0.27233845
000110 e2 56 43 3e e9 b8 16 3e e1 7b bf 3e 38 08 8c be
       0.19076112 0.14718975 0.373992 -0.2735002
000120 ea 4c 09 be c4 b8 42 be 11 f6 ab be bf 1a 0a bc
       -0.13408247 -0.19015795 -0.3358617 -0.008429228
000130 64 cd 63 bb 40 e1 50 3e 09 b4 04 3f 65 71 c5 3e
       -0.0034759874 0.20398426 0.5183721 0.38563076
000140 d4 e0 05 3f cb 26 9e 3e ba d9 04 be bb bb b0 be
       0.52296185 0.30888972 -0.12973681 -0.34518227
000150 c5 46 e6 3d c0 4b 87 be 27 ae bf 3e 97 fa 33 3e
       0.11243967 -0.2642498 0.37437555 0.17576061
000160 33 57 08 3c 15 6b a7 bd 25 0d cb bd f1 2d cb 3d
       0.008321571 -0.08174721 -0.099146165 0.09920872
000170 48 32 a0 3c 10 3b 1d 3e d4 f0 a7 3e 29 cd d7 be
       0.019555226 0.15354562 0.32800925 -0.42148712
000180 18 41 7a 3d 1f 83 2e 3d bc 3d 6d 3d 46 7b 49 be
       0.061097234 0.042605516 0.057920203 -0.19675931
000190 af fc ac be dd e7 42 3e d3 a2 69 3d ea b1 79 be
       -0.33786532 0.19033761 0.057040047 -0.24384275
0001a0 0e af 89 3e 2b d2 7f bd 19 de 18 3f c2 3e 8d 3e
       0.2689137 -0.06245629 0.59713894 0.27586943
0001b0 ed 66 9d 3d cf 4e af 3e 05 b2 99 3e 7a 60 bd bd
       0.07685647 0.34239814 0.3001863 -0.09246917
0001c0 19 d7 ae 3e 92 37 d7 be f9 86 61 be ac cf 43 bd
       0.3414848 -0.42034584 -0.22024144 -0.047805473
0001d0 fe 69 e0 3d b1 9c 18 3e 03 0e 8c 3e 28 ce 3c bd
       0.109577164 0.14903523 0.2735444 -0.046095043
0001e0 92 d0 34 bd 40 b2 0c 3d c9 ad 05 be e0 06 12 3f
       -0.04414422 0.03434968 -0.13054575 0.5704174
0001f0 6e b6 97 3e 5c ed 87 bd 32 32 6d 3e 1c 95 a5 3e
       0.2963137 -0.066370696 0.23163679 0.32340324
000200 1b ef 61 3e ef ae a2 3e de 72 7c 3e c4 cf cc bd
       0.22063868 0.3177409 0.24653193 -0.10000566
000210 82 b0 23 be fd 16 74 be 47 86 19 3e 05 38 8e 3e
       -0.15985301 -0.23836894 0.14992629 0.27777115
000220 27 23 07 3e 13 ed 9e 3e 43 fb 7c 3e 54 f7 19 be
       0.13197003 0.31040248 0.24705224 -0.15035754
000230 b2 bd a2 3e 55 be a3 be ee 90 ae 3d de 88 78 be
       0.3178535 -0.3198115 0.08523737 -0.2427096
000240 76 fe 3d be 3c 92 7a be 84 29 18 3c
       -0.185541 -0.24469846 0.009287242

gru_dp_fw.gru_cell.weight_hh f4 [21, 7]
000000 66 3e 2f bd 11 a5 41 3e 21 2b c1 be 41 47 76 3e
       -0.042784117 0.18910624 -0.37728217 0.24050619
000010 06 1a 32 3e a3 71 91 3e c1 dd e6 3d 87 01 86 3e
       0.1739274 0.2840701 0.11272765 0.2617304
000020 0e 14 7f be 6e ca a7 be ba f0 2e be 73 6b 17 be
       -0.24909994 -0.3277163 -0.17084017 -0.14787082
000030 63 68 28 be e4 c5 96 3e d5 eb 64 3e b6 21 a7 be
       -0.1644607 0.29447854 0.22355588 -0.32642907
000040 1d 92 56 3d 02 e3 a9 3d 33 22 53 bd 24 e6 a0 3e
       0.05238544 0.082952514 -0.051546287 0.31425583
000050 9c 92 97 bd 07 81 70 bd 14 bc 2b 3d d8 69 b5 be
       -0.074010104 -0.0587168 0.041927412 -0.35432315
000060 6f 30 47 3e f1 49 31 be ae 32 d6 3e 7c 6a fd 3d
       0.1945207 -0.17313363 0.4183554 0.12373826
000070 f5 43 2d 3c b8 0c 1e 3f a5 6b 42 bd 1a 47 95 3e
       0.010575284 0.6173816 -0.04746594 0.2915581
000080 c3 33 8b be 92 ee 64 3e 4b e8 2f bf 94 c8 09 be
       -0.2718793 0.22356632 -0.68713826 -0.1345542
000090 ba 8b 1e be 37 ea 41 bd bc 67 c1 bd 5a 64 4a 3e
       -0.15482989 -0.047342505 -0.09443614 0.19764844
0000a0 88 28 b8 3e 72 9e 90 be ae 88 d9 be 0e 9f b9 3d
       0.35968423 -0.28245884 -0.4248709 0.090635404
0000b0 2b 40 8e 3e 58 33 e8 3d ba 8b 68 3e d5 e2 4f 3d
       0.2778333 0.11337918 0.22709551 0.050753433
0000c0 29 e4 8d 3d dd ce 2d 3e 53 1d b9 3e 3a 58 0a 3e
       0.06928284 0.16973443 0.36155185 0.13510218
0000d0 ae 4a 1f 3e 27 9b 9d bd 4e cf b2 3e 45 a4 3b be
       0.15555832 -0.076956086 0.34923786 -0.18324383
0000e0 a5 ac 40 3d 87 11 b9 3e 0b 21 c2 be 9b f7 63 3d
       0.047039647 0.36146185 -0.37915835 0.055656057
0000f0 9f 80 a8 bd 53 24 a0 3e 59 24 02 3f 8b 90 d6 bd
       -0.082276575 0.31277713 0.5083671 -0.10476788
000100 59 e0 cb 3e 33 a3 22 3e a5 99 78 3e 26 e7 7e 3e
       0.398196 0.15882568 0.2427736 0.24892864
000110 67 d6 10 3c 76 85 03 be 7a c3 c3 bc 42 03 82 be
       0.00884018 -0.1284388 -0.023896921 -0.2539311
000120 d8 f2 b4 be 20 f7 99 3e 77 d9 00 3f 73 2a 0d 3f
       -0.35341525 0.30071354 0.50331825 0.551429
000130 7d 1d e5 bd 72 31 82 3d 00 84 8f be c7 35 29 3e
       -0.11187265 0.06357087 -0.28030396 0.1652442
000140 05 74 72 be e1 c2 ce 3d 6d c0 82 be 5d 67 30 3e
       -0.2367707 0.10095764 -0.25537434 0.1722693
000150 da 85 38 be 26 ad 90 bd 45 d2 a1 3e cf 82 b7 3e
       -0.1801981 -0.070642754 0.31605735 0.35841987
000160 7d 5b d3 3e f3 e6 95 3e bb e1 7b 3e e3 17 05 3e
       0.41280738 0.29277763 0.24597828 0.12997393
000170 09 ae 2c 3e 81 b0 3c 3e 65 bd 22 3e 87 22 2e 3e
       0.16863264 0.18426706 0.15892561 0.17005359
000180 c9 2b 8b 3d 45 b0 c6 3e 4a 53 99 be ae ff 99 be
       0.06795461 0.38806358 -0.29946357 -0.3007788
000190 fd 40 0f bb 10 1e 3d bc ed d1 11 3f 31 c0 ca bd
       -0.0021858804 -0.011542812 0.56960946 -0.09899939
0001a0 b5 1c 44 3e 17 92 a7 3e 02 36 08 3d ba 85 98 be
       0.19151576 0.32728645 0.03325463 -0.29789525
0001b0 d9 06 a4 3c 04 f0 85 bd 83 b7 4e 3e a1 e7 b3 be
       0.020022796 -0.0653992 0.20187192 -0.35137656
0001c0 b7 e6 8f be ea 78 54 3e 28 a1 c4 3d 6c 20 97 bd
       -0.2810571 0.2074925 0.096010506 -0.07379231
0001d0 58 0d a6 bd 71 66 b6 be 22 57 88 3e 86 60 bf bd
       -0.08108014 -0.35625032 0.26628977 -0.09344582
0001e0 a5 d0 0a 3f ed 21 08 be 3d 9f 8d 3e 1c cf ff bc
       0.54224616 -0.13294192 0.27660552 -0.031226687
0001f0 18 ae c6 3e 66 53 64 be c7 32 b6 be 7b f4 fd be
       0.38804698 -0.22297439 -0.35585615 -0.49600586
000200 a1 ff 19 be 5a c2 ad bd ab 71 82 3e 4f d6 bf 3c
       -0.15038921 -0.08484335 0.25477347 0.02341762
000210 4c b5 15 3f 4a bf 90 be dc a1 48 3d 50 78 c8 3d
       0.5847976 -0.28270942 0.048982486 0.09788573
000220 4d 73 d5 3e 66 43 0c be 3b 8a 83 be ef 4b 8b bd
       0.4168953 -0.13697585 -0.256914 -0.068015926
000230 b0 af e2 3d 7e 1a 9d be a9 bf 2c be 4c 64 8e bb
       0.11068666 -0.30684274 -0.16869988 -0.0043454524
000240 ce 02 12 3e 28 cc 43 bd 8d f2 76 bd
       0.14258882 -0.04780212 -0.06028991

gru_dp_fw.gru_cell.bias_ih f4 [21]
000000 fd c3 a3 3e ad d9 be 3d d3 45 70 3d 9c 05 92 bc
       0.31985465 0.09318862 0.05866034 -0.01782494
000010 c5 77 a3 bd cf 12 30 3e 5b 5d c6 3e 6d 82 8f 3a
       -0.079818286 0.17194675 0.387431 0.0010948904
000020 16 1a 99 be e7 b7 6b be ca 9e 4c be dc a6 a9 3e
       -0.29902714 -0.23019372 -0.19982448 0.33135116
000030 6d 76 ae be 88 15 6f be 88 19 89 3e bb 76 97 3e
       -0.34074727 -0.23348057 0.2677729 0.29582772
000040 ce 03 dc 3d c6 37 8f be c3 61 21 bf 5e 12 9a be
       0.10742913 -0.2797224 -0.630398 -0.30092138
000050 08 42 84 be
       -0.25831628

gru_dp_fw.gru_cell.bias_hh f4 [21]
000000 15 8a 06 bd a9 d8 73 be 0e 79 98 3e 98 55 76 3e
       -0.03284653 -0.23813118 0.29779857 0.24056089
000010 c2 68 f8 3e 21 05 da be fb bf a4 be 00 4c 8f be
       0.48517424 -0.42582038 -0.3217772 -0.2798767
000020 16 ea 68 bd 4a ba d0 be ef 8e ba be f8 0a f1 3a
       -0.056863867 -0.40767127 -0.36437175 0.001839011
000030 a0 f3 e2 be 6d d6 6f bb 88 cc 9f 3e d2 84 b3 be
       -0.44326496 -0.0036596314 0.31210732 -0.3506227
000040 bc a3 d1 3d 79 03 4a 3e 95 02 d9 be 31 80 bb 3c
       0.10236308 0.19727887 -0.42384782 0.022888275
000050 e4 7a 7e 3d
       0.062128916

gru_dp_fw.ode_net.odeblock.odefunc.fc1.weight f4 [7, 7]
000000 9c c1 1a 3f 71 38 e6 3d 82 be 97 3d ec 8d 88 bd
       0.60451674 0.11241234 0.07409383 -0.066676944
000010 3e 7a 4a bd 11 86 3a be 35 c3 d3 3d 1a e2 1b 3e
       -0.049432985 -0.18215205 0.10339967 0.1522297
000020 b6 21 c4 3c e9 fd e9 bb 76 3e 80 be b3 a3 f3 be
       0.023941856 -0.007140864 -0.25047654 -0.4758583
000030 6f de 24 3e 47 63 a5 3e c2 0f fe 3e 1c 76 51 be
       0.16100477 0.32302305 0.49621397 -0.20455211
000040 f3 dd 0f be 15 de 1c 3e 56 32 b1 be 3e e2 0e be
       -0.1404951 0.15319093 -0.34608716 -0.13953492
000050 b6 46 ba 3e 9f c2 94 3e 52 c2 b0 be d1 f5 96 3e
       0.36382073 0.29054734 -0.34523255 0.29484418
000060 58 09 a2 be ad 3e 2d bf d2 2f ae bd 95 19 02 be
       -0.31647754 -0.6767376 -0.08505215 -0.12705071
000070 d5 e7 ac 3d 8b 84 b5 bc 54 46 bb 3e 3f 01 b8 be
       0.08442656 -0.022157928 0.36577094 -0.3593845
000080 3c f0 7a 3d ce 95 d9 bd 43 fe ba 3d 81 45 c9 be
       0.06126426 -0.10624276 0.09130528 -0.3931084
000090 ec 21 66 3e 8e 63 d1 3d 8b 07 b6 be 63 4c e0 3e
       0.22473878 0.10224067 -0.3555263 0.43808278
0000a0 b3 88 9c 3d 70 d9 27 be a6 6d 12 3f 62 6d 64 3e
       0.07643261 -0.1639154 0.5719856 0.22307351
0000b0 2d 83 be 3e f4 4c ac be 19 b5 06 bf 30 92 c4 bd
       0.37209454 -0.3365246 -0.52620083 -0.095981956
0000c0 23 83 24 be
       -0.1606565

gru_dp_fw.ode_net.odeblock.odefunc.fc1.bias f4 [7]
000000 aa e9 b8 bc 2d 1b 26 3f e8 c5 90 3e ba e6 95 3e
       -0.022572357 0.64885217 0.2827599 0.29277593
000010 6c dd cc be df 0f 5c be 2e 9c f1 bd
       -0.4001268 -0.2149043 -0.11797367

gru_dp_fw.ode_net.odeblock.odefunc.fc2.weight f4 [7, 7]
000000 11 82 87 3e e4 c4 27 3e 2d 9a 13 3f 36 fe d9 3e
       0.2646642 0.16383702 0.5765713 0.4257676
000010 4d a3 d7 bd 41 ce e1 be 0e 60 df 3e b6 0c 4c bd
       -0.10529194 -0.44102672 0.4362797 -0.04981681
000020 19 92 07 3f 4c 81 6d bd b4 9f dd 3e 87 62 44 3d
       0.529573 -0.057984635 0.43285906 0.047945525
000030 dc 5d 84 bd 51 c6 8e 3e ef 71 95 be 21 92 29 bf
       -0.06463215 0.27885678 -0.29188487 -0.662386
000040 bc 76 fe bc b3 77 92 be ff 0e 7f 3e 2d 2d b7 bc
       -0.031062476 -0.28606948 0.24908064 -0.022360409
000050 44 24 05 3e 42 14 b3 3e 7e 66 c6 3e 63 26 98 3e
       0.13002115 0.34976393 0.3875007 0.29716787
000060 4c 0d ff 3c 7b ad e8 bd 46 75 b0 be a9 7b d5 3e
       0.03113427 -0.11361214 -0.34464473 0.41695908
000070 35 5f 98 3e d1 57 b8 3e 70 de 4f 3e 08 c9 46 3c
       0.29760137 0.360045 0.20299697 0.0121328905
000080 79 4e c6 be c8 d4 ad be 82 bc c9 3d ef 78 f4 bd
       -0.38731745 -0.33951402 0.09850408 -0.11937129
000090 94 71 ca be 00 87 23 bf de 45 f6 be 23 51 dc bd
       -0.39539778 -0.6387787 -0.4810018 -0.10757663
0000a0 73 0b 2e 3e c4 a4 35 be 9c 33 bc bd b5 e9 d2 3e
       0.16996555 -0.17738634 -0.09189531 0.4119393
0000b0 69 de cc 3d c2 74 0b 3e 3a de 89 be df db ed be
       0.10003359 0.13618758 -0.26927358 -0.4645681
0000c0 89 40 21 be
       -0.15747274

gru_dp_fw.ode_net.odeblock.odefunc.fc2.bias f4 [7]
000000 ac 10 c2 3e 7c be ce 3e e2 73 17 bf b3 66 ba 3e
       0.37903345 0.40379703 -0.591612 0.36406478
000010 9e 29 b7 bd ca 2f 2b bd 96 fe d8 3e
       -0.08943485 -0.041793622 0.42381734

gru_dp_fw.ode_net.odeblock.odefunc.fc3.weight f4 [7, 7]
000000 cf 6f 85 3d a8 cc 00 3e f6 7e 25 3e 64 a1 fc 3e
       0.065154664 0.1257807 0.16161713 0.4934188
000010 0b 52 94 be 69 b9 0e be 3b 15 b1 3e b0 88 18 bf
       -0.28968844 -0.13937916 0.3458651 -0.5958357
000020 7c 2f ae bb 19 0e 32 3f 1d f0 16 bf 7a fd b1 be
       -0.005315719 0.6955276 -0.58960134 -0.347637
000030 19 7c 71 3e 03 03 9b be 05 c9 de be 5c 91 f4 bd
       0.23582496 -0.30275735 -0.4351274 -0.119417876
000040 fd d3 fd 3d 07 5f 2c be cf ed 84 3e 1c 4f 21 be
       0.12393949 -0.16833125 0.25962684 -0.15752834
000050 5d 1e a4 3e 28 52 72 be 78 d3 82 3e 37 fb e6 bc
       0.32054415 -0.23664153 0.25551963 -0.02819596
000060 10 93 80 be 71 05 d0 bd c9 7d d6 bc 04 63 c7 3d
       -0.251122 -0.10157288 -0.026183026 0.097356826
000070 68 73 03 3f 17 b5 c0 3e 41 fc 6d bd 03 0f e8 3e
       0.5134797 0.3763816 -0.058101896 0.45323953
000080 a6 05 27 3e f4 23 33 be cb 38 2f 3e 1b b3 ae bd
       0.16310748 -0.17494184 0.17111509 -0.085302554
000090 4f 35 46 bd f5 17 d6 bd 48 bf 29 be f2 3a 6b 3e
       -0.048390683 -0.10453788 -0.16576874 0.22971705
0000a0 fd 3e 6b be 4b 46 39 3e 21 fe 85 3e 31 42 c8 3e
       -0.22973247 0.18093221 0.26170447 0.39113
0000b0 68 72 c3 be 27 51 ac 3e 36 09 0d 3e 54 47 20 bf
       -0.38173223 0.33655664 0.13773045 -0.6260884
0000c0 50 c7 92 3e
       0.28667688

gru_dp_fw.ode_net.odeblock.odefunc.fc3.bias f4 [7]
000000 c5 e2 bb 3e 8f fa b1 be 97 3b dd be 06 61 b8 be
       0.3669645 -0.34761474 -0.43209526 -0.36011523
000010 5e 17 28 3f 69 bd 5b bc a6 f6 00 3f
       0.65660655 -0.013411858 0.50376356

gru_cp_fw.decays f4 [6]
000000 f0 85 6c b1 7c 7f 00 00 70 07 7c b9 7c 7f 00 00
       -3.4418655e-09 4.5733e-41 -0.00024035363 4.5733e-41
000010 30 6a 6c b1 7c 7f 00 00
       -3.440288e-09 4.5733e-41

gru_cp_fw.gru_cell.weight_ih f4 [18, 6]
000000 71 af b0 3e 11 7c a4 3e 87 08 d2 be 2f 0e 9a 3d
       0.3450885 0.32125905 -0.4102213 0.075222366
000010 ec c0 79 3c b3 1b bf 3e 15 ea e2 bc 4a b9 11 3f
       0.01524375 0.3732582 -0.02769951 0.56923354
000020 f0 54 a5 bd 0a 88 04 3e 3c a9 2e 3e a9 ed 45 be
       -0.08072841 0.1294252 0.17056745 -0.19328941
000030 8c 7c 12 be dd 65 61 3e 4c 41 ba 3d ae 80 03 be
       -0.14305323 0.22011514 0.09094486 -0.12842056
000040 04 16 7a be 30 b1 b7 3e cb dc 89 be ce 4f 9b be
       -0.24422461 0.3587737 -0.26926264 -0.30334324
000050 6c 04 29 be bb 41 41 3e 6f d4 a1 3c 4a dc da be
       -0.16505593 0.1887273 0.019754617 -0.42746192
000060 ea 46 a3 3e 31 f9 fd bd aa 39 21 3e 44 6e 4c be
       0.3189004 -0.12401045 0.15744653 -0.19963938
000070 9d 71 ea 3e 63 2c 90 be c3 79 b4 3e 2f 3a 44 3e
       0.45789805 -0.28158864 0.35249147 0.1916282
000080 91 4d f2 3e a6 d3 9d 3e 28 68 75 3e 6e dd 8c 3e
       0.47324803 0.30825537 0.23965514 0.27512687
000090 17 66 cb 3b 25 d6 67 be cd 53 ef 3d be e4 00 bf
       0.0062072384 -0.22640283 0.116859056 -0.5034903
0000a0 4a b0 7a 3e 34 f7 8c be 3c e9 01 bf f3 1e 82 3e
       0.24481311 -0.2753235 -0.5074651 0.25414237
0000b0 0c ae 26 3c 6d cd 9e be c3 01 33 be cc 5b e0 bd
       0.010173332 -0.31016102 -0.17481141 -0.10955009
0000c0 15 1c b3 bd 74 2b c7 be 65 ce d0 3d 64 95 d7 3d
       -0.087455906 -0.3890034 0.10195617 0.10526541
0000d0 2b fa 82 be c1 0c 9f be 42 ff d2 be 4e 8f 84 bd
       -0.25581488 -0.31064418 -0.4121037 -0.06472646
0000e0 5a 3b e5 bd 8b d0 ae 3d 5d 84 9d be fe 6b d4 3e
       -0.11192961 0.0853587 -0.30765048 0.41488642
0000f0 da 4c fa be c4 12 e8 bd 24 38 8a 3e 7b f7 03 3c
       -0.48886758 -0.11331704 0.26995957 0.008054609
000100 9a 7c 8d 3d 74 32 a0 3e 37 f6 ea be 0c cb a0 3e
       0.069085315 0.31288493 -0.45890972 0.31404912
000110 58 86 79 be 12 e0 a9 3e d5 51 63 3e 60 ed da bd
       -0.24367654 0.33178765 0.22199185 -0.10689807
000120 c0 c2 9a be 82 78 4c 3e c1 56 34 be b2 dc 60 bd
       -0.30226707 0.19967845 -0.17611219 -0.05489797
000130 df f9 c3 3d 88 82 e1 3e a4 02 8a bd cd d1 96 bc
       0.095691435 0.440449 -0.06738785 -0.018410588
000140 61 47 d1 be 23 09 cf bd bc 2f b6 3c 5c 08 3a be
       -0.4087477 -0.101091646 0.022239558 -0.18167251
000150 8e 53 9c 3e 6c 3f 08 bf 59 a3 af 3e df bf d6 3e
       0.30532497 -0.53221774 0.34304312 0.4194326
000160 b3 7a 95 3e 4a 0d 84 be b6 c5 8e be b2 0d c7 be
       0.29195175 -0.2579139 -0.27885216 -0.38877636
000170 57 f4 d2 bb 7b 4c 76 3e f9 0d 53 bd de d5 9c 3d
       -0.006437819 0.24052612 -0.051526997 0.076579794
000180 86 67 f6 bd 12 9d c4 be d9 ea e4 3e 05 2c c5 3e
       -0.12031464 -0.38401085 0.44710425 0.38510147
000190 31 70 1f be 9f 7f 07 3e 9f 46 05 be 7d fd c7 be
       -0.15570141 0.13232277 -0.13015221 -0.39060584
0001a0 3a 70 8c 3e ea 69 b9 3e 12 31 8d 3e 4d 9a 51 be
       0.27429372 0.3621362 0.275765 -0.20469017

gru_cp_fw.gru_cell.weight_hh f4 [18, 6]
000000 fe c6 20 be 9a dc 33 3e 58 21 ca 3c 2b 13 98 bd
       -0.1570091 0.17564622 0.024674103 -0.07425531
000010 12 6d 85 bd 3d 84 eb be d4 2c e8 3e 28 ad 8b be
       -0.06514944 -0.45999327 0.453467 -0.27280545
000020 8d 1f e4 3d 81 4e 96 bd ff e8 a3 bc f9 93 f6 be
       0.1113883 -0.07339192 -0.020008562 -0.4815977
000030 da 2a 65 3d 7f 1b 95 bc 0c f8 ed be 39 2b 11 bc
       0.05594907 -0.018201588 -0.46478307 -0.008860403
000040 c9 d1 57 3e 5c 10 60 3e d8 80 b9 be 47 be 2f 3d
       0.2107612 0.2188124 -0.36231112 0.042906072
000050 b5 bf 55 be 1a 79 16 3d 8b c8 1b 3f 78 e0 c1 bd
       -0.20873912 0.036736585 0.6085288 -0.09466642
000060 e6 49 6b bd f2 05 80 3d 98 3f 86 3e a5 35 fd 3e
       -0.057443522 0.06251134 0.26220393 0.4945499
000070 9a 53 87 3e b1 96 0b 3f 81 02 bd 3e f5 68 c1 be
       0.2643097 0.5452681 0.36915973 -0.37775388
000080 73 ca be 3e ee a7 3b 3e 50 49 00 3f e5 0b b6 be
       0.37263831 0.18325779 0.50111866 -0.3555595
000090 99 74 e2 3e 55 30 31 be df 36 90 be 3b bc 03 3e
       0.44229582 -0.17303593 -0.28166863 0.12864773
0000a0 b5 ac a7 3d 65 6a 0c 3d 42 03 0f 3e ed 77 6c 3e
       0.08187238 0.034281153 0.13966087 0.23092623
0000b0 f9 0f df 3e 58 1a cd bd be 39 9c be 62 29 8f 3e
       0.43566874 -0.1001479 -0.30512804 0.2796126
0000c0 a0 ff bc be 54 63 83 be f9 57 2c bb 97 aa c7 bd
       -0.36913776 -0.2566172 -0.0026297553 -0.09749334
0000d0 49 e8 c0 be 57 d7 72 be b9 d9 a8 3e 8e 7b 48 bc
       -0.3767722 -0.23714958 0.3297861 -0.012236489
0000e0 5a b6 19 bd 63 b2 43 be 97 31 5e 3e e6 3b d5 be
       -0.03752742 -0.19111018 0.21698605 -0.4164726
0000f0 b3 27 c0 3e 93 cb e5 3e 61 99 80 bd 0a f5 a3 be
       0.37530288 0.44881877 -0.06279255 -0.32022887
000100 1b 52 25 be 63 1c 99 3d 36 87 db be 16 1c 55 be
       -0.16144602 0.074761175 -0.42876595 -0.20811495
000110 e5 c4 cb be 8a 1e 54 3d ba 29 b7 3e a1 64 32 3e
       -0.39798656 0.051786937 0.35774022 0.174212
000120 d8 2f 87 3e 98 ab d7 3e 52 08 16 bf 54 4f 98 be
       0.2640369 0.42123103 -0.58606446 -0.29748023
000130 f1 7a 58 3e f1 6b 19 3e aa 6f f5 3e 9b a4 f0 3d
       0.21140648 0.14982583 0.47936755 0.11750146
000140 9a be 6a be 8d 7c 4c be 95 26 b7 bd 68 ff 25 bd
       -0.22924271 -0.19969387 -0.08942906 -0.040526778
000150 89 3b 32 bd 11 93 cb 3e 07 79 e8 3e ee 9d cc bd
       -0.04351381 0.3976064 0.45404837 -0.0999106
000160 31 cf 03 3f b7 37 73 3e e0 7f 01 3d 1f 71 63 bc
       0.51488024 0.23751722 0.03161609 -0.013881951
000170 c4 88 b3 3e 95 37 75 be ca 25 85 3e 33 ef b1 bd
       0.3506528 -0.23946984 0.26005393 -0.08688202
000180 e5 19 9e 3d 6d 7d 61 3d 27 4d 9f 3e 20 fd a0 3e
       0.07719783 0.055051256 0.3111355 0.3144312
000190 11 3c ea 3e 1e 6a fa bc 4d 15 7e bd ce d4 57 3e
       0.45748952 -0.030568179 -0.062032033 0.21077272
0001a0 90 cd f3 ba 64 c1 af bd 44 b8 8b 3e 9f c6 c1 bd
       -0.0018600691 -0.08581808 0.2728902 -0.09461712

gru_cp_fw.gru_cell.bias_ih f4 [18]
000000 54 68 79 3b c7 4f c9 3e 46 3c e3 3e 12 54 88 3e
       0.003805657 0.39318678 0.44381922 0.2662664
000010 6c e3 0c be 96 ab 03 be c8 7e ee 3e d7 44 f2 be
       -0.1375863 -0.12858424 0.465811 -0.47318146
000020 92 d9 6e 3d 1d 1a 45 3e 95 3e de 3c 94 ad 99 3e
       0.05831296 0.19248243 0.02712945 0.30015242
000030 26 21 61 be ca 00 4c be a3 1d 30 be 8e c6 81 3e
       -0.21985301 -0.19922176 -0.17198806 0.25346798
000040 e6 a1 88 3e 6b 4b e2 bd
       0.2668602 -0.11049541

gru_cp_fw.gru_cell.bias_hh f4 [18]
000000 39 05 8a 3e 3f 1b 22 bd 37 28 37 be 45 cb d8 3e
       0.2695711 -0.039576765 -0.17886434 0.42342582
000010 4c 18 97 3d e4 a0 55 be 06 59 cc bd 06 b7 fa 3d
       0.07377681 -0.20862156 -0.099779174 0.1224194
000020 be 4b 02 be f7 ad 18 be 98 b7 9b bd 20 67 82 be
       -0.12724206 -0.14910112 -0.07603377 -0.25469303
000030 f2 b1 d4 3e 1c be c0 3e 2d 8a 4a be db 25 b7 3e
       0.41542011 0.37645042 -0.19779272 0.3577107
000040 44 d4 b8 3e fa a7 be 3e
       0.36099446 0.3723753

gru_cp_fw.ode_net.odeblock.odefunc.fc1.weight f4 [6, 6]
000000 e7 e7 4c be c1 b3 6d 3e 30 31 8b 3c fc f9 cf bd
       -0.20010339 0.23213102 0.016991228 -0.101551026
000010 3c 2e 11 3e e0 ab ce be 4a b7 83 bc 90 b4 97 be
       0.14177793 -0.40365505 -0.01607861 -0.29629946
000020 af 88 35 be 7f 5f c3 3c 45 89 be 3d bb 83 1b bb
       -0.17727922 0.023849247 0.09303526 -0.002372964
000030 9a f5 98 be 91 47 97 be 3a 01 6f 3e b2 b8 be 3d
       -0.2987488 -0.29546788 0.23340312 0.093125716
000040 8f eb b6 be 9c 32 5a be 6a ab ce be 25 74 d8 be
       -0.35726592 -0.21308368 -0.40365154 -0.4227611
000050 09 44 8c bc 36 51 51 3e 65 fd b8 3e 68 09 a6 3e
       -0.017122285 0.20441136 0.36130825 0.3242905
000060 1e d6 42 3d 91 31 e3 bd b1 40 b5 3e 5d 4e 87 3d
       0.04756748 -0.110934384 0.35400918 0.066067435
000070 a9 2e 8e bd 6d af e2 3e e6 4f 2a 3d da 43 cf 3d
       -0.069424935 0.44274464 0.041580103 0.101203635
000080 bb 66 fd bd 45 0f 12 bf 40 0c c4 bd 27 6c 12 3e
       -0.1237311 -0.5705455 -0.09572649 0.1429907

gru_cp_fw.ode_net.odeblock.odefunc.fc1.bias f4 [6]
000000 0b 56 5f 3f 82 28 15 bf 28 a9 ae be e4 2f 2e bf
       0.87240666 -0.58264935 -0.3411343 -0.68041825
000010 33 77 53 bf 45 07 bd 3e
       -0.8260376 0.3691961

gru_cp_fw.ode_net.odeblock.odefunc.fc2.weight f4 [6, 6]
000000 d7 45 33 bf 11 3c 3f 3f 9f cc 98 3e c4 6e 1a 3f
       -0.7002844 0.7470103 0.29843614 0.60325265
000010 a1 09 4d 3f 36 63 4c be 1f 3a 4f bf a9 4e 62 3e
       0.8009282 -0.19959721 -0.8094806 0.22100319
000020 38 4d b0 3e b4 0f 0d 3f 30 ad 47 3f c9 a2 14 bf
       0.34433913 0.55102086 0.7799864 -0.5806089
000030 97 0b e5 be f9 5d be 3e de 21 fc 3e 57 ed 09 3f
       -0.44735405 0.3718107 0.4924459 0.53877777
000040 ef 3f 14 3f ac 78 0d bf 1f 9c c1 3d b0 14 00 bf
       0.57910055 -0.55262256 0.09453606 -0.50031567
000050 e3 e7 14 bf f2 07 20 bf fc 8f 02 bf 5e f3 08 3f
       -0.5816633 -0.62512124 -0.5100095 0.5349635
000060 70 27 fe 3e 2c 15 be be 81 30 e0 be 10 d8 4b bf
       0.49639463 -0.37125528 -0.43787006 -0.7962656
000070 dd 97 4c bf e1 d2 f1 3d 2f d1 8b be 6d 87 ca 3e
       -0.79919225 0.118078 -0.27308032 0.39556447
000080 20 bc 04 bd c4 6b 3f 3f 08 61 01 3f 27 c5 e6 be
       -0.032405972 0.7477381 0.5053868 -0.4507229

gru_cp_fw.ode_net.odeblock.odefunc.fc2.bias f4 [6]
000000 d9 1b d3 be b9 80 cc be f2 81 40 bf 5a da 22 3f
       -0.41232184 -0.39941958 -0.7519828 0.6361443
000010 39 7c 2f 3f a5 66 56 bf
       0.68548924 -0.83750373

gru_cp_fw.ode_net.odeblock.odefunc.fc3.weight f4 [6, 6]
000000 e3 df 2e bf d4 03 bd be 99 5b 71 bf 47 ee 68 3f
       -0.68310374 -0.36916983 -0.9428039 0.9098858
000010 0b 5f fc 3e 5a 00 9c be 59 36 1f bf ae 3a 80 be
       0.49291262 -0.30469018 -0.621923 -0.2504477
000020 33 a6 df be 6c 8c 2c 3d 41 62 c2 3e 26 bd a5 be
       -0.43681487 0.042126104 0.37965587 -0.3237087
000030 ae 82 7d 3f f9 81 89 3f 8c 91 67 3f fe c4 c4 be
       0.99027526 1.074279 0.9045646 -0.38431543
000040 21 9d 56 bf 75 b0 73 3f 2b 75 6a 3f 09 ef 81 3f
       -0.8383351 0.9519113 0.91585034 1.0151073
000050 3b 65 92 3f 31 0d 8b bf cf 2f 18 bf 63 62 35 3f
       1.1437143 -1.0863401 -0.5944795 0.7085325
000060 16 07 0d 3f 5c 42 bc 3e 7b 37 36 3f 25 fc 8f be
       0.5508894 0.36769378 0.71178406 -0.2812206
000070 57 01 80 bf 60 ab 78 3f 0a 22 bc 3e 0f 8a 44 3f
       -1.0000409 0.971365 0.3674472 0.7677316
000080 25 2c a4 3e 80 29 01 bf 29 58 44 be b6 3b 8e 3e
       0.3206493 -0.5045395 -0.19174255 0.2777993

gru_cp_fw.ode_net.odeblock.odefunc.fc3.bias f4 [6]
000000 fc 3d e4 3e af 61 0f 3f dd c6 cf be 30 a4 f8 be
       0.4457854 0.5600843 -0.40581408 -0.48562765
000010 49 7e ba be b5 93 f0 be
       -0.36424473 -0.46987692

gru_dp_bw.decays f4 [7]
000000 fe 60 5f 84 c2 ae dc d2 70 c0 1f b2 7c 7f 00 00
       -2.625806e-36 -4.7391238e+11 -9.298773e-09 4.5733e-41
000010 70 b0 1f b2 7c 7f 00 00 29 a7 26 9f
       -9.295135e-09 4.5733e-41 -3.529014e-20

gru_dp_bw.gru_cell.weight_ih f4 [21, 7]
000000 fb 48 3c 3c 5c e7 88 3e 7c 4e ac bd f9 2a 76 3e
       0.011492009 0.26739013 -0.08413407 0.2403983
000010 c8 f1 3e be 7a 6f 36 3e c7 64 2d 3e 5c d0 dd 3d
       -0.1864692 0.17815962 0.16932975 0.10830757
000020 c7 5b f4 bd 4c e8 23 be de 84 ff 3d 54 f2 4a be
       -0.11931568 -0.16006583 0.12476514 -0.19819003
000030 15 88 58 3d e5 c2 a5 bd d0 3f c5 bd 70 6b 27 3e
       0.052864153 -0.08093814 -0.09631312 0.16349578
000040 35 4d f5 be 65 1f 88 3d b6 2d 47 3e aa 42 99 3e
       -0.47910467 0.06646613 0.19451031 0.29933673
000050 b8 75 b4 be 8b dd 69 3e 57 86 65 be 74 1b 65 3e
       -0.35246062 0.22838418 -0.22414528 0.22373754
000060 7a d6 02 bf 93 2d 67 be a1 19 64 be fc c7 b5 3e
       -0.51108515 -0.22575979 -0.22275402 0.35504138
000070 d6 4a f5 3d ba 3a b3 3e 96 4f 43 be a0 72 c7 be
       0.119771644 0.35005742 -0.19073328 -0.3895464
000080 11 45 77 3d f9 56 5d be 6b cf f4 be fd 09 c6 be
       0.0603686 -0.21615209 -0.47814497 -0.38679495
000090 3b 70 5e be 2a b3 9d 3e d5 06 93 3e 5f 13 84 be
       -0.217225 0.30800754 0.2871615 -0.2579603
0000a0 1e c1 5d 3e 33 15 c0 3e 57 b1 85 bd 26 75 81 3e
       0.216557 0.37516174 -0.065279655 0.2528469
0000b0 9a d7 0d bd f4 72 45 bc 75 3b d9 3d f9 8b cc 3e
       -0.03462944 -0.012051333 0.10607044 0.3995054
0000c0 fa 7a 2e 3e 34 6d e9 be 0d 58 e5 bd 88 94 f6 3e
       0.170391 -0.45591128 -0.11198435 0.48160195
0000d0 ce dd 28 3d c8 3e 48 3d e4 c8 e4 3e 67 db cb 3d
       0.041227154 0.048887998 0.44684517 0.09953957
0000e0 8f 87 fd bd a1 2d 1e 3e 23 3f af 3d 58 88 c1 be
       -0.123793714 0.15447094 0.08556964 -0.37799335
0000f0 c4 66 d8 3e c5 6f 99 be 79 23 cf 3e cc c3 06 bf
       0.42265904 -0.29968086 0.4045675 -0.5264251
000100 77 c2 6d 3e 0a 68 9d 3e f7 9d c1 3e e5 13 bf 3d
       0.23218714 0.30743438 0.3781583 0.093299665
000110 5f b4 b5 bd 0d 82 cb 3e 8e 69 f6 be 08 33 24 be
       -0.08872294 0.39747658 -0.48127407 -0.16035092
000120 d4 cc c5 3c a8 a2 c8 bd 5a 04 c4 be bb 7e 87 3e
       0.024145521 -0.09796649 -0.3828457 0.26463875
000130 a3 34 71 3e c6 05 a5 3e c9 48 eb 3d 8d 5e 0c be
       0.23555236 0.32230967 0.11488492 -0.13707943
000140 8b 58 3e bd d7 7b 10 bf a3 01 0f be 2b a3 6a 3d
       -0.04647116 -0.56438965 -0.13965468 0.057284515
000150 29 48 df bc 7f 14 8f be e3 c8 46 bd 3c b2 09 be
       -0.027256088 -0.27945325 -0.048531424 -0.13446897
000160 4a ba 04 be cd 28 5a 3e 57 16 6b 3d fc 2b b2 3e
       -0.12961689 0.21304627 0.05739435 0.34799182
000170 bb ac cd 3e 9a 33 4f be ce 5c 60 3d e8 ac b0 3e
       0.40170845 -0.20234528 0.054776005 0.34506917
000180 a0 c9 54 be 62 58 8d be aa 3d 45 be 1f 8a 51 3e
       -0.20780039 -0.27606493 -0.19261804 0.20462845
000190 a6 a3 a3 3e 09 85 05 3e 50 c5 08 be 2b 43 61 3e
       0.3196079 0.1303903 -0.13356519 0.21998279
0001a0 a5 30 a1 bd e6 f6 99 3e 04 52 81 be 32 c8 9b 3d
       -0.07870606 0.3007118 -0.25257885 0.076065436
0001b0 8e ad dd be 77 a3 72 3e a3 78 27 be 05 1a 1b 3e
       -0.43296474 0.2369517 -0.16354613 0.15146644
0001c0 f8 41 e1 3e ae 9f 0a bf c8 bb ed bd a2 52 a7 be
       0.43995643 -0.541499 -0.11608082 -0.3268023
0001d0 95 29 6f 3d 1d 97 38 be 01 ea 53 be 88 96 66 3e
       0.058389265 -0.18026395 -0.20694734 0.2251836
0001e0 fe 46 d4 3d 7c 49 b4 3e 15 54 55 3e d3 f8 99 3e
       0.10365103 0.35212314 0.20832856 0.3007265
0001f0 d7 c4 fa 3d 4e 9a a4 bd 39 e4 de 3e 65 2d 93 3e
       0.122445755 -0.08037244 0.43533495 0.2874557
000200 88 0a 57 be 12 59 e6 3c ca 93 51 bf 19 74 c8 bd
       -0.21000111 0.028118644 -0.81866133 -0.09787769
000210 5e 00 6a bd 9e d1 85 3e 28 40 94 be c3 8d 19 3e
       -0.057129256 0.26136488 -0.28955197 0.14995484
000220 5e 61 20 be f6 d5 45 bb 43 16 e5 3d ac a0 8e bd
       -0.15662143 -0.0030187345 0.11185887 -0.069642395
000230 f4 0e 4c 3e ba 1a b0 3e 70 2f 03 bd d2 c7 60 be
       0.19927579 0.3439539 -0.03202766 -0.21951225
000240 40 69 a6 3e 1e 91 3f 3e 5d 34 48 3d
       0.32502174 0.18707702 0.048878063

gru_dp_bw.gru_cell.weight_hh f4 [21, 7]
000000 48 ad 41 be 30 8c 07 3f 24 27 94 3e d2 9d 3b bd
       -0.18913758 0.52948284 0.28936112 -0.045804806
000010 f6 4d fb bd 4f 16 78 bd 9f 73 90 be 84 de 15 3e
       -0.12270729 -0.06056815 -0.28213212 0.14635664
000020 5d bb 0f 3f ce 84 c2 be b6 ea 68 3e 53 25 25 3e
       0.5614527 -0.37991947 0.22745785 0.1612752
000030 29 39 ab 3e 33 c7 98 3d 45 3a be 3e e8 ca d7 3d
       0.33442047 0.07459869 0.3715383 0.10536748
000040 23 1f 79 3e da 8f d6 3e b2 f0 b1 3e 9c db 74 be
       0.24328284 0.41906625 0.34753948 -0.239119
000050 60 98 bd be 94 f7 f6 be 3f d0 67 3d 8c f2 21 be
       -0.37030315 -0.48235762 0.056595083 -0.1581518
000060 88 f7 7a 3e 45 66 21 3d f3 e8 b7 3e a0 bb 05 bf
       0.24508488 0.039404172 0.35919914 -0.5223942
000070 b4 71 8f 3e 74 8d 76 3f f7 c2 9e 3d 4a 5c d6 3e
       0.28016436 0.9630959 0.0775203 0.41867286
000080 c7 40 15 3f f8 c3 4b 3f 5c 40 ca be eb 5c 77 be
       0.5830197 0.795959 -0.39502227 -0.24156539
000090 96 a8 84 3e 4f 8d 27 bd f6 01 70 3e 0d 1b 3c 3f
       0.2590987 -0.040906247 0.23438248 0.73478776
0000a0 2d 02 05 3f a2 4d f9 bd 19 c0 28 be d8 fd f5 bb
       0.51956445 -0.121730104 -0.1647953 -0.007507067
0000b0 c1 bc 5e be ab 0c 5b be 15 b1 4d 3e fd a9 86 3e
       -0.21751691 -0.21391551 0.20087083 0.26301566
0000c0 09 87 56 bd 11 b1 a5 be 3a d8 ee 3e 03 53 cc 3e
       -0.052374873 -0.32361653 0.46649343 0.39907083
0000d0 e9 59 fc 3d fc f8 4d bc ab b3 71 bd 6d 02 6c be
       0.123218365 -0.0125715695 -0.059009235 -0.230478
0000e0 ac 95 4c 3d 59 44 1f 3d f7 d3 b7 be 9a b8 74 bd
       0.049947426 0.03888354 -0.35903904 -0.059746362
0000f0 56 0e dc 3c e8 f6 dd 3e c3 30 83 bd ef 85 e1 bd
       0.026862305 0.43352437 -0.06405785 -0.11011874
000100 c6 49 fe 3d d9 c0 ca 3e 19 4b 40 be 57 54 f9 3e
       0.12416415 0.39600256 -0.18778647 0.4869716
000110 5d e1 21 3e b4 a4 bd be 4e eb 6a 3e 50 20 61 3e
       0.15808626 -0.3703972 0.22941324 0.21984982
000120 1c 33 54 be 26 11 5b 3e a7 96 c3 be 30 73 af be
       -0.20722622 0.2139326 -0.38200876 -0.3426757
000130 54 af 6c be 24 87 02 3d 9d 37 48 3e e3 c5 ba be
       -0.23113757 0.03186716 0.19552465 -0.364791
000140 48 72 ee bd 5c b1 8d 3e ac d1 2b 3f 4b 92 ec 3d
       -0.11642891 0.27674377 0.6711681 0.11551341
000150 28 05 b9 be 45 0a a3 be c0 10 56 3e 72 fb 83 3e
       -0.36136746 -0.31843773 0.20904827 0.25777775
000160 5b 10 bb bc 8b f1 1c be bc 45 e1 3d 42 5d a9 be
       -0.022834947 -0.15326516 0.10999629 -0.33078963
000170 44 96 3a 3d 15 cd a1 be 82 6b 25 3e 51 43 1a 3f
       0.04555346 -0.31601778 0.16154292 0.60258967
000180 42 f5 d6 3e cf 29 60 3e a9 e0 a1 3e 6a c1 1b bf
       0.41983992 0.21890949 0.31616715 -0.60842
000190 3c 09 0a bf aa a0 27 3d 60 2e bc be aa 08 45 bf
       -0.5392034 0.040924706 -0.3675413 -0.76966345
0001a0 f5 14 ee 3e fa df 27 be 4b f9 b8 3d 11 c7 75 be
       0.46500364 -0.16394034 0.09031924 -0.24001719
0001b0 54 56 1e bc 8d da 1d 3f 5a 0a a6 3e 8d 57 e6 be
       -0.009664137 0.6166161 0.32429773 -0.4498867
0001c0 64 39 28 3d 02 f7 ab bd 19 c6 69 3c 82 77 41 bd
       0.041070357 -0.083967224 0.014268422 -0.047233112
0001d0 40 3a d9 3e 5c 55 14 3f 6e 9a ad bd b2 1f 90 3e
       0.42427254 0.5794275 -0.08476721 0.28149182
0001e0 0e 35 fd bc 62 36 d8 3b 1f a0 bb 3a 88 ff d8 be
       -0.030909088 0.00659828 0.0014314688 -0.42382455
0001f0 97 e1 9a be 28 c5 a3 3a 39 d6 b0 3e 25 ce 67 3e
       -0.30250236 0.001249467 0.3453844 0.22637232
000200 45 23 12 bf 0b 5f 92 be 2f eb 90 3f 1d 47 67 3e
       -0.5708507 -0.28588137 1.1321772 0.22585721
000210 9b 65 fa 3e 49 2c 09 be 63 19 86 3e da 6e 5c bd
       0.48905644 -0.133958 0.26191244 -0.053816654
000220 38 d7 3e 3c 30 57 87 3f 8f 8f 8d 3e 55 c8 9f be
       0.011647992 1.0573483 0.2764859 -0.3120753
000230 13 cd 4f 3e ba 9f 1a bf fe 96 0c bf 89 1c d5 3a
       0.20293073 -0.60399973 -0.54917896 0.0016259114
000240 58 a0 3f bf 71 cb ed 3b af 79 96 3e
       -0.7485404 0.007256918 0.29389712

gru_dp_bw.gru_cell.bias_ih f4 [21]
000000 95 4b 20 3f 2f 1f 5d bd a3 97 1e be f7 7b 12 3d
       0.6261533 -0.053984817 -0.15487532 0.035762753
000010 d3 ee 3c 3f b5 e0 6e 3e f3 11 09 3e 6d bb 49 be
       0.73801917 0.23327906 0.13385753 -0.19700404
000020 9f 02 72 3c 9d c8 69 be 9b 0a 2f 3c 3e de 7f 3f
       0.014771133 -0.22830434 0.010683681 0.9994849
000030 b2 56 a4 3e 80 78 8c be c6 a8 81 3e 24 4c 46 3e
       0.32097393 -0.27435684 0.25324076 0.19364983
000040 22 fd 94 be 98 62 8f 3d 03 bc 80 bc bc 14 fe bb
       -0.29099375 0.07001227 -0.015714651 -0.0077539366
000050 4b 67 6f 3e
       0.23379247

gru_dp_bw.gru_cell.bias_hh f4 [21]
000000 47 06 91 3d 25 9f eb 3e ea 60 dd bd 3f bc 0f 3f
       0.070812754 0.46019855 -0.108095005 0.56146616
000010 d5 a0 bb 3e 54 a6 1a 3e d7 8e a7 3e 74 f5 8a 3e
       0.36646143 0.15102512 0.32726166 0.2714039
000020 fd 4e b7 3e 9c c7 97 3d 8c ae 86 bd 8c f4 43 3f
       0.3580245 0.07411119 -0.06576261 0.76545024
000030 25 d9 ad 3e ba 92 88 3d 27 a6 be 3d 21 56 ea 3d
       0.3395473 0.06668611 0.09309035 0.11442209
000040 43 57 7e bd 4d 77 ce bb 2b 55 11 3e 1f 78 8c 3e
       -0.062094938 -0.006300843 0.14192645 0.27435395
000050 39 ab 50 3e
       0.20377816

gru_dp_bw.ode_net.odeblock.odefunc.fc1.weight f4 [7, 7]
000000 6a 9a 8a bd 85 51 2a 3e 66 56 cd be a0 42 b8 bb
       -0.067677334 0.1663266 -0.4010498 -0.0056231767
000010 e4 25 a9 3d e2 37 76 3e a7 d6 0f bd 88 e3 ce be
       0.0825918 0.24044755 -0.035116818 -0.40407968
000020 c1 07 cb 3e de a3 9b 3c 7d 31 e4 3c 45 49 54 be
       0.39654353 0.018999036 0.02785563 -0.20731075
000030 5a 31 de bd 00 08 a8 bb 40 47 cb 3e f3 d5 1d 3e
       -0.10849257 -0.005127907 0.39702797 0.15413646
000040 89 fc 01 3d d0 5d e6 3d 52 a9 a5 be 8a cf 9a be
       0.031734977 0.11248362 -0.32355744 -0.30236465
000050 ee f1 47 be c5 28 ed be 25 9f 7c 3e 01 e0 93 bd
       -0.19525883 -0.46320167 0.24670084 -0.0722046
000060 a6 2d 1e be 3e b8 fb bb 46 38 fe 3d c8 62 4c be
       -0.15447101 -0.0076818755 0.12413077 -0.19959557
000070 4a 15 22 3e 7c 5e cc bd 9a db 9d 3e f4 ea 10 be
       0.15828434 -0.09978959 0.30831605 -0.14152128
000080 11 b3 06 3e cf 31 37 bd 6f f1 93 be bf 35 6c be
       0.13154246 -0.044725236 -0.28895137 -0.23067378
000090 4b 20 da be 38 23 3b 3e 2b 21 84 3d af 45 40 bc
       -0.42602763 0.18275154 0.06451639 -0.011735364
0000a0 36 65 a6 bd 25 90 8e 3e 3e e2 f2 3e d7 fe 5c 3d
       -0.08124773 0.2784435 0.47438234 0.05395397
0000b0 20 d0 57 be 60 2f b2 3e 48 48 b5 be bd 9c 95 be
       -0.21075487 0.3480177 -0.3540671 -0.29221144
0000c0 34 12 b8 3e
       0.35951388

gru_dp_bw.ode_net.odeblock.odefunc.fc1.bias f4 [7]
000000 00 0d b3 3c 6f 33 fd bd 2d cf b5 be d8 63 43 be
       0.021856785 -0.12363326 -0.35509625 -0.19081056
000010 a8 3c e5 3d 1f c2 bc be 0e 85 f2 3d
       0.1119321 -0.36866853 0.118417844

gru_dp_bw.ode_net.odeblock.odefunc.fc2.weight f4 [7, 7]
000000 58 ff 4d 3e 0d 2d 9a be bc 89 30 bc 9f 55 41 3e
       0.20116937 -0.30112496 -0.010775026 0.18880318
000010 07 4b 22 be 9f 3f a3 bd 21 f3 44 3c 0e 1f ee 3e
       -0.15848933 -0.07971119 0.012020857 0.46508068
000020 c2 17 c2 3d ca 26 a9 be 22 e0 88 3e 7a e0 d0 3e
       0.09477188 -0.33037406 0.267335 0.40796262
000030 3a d3 08 bf 5c 69 11 bf 0d 87 25 be 86 df 0a 3c
       -0.53447306 -0.5680139 -0.16164799 0.008476144
000040 b7 58 b3 3d 42 d7 f9 be a7 98 3a be 70 03 10 3e
       0.087571554 -0.4879704 -0.18222295 0.14063811
000050 4c 72 e3 3e e2 e2 d5 37 39 55 9e 3d 1e c8 8e be
       0.4442314 2.549723e-05 0.07731099 -0.27887052
000060 81 04 83 3e 48 d4 7d 3e 1b a1 87 be 35 ba 56 3e
       0.25589374 0.2478801 -0.264901 0.2096947
000070 05 f5 bd bd 0a a5 b3 3e 4d 68 81 3e c9 48 ac be
       -0.092752494 0.35086852 0.25274888 -0.3364928
000080 b2 f1 25 3e 11 c1 1a 3b 8f 78 bf 3e c2 40 3b be
       0.1620548 0.0023613612 0.37396666 -0.18286422
000090 ea 00 b4 be 8e f5 b4 3e b4 b7 f5 bd 59 38 5e 3e
       -0.35156947 0.35343593 -0.11997929 0.21701182
0000a0 7d 92 e6 3b de 02 8c 3e 81 18 71 bd f3 14 fe bd
       0.0070365057 0.27345937 -0.05886126 -0.124063395
0000b0 28 d5 38 3e 91 bc ee be ef 1d 6f 3e 99 87 85 3e
       0.18050063 -0.4662824 0.23351263 0.26080015
0000c0 be 0d b2 3d
       0.08694027

gru_dp_bw.ode_net.odeblock.odefunc.fc2.bias f4 [7]
000000 43 34 89 bb da 92 9d bd 1d 55 aa bd 95 9f ce 3d
       -0.0041871383 -0.07694025 -0.08317015 0.100890316
000010 2e 76 31 3e 94 fb 8d be 55 81 d5 3d
       0.17330238 -0.27731 0.10425059
