ablation1_min_count/min_count_0/ode_birnn/final_model.pt (torch, 490053 bytes, 33 tensors)

embed_dp.weight f4 [8364, 11]
0	0x00000000	0.0
1	0x00000000	0.0
2	0x00000000	0.0
3	0x00000000	0.0
4	0x00000000	0.0
5	0x00000000	0.0
6	0x00000000	0.0
7	0x00000000	0.0
8	0x00000000	0.0
9	0x00000000	0.0
10	0x00000000	0.0
11	0xbf84a691	-1.0363332
12	0xbfd2d592	-1.6471426
13	0xbf2f86d9	-0.68565136
14	0xba507139	-0.0007951442
15	0x3f643aa6	0.8915199
16	0x3f6093de	0.8772563
17	0x3efb4196	0.49073476
18	0x3f6c062b	0.9219691
19	0x3f58d69d	0.84702474
20	0x3f746a8b	0.9547507
21	0xbf96eb6a	-1.1790593
22	0x3eb0bd79	0.34519556
23	0x3f0c755d	0.5486658
24	0xbe23dc89	-0.16002096
25	0x3f5c6670	0.8609381
26	0xb9cc11f3	-0.00038923285
27	0x3f5d8597	0.86531967
28	0xbe4ad177	-0.19806467
29	0x3e9ebfdc	0.31005752
30	0xbf6c0f36	-0.9221071
31	0xbfbc3dc4	-1.4706349
32	0x3f3f7fb2	0.7480422
33	0xbfc65cbb	-1.5497049
34	0xbe1f313e	-0.15546128
35	0x3f0e2422	0.55523884
36	0x4013d54b	2.3098934
37	0x3e795fa6	0.24352893
38	0x3f66330b	0.89921635
39	0x3e8b3bc0	0.27194023
40	0x3f11d33e	0.56962955
41	0xbf71c41c	-0.94439864
42	0xbcf058e1	-0.029339256
43	0x3f9adaf3	1.2098068
44	0xbf4ea4e9	-0.8072038
45	0xbfaa29c9	-1.3294002
46	0x3e86a7b6	0.26299828
47	0xbef271e9	-0.47352532
48	0xbf0a7b50	-0.5409441
49	0xc06cf82c	-3.7026472
50	0xc01bba7c	-2.433257
51	0x3f101538	0.5628238
52	0xbf9936fa	-1.1969903
53	0xbe45b071	-0.19305588
54	0xbe05f759	-0.13082637
55	0x3f4f8260	0.8105831
56	0x3f375f97	0.71630234
57	0xbed01ee8	-0.4064858
58	0xbdf69eac	-0.12041983
59	0x3f956330	1.1670895
60	0x3eb83544	0.35978138
61	0xbf0247f3	-0.50891036
62	0xbfd4ca3a	-1.6624215
63	0xbf17cc62	-0.5929624
64	0xbedda08f	-0.4328656
65	0xbf210c3e	-0.62909305
66	0xbe7f6dcd	-0.2494423
67	0x3f6bfa5d	0.921789
68	0x3e77d648	0.24202836
69	0xbd50001a	-0.050781347
70	0xbe69809c	-0.22802967
71	0xbfdba45b	-1.7159532
72	0x3f1e9da7	0.6195931
73	0xbf5ef64a	-0.8709456
74	0x3f8db17b	1.1069788
75	0x3faee27f	1.3662871
76	0x3f80b225	1.0054365
77	0xbf4a547c	-0.7903516
78	0xc021df2f	-2.529247
79	0xbcc33e45	-0.023833403
80	0xbf1002fb	-0.5625455
81	0xbf55e4e8	-0.8355241
82	0xbef8a3c4	-0.48562443
83	0xbebd70ef	-0.37000224
84	0x3e8344fa	0.25638562
85	0x3eb4134e	0.35170978
86	0x3f29526d	0.66141397
87	0x3e0c5be4	0.13706928
88	0x3de03dec	0.10949311
89	0x3f0e6614	0.5562451
90	0xbeeed4c0	-0.4664669
91	0xbe06bbb3	-0.13157539
92	0xbf63746c	-0.8884952
93	0xbfcb7591	-1.5895253
94	0xbf948780	-1.1603851
95	0x3e9e7bd9	0.30953863
96	0x3e5f6644	0.21816355
97	0xbea96cc2	-0.33090788
98	0xbf89bb84	-1.076035
99	0x3f79108c	0.97290874
100	0xbe44472e	-0.19167778
101	0x3e6cee04	0.23137671
102	0x3e6791d1	0.22614218
103	0xbf4ed399	-0.8079162
104	0x3f725ae4	0.9466994
105	0x3e3fe6b5	0.18740351
106	0xbec17284	-0.3778268
107	0x3f226170	0.6342993
108	0x3ea431ca	0.32069236
109	0x3e6b979b	0.23007052
110	0xbf387e4b	-0.7206771
111	0xbf1b3f6b	-0.60643643
112	0x3f170141	0.5898629
113	0x3f3285cd	0.69735414
114	0xbdc9ede3	-0.098598264
115	0x3f275fde	0.65380657
116	0xbf118504	-0.5684359
117	0xbfb56988	-1.417283
118	0x3f974a5d	1.1819569
119	0x3f2e2d78	0.6803813
120	0xbd70c675	-0.058783013
121	0xbfe68c16	-1.8011501
122	0xbf87d7ba	-1.061271
123	0xbf30fa29	-0.69131714
124	0x3f9251f5	1.1431261
125	0x3e2c8695	0.16848214
126	0xbf1f5c0d	-0.62249833
127	0x3f8e1de5	1.1102873
128	0xbeb5a0a3	-0.3547412
129	0x3f29489b	0.6612641
130	0xbebeffa8	-0.37304425
131	0x3d12e091	0.035858694
132	0xbea827da	-0.32842904
133	0xbc79904f	-0.01523216
134	0x3f860b1a	1.0472138
135	0x3d8e762d	0.06956134
136	0x3f489dac	0.7836559
137	0x3f1791f9	0.5920711
138	0xbe7f55f6	-0.24935135
139	0xbf8118f5	-1.0085741
140	0xbed5f06a	-0.41784984
141	0x3fb300e8	1.3984652
142	0xbf0930d3	-0.53590125
143	0xbf262683	-0.64902514
144	0xbf3efb1f	-0.7460193
145	0x3f1bf837	0.6092562
146	0xbf5a7f32	-0.85350335
147	0xbfbac372	-1.4590895
148	0x3e68ccca	0.22734371
149	0xbfb479e1	-1.4099694
150	0xbf9ba3cc	-1.2159362
151	0xbf6e821d	-0.9316729
152	0xbe8f5041	-0.27990916
153	0x3f85405f	1.041027
154	0x3f71d73f	0.94469064
155	0x3f526f69	0.8220125
156	0x3f90705f	1.1284293
157	0x3f55e133	0.8354675
158	0xbf2b69fe	-0.66958606
159	0xbec50074	-0.38476908
160	0x3ee8d5e3	0.45475683
161	0xbfce33ab	-1.6109518
162	0xbd49a360	-0.049228072
163	0xbfe1ab07	-1.7630318
164	0x3f1b71b5	0.6072038
165	0x3e57b9db	0.21066992
166	0xbfc81f4e	-1.5634553
167	0xbe317dfd	-0.17333217
168	0xc0044acc	-2.0670652
169	0x3f367870	0.71277523
170	0xbf41ee0a	-0.75753844
171	0xbe9fa92e	-0.3118376
172	0xbf1310b5	-0.5744737
173	0x3f7f1456	0.99640405
174	0x3ba44ce3	0.0050140484
175	0xbf3aff2b	-0.73045605
176	0x3eab4233	0.33448943
177	0xbeafcfc0	-0.34338188
178	0x3eace94b	0.33771738
179	0x3f2e11f6	0.67996156
180	0x3f73b53f	0.95198435
181	0xbf12e781	-0.57384497
182	0x3ef46107	0.47730276
183	0xbd5dca97	-0.054148283
184	0xbf8eb29d	-1.1148258
185	0xbf8b1cc6	-1.0868156
186	0x3f65e07c	0.8979566
187	0x3e7c3788	0.24630558
188	0xbfa58000	-1.2929688
189	0x3fc4e34a	1.5381863
190	0x3f64e268	0.8940797
191	0xbf7db7d7	-0.9910864
192	0x3fdc67bc	1.7219157
193	0x3ea56489	0.32303265
194	0x3e5a299b	0.21304934
195	0x3eeff263	0.46864614
196	0xbf938987	-1.1526345
197	0xbf5a0911	-0.85170084
198	0xbebc0941	-0.3672581
199	0x3e9e6d73	0.30942878
200	0x3edade25	0.42747608
201	0x3e1c23e3	0.15248065
202	0xbebf1bb1	-0.37325814
203	0xbf9a394a	-1.2048733
204	0xbe81967e	-0.2531013
205	0xbf8eecc5	-1.1166006
206	0x3f9c7193	1.222216
207	0x3f9b2ddb	1.2123369
208	0x3eef5327	0.46743128
209	0xbff93bab	-1.9471334
210	0x3fdc198b	1.7195295
211	0xbf23cda6	-0.6398567
212	0xbf71639c	-0.94292617
213	0x3f2d9ab6	0.67814195
214	0x3f2e4376	0.6807169
215	0xbfbe69fe	-1.4876096
216	0x3eb06af5	0.34456602
217	0x400ceb32	2.2018552
218	0xbdeae34f	-0.11469137
219	0x3ebb4b05	0.36580673
220	0x3f3bd0b1	0.7336531
221	0xbd6d28db	-0.05790029
222	0x3ffdfa91	1.9842092
223	0xbe98cf2b	-0.29845557
224	0x3fd62a29	1.6731616
225	0xc0355f3e	-2.8339381
226	0x3ce8cf49	0.028419154
227	0xbf75b98f	-0.95986265
228	0x3f3f1a6d	0.746497
229	0xbeba80ea	-0.3642648
230	0xbfa6a2ea	-1.3018467
231	0xbf09c2ef	-0.5381307
232	0xbfa8743e	-1.3160474
233	0x3f4e2de5	0.8053878
234	0x3e65d0aa	0.2244288
235	0xbfd36603	-1.6515507
236	0xbfa2740e	-1.2691667
237	0x3f9c34e0	1.2203636
238	0xbffc8082	-1.9726717
239	0x3ecd89c3	0.40144166
240	0xbe42034c	-0.1894657
241	0x3e992c84	0.29916775
242	0x3fb7b40a	1.4351819
243	0x3ea5a154	0.32349646
244	0xbf0140e8	-0.50489664
245	0x3f2993e1	0.6624127
246	0xbe455e28	-0.19274199
247	0xbf840323	-1.0313457
248	0x3f15217f	0.58254236
249	0xbf248bb7	-0.6427569
250	0xbea0276c	-0.31280077
251	0xbf7a7782	-0.97838604
252	0xbd1f2353	-0.038852047
253	0x3f328eb2	0.69748986
254	0xbf6c1a5f	-0.9222774
255	0x3dd68de5	0.10476283

embed_cp.weight f4 [2759, 9]
0	0x00000000	0.0
1	0x00000000	0.0
2	0x00000000	0.0
3	0x00000000	0.0
4	0x00000000	0.0
5	0x00000000	0.0
6	0x00000000	0.0
7	0x00000000	0.0
8	0x00000000	0.0
9	0x3e802b7c	0.25033176
10	0xbf4f1127	-0.8088555
11	0xbf6c8c97	-0.92402023
12	0xbf213b2c	-0.62980914
13	0xbbb39bbc	-0.0054812115
14	0x3e2ae0f8	0.16687381
15	0x3e7f66a4	0.24941498
16	0xbd99dd0c	-0.075128645
17	0xbea92429	-0.330354
18	0xbf75d086	-0.96021307
19	0x3eab6cea	0.33481532
20	0x3e90edee	0.28306526
21	0xbf2a5fe2	-0.66552556
22	0x3eb79119	0.35852888
23	0x3f84d4d5	1.0377451
24	0xbd891f17	-0.06695383
25	0x3e06a71b	0.13149683
26	0xbf6b362a	-0.9187952
27	0xbf9c1a7b	-1.2195581
28	0x3fa7b838	1.3103094
29	0x3f735972	0.9505836
30	0xbf8e10fe	-1.1098936
31	0xbfafe265	-1.3740965
32	0x3f56daac	0.83927417
33	0x3edac31f	0.4272699
34	0xbf345112	-0.70436203
35	0xbf49ec74	-0.78876424
36	0xbe95a1b6	-0.29224938
37	0xbff22406	-1.8917243
38	0xbf27ca53	-0.655431
39	0xbfc607e7	-1.5471162
40	0xbed6f6bd	-0.4198512
41	0xbfab622a	-1.3389332
42	0x3e36178d	0.17782421
43	0xbed11d30	-0.4084258
44	0xbf1b2abc	-0.6061208
45	0x3f55f399	0.83574826
46	0x403572ae	2.8351245
47	0xbf3f64c8	-0.74763155
48	0xbeb3d4ca	-0.35123283
49	0xbeef5f98	-0.4675262
50	0xbfdcece2	-1.7259791
51	0xbcc034cc	-0.023462676
52	0xbf092199	-0.5356689
53	0xbe5e0f46	-0.21685514
54	0x3fe2acbe	1.7708967
55	0x3e9059ed	0.28193608
56	0xbfa15bff	-1.26062
57	0xbf8d8079	-1.1054832
58	0xbed435a4	-0.41447175
59	0x3ffc1dfc	1.969665
60	0xbe9831ee	-0.29725593
61	0xbf291cf3	-0.660598
62	0x400a5019	2.1611388
63	0x3edaf343	0.4276372
64	0xbfcc0d0c	-1.5941482
65	0xbeb6f617	-0.35734627
66	0xbeffa1af	-0.49928042
67	0xbfdb7809	-1.7146007
68	0xbfca5a59	-1.5808822
69	0xbebf087b	-0.37311158
70	0xbe0f5a0a	-0.13999191
71	0x3fe62adc	1.798183
72	0x3c738b12	0.0148647
73	0xbc59b30e	-0.013287319
74	0x3e00d2e1	0.12580444
75	0xbf43638d	-0.7632378
76	0x3f5ceece	0.8630189
77	0xbf29248f	-0.6607141
78	0xbd7e824e	-0.062135987
79	0xbf67aa80	-0.9049454
80	0x3f057446	0.52130544
81	0xbeb37248	-0.35048127
82	0x3e4e2d97	0.20134579
83	0xbfe3f922	-1.7810404
84	0xbe127685	-0.14303024
85	0xbd897865	-0.067124166
86	0x3f21a8d3	0.6314823
87	0xbee0a36b	-0.43874678
88	0xbe1c4dff	-0.15264128
89	0x3f9f2818	1.2434111
90	0xbf6573bb	-0.89629716
91	0x3f7234b0	0.94611645
92	0xbd420d69	-0.04737607
93	0xbfda6eb4	-1.7065034
94	0xbfcf36f1	-1.6188642
95	0xbeebc7fd	-0.46051016
96	0x3ef7d4ff	0.4840469
97	0xbf99d81d	-1.2019078
98	0xbed67002	-0.4188233
99	0x3f373837	0.7157015
100	0xbedbb424	-0.42910874
101	0xbf234795	-0.637811
102	0xbf4bdab1	-0.7963057
103	0xbf0186be	-0.50596225
104	0x3f01e516	0.5074018
105	0x3f6310f6	0.88697755
106	0xbfbf5bd5	-1.49499
107	0xbd6d3411	-0.057910983
108	0xbf076c27	-0.528994
109	0xbfda5acf	-1.7058963
110	0x3f1c7de9	0.61129624
111	0x3f5c5358	0.8606467
112	0xbe94db15	-0.29073396
113	0xbec3f4a5	-0.38272586
114	0xbf20ba7d	-0.6278456
115	0xc00ade1a	-2.169806
116	0x3f6f242d	0.93414575
117	0x3e49057f	0.19631003
118	0x3ec14169	0.37745216
119	0x3f65e04c	0.89795375
120	0xbecbe41c	-0.3982247
121	0xbfb06c73	-1.3783096
122	0x3e95c33f	0.29250523
123	0xbc9416a0	-0.018077195
124	0xbec81ed2	-0.39086014
125	0x3f36091c	0.7110765
126	0x3ff0630e	1.8780229
127	0xbd33502c	-0.04377763
128	0x3fda9f28	1.7079821
129	0xbe197d50	-0.14989209
130	0xc013127c	-2.2980032
131	0x3d430beb	0.047618788
132	0xc0179613	-2.3685348
133	0xbe76bfe4	-0.24096638
134	0xbed19ef0	-0.40941572
135	0xbed61e1a	-0.4181984
136	0x3ec92da3	0.3929263
137	0x3f042d37	0.5163149
138	0x400aba9f	2.1676404
139	0xbf8829a5	-1.0637709
140	0x3fa692fa	1.3013604
141	0xbfaefc40	-1.367073
142	0xbf92634a	-1.1436551
143	0xbd18e3c7	-0.0373266
144	0x3f06ce39	0.5265842
145	0x4031b01f	2.7763746
146	0xc02397e0	-2.5561447
147	0xbfa53dfb	-1.290954
148	0xbea9e9e8	-0.3318627
149	0xbc9904a1	-0.018678965
150	0xbf8aadf3	-1.0834335
151	0xbfdb20bb	-1.7119364
152	0xbf130ebd	-0.57444364
153	0xbdf78fc5	-0.12087969
154	0xbf92f9be	-1.1482465
155	0xbfe3de46	-1.7802207
156	0x401fea3b	2.4986713
157	0x3f4448b0	0.7667341
158	0xbf9332b4	-1.1499848
159	0xc0211929	-2.5171607
160	0x3f00c093	0.50293845
161	0xc0094ebc	-2.1454306
162	0x3dcda103	0.10040476
163	0xbe83f35c	-0.25771606
164	0xbe267c77	-0.16258417
165	0xbe677f8f	-0.22607253
166	0xbfcce263	-1.6006588
167	0x3ef19cfd	0.47190085
168	0x40141e46	2.3143477
169	0xbeaa86c3	-0.3330594
170	0xc0067c9f	-2.1013563
171	0x3f9659e8	1.1746187
172	0x3f4bc095	0.7959073
173	0x3f3a927e	0.7287978
174	0xbff76455	-1.9327494
175	0xbf34d5d9	-0.70638806
176	0x3f270d60	0.65254784
177	0xbfcd7ecf	-1.6054324
178	0x3f977321	1.183201
179	0xbf76f1ce	-0.96462715
180	0x3f40144d	0.75030977
181	0xbf5886b0	-0.84580517
182	0xbf10b6be	-0.5652884
183	0xbf7e7c54	-0.9940846
184	0x3f740e85	0.95334655
185	0x3d7598f6	0.059960328
186	0x3f963851	1.1735936
187	0x3ee58981	0.4483147
188	0xbd81a597	-0.06330412
189	0x402f3f06	2.7382216
190	0x3f017202	0.5056459
191	0x3f3336c2	0.7000543
192	0x3f41fd8c	0.75777507
193	0xbeb14301	-0.34621432
194	0x3fd75233	1.682196
195	0x3ecc7ff6	0.39941376
196	0xbe1d231d	-0.15345426
197	0x3fd7f933	1.6872925
198	0x3f8d87aa	1.1057026
199	0xbf6280c5	-0.88477737
200	0xbf44f262	-0.76932347
201	0xbfb528b7	-1.415305
202	0xbf426bce	-0.75945747
203	0x3fa15815	1.2605006
204	0x3e1a4cf9	0.15068425
205	0x3e834a32	0.25642544
206	0xbdbe9a12	-0.0930673
207	0xbfe3fe50	-1.7811985
208	0x3fbf4548	1.4943018
209	0x3f55fc65	0.8358825
210	0x3de4793f	0.11155938
211	0x3e7e62bb	0.2484235
212	0x4007743b	2.1164691
213	0xc014ee92	-2.3270612
214	0xbf310c63	-0.69159526
215	0x403023b4	2.7521791
216	0x3f2f974e	0.6859025
217	0x3f9e65ab	1.2374777
218	0xbf544b9a	-0.8292786
219	0x3f100207	0.56253093
220	0x3e91c57d	0.28470984
221	0x3f67cfc2	0.9055139
222	0xbe5e8ebd	-0.21734138
223	0xbfcdacee	-1.6068399
224	0x3f65360f	0.8953561
225	0x4008b99c	2.1363287
226	0xbfcdd9b8	-1.6082067
227	0xbf955736	-1.166724
228	0xbff05e0a	-1.8778698
229	0x3fab2779	1.3371421
230	0xbecfe575	-0.4060475
231	0x3ef7c03f	0.4838886
232	0x3f7aeb0b	0.980149
233	0x3dd7ddc8	0.10540348
234	0x3fa0b56f	1.2555369
235	0x3ca5b456	0.020227592
236	0x3f308dcb	0.6896636
237	0xbf909471	-1.1295301
238	0xbe30f89b	-0.17282335
239	0x3e6263e6	0.2210842
240	0x3f9599b0	1.1687527
241	0x3f7c7e18	0.98629904
242	0x3e5676c6	0.20943746
243	0xbfe09e98	-1.7548399
244	0x3f1a1bf9	0.6019893
245	0xbf845b66	-1.0340393
246	0xbdff9a29	-0.124805756
247	0x3f767b0d	0.9628151
248	0x3feccafd	1.8499447
249	0x3f00d6c1	0.5032769
250	0xbe9eeb10	-0.31038713
251	0x3f4d255e	0.8013514
252	0xbd05188d	-0.032494117
253	0x3f01ee9e	0.50754726
254	0xbfa77fed	-1.3085915
255	0x3f3dc7b1	0.7413283

ode_dp.odeblock.odefunc.fc1.weight f4 [11, 11]
0	0xbdc7fa7b	-0.09764572
1	0xbd9988a4	-0.07496765
2	0x3edfb76c	0.43694627
3	0xbe0278aa	-0.12741342
4	0xbed96a65	-0.42463985
5	0x3ea4455f	0.32084176
6	0xbe7adb78	-0.24497783
7	0xbe1175ab	-0.14205043
8	0x3e04c9b4	0.12967569
9	0x3b0ea7f9	0.00217676
10	0x3e267105	0.16254051
11	0xbe8e1f5b	-0.27758297
12	0xbd84d311	-0.0648557
13	0x3ea42e77	0.320667
14	0xbefd6aa3	-0.4949542
15	0x3db0b539	0.086283155
16	0xbe020e17	-0.12700687
17	0x3eb21cdb	0.3478764
18	0x3f04ec21	0.51922804
19	0x3e8bf824	0.27337754
20	0x3dbe74ee	0.09299646
21	0xbe1f3f10	-0.155514
22	0xbeb512a5	-0.35365787
23	0xbd74895d	-0.059701312
24	0xbc932410	-0.017961532
25	0xbe7b7c2e	-0.2455909
26	0xbcb51629	-0.022105293
27	0x3e21774f	0.15768169
28	0x3da70142	0.08154537
29	0x3c10f413	0.008847254
30	0xbe2b1df0	-0.16710639
31	0xbd503fe9	-0.0508422
32	0xbeaf92f4	-0.34291804
33	0xbd671e3f	-0.05642533
34	0xbe71356d	-0.23555537
35	0x3f21d0c8	0.632092
36	0xbd325de2	-0.043546565
37	0xbc7f5e18	-0.015586399
38	0x3e50c503	0.20387654
39	0x3dcc4197	0.09973448
40	0xbd72ee9e	-0.059309594
41	0xbea153c4	-0.3150922
42	0xbe5dc8c5	-0.21658619
43	0x3e6be03b	0.23034756
44	0x3dfa5c34	0.122246176
45	0x3e1f4a0f	0.15555595
46	0x3ee14699	0.43999174
47	0x3dfe80eb	0.12426933
48	0x3cc65092	0.02420834
49	0xbe223fd0	-0.15844655
50	0xbdb5e3b6	-0.08881323
51	0xbda4cddd	-0.08047078
52	0x3e268e22	0.16265157
53	0xbd65e3c6	-0.056125425
54	0x3f0a0fdf	0.5393047
55	0xbda3d05d	-0.079987265
56	0x3a69d5e9	0.000892012
57	0x3f18bd49	0.59663826
58	0xbe86597b	-0.26240143
59	0xbdc4861b	-0.09595891
60	0xbd2c919f	-0.042131063
61	0xbe7fa1c2	-0.2496405
62	0xbe1d0890	-0.15335298
63	0x3e14a68f	0.14516662
64	0x3da7c7cf	0.08192407
65	0x3ec4fca7	0.38474008
66	0xbe8e5693	-0.27800426
67	0x3e586540	0.21132374
68	0x3f05405e	0.5205134
69	0xbf0daedb	-0.55344933
70	0xbe4c8fac	-0.19976681
71	0xbe37dad9	-0.17954578
72	0x3e918e6a	0.28428966
73	0x3ee3d9d6	0.44502133
74	0x3e25b6bc	0.16182989
75	0x3eea59fb	0.45771775
76	0xbe80e65e	-0.25175756
77	0xbeb4ee94	-0.3533827
78	0x3df5ce64	0.120022565
79	0xbdd94370	-0.10608566
80	0xbea2c923	-0.3179408
81	0xbef26aeb	-0.47347197
82	0x3b8e67d1	0.004345872
83	0x3efa93cc	0.48940885
84	0x3f2b2cd8	0.668653
85	0x3a11cbbb	0.0005561669
86	0x3dd9e4e3	0.1063936
87	0xbda966e4	-0.08271578
88	0xbea31ce1	-0.3185797
89	0x3db8875b	0.09010192
90	0x3f188196	0.5957273
91	0xbe87c4ec	-0.26517427
92	0x3e2f96ff	0.17147444
93	0xbef779ed	-0.4833521
94	0xbe193105	-0.14960106
95	0x3e546e4b	0.20745198
96	0x3ec63eb7	0.38719723
97	0xbd70ba5e	-0.058771484
98	0x3e1ba0d0	0.15198064
99	0xbe0b96aa	-0.13631693
100	0x3e6ce2c4	0.23133379
101	0x3f05ca22	0.52261555
102	0x3e2fba52	0.1716092
103	0x3db725e3	0.08942773
104	0xbe5cdaa3	-0.21567778
105	0x3ec6670e	0.387505
106	0xbe3a89c5	-0.18216617
107	0x3ed5d04e	0.41760486
108	0x3c52ecb0	0.0128738135
109	0x3e71fb60	0.23631048
110	0x3e416aa7	0.18888341
111	0x3d72175c	0.05910431
112	0xbd8eb08c	-0.069672674
113	0xbef5e0e2	-0.48023134
114	0x3de30b98	0.11086196
115	0x3eb92c39	0.36166552
116	0x3ee6e2fc	0.4509505
117	0x3e090ae2	0.13383058
118	0x3ee42159	0.44556692
119	0xbc429f32	-0.011878775
120	0xbe951686	-0.29118747

ode_dp.odeblock.odefunc.fc1.bias f4 [11]
0	0x3f053d91	0.5204707
1	0x3ef2d86d	0.47430745
2	0x3e68dd4f	0.22740673
3	0xbb560c1c	-0.0032661026
4	0x3eab928b	0.3351024
5	0x3eb12c30	0.34604025
6	0x3ee04247	0.43800566
7	0x3ef1f019	0.47253492
8	0x3e9671ad	0.29383603
9	0x3e45d2e1	0.19318725
10	0x3e42d503	0.1902657

ode_dp.odeblock.odefunc.fc2.weight f4 [11, 11]
0	0xbdceda82	-0.10100271
1	0x3e93b157	0.28846237
2	0x3d970693	0.07374301
3	0x3d97f4db	0.07419749
4	0xbbf95356	-0.0076088114
5	0x3e17e197	0.1483215
6	0x3e69276b	0.22768943
7	0x3e0ce8e5	0.13760717
8	0xbd9e7d2d	-0.07738719
9	0xbdf9ab28	-0.121908486
10	0x3d735ff6	0.059417687
11	0x3f1d092a	0.6134211
12	0x3ee52508	0.44754815
13	0x3f0c0847	0.5470013
14	0x3e19627e	0.14978978
15	0x3d96036b	0.07324871
16	0x3eb24ae8	0.34822774
17	0x3f46f3e1	0.7771588
18	0x3ef20470	0.4726901
19	0x3ef26f8c	0.4735073
20	0x3e5db295	0.21650155
21	0x3f2398b4	0.6390488
22	0xbe14d214	-0.14533263
23	0x3e5fb982	0.2184811
24	0xbd0d0cdd	-0.034436096
25	0xbeb3da58	-0.3512752
26	0x3e20808b	0.15674035
27	0x3e9dbc11	0.30807546
28	0x3e2453cd	0.16047592
29	0x3cd83360	0.026391685
30	0x3e71a83e	0.23599336
31	0xbe6ee968	-0.23331225
32	0xbe1cee69	-0.15325321
33	0x3f1a123c	0.60184073
34	0x3ed63ef4	0.41844904
35	0x3cb9874c	0.022647522
36	0x3c3f7df7	0.011687747
37	0x3c8919a8	0.016735867
38	0x3d68e7eb	0.0568618
39	0x3eb3c7ab	0.35113272
40	0x3f2d2f1b	0.6765
41	0x3ef42f97	0.47692558
42	0x3d05def5	0.03268333
43	0x3e4d5aca	0.20054165
44	0x3e846a74	0.25862467
45	0x3f15c04c	0.58496547
46	0xbdc9072a	-0.098158196
47	0x3ec41a43	0.38301286
48	0x3e96a611	0.29423574
49	0x3f016c5b	0.5055596
50	0x3ed0e1cc	0.4079727
51	0x3e87ad40	0.26499367
52	0x3ec6acb2	0.3880363
53	0x3e2ac27c	0.16675752
54	0x3de50dca	0.11184271
55	0x3e1984a8	0.1499201
56	0x3e5a16a0	0.21297693
57	0xbe0dd934	-0.13852388
58	0x3d9eb5cd	0.077495195
59	0x3e9c352e	0.30509323
60	0x3ed27092	0.4110151
61	0x3d8838dd	0.06651471
62	0x3e8b3b3d	0.27193633
63	0x3ec3bbe9	0.38229302
64	0x3de0874c	0.10963306
65	0x3e4d7259	0.20063151
66	0x3e19d137	0.15021215
67	0x3edfe1c5	0.43726936
68	0xbd73b3e5	-0.059497733
69	0xbd58f6f5	-0.05296989
70	0xbe1aa50b	-0.15102021
71	0x3db63dff	0.088985436
72	0xbca0ac01	-0.019613268
73	0x3e35e9c2	0.17764953
74	0x3dae99cb	0.085254274
75	0x3e367cc7	0.17821036
76	0x3ed9dca4	0.42551148
77	0x3f0d1aeb	0.551192
78	0x3f088993	0.5333492
79	0x3e980322	0.2968989
80	0x3dbd0c8b	0.09230908
81	0xbd130145	-0.035889883
82	0x3e3c81df	0.18408917
83	0x3ed395ef	0.41325328
84	0x3f08f13b	0.5349309
85	0x3ed16d68	0.40903783
86	0xba95386e	-0.0011384615
87	0x3ddb7ef7	0.10717576
88	0x3ec1f7aa	0.37884265
89	0x3db6e7b3	0.08930912
90	0x3d533977	0.051568475
91	0x3e9a4e4f	0.3013787
92	0x3ea2029d	0.3164262
93	0x3edd4735	0.4321839
94	0x3ee8e1df	0.45484826
95	0x3c702dc4	0.014659349
96	0xbdd310d6	-0.103059456
97	0x3ec1c7cd	0.37847748
98	0x3e86b75a	0.2631176
99	0x3f1c2c33	0.6100494
100	0x3e4e7a02	0.2016373
101	0x3ea89314	0.32924712
102	0x3ee27880	0.4423256
103	0x3f07d8cf	0.530652
104	0x3f2f6852	0.68518555
105	0x3e5e05c0	0.21681881
106	0x3e60161d	0.21883436
107	0x3f14ec2e	0.5817288
108	0x3ebedd34	0.3727814
109	0x3eeec9d9	0.46638373
110	0x3c2a18a0	0.010381848
111	0x3eb63116	0.35584325
112	0xbd8f5796	-0.069991276
113	0x3d7a0af5	0.061045606
114	0xbe9a9f5b	-0.30199704
115	0x3d834c56	0.06411044
116	0xbcb79f2a	-0.022414763
117	0xbdf67e15	-0.12035767
118	0xbe0154a0	-0.12629938
119	0xbe659f6c	-0.22424096
120	0xbd6cdcd3	-0.057827782

ode_dp.odeblock.odefunc.fc2.bias f4 [11]
0	0xbdebb8e2	-0.11509873
1	0x3e2e5d82	0.17027858
2	0x3e558fab	0.20855586
3	0x3f1d43d2	0.6143161
4	0x3e6b9d25	0.23009165
5	0x3e114c8b	0.14189355
6	0x3e86d3dd	0.26333514
7	0x3e007fd8	0.12548769
8	0xbd4e772d	-0.050406624
9	0x3e537970	0.20651793
10	0xbd57db96	-0.052699648

ode_dp.odeblock.odefunc.fc3.weight f4 [11, 11]
0	0xbe45a136	-0.19299778
1	0xbb88d88b	-0.0041762046
2	0xbeb21726	-0.34783286
3	0xbe31920e	-0.17340872
4	0xbef9c240	-0.48781013
5	0xbf15a67b	-0.58457154
6	0xbe067cfa	-0.13133612
7	0xbee4dce9	-0.4469979
8	0xbe07f5d2	-0.13277367
9	0xbedbbd13	-0.4291769
10	0xbe1b508e	-0.15167448
11	0xbbc206eb	-0.005921235
12	0x3dbe8179	0.09302039
13	0x3d832c68	0.06404954
14	0x3e96246c	0.29324663
15	0x3e323318	0.17402303
16	0x3e1de981	0.15421106
17	0xbdd4eddc	-0.103969306
18	0x3ec6de4d	0.38841477
19	0xbe81828c	-0.25294912
20	0x3c85e154	0.016342796
21	0x3dbbfbfb	0.09178921
22	0xbea7f0e3	-0.3280097
23	0xbe8040ca	-0.2504943
24	0xbea49ba5	-0.32149997
25	0xbe8af426	-0.27139395
26	0xbeeb2466	-0.45926207
27	0xbe7cd2a0	-0.24689722
28	0xbe69cb74	-0.22831517
29	0xbe450e03	-0.19243626
30	0xbf09d3bd	-0.5383871
31	0xbe56326c	-0.20917672
32	0xbd4d4ae4	-0.05012025
33	0x3edc942b	0.43081793
34	0x3f3de745	0.74181014
35	0x3e89d091	0.26916936
36	0x3f000f0b	0.50022954
37	0x3f16c279	0.5889049
38	0x3e9d883f	0.3076801
39	0x3eb01f3b	0.34398827
40	0x3f2d6653	0.6773426
41	0x3e8370cd	0.25671998
42	0x3f17775b	0.59166497
43	0x3ead3314	0.33828032
44	0x3e1b2b7c	0.15153307
45	0xbcc9e42c	-0.024644934
46	0x3e694107	0.22778712
47	0x3e6f53bc	0.23371786
48	0x3e3ad2fd	0.18244548
49	0x3e944204	0.28956616
50	0xbda6d01c	-0.081451625
51	0x3efc7c2e	0.49313492
52	0x3d4b31b6	0.049607955
53	0x3e3bb504	0.1833077
54	0x3f02ddac	0.51119494
55	0x3c1b5c10	0.009482399
56	0x3e00caa3	0.125773
57	0x3ec63235	0.3871018
58	0x3e832a8a	0.25618392
59	0xbdc05f38	-0.093931615
60	0x3ddc016f	0.10742461
61	0x3ec13e04	0.37742627
62	0x3e06c89a	0.13162461
63	0x3e470f12	0.19439343
64	0xbe4637aa	-0.19357172
65	0xbd9a01fc	-0.0751991
66	0xbd891bd9	-0.06694765
67	0x3ef1079f	0.47076127
68	0xbd9aa29c	-0.075505465
69	0x3e2e4340	0.17017841
70	0x3d0c91a8	0.034318596
71	0x3ea401f3	0.32032737
72	0x3ee16b94	0.44027388
73	0x3ece4f77	0.40295002
74	0xbdcf91bf	-0.10135221
75	0x3ea18927	0.3154995
76	0xbde35eb2	-0.11102046
77	0xbe5ad7f7	-0.21371447
78	0xbf1793e5	-0.59210044
79	0xbda6c850	-0.08143675
80	0xbf231006	-0.63696325
81	0xbe304d24	-0.17216927
82	0xbe457214	-0.19281799
83	0xbe601562	-0.21883157
84	0xbedf9e88	-0.43675637
85	0xbed83346	-0.4222662
86	0xbf0f502b	-0.559817
87	0xbdbf93d7	-0.0935437
88	0x3df2d564	0.11857107
89	0xbe9889e8	-0.29792714
90	0xbeb71456	-0.35757703
91	0xbe835cb9	-0.2565668
92	0xbe008532	-0.1255081
93	0xbe2e93d0	-0.17048573
94	0xbe17de98	-0.14831007
95	0xbeae259a	-0.34013063
96	0xbe7ad1bb	-0.24494068
97	0xbe564b36	-0.20927128
98	0xbe66e16f	-0.22546934
99	0x3c2e7282	0.010647418
100	0x3e58c283	0.2116795
101	0xbdb7f7fb	-0.089828454
102	0x3e260960	0.16214514
103	0x3eb7f623	0.35929975
104	0x3f0154a2	0.50519764
105	0x3d2dfc8d	0.04247718
106	0x3ee98b76	0.45614213
107	0x3d3f9e4e	0.04678183
108	0x3ec77328	0.38955045
109	0x3e8600f7	0.2617261
110	0x3e548208	0.20752728
111	0xbdd9cee9	-0.10635168
112	0x3e11bed9	0.14232959
113	0x3e243691	0.1603644
114	0x3d2b3109	0.04179481
115	0x3defe0e0	0.117128134
116	0x3dfbf317	0.12302225
117	0x3eb2bcda	0.34909707
118	0xbe44fe44	-0.1923762
119	0xbe4495ac	-0.1919772
120	0x3e102a7a	0.14078704

ode_dp.odeblock.odefunc.fc3.bias f4 [11]
0	0xbec66f83	-0.38756952
1	0x3e06eab6	0.13175473
2	0xbe88fa34	-0.2675339
3	0x3e95d718	0.29265666
4	0x3e5de976	0.2167109
5	0xbe1d9829	-0.15390076
6	0x3c1e219d	0.009651569
7	0xbf10de1d	-0.5658892
8	0x3e041e5c	0.12902206
9	0x3ef913c4	0.48647892
10	0xbd006a64	-0.031351462

ode_cp.odeblock.odefunc.fc1.weight f4 [9, 9]
0	0xbec40ed4	-0.38292563
1	0xbdef8cdf	-0.11696791
2	0x3d9425cc	0.07233772
3	0x3d47dcb8	0.04879448
4	0xbe748b69	-0.23881306
5	0xbdb917f3	-0.09037771
6	0xbe9dfe9b	-0.3085831
7	0x3ec23be5	0.3793632
8	0xbddfc292	-0.10925783
9	0xbec0fbe3	-0.37692174
10	0xbe81400d	-0.2524418
11	0xbdf61e56	-0.12017505
12	0xbebae814	-0.36505187
13	0x3e0a6886	0.13516435
14	0x3eaf9b64	0.3429824
15	0x3d21b071	0.03947491
16	0x3cf1193a	0.029430974
17	0x3ef63802	0.48089606
18	0xbe835dba	-0.25657445
19	0x3c872a82	0.016499761
20	0xbde5969a	-0.112103656
21	0x3e49ffe7	0.19726525
22	0x3e829827	0.25506708
23	0xbc54592d	-0.012960714
24	0x3cf0a4d6	0.029375475
25	0x3decfb17	0.11571329
26	0x3e53e66e	0.2069337
27	0x3c0e7b4c	0.008696388
28	0xbed0d761	-0.4078932
29	0xbc082ab4	-0.0083109625
30	0x3e36c9a7	0.17850362
31	0xbe9932f2	-0.2992168
32	0x3dd535f9	0.10410685
33	0x3e393b3c	0.18089002
34	0x3e927a8a	0.28609115
35	0x3ea38be1	0.31942657
36	0x3d2ec723	0.04267038
37	0xb904e838	-0.00012675009
38	0xbe1d5ce2	-0.15367463
39	0xbe4df66e	-0.20113537
40	0xbe846ad2	-0.25862747
41	0xbeba065a	-0.3633297
42	0x3e6fd3cc	0.23420638
43	0xbcdb46c1	-0.026767137
44	0x3cd20167	0.025635434
45	0xbe928b6e	-0.28622
46	0x3e40b622	0.18819478
47	0xbce869f4	-0.028370835
48	0x3e05fa7b	0.13083832
49	0x3de1e56c	0.11030087
50	0x3e903b43	0.28170213
51	0x3da69e12	0.08135618
52	0x3dcff5e3	0.10154321
53	0xbde1b3b9	-0.110206075
54	0x3e1e01bb	0.15430348
55	0xbed275bb	-0.41105446
56	0xbea3a5a9	-0.31962326
57	0x3e4dd7d7	0.20101868
58	0xbd8b068e	-0.067883596
59	0xbe8718d9	-0.26386145
60	0x3dd83410	0.10556805
61	0xbe926b28	-0.2859738
62	0x3ea0cb97	0.31405327
63	0xbedaac16	-0.42709416
64	0xbded0471	-0.11573113
65	0xbe5f4640	-0.21804142
66	0x3e190b4b	0.14945714
67	0xbec6b2ff	-0.38808438
68	0x3e311f8a	0.17297187
69	0xbeb79c2c	-0.35861337
70	0x3ee2f45f	0.44327065
71	0xbdef2c39	-0.11678357
72	0xbd5f4934	-0.05451317
73	0x3e98ceed	0.29845372
74	0xbdb134da	-0.08652659
75	0xbd9bc196	-0.07605283
76	0xbddd0606	-0.107921645
77	0x3d927ce9	0.07152731
78	0x3e0977dc	0.13424629
79	0xbe22a72b	-0.15884082
80	0xbd695de4	-0.056974307

ode_cp.odeblock.odefunc.fc1.bias f4 [9]
0	0x3eabf787	0.33587286
1	0x3e69e444	0.22840983
2	0x3e59ce3b	0.21270077
3	0x3e8592a8	0.26088452
4	0x3de793a1	0.11307455
5	0x3ec4c4a8	0.38431287
6	0x3e1997e9	0.14999355
7	0x3f03fa1b	0.51553506
8	0xbed1eb7e	-0.4099998

ode_cp.odeblock.odefunc.fc2.weight f4 [9, 9]
0	0x3e11fc69	0.14256443
1	0x3de08dc5	0.109645404
2	0x3efb6b65	0.49105373
3	0x3e6c7511	0.23091532
4	0x3db96fe4	0.090545446
5	0x3f0679af	0.52529424
6	0xbc021414	-0.007939357
7	0x3f196b70	0.5992956
8	0xbd3ff1db	-0.04686151
9	0x3ebcf6e0	0.369071
10	0x3e2f2b98	0.17106473
11	0x3e189e5d	0.14904161
12	0xba7e26a2	-0.0009695088
13	0x3dff7b6e	0.12474714
14	0x3e9ea4bd	0.3098506
15	0x3e791358	0.24323785
16	0x3d59d97d	0.05318593
17	0xbe0067ae	-0.1253955
18	0x3ed14f79	0.40880945
19	0x3f003f77	0.5009684
20	0xbcf5ecb8	-0.030020103
21	0x3eb9e729	0.36309174
22	0x3c21edf4	0.009883393
23	0x3d814cb4	0.06313458
24	0x3d9576c5	0.07298044
25	0x3ebae16c	0.36500108
26	0xbd603af3	-0.05474372
27	0xbe868510	-0.26273394
28	0xbe6085f2	-0.21926096
29	0xbe881fb1	-0.2658668
30	0xbe8f611a	-0.2800377
31	0x3e0e7734	0.1391266
32	0x3e8bb901	0.27289584
33	0xbbdf27e5	-0.0068101757
34	0x3e020fa5	0.1270128
35	0xbe541b2d	-0.20713492
36	0x3e287af7	0.16453157
37	0x3e2242f6	0.15845856
38	0x3ec40e24	0.38292038
39	0x3e989405	0.2980043
40	0x3cd1a884	0.02559305
41	0x3ee08d97	0.43858024
42	0xbd5ab8ac	-0.053398773
43	0x3e0f404f	0.13989376
44	0x3eede093	0.464604
45	0x3e7a963c	0.24471372
46	0xbe82668b	-0.2546886
47	0x3e91d44b	0.2848228
48	0x3d2724d9	0.040806625
49	0x3dd42bc1	0.10359908
50	0xbe940f7e	-0.2891807
51	0x3dc4231e	0.095770106
52	0x3e03ac77	0.12858759
53	0x3b41c959	0.0029569475
54	0x3e23f897	0.16012798
55	0x3e8fe37b	0.2810324
56	0x3f12b588	0.57308245
57	0xbd706dda	-0.058698513
58	0x3d206801	0.039161686
59	0x3db57ea9	0.08862049
60	0x3e87b5b7	0.26505825
61	0x3d903242	0.07040836
62	0xbd4660a3	-0.048432004
63	0x3e61fddd	0.22069497
64	0x3e8777a8	0.26458478
65	0xbdb993a0	-0.0906136
66	0x3dd2887e	0.1027994
67	0xbe9e6f99	-0.30944517
68	0xbdd7fc55	-0.105461754
69	0xbeaa9e38	-0.33323836
70	0xbe36aa0f	-0.1783831
71	0x3da52286	0.080632254
72	0x3e77cd6c	0.24199456
73	0x3d958730	0.073011756
74	0x3eb78e24	0.35850632
75	0x3e8e730d	0.27822152
76	0x3ec6f1b1	0.3885627
77	0xbd66cdab	-0.056348484
78	0x3e4d3d7a	0.20042983
79	0xbcc81f91	-0.024429115
80	0xbe1c153e	-0.15242478

ode_cp.odeblock.odefunc.fc2.bias f4 [9]
0	0x3ec7c93c	0.39020717
1	0x3f073836	0.52820146
2	0x3ddea6e6	0.10871677
3	0xbdb6c357	-0.08923977
4	0x3ee65a03	0.44990548
5	0x3d617fb8	0.055053443
6	0x3f095013	0.5363781
7	0xbe604cef	-0.21904348
8	0x3d6b7cc3	0.05749203

ode_cp.odeblock.odefunc.fc3.weight f4 [9, 9]
0	0xbeb53c33	-0.3539749
1	0xbe6b7fb6	-0.22997937
2	0xbe60acbc	-0.21940893
3	0xbe709c54	-0.23497134
4	0x3df465e8	0.119334996
5	0xbe20c210	-0.15699029
6	0xbe6066e5	-0.21914251
7	0x3dc152cf	0.094396226
8	0xbe813019	-0.25232008
9	0xbeb1b742	-0.34710127
10	0xbeb39433	-0.35074005
11	0xbe03b5d6	-0.12862334
12	0xbea5f748	-0.32415223
13	0x3d405a47	0.046961095
14	0x3cc01e21	0.023451867
15	0x3dcc4251	0.09973586
16	0xbd3cfe7c	-0.046141133
17	0xbd931294	-0.07181278
18	0xbeea0690	-0.45708132
19	0x3db848b3	0.08998241
20	0xbe50a204	-0.20374304
21	0xbe466473	-0.19374256
22	0xbe5daef1	-0.21648766
23	0x3e2689ff	0.16263579
24	0x3dd2c1e0	0.10290885
25	0x3c0b2a91	0.008494035
26	0xbcd7d1f9	-0.02634524
27	0x3e67d8a5	0.22641237
28	0x3deea1c2	0.116519466
29	0x3e882210	0.26588488
30	0x3e2e6873	0.17032032
31	0xbdfa0ee0	-0.122098684
32	0x3de133e8	0.109962285
33	0x3e89cd4a	0.26914436
34	0x3eb0b3a6	0.3451206
35	0xbd1773fe	-0.036975853
36	0x3e05943f	0.13044833
37	0x3e61c9e5	0.22049673
38	0x3e0edc92	0.13951328
39	0xbca5f2c2	-0.020257358
40	0xbe92d35d	-0.28676882
41	0xbd6b8e59	-0.0575088
42	0x3d2f741c	0.04283534
43	0x3d4592fe	0.048235886
44	0x3ddca4e9	0.107736416
45	0x3ecc9ce7	0.39963457
46	0x3d71a445	0.05899455
47	0x3dbb6298	0.09149665
48	0x3ec464bd	0.38358107
49	0xbc6cf16c	-0.014461856
50	0xbd0e1008	-0.034683257
51	0x3ee9da4c	0.4567436
52	0xbba29269	-0.004961301
53	0x3e4c8e98	0.1997627
54	0xbf169e82	-0.58835614
55	0xbe7dcddf	-0.24785565
56	0xbf10a07e	-0.5649489
57	0x3de69bf5	0.11260215
58	0xbf1372bd	-0.5759695
59	0xbe02703f	-0.12738131
60	0xbf0f5e31	-0.560031
61	0x3d64bf58	0.055846542
62	0xbe07180e	-0.1319277
63	0x3eae8c78	0.34091544
64	0x3eadbe4a	0.33934242
65	0x3e970b1e	0.2950067
66	0x3d8ea156	0.06964366
67	0x3e6a70d1	0.22894599
68	0x3e921f68	0.28539586
69	0x3eca071d	0.39458552
70	0x3e8c3886	0.27386874
71	0x3d727ebd	0.0592029
72	0xbe49651a	-0.19667473
73	0xbea9ca69	-0.3316224
74	0xbeb9d7fd	-0.36297598
75	0xbdaab39a	-0.083350375
76	0xbd9c7dfc	-0.07641217
77	0x3e4ca950	0.19986463
78	0xbe8b03a6	-0.2715122
79	0x3dd99516	0.10624139
80	0xbccd686c	-0.025074206

ode_cp.odeblock.odefunc.fc3.bias f4 [9]
0	0xbe39d137	-0.18146215
1	0xbec4bd15	-0.38425508
2	0x3d1aabc4	0.037761465
3	0xbe0dde63	-0.13854365
4	0xbe264bf6	-0.16239914
5	0x3ea2228b	0.3166698
6	0xbf0782ff	-0.5293426
7	0x3ee3331d	0.44374934
8	0x3e573679	0.21016873

gru_dp_fw.weight_ih_l0 f4 [33, 11]
0	0x3d7c9b19	0.06167135
1	0xbe909a94	-0.28242934
2	0x3db4a466	0.08820419
3	0x3e230222	0.15918782
4	0xbe2c99fd	-0.16855617
5	0x3e012cb1	0.12614705
6	0x3e86e80a	0.26348907
7	0x3e316088	0.1732198
8	0xbe7db06a	-0.24774328
9	0x3da00568	0.07813531
10	0x3dce6781	0.100783356
11	0xbe7aea17	-0.2450336
12	0x3e1d5ba1	0.15366985
13	0x3dbc86ca	0.092053965
14	0xbd8d9eee	-0.06915079
15	0xbd710353	-0.05884106
16	0xbe509292	-0.20368412
17	0x3b6ae39d	0.0035841234
18	0xbe4c9b6b	-0.19981162
19	0x3c758c71	0.014987097
20	0xbd94d7d1	-0.07267726
21	0xbd12cbff	-0.035839077
22	0x3e548f7a	0.20757857
23	0xbe75ad75	-0.2399195
24	0xbe92618d	-0.2859005
25	0x3dfca082	0.12335302
26	0xbe89ba4f	-0.26899955
27	0x3e75ccda	0.24003926
28	0x3e0ee9ae	0.13956329
29	0x3de863f0	0.113471866
30	0x3ca59efa	0.020217407
31	0x3e240f53	0.1602147
32	0x3e0af7f0	0.13571143
33	0xbe8bbb2e	-0.27291244
34	0x3dacd17f	0.08438396
35	0x3e1ec0c3	0.1550322
36	0xbe18ca88	-0.1492101
37	0xbe88620e	-0.2663731
38	0xbe352871	-0.17691208
39	0xbbfd36d4	-0.0077274833
40	0x3e8a5150	0.27015162
41	0x3e85c42d	0.26126233
42	0x3deae4b0	0.114694
43	0x3e5c1ddf	0.2149577
44	0xbdb6e5f6	-0.0893058
45	0x3e1fb138	0.15594947
46	0xbdb8149f	-0.08988308
47	0x3cf1aa0f	0.029500036
48	0x3e09d116	0.13458666
49	0xbe8f2d40	-0.2796421
50	0x3e7c80e5	0.24658544
51	0x3e827df2	0.25486714
52	0x3e91d6e6	0.28484267
53	0x3df0c3b4	0.117560774
54	0xbdba4c1b	-0.09096547
55	0x3e939afd	0.28829184
56	0x3e8ff2a2	0.28114802
57	0x3dc83081	0.097748764
58	0xbca26537	-0.019823654
59	0xbe3659f0	-0.17807746
60	0xbe9a0cdb	-0.30087933
61	0xbe31926f	-0.17341016
62	0xbe6bafeb	-0.23016326
63	0xbe829639	-0.25505236
64	0x3dee5706	0.11637692
65	0x3e310022	0.17285207
66	0x3e0f9674	0.14022237
67	0x3e95551c	0.29166496
68	0xbd3217ae	-0.043479614
69	0x3e8ab79f	0.27093217
70	0xbe77c9c7	-0.24198066
71	0x3e2b7898	0.16745222
72	0x3e180603	0.14846043
73	0x3e2cd80b	0.16879289
74	0x3e6c31c6	0.23065862
75	0x3e08858c	0.13332194
76	0x3e26ea1d	0.16300245
77	0xbd38f527	-0.04515567
78	0xbe10a154	-0.14124042
79	0x3e430e33	0.19048385
80	0x3e887890	0.26654482
81	0xbe7f91d3	-0.24957971
82	0xbdc40e8f	-0.09573089
83	0xbdd8c43d	-0.105843045
84	0x3e87f982	0.26557547
85	0xbe135842	-0.14389136
86	0x3e888e66	0.2667114
87	0xbe455909	-0.19272245
88	0xbe0405ea	-0.12892881
89	0xbe0bf88d	-0.13669033
90	0xbe1c1139	-0.15240945
91	0x3cc2ae8b	0.02376487
92	0xbe828065	-0.25488582
93	0x3daac551	0.08338416
94	0xbe38df2c	-0.18053883
95	0xbe339e90	-0.17540956
96	0x3d9e6a9d	0.077351786
97	0xbd6957fe	-0.05696868
98	0xbe5aa897	-0.21353374
99	0x3e77b9da	0.2419199
100	0x3e8457ee	0.25848335
101	0xbd28425d	-0.041078914
102	0xbe98335f	-0.29726693
103	0xbd84408a	-0.06457622
104	0xbdb080bc	-0.08618304
105	0xbde0a351	-0.1096865
106	0x3d805287	0.06265741
107	0x3e6d166c	0.23153085
108	0x3e5d1d36	0.21593174
109	0x3e1b92e1	0.15192749
110	0x3e6c216f	0.23059629
111	0xbdfdbfff	-0.12390136
112	0x3e5c843c	0.21534818
113	0x3e491f9d	0.19640966
114	0xbda2be0c	-0.07946405
115	0x3dc6637f	0.09686946
116	0xbda7ff03	-0.082029365
117	0x3e1e3425	0.15449579
118	0xbe681665	-0.22664793
119	0xbd42f3f8	-0.047595948
120	0xbdafbafb	-0.085805856
121	0x3e3efa93	0.18650274
122	0x3e99d3ce	0.30044407
123	0x3e0559a2	0.13022473
124	0xbe7e5dc6	-0.24840459
125	0x3e908515	0.28226534
126	0xbe03e8a1	-0.1288171
127	0x3e1a0f9e	0.1504502
128	0x3e15f253	0.1464322
129	0xbd26b3e1	-0.04069889
130	0xbe01db3a	-0.12681285
131	0xbc7e3c64	-0.015517328
132	0x3e5f19a5	0.21787126
133	0x3d8fcb3d	0.070211865
134	0xbe2e6232	-0.17029646
135	0xbde0076f	-0.10938918
136	0xbe838b9d	-0.25692454
137	0xbe928033	-0.28613433
138	0xbd2a96fb	-0.041647892
139	0xbe4c7c94	-0.19969398
140	0x3db962ff	0.09052085
141	0x3e9389b1	0.28815988
142	0x3e86e865	0.26349178
143	0x3d1d629f	0.03842413
144	0xbe5e6ebc	-0.2172193
145	0xbda4f70e	-0.080549344
146	0x3e71a869	0.235994
147	0xbe84b245	-0.2591726
148	0x3c68b8d5	0.014204224
149	0xbe88fd1d	-0.2675561
150	0x3dbc95ad	0.09208236
151	0xbd60f79b	-0.054923635
152	0x3e42ff49	0.19042696
153	0xbe69c3c9	-0.22828592
154	0x3c4d41bd	0.01252788
155	0x3d1f8678	0.0389466
156	0x3e9438b9	0.28949526
157	0x3e5f567f	0.2181034
158	0x3deecc38	0.116600454
159	0x3dc99cdd	0.098443724
160	0xbe776db1	-0.24162938
161	0x3e62fc25	0.22166498
162	0xbdda074a	-0.106459215
163	0x3e43bd6d	0.19115229
164	0x3e3fb98b	0.18723123
165	0x3d619cf3	0.05508132
166	0xbd4d40e9	-0.05011073
167	0xbe05718c	-0.13031596
168	0xbd475a00	-0.048669815
169	0x3e4d8248	0.2006923
170	0xbd16eda0	-0.03684771
171	0xbe4dcc14	-0.20097381
172	0x3e5d8316	0.21632037
173	0xbe051a75	-0.12998374
174	0xbdb570c4	-0.08859399
175	0xbe380cef	-0.17973684
176	0xbdc3e047	-0.09564262
177	0x3e8616d7	0.261893
178	0x3cdd983b	0.027050128
179	0xbc93d3bf	-0.018045304
180	0x3dc6a305	0.09699062
181	0x3e5fd3b2	0.21858099
182	0x3df9fdef	0.12206637
183	0x3e3658c2	0.17807296
184	0x3d27d433	0.040973853
185	0x3dd0bca6	0.10192232
186	0x3d013ee0	0.031554103
187	0x3e0346cb	0.12819974
188	0xba8f5723	-0.0010936003
189	0xbe8149d5	-0.25251642
190	0x3db6c353	0.08923974
191	0x3dda53ab	0.1066049
192	0xbd6d0cf6	-0.05787369
193	0x3e4f1556	0.20222983
194	0x3e19939a	0.14997712
195	0x3df5dd1e	0.120050654
196	0x3e13b084	0.14422804
197	0xbe84b650	-0.25920343
198	0x3d5b520c	0.053545043
199	0x3e7fae95	0.24968942
200	0x3e578e28	0.21050322
201	0x3dd75fe4	0.105163366
202	0x3dde0b63	0.108420156
203	0x3d787e69	0.06066743
204	0x3e85a934	0.26105654
205	0xbe6c907a	-0.23101988
206	0x3cc1f21a	0.023675013
207	0x3ccde0b6	0.025131565
208	0xbdae4061	-0.08508373
209	0x3e2252b1	0.15851857
210	0x3e879910	0.26483965
211	0xbe960b42	-0.29305464
212	0xbe311a13	-0.17295103
213	0x3cf175e6	0.029475164
214	0xbe59a382	-0.2125378
215	0x3e21c3b5	0.15797313
216	0xbd77869b	-0.060431104
217	0xbe3cb7d0	-0.18429494
218	0xbe8eecbf	-0.27914998
219	0xbdec2891	-0.11531175
220	0x3e0e8e2e	0.13921425
221	0xbdb8bf2a	-0.09020837
222	0x3e0c497d	0.13699909
223	0x3e5e4768	0.21706927
224	0x3e291dd6	0.16515288
225	0xbb8d932c	-0.004320523
226	0xbd9305b3	-0.071788214
227	0xbe8049a6	-0.2505619
228	0x3df6dfae	0.12054382
229	0xbe711851	-0.23544432
230	0x3e7b60b0	0.24548602
231	0xbd74b0d4	-0.05973895
232	0x3e265c15	0.16246064
233	0xbcfbf882	-0.030758146
234	0xbe89573c	-0.26824367
235	0xbdde22cb	-0.1084648
236	0xbe3ebd05	-0.18626793
237	0x3a066ae3	0.00051276217
238	0xbc952b04	-0.018208988
239	0x3d8a2a08	0.06746298
240	0xbe44213e	-0.19153306
241	0xbe8ba56b	-0.2727464
242	0x3e8b5394	0.27212203
243	0x3e370b65	0.1787544
244	0x3e80c40a	0.25149566
245	0xbe7d022d	-0.24707861
246	0xbdda78ec	-0.10667595
247	0xbd2e8d74	-0.04261537
248	0xbc195576	-0.009358754
249	0xbe74d6e5	-0.23910101
250	0x3c112d0b	0.008860837
251	0x3ca11db2	0.01966748
252	0x3de55662	0.11198117
253	0xbe765a7f	-0.24057959
254	0xbe0de02c	-0.13855046
255	0x3d8f52dc	0.06998226

gru_dp_fw.weight_hh_l0 f4 [33, 11]
0	0xbdcb51f3	-0.0992774
1	0xbd4dce7c	-0.050245747
2	0x3e73da68	0.23813784
3	0xbe7544ea	-0.2395207
4	0xbe4d0c12	-0.20024136
5	0xbdb9b01a	-0.09066792
6	0x3c22a43e	0.009926854
7	0xbe20d311	-0.15705515
8	0x3bbe0392	0.0057987655
9	0x3dc25fca	0.094909266
10	0x3d89bf87	0.06725984
11	0x3e995fcf	0.2995591
12	0xbe843802	-0.2582398
13	0xbdfd079d	-0.12354968
14	0x3db20956	0.08693187
15	0xbd4d757a	-0.050160863
16	0xbc3a8860	-0.011385053
17	0xbd2f6fd3	-0.042831253
18	0x3e351bea	0.1768643
19	0xbddb6d5d	-0.10714219
20	0xbd426932	-0.047463603
21	0xbe2e2277	-0.17005335
22	0x3c56865e	0.013093559
23	0xbd84d5d8	-0.064861
24	0x3b13860f	0.0022510325
25	0x3e4c7d22	0.1996961
26	0x3d0dd44c	0.03462629
27	0xbe6a6af7	-0.22892366
28	0x3e0732da	0.13202992
29	0x3e2cc3ed	0.16871615
30	0xbbd9e084	-0.006649079
31	0x3e5e4e58	0.21709573
32	0xbd5a9059	-0.053360317
33	0xbd304a32	-0.04303951
34	0x3d8e613e	0.06952141
35	0xbe9d2065	-0.30688778
36	0xbe888809	-0.26666287
37	0x3de8d3df	0.11368536
38	0xbc529891	-0.0128537575
39	0xbe92a01f	-0.28637788
40	0x3e0423c3	0.12904267
41	0x3c148b3c	0.009066399
42	0xbdd69616	-0.10477845
43	0x3ddb8a89	0.10719783
44	0xbdbef3f5	-0.09323875
45	0x3e687cb1	0.22703816
46	0xbe65dd87	-0.22447787
47	0x3e6ea3a1	0.23304607
48	0xbe2793c7	-0.16364966
49	0xbb8b8283	-0.0042575016
50	0xbc44ae3d	-0.012004432
51	0x3e7e5c5c	0.2483992
52	0x3e357407	0.17720042
53	0xbea21728	-0.31658292
54	0xbdb21047	-0.08694511
55	0x3dfdb87e	0.12388705
56	0xbe6f98d6	-0.23398146
57	0x3d252870	0.040321767
58	0xbe01904f	-0.12652706
59	0x3c84c7c1	0.016208531
60	0x3cf9578c	0.030437253
61	0x3d9110b1	0.07083262
62	0xbddd0eb0	-0.10793817
63	0xbd827fb0	-0.06372011
64	0x3e0b202b	0.1358649
65	0x3e5f4afa	0.21805945
66	0xbde94b9f	-0.11391377
67	0x3e04f121	0.12982608
68	0x3d7d4078	0.06182906
69	0xbdb2d153	-0.08731332
70	0x3e5ae11b	0.21374933
71	0xbe1b992d	-0.1519515
72	0x3d72f732	0.059317775
73	0xbd34c95b	-0.04413734
74	0xbcbd168a	-0.023082037
75	0x3e732898	0.23745954
76	0xbe1e6120	-0.15466738
77	0x3e874fdf	0.26428124
78	0xbcf3c2e8	-0.029756024
79	0xbe338afd	-0.17533489
80	0xbdc63c6c	-0.09679493
81	0x3c808460	0.015688121
82	0xbe8677a4	-0.26263154
83	0xbdff3a8a	-0.12462337
84	0x3e6f5bf9	0.23374929
85	0xbe58c12c	-0.21167439
86	0x3e3c231a	0.18372765
87	0x3a8f9f86	0.0010957576
88	0xbe8206bb	-0.2539576
89	0xbc811c89	-0.015760677
90	0x3df6140d	0.12015543
91	0xbe553447	-0.20820723
92	0x3e139e97	0.14415966
93	0xbe92b9c6	-0.2865736
94	0x3a930c4d	0.0011218876
95	0xbca97dd7	-0.020689888
96	0x3e887dc9	0.26658466
97	0xbe473491	-0.19453646
98	0x3df7232b	0.12067255
99	0xbe89b2e2	-0.2689429
100	0x3d9acbdd	0.07558415
101	0x3d79c1ae	0.060975723
102	0xbe4aef5a	-0.19817868
103	0xbd45a9ac	-0.048257515
104	0x3d4c5268	0.049883276
105	0xbe2631fd	-0.16230007
106	0xbe542b4c	-0.20719641
107	0x3cfad536	0.030619245
108	0xbcabff31	-0.020995708
109	0x3dadc430	0.084846854
110	0x3e667e2e	0.22509071
111	0x3d13c0a6	0.036072396
112	0x3e7af62c	0.2450797
113	0x3e50dc66	0.20396575
114	0xbd8dfcb2	-0.069329634
115	0x3e6ca2e5	0.23109014
116	0xbe2d71a5	-0.16937883
117	0xbe8678b7	-0.26263973
118	0xbdf299ae	-0.11845718
119	0xbda82d9f	-0.082118265
120	0xbd38e667	-0.045141604
121	0xbe8597b6	-0.2609231
122	0x3e4bd2f4	0.19904691
123	0x3d253550	0.040334046
124	0xbe97064c	-0.29496992
125	0xbdf0b06b	-0.11752399
126	0x3e39099a	0.18070069
127	0xbd8d9489	-0.069130965
128	0x3d51b3cd	0.051196862
129	0xbe84b3a9	-0.2591832
130	0xbe633bec	-0.22190827
131	0xbe471172	-0.19440249
132	0xbe6af0b7	-0.22943388
133	0x3e77e35d	0.24207826
134	0x3dfe36d9	0.12412805
135	0x3ce63c74	0.028104998
136	0xbe3f118f	-0.18659042
137	0x3e34997d	0.17636676
138	0xbe8bb08e	-0.27283138
139	0xbcf3e0eb	-0.029770335
140	0xbda34ff5	-0.07974235
141	0xbe809462	-0.25113207
142	0x3ba3d2fc	0.0049995165
143	0x3e29bede	0.16576716
144	0x3dc29bfa	0.095024064
145	0xbe34f8c4	-0.17673022
146	0xbe9203c6	-0.28518504
147	0xbd1fa6bb	-0.038977366
148	0x3dce7f0c	0.10082826
149	0xbe3c44d3	-0.1838563
150	0x3e42b8a1	0.19015743
151	0x3d9315ab	0.07181867
152	0x3cd7180c	0.026256584
153	0x3a9eeb93	0.001212465
154	0x3e56a1d8	0.20960176
155	0x3e33a83d	0.17544647
156	0x3e36046e	0.17775127
157	0x3b2c7b88	0.0026318748
158	0x3dda44ef	0.10657679
159	0xbe1170ca	-0.14203182
160	0xbe7f7257	-0.24945961
161	0x3e904e9a	0.28184968
162	0x3deea9db	0.11653491
163	0xbe17a66b	-0.14809577
164	0xbdfd2098	-0.123597324
165	0x3bafb9f0	0.0053627416
166	0x3d96a3bc	0.073554486
167	0x3e94c783	0.29058465
168	0x3e88088c	0.2656902
169	0xbcec6322	-0.028855864
170	0x3d8d4ad1	0.06899036
171	0x3e406b8b	0.18791024
172	0x3e8452fa	0.25844556
173	0xbdb0ea91	-0.0863849
174	0x3e5af851	0.21383788
175	0x3e7598c1	0.23984052
176	0xbd531888	-0.051537067
177	0x3e996e54	0.29966986
178	0xbe9604b3	-0.2930046
179	0xbd7ffaf1	-0.062495176
180	0xbde4c037	-0.111694746
181	0xbe3e5607	-0.18587504
182	0xbe8aabdf	-0.27084252
183	0x3e33627b	0.17518036
184	0x3d64e9f2	0.05588717
185	0x3d88debb	0.066831075
186	0xbe85dd0a	-0.26145202
187	0x3d66e25d	0.05636822
188	0x3e4a3930	0.19748378
189	0xbe01002b	-0.1259772
190	0xbda9dd0d	-0.08294115
191	0x3cdc223f	0.026871799
192	0xbe6babdd	-0.2301478
193	0x3e86e26b	0.26344618
194	0xbe5d3625	-0.21602686
195	0x3e552c69	0.20817722
196	0x3e91c6a6	0.2847187
197	0x3e303d62	0.17210916
198	0xbd41a700	-0.047278404
199	0xbd91e901	-0.0712452
200	0xbe233603	-0.15938573
201	0xbe81f310	-0.25380754
202	0xbe8370c1	-0.25671962
203	0x3e1a531c	0.15070766
204	0xbe70f33e	-0.2353029
205	0xbdb01717	-0.08598154
206	0xbc194690	-0.009355202
207	0xbe8b23b6	-0.27175683
208	0xbda7d036	-0.0819401
209	0x3bd62325	0.0065349513
210	0x3e171e80	0.14757729
211	0x3cf9016d	0.030396188
212	0xbd782c3c	-0.06058906
213	0xbd8011b9	-0.0625338
214	0xbcc226ab	-0.023700079
215	0xbe833d99	-0.25632933
216	0xbdcc3f62	-0.09973027
217	0x3e86bc0e	0.2631535
218	0xbe6573c5	-0.22407444
219	0xbe778b54	-0.24174243
220	0xbe10f768	-0.14156878
221	0x3e21270f	0.15737556
222	0x3e87937b	0.26479706
223	0xbd3dcd70	-0.0463385
224	0x3db3a37b	0.08771416
225	0x3e327113	0.17425947
226	0xbe0bafec	-0.13641328
227	0xbe386237	-0.18006216
228	0xbe804e7e	-0.25059885
229	0x3de8155d	0.113322
230	0x3e94bb61	0.2904921
231	0x3e8f560b	0.27995333
232	0xbe901a5a	-0.28145105
233	0xbe4e2666	-0.20131835
234	0xbe908dd1	-0.28233197
235	0xbe8d733f	-0.27626988
236	0x3e295ab9	0.16538514
237	0xbe0c91b4	-0.13727456
238	0x3e997a1f	0.29975984
239	0xbe7d283d	-0.24722381
240	0xbd5936a2	-0.053030618
241	0xbe114bf8	-0.14189136
242	0xbe3cb2ce	-0.18427584
243	0xbe40757d	-0.18794818
244	0x3e2dab7f	0.16959952
245	0x3d962024	0.07330349
246	0x3e387180	0.18012047
247	0xbe7852e3	-0.24250369
248	0xbe5244b3	-0.20534019
249	0xbe7257ec	-0.23666352
250	0xbe3ffb51	-0.18748213
251	0x3e48f11f	0.1962323
252	0x3d44da79	0.048059914
253	0x3e5d80a5	0.21631105
254	0xbe565bce	-0.20933458
255	0x3ea92fbb	0.33044228

gru_dp_fw.bias_ih_l0 f4 [33]
0	0xbe5e289c	-0.21695179
1	0x3ea0825f	0.31349465
2	0xbe8f4b84	-0.279873
3	0xbb72871a	-0.0037006796
4	0xbe999ef9	-0.300041
5	0x3d76681d	0.060157884
6	0x3da7cec1	0.08193732
7	0xbdae0f3f	-0.08499002
8	0x3e71a44f	0.23597835
9	0x3dea5060	0.114411116
10	0x3d1093b8	0.035297126
11	0xbd8da6f8	-0.069166124
12	0x3e015eea	0.12633863
13	0xbe21bcba	-0.1579465
14	0x3e0c3e6c	0.13695687
15	0xbb606033	-0.0034237027
16	0x3e81df4a	0.2536567
17	0xbd7975f4	-0.060903504
18	0xbe44deab	-0.19225566
19	0x3c99e550	0.018786103
20	0xbb28f84b	-0.002578276
21	0x3caa2bb4	0.020772792
22	0x3e42a4fa	0.19008246
23	0xbdcbb615	-0.09946839
24	0x3db088d2	0.086198464
25	0x3cc4556e	0.023966517
26	0x3e329478	0.17439449
27	0x3e1d8a9c	0.15384907
28	0x3e7c4d78	0.24638927
29	0x3dfc9b84	0.1233435
30	0xbe2bef7b	-0.16790573
31	0x3c86f11e	0.016472396
32	0x3e1730e3	0.14764743

gru_dp_fw.bias_hh_l0 f4 [33]
0	0x3e021dba	0.12706652
1	0xbe47c058	-0.19506967
2	0x3e9a443b	0.3013018
3	0xbe95bc66	-0.292453
4	0xbe30dd0d	-0.17271824
5	0x3e0e4133	0.13892059
6	0x3e6f9382	0.23396114
7	0xbde3b8ed	-0.11119256
8	0x3dcaab40	0.098959446
9	0x3db235e3	0.08701684
10	0xbe872659	-0.26396444
11	0xbe8bdc45	-0.2731649
12	0x3e74a235	0.23890002
13	0x3e05c99b	0.13065188
14	0x3e80c7ea	0.25152522
15	0x3d87db1c	0.06633589
16	0xbe050e14	-0.12993652
17	0xbe174728	-0.14773238
18	0xbdb7c0be	-0.089723095
19	0xbdadeea6	-0.08492784
20	0xbe94cd77	-0.29063007
21	0xbe411e4a	-0.1885921
22	0x3df13901	0.11778451
23	0xbd5f4bf3	-0.05451579
24	0x3e1e4c1d	0.15458722
25	0xbe7eb127	-0.24872266
26	0xbe9e6155	-0.30933633
27	0x3daf4cda	0.0855958
28	0xbc379aea	-0.011206368
29	0xbe3759a7	-0.17905293
30	0x3e9291b4	0.28626788
31	0x3db15e06	0.08660512
32	0xbe42e25d	-0.19031663
