ablation2_activation_function/birnn_concat_time_delta/final_model.pt (torch, 53113 bytes, 21 tensors)

embed_dp.weight f4 [1292, 6]
000000 00 00 00 00 00 00 00 00 00 00 00 00 00 00 00 00
       0.0 0.0 0.0 0.0
000010 00 00 00 00 00 00 00 00 44 9f ab be 08 30 9c 3e
       0.0 0.0 -0.33519948 0.30505395
000020 50 9b 82 3e be 6e 71 3f 5c ef 6e 3e 79 43 28 bf
       0.2550912 0.94309604 0.23333496 -0.65727955
000030 fb 0a 36 be a1 a3 11 be f9 ef 0c 3f bb 76 92 be
       -0.17777626 -0.14222576 0.5505367 -0.2860621
000040 d8 5c ea 3d 5f 3c 04 bf c0 aa b7 be e1 5e 89 bf
       0.1144349 -0.5165462 -0.3587246 -1.073208
000050 15 c7 51 3e 27 a3 44 3f 3c 7f 98 bf 8c b9 e7 3e
       0.204861 0.7681145 -1.1913829 0.4525875
000060 9a 80 91 3e 8f d1 a6 3f 95 da 39 3f 77 8d 44 3f
       0.28418428 1.3032702 0.72599155 0.7677836
000070 0a a1 c1 be b6 a8 90 3f ed 42 bc 3e 72 9c 76 bf
       -0.37818176 1.1301486 0.3676981 -0.96332467
000080 02 eb eb be 22 cb 80 bf 5f 13 ac be 64 37 38 bf
       -0.46077734 -1.0061991 -0.3360853 -0.7195952
000090 9d 55 0e be f6 9c 88 bf 7a 2e 44 bf d0 e7 86 be
       -0.13899846 -1.0672901 -0.7663342 -0.26348734
0000a0 20 33 40 bd cd e1 3c 3f 39 14 c6 bf 8b 2f 80 3e
       -0.046923757 0.73782045 -1.5474921 0.25036272
0000b0 b2 ba da bf a9 6d 47 bf 4d 09 22 bf 75 e8 74 3f
       -1.7088225 -0.77901703 -0.6329544 0.956672
0000c0 20 0c 04 40 b8 07 76 be a7 2f 13 3f b1 fe 39 bf
       2.06324 -0.24026382 0.57494587 -0.72654253
0000d0 b1 13 e8 3e 31 21 e7 be 54 3a 0a 3f 86 63 87 3f
       0.45327523 -0.4514251 0.5399525 1.0577247
0000e0 7c 7f 19 bf 65 c5 2d 3f b0 bd 22 be de f0 59 40
       -0.5996015 0.67879325 -0.15892673 3.4053264
0000f0 4d 6e b7 3e bd d1 47 be 75 8a 3b 3f 2c c6 82 bf
       0.3582634 -0.19513603 0.73258144 -1.0216727
000100 9a c6 e7 3e 39 58 a5 bf d0 80 cd 3f 24 44 b5 be
       0.45268708 -1.2917548 1.6054935 -0.3540355
000110 a9 22 12 3f 34 42 34 bf 78 76 90 3e 17 e7 59 3f
       0.5708414 -0.7041352 0.28215384 0.8511824
000120 50 15 d7 bf e2 d1 15 3f 4f 70 ac bf 76 4f cb bc
       -1.6803379 0.5852338 -1.3471774 -0.024818163
000130 0a da 95 bf b7 f7 88 bf c1 b1 8d bf bb 3a a1 bc
       -1.1707165 -1.0700597 -1.1069871 -0.019681325
000140 c5 aa ac 3f 9e b5 84 3f 96 4f 9b bf 2c de 8c be
       1.3489615 1.0367925 -1.2133663 -0.27513254
000150 65 59 a6 bf ee d2 58 bf e7 c2 94 bf 30 a9 3e be
       -1.2996031 -0.84696853 -1.162198 -0.18619227
000160 30 94 0f 40 16 fa bd bf 0f 8f 7d bf 6b eb d3 bd
       2.2434196 -1.4841945 -0.99046415 -0.10347637
000170 40 cf 67 bf 4d b5 b9 3e 24 ab 36 bf 35 12 0f 3f
       -0.90550613 0.36271134 -0.7135489 0.55887157
000180 3a ac f5 3e 5c ba c8 3e 42 12 10 3f a1 b1 20 bf
       0.4798296 0.3920468 0.5627786 -0.6277104
000190 32 1c cc bf ac 17 7f 3d 90 ce c7 be e7 60 74 3b
       -1.5946105 0.062278435 -0.39024782 0.0037289204
0001a0 72 a7 70 bf 77 ca 06 c0 e1 ca 01 bf 16 7c 12 bf
       -0.940055 -2.1061075 -0.50700194 -0.5722059
0001b0 48 f8 78 3f 1b 00 33 bf 4d 5e ad 3e 93 0a d1 3f
       0.9725385 -0.69922036 0.33861008 1.6331352
0001c0 e1 49 dd 3e 1f e3 85 3f bb 38 95 3f 24 52 61 be
       0.43220428 1.0459937 1.1657938 -0.2200399
0001d0 16 ed a0 be d7 9d 5d 3f ba d9 74 bf dc 65 2c 3e
       -0.31430882 0.8656897 -0.95644724 0.16835731
0001e0 b0 40 b6 bf fc b0 77 be 4b a4 91 3f 2d 4c ba 3e
       -1.4238491 -0.24188608 1.1378263 0.36386243
0001f0 eb 8e 31 3f 46 81 3f bf 78 14 5b bf fb b2 f7 bd
       0.693587 -0.7480663 -0.8557811 -0.12094685
000200 50 1c 73 3f 5b 86 3e 3d b5 0d 82 3f ba 23 a5 3f
       0.94965076 0.04651485 1.0160433 1.2901528
000210 45 ab 16 bf b8 87 e8 3d a1 d3 d0 3f fa 37 fd bc
       -0.58855087 0.11354011 1.6314584 -0.03091048
000220 6a 69 3b 3e 25 bf 0e 3f 77 fa 70 3e 0a 94 c1 bf
       0.18301931 0.55760413 0.23533045 -1.5123303
000230 a9 37 ba be 3d 0d be bf 6a 46 b3 3f c6 28 f1 3e
       -0.3637059 -1.484779 1.4005864 0.4710142
000240 d8 09 1b 40 e5 48 b6 be 1f e2 64 bf d9 91 ac bf
       2.4224758 -0.3560249 -0.89407533 -1.3482009
000250 83 12 4c bf 2b d3 97 3f 81 d2 cc be 73 1d 46 bd
       -0.79715747 1.1861318 -0.40004352 -0.04836793
000260 08 24 e9 bf 50 fa cb be e3 a6 b4 3f e4 6b 4a bf
       -1.8214121 -0.3983941 1.411343 -0.7907088
000270 ad 71 12 bf a2 96 0c bf 3d 7f 40 bf 1b 48 87 bf
       -0.57204705 -0.5491735 -0.7519415 -1.056888
000280 00 01 c8 3d e9 2f a5 bf ae 86 68 bf 7d 63 91 3e
       0.09765816 -1.2905246 -0.90830505 0.28396216
000290 e6 7c 37 3f c9 67 ef be 0d 09 b4 be 81 c2 5e 3e
       0.71674955 -0.4675887 -0.35163155 0.21753885
0002a0 8f 42 d9 bf ea bd 25 3f 1c 2d 35 3e 87 0c b0 3e
       -1.6973437 0.6474291 0.17692989 0.34384558
0002b0 a1 96 99 3f 67 80 63 be fb 14 a8 3f f9 f2 74 3e
       1.1999093 -0.2221695 1.3131403 0.23920812
0002c0 c6 31 5a bf ee 07 9a bf 2a ed d3 3e 65 69 80 3f
       -0.852322 -1.203367 0.4139188 1.0032164
0002d0 40 1d 92 bf 7a e1 8d 3d ea b0 9c 3e 89 88 b8 3e
       -1.1415176 0.06927772 0.30603725 0.36041668
0002e0 3c d0 37 3f c7 1d 75 3f db 18 7e bf 4d 80 d6 3f
       0.71802115 0.9574856 -0.99256676 1.6757904
0002f0 ea f8 8f bf 7b 2c e1 3f 35 03 50 bd 85 08 68 3f
       -1.1247838 1.7591699 -0.05078431 0.90638
000300 5f 1d 97 3f 03 51 38 bf e6 fc c1 bf 39 96 0d be
       1.1805838 -0.71998614 -1.5155303 -0.13826837
000310 99 7a 5b bf 53 f5 05 3f f8 bb e4 3f 2b d6 d8 be
       -0.85733944 0.5232746 1.7869864 -0.42350897
000320 ee 63 bb 3f ab 8a cf bf c2 4e 01 40 5f 21 5e 3f
       1.4639871 -1.6214193 2.020432 0.8676967
000330 b6 2a 30 bf 63 b5 cf 3e 0b 84 84 bd 3f 0c fe bf
       -0.6881517 0.40568075 -0.06470498 -1.9847487
000340 0a ae 83 3f cc a7 48 3f 6c 71 17 3e 83 ea 3b 3f
       1.0287488 0.7838104 0.14789361 0.7340471
000350 53 a1 7a bf 0b 2a 01 c0 9e 72 bd bf f5 e0 91 3f
       -0.9790241 -2.018191 -1.4800603 1.1396776
000360 2c f5 81 3f 48 1c 04 40 10 55 1f 40 72 8a a1 bf
       1.0152946 2.0642262 2.4895668 -1.2620375
000370 11 87 d3 3e 2e 71 3b 3f 3a 5e a0 3e 6a d2 36 3f
       0.41313985 0.73219573 0.3132189 0.71414816
000380 97 e2 eb 3e 17 85 c5 3f 03 e4 83 3f ce 90 91 bf
       0.46071312 1.5431241 1.0303959 -1.1372316
000390 3f 3a 16 c0 42 6c 95 3d 92 43 ec 3e 13 6d 64 3f
       -2.347305 0.07296039 0.46145302 0.89228934
0003a0 34 c4 14 bf 1e f2 83 bf 73 5a 28 40 95 be 20 3f
       -0.5811188 -1.0308263 2.6305206 0.62790805
0003b0 6d d5 8b 3e 21 c5 b7 be de bb 81 3f ef 77 2d be
       0.27311268 -0.35892585 1.0135458 -0.16940282
0003c0 b8 40 2a 3f 8b b0 85 bf 98 f1 0e 3d 73 a8 79 be
       0.66505 -1.0444502 0.03489837 -0.24380665
0003d0 f0 78 35 3f 16 76 70 bf a6 e4 0f 40 1b 75 08 3f
       0.7088766 -0.93930185 2.2483306 0.5330369
0003e0 a6 b7 12 3f 65 ad 2f bf 5b 84 0f bf 33 80 bc bf
       0.57311475 -0.68623954 -0.56061333 -1.4726623
0003f0 95 35 53 bf 46 61 66 bf 97 8e 3f 3f c9 47 28 bf
       -0.82503635 -0.8999218 0.7482695 -0.65734535

embed_cp.weight f4 [620, 5]
000000 00 00 00 00 00 00 00 00 00 00 00 00 00 00 00 00
       0.0 0.0 0.0 0.0
000010 00 00 00 00 e8 c1 4e be 07 3f 0e c0 bf 2e 4f be
       0.0 -0.20191157 -2.222597 -0.20232676
000020 f5 44 bb be df 7f 08 3f 5e 1a f0 3f 72 20 1d bf
       -0.36576048 0.53320116 1.8758047 -0.6137763
000030 89 3f 19 bf 7b 1d b8 3e 79 3b c8 3f 8a 75 49 3f
       -0.5986257 0.35959992 1.564315 0.78694975
000040 36 0b 2e bf 1a 5f 0f c0 74 83 0f 3f 24 2f 43 bf
       -0.67985857 -2.2401795 0.56059957 -0.76243806
000050 2e 69 91 bd ee 6a 9f be bf b9 cf be 75 37 89 3e
       -0.071001396 -0.31136268 -0.405714 0.26800123
000060 17 4a 9a bf 34 83 92 bf 43 b9 ef bf b2 b4 1f 3e
       -1.205386 -1.144629 -1.8728412 0.15596274
000070 98 54 59 3f 70 9f 84 3f 80 22 ce 3e 6a 16 ad bf
       0.84894705 1.0361156 0.40260696 -1.3522465
000080 0f 82 6b 3d f0 a3 cc bf ce dc 4a 3f 80 af d5 3f
       0.05749708 -1.598753 0.7924317 1.6694183
000090 7b 46 b9 3e b6 81 fd be dc 41 e4 bd e8 2f f4 3d
       0.36186585 -0.49513024 -0.11145374 0.119232
0000a0 2c a5 a3 3f ba a9 28 3f ad d0 e0 bb aa a6 67 bf
       1.2784781 0.6588398 -0.0068608136 -0.90488684
0000b0 47 16 da bb ee ab 64 3f c8 7f f3 3e eb 0e 1a be
       -0.0066554877 0.89324844 0.47558427 -0.15044753
0000c0 4b 26 26 c0 61 bc fe 3f 80 df dc be c7 a7 9b bf
       -2.5960872 1.9901239 -0.43139267 -1.2160577
0000d0 a4 4c 79 be 70 ab 8a bf 5e ed ca 3f 46 8e 3e bf
       -0.24345642 -1.0833569 1.5853689 -0.7443584
0000e0 bd ef 0a c0 4c 24 94 3d 60 ae 28 3f d9 f4 0b be
       -2.1708825 0.072334856 0.65891075 -0.1366762
0000f0 34 3f 7d 3f 81 59 3d bf ba 29 25 bd b2 ff a0 3e
       0.98924565 -0.739647 -0.040322997 0.3144508
000100 c7 3f fb be d5 01 88 bf 04 c4 b6 bb d9 8a 84 3f
       -0.49072096 -1.0625559 -0.005577566 1.0354873
000110 a5 df 4a 3e 67 9c 86 bf 5b 93 4d 3e e9 eb 8c bf
       0.19811876 -1.051648 0.20075743 -1.1009494
000120 c4 a1 08 40 b9 2a 5c 3f 65 dc a1 3e 7c c5 3d be
       2.1348734 0.8600269 0.3161346 -0.18532366
000130 fe 0f c2 bf d2 aa 13 3f df 92 a8 be 16 f4 1c c0
       -1.516113 0.57682526 -0.32924554 -2.4523978
000140 aa bf 7c be ee 90 11 bf 4e d8 1a 3f 64 3c b1 bf
       -0.24682489 -0.5686177 0.60486305 -1.3846555
000150 74 14 a3 be 87 a2 17 be 8d 9e 20 40 06 2c be bf
       -0.31851542 -0.14808093 2.5096772 -1.4857185
000160 2d 5a 72 3e 8e 3b ea bf 99 b7 b2 3f 39 35 bf be
       0.23667212 -1.8299425 1.396228 -0.37345293
000170 4f 25 88 3f b2 4c 14 bf 12 f8 e0 bf 56 70 96 be
       1.0636386 -0.5792953 -1.7575705 -0.2938258
000180 5d 24 62 3f 5b 6e 99 bf 1d cd 8d 3e 54 89 b6 bf
       0.88336736 -1.1986803 0.27695552 -1.4260659
000190 12 e9 b1 3e fc 8d 7f 3f 78 9d ed 3e 25 63 ea 3e
       0.3474813 0.99826026 0.46409202 0.45778766
0001a0 c9 40 ce bb b6 57 a4 3f 3b 7a 9f bf 8f 87 10 3f
       -0.006294344 1.2839267 -1.2459177 0.56456846
0001b0 b4 9b 3e bf c8 18 22 3e 29 33 a0 3f da be f1 3f
       -0.74456334 0.15829766 1.2515613 1.8886368
0001c0 ce a3 b3 3d 43 a6 ce 3e 2c 84 8d 3f 9d 01 a2 3f
       0.08771478 0.40361223 1.1055961 1.2656742
0001d0 52 f6 0e bf ba 46 a2 be 26 08 ab bf fa 68 f5 3f
       -0.55844605 -0.31694585 -1.3361862 1.9172661
0001e0 b8 91 26 bf de 46 24 bf 3e e1 18 bf dc 2f 25 3f
       -0.650661 -0.64170635 -0.5971869 0.6452615
0001f0 bc d9 80 bf 67 ef 90 3f e5 af dc bf bd 66 17 3e
       -1.0066447 1.132306 -1.7241179 0.14785285
000200 fb 63 aa be c4 2e 01 3d 32 d1 42 bd 97 f3 90 3e
       -0.33279404 0.03153874 -0.047562785 0.28310844
000210 1c 6d 9d 3f 95 e0 48 bf 21 17 ba 3f 11 ed af 3d
       1.2298923 -0.78467685 1.4538308 0.08590139
000220 47 f8 20 40 b2 2f 81 3f da d6 22 bf b9 0c 01 3f
       2.5151536 1.009268 -0.6360909 0.5041004
000230 d4 7e 72 3d 34 05 2c 3f 77 b5 0e 3f 41 05 5b 3f
       0.059202984 0.6719544 0.55745643 0.8555489
000240 a4 17 28 bf a0 76 06 40 3f 45 61 3f 74 e2 7f bf
       -0.6566107 2.1009903 0.87996286 -0.99954915
000250 ed 53 34 bf 49 58 6d 3e fd e9 40 3f 57 3f dd be
       -0.7044056 0.2317821 0.7535704 -0.43212387
000260 22 72 ea bf d8 ed 13 3d a8 c8 e1 3f 1f f0 37 3f
       -1.831608 0.036115497 1.763936 0.7185077
000270 4b 30 c5 3f 05 e3 47 3f 2b 86 79 bf b8 a6 88 bf
       1.5405363 0.7808078 -0.9747035 -1.0675879
000280 a7 fe 9c bf 6a 78 6d bb dc 7b f6 bd 52 77 9c 3f
       -1.2265214 -0.0036235102 -0.12035343 1.2223914
000290 55 21 af 3c 39 85 83 3f ed 81 de bd c9 38 00 bf
       0.021378199 1.0275031 -0.10864625 -0.5008665
0002a0 70 14 93 bf 67 bf 0a bf eb ab ae 3f 93 4e 23 3e
       -1.1490612 -0.54198307 1.3646215 0.15947942
0002b0 ec 3e 8c 3f d8 30 1f bf f4 92 09 bd a6 09 4e 3d
       1.0956702 -0.62183905 -0.03358741 0.05030217
0002c0 e8 d2 a6 be 57 49 97 be 9a 87 0e 3e ed ee 52 bf
       -0.32582784 -0.2954814 0.13918915 -0.8239582
0002d0 e3 43 bc 3e 31 de 8b 3f 7a ce 2e 3f 3e 32 19 bf
       0.36770543 1.0927182 0.6828381 -0.5984229
0002e0 0f 43 15 3f 25 dc 22 3f 0b 50 3a be 5b a3 7d 3e
       0.5830545 0.63617164 -0.18194596 0.24769346
0002f0 02 6a dc be c8 c4 b0 3c 33 e9 f1 be be 88 ee 3f
       -0.43049628 0.021578208 -0.4724823 1.863548
000300 59 77 e5 3d ad e4 46 3f be a0 58 3e cf bc 53 3c
       0.112044044 0.7769268 0.21155068 0.012923433
000310 31 14 90 3e b5 48 28 3f 62 ae 5b 3e b6 92 14 3f
       0.28140405 0.6573594 0.2145324 0.58036363
000320 8e a9 b2 3d a2 d6 c9 3d 52 43 41 c0 6f 20 d0 3f
       0.08723746 0.09855391 -3.019734 1.6259898
000330 00 bb 20 bf e0 e8 c5 3d 6f 77 19 3e 74 cf 44 bf
       -0.6278534 0.09663558 0.14986967 -0.7687905
000340 79 4f cf bf 9b 68 56 3f 56 a7 cf 3f c5 a4 f7 3f
       -1.6196128 0.83753365 1.6222942 1.9347159
000350 1d 66 13 bf 22 6b d0 3e 8a 71 32 bf 50 60 d7 3e
       -0.5757769 0.40706736 -0.69704497 0.42065668
000360 d4 80 08 bf 8f ed bc 3f fb 4f 42 bf 80 73 05 3f
       -0.53321576 1.4759997 -0.7590329 0.52129364
000370 a3 b2 99 3e 66 21 89 3f 15 c5 a7 be 66 26 9e 3f
       0.30019102 1.0713317 -0.3276755 1.2355468
000380 73 d5 fe bf cc 6b 14 bd b0 92 2f bf b7 4e 32 3f
       -1.990889 -0.036235616 -0.685832 0.6965136
000390 4f 86 16 be ba 3f ca bf 1f 6c a1 3f 6b e0 8a bf
       -0.14699672 -1.5800698 1.2611121 -1.0849737
0003a0 19 b8 42 bf 3a aa 8c 3e da 5e 1b 3f 6b 78 e3 3c
       -0.7606216 0.27473623 0.60691607 0.02776738
0003b0 7f e2 ac be 2b 7b b5 3f d3 b0 f9 3f a1 1e a9 3e
       -0.33766553 1.4178213 1.9507087 0.3303118
0003c0 f5 7c 10 bf d3 2b aa bf 2f 4d b5 3c 7b ef e2 3f
       -0.5644067 -1.3294624 0.02213153 1.7729334
0003d0 52 d3 45 be a8 4d b6 3e c7 21 8e bc 37 52 6a 3e
       -0.19318894 0.35606122 -0.01735009 0.22882925
0003e0 0c aa 11 c0 4a 00 4c bf 3c 83 b4 bf 2a 7a 2d 3d
       -2.2760038 -0.7968794 -1.410255 0.042352833
0003f0 a7 b6 a6 be 94 f1 1d be 12 6d a1 be 39 74 c1 3e
       -0.32561228 -0.15424186 -0.31528527 0.37783983

gru_dp_fw.weight_ih_l0 f4 [21, 7]
000000 70 32 78 3e e4 17 97 be dd 1a 8f 3e 7d fb 3d be
       0.2423799 -0.29510415 0.27950183 -0.18552966
000010 0f d7 90 be a8 6f a1 3e 26 a0 bc 3e 7a 8b 98 be
       -0.28289077 0.315305 0.36840934 -0.29793912
000020 5b a7 4d 3e b5 aa a5 bd b5 68 cb bd fe e4 b3 3e
       0.20083372 -0.080892004 -0.09932081 0.35135645
000030 8e 7b 08 3e 51 26 57 be 24 7a d6 bc 67 71 63 3e
       0.13328382 -0.2101071 -0.026181288 0.22211228
000040 e4 4d bd be ec 26 f4 bd 1b 42 a1 be 95 c0 88 3d
       -0.36973488 -0.11921486 -0.31495747 0.06677357
000050 45 d3 a7 be 91 50 46 bc b1 4c b1 be 0c 8c a4 bd
       -0.32778373 -0.012104169 -0.34628823 -0.08034524
000060 e3 30 53 be 0c d9 63 be 3d 96 af be 6b 55 8e 3e
       -0.20624118 -0.22250766 -0.3429431 0.27799544
000070 9d b3 b7 3d c2 1c 83 3d 98 b9 70 bc cb 6f cc bd
       0.089698054 0.064019695 -0.0146926865 -0.0998226
000080 cc 20 aa bd 7c a5 07 3d 7d a2 1c 3e 22 6e 8a be
       -0.08307037 0.033116803 0.1529636 -0.2703715
000090 41 2d 7d 3e 3d dc b9 3e d1 d3 eb 3d 13 4e 76 be
       0.24724294 0.3630084 0.1151501 -0.2405322
0000a0 32 b4 8a 3e a9 02 b3 3e 63 85 4c bd c5 0c fc bd
       0.27090603 0.34962967 -0.049931895 -0.12307123
0000b0 5c 40 ad 3e 08 c1 39 bd f6 91 9f 3e e7 ab 3a 3e
       0.33838165 -0.045350105 0.31166047 0.18229638
0000c0 61 01 a8 be b0 6d 84 3d f5 8d 90 be 0c b0 33 be
       -0.32813552 0.06466234 -0.28233305 -0.17547625
0000d0 73 bc cc bd f5 66 ae bc b4 e7 48 bc 0d b3 9d 3e
       -0.09996881 -0.021289328 -0.012262274 0.30800667
0000e0 cc b4 eb 3c a1 ba 94 ba a1 2e 9f be 61 4d de bd
       0.028772734 -0.0011347124 -0.31090263 -0.108546026
0000f0 1e 29 fc bd e2 2e 7a 3e 45 21 a8 bc 1d f6 d0 3d
       -0.1231253 0.24431947 -0.020523677 0.102031924
000100 0f 3b 7d be 2c 61 4d bd 7b 0a f1 3c 28 d3 fb bd
       -0.2472956 -0.0501415 0.029423943 -0.12296134
000110 c7 8c a9 bd 2d 59 4e 3e 85 c9 a7 3e 73 3b 72 3d
       -0.08278804 0.20151205 0.32770935 0.059138726
000120 0c 11 e1 3d a1 3d 1e be 54 92 19 3e 55 90 2a be
       0.109895796 -0.15453197 0.14997226 -0.16656621
000130 ce b2 ac be 9d 14 7d be fa be 9a be 18 ed 7e 3e
       -0.33730167 -0.24714895 -0.3022383 0.24895132
000140 9d 73 8f be 59 81 fe bd 80 fc 10 3e 2d 27 2b be
       -0.28017893 -0.12427015 0.14158821 -0.16714163
000150 85 ed 9a be be d0 d8 bd 54 d6 ba 3e 20 0c 8e bd
       -0.30259338 -0.105866894 0.36491644 -0.069359064
000160 6a b7 01 be 22 ed 8c 3d 0d e9 d7 3d 9b aa 6c be
       -0.12667623 0.06881167 0.10542498 -0.23111956
000170 4a 5b aa bd 94 60 80 3c f2 9a 7e 3e 8d 74 a4 be
       -0.08318193 0.015671052 0.24863794 -0.3212017
000180 3c e7 f4 ba 4a 37 ac 3d 02 4a 95 3e f5 1e b6 be
       -0.0018684636 0.08408983 0.29158026 -0.35570493
000190 4f 2d 87 3e 97 38 7f 3e 5e 2d 2e be 9b 5e aa be
       0.26401755 0.24923931 -0.17009494 -0.33275303
0001a0 52 e5 d1 bd e0 96 01 be ed 43 cc 3d d9 38 61 be
       -0.102488175 -0.1265521 0.09973893 -0.21994342
0001b0 9a 70 88 3e 65 af 1b be ab e8 89 be 0d c2 60 bd
       0.26648408 -0.15203626 -0.26935324 -0.05487256
0001c0 8e cc b5 3e ac d2 98 3e d9 5b 92 be e1 36 87 be
       0.35507625 0.2984823 -0.285857 -0.26409057
0001d0 3a cc 0d bd 03 03 65 3c fb 79 74 3e cc 42 71 3c
       -0.034618594 0.013977769 0.23874657 0.014725398
0001e0 5a f9 92 3e 9e 64 a1 3c f8 46 83 3d 2f 40 8d be
       0.28705865 0.019701298 0.064100206 -0.2758803
0001f0 7f e2 bf be be 63 85 3d b6 c8 bf bd 9d b0 14 3d
       -0.3747749 0.06513165 -0.093644544 0.036301244
000200 f9 8d 5a 3e 94 b5 e8 bd 1a 0c 00 bd 09 53 86 3e
       0.21343221 -0.11362758 -0.03126154 0.26235226
000210 5f a2 af bc 33 0f 08 be 4e 95 98 3d 3a 8d 9e 3d
       -0.02143973 -0.13287048 0.074503526 0.077417806
000220 16 96 b3 3e e3 69 26 bb 69 49 dd 3d 11 84 b0 be
       0.35075444 -0.0025392703 0.108050175 -0.3447576
000230 43 e1 91 3e 4a c0 25 3e 0e a9 af be 86 41 b5 3e
       0.28492174 0.16186634 -0.34308666 0.35401553
000240 71 c3 43 3d f9 fe eb bc 50 b1 43 be
       0.04779381 -0.028808104 -0.19110608

gru_dp_fw.weight_hh_l0 f4 [21, 7]
000000 bb 2a a3 3e 76 d3 76 be 66 b6 8f 3e eb 7d f0 bd
       0.31868538 -0.24104103 0.28068846 -0.11742767
000010 00 16 a8 3e 34 24 80 3d 59 a3 33 be 67 18 42 be
       0.32829285 0.06256905 -0.17542781 -0.18954621
000020 a9 22 15 be 7a 63 25 3d 45 8e c3 3e 15 7e 83 3e
       -0.14564003 0.04037807 0.3819448 0.2568213
000030 49 b6 b7 be 53 16 27 3d 03 b3 b8 3d 08 8e c1 bb
       -0.3588126 0.040792774 0.09018519 -0.005906824
000040 70 b3 f0 bd 91 0b f5 3d 53 33 4c 3e 17 0a 29 3d
       -0.11752975 0.11965097 0.19941454 0.041269388
000050 ad 9f 15 be 05 39 a8 3e cd fb 96 3d 20 a4 3e be
       -0.14611693 0.32856002 0.07372246 -0.18617296
000060 55 ae 71 be f9 a4 4d bd 1f 2d 39 bb 72 46 63 be
       -0.23601659 -0.05020616 -0.0028255654 -0.22194842
000070 cc 70 83 be 7a 66 0e be a4 cf 03 3e 81 24 a5 3e
       -0.25671995 -0.13906279 0.12872177 0.32254413
000080 b2 d9 7f 3e a4 43 62 be 55 94 3c be 0a 3c 94 be
       0.24985388 -0.22096115 -0.18415959 -0.28952056
000090 ea b4 b7 be 22 55 9a be a0 15 3f be 7c 87 98 3d
       -0.35880214 -0.30143076 -0.18660593 0.074477166
0000a0 35 1f 77 bd 5c d5 71 3e 32 d7 5c 3e 30 47 93 3e
       -0.060332496 0.23616546 0.21566465 0.2876525
0000b0 15 95 ef 3d b7 5d d0 bd d8 de 8b be 29 57 9c 3e
       0.11698357 -0.10174125 -0.27318454 0.30535248
0000c0 23 e2 84 be 0f 93 ea bc a1 ec 34 be 1a 37 5d be
       -0.2595378 -0.028634576 -0.17668392 -0.21603051
0000d0 03 39 00 3e 04 37 da bc 6d 0f 72 3d fc 91 c6 3c
       0.12521748 -0.026637562 0.059096742 0.024239533
0000e0 a1 87 b1 3e e1 19 d6 3d d3 6c 3f be 92 2b 3d be
       0.3467379 0.10454155 -0.18693857 -0.18473652
0000f0 90 65 9a bd 47 34 97 3e de 01 22 3d 14 f8 8f 3e
       -0.07538903 0.29532072 0.039552562 0.28118956
000100 0d 83 0c 3e 7e 49 84 be 9b 16 92 be 39 48 9a 3e
       0.13721867 -0.2583732 -0.28532872 0.30133227
000110 d4 cf 34 3e ac 65 4c 3d 0a cc 4d 3d 1d 43 a1 3e
       0.17657405 0.04990165 0.050243415 0.31496516
000120 40 68 a5 be d9 9f 18 3d 6b c3 be 3e b9 28 f2 bc
       -0.323061 0.037261818 0.37258467 -0.029560434
000130 cf 58 89 3e 34 f2 be bd 1f 32 8e 3e 5c 5c 97 3e
       0.26825568 -0.0932354 0.27772614 0.29562652
000140 20 77 70 3e 71 d7 b7 3e e1 b6 32 be 39 db 6e 3e
       0.23482943 0.35906556 -0.17452575 0.23325814
000150 80 be 40 3e eb bb 8b be 16 42 a8 3e 45 28 54 3e
       0.1882267 -0.27291808 0.3286292 0.20718487
000160 c9 f1 8f bb 91 47 88 3e c7 62 0a bd 7a e8 a2 3d
       -0.0043928367 0.266171 -0.033785608 0.07954498
000170 42 b1 d4 3d 1a 2d 59 be 00 f9 22 3e 51 a3 a5 3e
       0.10385372 -0.21208611 0.15915298 0.32351163
000180 e0 8a b4 3e 07 95 b2 3e 89 59 b1 bd d6 ba a7 bd
       0.35262203 0.34879324 -0.086596556 -0.08189933
000190 99 91 87 be 84 a5 18 be aa 88 92 3e ed fe 2e 3e
       -0.2647827 -0.14906889 0.2861989 0.17089434
0001a0 02 9b 25 3d 2b 32 8f 3e 00 79 32 be 9c 0a d5 bd
       0.04043103 0.27967963 -0.1742897 -0.10402414
0001b0 b1 05 72 be 84 41 6d be fe 15 b2 be 5a c8 ba be
       -0.23634984 -0.23169523 -0.34782404 -0.3648098
0001c0 93 c5 94 3e 43 b7 4c 3e 88 b8 0d be 70 df 66 3e
       0.29056987 0.19991784 -0.13839924 0.22546172
0001d0 02 cd dd 3c e7 a7 17 bd cf 03 44 be 02 c0 1c bd
       0.027075294 -0.03702536 -0.19142078 -0.03826905
0001e0 a2 69 9d be 7a 30 91 3e 4e ca 60 bc 1c 78 8e be
       -0.30744654 0.28357297 -0.013720108 -0.2782601
0001f0 e9 2f 99 3d 64 fe 64 3e 2b fc 25 3d 72 5a c4 3d
       0.07479841 0.22362667 0.04052369 0.095875636
000200 7b 34 4b 3e 71 ae 0f 3e 3c c3 96 be e1 c0 d1 3e
       0.19844238 0.14031388 -0.29445827 0.40967467
000210 26 c7 c2 3e 15 0f 6a be 4c 50 f1 bd 4c 0b 94 be
       0.38042563 -0.22857316 -0.117828935 -0.2891487
000220 e6 1d 16 3e 84 84 00 be 88 f4 be be 0b 1e d9 be
       0.14659843 -0.1255055 -0.37295938 -0.42405733
000230 b1 8d 75 be d8 45 58 3e 70 36 d3 bd b1 7a 9f be
       -0.23979832 0.21120393 -0.103131175 -0.31148294
000240 b7 6a a4 3e 9f b2 9f 3e 49 76 77 be
       0.32112667 0.31190965 -0.24166216

gru_dp_fw.bias_ih_l0 f4 [21]
000000 2d 29 6d 3e f3 90 97 3e 9b b9 b3 3e 51 2a f3 bd
       0.23160239 0.29602775 0.35102543 -0.118733056
000010 56 08 77 bd cd 60 02 3d c5 e4 83 3e 95 70 5a 3e
       -0.060310684 0.031830598 0.25760475 0.21332009
000020 11 9a 0f 3d b1 e6 aa 3e 85 e5 c0 be 7d 28 06 bd
       0.03505904 0.3337913 -0.3767511 -0.032753456
000030 f9 a2 c0 bd 44 d0 4d bc 93 68 9f 3e 4c 68 45 3d
       -0.094060846 -0.012561861 0.3113447 0.04819517
000040 aa df 58 be 70 02 a6 3e b7 5b 99 bd 17 f9 09 3e
       -0.21179071 0.32423735 -0.07488196 0.13473926
000050 cf 36 97 3e
       0.29534003

gru_dp_fw.bias_hh_l0 f4 [21]
000000 d5 ed 47 be b2 ea 12 3e f1 e9 ed 3d 50 0a 73 be
       -0.1952432 0.14347342 0.116168864 -0.23734403
000010 94 c0 ad 3e 8a bd c3 bd 02 52 98 be 87 f4 13 bd
       0.33935988 -0.09557636 -0.29750067 -0.03612187
000020 1b 89 14 3e a8 fc 9b be 51 90 9d 3e 41 79 2b be
       0.14505427 -0.304662 0.30774167 -0.16745473
000030 f5 31 21 be 62 fb 2c 3e db ee 39 3e 01 a6 78 be
       -0.15741713 0.1689277 0.18157522 -0.24282075
000040 7b b9 10 3e c1 de 94 be a6 90 a6 3e e4 0a 53 3d
       0.14133255 -0.29076198 0.32532233 0.051524058
000050 7c af 34 be
       -0.17645067

gru_cp_fw.weight_ih_l0 f4 [18, 6]
000000 fd 8b e1 bd c7 66 da 3e 89 cd 17 3e ef 04 d6 bd
       -0.11013029 0.42656538 0.14824499 -0.1045016
000010 2f 5c 79 be 1f b9 80 3d de 25 95 3e eb 23 86 3d
       -0.24351572 0.06285309 0.29130453 0.065498196
000020 e2 9c 1d 3f 1a d6 07 3d 74 d6 13 3f af 42 a5 be
       0.6156751 0.033163168 0.57749104 -0.32277438
000030 61 10 45 be 95 10 74 be 56 72 88 3d 6c ce 59 be
       -0.1924453 -0.2383445 0.06662433 -0.2127015
000040 7b 5d b4 3d 5c 0c fc 3e 3e 50 f0 3d f1 f3 30 3e
       0.088068925 0.4922818 0.11734055 0.17280556
000050 bb ac a6 3e bd 78 79 be 4e bb ae 3d 01 bb ea bd
       0.32553658 -0.24362464 0.08531819 -0.114614494
000060 01 42 9e 3e 89 39 cf be 77 00 9c be 71 5d 80 3e
       0.30909732 -0.40473583 -0.30469105 0.2507129
000070 12 4f 7d be d1 2c 83 3c f4 c2 33 be fb 6b 3d be
       -0.24737194 0.016012581 -0.17554837 -0.18498223
000080 fc 9d 51 be f1 4f c4 bd 3c 6d a6 be ea 3a ab 3e
       -0.20470423 -0.0958556 -0.32505214 0.33443385
000090 a1 cd 61 bc 9b e5 97 bd 51 d3 fe 3e 19 6f da bd
       -0.013781936 -0.07416841 0.49770597 -0.106657214
0000a0 93 bd 89 3e 5b 21 20 3e f7 16 f1 be 2e 83 12 3e
       0.26902446 0.15637724 -0.47087833 0.14307854
0000b0 9c 67 d6 3e 38 1a a3 3d 65 0a 51 3f c1 3e 6e be
       0.41875923 0.07963985 0.81656486 -0.23266126
0000c0 23 76 7c be 34 c7 fd 3e 71 86 2f 3e 97 fd a5 3d
       -0.2465444 0.49566042 0.17141129 0.08105009
0000d0 17 43 65 bd a0 fb d0 3d 3e 2c 06 3f 7b 5a 76 bd
       -0.055972185 0.10204244 0.5241126 -0.060144883
0000e0 8c 7b df 3e 6f ba 1e bf 50 d0 4e be 38 14 a5 be
       0.43648946 -0.62003225 -0.20196652 -0.32241988
0000f0 d3 bc 40 be c3 1d d0 3e 15 61 cc 3e 07 ee 6f be
       -0.1882203 0.40647706 0.39917818 -0.23430644
000100 6f 8f 0b bf ff 37 f0 3e 17 6d 1a bf 9f fb da be
       -0.5451574 0.46917722 -0.6032271 -0.42770097
000110 00 6d f4 bc 0c 35 50 be 2f 21 fe bd 4b 49 92 be
       -0.029837132 -0.20332736 -0.12408673 -0.28571543
000120 de 23 5a be e6 d5 16 be 89 8b f6 3e a5 c6 93 3e
       -0.21302745 -0.14730033 0.48153332 0.2886249
000130 d6 04 18 be 86 d3 72 be 75 ab f6 be 4f 7a 61 3e
       -0.14845595 -0.23713502 -0.48177686 0.22019313
000140 85 c9 01 3f 43 29 b7 3d 75 01 17 3f fb 8e e2 bd
       0.5069812 0.08943417 0.589866 -0.110624276
000150 b1 92 c5 be f5 c9 b8 3e e6 2a ea 3e 0d 6e 8e 3d
       -0.3858848 0.3609158 0.45735854 0.06954584
000160 79 a4 f6 bb de cd 4c be ff 53 17 3f 66 0e c0 3c
       -0.007526931 -0.20000407 0.5911254 0.023444366
000170 46 16 2d 3e ed 97 ef be d5 44 7f bd 8b 97 0c bf
       0.16903028 -0.46795598 -0.062321503 -0.54918736
000180 bc 27 8f 3d 42 97 fb 3d d4 8d d1 3e 68 7c 53 3c
       0.069900006 0.122847095 0.4092852 0.012908079
000190 a1 6e 83 be 69 57 bd bc a5 dd 03 bf ce c6 4f be
       -0.2567034 -0.02311297 -0.5151008 -0.20290682
0001a0 cd bd 9f be 3d af d6 bc f1 84 49 bd c4 ea 54 be
       -0.31199494 -0.026206607 -0.04919905 -0.20792681

gru_cp_fw.weight_hh_l0 f4 [18, 6]
000000 bc 29 08 3e fa 1f a3 be 04 c6 86 be ff 41 98 3e
       0.1329717 -0.31860334 -0.2632295 0.2973785
000010 07 7b 95 bc ee 67 a8 bd 49 f9 ae 3d 4b 31 a8 3e
       -0.01824714 -0.08222948 0.08543641 0.32850108
000020 a9 26 d5 ba 3a d7 bc be c7 63 b3 be c1 59 9b 3e
       -0.0016262132 -0.36882955 -0.35037062 0.30341914
000030 d6 f7 80 3e 14 d1 c7 3e e7 ce ef be a0 d2 f2 be
       0.25189084 0.390267 -0.4683754 -0.4742632
000040 c7 8a 15 be 5e 92 93 3d 68 f2 4f 3e 3e e7 64 be
       -0.1460372 0.07205652 0.20307314 -0.22353837
000050 2d 18 15 be 86 38 0e 3f 4c 15 a7 be 41 3d 27 be
       -0.14560004 0.55555 -0.32633436 -0.1633196
000060 73 62 4a 3b d0 df 61 3e 70 26 ab be 3b 94 ae be
       0.0030881434 0.22058034 -0.33427763 -0.34097466
000070 ce 5c 10 3e cd 31 d2 be c0 32 4b 3c f8 ca 84 be
       0.14097902 -0.4105362 0.012402236 -0.25936103
000080 c1 cd 40 bf 47 63 d3 3e 53 ed cf 3d b6 d3 b6 3e
       -0.75313956 0.4128668 0.10152688 0.35708398
000090 c4 83 1c bf 7e c0 a6 bd 9d a5 d7 3e a9 d1 be 3e
       -0.6113856 -0.08142184 0.4211854 0.37269333
0000a0 d7 89 d0 3e 41 f6 b9 be 5e 5e 33 3e 1e b9 e1 be
       0.40730163 -0.3632069 0.17516467 -0.44086546
0000b0 0c 4f 29 bf 8d 54 0b 3e a0 42 2b be 2b 12 a3 be
       -0.6613624 0.13606472 -0.16724634 -0.318498
0000c0 79 77 96 be cf 67 90 be 78 af 86 be 1e 67 28 3c
       -0.29388025 -0.282042 -0.26305747 0.010278491
0000d0 68 ca 9d be 18 93 cc be a0 09 51 3d 5f 9a 2b ba
       -0.30818486 -0.39955974 0.05103457 -0.00065461354
0000e0 33 3d 4b 3e 9b 6a 26 bf 4f 30 d2 be 49 bf 48 be
       0.19847564 -0.6500642 -0.41052482 -0.1960422
0000f0 10 9f c3 be ce 3e 83 be 03 5e 16 bf 8e 4d fa be
       -0.38207293 -0.25633854 -0.587372 -0.48887295
000100 ff 07 14 bf d8 e7 13 3e 18 22 9d 3e ba 35 28 3c
       -0.578247 0.1444391 0.30690074 0.010266716
000110 7e 3d 6e be 4c 92 d7 bd a8 1d 7a 3e d5 1b fe be
       -0.23265645 -0.10525951 0.24425375 -0.4963061
000120 85 b5 d3 be 15 25 6d bd c7 e5 b1 3e ed e8 02 3f
       -0.41349426 -0.057896692 0.3474562 0.51136667
000130 02 21 dd 3e c1 71 9d be 6e cc 33 be 26 e3 e0 3e
       0.43189245 -0.3075085 -0.17558452 0.439233
000140 53 49 51 be f7 df 9a bc 50 fa ad 3e f7 d5 a1 bd
       -0.20438127 -0.018905623 0.33980036 -0.07902139
000150 1e c0 4a 3c b9 6b 72 3e 1b 13 17 be 53 14 8b 3e
       0.012374906 0.23673905 -0.14753382 0.27163944
000160 e9 e8 ce 3e 11 7f 51 3d 94 37 9f be 33 3f fe 3e
       0.4041207 0.05114657 -0.3109709 0.49657592
000170 a0 c1 89 3e 3c 5e 1c bd 89 4a a2 3e b0 9a dd 3e
       0.26905537 -0.038175806 0.3169749 0.4328208
000180 9d ec fc 3d d6 ce a2 3d b6 86 5c be 48 17 c9 3e
       0.12349818 0.07949607 -0.21535763 0.39275575
000190 43 4d a4 be 8c 0a d1 3d 40 b2 d5 3e 74 87 a4 3e
       -0.32090196 0.1020709 0.41737556 0.32134593
0001a0 29 42 0e 3f aa ad b2 bd 56 5f ec bd fe 20 dc bd
       0.555697 -0.0872453 -0.115416214 -0.1074848

gru_cp_fw.bias_ih_l0 f4 [18]
000000 75 3e 89 be ca 9b 58 3e 37 b7 30 bc 4c 97 37 be
       -0.26805463 0.21153179 -0.010785869 -0.17928809
000010 44 72 72 3e be 74 8d 3e c3 d4 15 be 9a cc bd 3e
       0.23676401 0.2762813 -0.14631943 0.3707016
000020 65 d7 ff 3d fb 74 f6 3e d0 f4 e9 bd 42 2f 19 3e
       0.12492255 0.48136124 -0.114236474 0.14959434
000030 99 39 10 be a5 4c e1 ba b9 d0 01 be 5c 18 c5 bd
       -0.14084472 -0.001718898 -0.12677278 -0.09623787
000040 9c 29 24 be d5 76 d5 3d
       -0.16031498 0.10423056

gru_cp_fw.bias_hh_l0 f4 [18]
000000 17 8d 59 3d 75 fe 9d 3d d6 02 47 3e 2c dd a7 3d
       0.05311307 0.077145495 0.19434676 0.08196482
000010 cb 8c 5c bd 48 e6 d1 3e b8 81 93 be cb a2 bb 3e
       -0.05384521 0.40996003 -0.28809905 0.3664764
000020 7c 5d 60 3e af ef dc 3e de 0d 70 3d af 09 5b 3e
       0.21910661 0.43151614 0.058606975 0.21390413
000030 c0 22 ae 3e c0 11 9d 3e 30 bc cd 3d 6d 96 89 3e
       0.34010887 0.30677605 0.100456595 0.26872578
000040 c5 ad b9 be c4 64 3c bd
       -0.36265388 -0.045994535

gru_dp_bw.weight_ih_l0 f4 [21, 7]
000000 44 e2 9a 3d ff 60 35 3e 76 d4 a6 3e 70 ec c2 be
       0.07562688 0.17712782 0.3258397 -0.38071012
000010 62 b2 ba 3c 65 83 b0 3e d6 5f 03 3e a5 ea ff 3d
       0.022790138 0.34475246 0.12829527 0.12495927
000020 4f a7 1a 3e a7 96 15 be e7 0f a4 be c7 c8 38 3e
       0.15102886 -0.1460825 -0.32043383 0.1804534
000030 87 ee 84 bd d0 1b 5c 3e 30 1d c7 3d 3a 2c d4 3d
       -0.06490808 0.21494985 0.09722364 0.10359998
000040 a2 59 61 bd f6 fc 0c 3e 61 f8 b1 bd 6d 0f d4 bd
       -0.05501712 0.13768372 -0.08689953 -0.10354505
000050 97 6e aa 3e e0 d1 6c 3c 35 36 88 3c a6 23 94 3e
       0.33287498 0.014454335 0.01662741 0.28933448
000060 49 8d 3c bd f4 df a2 3e 8e 9c c6 bd 86 72 46 3d
       -0.046033178 0.31811488 -0.09697829 0.04844906
000070 72 61 9c bd f7 8c 1f be 98 a1 37 be fb 5b 6f be
       -0.07635774 -0.15581118 -0.17932737 -0.23374932
000080 5e 2f b5 3b f0 00 71 3d 08 7d 8b 3e 62 bf 37 bc
       0.0055293282 0.058838785 0.2724383 -0.011215063
000090 df c5 9f 3e ad 22 b6 3e 5d 2b c1 3d f6 06 28 bd
       0.3120565 0.3557333 0.09432099 -0.041022263
0000a0 83 8b 57 3e d7 8c bd 3e c2 3c 9b 3e 48 c5 97 be
       0.21049313 0.37021515 0.30319792 -0.296427
0000b0 60 e8 41 3e ad 2b 63 be d8 0f 82 bc a9 b6 ad 3d
       0.189363 -0.2218463 -0.015876696 0.08482105
0000c0 92 cc 8d 3e 80 5e 7e 3e e2 f8 95 bd fd 9a df 3c
       0.27695137 0.24840736 -0.07322861 0.027295584
0000d0 ff ca 64 3d 7a 08 65 bc 2a 0a 94 be 84 7b 64 39
       0.055857655 -0.013979072 -0.28914005 0.00021789788
0000e0 43 63 a4 bd 74 c3 3e be 77 d2 a3 bc a6 43 1e 3f
       -0.08026745 -0.18629247 -0.019997818 0.61821973
0000f0 6b 3c 97 bc 1e fd eb 3d 7f d9 b6 be b0 50 d9 3d
       -0.018461427 0.11522888 -0.3571281 0.10611093
000100 f9 cd c3 bd e6 61 77 be e0 53 e9 bd 04 02 e3 3e
       -0.095607705 -0.24158439 -0.11392951 0.44337475
000110 f9 51 34 be cc 49 18 3e c3 2d bc be 73 cb 8a 3e
       -0.17609395 0.14871901 -0.36753663 0.27108344
000120 bd 4d 5c bd cf eb 00 be 63 41 1e bf c8 e8 8c be
       -0.053785075 -0.12589954 -0.6181852 -0.27521348
000130 7e ad 77 3e c9 ff a1 be 69 b9 74 3e 63 25 94 3c
       0.24187276 -0.3164046 0.23898853 0.018084234
000140 50 a3 45 be e9 44 58 be f1 20 af 3d a5 fa 86 be
       -0.1930058 -0.21120037 0.08551205 -0.26363102
000150 b0 69 80 3e 23 2a 91 3d ab 3f 6b 3d ab e7 90 be
       0.25080633 0.07088115 0.057433765 -0.2830175
000160 f6 e6 87 3c db ff ab 3b 46 b0 23 3e 42 4c 85 be
       0.016589623 0.005249006 0.15985212 -0.26034743
000170 6d cd b6 3e f0 6c 7d 3e 8c 73 b8 bd 9a 61 7e 3e
       0.35703602 0.24748588 -0.09006414 0.2484192
000180 80 03 c5 be 89 22 02 bd 5d a8 af bd 75 d3 39 3e
       -0.38479233 -0.031771217 -0.085770346 0.1814707
000190 5c 3c 73 3e 0d b0 e4 3d 12 34 1d be a3 37 3b 3e
       0.23753494 0.111663915 -0.15351894 0.18282942
0001a0 8d f8 83 bf 68 91 aa bb 55 08 08 bd 16 6a 4a bd
       -1.0310227 -0.005205322 -0.03321107 -0.049417578
0001b0 97 0a cf 3e 52 c3 15 3e 08 1b c3 3e 1c 2f 70 3f
       0.40437767 0.1462529 0.3810656 0.93821883
0001c0 7b ca 21 be 16 ba 42 3d 43 58 b3 3e b2 f0 22 3e
       -0.15799896 0.047540747 0.35028276 0.1591213
0001d0 19 c6 5d bd 4a 4a af bd de 64 41 bf 49 32 ac be
       -0.054144 -0.085590914 -0.75544536 -0.33632115
0001e0 1b ae 54 3e 17 73 24 3e e7 3a 05 be 60 27 c3 be
       0.20769541 0.16059528 -0.1301075 -0.38115978
0001f0 48 c3 ad be c4 05 de 3e e8 41 ce 3c e3 75 b1 3d
       -0.3393805 0.43363774 0.02517791 0.08665063
000200 99 d0 bb bd b9 9f 5f be 99 fe 37 3d be ca b5 bc
       -0.09170646 -0.21838273 0.044920538 -0.022191402
000210 08 dc d4 3e 38 53 74 3e a0 9a 86 be 40 90 5d 3d
       0.4157412 0.2385987 -0.26289845 0.054092646
000220 21 4b 3c be e3 b6 86 3e f1 10 0d 3e 73 8d 2f 3f
       -0.18388034 0.26311406 0.13775994 0.6857521
000230 fc 9f 5d be 27 6e 60 3e 50 d1 44 3e da 9a 26 3e
       -0.2164306 0.2191702 0.19220471 0.16270009
000240 d1 f8 ea bd b9 5d 86 be b5 6c 9c be
       -0.11473239 -0.2624338 -0.30551687

gru_dp_bw.weight_hh_l0 f4 [21, 7]
000000 7a 57 aa be 9d b3 09 3f 1c d7 b4 be 51 90 8a 3e
       -0.33269864 0.53789693 -0.35320365 0.2706323
000010 0b 77 99 3e ce ad 38 be 6c 93 8a be 44 bc f2 3d
       0.29973635 -0.18035051 -0.270656 0.11852315
000020 7e 3b 42 3f 80 bd 11 3e cd 4e 02 3f 1b 44 09 bc
       0.7587203 0.14232445 0.5090149 -0.008378054
000030 0a b5 a0 3e 75 65 79 be d5 a0 84 3d 13 7d b9 3d
       0.31388122 -0.24355109 0.06475989 0.09057059
000040 48 7a 49 3e f8 06 3d 3e f2 59 13 bd 0e f3 44 3e
       0.19675553 0.1845969 -0.03597445 0.19233343
000050 15 59 c8 3d 1c a7 4c 3e 5f 74 1c be 65 a7 36 be
       0.09782616 0.19985622 -0.15278767 -0.17837293
000060 29 d3 2a be 3d 42 c0 be d8 62 0b 3e ae f4 86 3d
       -0.16682114 -0.37550536 0.13611925 0.06589638
000070 95 29 05 be 3a 17 36 3d aa 0d 8e bd a2 52 b8 3e
       -0.13004144 0.044455744 -0.069362 0.36000544
000080 9b 70 8d 3e d1 b5 d4 3e c4 1c 0f be ac 24 da be
       0.27624974 0.41544965 -0.13975817 -0.42606103
000090 52 c9 88 be f2 cd d6 be 55 79 1c 3e 8e e8 f0 3e
       -0.26716095 -0.41954 0.1528066 0.47052425
0000a0 86 e5 7a be 41 91 77 bd 71 a8 a1 be 7a 6c 6c be
       -0.24501619 -0.06044126 -0.31573823 -0.23088256
0000b0 e9 5a d8 3e c4 38 61 3d 03 de aa 3d 81 92 f9 be
       0.4225686 0.054985777 0.083431266 -0.48744586
0000c0 73 21 29 3c 33 fb 07 bd 48 b4 a1 be 27 ef c6 3d
       0.010322916 -0.033198547 -0.31582856 0.097135834
0000d0 f6 36 0c be aa 7e 8d be 6a a2 ce be 7b a8 a5 bb
       -0.13692841 -0.276357 -0.40358287 -0.005055485
0000e0 ba 17 27 bf 20 54 0a bf 47 e0 52 be be 91 e3 3e
       -0.6527058 -0.54034615 -0.20593368 0.4444713
0000f0 aa cd 45 3d 9c da 27 be bb 6f b5 3d a3 ef 7f 3e
       0.04829184 -0.16391987 0.088592015 0.24993758
000100 06 a9 1d 3d 0a 2b cb 3e 5a ce b1 3e b5 08 64 3d
       0.03849127 0.39681274 0.34727746 0.055672366
000110 a6 ae f6 bc 9c 88 cb 3e 9c f1 74 be 8d 3c 05 3d
       -0.030112576 0.39752662 -0.23920292 0.03252845
000120 4c 86 9a bd 31 a0 a9 be 70 fc 30 bc a1 9d 73 be
       -0.07545146 -0.3313003 -0.010802373 -0.237906
000130 5f d4 1b bf fe be 9d 3d 08 a4 f8 bd b1 36 7a bd
       -0.6087093 0.077024445 -0.121406615 -0.061087314
000140 48 86 ff bd 35 ca 75 3e c3 2a 21 3e c5 14 6f be
       -0.12476784 0.24002917 0.15738969 -0.23347767
000150 a4 95 55 3e 96 9a 8a bc 2c 7d 0a 3e 3b b5 0b 3d
       0.20857865 -0.016919415 0.13524312 0.03410838
000160 d1 9c ab be 61 2d d2 be d0 fd 04 3f 13 79 69 be
       -0.3351808 -0.41050246 0.5194979 -0.22800092
000170 64 ec 6c 3e f6 de bf bc 1b 80 00 bf b8 05 af 3e
       0.23137051 -0.023421746 -0.50195473 0.3418405
000180 5d 51 a4 be 99 c6 95 be d1 c0 e8 bd 90 a8 64 bf
       -0.32093325 -0.2925308 -0.11364902 -0.89319706
000190 15 9c 81 3e 65 cc ac be fe 0a c9 be c6 72 a2 be
       0.25314394 -0.3374969 -0.392662 -0.3172819
0001a0 d6 26 83 3e fe 3a 1a be 9f fe 9d 3e 0a c7 af be
       0.25615567 -0.15061566 0.30858323 -0.34331542
0001b0 88 bc 26 3f ad a1 e9 3e 56 57 6c 3e 34 14 c1 be
       0.65131426 0.4563116 0.23080191 -0.37710726
0001c0 72 fe c2 3d 06 46 0b bf 52 c0 11 3f e9 c3 e2 bd
       0.09521188 -0.5440372 0.5693408 -0.11072523
0001d0 95 be 2b bf bf b1 10 bf 78 c2 ec 3e a1 06 e2 be
       -0.6708768 -0.5652122 0.46242118 -0.44145682
0001e0 3f a2 cc bd dc 6d b9 3e 93 03 6f 3f 1e f1 b9 be
       -0.099918835 0.3621663 0.9336483 -0.3631677
0001f0 ff 7c 0a be 8f 9b 9e 3e 1f 96 f0 be 4a be 3b 3f
       -0.13524245 0.30978057 -0.46989533 0.73337233
000200 59 60 c1 be 13 70 6f 3d 2c 41 1a 3d 33 57 26 3f
       -0.3776882 0.05845649 0.03765981 0.64976805
000210 6e f3 30 bd d0 39 8f be f1 68 12 3f d2 42 93 be
       -0.043200903 -0.27973795 0.5719138 -0.28761917
000220 c0 ae 41 3e 7f 14 26 3b 62 18 02 3f 45 19 e4 3e
       0.18914318 0.0025341806 0.50818455 0.4455053
000230 62 bb 6a 3e 2f 8f 40 bf 59 20 8d 3e 3b 31 ce 3e
       0.22923043 -0.7521848 0.27563742 0.40271935
000240 54 c1 05 bf a3 91 25 bf 83 bf 3b 3e
       -0.5224812 -0.6467535 0.18334775

gru_dp_bw.bias_ih_l0 f4 [21]
000000 db 95 0d 3e 1a 91 c6 3c 53 b7 e6 3e 9e 9a a4 3e
       0.13826697 0.024239112 0.4506174 0.32149214
000010 52 92 35 3f 70 cc a7 3e 07 cf b9 3e 22 1e 76 3e
       0.7092639 0.3277316 0.36290762 0.24034932
000020 9a 61 12 3f b6 de 1d be 81 fb c9 3e f2 33 c1 3d
       0.5718018 -0.15416989 0.39449695 0.09433736
000030 c2 c9 9e 3e 4e f9 85 bd bd c7 69 be bb 5f 12 be
       0.31013304 -0.06541692 -0.228301 -0.14294331
000040 21 18 0e be b3 c1 a5 3e 26 cd d4 be d6 af 09 be
       -0.13876392 0.32374343 -0.41562766 -0.13445982
000050 7d 97 52 be
       -0.205656

gru_dp_bw.bias_hh_l0 f4 [21]
000000 9e d4 33 3e 53 60 cc 3e f7 c9 91 3c 87 29 10 3f
       0.17561576 0.3991724 0.0177965 0.56313366
000010 0b 26 28 3f df 1f d1 3e de d1 18 3f 80 a1 a3 3e
       0.6568305 0.40844628 0.5969523 0.31959152
000020 5f 81 b6 3e 4c 76 14 be 6b 4d 1d 3f 73 fd fa 3e
       0.35645577 -0.14498252 0.61446255 0.4902149
000030 6c 8f 04 3e 92 13 30 3d 1d 86 90 be bd 11 5d 3e
       0.12945336 0.042987414 -0.2822732 0.21588798
000040 32 2f f8 3c 59 bb 85 3e 9a 3b 0a be 4a c5 93 bd
       0.030295942 0.26119497 -0.13499299 -0.07215364
000050 37 02 55 3e
       0.20801626

gru_cp_bw.weight_ih_l0 f4 [18, 6]
000000 0e ff a0 3c 86 ad c5 bd 49 4a 4b be bc e1 87 3d
       0.01965287 -0.096522376 -0.19852556 0.06634852
000010 65 d1 c9 bd 49 ca 67 bd 38 e5 e4 bd d0 ad d5 be
       -0.09854392 -0.0565894 -0.111765325 -0.4173417
000020 36 26 a7 bd 2a 89 dc 3e 51 52 9f bd a9 aa a6 3d
       -0.08161585 0.43073398 -0.077793725 0.081380196
000030 4a 8c 3f 3e 6d 86 db 3d 22 76 27 3e be 5d 21 3e
       0.1870586 0.10718999 0.16353658 0.15758416
000040 d8 2d a0 bc ea 8d 10 be 81 73 92 3d 50 54 99 3c
       -0.01955311 -0.14116636 0.07150937 0.018716961
000050 4d 76 82 3e 1b 75 cb be 8a 26 9e be fe 3b 38 be
       0.2548088 -0.39737782 -0.30888778 -0.17991635
000060 60 de 10 3e 08 26 bc 3e 39 d0 bb be 18 f2 8a bd
       0.1414733 0.36747766 -0.366823 -0.06784457
000070 67 9e cd be e2 a8 86 be ae d6 cc bd 32 92 0d 3f
       -0.40159914 -0.26300722 -0.100018844 0.553012
000080 c4 e1 92 3c a4 ed 9c be 12 6d 99 3d 73 26 e9 3d
       0.017929919 -0.30650055 0.07491507 0.11384287
000090 e7 96 3f 3d 06 2c 2a 3e 98 71 41 bd 00 4e 6a 3e
       0.04677477 0.16618356 -0.047227472 0.22881317
0000a0 ef 32 79 be 88 19 9e be 02 5c 8e 3e 29 4a e3 bd
       -0.24335836 -0.30878854 0.2780457 -0.11098129
0000b0 bb 7c 23 be 0c 39 8a bd 33 a9 3d bf 0f 86 57 be
       -0.1596555 -0.06749162 -0.740863 -0.21047233
0000c0 d8 1d b9 3d b5 dc 65 be 5d da 34 3e 25 a8 a8 3e
       0.09038895 -0.22447474 0.17661424 0.32940784
0000d0 ed c9 10 bf 22 c4 68 bc b3 b4 2b 3e 3a 79 8f be
       -0.56558114 -0.014206918 0.1676815 -0.28022176
0000e0 2d ed 99 3e f3 48 3f 3e 45 ef 26 3e 5b 47 ad be
       0.30063763 0.18680172 0.16302212 -0.33843502
0000f0 1b d3 4b 3e 4b 22 fa be 35 8a 62 be f5 1e ba bd
       0.19904749 -0.48854288 -0.22123034 -0.09087936
000100 f8 1e 2e 3e 6e a5 1c 3e 6b 9b 87 be 6f 9b f5 bd
       0.17004001 0.15297481 -0.26485762 -0.11992537
000110 18 f0 22 3d 60 99 0e 3d ce 43 d5 be c1 19 30 bd
       0.039779752 0.03481424 -0.41653293 -0.04299331
000120 8b bd 95 3d 46 76 3d be 35 e4 a3 3d e9 55 8b bd
       0.07311543 -0.18502149 0.080025114 -0.068034954
000130 ce cc 78 3e 42 ab 41 be 97 4d 85 be eb 6a 04 3f
       0.24296877 -0.18912986 -0.2603576 0.51725644
000140 2e 26 10 3f 51 0f bf 3e c8 d6 d8 bd 42 e7 12 be
       0.5630826 0.37316373 -0.10587841 -0.1434603
000150 28 ef 6f be 90 fd 9e be 8b 11 1d be 3d 3d 96 3e
       -0.23431075 -0.31052828 -0.15338723 0.29343596
000160 20 ba 6e be ce 33 11 be c8 97 7a 3e 72 24 3e 3e
       -0.23313189 -0.14179918 0.24471962 0.1856859
000170 b0 0d 78 be 80 8e 4f be 69 a6 aa be e9 4f 0d 3e
       -0.24223971 -0.20269203 -0.33330086 0.13800015
000180 1a ca 5c be 8a 9c 8c 3d 70 4a c7 bb a3 a2 57 3e
       -0.2156147 0.06865795 -0.0060818717 0.21058135
000190 17 d9 2b be e4 7f e6 3d 22 77 9b 3e 69 71 09 bf
       -0.16782032 0.11254862 0.3036433 -0.53688675
0001a0 d4 a3 80 3e 1e f7 c5 be eb bd b8 3e 48 ce 69 be
       0.2512499 -0.38665098 0.36082396 -0.22832596

gru_cp_bw.weight_hh_l0 f4 [18, 6]
000000 18 78 ed be 37 23 29 be 16 52 de 3d c8 18 0d bf
       -0.46380687 -0.1651734 0.108555004 -0.5511594
000010 e5 e2 75 3d f5 e0 93 bd 74 64 64 bd 68 b0 35 be
       0.060030837 -0.072206415 -0.055759862 -0.17743075
000020 ff 4f 38 bd ec 69 a8 3d d5 92 ff be 0d 27 69 be
       -0.044998165 0.08223328 -0.4991671 -0.22768803
000030 b1 86 95 bd 92 25 64 be b8 5a a8 3e b4 cb e0 3c
       -0.07301081 -0.22279957 0.32881713 0.027440883
000040 d6 c1 d3 3a ff c9 3c be 2d 51 44 be 1f 6e 92 3d
       0.001615579 -0.1843643 -0.19171591 0.0714991
000050 36 7c c3 3e 13 26 0f bc 94 c6 86 be f3 60 f2 3c
       0.38180703 -0.008737105 -0.26323378 0.029587245
000060 f3 19 87 be 42 5d 5d bc 20 48 07 3d cd a7 a0 bd
       -0.26386985 -0.013511004 0.033027768 -0.078445055
000070 7c 5e 81 be d3 49 8f 3e 68 c3 61 3d d2 f0 87 be
       -0.25267398 0.2798601 0.055117995 -0.2655092
000080 bb f6 dc 3e 76 3c 71 be 4d f9 d3 bd 86 a5 df bd
       0.4315699 -0.2355822 -0.10350285 -0.10920243
000090 f6 cb 00 3f 70 fe 1f bf 48 d1 da bb ab b5 26 3e
       0.5031122 -0.62497616 -0.0066777803 0.16280238
0000a0 e6 c0 87 be 74 3f 23 3e 44 ab 30 3d 79 82 af be
       -0.26514357 0.15942174 0.04313208 -0.3427923
0000b0 77 a9 c4 3d 7b 92 23 be f8 c6 73 be a5 b4 25 be
       0.09602635 -0.15973847 -0.2380637 -0.16182192
0000c0 58 bf 73 3e c2 8f 01 bf d8 31 f2 bd bb 73 85 3e
       0.2380346 -0.5060998 -0.11825913 0.26064858
0000d0 2b 3b 5a bd 0f 3e 07 3f 36 d0 6c be 03 bb 75 be
       -0.053279083 0.5282907 -0.23126301 -0.2399712
0000e0 40 cf e2 bd ad f7 7a be a2 42 9e 3e 51 c4 18 3e
       -0.11074686 -0.24508543 0.30910212 0.14918639
0000f0 eb 93 6a 3e cc 8b 43 3d a0 de 87 3e 1e f9 c7 3e
       0.22907989 0.047740743 0.26537037 0.3905725
000100 c6 28 a9 bd 6f 9e c8 3c ca 0d 02 3f b7 d8 d3 bd
       -0.0825973 0.02448961 0.5080229 -0.103440695
000110 d7 48 54 be 23 b2 97 3e d6 a4 e8 be b3 bf 92 3e
       -0.20730911 0.29628095 -0.4543826 0.2866188
000120 fa aa 3d 3e 5f 02 27 bf 06 f9 8a 3c 90 f0 d7 3e
       0.18522254 -0.65237993 0.016964447 0.42175722
000130 ab e6 91 3e 06 24 ec 3e f1 2a fa be e2 9f 99 3b
       0.28496298 0.46121234 -0.48860887 0.004688249
000140 12 94 01 3f a3 b8 0c bc 8c b0 7e be ce 34 77 be
       0.5061656 -0.008588943 -0.24872035 -0.24141237
000150 aa 5c d3 be db 5b 3d 3f 76 79 13 3d 6a 0c db be
       -0.41281635 0.73968285 0.036004506 -0.4278291
000160 20 b9 40 bd 35 02 a7 be 4a 9c a8 3e 59 cf a4 be
       -0.04705155 -0.3261887 0.3293174 -0.32189444
000170 f4 57 7c be 35 e1 83 3e a8 f4 ad 3e 1e 66 23 3f
       -0.24642926 0.25757757 0.3397572 0.63827693
000180 25 19 9f 3e 3e de 2e bf 76 25 99 3d d3 ef cb 3b
       0.3107387 -0.68307865 0.07477848 0.0062236576
000190 89 c0 f8 bd dd 2a 5e 3e 58 34 d4 3d 24 ab f6 bd
       -0.12146098 0.21696039 0.10361546 -0.12044361
0001a0 80 85 62 be c5 75 a9 bd 9a eb db bd ec 9a 97 3e
       -0.22121239 -0.08274416 -0.10738297 0.29610384

gru_cp_bw.bias_ih_l0 f4 [18]
000000 a0 92 f5 3d 63 63 65 be 7f a2 27 3f 4d 25 23 3f
       0.11990857 -0.22401194 0.65482324 0.6372879
000010 7f f5 c3 bd fb 4d ab 3d 6d a6 2e 3e 98 d0 f9 3e
       -0.09568309 0.08364483 0.17055674 0.48791957
000020 a4 7b 8a be 3a 8a d5 be fd 5d 77 3e 32 28 d4 3d
       -0.27047455 -0.4170702 0.24156947 0.10359229
000030 66 de a2 bd f4 09 3d 3e 9a ac d5 3e ac 0c 24 be
       -0.079525754 0.18460828 0.41733247 -0.16020459
000040 46 f2 d6 be a6 64 01 bf
       -0.41981715 -0.505442

gru_cp_bw.bias_hh_l0 f4 [18]
000000 0a 91 20 3f 05 f7 b2 3d 29 93 ac 3e 0d c1 95 3d
       0.6272131 0.087385215 0.33706024 0.07312212
000010 6a b6 e8 bc 70 06 93 be c9 23 9f bc 21 0d 36 be
       -0.028407294 -0.2871585 -0.019426243 -0.17778446
000020 29 ed 37 be e0 ed bb be 35 1d 57 be 03 cd 11 3f
       -0.17961563 -0.36704922 -0.21007235 0.5695345
000030 10 b2 ff bd 41 d7 ae be 93 bc ee 3d ce 2f 90 be
       -0.124851346 -0.341486 0.116570614 -0.28161472
000040 a8 7e da 3d c0 ae 88 bd
       0.10668689 -0.06673956

fc_dp.weight f4 [1, 14]
000000 6d 34 92 3d ad 3f b3 bd 02 50 38 bd 8b 17 8c 3e
       0.07138906 -0.087523796 -0.044998176 0.27361712
000010 c6 61 1d 3e bd ef e2 bd e4 ec 71 3e 73 1c db be
       0.15369329 -0.11080883 0.23625523 -0.42795143
000020 74 2b aa 3e 50 5c a0 be 0a db 9c be 6f d7 b7 3e
       0.33236277 -0.3132043 -0.30635864 0.3590655
000030 a7 79 f5 3d 6e e8 a6 be
       0.11986094 -0.32599205

fc_cp.weight f4 [1, 12]
000000 a6 64 4a be b9 04 8f be bb 56 2d be 90 46 7b be
       -0.19764957 -0.2793329 -0.16927616 -0.24538636
000010 49 d1 4a be 8e 72 9e be 98 72 a3 be 31 66 3a 3e
       -0.19806398 -0.30946773 -0.31923366 0.18203045
000020 db 25 67 3e 12 57 b5 be e9 25 0d be 15 24 2d be
       0.22573034 -0.35417992 -0.13783993 -0.16908295

fc_all.weight f4 [1, 25]
000000 5f 36 24 3c ae aa 4b 3c 02 bb da 3d 81 11 c6 39
       0.010022729 0.01243083 0.106802 0.00037778544
000010 d9 e4 4c 3c 83 29 00 be c2 7d 67 bc 89 f9 8e 3e
       0.012505733 -0.12515835 -0.014129104 0.27924755
000020 53 30 7d bd 21 ef 97 3d db 8c 28 3e 08 0c 3e be
       -0.061813664 0.07418657 0.16459982 -0.18559277
000030 1f d5 31 bc 83 75 e7 bd 0c 53 e3 be 35 00 9d bd
       -0.010854035 -0.113017105 -0.44399297 -0.07666055
000040 58 88 00 3c 2a f6 36 bc 97 39 53 bd 45 2b 5a 3d
       0.007845007 -0.0111670885 -0.051568594 0.05326392
000050 39 0e 8c bd 9b ab 61 bd bf a8 f1 bd 74 58 8a be
       -0.0683865 -0.055095296 -0.11799764 -0.2702061
000060 6e 2c 3a 3e
       0.18181011
