ablation1_min_count/min_count_250/birnn_ode_decay/final_model.pt (torch, 55713 bytes, 49 tensors)

embed_dp.weight f4 [707, 7]
0	0x00000000	0.0
1	0x00000000	0.0
2	0x00000000	0.0
3	0x00000000	0.0
4	0x00000000	0.0
5	0x00000000	0.0
6	0x00000000	0.0
7	0xbfc6eb42	-1.5540545
8	0x3f59e60d	0.85116655
9	0x3f9e1d3f	1.2352675
10	0x3f53601d	0.8256853
11	0xbfb5f1d1	-1.4214422
12	0x3f9c70fa	1.2221978
13	0x3fcc6646	1.5968711
14	0x3f427286	0.75956
15	0xbe1cfad7	-0.15330063
16	0xbfd612b9	-1.6724464
17	0x3f10e597	0.56600326
18	0x3f79dcd9	0.9760261
19	0x36dcf8c9	6.5854733e-06
20	0x3f457a59	0.7713981
21	0xbe9f8715	-0.31157747
22	0x3f88fbac	1.0701804
23	0xbee0260c	-0.43779027
24	0xbf99402a	-1.1972706
25	0xbe80823e	-0.25099367
26	0x3fb38bba	1.4027016
27	0xbf7e95cf	-0.9944734
28	0xbf747521	-0.95491225
29	0x3e0449fc	0.12918848
30	0xbecf8bd2	-0.40536362
31	0x3e57334c	0.21015662
32	0xbf4a9e39	-0.7914768
33	0x3fac1e85	1.3446814
34	0x3ef32121	0.47486213
35	0xbeff592b	-0.49872717
36	0x3f94ce83	1.1625522
37	0xbf22feb5	-0.636699
38	0xbe298cb8	-0.16557586
39	0x3ea7dc88	0.3278544
40	0xbf9943f0	-1.1973858
41	0x3e78dcc6	0.24302968
42	0x3f3f8bb9	0.74822575
43	0x3f55f26c	0.8357303
44	0x3fa38dfa	1.2777703
45	0x3fbab28d	1.4585739
46	0xbf125594	-0.5716183
47	0x3f32feba	0.6991993
48	0x40037fd5	2.0546772
49	0xbf68824e	-0.9082383
50	0xbef6825a	-0.48146325
51	0xbf60fd92	-0.8788692
52	0xbf8e1a1f	-1.1101722
53	0xbf690958	-0.9102988
54	0x3e348ef3	0.17632656
55	0xbf1638b5	-0.5868028
56	0xc0113629	-2.2689307
57	0xbf688766	-0.908316
58	0x3f06e986	0.5270008
59	0x3f67b7d8	0.905149
60	0x3f086240	0.5327492
61	0xbf3a028e	-0.7266015
62	0xbf882610	-1.0636616
63	0xbf135423	-0.5755026
64	0x3f7a77cf	0.97839063
65	0x3f12e98d	0.5738762
66	0xbf4a497f	-0.79018396
67	0xbf06ce68	-0.526587
68	0xbdd45722	-0.10368182
69	0xbfe5c9f8	-1.7952261
70	0x4035d266	2.8409667
71	0xc0387d90	-2.8826637
72	0x3f4edc9a	0.8080536
73	0x3f1658dc	0.5872934
74	0x3e847263	0.2586852
75	0xbfe05bbd	-1.7527996
76	0x3e5bf3eb	0.21479766
77	0x3f1fccd2	0.62421906
78	0x3f87833d	1.0586926
79	0xbdb36b82	-0.0876074
80	0x3fa51c0f	1.2899188
81	0x3e2b8b04	0.16752249
82	0xbfa0d0c1	-1.2563707
83	0x3f2ee2ce	0.68314826
84	0x3bff99c3	0.0078003122
85	0xbe9299e5	-0.28633037
86	0xbf13685e	-0.57581127
87	0x3f3aa213	0.72903556
88	0xbf8990fc	-1.0747371
89	0xc008b456	-2.1360068
90	0xbf2c95db	-0.6741616
91	0xbfc95b07	-1.5730904
92	0x3fa359dd	1.2761799
93	0x3e87bc3d	0.26510802
94	0x3e27e6ba	0.16396609
95	0x3eb56d4e	0.35434955
96	0xbd102167	-0.035188105
97	0x3f927781	1.144272
98	0x3eaf26e1	0.3420935
99	0xbfa3530f	-1.2759722
100	0x3f4f9408	0.8108525
101	0x3ec87f6f	0.39159724
102	0xbc866ca2	-0.016409222
103	0xbd3adf50	-0.045623124
104	0x3e8f7f9e	0.28027052
105	0x3f91b782	1.1384127
106	0x3fa66fbd	1.300285
107	0xbb67c03d	-0.0035362386
108	0xbda1ce3f	-0.079006664
109	0xbe5f3bd3	-0.21800165
110	0xbf4a7891	-0.7909022
111	0x3fb78270	1.4336681
112	0xbf3afee6	-0.73045194
113	0x3f30a0ea	0.68995535
114	0x3faf786c	1.3708625
115	0xbe937194	-0.2879759
116	0x3f28e0a5	0.6596778
117	0xbf594b86	-0.84880865
118	0xbfb562b9	-1.4170753
119	0x3f220aa0	0.6329746
120	0xbf6c0f7f	-0.92211145
121	0x3eeeac9f	0.46616074
122	0x3f8cab1a	1.0989716
123	0xbeace756	-0.33770245
124	0x3f05f1ec	0.5232227
125	0xbf9439e1	-1.1580163
126	0x3fde3ca7	1.736226
127	0xbe03c588	-0.12868321
128	0x3f7a98f9	0.9788967
129	0x3f3244db	0.69636315
130	0x3f4e3d6b	0.80562466
131	0xbe98557b	-0.29752716
132	0xbfad5096	-1.3540218
133	0x3c2edaf9	0.010672324
134	0x3e93b3fd	0.28848258
135	0xbfc2ab3f	-1.520851
136	0x3f016bba	0.50555
137	0x3dfbc666	0.12293701
138	0xbf5ff2a3	-0.8747961
139	0xbd4799a6	-0.048730515
140	0xbf4b6b95	-0.7946103
141	0x3f90b706	1.1305854
142	0x3e9516f6	0.2911908
143	0xbf9a34cf	-1.2047366
144	0xbf94f2c8	-1.1636591
145	0x3f4a9d21	0.7914601
146	0xbf7a37f2	-0.97741616
147	0x3d63c141	0.055604223
148	0x3ee8efce	0.45495456
149	0x3fcf5ef1	1.6200849
150	0x3e97ed56	0.2967326
151	0x3f898163	1.0742611
152	0xbf094646	-0.53622854
153	0x3d511171	0.051042024
154	0x3f578cd1	0.84199244
155	0x3e1b755d	0.1518149
156	0x4006fc48	2.109148
157	0xbfb7f6fa	-1.4372246
158	0xbecddac8	-0.4020598
159	0x3faede54	1.3661599
160	0xbdef512e	-0.11685406
161	0xbef9014b	-0.486338
162	0x3fa93314	1.3218713
163	0x3fe24bd5	1.7679392
164	0x3f00886d	0.5020817
165	0x4076a77f	3.8539732
166	0xbf0d5f82	-0.5522386
167	0x3fcd66dd	1.6047016
168	0x3f2d4cb0	0.6769514
169	0x3f134022	0.57519734
170	0xbee5f8a4	-0.4491626
171	0xbe9ba976	-0.30402726
172	0xbf8df2cc	-1.1089721
173	0x3f64104b	0.8908736
174	0xbe2be6d7	-0.16787277
175	0xbed2a65a	-0.4114254
176	0x3c3f4faa	0.011676708
177	0xbe16f7fc	-0.14743036
178	0x3f3c116e	0.73464096
179	0x3e93c603	0.28862008
180	0xbe817d3b	-0.25290856
181	0x3fbfa1d4	1.4971261
182	0xbf20a0aa	-0.62745154
183	0x3f7feea8	0.99973536
184	0xbf91a072	-1.1377089
185	0xbfd4786b	-1.6599249
186	0x3f2d4155	0.67677814
187	0x3f341ce1	0.70356566
188	0x3f82fba6	1.0233047
189	0x3fcf92b5	1.6216646
190	0x3f959d8c	1.1688704
191	0xbe9e1799	-0.3087738
192	0x3f4cd1d1	0.80007654
193	0xbf788f7b	-0.97093934
194	0x3f8b11be	1.086479
195	0x3dd9bed3	0.106321
196	0xbf8a1c69	-1.078992
197	0xbe96c1db	-0.29444775
198	0x3f9c33e0	1.2203331
199	0xbf624203	-0.88381976
200	0x3d9a3201	0.07529069
201	0xbe744f5b	-0.23858397
202	0x3f54b483	0.8308794
203	0x3e0dc70c	0.13845462
204	0x3f7b5f24	0.9819205
205	0xbf29f182	-0.66384137
206	0xbfe0cdf7	-1.7562855
207	0x3e83e920	0.25763798
208	0xbf073aca	-0.5282408
209	0x3eb1f636	0.34758157
210	0xbd0a6350	-0.033786118
211	0x3f83cca7	1.029683
212	0xc0188e07	-2.3836687
213	0x3f7eb278	0.9949107
214	0x3f5cd546	0.8626293
215	0x3e1ce3cb	0.15321271
216	0xbf92e420	-1.1475868
217	0x3f1f392d	0.6219662
218	0xbe8a4848	-0.2700827
219	0x3e878244	0.26466572
220	0xbf7bb7c1	-0.9832726
221	0x3f599477	0.84992164
222	0x3f73fd3a	0.9530827
223	0x3fed23eb	1.8526586
224	0x3e91b5ec	0.28459108
225	0x3ffe5cc8	1.9872065
226	0x3f7c8fc3	0.9865686
227	0xbfabf249	-1.3433315
228	0x3f910d2f	1.1332148
229	0x3f3cc6e7	0.73741
230	0xbe94a555	-0.29032388
231	0xbe098f05	-0.13433464
232	0xbfcba36c	-1.5909247
233	0xbf33caf6	-0.7023157
234	0xbf1ec903	-0.6202547
235	0xbf52e845	-0.82385665
236	0x3f4670b0	0.775157
237	0x3e5d6bf5	0.21623214
238	0xbfbb26bc	-1.4621196
239	0x402513a7	2.5793245
240	0xbc8ad446	-0.016946923
241	0x401ff875	2.4995396
242	0xbf3f907d	-0.74829847
243	0xbf8be53f	-1.0929335
244	0xbdf9e6e8	-0.12202245
245	0xbdf159e9	-0.11784727
246	0xbe650140	-0.22363758
247	0xbff18645	-1.8869101
248	0xbbb3936e	-0.0054802215
249	0xbfae87fd	-1.363525
250	0xbffdd472	-1.9830458
251	0xbda21f46	-0.07916121
252	0xbd156b1c	-0.0364791
253	0xbee79dbd	-0.45237532
254	0xbf322303	-0.69584674
255	0xbfb2e394	-1.3975701

embed_cp.weight f4 [457, 6]
0	0x00000000	0.0
1	0x00000000	0.0
2	0x00000000	0.0
3	0x00000000	0.0
4	0x00000000	0.0
5	0x00000000	0.0
6	0xbf387ce9	-0.720656
7	0x3f87c81d	1.0607945
8	0x3ff110bd	1.8833233
9	0x3adb5d47	0.0016736173
10	0xbf967160	-1.1753349
11	0x3f619467	0.8811707
12	0x4001973b	2.0248554
13	0xbfd13b7d	-1.6346279
14	0xbf4f61d7	-0.81008667
15	0x3e3671fa	0.17816916
16	0x3f00e7d2	0.5035373
17	0x3e4bcaf2	0.19901636
18	0xc02ca97f	-2.6978452
19	0x3f71f62c	0.94516253
20	0x3fdaf9fd	1.710754
21	0xbf20db75	-0.62834865
22	0xbf48ccec	-0.78437686
23	0xbe49b1c0	-0.19696712
24	0x400023a1	2.0021746
25	0x3f26ae95	0.6511014
26	0x3f132ee6	0.57493436
27	0xbfad0c2b	-1.3519338
28	0xbfaa7a4c	-1.3318572
29	0xc014331a	-2.315619
30	0xbf1abcf6	-0.6044458
31	0xbf30f2a0	-0.69120216
32	0xbf3310a3	-0.6994726
33	0x3f8a0e11	1.0785543
34	0x3e726283	0.23670392
35	0xbeb99f7e	-0.36254495
36	0xbf8348ca	-1.0256588
37	0x3fa9673b	1.3234628
38	0xbe830f38	-0.25597548
39	0xbf10e839	-0.56604344
40	0xbf2677c4	-0.650265
41	0xbf6af20d	-0.9177559
42	0xbd5e78bf	-0.05431437
43	0x40433943	3.05037
44	0xbe8fed1e	-0.28110594
45	0xc00c9c03	-2.1970222
46	0x3f136ae0	0.57584953
47	0x3fb5cf2f	1.4203852
48	0xbda30a0e	-0.07960902
49	0x3feca49b	1.8487734
50	0x3f0e6d6d	0.5563572
51	0xbff4c8db	-1.9123796
52	0xbf1d17a7	-0.61364216
53	0xbfb8af97	-1.4428586
54	0x3ed788b4	0.42096484
55	0x3e00acaa	0.12565866
56	0xbf40a56c	-0.75252414
57	0x3e677e24	0.22606713
58	0xbbf323a5	-0.0074200206
59	0xbfc8c1ca	-1.568414
60	0x3e47ecd4	0.19523937
61	0x3fbe498e	1.4866197
62	0x3fa187a3	1.2619518
63	0xbeaaf93f	-0.33393285
64	0x3e23bcf9	0.15990056
65	0x3fb89316	1.4419887
66	0xbf6655d2	-0.899747
67	0x3f89ab62	1.0755427
68	0xbfc52d25	-1.5404402
69	0x3fad318f	1.3530749
70	0x3f846f6d	1.0346504
71	0xbfbb7635	-1.4645449
72	0x3dda4171	0.10657013
73	0xbe99495d	-0.29938784
74	0xbdecf491	-0.11570085
75	0xbfb72003	-1.4306644
76	0x3f31db2f	0.6947507
77	0xbf07eb1b	-0.5309312
78	0xbf848807	-1.0354012
79	0x3f22fc22	0.63665974
80	0x3f0f883d	0.5606726
81	0xbf1af0a5	-0.60523444
82	0x3f3a7900	0.7284088
83	0x3f971e55	1.1806132
84	0xbf651388	-0.8948293
85	0xbf0a70de	-0.5407847
86	0xbff03e98	-1.8769102
87	0x3f5b75b9	0.85726506
88	0x3f3626fc	0.71153235
89	0xbe85f9bc	-0.26167095
90	0xbfd003df	-1.6251181
91	0x3df87c72	0.12133111
92	0xbe0bd25e	-0.13654467
93	0xbe0773a1	-0.13227703
94	0x3f428528	0.7598443
95	0xbee521d9	-0.44752386
96	0xbfc8d816	-1.5690944
97	0x3fbe351e	1.485996
98	0x3f085fb2	0.5327102
99	0x3f9a04f4	1.2032762
100	0x3f6a7ad2	0.9159366
101	0x3fad0cd0	1.3519535
102	0x3f93d2b0	1.1548672
103	0x3f702242	0.93802273
104	0x3f18ecef	0.5973653
105	0xbfa47577	-1.2848347
106	0x3cfe1266	0.031014632
107	0x4002c7e3	2.04345
108	0xbf088647	-0.5332989
109	0x3f68bd5e	0.9091395
110	0xbe8ae906	-0.27130908
111	0xbf3b5939	-0.7318302
112	0x3d6377b5	0.055534083
113	0x3d767f00	0.06017971
114	0x3ed20f54	0.4102732
115	0xbf5640e4	-0.83692765
116	0x3e228961	0.15872718
117	0xbf6ea22d	-0.9321621
118	0x3f76b758	0.9637351
119	0x3fa88c74	1.3167863
120	0x3f031ac0	0.5121269
121	0x401a13eb	2.4074657
122	0xbf3640b2	-0.7119247
123	0xbe747e2a	-0.23876253
124	0x3f0a8454	0.54108167
125	0x3f3a28e5	0.7271865
126	0xbe857ea8	-0.26073194
127	0x3f0732c2	0.52811825
128	0xbf40ac9d	-0.75263387
129	0xbba1fbc6	-0.004943344
130	0xbef4bf0b	-0.47802004
131	0xbf26e25c	-0.65189147
132	0x3f217c67	0.6308045
133	0xc02134ae	-2.5188403
134	0x3eccb5c4	0.39982426
135	0xbfd3a914	-1.6535974
136	0x3f9a4acb	1.2054075
137	0x3eec65da	0.46171457
138	0xbe0b82f6	-0.13624176
139	0x3f809d3d	1.0047985
140	0x3f2ab955	0.66689044
141	0x3e22971c	0.15877956
142	0x3e89abe6	0.2688896
143	0xbe2df6df	-0.16988705
144	0xbfc94791	-1.5724965
145	0xbfd90bb9	-1.6956702
146	0x400c4950	2.1919746
147	0xbf19e8c9	-0.60120827
148	0x3f814dbc	1.0101848
149	0xbfd03295	-1.6265436
150	0x3fcf8c37	1.6214665
151	0xbcfb0067	-0.03063984
152	0x3f75999e	0.95937526
153	0xbef12b88	-0.47103524
154	0xbf82de52	-1.0224097
155	0x3eb438e7	0.35199663
156	0x3e774409	0.24147047
157	0x3df1b69f	0.1180241
158	0xbe2aa57f	-0.16664694
159	0x3e695a3c	0.22788328
160	0xbd7b34aa	-0.06132952
161	0x400c3e71	2.1913111
162	0xbf3ed57e	-0.74544513
163	0x3fcf72f6	1.6206958
164	0x3f94141f	1.156864
165	0xbe91af3f	-0.28454015
166	0x3de56b44	0.112021
167	0x3fadb240	1.3570023
168	0x3fbeff86	1.492173
169	0x4011a31f	2.2755811
170	0xbf707828	-0.93933344
171	0xbfb74b23	-1.4319805
172	0xbdc1cd66	-0.09463005
173	0x3f4ce11e	0.80031
174	0x3ffcff8d	1.9765488
175	0xbff92a40	-1.9466019
176	0x3f01f336	0.50761735
177	0x3f10a79e	0.56505764
178	0x3f3e935a	0.7444359
179	0xbf80f06a	-1.0073369
180	0xbfbc8a0b	-1.4729627
181	0xbe873c0a	-0.26412994
182	0xbf7504ed	-0.9571064
183	0x3f217cc6	0.63081014
184	0xbfdc1b1b	-1.7195772
185	0x3f04b26c	0.5183475
186	0xbf2ea944	-0.6822703
187	0xbebb79c1	-0.36616328
188	0x3f08fcbc	0.5351064
189	0xbee4ad98	-0.44663692
190	0x3f8c797d	1.0974575
191	0xbfb93d8b	-1.4471906
192	0xbf3c7d46	-0.7362865
193	0xbe8f6b4a	-0.28011543
194	0x3f989da5	1.1923109
195	0xbb6ee8c8	-0.0036454666
196	0xbef9c55b	-0.48783383
197	0x3e197e68	0.14989626
198	0xbfa7dab5	-1.3113619
199	0xbf03a298	-0.51419973
200	0xbd734b64	-0.05939807
201	0xbfa6643e	-1.2999341
202	0xbeb2d476	-0.3492772
203	0x3d805965	0.06267051
204	0xc0172efd	-2.362243
205	0x3f3397a2	0.7015325
206	0x3f0e44d0	0.5557375
207	0x3feb6f1f	1.8393286
208	0x3f3a67be	0.7281455
209	0xbf23c7d9	-0.6397682
210	0xbf1e00b2	-0.6171981
211	0xbf3f60dc	-0.7475717
212	0x3d4dee62	0.050276168
213	0x3eb2aa83	0.34895715
214	0x3ef52b06	0.47884387
215	0x3db0691c	0.08613798
216	0x40158f3e	2.3368678
217	0xbedf5ef8	-0.43627143
218	0xbd263db7	-0.0405862
219	0xbf8dd930	-1.1081905
220	0x3f9bdcd3	1.2176765
221	0x3e688c63	0.22709803
222	0xbfaad6dc	-1.334682
223	0x3f8226d2	1.0168097
224	0xbf7eae47	-0.99484676
225	0xbfd062d8	-1.6280165
226	0xbfa4e3af	-1.2881984
227	0xbe977244	-0.29579365
228	0xbfaed6b9	-1.3659278
229	0xbedb8fd7	-0.4288318
230	0xbf8061e3	-1.0029873
231	0x4003a058	2.0566616
232	0xc0013d87	-2.0193803
233	0x3f388e56	0.7209219
234	0x3f73223e	0.94974124
235	0xbe9255e1	-0.28581145
236	0xbfecb6e6	-1.8493316
237	0x3f2edcf0	0.68305874
238	0x3f8d6070	1.1045055
239	0x3f4706c4	0.777447
240	0xbf0e7b1f	-0.5565662
241	0x3f2cea8e	0.675454
242	0xbdf1f22d	-0.118137695
243	0x3f4a2d44	0.7897532
244	0xbe802426	-0.2502758
245	0x3f09d818	0.5384536
246	0xbd945a2f	-0.07243764
247	0xbf097a95	-0.5370267
248	0xbf99d66b	-1.201856
249	0xbece3280	-0.40272903
250	0xbf51e76b	-0.8199374
251	0xbec4c0e7	-0.38428423
252	0xbb55188b	-0.003251585
253	0xbf5940f0	-0.8486471
254	0x3fed1a5c	1.8523669
255	0x3facb2b8	1.3492041

gru_dp_fw.decays f4 [7]
0	0x00000000	0.0
1	0x00000000	0.0
2	0x00000000	0.0
3	0x00000000	0.0
4	0x00000000	0.0
5	0x00000000	0.0
6	0x00000000	0.0

gru_dp_fw.gru_cell.weight_ih f4 [21, 7]
0	0xbd5a1bbf	-0.053249117
1	0xbb8ee4ea	-0.004360785
2	0x3e554be7	0.20829736
3	0xbe4a73b7	-0.19770704
4	0x3e5fc0b7	0.21850859
5	0x3e2942af	0.16529344
6	0xbe5737a2	-0.21017316
7	0xbeb1aa8b	-0.34700426
8	0x3ea58bce	0.32333225
9	0x3e919391	0.28432897
10	0x3e5fdeeb	0.2186238
11	0x3e614fe5	0.22003134
12	0x3e8dfa32	0.27729946
13	0x3e37ac14	0.17936736
14	0x3e026c9a	0.1273674
15	0x3d07f1e2	0.03318966
16	0xbda816f3	-0.08207502
17	0xbe96696b	-0.29377303
18	0x3d497db5	0.04919215
19	0xbe950270	-0.29103422
20	0xbe5413a8	-0.20710623
21	0x3e81fbf0	0.25387526
22	0xbc7b6c84	-0.015345696
23	0xbe279b21	-0.1636777
24	0xbe25b4bf	-0.1618223
25	0xbe813f7a	-0.2524374
26	0xbec16740	-0.37774086
27	0x3e9bcc2b	0.30429205
28	0xbe6cfad4	-0.23142558
29	0xbeb4aec7	-0.35289595
30	0x3ea50f0a	0.32238036
31	0xbdbad62d	-0.09122882
32	0xbe9015f9	-0.28141764
33	0xbe19ecc5	-0.15031727
34	0xbdacf8e6	-0.08445911
35	0x3db34a54	0.08754411
36	0xbe67ae1a	-0.22625008
37	0x3de8e056	0.11370914
38	0xbe06421e	-0.13111159
39	0xbdb22b9e	-0.086997256
40	0xbe5656f2	-0.20931605
41	0x3d8b1839	0.067917295
42	0xbe2db128	-0.16962111
43	0xbead71ad	-0.3387579
44	0x3c36a871	0.011148558
45	0x3e2ceee5	0.16888006
46	0xbd02e489	-0.03195623
47	0xbe82a606	-0.2551729
48	0x3d16c095	0.036804754
49	0x3e58d21d	0.21173902
50	0x3e02abf8	0.12760913
51	0x3e3ada03	0.18247227
52	0xbc76471e	-0.015031604
53	0x3eb154eb	0.346351
54	0x3d82a398	0.06378859
55	0x3e9729f0	0.29524183
56	0xbe0b8782	-0.13625911
57	0x3d168709	0.036749873
58	0xbeb35579	-0.35026148
59	0x3e40304c	0.18768424
60	0xbd76f697	-0.06029376
61	0xbd3ace6d	-0.04560702
62	0xbdeea719	-0.11652965
63	0x3e324b8e	0.17411634
64	0x3ea444bc	0.3208369
65	0x3d8d4b76	0.06899159
66	0x3e9a8c9e	0.30185407
67	0xbe7354e1	-0.23762847
68	0xbe270eab	-0.16314189
69	0x3e6a21d4	0.22864467
70	0x3d723c41	0.059139494
71	0x3e13ec4c	0.14445609
72	0xbe868aa3	-0.26277646
73	0xbc9bb6f8	-0.019008145
74	0x3eae4df3	0.34043846
75	0x3e484c11	0.19560267
76	0xbe278422	-0.16358998
77	0xbc8291db	-0.01593869
78	0x3eaa2f90	0.33239412
79	0xbe6736c2	-0.22579482
80	0x3af80b8b	0.0018924339
81	0x3e13c2fb	0.14429848
82	0x3e2508bd	0.16116615
83	0x3d6dd627	0.05806556
84	0xbe82d586	-0.2555353
85	0xbea5ed5b	-0.3240765
86	0xbea93b60	-0.33053112
87	0xbe0e9d13	-0.13927107
88	0x3e9da5c2	0.30790526
89	0xbdd6853f	-0.104746334
90	0xbeab476a	-0.33452922
91	0xbea1cf72	-0.3160358
92	0xbca5f806	-0.020259868
93	0x3de04038	0.10949749
94	0xbe5948e4	-0.21219212
95	0xbe7444a6	-0.23854312
96	0x3e3d5489	0.18489279
97	0xbea2cd22	-0.3179713
98	0x3e877b47	0.2646124
99	0x3e1e86eb	0.15481155
100	0x3ead4a55	0.33845773
101	0x3ebfe6d1	0.37480786
102	0xbddef7bf	-0.108870976
103	0x3e0e0366	0.13868484
104	0x3eb97079	0.36218622
105	0x3e8ae477	0.2712743
106	0x3de481e4	0.11157587
107	0xbeb9cb26	-0.36287802
108	0xbe8e37fd	-0.2777709
109	0x3e546585	0.20741852
110	0x3cd8ff9c	0.026489072
111	0x3db86236	0.09003107
112	0xbeb53c35	-0.35397497
113	0xbe41104d	-0.18853875
114	0x3e999e3c	0.30003536
115	0x3e8ac634	0.27104342
116	0xbeaec013	-0.34130916
117	0xbe3da029	-0.18518128
118	0xbca7af99	-0.020469474
119	0xbca31af7	-0.019910319
120	0x3eb12583	0.34598932
121	0x3e8dc4c0	0.2768917
122	0xbe952b32	-0.29134518
123	0xbcd190c0	-0.025581717
124	0x3e5aab1a	0.21354333
125	0xbe1d028f	-0.15333007
126	0xbe0c5f17	-0.13708149
127	0xbe6ef0e8	-0.23334086
128	0xbe2fe77d	-0.1717815
129	0xbdc0a83b	-0.094070874
130	0xbd9070c3	-0.070527576
131	0xbe7f2b08	-0.24918759
132	0xbeba2628	-0.36357236
133	0xbe783638	-0.24239433
134	0xbea01f5b	-0.31273922
135	0xbe5b9017	-0.21441685
136	0x3e4833b6	0.19550976
137	0xbe2df59e	-0.16988227
138	0x3d6de044	0.058075204
139	0xbeb53528	-0.35392118
140	0xbdbca375	-0.092108645
141	0xbea26f72	-0.3172565
142	0x3e29fc53	0.1660016
143	0xbeba56c4	-0.36394322
144	0xbd79f85c	-0.06102787
145	0x3e33260b	0.17494981
146	0x3ebed689	0.37273052

gru_dp_fw.gru_cell.weight_hh f4 [21, 7]
0	0x3ecd4a6f	0.4009585
1	0x3ebe3c79	0.37155512
2	0x3e06da30	0.1316917
3	0x3e6940ab	0.22778575
4	0x3d75b4bb	0.05998681
5	0x3dd558a3	0.10417297
6	0x3d2025fb	0.03909872
7	0x3e5d4829	0.21609558
8	0x3cb8fcaf	0.022581426
9	0xbe534622	-0.20632222
10	0xbd3849bd	-0.044992197
11	0x3d6cecf4	0.057843164
12	0x3e86caac	0.263265
13	0x3e9305b4	0.2871529
14	0x3ea94de2	0.33067232
15	0xbec381e2	-0.3818503
16	0x3e758745	0.23977382
17	0x3eaa43e6	0.33254927
18	0xbeb41844	-0.35174763
19	0xbd899736	-0.06718294
20	0xbcb4ffde	-0.022094663
21	0x3eb52450	0.35379267
22	0x3e37ce51	0.17949797
23	0x3eea3f41	0.45751384
24	0x3d120493	0.035648894
25	0xbe5202be	-0.20508859
26	0x3d283e9b	0.04107533
27	0x3e958fb5	0.29211202
28	0xbdbadabd	-0.09123752
29	0x3c8ecc90	0.017431527
30	0x3e4a7bd0	0.19773793
31	0x3d9539b4	0.072863966
32	0x3ebf55f3	0.37370262
33	0xbe87d4a4	-0.2652942
34	0xbdfc6242	-0.12323429
35	0xbdbc2e07	-0.091884665
36	0x3c1c2d20	0.009532243
37	0x3edc06f1	0.42974046
38	0xbc057c0d	-0.008147252
39	0x3e6d79e4	0.23191029
40	0x3cf11035	0.029426673
41	0xbe0799ac	-0.13242215
42	0x3e604602	0.21901706
43	0xbed1613b	-0.40894493
44	0xbe23e28d	-0.16004391
45	0xbe907321	-0.28212836
46	0xbdcd0691	-0.10011018
47	0xbe516da3	-0.2045198
48	0xbeecb304	-0.46230328
49	0x3e9f1e1f	0.31077668
50	0x3e69e67d	0.2284183
51	0xbe5e78e5	-0.21725805
52	0x3e9b0a1c	0.3028115
53	0x3e80b6c7	0.25139448
54	0x3ea1b98b	0.3158687
55	0xbea7a1d8	-0.32740664
56	0x3eb2a899	0.34894255
57	0xbc641c05	-0.013922696
58	0xbd46e1de	-0.048555247
59	0xbd501ebb	-0.050810557
60	0x3d9058a7	0.07048159
61	0x3e832c87	0.2561991
62	0xbe670192	-0.22559193
63	0xbec00e12	-0.37510735
64	0xbdd545b3	-0.10413685
65	0x3e8b1df0	0.27171278
66	0xbd33bbd9	-0.043880317
67	0x3eb9bf70	0.36278868
68	0xbd5c4650	-0.053777993
69	0x3d3497df	0.044090148
70	0x3d0ee0a6	0.03488221
71	0xbe9c6f6a	-0.30553752
72	0x3e6651fe	0.22492215
73	0xbe42c26c	-0.19019479
74	0x3e38630a	0.1800653
75	0x3e4066e1	0.18789245
76	0xbeb0bd2f	-0.34519336
77	0xbd14ecd2	-0.036358662
78	0x3eb729cc	0.35774076
79	0x3ebc4895	0.36774126
80	0xbe2433ad	-0.16035338
81	0xbe707a8e	-0.23484251
82	0xbc6d907e	-0.014499782
83	0xbe3969ad	-0.18106718
84	0xbbec6f8d	-0.0072154463
85	0xbdc038b4	-0.09385815
86	0xbe222750	-0.15835309
87	0x3e90458b	0.28178057
88	0xbcadfd31	-0.021238895
89	0x3cc50138	0.024048433
90	0x3eb63c90	0.3559308
91	0xbe2c32e0	-0.16816282
92	0x3eb1ad7c	0.3470267
93	0xbc36943d	-0.011143741
94	0x3e63dd7a	0.22252455
95	0x3e28f574	0.16499883
96	0x3d8655dd	0.06559346
97	0xbd7b307c	-0.061325535
98	0x3e39da4d	0.18149681
99	0xbeba9f5c	-0.36449707
100	0x3e292b95	0.16520531
101	0xbcf89b15	-0.030347386
102	0x3ea8bd6b	0.32957014
103	0x3eae306f	0.34021327
104	0x3e887274	0.2664982
105	0x3e2bc856	0.16775641
106	0x3ea14749	0.314997
107	0xbe7a17a9	-0.24423088
108	0xbdc04d08	-0.093896925
109	0xbea77876	-0.32709092
110	0xbe2340f8	-0.15942752
111	0x3d9e4f98	0.07730025
112	0xbe27391a	-0.16330376
113	0x3eb26a8a	0.34846908
114	0xbee151f4	-0.44007838
115	0x3e4ae55c	0.19814056
116	0x3e0bdb38	0.13657844
117	0xbde3851f	-0.11109375
118	0xbe82092b	-0.2539762
119	0xbd119396	-0.03554114
120	0xbe1071e0	-0.1410594
121	0xbe35563b	-0.17708676
122	0xbe54df20	-0.2078824
123	0x3e0ce311	0.13758494
124	0x3e452249	0.1925136
125	0x3d941d88	0.07232195
126	0x3e96d207	0.29457113
127	0xbe2e1b2f	-0.17002557
128	0xbd3af6e9	-0.045645628
129	0x3db7c254	0.08972612
130	0xbea9ea61	-0.3318663
131	0xbe220fdc	-0.15826362
132	0x3eaf1709	0.34197262
133	0xbeee5d37	-0.46555492
134	0x3c7f621f	0.015587359
135	0x3e8d3418	0.27578807
136	0x3d721bff	0.05910873
137	0xbeb60c6c	-0.35556352
138	0xbeae852d	-0.3408598
139	0x3e51a000	0.20471191
140	0xbe883317	-0.26601478
141	0xbe269ad7	-0.16270004
142	0xbcf82900	-0.030292988
143	0xbe472739	-0.19448556
144	0xbe3e8674	-0.18605977
145	0xbb929f32	-0.004474544
146	0x3a391209	0.00070598774

gru_dp_fw.gru_cell.bias_ih f4 [21]
0	0xbee0ff3a	-0.43944722
1	0xbea67bf0	-0.32516432
2	0x3eaad20a	0.33363372
3	0x3e0723b5	0.13197215
4	0x3e1b03ec	0.15138215
5	0xbe2321bd	-0.15930839
6	0x3e294665	0.1653076
7	0xbd25827e	-0.04040765
8	0xbb4eb6dd	-0.00315421
9	0x3e1a68e9	0.15079083
10	0x3e8b0d08	0.2715838
11	0xbe890a7d	-0.26765814
12	0x3b41713f	0.0029516963
13	0xbe48137b	-0.19538681
14	0xbe90b06c	-0.282596
15	0x3d9deca5	0.07711152
16	0xbd8c62f1	-0.06854809
17	0xbdcb1eeb	-0.099180065
18	0xbddd05d9	-0.10792131
19	0xbe521169	-0.20514454
20	0xbe92f15d	-0.2869977

gru_dp_fw.gru_cell.bias_hh f4 [21]
0	0x3e44bf79	0.19213666
1	0xbd89533f	-0.06705331
2	0xbead4d84	-0.33848202
3	0xbe36a7b7	-0.17837416
4	0xbe00cc1a	-0.12577859
5	0x3e15f487	0.14644061
6	0x3e4d9257	0.20075355
7	0xbe5d9668	-0.21639407
8	0x3e5a3a05	0.21311195
9	0xbe565a30	-0.20932841
10	0xbe6d15e7	-0.23152886
11	0xbe8a026d	-0.26954976
12	0x3e8796bf	0.26482198
13	0xbe534b26	-0.20634136
14	0x3deede61	0.11663509
15	0xbdafc28b	-0.08582028
16	0x3dbae9c3	0.09126618
17	0xbec86b3e	-0.3914432
18	0xbea4eaf1	-0.32210496
19	0x3cafe2e2	0.02147049
20	0x3eb5214e	0.35376972

gru_dp_fw.ode_net.odeblock.odefunc.fc1.weight f4 [7, 7]
0	0xbe6cc77f	-0.23122977
1	0x3e19a31a	0.15003625
2	0xbea114cb	-0.31461176
3	0x3e7bdfb0	0.24597049
4	0x3d5d21e9	0.053987417
5	0xbeacb683	-0.33732995
6	0x3db08bab	0.086203896
7	0x3eb40962	0.3516341
8	0x3e781f02	0.24230579
9	0xbe343dcc	-0.17601699
10	0x3e55cd33	0.20879059
11	0x3c8dff04	0.017333515
12	0xbe637624	-0.22213036
13	0xbe1c5d0f	-0.15269874
14	0x3ec105f7	0.37699863
15	0xbd2e5936	-0.042565547
16	0xbd8bc646	-0.06824927
17	0xbe56b0e6	-0.20965919
18	0xbe9af702	-0.30266577
19	0xbe8d54bd	-0.27603713
20	0xbdd20217	-0.10254305
21	0xbeb469c0	-0.3523693
22	0x3eb249ef	0.34822032
23	0xbea64a07	-0.32478353
24	0xbd97b404	-0.07407382
25	0xbe15337f	-0.14570425
26	0x3e89c0c5	0.26904884
27	0x3ea91773	0.33025703
28	0x3e75613c	0.23962873
29	0xbd7a3285	-0.061083335
30	0x3e51bcad	0.2048213
31	0xbe69961a	-0.22811165
32	0xbe325b35	-0.17417605
33	0xbe9f312d	-0.31092206
34	0x3e5a10a2	0.21295407
35	0x3e2cb578	0.168661
36	0xbe2d559b	-0.16927187
37	0x3e8f47eb	0.27984557
38	0x3d9754fb	0.073892556
39	0xbe6ffd0d	-0.23436375
40	0xbe93786b	-0.2880281
41	0xbe912e7e	-0.28355783
42	0x3dc11998	0.0942871
43	0x3ea8caee	0.32967323
44	0xbd24594e	-0.04012423
45	0xbe98e65f	-0.2986326
46	0x3b454314	0.0030099796
47	0x3e79b059	0.24383678
48	0xbe7c52e2	-0.24640992

gru_dp_fw.ode_net.odeblock.odefunc.fc1.bias f4 [7]
0	0xbe8d28a7	-0.27570078
1	0xbe9885db	-0.29789624
2	0x3e79a36a	0.24378744
3	0x3e830d44	0.25596058
4	0xbe6cee55	-0.23137791
5	0x3e95ffd9	0.2929676
6	0xbc93f2f8	-0.018060192

gru_dp_fw.ode_net.odeblock.odefunc.fc2.weight f4 [7, 7]
0	0x3dcc12ef	0.09964549
1	0x3e869947	0.26288816
2	0x3e875ea3	0.2643939
3	0xbdd0ca15	-0.10194794
4	0xbe801a98	-0.2502029
5	0xbe65f38d	-0.22456188
6	0xbbc415d7	-0.005984049
7	0xbea2e5cd	-0.3181595
8	0xbe635ccb	-0.22203366
9	0x3e5241e5	0.2053295
10	0xbe1821ca	-0.1485664
11	0x3e29b7b0	0.16573977
12	0xbe974bb1	-0.29549935
13	0xbe6cc85f	-0.2312331
14	0x3c8c2dee	0.017111745
15	0xbe4dab5c	-0.200849
16	0xbe16190d	-0.14657994
17	0xbe1395a3	-0.1441255
18	0xbd1305cc	-0.0358942
19	0xbddf6d45	-0.109095134
20	0x3e2b8874	0.16751271
21	0xbe9a561c	-0.3014382
22	0x3ec0202e	0.3752455
23	0x3eb5a17a	0.3547476
24	0x3d2b2072	0.04177899
25	0xbe799424	-0.24372917
26	0xbe92e6ba	-0.28691655
27	0x3debd2c1	0.115148075
28	0xbc830234	-0.015992261
29	0x3ddbad9e	0.10726474
30	0x3e8b86ce	0.27251285
31	0xbe218ca0	-0.157763
32	0xbeb46717	-0.352349
33	0x3db96e91	0.09054292
34	0xbe728fc5	-0.23687656
35	0xbe4aad6d	-0.19792719
36	0xbe685e7b	-0.22692291
37	0xbe15705c	-0.14593643
38	0x3e98d0d1	0.29846814
39	0x3e100455	0.14064153
40	0x3d364ec5	0.044508714
41	0x3c1b2c11	0.0094709555
42	0xbcfb92c8	-0.03070964
43	0x3ea48ea8	0.32140088
44	0x3dfd2838	0.12361187
45	0x3e1f78b0	0.15573382
46	0x3df65eb8	0.12029785
47	0xbebaa548	-0.36454225
48	0xbe9ccbba	-0.3062418

gru_dp_fw.ode_net.odeblock.odefunc.fc2.bias f4 [7]
0	0x3e5995e6	0.21248588
1	0x3e88d8ce	0.2672791
2	0xbebfee3b	-0.37486443
3	0xbe9e5746	-0.3092596
4	0xbe9f9d65	-0.3117477
5	0x3eac931f	0.33705994
6	0xbdc57f3e	-0.0964341

gru_dp_fw.ode_net.odeblock.odefunc.fc3.weight f4 [7, 7]
0	0xbddfc1d6	-0.10925643
1	0x3e602003	0.21887212
2	0x3e482131	0.19543912
3	0x3e5c94ca	0.21541134
4	0x3b89f8c8	0.0042105652
5	0xbd270f6f	-0.040786203
6	0x3cecac8e	0.028890874
7	0xbeb84bbc	-0.3599528
8	0xbe2a8bcf	-0.16654895
9	0x3ddcf348	0.1078859
10	0xbe5d64ab	-0.21620433
11	0x3e80a016	0.25122136
12	0xbd616f4d	-0.055037785
13	0x3cc333d1	0.023828419
14	0xbd935d94	-0.07195583
15	0x3d875c7e	0.06609438
16	0x3e296b2a	0.16544786
17	0x3d5359f2	0.05159945
18	0xbea6f3ff	-0.3260803
19	0xbdac2ee7	-0.084073834
20	0x3ca31b0f	0.019910363
21	0x3e740414	0.2382968
22	0xbe75d4f3	-0.24007015
23	0xbeb4f91d	-0.35346308
24	0x3b9b63a0	0.004742101
25	0x3e0cf7ba	0.13766375
26	0xbea0f380	-0.31435776
27	0x3e69ba38	0.22824943
28	0x3c402b7a	0.011729116
29	0xbe4d15f5	-0.20027907
30	0xbbb108f7	-0.00540268
31	0x3dc22568	0.09479791
32	0xbe0b70fc	-0.13617319
33	0x3e16e7a1	0.14736797
34	0x3e1cff77	0.15331827
35	0x3dc147fd	0.09437559
36	0x3deb3781	0.11485196
37	0x3e6e2890	0.23257661
38	0x3e77f8d8	0.2421602
39	0x3e1a647a	0.15077391
40	0x3e497332	0.1967285
41	0xbe86e1ce	-0.2634415
42	0x3e264843	0.16238503
43	0x3d42696b	0.047463816
44	0xbe9d0934	-0.30671084
45	0xbe8b4d88	-0.2720759
46	0xbdd593a2	-0.10428549
47	0xbea980fa	-0.33106214
48	0x3c5e964d	0.013585639

gru_dp_fw.ode_net.odeblock.odefunc.fc3.bias f4 [7]
0	0x3e7af327	0.24506818
1	0x3ea3f3db	0.32021984
2	0xbec0e5c0	-0.37675285
3	0xbe9e5ba9	-0.30929306
4	0xbea2cc24	-0.31796372
5	0x3df53e91	0.11974824
6	0x3ea98af2	0.3311382

gru_cp_fw.decays f4 [6]
0	0xcadbdc60	-7.2044e+06
1	0x00007f71	4.5717e-41
2	0x06c93000	7.5678326e-35
3	0x00000000	0.0
4	0x00000000	0.0
5	0x00000000	0.0

gru_cp_fw.gru_cell.weight_ih f4 [18, 6]
0	0xbe2f2d1e	-0.17107055
1	0x3e3112b5	0.17292292
2	0xbe6d4391	-0.23170306
3	0xbcb77f2e	-0.022399511
4	0xbe19a507	-0.15004359
5	0x3f12bbd2	0.5731784
6	0xbe80d31a	-0.25161058
7	0x3e07623d	0.13221069
8	0x3eba6d8c	0.36411703
9	0xbe1d667e	-0.15371129
10	0xbd9d102d	-0.07669101
11	0xbe2ed1cc	-0.17072219
12	0x3e85f93c	0.26166713
13	0xbd4ee0db	-0.050507408
14	0x3e99d01e	0.30041593
15	0xbebfd2f0	-0.3746562
16	0x3ed69de1	0.41917327
17	0xbe79de1d	-0.24401136
18	0x3e4eb93c	0.20187849
19	0x3ecc5494	0.39908278
20	0x3ed94a75	0.4243962
21	0x3e373cba	0.17894259
22	0x3de6cda8	0.112696946
23	0xbe9a08ca	-0.3008483
24	0x3b9cfb78	0.0047907196
25	0xbc806664	-0.015673824
26	0xbdfd3d04	-0.123651534
27	0xbdfd313e	-0.12362908
28	0x3e0d52bd	0.13801093
29	0xbdaadd74	-0.0834302
30	0x3df2ca38	0.118549764
31	0x3e5abe79	0.21361722
32	0xbe89626f	-0.2683291
33	0x3dae2191	0.08502496
34	0xbdd57905	-0.10423473
35	0xbe0d07a0	-0.1377244
36	0xbe4d40d4	-0.20044261
37	0xbf140f7c	-0.5783613
38	0xbda62d8d	-0.08114157
39	0xbe267d68	-0.16258776
40	0x3ed45113	0.41468105
41	0xbe8218e7	-0.25409624
42	0xbee09fe3	-0.43871984
43	0x3e1bbf68	0.15209734
44	0xbf19a3c0	-0.6001549
45	0x3f24ff50	0.64452076
46	0xbeb48147	-0.3525488
47	0xbec76f03	-0.38951883
48	0xbef6321d	-0.48085108
49	0xbddfe7d6	-0.10932891
50	0x3e65cd7d	0.22441669
51	0x3ec658b7	0.3873956
52	0x3dbbdda1	0.09173132
53	0x3ea3e44d	0.32010117
54	0xbbd5f48c	-0.0065293964
55	0x3e447708	0.19186032
56	0xbee22712	-0.44170433
57	0x3ea92210	0.330338
58	0xbd486df4	-0.048932984
59	0x3f13793e	0.57606876
60	0xbf043747	-0.51646847
61	0xbdff9033	-0.12478676
62	0xbe4299b1	-0.19003941
63	0x3d819742	0.06327678
64	0x3dd41c1d	0.10356925
65	0x3ef575ef	0.4794154
66	0xbe92b755	-0.28655496
67	0xbe563ae7	-0.20920907
68	0xbdc38524	-0.09546879
69	0x3e46f24e	0.1942837
70	0xbe895d71	-0.26829103
71	0x3edebc00	0.43502808
72	0x3e38e825	0.18057306
73	0x3ea0b437	0.31387493
74	0xbdcbd5e0	-0.09952903
75	0xbd5e911e	-0.054337613
76	0xbeae2a0b	-0.3401645
77	0x3e51b8ff	0.20480727
78	0x3e8e3876	0.2777745
79	0x3d840aeb	0.06447395
80	0x3ee60b14	0.44930327
81	0xbf0611f5	-0.5237115
82	0x3e06272e	0.13100883
83	0x3ea1710b	0.31531557
84	0x3ec38602	0.38188177
85	0x3d3f4432	0.046695895
86	0xbe4493a9	-0.19196953
87	0xbe9fcdc2	-0.31211668
88	0xbde8fcc2	-0.11376335
89	0xbd18e860	-0.037330985
90	0x3b394050	0.0028267093
91	0xbe3cf8f4	-0.18454343
92	0x3ec96b20	0.39339542
93	0xbf1a863d	-0.6036108
94	0xbd970cbf	-0.07375478
95	0xbea70ba3	-0.32626066
96	0x3ee40f75	0.44543043
97	0x3e8a7804	0.2704469
98	0x3e0cb992	0.13742664
99	0xbed705c9	-0.419966
100	0xbd3edf4f	-0.046599682
101	0xbeae08d5	-0.33991113
102	0xbd94358d	-0.072367765
103	0xbe584676	-0.21120629
104	0xbc2aa789	-0.01041592
105	0x3ee89635	0.454271
106	0x3e5758a7	0.21029912
107	0x3e06cfe5	0.13165243

gru_cp_fw.gru_cell.weight_hh f4 [18, 6]
0	0x3d860f63	0.065459035
1	0x3c5f4431	0.013627098
2	0xbe27ff5a	-0.16406003
3	0xbcdb1248	-0.026742116
4	0xbe4ae64d	-0.19814415
5	0x3e88b7bb	0.26702675
6	0x3e95c410	0.29251146
7	0x3f18584a	0.5950972
8	0x3e74093e	0.2383165
9	0x3eb553a2	0.3541537
10	0xbe0dd978	-0.13852489
11	0xbe80c851	-0.2515283
12	0x3f144b6e	0.57927597
13	0x3f17c854	0.5929005
14	0xbd3b5b07	-0.045741107
15	0x3b2d997e	0.0026489194
16	0xbde3cfc0	-0.111236095
17	0x3b68b419	0.0035507737
18	0x3eba6e21	0.36412147
19	0x3d80f7c9	0.06297261
20	0xbebdca6f	-0.37068507
21	0x3de0cac4	0.109761745
22	0xbe60c7c7	-0.21951209
23	0x3eb7dcc4	0.35910618
24	0xbec466e1	-0.3835974
25	0x3d395841	0.04525018
26	0x3c08ec90	0.008357182
27	0xbacefb81	-0.0015791507
28	0xbcf92759	-0.03041427
29	0x3eee2cf5	0.46518674
30	0x3e5f087b	0.21780579
31	0xbe2e9a9e	-0.1705117
32	0x3cd203a2	0.025636498
33	0x3da34725	0.07972554
34	0x3ed0c56f	0.4077563
35	0xbf0e7abc	-0.5565603
36	0x3e31920e	0.17340872
37	0x3e74ccc3	0.23906235
38	0x3f11e4c7	0.5698971
39	0x3e6f3a53	0.23362093
40	0xbeaf5038	-0.3424089
41	0x3e50cd2e	0.2039077
42	0x3e852c57	0.2601039
43	0x3eedcbb6	0.46444482
44	0x3d9ab180	0.07553387
45	0x3f223aca	0.63370955
46	0x3d6ac290	0.057314456
47	0xbdc86a99	-0.09785957
48	0x3f0adaa6	0.5423988
49	0x3ec18a5a	0.37800866
50	0x3f085958	0.5326133
51	0x3e30828a	0.17237297
52	0x3f0cb919	0.54969937
53	0x3c2d7f32	0.010589408
54	0xbd7f2100	-0.06228733
55	0x3e9659b7	0.29365322
56	0x3f062621	0.5240193
57	0x3e30739a	0.17231598
58	0x3ec8a437	0.39187786
59	0xbd9d8e01	-0.07693101
60	0x3c272443	0.010201517
61	0xbe7485d3	-0.23879175
62	0x3efd9112	0.49524742
63	0x3edc4098	0.4301803
64	0x3edd57be	0.43231004
65	0xbec92696	-0.3928725
66	0x3e088fe8	0.13336146
67	0x3db9a304	0.09064296
68	0x3de0221d	0.109440066
69	0xbc230b66	-0.009951448
70	0xbdb3968e	-0.087689504
71	0xbe7519a1	-0.23935558
72	0x3e93de9f	0.28880784
73	0x3f24f423	0.64435023
74	0xbde5d351	-0.11221946
75	0x3e4ad7eb	0.19808929
76	0x3e737621	0.23775531
77	0xbe86483c	-0.26226985
78	0xbd809572	-0.062785044
79	0x3f0315ce	0.51205146
80	0x3ec5e735	0.3865296
81	0x3f13906c	0.57642245
82	0x3e87ce99	0.2652481
83	0x3ec09992	0.37617165
84	0x3eeee7a9	0.46661118
85	0x3e732736	0.23745427
86	0x3d8927f4	0.066970736
87	0x3e8faf31	0.28063348
88	0xbe604123	-0.21899848
89	0x3e8ecce2	0.27890688
90	0xbea5ca43	-0.32380876
91	0x3e267b02	0.16257861
92	0x3ebcc680	0.36870193
93	0x3eb0492c	0.34430826
94	0x3ed924f5	0.42411008
95	0x3e79d6b1	0.24398305
96	0xbe05cd97	-0.13066708
97	0xbeee85e2	-0.4658652
98	0xbdb07fe0	-0.0861814
99	0xbe3ef0b9	-0.18646516
100	0x3ea11b82	0.314663
101	0xbe06d72c	-0.13168019
102	0x3e96ae4c	0.29429853
103	0xbdbff125	-0.093721665
104	0xbf099cb0	-0.5375471
105	0x3dc30909	0.09523208
106	0xbdd0b12b	-0.10190042
107	0x3e1c9c1a	0.15293923

gru_cp_fw.gru_cell.bias_ih f4 [18]
0	0x3c789e6b	0.015174489
1	0xbde50463	-0.11182477
2	0x3c99d4ab	0.018778166
3	0xbe388d00	-0.18022537
4	0x3e99ac6f	0.3001437
5	0x3e21f239	0.15815057
6	0x3e02ec05	0.12785347
7	0x3ea8a553	0.32938632
8	0x3e8ac43a	0.27102834
9	0x3ef5825c	0.4795102
10	0x3e7d4d4e	0.2473652
11	0xbd5a50b4	-0.05329962
12	0xbbbea8a3	-0.005818443
13	0xbd283749	-0.04106835
14	0x3d951999	0.07280273
15	0xbe81faa6	-0.25386542
16	0xbe7d60f6	-0.24744019
17	0x3e1b9a87	0.15195666

gru_cp_fw.gru_cell.bias_hh f4 [18]
0	0x3efc0e24	0.49229538
1	0x3d445f8b	0.04794268
2	0xbec9b1e7	-0.3939354
3	0x3e9b54f0	0.3033824
4	0xbe8e060c	-0.27738988
5	0x3db7dc10	0.089775205
6	0xbe662ef4	-0.22478849
7	0x3ed653d8	0.41860843
8	0xbde76569	-0.11298639
9	0x3e925177	0.28577778
10	0x3e9109b0	0.28327703
11	0xbe1185fc	-0.14211267
12	0xbd61bf4b	-0.05511407
13	0xbe08304f	-0.13299678
14	0x3d595dbd	0.05306791
15	0x3ebf18ea	0.37323695
16	0x3eb36c37	0.350435
17	0x3d6c5bd2	0.057704754

gru_cp_fw.ode_net.odeblock.odefunc.fc1.weight f4 [6, 6]
0	0xbd8502c2	-0.06494667
1	0x3f0a6571	0.5406104
2	0xbea60e5d	-0.32432833
3	0xbd2dfa12	-0.042474814
4	0x3e1bbb2b	0.15208118
5	0x3e4edf32	0.2020233
6	0x3eae85f2	0.34086567
7	0x3e81266a	0.2522462
8	0x3edcf783	0.43157586
9	0x3ec0604c	0.3757347
10	0xbe94f39a	-0.29092103
11	0xbd8c5347	-0.068518214
12	0x3edc4255	0.43019357
13	0x3e7803fb	0.24220268
14	0x3d0706a6	0.032965325
15	0xbd9d0a1a	-0.07667942
16	0x3d619726	0.055075787
17	0x3f088bbc	0.5333822
18	0xbea746ca	-0.32671195
19	0xbd56ccc8	-0.05244139
20	0x3d6948a0	0.056954026
21	0xbed629a6	-0.4182865
22	0xbdceeb70	-0.101035
23	0x3e98e689	0.29863384
24	0xbe549134	-0.20758516
25	0xbebac3d0	-0.36477518
26	0x3d5bc1ee	0.053651743
27	0xbcddd3ca	-0.027078528
28	0x3ea13831	0.31488183
29	0xbe865cb7	-0.2624261
30	0x3eec797d	0.46186438
31	0x3edbe9cd	0.42951813
32	0x3ddf2b35	0.10896913
33	0x3eef5ded	0.46751347
34	0x3e94148b	0.28921923
35	0x3ebd43b8	0.36965728

gru_cp_fw.ode_net.odeblock.odefunc.fc1.bias f4 [6]
0	0x3ec7546a	0.3893159
1	0x3ebd3bec	0.3695978
2	0xbcc84fd5	-0.02445213
3	0xbe968dd5	-0.29405084
4	0x3d28e36e	0.04123252
5	0x3e8e41ec	0.2778467

gru_cp_fw.ode_net.odeblock.odefunc.fc2.weight f4 [6, 6]
0	0x3d851e31	0.06499899
1	0x3ed0b112	0.40760094
2	0x3eb83b80	0.35982895
3	0xbe3655d5	-0.1780618
4	0xbe6d7a68	-0.23191226
5	0x3e857d5d	0.26072207
6	0xbe25e362	-0.16200021
7	0xbea0e176	-0.31422013
8	0xbe82eafa	-0.25569898
9	0x3e902ea5	0.28160587
10	0xbea5d8da	-0.32392007
11	0xbea10804	-0.31451428
12	0x3e1ce8a3	0.15323119
13	0xbd1d9071	-0.03846783
14	0xbd26b3fa	-0.040698983
15	0x3efb127c	0.4903754
16	0xbe6e24e9	-0.23256268
17	0x3ec8c7d4	0.39214957
18	0x3e01d8a0	0.12680292
19	0x3e5c88ae	0.21536514
20	0xbe5e633b	-0.21717541
21	0xbe14312f	-0.14471887
22	0x3e41ea0a	0.18936935
23	0x3ed653d9	0.41860846
24	0x3e4725b4	0.19447976
25	0x3f09ce85	0.5383075
26	0x3e9b6f14	0.30358183
27	0x3e9573d2	0.29189926
28	0x3d57e203	0.052705776
29	0x3e8c9104	0.27454388
30	0x3ed58024	0.41699326
31	0xbd62960d	-0.05531888
32	0x3e2d0a21	0.16898395
33	0xbe1afd07	-0.15135585
34	0x3db82caa	0.08992894
35	0x3e271618	0.16317022

gru_cp_fw.ode_net.odeblock.odefunc.fc2.bias f4 [6]
0	0x3ea5d3aa	0.3238805
1	0xbe3cc993	-0.1843627
2	0xbe8a9df7	-0.27073643
3	0xbe256d40	-0.16154957
4	0x3ec34f05	0.38146225
5	0x3f00846c	0.5020206

gru_cp_fw.ode_net.odeblock.odefunc.fc3.weight f4 [6, 6]
0	0x3e8ff950	0.28119898
1	0x3ed92287	0.42409155
2	0x3ed75890	0.42059755
3	0x3dc294ce	0.095010385
4	0xbe9e0e59	-0.3087032
5	0x3ea5e3a5	0.32400241
6	0x3f062f07	0.5241551
7	0x3eb2f09a	0.3494919
8	0x3e775e56	0.2415708
9	0x3f17ef99	0.5934997
10	0x3f20ae95	0.6276639
11	0x3e89ae6e	0.26890892
12	0x3ec784ef	0.38968608
13	0xbea1c334	-0.3159424
14	0x3ef64c7f	0.48105237
15	0xbe47d297	-0.19513927
16	0x3ecdeba8	0.40218854
17	0x3dbe75bb	0.09299799
18	0xbd46182d	-0.0483629
19	0x3e06b966	0.13156661
20	0xbe48ea26	-0.1962057
21	0x3e0fd93f	0.14047717
22	0x3d99871d	0.07496474
23	0x3ee0dba5	0.43917575
24	0xbb6ee875	-0.0036454473
25	0x3e08ce7c	0.13360018
26	0xbdb805c4	-0.08985475
27	0x3df8779b	0.12132188
28	0xbe1161b6	-0.1419743
29	0x3ea73a83	0.32661828
30	0xbe5fbca0	-0.21849298
31	0x3baa0a52	0.0051892186
32	0xbcfb7c01	-0.030698778
33	0x3cb0bb36	0.021573644
34	0xbdd07b55	-0.10179774
35	0xbeb996cf	-0.3624787

gru_cp_fw.ode_net.odeblock.odefunc.fc3.bias f4 [6]
0	0x3de3a424	0.11115292
1	0x3ec32b8c	0.3811916
2	0x3e8bc1cc	0.27296293
3	0x3eaf7d2a	0.3427518
4	0x3ec758f4	0.38935053
5	0x3e908d31	0.2823272

gru_dp_bw.decays f4 [7]
0	0xca7136f0	-3.95206e+06
1	0x00007f71	4.5717e-41
2	0x1eaae0f0	1.8092482e-20
3	0x00007f71	4.5717e-41
4	0x2c732973	3.4555386e-12
5	0x636f6c20	4.416563e+21
6	0x202c303d	1.4584927e-19

gru_dp_bw.gru_cell.weight_ih f4 [21, 7]
0	0xbddfcf26	-0.10928182
1	0x3ced62f6	0.028977852
2	0x3ed78378	0.4209249
3	0x3e72fe43	0.23729806
4	0xbe3670b2	-0.17816427
5	0xbe727ac6	-0.23679647
6	0xbd990597	-0.07471769
7	0xbeb29da7	-0.34885904
8	0x3ee1f999	0.4413574
9	0x3e184fad	0.14874144
10	0x3e1cca29	0.15311493
11	0xbd8f11fb	-0.069858514
12	0x3e73866e	0.2378175
13	0x3e97fd89	0.2968562
14	0x3e13a9bb	0.14420216
15	0x3ddf1994	0.108935505
16	0xbe01449e	-0.12623832
17	0xbd8a9ebd	-0.06768558
18	0xbe824beb	-0.25448546
19	0x3da374f4	0.079812914
20	0xbd40f3ef	-0.047107633
21	0xbf048bb6	-0.5177568
22	0xbeba1b80	-0.36349106
23	0x3d4f2316	0.05057057
24	0x3e13d779	0.14437665
25	0x3df6da2e	0.12053333
26	0x3e9dc29e	0.30812544
27	0xbdc46d2b	-0.09591135
28	0x3e0f90e3	0.14020114
29	0x3de5b22b	0.112156235
30	0x3e965f35	0.29369512
31	0xbdbbfb77	-0.091788225
32	0xbe0cf5d3	-0.1376565
33	0x3e6cc94a	0.2312366
34	0xbebf2de5	-0.37339702
35	0x3dc21647	0.09476905
36	0xbef61df1	-0.48069718
37	0x3ebe79cc	0.372023
38	0xbdf417d8	-0.1191861
39	0x3dfc8954	0.12330881
40	0x3ea436af	0.3207297
41	0x3e055472	0.13020495
42	0xbea438a3	-0.3207446
43	0x3dbdc0df	0.09265303
44	0x3e138d06	0.14409265
45	0xbcb03e6b	-0.021514138
46	0xbdf57393	-0.11984935
47	0xbd73c30a	-0.059512176
48	0xbdfd2234	-0.12360039
49	0x3ea22fa3	0.3167697
50	0x3c84646c	0.016161166
51	0xbebf999b	-0.3742188
52	0xbeb5e6c4	-0.35527623
53	0xbe7160df	-0.2357211
54	0x3ec91706	0.39275378
55	0xbeb4298e	-0.35187954
56	0x3ea3929b	0.3194779
57	0x3d4b48cb	0.049629968
58	0xbd9c4170	-0.07629669
59	0xbead7f81	-0.3388634
60	0x3ea6e94b	0.32599863
61	0xbe065c10	-0.13121057
62	0xbd79f86e	-0.061027937
63	0xbd0def48	-0.034652025
64	0x3db0c0d7	0.08630531
65	0xbe297f7a	-0.16552535
66	0x3df2ceea	0.11855872
67	0xbdb59d3c	-0.08867881
68	0x3daa4e56	0.08315723
69	0xbc215554	-0.009847004
70	0x3d9844f4	0.07435027
71	0xbea42326	-0.32058066
72	0x3d054025	0.032531876
73	0x3dd59ffa	0.10430904
74	0xbdcc1df0	-0.099666476
75	0xbdb4e6c2	-0.08833076
76	0xbd85592c	-0.06511149
77	0xbf011621	-0.5042439
78	0x3d58f341	0.05296636
79	0xbe817580	-0.25284958
80	0x3dedff88	0.11621004
81	0xbc4ac8ce	-0.012376977
82	0x3e81b855	0.25335947
83	0x3e037076	0.12835869
84	0x3e8176fc	0.2528609
85	0x3e95609b	0.29175267
86	0x3e6d99ab	0.23203151
87	0xbea13e40	-0.31492805
88	0xbd603a7f	-0.054743286
89	0x3e9973c7	0.29971144
90	0xbdfdf6da	-0.12400599
91	0x3e54effe	0.20794675
92	0x3eff5061	0.49866012
93	0x3e160e1b	0.14653818
94	0x3ee8453b	0.4536532
95	0x3d67c7a5	0.05658688
96	0x3d983b78	0.07433218
97	0x3e7af4ca	0.24507442
98	0xbc66ca24	-0.01408628
99	0x3e454967	0.19266282
100	0x3e4301f2	0.19043711
101	0x3e396716	0.1810573
102	0x3bac8a4b	0.0052655092
103	0xbe735b40	-0.23765278
104	0x3e6f2df2	0.2335737
105	0xbcd6b778	-0.026210532
106	0xbd7a59c0	-0.06112075
107	0x3da07c60	0.07836223
108	0x3eb89855	0.3605372
109	0xbf19541f	-0.59893984
110	0x3eb3ff57	0.35155746
111	0xbe2d68fb	-0.16934578
112	0xbd0f13bd	-0.034930933
113	0x3e20150e	0.15633032
114	0xbdcec39d	-0.10095904
115	0x3e0ecca5	0.13945253
116	0x3c855fbb	0.016281
117	0x3dc591a5	0.0964692
118	0x3c001b35	0.007818987
119	0x3e0d90fb	0.13824837
120	0xbe346b53	-0.17619066
121	0x3bfea6fa	0.00777137
122	0x3d921a95	0.07133976
123	0xbd904b4a	-0.0704561
124	0xbe282cde	-0.16423365
125	0xbe2fd04b	-0.17169301
126	0x3edd25a9	0.43192795
127	0xbe01d070	-0.12677169
128	0x3ec16ab9	0.37776735
129	0xbe4aab9b	-0.19792025
130	0xbdb6e4ef	-0.08930384
131	0xbee0db01	-0.43917087
132	0xbe20ba3c	-0.15696043
133	0xbe38ea49	-0.18058123
134	0xbe893fe0	-0.26806545
135	0x3e21acac	0.15788525
136	0x3df40b01	0.11916161
137	0xbef87bfc	-0.48532093
138	0x3e295a71	0.16538407
139	0x3d87ef16	0.06637399
140	0xbea22f62	-0.31676775
141	0xbe9f8d3a	-0.31162435
142	0x3997dc6f	0.000289652
143	0xbe6ea603	-0.23305516
144	0x3e8baed1	0.27281812
145	0xbde1fc1c	-0.11034414
146	0x3c926521	0.017870488

gru_dp_bw.gru_cell.weight_hh f4 [21, 7]
0	0xbd6c4cde	-0.057690494
1	0x3e0fc9a0	0.14041758
2	0xbd3cee0f	-0.046125468
3	0x3d5a5361	0.053302173
4	0xbe3f04ab	-0.18654124
5	0x3e7ca9c0	0.2467413
6	0x3d0319bc	0.032006964
7	0x3e7e593a	0.24838725
8	0xbeea34b8	-0.45743346
9	0x3effeb3f	0.49984166
10	0x3f020159	0.50783306
11	0xbee1dfb6	-0.4411599
12	0xbe7e6b48	-0.24845612
13	0xbf0067ac	-0.5015819
14	0xbe8179a0	-0.25288105
15	0x3da5213d	0.0806298
16	0x3ee280ed	0.44238988
17	0x3ea54ad7	0.3228366
18	0xbec8fd65	-0.39255825
19	0x3df66a5c	0.12032005
20	0xbeeae418	-0.45877147
21	0x3e4592fc	0.19294351
22	0x3deffad8	0.117177665
23	0x3ea040ff	0.31299588
24	0x3e089c81	0.13340952
25	0xbe88110a	-0.265755
26	0x3e8439bf	0.25825307
27	0x3f22b8b2	0.6356307
28	0x3d607d33	0.0548069
29	0xbefbb31f	-0.49160096
30	0x3d005659	0.031332348
31	0x3ee1ed89	0.44126537
32	0xbed85e9c	-0.4225968
33	0xbe073c9c	-0.13206714
34	0xbf053eb8	-0.52048826
35	0x3b3c82df	0.0028764529
36	0x3eaf566d	0.34245625
37	0x3d31d492	0.043415613
38	0xbe5b15e4	-0.2139507
39	0xbdd16a78	-0.102253854
40	0x3f2b804a	0.6699263
41	0x3effa1ea	0.49928218
42	0xbe5cd709	-0.21566404
43	0xbe323ef3	-0.17406826
44	0x3f2bf97d	0.67177564
45	0x3ebbc02e	0.3667006
46	0xbeeee6ab	-0.4666036
47	0xbe8e57be	-0.27801317
48	0xbcd68edd	-0.02619117
49	0x3e76c57d	0.24098773
50	0x3ecadde1	0.39622405
51	0xbcd85a7c	-0.026410334
52	0x3e8e4ca9	0.27792862
53	0xbe9ec851	-0.31012204
54	0x3e57f3a7	0.2108904
55	0x3e1bb40e	0.15205404
56	0xbe3c36df	-0.18380307
57	0x3dd65538	0.10465473
58	0x3f2c9d40	0.67427444
59	0x3f1ee561	0.62068754
60	0xbeddceb7	-0.43321773
61	0xbdbd2aa3	-0.09236648
62	0xbd6729e7	-0.056436446
63	0xbea0685c	-0.3132962
64	0x3e371add	0.17881341
65	0x3e8b281c	0.2717904
66	0x3e536be8	0.20646632
67	0xbe07a5d5	-0.13246854
68	0xbea461bb	-0.32105812
69	0x3ed53aff	0.41646573
70	0x3e88c2a8	0.2671101
71	0xbd8d4ab1	-0.06899012
72	0x3ebe3daa	0.3715642
73	0xbb8dad7e	-0.0043236604
74	0xbf1443b5	-0.5791581
75	0x3be73a88	0.007056538
76	0x3e58b43a	0.21162501
77	0x3e61e95f	0.2206168
78	0xbe33f1ef	-0.17572759
79	0x3d371640	0.044698954
80	0x3e2a6ae6	0.16642341
81	0xbe7333b6	-0.23750195
82	0x3e78ddd8	0.24303377
83	0x3e4874e1	0.19575836
84	0x3ed33f73	0.41259345
85	0xbe41be77	-0.18920313
86	0x3ec60e6a	0.38682872
87	0x3e267d23	0.16258673
88	0xbdb5863b	-0.08863493
89	0x3e36ebfc	0.17863458
90	0x3d6ba7d9	0.05753312
91	0x3c9b3616	0.018946689
92	0x3bbc1065	0.005739259
93	0xbe1f2dbf	-0.15544794
94	0x3e901e23	0.28147992
95	0x3eae22df	0.3401098
96	0x3df4f4b1	0.11960734
97	0xbca9e96f	-0.020741193
98	0x3e95bf53	0.2924753
99	0x3eb1d6dc	0.34734237
100	0x3f071d3a	0.5277897
101	0x3f097c30	0.5370512
102	0xbe24c347	-0.16090117
103	0xbe78d9c5	-0.24301822
104	0xbf174e0b	-0.5910346
105	0x3ef9312d	0.4867033
106	0x3e06aef6	0.1315268
107	0xbe812a41	-0.2522755
108	0xbdcb16da	-0.09916468
109	0x3f252145	0.6450389
110	0x3e4f64f8	0.2025336
111	0xb9fcca55	-0.00048215935
112	0xbce85d02	-0.028364662
113	0x3e58c983	0.2117062
114	0x3aa2293d	0.0012371909
115	0x3f79e0df	0.9760875
116	0x3e19c8ad	0.15017958
117	0xbf16897b	-0.5880353
118	0xbf0affa0	-0.542963
119	0xbe44a025	-0.19201715
120	0xbee7acc6	-0.45249003
121	0xbde79352	-0.11307396
122	0x3f4f632a	0.8101069
123	0xbe2266a6	-0.1585947
124	0xbe9671e8	-0.2938378
125	0xbf861bb9	-1.047721
126	0x3d8996b0	0.067181945
127	0x3ea5b33d	0.3236331
128	0xbe87762e	-0.2645735
129	0xbeeb3b42	-0.45943648
130	0x3cc9817a	0.024597872
131	0x3bb5526f	0.0055335085
132	0x3eda5d92	0.42649513
133	0xbe8a452d	-0.27005902
134	0x3ea04ffd	0.31311026
135	0xbe835e89	-0.25658062
136	0xbea86f4b	-0.3289741
137	0xbe132054	-0.14367801
138	0x3eb3d2c3	0.35121736
139	0x3f71714d	0.9431351
140	0x3dc51984	0.09624007
141	0x3f0b768c	0.54477763
142	0xbdc0b7e3	-0.094100736
143	0xbf17fd57	-0.5937094
144	0x3e4ae880	0.19815254
145	0x3ec98fc7	0.39367506
146	0x3e862f0a	0.26207763

gru_dp_bw.gru_cell.bias_ih f4 [21]
0	0x3d8987c6	0.0671535
1	0x3eac8340	0.33693886
2	0x3e7e767e	0.24849889
3	0x3eb66475	0.35623518
4	0x3e748309	0.23878111
5	0x3e992dd2	0.2991777
6	0x3f01ea85	0.50748473
7	0x3d938a12	0.07204069
8	0x3f043fbf	0.5165977
9	0x3e4f925d	0.20270677
10	0x3ea39112	0.31946617
11	0x3e6a7bde	0.22898814
12	0x3c6708c8	0.014101215
13	0x3ecadbc7	0.39620802
14	0xbe94c28a	-0.29054672
15	0x3c75358a	0.014966378
16	0x3dbae527	0.091257386
17	0x3eb8cd68	0.36094213
18	0xbe3c1549	-0.18367495
19	0xbe7d8a33	-0.2475975
20	0x3e9c8cfb	0.3057631

gru_dp_bw.gru_cell.bias_hh f4 [21]
0	0x3f3900c8	0.7226682
1	0x3dd7fd6e	0.10546385
2	0x3f166b99	0.5875793
3	0x3e7696f3	0.2408102
4	0x3e10e6fb	0.14150612
5	0x3c7bd9d2	0.015371757
6	0x3f126ee3	0.5720045
7	0x3db0935c	0.086218566
8	0x3f130883	0.5743486
9	0xbdb97251	-0.09055007
10	0x3e96a582	0.29423147
11	0x3ef3af0d	0.4759449
12	0x3e102d2f	0.14079736
13	0x3f1711b5	0.59011394
14	0xbe36ed31	-0.17863919
15	0x3dad13ba	0.08451028
16	0x3e8f01c8	0.27931046
17	0xbef73cb1	-0.4828849
18	0xbe78d018	-0.24298131
19	0x3ec5076b	0.38482222
20	0xbd7e79b6	-0.06212779

gru_dp_bw.ode_net.odeblock.odefunc.fc1.weight f4 [7, 7]
0	0xbf223c66	-0.6337341
1	0x3e9fdf61	0.31225112
2	0x3e4d731c	0.20063442
3	0x3f0c252b	0.54744214
4	0xbe69ae00	-0.22820282
5	0xbe9ba426	-0.30398673
6	0x3d9ee5eb	0.07758697
7	0xbebe6468	-0.3718598
8	0x3e255780	0.1614666
9	0x3ecb6b34	0.39730227
10	0x3e79321a	0.24335518
11	0xbe057690	-0.13033509
12	0x3be8018c	0.0070802625
13	0x3dda09c0	0.10646391
14	0x3d72576f	0.059165414
15	0xbd187178	-0.037217587
16	0x3e2ec22a	0.17066255
17	0x3e8bbfd4	0.2729479
18	0x3e401aeb	0.18760268
19	0x3dc849b3	0.09779682
20	0xbea980a1	-0.3310595
21	0xbf1d7d91	-0.61519724
22	0x3da48831	0.08033789
23	0x3daa81b8	0.08325523
24	0x3ebf1b31	0.37325433
25	0xbed1a0ef	-0.40943095
26	0xbdf6d9ed	-0.12053285
27	0xbe459295	-0.19294198
28	0xbebf2dc9	-0.3733962
29	0x3db49ab5	0.088185705
30	0xbe4a37a2	-0.19747785
31	0x3e816434	0.2527176
32	0xbed387b8	-0.41314483
33	0xbe636f33	-0.22210388
34	0xbd8cff12	-0.06884588
35	0xbd4e15f8	-0.05031392
36	0x3d1ca10a	0.038239516
37	0x3e468215	0.1938556
38	0x3ecc2ad6	0.3987643
39	0xbebf8fe2	-0.3741446
40	0xbe34b455	-0.17646916
41	0xbce055b3	-0.027384615
42	0xbf19beeb	-0.6005694
43	0xbde4da37	-0.11174434
44	0x3dd82faf	0.1055597
45	0x3f0156bd	0.5052298
46	0x3d29f2f8	0.04149148
47	0xbee7d4d9	-0.45279577
48	0xbeaa1ece	-0.33226627

gru_dp_bw.ode_net.odeblock.odefunc.fc1.bias f4 [7]
0	0x3e7fd5a5	0.24983843
1	0x3f3ff9a5	0.749903
2	0x3e7a6d90	0.24455857
3	0x3e852d9d	0.26011363
4	0x3e874caa	0.26425678
5	0x3e8c46c5	0.27397743
6	0x3f07aaa4	0.5299475

gru_dp_bw.ode_net.odeblock.odefunc.fc2.weight f4 [7, 7]
0	0x3eba0afc	0.36336505
1	0x3eba8762	0.36431414
2	0xbd5985c0	-0.05310607
3	0xbd836703	-0.06416132
4	0xbd938c7a	-0.07204528
5	0xbe2db89d	-0.16964956
6	0x3e8f959a	0.28043824
7	0x3f1500d4	0.5820439
8	0x3ee9aed3	0.45641193
9	0x3d1aaf3e	0.03776478
10	0x3bc2eae6	0.005948412
11	0xbd19beca	-0.037535466
12	0x3ea4e802	0.32208258
13	0x3dab9e0b	0.08379754
14	0x3f158dab	0.58419293
15	0x3e6732c8	0.22577965
16	0x3f12dbf9	0.573669
17	0x3f17d9f4	0.59316945
18	0x3eaf3846	0.3422262
19	0x3ef482af	0.47755954
20	0x3ebb2aad	0.36555997
21	0x3e9c6904	0.3054887
22	0x3eb1d4e5	0.34732738
23	0x3dd3459e	0.10316013
24	0x3ecd7cf4	0.40134394
25	0x3f064c80	0.5246048
26	0x3ea2f90c	0.31830633
27	0x3ebb43e0	0.36575222
28	0x3f100e01	0.5627137
29	0x3ee86e3b	0.453966
30	0x3f3bf87a	0.7342602
31	0x3f2c5029	0.67309815
32	0x3d99c761	0.07508732
33	0x3f083d8d	0.5321892
34	0x3f2b3bb5	0.6688798
35	0x3eefc9d8	0.46833682
36	0x3ed24443	0.41067705
37	0x3e08c904	0.13357931
38	0x3eff9715	0.49919954
39	0x3eea31bd	0.45741072
40	0x3f0b6aef	0.5446004
41	0x3e7671af	0.24066804
42	0x3f314dc5	0.6925929
43	0x3ec29bba	0.38009435
44	0x3f000bfd	0.5001829
45	0x3f35ad4a	0.70967543
46	0x3ec38811	0.38189748
47	0x3f197c62	0.5995542
48	0x3e0e1e9a	0.13878861

gru_dp_bw.ode_net.odeblock.odefunc.fc2.bias f4 [7]
0	0x3e868505	0.2627336
1	0x3d3f59dd	0.04671656
2	0x3f34f17e	0.7068099
3	0x3e4fe0a1	0.20300533
4	0x3ebb8bb7	0.3663003
5	0x3f51cebb	0.8195607
6	0x3e6d7bb4	0.2319172

gru_dp_bw.ode_net.odeblock.odefunc.fc3.weight f4 [7, 7]
0	0xbe47f67d	-0.19527622
1	0x3d9c9ebd	0.076474644
2	0x3ebe633e	0.3718509
3	0xbd4cc2f2	-0.0499906
4	0x3e649f12	0.22326306
5	0xbe06d90b	-0.13168733
6	0x3ea398f7	0.3195264
7	0xbe89ef11	-0.26940206
8	0x3e81bec3	0.25340852
9	0xbe8c6c56	-0.27426404
10	0xbe65e908	-0.22452176
11	0x3df2fc6e	0.118645534
12	0xbe65f4cc	-0.22456664
13	0xbe2c8aca	-0.16849819
14	0x3ca29587	0.01984669
15	0x3ee436fc	0.445732
16	0xbe318667	-0.17336427
17	0xbe1d8785	-0.15383728
18	0xbe9d9335	-0.30776373
19	0x3e87f4b9	0.26553896
20	0x3dc5980e	0.09648143
21	0x3f630f53	0.8869526
22	0x3e7fb285	0.24970444
23	0x3f803532	1.0016234
24	0x3ed1dee3	0.40990362
25	0x3f5ef78f	0.87096494
26	0x3eb38629	0.35063294
27	0x3f4ff855	0.812383
28	0xbe6e15df	-0.2325053
29	0x3dfe12e9	0.124059506
30	0x3e8f3313	0.27968654
31	0xbe71e701	-0.23623277
32	0xbd862ad6	-0.06551139
33	0xbd463309	-0.048388515
34	0xbc897e3f	-0.016783832
35	0xbdc23993	-0.09483638
36	0xbf2aad34	-0.66670537
37	0xbed80e6b	-0.421985
38	0xbefe0f0c	-0.49620855
39	0xbe4cafd1	-0.19988944
40	0xbf0e8e1b	-0.55685586
41	0xbede183e	-0.4337787
42	0xbddaf20b	-0.10690697
43	0xbedee69d	-0.4353532
44	0xbeed0953	-0.46296176
45	0xbeb7a2d5	-0.35866418
46	0xbf3ac487	-0.72956127
47	0xbf316bfe	-0.6930541
48	0xbf1c22f1	-0.60990816

gru_dp_bw.ode_net.odeblock.odefunc.fc3.bias f4 [7]
0	0x3ece336f	0.40273616
1	0x3e22a897	0.15884624
2	0xbe3df110	-0.1854899
3	0x3f4df12c	0.80446124
4	0xbeb7a6c8	-0.35869431
5	0xbe8d5d6d	-0.2761034
6	0xbf3b455f	-0.73152727

gru_cp_bw.decays f4 [6]
0	0xca7136f0	-3.95206e+06
1	0x00007f71	4.5717e-41
2	0x1edd5b70	2.3437103e-20
3	0x00007f71	4.5717e-41
4	0xca7136f0	-3.95206e+06
5	0x00007f71	4.5717e-41
