ablation1_min_count/min_count_250/birnn_concat_time_delta/final_model.pt (torch, 35833 bytes, 21 tensors)

embed_dp.weight f4 [707, 6]
0	0x00000000	0.0
1	0x00000000	0.0
2	0x00000000	0.0
3	0x00000000	0.0
4	0x00000000	0.0
5	0x00000000	0.0
6	0xbe941da8	-0.28928876
7	0xbf80a7aa	-1.0051167
8	0xbf1ab082	-0.6042558
9	0xbf62f6ac	-0.8865764
10	0x3f054762	0.52062047
11	0x3f379c3e	0.7172278
12	0x3fc04769	1.5021793
13	0xbfa3dc95	-1.2801691
14	0x3fae4fda	1.3618119
15	0xbeccedfa	-0.40025312
16	0x3f03a3ee	0.5142201
17	0xbe6a7a80	-0.22898293
18	0x3f2334c3	0.63752383
19	0xbd143eae	-0.03619259
20	0xbfceb1e4	-1.6148038
21	0xbf92b2bc	-1.1460795
22	0x3da90452	0.08252777
23	0x3ea11ee6	0.31468886
24	0xbe3682e2	-0.17823365
25	0xbfc78056	-1.558604
26	0xbfaf646f	-1.3702525
27	0xbe0f68e5	-0.14004858
28	0x4018a477	2.3850381
29	0x3f82383d	1.0173413
30	0x3eed9d23	0.46408948
31	0xbf5e89ae	-0.8692883
32	0xbede4439	-0.43411425
33	0xbf568d22	-0.838091
34	0x3f43d27f	0.76493067
35	0x3f7894b5	0.9710191
36	0x3e816a59	0.2527645
37	0x3e007a5e	0.1254668
38	0x3fbee946	1.4914939
39	0x3e8d5f09	0.2761157
40	0x3ecf3bb8	0.4047525
41	0xbe258d31	-0.16167141
42	0x3fb80250	1.4375706
43	0xbdc6357c	-0.0967817
44	0xbe8b832c	-0.27248514
45	0x3ea85bbf	0.32882497
46	0xbf756256	-0.95853174
47	0x402b2f6e	2.6747699
48	0x3e63c927	0.22244702
49	0xbe08342b	-0.1330115
50	0xbecfca74	-0.40584147
51	0x3f04f3b3	0.51934355
52	0x3c8c045f	0.017091928
53	0xbf47b417	-0.7800917
54	0x400760da	2.1152864
55	0x3fc9b35c	1.5757861
56	0x3f2af3cf	0.6677827
57	0x3f09d9b7	0.5384783
58	0x3e86fbc9	0.26363972
59	0xbfe9063b	-1.8205026
60	0xbedc269f	-0.42998216
61	0x3f2b4cd1	0.6691409
62	0xbf3e7039	-0.7438999
63	0xbf074179	-0.5283428
64	0xbdb095e5	-0.0862234
65	0xbf2e8a2d	-0.6817959
66	0xbf8190c5	-1.0122305
67	0xbf04df03	-0.5190279
68	0x3fb6fab8	1.4295263
69	0x3e9ad51f	0.30240723
70	0x3efff246	0.49989527
71	0xbefe2277	-0.4963567
72	0x3ec2ab05	0.38021103
73	0x3e8da28e	0.27663082
74	0x3fc17731	1.5114499
75	0xbeccc6bd	-0.39995375
76	0x3e9a81a9	0.30177048
77	0x3f95d958	1.1706953
78	0xbef4f71f	-0.47844788
79	0xbef6b4f9	-0.48184946
80	0x400012d8	2.0011501
81	0x3e9ee60e	0.31034893
82	0xbfce8ed9	-1.6137344
83	0x3f05400b	0.52050847
84	0xbf43e835	-0.76526195
85	0xbff88f28	-1.9418688
86	0xbf61dc28	-0.88226557
87	0xbf7eceee	-0.995345
88	0xbe81e4e4	-0.25369942
89	0xbf7fb046	-0.99878347
90	0x3eb06312	0.34450585
91	0x3e87da39	0.26533678
92	0xc056d1ed	-3.3565629
93	0x3eba5a7a	0.36397153
94	0xbf592c90	-0.8483362
95	0xbecd8c2b	-0.40146002
96	0xbf809fb0	-1.0048733
97	0x3d529f04	0.05142118
98	0x3fb572a5	1.4175612
99	0xc007e052	-2.1230664
100	0x3f0d0ae2	0.5509473
101	0xbf127bed	-0.57220346
102	0x3fa51fbe	1.2900312
103	0xbf8325e7	-1.0245942
104	0xbf612247	-0.8794293
105	0xbc60239c	-0.013680365
106	0xbf6418a5	-0.89100105
107	0xbf48d9b3	-0.7845718
108	0xbe56a098	-0.20959699
109	0xbe820f0c	-0.25402105
110	0xbeda2977	-0.4260976
111	0x3fdc7e1b	1.7225984
112	0xbf2917e6	-0.6605209
113	0xbf91b5a3	-1.1383556
114	0x3f8527b4	1.0402741
115	0xbec69418	-0.38784862
116	0xbdb8c018	-0.09021014
117	0x3f1560ed	0.5835102
118	0xbfd2e394	-1.6475701
119	0x3e6b8607	0.23000346
120	0x3fbd06a6	1.4767654
121	0xbdbe4995	-0.092913784
122	0x3f391fea	0.7231432
123	0x3dc8ff75	0.098143496
124	0xbfa3aa20	-1.2786293
125	0xbe0e3bdb	-0.1389002
126	0x3d1dbd01	0.038510326
127	0xbdf7c206	-0.12097554
128	0xbf9155c4	-1.1354299
129	0x3f2c029b	0.67191476
130	0xbe5e52f9	-0.21711339
131	0xbfeea58b	-1.864427
132	0x3f6581de	0.89651287
133	0xbfc104c6	-1.5079582
134	0xbfe42398	-1.7823362
135	0x3fcc0647	1.5939416
136	0xbf86c5e0	-1.0529137
137	0x3e3e073a	0.18557444
138	0xbf0516f7	-0.51988167
139	0x3f5d82f5	0.8652795
140	0x3f83083c	1.0236888
141	0xbf79abd3	-0.9752781
142	0xbe5700fb	-0.20996468
143	0xbe9b1105	-0.30286422
144	0xbee0f3a8	-0.43935895
145	0x3fa4facf	1.2889041
146	0xbe676df6	-0.2260054
147	0xbfa255ed	-1.2682472
148	0xbe47e0ce	-0.1951935
149	0x3f457367	0.77129215
150	0xbf660820	-0.8985615
151	0x3f0bba06	0.54580724
152	0xbf84003c	-1.0312572
153	0x3f6c08a9	0.92200714
154	0xbfae6f51	-1.3627721
155	0x3f94a5cd	1.1613098
156	0xbfa0a493	-1.2550224
157	0x3f869b8b	1.0516218
158	0x3f77208e	0.9653405
159	0xbd846700	-0.06464958
160	0xbf9668ad	-1.1750695
161	0xbd60631b	-0.054782014
162	0x3edcb07d	0.431034
163	0xbeb13abb	-0.3461512
164	0xc01ac44b	-2.4182308
165	0x3f8240c9	1.0176021
166	0x3f000a33	0.5001556
167	0x3e3682e0	0.17823362
168	0x3fcb504d	1.5883881
169	0x3f8367d6	1.0266063
170	0xbfa18d88	-1.2621317
171	0x3f001462	0.500311
172	0x3f60b4c7	0.87775844
173	0xbdba39e2	-0.090930715
174	0x3eeefe9b	0.46678624
175	0x3ee43580	0.44572067
176	0x3fd58e0e	1.6683977
177	0x3efe395d	0.4965314
178	0xbe9a7a4b	-0.30171427
179	0x3e3ce575	0.18446906
180	0xbeed0606	-0.46293658
181	0x3e26c610	0.16286492
182	0xbfd86d61	-1.690838
183	0xbe62c118	-0.22143972
184	0xbf17076f	-0.5899572
185	0xbf0ce022	-0.550295
186	0xbf4da70d	-0.80333024
187	0x3ef51d4b	0.4787391
188	0xbfbaed6d	-1.4603707
189	0x3e97e0d0	0.29663706
190	0xbe6ed6ff	-0.23324202
191	0x3f3e052b	0.74226636
192	0x3f10d89e	0.5658053
193	0x3f640814	0.89074826
194	0x3e99e9e4	0.30061257
195	0x3d50bdf5	0.050962407
196	0xbf78e368	-0.97221994
197	0x40623cc2	3.5349584
198	0x3ea07ad0	0.31343699
199	0xbf805940	-1.0027237
200	0x3f815a67	1.0105714
201	0xc00e7d1c	-2.226386
202	0x3f6fe900	0.93714905
203	0xbf8d04d8	-1.1017103
204	0xbe18b4be	-0.14912698
205	0xbe41189e	-0.18857047
206	0xbf6e7514	-0.931474
207	0x3ebefab4	0.37300646
208	0xbf6654a1	-0.89972883
209	0xbf668eed	-0.9006184
210	0xbf17bd21	-0.5927296
211	0x3f61762d	0.88070947
212	0xbf06bff3	-0.5263664
213	0xbc57c41a	-0.013169313
214	0x3fa43ac7	1.2830437
215	0x3e612db3	0.21990089
216	0xc019ed68	-2.4051151
217	0x3fae3c07	1.3612069
218	0x3f99c783	1.2014011
219	0x3f9629ec	1.1731544
220	0xbfa53eff	-1.290985
221	0xbc9246a9	-0.017855959
222	0x3ea2d9af	0.31806704
223	0x3eeec8e2	0.46637636
224	0xbfa625fa	-1.298034
225	0xbfaea45b	-1.3643907
226	0x400a81bc	2.1641684
227	0xbf20611c	-0.6264818
228	0xbf1a02ad	-0.6016033
229	0x3f0747c3	0.52843875
230	0xbf249576	-0.6429056
231	0xbe5e9826	-0.21737728
232	0xbff9220d	-1.9463516
233	0xbf7a7553	-0.9783527
234	0xbe37cadb	-0.17948477
235	0xbde2750a	-0.1105748
236	0xbee80b6f	-0.45321223
237	0xbea9a43b	-0.3313311
238	0x3f5b52c8	0.8567319
239	0x3e038a53	0.12845735
240	0xbdc9fc18	-0.09862536
241	0x3f9369d9	1.1516677
242	0xbef5c4aa	-0.48001605
243	0x3f888a00	1.0667114
244	0xbf154766	-0.5831207
245	0xbfda2ba7	-1.7044572
246	0xbf53f90d	-0.82801896
247	0xbf898ab7	-1.0745457
248	0x3fabf026	1.3432662
249	0x3f1b5f18	0.60691977
250	0x3e5d5ec1	0.21618177
251	0x3e6b24c5	0.22963245
252	0x3f7652b0	0.9621992
253	0x3f5a4981	0.8526841
254	0xbe82c49e	-0.25540632
255	0xbe737823	-0.23776297

embed_cp.weight f4 [457, 5]
0	0x00000000	0.0
1	0x00000000	0.0
2	0x00000000	0.0
3	0x00000000	0.0
4	0x00000000	0.0
5	0xbf08b562	-0.5340177
6	0xbf22bcf9	-0.635696
7	0x3d9392b3	0.07205715
8	0x401eecf8	2.4832134
9	0x3f87a836	1.0598209
10	0xbf7b7c45	-0.98236495
11	0xbff65880	-1.9245758
12	0xbe4112a7	-0.18854772
13	0x3f2a4885	0.66516906
14	0x3f37ae68	0.717505
15	0x3f50762b	0.8143031
16	0xbed5e301	-0.41774753
17	0xc0058b00	-2.086609
18	0x3ff5ed29	1.9213
19	0xbf8975b4	-1.0739045
20	0x3f02fad9	0.51164013
21	0xbfa79311	-1.3091756
22	0xbfac30a4	-1.3452344
23	0xbddd8474	-0.10816279
24	0x3f5e6f8c	0.8688896
25	0x3e922369	0.2854264
26	0xbe53b504	-0.2067452
27	0xbf747767	-0.95494694
28	0x3fc98311	1.5743123
29	0xbf9fe211	-1.2490865
30	0xbf3b726f	-0.73221487
31	0xbe860199	-0.26173094
32	0xbfedb6d2	-1.8571417
33	0xbf845480	-1.0338287
34	0xbf1a65ca	-0.6031157
35	0x3f2acaee	0.66715896
36	0xbd8a2eb2	-0.06747188
37	0x3f560bdb	0.8361184
38	0x3fcd2315	1.6026331
39	0x3d380941	0.0449307
40	0x3e349260	0.17633963
41	0x400e977d	2.227996
42	0xbfb00028	-1.3750048
43	0x3f26a5b3	0.65096587
44	0x3f2ecfac	0.6828563
45	0x3f717230	0.9431486
46	0xbf3a2719	-0.7271591
47	0xbf3955f6	-0.7239679
48	0xbe5f5f68	-0.21813738
49	0x3f4114bb	0.7542226
50	0x3f3c000f	0.7343759
51	0xbee48fc6	-0.4464094
52	0xbecdc05d	-0.40185824
53	0xbef39418	-0.47573924
54	0x3d7ffbf5	0.062496144
55	0x3fc87f41	1.5663835
56	0xbd8a2e53	-0.06747117
57	0x3fcdfede	1.6093404
58	0xbebee358	-0.37282825
59	0xbe5a410f	-0.2131388
60	0x3e8ded00	0.2771988
61	0x3ed39522	0.41324717
62	0xbf8b4ba1	-1.0882455
63	0xbf226d98	-0.63448477
64	0xbf65f057	-0.89819854
65	0xbf2fcca7	-0.6867165
66	0x3eba6979	0.36408594
67	0x3f81037c	1.0079188
68	0xbfcfb6b4	-1.6227632
69	0xbf18a835	-0.59631664
70	0xbed29e14	-0.4113623
71	0xbe6bbfe4	-0.23022419
72	0x3d80a91e	0.062822565
73	0x3f9c44c9	1.2208492
74	0xbfa4aac7	-1.2864617
75	0xbf586ab7	-0.84537834
76	0xbea916d0	-0.33025217
77	0xbeee53f3	-0.46548423
78	0xbfecd35f	-1.8502005
79	0xbf1fd9d4	-0.62441754
80	0xbfa84bc2	-1.314812
81	0xbfaeee8e	-1.3666551
82	0xbfdf7170	-1.7456493
83	0xbfbe5095	-1.4868342
84	0x3fec72a5	1.8472487
85	0xbf1f012f	-0.6211118
86	0xbfae9508	-1.3639231
87	0x3ebe099d	0.3711671
88	0xbf8d63a2	-1.104603
89	0x3eb20d25	0.34775653
90	0x3e1ed208	0.15509808
91	0xbfb30f26	-1.3988998
92	0xbe1353fd	-0.14387508
93	0xbf90ad22	-1.1302836
94	0xbe94d77f	-0.2907066
95	0x3c7d4a69	0.015459635
96	0xbe89681a	-0.26837236
97	0x3fb15942	1.3855364
98	0xbf0078eb	-0.50184506
99	0xbfd80abe	-1.6878278
100	0xbe03dc61	-0.12877037
101	0x3f12bf47	0.57323116
102	0xbf8014f3	-1.0006393
103	0x3fe0efb2	1.7573149
104	0x3f111942	0.56679165
105	0xbf5bb882	-0.8582841
106	0x3f49d3aa	0.788386
107	0xbf47f52f	-0.78108495
108	0x3c4982bc	0.012299236
109	0x3eb940a2	0.36182123
110	0x3fb6f0bf	1.429222
111	0xbed71d33	-0.42014465
112	0xbecfe791	-0.4060636
113	0x3f3000aa	0.68751013
114	0x3f1743f5	0.5908807
115	0xbfaa2cea	-1.3294957
116	0xbed694af	-0.41910312
117	0x3ffe5b4e	1.9871614
118	0xbf2ddddf	-0.67916673
119	0x3f5aa8da	0.854139
120	0x3f93e041	1.1552812
121	0xbff89212	-1.9419577
122	0xbf5b4ec8	-0.85667086
123	0x3f1d4e09	0.614472
124	0xbf2b4bfa	-0.66912806
125	0x3f807029	1.0034229
126	0xbfdfb80d	-1.7478043
127	0xbe7319a9	-0.23740257
128	0x3f47b7c1	0.7801476
129	0xbf285ba7	-0.6576485
130	0xbe3dd867	-0.18539582
131	0x3e9077e9	0.28216484
132	0x3f2b3506	0.6687778
133	0x3e25f8d4	0.16208202
134	0xbde82f9e	-0.11337207
135	0xbef04829	-0.46930054
136	0x3f4b41ba	0.79397166
137	0x3fd94aae	1.6975915
138	0xbd785d83	-0.060636055
139	0x3f0483d8	0.5176368
140	0xbf408311	-0.7519999
141	0xbf3003a0	-0.6875553
142	0xbf2a8bf8	-0.66619825
143	0x3ec01b8d	0.3752102
144	0xbeeb6414	-0.4597479
145	0xbfd54d37	-1.6664189
146	0xbec016b9	-0.37517336
147	0xbf394175	-0.72365505
148	0x3f8cc1dd	1.0996662
149	0x3dccf0e7	0.10006886
150	0xbea1c8fb	-0.31598648
151	0xbf96441e	-1.1739538
152	0xbff1380c	-1.8845229
153	0xbffc7134	-1.9722047
154	0xbf2c6878	-0.67346907
155	0x3e145899	0.14486922
156	0xbc960066	-0.018310737
157	0xbf9d8c7b	-1.2308496
158	0x3e62473d	0.22097488
159	0xbf60b9c8	-0.8778348
160	0xbfb35d15	-1.4012781
161	0x3ea19cda	0.3156498
162	0xbef63089	-0.48083904
163	0x3c7e0a13	0.015505332
164	0xc002319d	-2.0342782
165	0x3e72bdaa	0.23705164
166	0x3f0c21e5	0.5473922
167	0xbf17b3c8	-0.592587
168	0x3f3292bb	0.6975514
169	0x3ef5e8bc	0.48029125
170	0xc019e662	-2.4046865
171	0xbf93a1b4	-1.1533723
172	0xbfd2117c	-1.6411586
173	0x3c3a1ec2	0.011359872
174	0x3e1005fc	0.14064783
175	0xbf313ed8	-0.69236517
176	0x3e8a7df5	0.27049223
177	0xbea4f497	-0.32217857
178	0xbf597fec	-0.8496082
179	0xbf861704	-1.0475774
180	0xbe1a96e8	-0.15096629
181	0x3ee7965c	0.45231903
182	0xbfd0e961	-1.6321222
183	0x400110bb	2.0166461
184	0x3f374886	0.71595037
185	0x3db4c854	0.08827272
186	0xbfe98db9	-1.8246375
187	0xbd22a700	-0.039710045
188	0xbe039c15	-0.1285251
189	0xbfcddec1	-1.6083604
190	0x3edd4c89	0.43222454
191	0xbed1f3b1	-0.41006234
192	0x3efe604c	0.49682844
193	0xbf7f67e8	-0.99767923
194	0x3f224103	0.6338045
195	0xbec3b63a	-0.38224965
196	0x3dfb40c5	0.12268213
197	0xbe7dbc26	-0.24778804
198	0x3ec2ced8	0.38048434
199	0xbf6b43d6	-0.91900384
200	0x3e071b86	0.13194093
201	0x3f7c1e99	0.9848419
202	0x3f8dee0a	1.1088269
203	0xbf61e068	-0.8823304
204	0x3f81d528	1.0143175
205	0x3f51ec87	0.8200154
206	0xbca0fb6f	-0.019651143
207	0x3f490c77	0.78534645
208	0x3f4cb635	0.79965526
209	0xbf0a991f	-0.54139894
210	0xbe8c802c	-0.27441537
211	0x3f9926e7	1.1964997
212	0x3b745051	0.0037279318
213	0x3ff58880	1.9182281
214	0x3f92ca31	1.1467954
215	0x3f47c28d	0.78031236
216	0x3f2e7dd8	0.6816077
217	0xbf219fb5	-0.6313432
218	0xbe284809	-0.16433729
219	0xbec75581	-0.38932422
220	0xbf671d31	-0.9027892
221	0xbf8c9df9	-1.098571
222	0xbe7e30bb	-0.24823277
223	0x3de0aeb7	0.10970824
224	0x3f935513	1.1510338
225	0x3fa820da	1.3135026
226	0xbf1e8f92	-0.6193782
227	0xbf5124e9	-0.81696945
228	0xbd27c774	-0.040961698
229	0xbf3d7455	-0.74005634
230	0xbf6b7820	-0.9198017
231	0x3e206940	0.1566515
232	0x3f91bda9	1.1386005
233	0x4006a10e	2.10358
234	0xbef1885f	-0.47174355
235	0x3f8526c7	1.0402459
236	0x3f8d6091	1.1045095
237	0xbf3e73a8	-0.7439523
238	0xbfc9724c	-1.5738006
239	0xbe18d263	-0.14924006
240	0xbf3aaf5e	-0.7292384
241	0xbe1e0aaf	-0.15433763
242	0x3ddbf5e7	0.107402615
243	0xc005ba5c	-2.0894995
244	0xbf3cd000	-0.7375488
245	0xbf61cab8	-0.8819995
246	0x3ea8813f	0.32911107
247	0x3fb10fa2	1.3832896
248	0x3ffb6813	1.9641136
249	0xbf9e5b67	-1.2371644
250	0xbe4e3afa	-0.20139685
251	0x3f98befd	1.1933285
252	0xbf09a78d	-0.5377129
253	0x3fd9fd2c	1.7030387
254	0xbe61f7f6	-0.22067246
255	0x3e154fea	0.14581266

gru_dp_fw.weight_ih_l0 f4 [21, 7]
0	0xbdc0e380	-0.09418392
1	0x3e4356a3	0.19076018
2	0xbe98df99	-0.2985809
3	0x3e328841	0.17434789
4	0x3dcc9d4b	0.09990939
5	0x3c9f1913	0.019421136
6	0x3e44cba4	0.19218308
7	0xbe8d397b	-0.27582917
8	0x3e83dc3e	0.2575397
9	0xbde41a6c	-0.11137852
10	0xbe6e4838	-0.23269737
11	0x3eabefcb	0.33581385
12	0x3d8700d0	0.06591952
13	0xbe60e7ae	-0.21963379
14	0xbe83de57	-0.2575557
15	0xbeb7c541	-0.3589268
16	0x3e217968	0.15768969
17	0xbe047631	-0.12935711
18	0xbdae6260	-0.08514857
19	0xbe8e86ec	-0.27837312
20	0xbdd736cb	-0.10508498
21	0x3e848673	0.25883827
22	0x3e2ffa72	0.17185381
23	0x3e79162f	0.24324869
24	0xbdeef238	-0.11667293
25	0x3c3b6616	0.011437913
26	0x3d7e952b	0.062153976
27	0x3ea541e5	0.32276836
28	0x3e1da19a	0.15393677
29	0x3e3cdabc	0.18442816
30	0x3da1446c	0.078743786
31	0xbcb51907	-0.02210666
32	0xbd8c4ea0	-0.06850934
33	0xbe5c8abd	-0.215373
34	0x3e27c2ec	0.1638295
35	0x3e4ce925	0.20010813
36	0xbd1a7ac1	-0.037714723
37	0x3db08aad	0.086202
38	0x3e1908d2	0.14944771
39	0x3e2a9e6a	0.16661993
40	0x3ea3a836	0.31964272
41	0xbe4be67a	-0.19912139
42	0xbe8dd400	-0.27700806
43	0x3e99ccfc	0.30039203
44	0x3eb39037	0.35070965
45	0x3e22830c	0.15870303
46	0x3d860002	0.0654297
47	0x3ead12de	0.33803457
48	0x3e88f5d7	0.2675006
49	0x3e6531b4	0.22382241
50	0xbd9c07fe	-0.07618712
51	0xbd189824	-0.037254468
52	0x3e3b40f6	0.182865
53	0xbe81e88e	-0.25372738
54	0xbe3ebdfc	-0.18627161
55	0xbd25593c	-0.040368304
56	0x3e8e6861	0.2781401
57	0x3ebe6b22	0.3719111
58	0x3e9b7fc4	0.30370915
59	0x3d4913f9	0.049091313
60	0xbd528d2f	-0.051404174
61	0xbe7d6b2e	-0.24747917
62	0xbdea007c	-0.11425874
63	0x3dbb2b9e	0.09139179
64	0x3e5e2211	0.21692683
65	0x3e86c6e5	0.2632362
66	0x3e630505	0.22169884
67	0xbdc52a5e	-0.096272215
68	0xbdd7a7f2	-0.1053008
69	0xbe12ad18	-0.14323843
70	0x3ebe9c89	0.37228802
71	0x3d11628a	0.035494365
72	0x3de371a4	0.111056596
73	0x3e8448d6	0.2583682
74	0xbe466ad8	-0.19376695
75	0x3eaf08f1	0.3418651
76	0x3e1eba43	0.1550074
77	0xbe5b895b	-0.21439116
78	0xbde481c6	-0.11157565
79	0x3e5b961d	0.21443982
80	0xbe3f1882	-0.18661693
81	0xbeb0522a	-0.34437686
82	0xbea87a2d	-0.32905713
83	0xbeb7b728	-0.35881925
84	0xbde58943	-0.11207821
85	0x3d99c26d	0.07507787
86	0x3e02d3c0	0.12776089
87	0xbeb7edd1	-0.35923627
88	0xbc9864bd	-0.018602723
89	0xbdab2605	-0.08356861
90	0x3e58080b	0.21096818
91	0x3ea3eb7d	0.320156
92	0xbeaf3c9f	-0.34225938
93	0x3e3ec44e	0.18629572
94	0x3e8571e8	0.26063466
95	0xbebc1a31	-0.36738732
96	0xbe93ba19	-0.2885292
97	0xbe5a39b0	-0.21311069
98	0xbd6393de	-0.05556094
99	0x3e7fa05e	0.24963519
100	0x3cbc582c	0.022991262
101	0x3e7028f7	0.23453127
102	0xbd586a38	-0.052835673
103	0xbdea3cf0	-0.11437404
104	0xbe408b60	-0.18803167
105	0xbd320bba	-0.043468215
106	0xbe491028	-0.1963507
107	0xbe487954	-0.19577533
108	0x3e729bfc	0.23692316
109	0xbc47cd2d	-0.012194914
110	0x3eb81c69	0.35959175
111	0x3e74f94e	0.23923227
112	0xbe240b56	-0.1601995
113	0x3e5703a6	0.20997486
114	0xbeab04d4	-0.3340212
115	0x3e4cd8d5	0.2000459
116	0xbea02b6c	-0.31283128
117	0x3d4c2684	0.04984142
118	0x3dca4908	0.09877211
119	0xbea0895c	-0.31354797
120	0x3c1cc4d6	0.009568414
121	0x3e4ab27e	0.19794652
122	0xbebc80f5	-0.36817136
123	0xbeb7b3b4	-0.3587929
124	0xbe7eaf3a	-0.24871531
125	0xbe69cada	-0.22831288
126	0xbe9ae07e	-0.302494
127	0xbe0a14f6	-0.13484558
128	0xbeb1ee2a	-0.34752017
129	0xbdb7f9f1	-0.089832194
130	0x3eb26418	0.3484199
131	0xbded161a	-0.11576481
132	0x3e7d3cae	0.24730179
133	0x3e8dc0d0	0.27686167
134	0x3dd435d9	0.10361833
135	0xbd277b40	-0.040889025
136	0xbdb40b53	-0.087912224
137	0x3d9ee067	0.07757645
138	0xbe9705a3	-0.29496488
139	0x3e0595f7	0.13045488
140	0x3e3d920f	0.18512748
141	0x3e1718c7	0.14755546
142	0xbe51fe83	-0.20507245
143	0xbe330f2d	-0.17486258
144	0x3e8c73e8	0.2743218
145	0x3e612764	0.21987683
146	0xbd944086	-0.07238869

gru_dp_fw.weight_hh_l0 f4 [21, 7]
0	0x3e888d42	0.2667027
1	0xbe8eb920	-0.27875614
2	0xbdd82a48	-0.105549395
3	0xbe4969c1	-0.19669248
4	0xbe6cc864	-0.23123318
5	0xbbc016ee	-0.0058621084
6	0xbf048940	-0.51771927
7	0xbe62e852	-0.22158936
8	0x3d492f22	0.049117215
9	0x3e13f24c	0.14447898
10	0xbd728ccd	-0.05921631
11	0x3cc1d23c	0.023659818
12	0xbedf603f	-0.43628117
13	0x3edda47e	0.4328956
14	0xbe9d22a4	-0.3069049
15	0xbec072b0	-0.375875
16	0x3e96d611	0.29460195
17	0xbea97079	-0.33093622
18	0xbeacc691	-0.33745244
19	0xbe74adfe	-0.23894498
20	0x3e7d7f49	0.24755587
21	0xbcec719d	-0.028862769
22	0xbe70e798	-0.23525846
23	0xbe81bbfd	-0.25338736
24	0x3e2cb456	0.16865668
25	0x3d1193cb	0.035541337
26	0xbe3b0ca7	-0.18266545
27	0x3e531ce1	0.20616485
28	0x3e3eeb07	0.18644343
29	0xbd09d32f	-0.033648666
30	0x3cf83fe1	0.030303897
31	0x3dec4f1e	0.11538528
32	0x3e7b5eca	0.24547878
33	0x3d917ab5	0.07103483
34	0xbe652ef3	-0.22381191
35	0xbd5ad6ac	-0.053427383
36	0x3d37cc4b	0.044872563
37	0xbe951f56	-0.2912547
38	0x3d4b46b8	0.04962799
39	0x3d3e5567	0.046468165
40	0xbe5c41d0	-0.2150948
41	0x3da65ea8	0.08123523
42	0xbda223b8	-0.07916969
43	0xbf025a4a	-0.5091902
44	0x3eba6d9f	0.3641176
45	0x3f016df0	0.50558376
46	0x3d02bcaa	0.031918205
47	0xbf1204f9	-0.5703884
48	0xbe9d3874	-0.30707133
49	0x3ea00021	0.31250098
50	0x3e812a38	0.25227523
51	0xbe20f03c	-0.15716642
52	0x3e42782c	0.18991154
53	0x3d1bdf9f	0.03805506
54	0xbe8a36db	-0.26994976
55	0xbd232773	-0.039832544
56	0x3e7e201a	0.24816933
57	0xbdfd3935	-0.12364427
58	0x3e3d7d21	0.18504764
59	0xbd8a739f	-0.06760334
60	0x3e3e1627	0.18563138
61	0x3d014c05	0.03156664
62	0xbea34515	-0.31888643
63	0xbe057189	-0.13031591
64	0xbd58fd6e	-0.052976064
65	0x3e37b8da	0.17941609
66	0x3e865cf3	0.2624279
67	0xbc0b9782	-0.008520009
68	0xbdf9172b	-0.12162622
69	0xbe3761e5	-0.17908438
70	0x3e464654	0.19362766
71	0x3ebc1ae5	0.3673927
72	0x3e83ae72	0.2571903
73	0x3e6018e8	0.21884501
74	0x3e093268	0.13398135
75	0x3dfe1e5f	0.124081366
76	0xbc8f1e61	-0.01747054
77	0xbe1e4514	-0.15456039
78	0xbd78bb9d	-0.060725797
79	0x3dc35984	0.09538558
80	0x3ec1807e	0.37793344
81	0x3de29996	0.110644504
82	0xbe8f3f10	-0.279778
83	0xbebedb4a	-0.3727668
84	0xbe6bff3c	-0.23046583
85	0x3e21f58f	0.1581633
86	0x3ebbc423	0.36673078
87	0xbebf74d5	-0.37393823
88	0x3da93ed7	0.08263939
89	0xbeb4884c	-0.35260236
90	0xbcee68c7	-0.029102696
91	0xbd06b5b5	-0.032888133
92	0x3e3a5278	0.18195522
93	0xbdb805cd	-0.089854814
94	0x3e746252	0.23865631
95	0x3eb6fd17	0.35739967
96	0xbbca16dd	-0.0061672763
97	0x3e7a868d	0.2446539
98	0xbe099be9	-0.13438381
99	0xbd09f7ba	-0.033683516
100	0xbe0e3514	-0.13887435
101	0xbe8aa8f8	-0.27082038
102	0x3e6e06f7	0.23244844
103	0xbeabe0eb	-0.33570036
104	0xbdf05626	-0.117351815
105	0x3e8a95c3	0.27067384
106	0x3d18fd23	0.037350785
107	0x3e952f1c	0.29137504
108	0x3eb33a6c	0.3500551
109	0xbeb51737	-0.35369274
110	0x3e1474c4	0.14497668
111	0xbe84bb4a	-0.2592414
112	0xbdc67e28	-0.09692031
113	0x3e1fc3e9	0.15602078
114	0x3e576b06	0.2103692
115	0x3e92d4d4	0.28678
116	0xbe430816	-0.19046053
117	0x3eef707d	0.4676551
118	0xbe213ef0	-0.15746665
119	0x3d825c6e	0.06365286
120	0x3da94db0	0.08266771
121	0x3dbaeb67	0.09126931
122	0xbeccbb59	-0.39986685
123	0xbd63fe15	-0.055662233
124	0x3dd2270a	0.10261352
125	0xbeafe209	-0.3435214
126	0xbe76b6e0	-0.24093199
127	0xbd930ab5	-0.071797766
128	0xbd4b342e	-0.04961031
129	0xbdbaec31	-0.09127081
130	0x3eb417cd	0.3517441
131	0xbc500605	-0.012696748
132	0xbefb5bfe	-0.49093622
133	0x3ed5ff98	0.41796565
134	0x3ec4c386	0.38430423
135	0xbc90e71c	-0.017688327
136	0x3e9131d3	0.28358325
137	0x3e289a88	0.16465199
138	0xbd5b1995	-0.053491194
139	0xbcd7163d	-0.026255721
140	0x3e85cbd0	0.2613206
141	0x3e99e8b9	0.30060366
142	0xbed5bf01	-0.41747287
143	0xbc48930d	-0.012242091
144	0x3e8ce640	0.27519417
145	0xbe156f5b	-0.1459326
146	0x3c69c24d	0.014267516

gru_dp_fw.bias_ih_l0 f4 [21]
0	0xbea0e3b7	-0.31423733
1	0xbd89991a	-0.06718655
2	0x3e2d6470	0.16932845
3	0x3d758add	0.059946883
4	0x3cdb7685	0.026789913
5	0x3daab14a	0.083345965
6	0x3e69b8f6	0.22824463
7	0x3e794583	0.24342923
8	0x3d709a0b	0.058740657
9	0x3e760415	0.24024995
10	0x3ebb2b9a	0.36556703
11	0x3d859300	0.06522179
12	0x3c43b61b	0.011945273
13	0x3e9a4b85	0.30135742
14	0xbdc5ff43	-0.09667828
15	0xbccf2cd5	-0.025289932
16	0x3e8e8d7b	0.27842316
17	0x3c9430c1	0.018089654
18	0xbde6fa1d	-0.11278174
19	0xbe49fd8b	-0.19725625
20	0x3d011746	0.031516336

gru_dp_fw.bias_hh_l0 f4 [21]
0	0x3db80be9	0.08986647
1	0xbc2f368f	-0.01069416
2	0xbe92a869	-0.28644112
3	0xbe8b4697	-0.27202293
4	0x3ea4dd0e	0.321999
5	0x3d4a7eb2	0.049437232
6	0x3e865c10	0.26242113
7	0x3eaf8cf7	0.34287235
8	0xbebb3117	-0.3656089
9	0x3e8c99a0	0.27460957
10	0x3ead45e9	0.338424
11	0xbeb00942	-0.34382063
12	0xbd19621e	-0.037447087
13	0x3e7b7533	0.24556427
14	0x3e97276d	0.29522267
15	0xbe83f7de	-0.25775045
16	0xbda2b2dc	-0.07944271
17	0x3eacf3c4	0.33779728
18	0xbd9d1fd3	-0.076720856
19	0x3e8d3b2d	0.2758421
20	0xbda440ef	-0.080201976

gru_cp_fw.weight_ih_l0 f4 [18, 6]
0	0x3e67af8a	0.22625557
1	0xbede690b	-0.43439516
2	0xbe4514ba	-0.19246188
3	0x3e94619b	0.28980717
4	0xbdb4cefa	-0.0882854
5	0x3eca6a52	0.3953424
6	0x3d027afd	0.031855572
7	0x3e197aff	0.14988326
8	0x3e11ff49	0.1425754
9	0xbeba2fd1	-0.36364606
10	0x3e922675	0.28544965
11	0xbdc0b01d	-0.09408591
12	0x3d09bcfc	0.033627495
13	0xbcc1c5fd	-0.023653978
14	0x3e92cdad	0.28672543
15	0x3dd1737f	0.10227107
16	0xbc191397	-0.0093430495
17	0xbe1fe715	-0.15615495
18	0x3d6de11c	0.05807601
19	0x3e67fdc6	0.226554
20	0x3e95eca3	0.29282102
21	0xbddd27f3	-0.10798635
22	0xbe8101be	-0.25196642
23	0x3e724822	0.23660329
24	0xbe31d0e2	-0.17364839
25	0xbd932005	-0.071838416
26	0x3e37fd40	0.17967701
27	0x3e8c0253	0.27345523
28	0xbedff831	-0.43744043
29	0xbddb405f	-0.10705637
30	0x3cc0d000	0.023536682
31	0x3e63e514	0.22255355
32	0x3e850f30	0.2598815
33	0xbdaf0284	-0.08545402
34	0xbd469940	-0.048485994
35	0x3eb2e561	0.34940627
36	0x3ead934d	0.33901444
37	0x3abd3fe6	0.0014438599
38	0xbf03edbe	-0.5153464
39	0x3eabe184	0.33570492
40	0xbf04c776	-0.51866853
41	0x3e47653e	0.19472215
42	0xbee1ffd3	-0.4414049
43	0x3d72aa2c	0.05924432
44	0xbd62eaff	-0.05539989
45	0x3edad19a	0.42738038
46	0x3e3eb525	0.18623789
47	0xbe29d4ee	-0.16585132
48	0xbde0ac42	-0.109703556
49	0xbecd4073	-0.40088233
50	0x3ed03ec5	0.4067289
51	0xbc794108	-0.015213259
52	0x3ed1a518	0.4094627
53	0xbeb3be22	-0.35105997
54	0xbe11bced	-0.14232226
55	0x3d9c4b75	0.0763158
56	0x3f0fecee	0.562209
57	0x3c204896	0.009782931
58	0x3e78b911	0.24289347
59	0x3e59bbfe	0.2126312
60	0x3dc95aa1	0.09831739
61	0x3f19baa2	0.60050404
62	0xbea5bf5c	-0.32372558
63	0xbdb7277f	-0.0894308
64	0x3e8d4276	0.27589768
65	0x3e967df3	0.29392967
66	0xbdbbb371	-0.09165085
67	0x3e496b7b	0.19669907
68	0x3d5e12ef	0.054217275
69	0x3e060a47	0.13089858
70	0x3da64b2f	0.08119809
71	0xbeeeb26c	-0.466205
72	0xbe2617cf	-0.1622002
73	0xbebb59c7	-0.36591932
74	0x3eb0b09c	0.34509742
75	0xbe65bd3c	-0.22435468
76	0x3eeea5df	0.46610925
77	0x3ea17d1a	0.31540757
78	0xbe4274bc	-0.18989843
79	0x3ec6d28e	0.38832515
80	0x3db8124b	0.08987864
81	0x3e83219c	0.2561158
82	0x3dd6769c	0.10471842
83	0xbdcba7b2	-0.09944095
84	0x3ebaa51b	0.3645409
85	0xbe8dd914	-0.2770468
86	0x3ef20836	0.4727189
87	0xbdbba0e0	-0.09161544
88	0x3e766676	0.24062523
89	0x3e2944a4	0.1653009
90	0xbc49ca60	-0.012316316
91	0xbec80ce4	-0.39072335
92	0xbf0ec6df	-0.55772203
93	0x3d1a16eb	0.037619513
94	0x3d260299	0.04052982
95	0xbdebf84d	-0.11521969
96	0x3e1d4ecc	0.1536209
97	0x3ec95ad4	0.3932711
98	0xbdac9286	-0.08426385
99	0x3e4b05cd	0.19826432
100	0xbe8911c5	-0.2677137
101	0xbf078e7d	-0.52951795
102	0x3e98bb91	0.29830602
103	0xbef10de7	-0.4708092
104	0xbeb9ac63	-0.36264333
105	0x3de89e0c	0.1135827
106	0xbdedfe38	-0.11620754
107	0x3ea21034	0.31652987

gru_cp_fw.weight_hh_l0 f4 [18, 6]
0	0xbeb2ef04	-0.3494798
1	0xbd743476	-0.059620343
2	0xbefee4d3	-0.49783954
3	0x3ec42768	0.38311315
4	0x3d353487	0.044239547
5	0xbd18d54a	-0.037312783
6	0xbc82cc38	-0.01596652
7	0xbea24f66	-0.317012
8	0xbd555359	-0.05208144
9	0x3ef28c05	0.4737245
10	0xbde2c892	-0.11073412
11	0x3e855a09	0.26045254
12	0xbe8cebb6	-0.27523583
13	0xbc86aa88	-0.016438738
14	0x3eb97c60	0.36227703
15	0xbc8f3521	-0.017481389
16	0xbe8b4a5d	-0.27205172
17	0xbec73730	-0.38909292
18	0x3e80de65	0.25169674
19	0x3ee8d5aa	0.45475513
20	0xbdf8937e	-0.12137507
21	0x3e5c82e3	0.21534304
22	0x3e43f795	0.19137414
23	0xbe82a980	-0.25519943
24	0x3edb1c7f	0.42795178
25	0xbe15ba01	-0.14621736
26	0x3ead7ada	0.3388279
27	0x3e8cde85	0.2751352
28	0x3eadca43	0.33943376
29	0xbe7756d7	-0.2415422
30	0x3df4fea9	0.11962635
31	0x3d7447c2	0.059638746
32	0xbd57b31d	-0.05266105
33	0x3ed15757	0.40886948
34	0xbec0227b	-0.37526307
35	0x3e25cf06	0.16192254
36	0x3ef8c63b	0.48588738
37	0xbde33c44	-0.11095479
38	0xbc1333ce	-0.008984519
39	0xbd6e06b1	-0.05811185
40	0xbebb74e2	-0.36612612
41	0x3eb52dec	0.35386598
42	0x3ec9bc4b	0.3940147
43	0x3dc23ada	0.09483881
44	0x3e8f666c	0.2800783
45	0xbe3e7983	-0.1860104
46	0x3e476ba3	0.19474654
47	0xbe287ddf	-0.16454266
48	0x3e76666e	0.24062511
49	0x3e167bdd	0.14695688
50	0xbf277639	-0.6541477
51	0x3debb6be	0.11509465
52	0x3d4829ad	0.04886787
53	0x3e18884d	0.14895745
54	0xbe04685b	-0.12930433
55	0xbd1f9619	-0.038961504
56	0xbe6bf9a3	-0.23044448
57	0xbc79b546	-0.015240973
58	0xbe89e08a	-0.26929122
59	0x3e13dbe9	0.14439358
60	0xbb448397	-0.002998566
61	0x3e2b273d	0.16714187
62	0x3ae31efb	0.0017327958
63	0x3e9501d7	0.29102966
64	0xbe9d0e84	-0.30675137
65	0xbe8ac3cb	-0.27102503
66	0x3dba605c	0.0910041
67	0xbef66d7a	-0.481304
68	0x3e222657	0.15834938
69	0xbe851378	-0.25991416
70	0x3d23a87d	0.039955605
71	0x3e8efe90	0.2792859
72	0x3cbf4a11	0.023350747
73	0x3e002869	0.12515415
74	0x3db30565	0.08741263
75	0x3d1aa671	0.037756387
76	0x3dc76ece	0.09737931
77	0xbecad558	-0.39615893
78	0xbd6f093a	-0.05835841
79	0x3e129681	0.14315225
80	0xbe2ad13d	-0.1668138
81	0xbf0dd5d0	-0.55404377
82	0xbc38a41d	-0.011269596
83	0xbdc4c05b	-0.096070014
84	0x3e878452	0.2646814
85	0x3eae64e9	0.34061363
86	0xbd418f78	-0.047255963
87	0xbe3f1712	-0.18661144
88	0x3d61df50	0.055144608
89	0x3d9298cd	0.07158051
90	0xbd5a974c	-0.053366944
91	0x3ead697f	0.3386955
92	0xbe87326e	-0.26405662
93	0x3e797a13	0.24362974
94	0x3e5a66b0	0.21328235
95	0xbe158581	-0.14601709
96	0xbd09c4e6	-0.033635043
97	0x3c62a7d9	0.013833963
98	0x3e164813	0.14675932
99	0xbf010e26	-0.50412214
100	0xbea35a80	-0.31904984
101	0xbeddb4e3	-0.43302068
102	0x3e456b71	0.19279267
103	0x3cca7cd0	0.024717718
104	0xbd9931f2	-0.074802294
105	0x3ed7cbe1	0.42147735
106	0xbe451703	-0.1924706
107	0xbeb8f2ca	-0.36122733

gru_cp_fw.bias_ih_l0 f4 [18]
0	0x3e5c3668	0.2150513
1	0x3e80a5fc	0.25126636
2	0x3dde1d4e	0.10845433
3	0xbd50fffe	-0.051025383
4	0x3dff0d26	0.1245368
5	0xbec2203d	-0.3791522
6	0x3e8475cb	0.2587112
7	0x3ebd4db4	0.36973345
8	0x3e0af1c2	0.13568786
9	0x3ec983ae	0.39358276
10	0xbe03535e	-0.12824771
11	0xbe40ced4	-0.18828899
12	0x3df985ef	0.12183749
13	0x3e11f1e3	0.14252429
14	0x3e9a6084	0.3015176
15	0x3df89c39	0.12139172
16	0x3e85f538	0.2616365
17	0x3d19efca	0.037582196

gru_cp_fw.bias_hh_l0 f4 [18]
0	0xbee94782	-0.4556237
1	0xbe7353ab	-0.23762386
2	0xbeb69b52	-0.35665375
3	0xbea8e92d	-0.329904
4	0xbd811b7f	-0.063040726
5	0xbea76680	-0.3269539
6	0xbea8f5b0	-0.32999945
7	0x3d7cea13	0.061746668
8	0x3b649397	0.003487801
9	0xbe5fbf79	-0.21850385
10	0x3e7e4b51	0.24833418
11	0x3e01e239	0.12683953
12	0x3e6ab659	0.22921123
13	0xbea38ea2	-0.31944758
14	0x3d94ab42	0.07259227
15	0xbe06ccc7	-0.13164054
16	0xbd30cc29	-0.043163452
17	0x3e0a44f8	0.13502872

gru_dp_bw.weight_ih_l0 f4 [21, 7]
0	0x3ed12b09	0.40853146
1	0x3e405a56	0.1878446
2	0xbd4d9cca	-0.050198354
3	0x3d6e4e64	0.058180228
4	0xbe6a59ff	-0.22885893
5	0xbceb793e	-0.028744336
6	0x3eccc00d	0.39990273
7	0x3d9b496a	0.07582362
8	0x3ebfd26c	0.37465227
9	0xbe336210	-0.17517877
10	0x3e7e71b4	0.24848062
11	0xbe3efbcc	-0.1865074
12	0xbd097ba6	-0.033565186
13	0xbee89739	-0.45427874
14	0xbf0e904f	-0.5568895
15	0xbe1b4aa2	-0.15165189
16	0x3ebef6a0	0.37297535
17	0xbe01e2c1	-0.12684156
18	0x3cef6a9e	0.029225644
19	0x3f17db49	0.5931898
20	0x3f3f8ef5	0.7482751
21	0x3ee36239	0.44410875
22	0x3e86fd80	0.2636528
23	0xbe761b9f	-0.24033974
24	0x3dca9f31	0.098936446
25	0x3e9e4f2d	0.3091978
26	0x3dccdb95	0.100028194
27	0x3e20827e	0.15674779
28	0x3db560cf	0.088563554
29	0x3d6619c8	0.05617693
30	0x3ed964fa	0.42459852
31	0x3e37d700	0.1795311
32	0xbd812c1c	-0.06307241
33	0x3f005345	0.5012706
34	0x3edcc73a	0.43120748
35	0xbeb91d80	-0.3615532
36	0xbc957f72	-0.018249247
37	0xbe2ffbc6	-0.17185888
38	0x3cdc1023	0.026863163
39	0xbe3db8c4	-0.18527514
40	0x3e6ea615	0.23305543
41	0x3f49f9ee	0.7889699
42	0xbe7f5dec	-0.24938172
43	0x3ebdf4ad	0.37100735
44	0x3e391a8c	0.18076533
45	0x3e56b023	0.20965628
46	0x3e88649c	0.2663926
47	0x3ed25e19	0.41087416
48	0x3e87bd58	0.26511645
49	0xbe01f07f	-0.12689398
50	0x3d7904ed	0.060795713
51	0xbe382f4e	-0.17986795
52	0xbe0f0f84	-0.13970762
53	0xbe9ddd5a	-0.3083294
54	0x3e724ebd	0.23662849
55	0xbe81724d	-0.25282517
56	0x3d8e6ddf	0.0695455
57	0x3d03ebf7	0.032207455
58	0x3ddaa53e	0.10676049
59	0xbef801c0	-0.48438835
60	0xbe7e83f9	-0.24855031
61	0xbe066759	-0.13125362
62	0x3ec2749c	0.3797959
63	0x3e865975	0.26240125
64	0xbea700c2	-0.32617766
65	0x3db2f966	0.08738975
66	0x3e78fbe9	0.24314846
67	0xbe9d2a55	-0.3069636
68	0x3e1d2338	0.15345466
69	0xbebe8033	-0.37207183
70	0x3dc38c5e	0.09548257
71	0x3eb8131c	0.3595208
72	0xbe60e5ea	-0.21962705
73	0xbd284ba0	-0.041087747
74	0xbeef40a1	-0.46728995
75	0x3ea68f72	0.32531315
76	0xbeee19e6	-0.46504134
77	0xbdd359eb	-0.10319885
78	0x3df3e4b9	0.1190886
79	0x3e0c0523	0.13673835
80	0xbd5c8067	-0.05383339
81	0x3e0e8189	0.13916601
82	0xbcb4d956	-0.02207629
83	0x3dace219	0.08441562
84	0xbe0cfdf2	-0.13768747
85	0xbebcbe59	-0.36863974
86	0x3ea4d4d6	0.3219363
87	0xbecbd528	-0.39811063
88	0xbe0f59f7	-0.13999163
89	0xbd7d3ba0	-0.06182444
90	0x3ec9510f	0.39319655
91	0xbd822938	-0.06355518
92	0xbec63ec4	-0.3871976
93	0x3dd8aae1	0.105794676
94	0xbdeb912b	-0.11502298
95	0xbe0830bb	-0.13299839
96	0xbed2874e	-0.41118854
97	0x3e877f90	0.2646451
98	0x3e88de07	0.26731893
99	0xbd8b7e76	-0.0681123
100	0xbe48a416	-0.19593844
101	0xbe0e0031	-0.1386726
102	0x3dfe6c06	0.124229476
103	0xbcf7f917	-0.030270142
104	0xbee47da5	-0.4462711
105	0xbe1be335	-0.15223391
106	0x3e31a4c3	0.17348008
107	0x3e18198b	0.14853494
108	0xbdfdadff	-0.12386703
109	0xbdad59aa	-0.08464368
110	0xbe7186de	-0.23586604
111	0x3ec0493a	0.37555867
112	0xbe588a7d	-0.21146579
113	0xbe88a5f9	-0.26689127
114	0x3e9ae62b	0.3025373
115	0x3ebf3bce	0.37350315
116	0xbe373b9d	-0.17893834
117	0x3e53fdab	0.20702235
118	0x3f50207f	0.81299585
119	0xbddf50c3	-0.10904076
120	0xbf0372df	-0.51347154
121	0x3e064e4d	0.13115807
122	0xbcad502d	-0.021156395
123	0x3e4ae626	0.19814357
124	0xbe234065	-0.15942533
125	0xbf7f8b85	-0.99822265
126	0xbbdd917d	-0.0067617283
127	0xbd02943b	-0.031879645
128	0x3e47c125	0.19507273
129	0xbd68c3b7	-0.056827273
130	0xbdb30f88	-0.08743197
131	0xbe323612	-0.17403439
132	0xbd975e3c	-0.07391021
133	0x3ea614bd	0.32437697
134	0x3dcbf2c6	0.09958415
135	0xbe3c414c	-0.18384284
136	0x3e2aae2f	0.16668008
137	0x3e2c4753	0.16824083
138	0x3e3c4c49	0.18388475
139	0xbed8fe71	-0.42381623
140	0x3e109d1c	0.14122432
141	0x3e7733d5	0.24140866
142	0xbe74bd60	-0.23900366
143	0x3d3a76da	0.045523502
144	0xbe0d2ddc	-0.13787025
145	0x3eba9920	0.3644495
146	0xbf522bbd	-0.8209799

gru_dp_bw.weight_hh_l0 f4 [21, 7]
0	0xbe9f0b44	-0.31063282
1	0x3e06221e	0.13098952
2	0x3ec86836	0.39142007
3	0x3ebe5ab3	0.37178573
4	0xbdec3e66	-0.11535339
5	0xbd7a05b6	-0.061040603
6	0x3dd665ee	0.1046866
7	0x3edd7247	0.4325125
8	0x3f097f07	0.53709453
9	0xbf0a16d1	-0.53941065
10	0x3eecb75a	0.46233636
11	0x3ecf9629	0.4054425
12	0x3e73973a	0.23788157
13	0x3ea4d8c4	0.3219663
14	0xbe049dfb	-0.1295089
15	0x3eab2352	0.33425385
16	0xbd791df1	-0.06081957
17	0xbe8d2146	-0.27564448
18	0x3dd4803e	0.10376023
19	0xbedbd969	-0.42939308
20	0xbeb9fa50	-0.36323786
21	0xbe774e7b	-0.24151032
22	0xbdf7db56	-0.12102382
23	0x3e3176c7	0.17330466
24	0x3d36a741	0.0445931
25	0xbe75f189	-0.2401792
26	0x3e9708f7	0.29499027
27	0xbe986594	-0.29764998
28	0x3eb69d23	0.3566676
29	0x3e3d5f27	0.18493329
30	0x3df8df90	0.12152016
31	0xbd893405	-0.06699375
32	0xbd0ebb67	-0.03484669
33	0x3dbb381d	0.09141562
34	0x3ddeaa29	0.10872299
35	0x3df84d24	0.121240884
36	0xbeb554d6	-0.35416287
37	0x3de98631	0.11402548
38	0x3cc6fd54	0.024290718
39	0x3ce45c99	0.027876185
40	0xbe9ccbe3	-0.30624303
41	0xbdfa696d	-0.122271396
42	0xbedad425	-0.42739978
43	0x3d4a500d	0.04939275
44	0x3f0517a6	0.5198921
45	0x3e5386f1	0.20656945
46	0xbf0f2371	-0.55913454
47	0xbdce8d82	-0.10085584
48	0x3e3401cb	0.17578809
49	0x3cc9628b	0.024583122
50	0x3eb6d4a5	0.3570911
51	0x3eb20c8e	0.34775203
52	0x3d9953f4	0.07486716
53	0xbe0d3817	-0.13790928
54	0xbe5b7073	-0.21429615
55	0xbe1311dc	-0.14362282
56	0x3e10c6f8	0.141384
57	0xbec586c9	-0.38579395
58	0x3e8f24d3	0.27957782
59	0xbe176cf9	-0.14787664
60	0xbe156c79	-0.1459216
61	0xbe2ae4c0	-0.16688824
62	0xbcf9746d	-0.030451024
63	0x3d6fbe39	0.05853102
64	0xbe50cda9	-0.20390953
65	0x3e8919ba	0.2677744
66	0xbd82a319	-0.06378765
67	0x3cc92abf	0.024556516
68	0x3db90dc0	0.09035826
69	0xbe487c4e	-0.19578668
70	0xbe80a8c0	-0.25128746
71	0x3e0a3d2e	0.134999
72	0x3e27a122	0.16370061
73	0x3df69e10	0.12041867
74	0xbe710148	-0.23535645
75	0x3e1684db	0.14699118
76	0xbf229b77	-0.6351847
77	0x3d817c68	0.06322557
78	0xbe87bd91	-0.26511815
79	0x3ea58cdb	0.32334027
80	0x3df0d7ca	0.117599085
81	0xbe2be5d9	-0.16786899
82	0xbed1714c	-0.4090675
83	0xbb889834	-0.0041685347
84	0x3e20d2ec	0.1570546
85	0xbdff58d8	-0.124681175
86	0x3de0c5c0	0.10975218
87	0x3ebbd24b	0.36683878
88	0x3e4cd3ea	0.20002714
89	0xbe1a8f9e	-0.15093848
90	0x3ee0aed0	0.4388337
91	0xbea4b63d	-0.32170287
92	0xbe0f664a	-0.14003864
93	0xbc7baf55	-0.015361627
94	0x3d82e743	0.06391766
95	0xbeae2a9f	-0.34016892
96	0x3e85f0f2	0.2616039
97	0x3e3bb83e	0.18332002
98	0xbcd9ba2e	-0.026578035
99	0xbd967b7d	-0.07347772
100	0x3d28d06b	0.041214388
101	0x3f4514e8	0.76985025
102	0xbe1b7834	-0.15182573
103	0x3f04582a	0.5169703
104	0x3f1a096c	0.60170627
105	0x3eb35594	0.35026228
106	0xbeb00374	-0.34377635
107	0xbd2e6b4b	-0.04258279
108	0x3de306e3	0.11085298
109	0x3f02bffe	0.51074207
110	0x3d1d8bae	0.038463287
111	0x3e462b91	0.19352557
112	0xbe9ddeb1	-0.30833963
113	0xbe540c2c	-0.20707768
114	0xbdece8c8	-0.11567837
115	0xbeeb2c5e	-0.45932287
116	0xbef6c665	-0.48198238
117	0xbf069b25	-0.5258048
118	0xbec0894e	-0.37604755
119	0x3e2e3234	0.17011338
120	0xbece31f0	-0.40272474
121	0xbee42b7a	-0.4456442
122	0x3f2bcd7c	0.6711042
123	0xbdc3eb9d	-0.09566424
124	0x3e173af4	0.14768583
125	0x3f043d10	0.51655674
126	0x3f3c421e	0.73538387
127	0xbc46a040	-0.0121231675
128	0xbd59b9aa	-0.05315558
129	0x3f86ead5	1.0540415
130	0x3e395218	0.18097723
131	0x3e0021dc	0.12512916
132	0x3e930d8e	0.2872128
133	0x3eeb7922	0.45990855
134	0xbeadb746	-0.3392889
135	0xbeac890f	-0.33698317
136	0x3f035c19	0.51312405
137	0x3e72e0ec	0.23718613
138	0x3e7d9ed4	0.2476762
139	0x3ed2f82b	0.41204962
140	0x3f1c9f55	0.6118062
141	0xbd2a3159	-0.041550968
142	0xbecc588b	-0.39911303
143	0x3f524405	0.8213504
144	0xbe15590c	-0.1458475
145	0x3d8372aa	0.06418355
146	0xbdc2371d	-0.09483168

gru_dp_bw.bias_ih_l0 f4 [21]
0	0x3e63c25d	0.22242112
1	0xbdd78f48	-0.105253756
2	0x3e964f44	0.2935735
3	0x3ee57382	0.44814688
4	0x3f08849f	0.53327364
5	0x3e1410ad	0.14459486
6	0x3ea56dff	0.32310483
7	0x3eed0d8f	0.46299407
8	0xbea7bc70	-0.32760954
9	0x3f2d2e22	0.6764852
10	0x3e68d9eb	0.22739379
11	0x3e37a208	0.17932904
12	0x3f0822de	0.53178203
13	0x3ed75f08	0.4206469
14	0xbe16b863	-0.14718775
15	0x3d815e97	0.0631687
16	0xbda0bbe2	-0.07848336
17	0x3e1dfe65	0.15429075
18	0xbe3d4372	-0.1848276
19	0x3d3f3a47	0.046686437
20	0xbde7ccce	-0.1131836

gru_dp_bw.bias_hh_l0 f4 [21]
0	0x3ef0aba3	0.47005948
1	0x3ecb1503	0.39664468
2	0xbe02da42	-0.12778571
3	0x3f0dd6b3	0.5540573
4	0x3f4db23a	0.8035008
5	0x3f093efb	0.53611726
6	0x3e22aad6	0.15885481
7	0x3e0b6041	0.13610937
8	0xbe249501	-0.16072465
9	0x3f485fff	0.7827148
10	0x3f299d5d	0.6625574
11	0x3e7e7bae	0.24851868
12	0x3e889155	0.2667338
13	0x3ec6e37b	0.3884543
14	0x3cc144e4	0.02359242
15	0x3ec01d05	0.3752214
16	0x3e264c22	0.1623998
17	0x3ddb3530	0.10703504
18	0x3e2f3c83	0.17112927
19	0xbe0a1396	-0.13484034
20	0xbe412ff2	-0.18865946

gru_cp_bw.weight_ih_l0 f4 [18, 6]
0	0x3e9d5081	0.30725482
1	0x3dd7e9c9	0.10542638
2	0xbea2e7b8	-0.31817412
3	0xbe1ebeed	-0.1550252
4	0xbeb3c14c	-0.3510841
5	0x3ed2a0c4	0.4113828
6	0x3e29fbbc	0.16599935
7	0x3c5e64e1	0.013573856
8	0x3e1b59df	0.15171002
9	0xbd5ba036	-0.053619586
10	0xbe012f5e	-0.12615725
11	0xbe9faed6	-0.31188077
12	0xbde1a612	-0.110180035
13	0xbd3dded1	-0.046355072
14	0x3d80aedf	0.06283354
15	0x3e89e7ea	0.2693475
16	0x3e4c0c4d	0.19926567
17	0xbe2a7f68	-0.16650164
18	0x3e38d66c	0.18050545
19	0x3ee0acaa	0.43881732
20	0x3ed51b4b	0.41622385
21	0xbd9d4814	-0.076797634
22	0x3ec55ddd	0.38548175
23	0xbda711f4	-0.08157721
24	0xbeaddbb3	-0.3395668
25	0xbf124796	-0.5714048
26	0xbe6760e6	-0.22595558
27	0x3e292bb7	0.16520582
28	0xbec45546	-0.38346308
29	0x3d1ad3a3	0.03779949
30	0x3ec33cbd	0.38132277
31	0xbe987033	-0.297731
32	0x3e89cb85	0.26913086
33	0xbd8798bb	-0.06620928
34	0x3dd5fecc	0.10448989
35	0xbd7103c3	-0.058841478
36	0xbed35064	-0.4127227
37	0xbe613990	-0.21994615
38	0xbec0cbae	-0.37655395
39	0x3d87f1fa	0.0663795
40	0x3e80459a	0.25053102
41	0x3d5c1c4f	0.053737935
42	0x3d3f7c93	0.046749663
43	0xbe89c2d0	-0.26906443
44	0x3e3772ab	0.17914836
45	0xbd815436	-0.0631489
46	0xbe8ad333	-0.27114257
47	0x3e6dfecc	0.23241729
48	0xbee80e73	-0.45323524
49	0x3c8f1c43	0.01746953
50	0xbd4c654d	-0.049901295
51	0x3e87a2b9	0.26491335
52	0x3e90c113	0.28272304
53	0xbe4754b6	-0.19465908
54	0x3e306f55	0.1722997
55	0xbe9b68e9	-0.30353478
56	0x3d50674d	0.050879765
57	0xbe049454	-0.12947208
58	0xbebe73a5	-0.37197605
59	0xbe5b09ce	-0.21390459
60	0x3e8edc7f	0.279026
61	0x3e85f31b	0.26162037
62	0x3ec31519	0.38102034
63	0xbe223933	-0.15842132
64	0x3ef265b1	0.4734321
65	0x3e957291	0.2918897
66	0xbe3f6534	-0.1869095
67	0x3d46024a	0.048342027
68	0x3e4c96f6	0.19979462
69	0xbd79f492	-0.061024256
70	0x3f1e5c0f	0.6185922
71	0xbeff23cf	-0.49832007
72	0x3eb69f14	0.35668242
73	0x3eba23b4	0.36355364
74	0x39735ba1	0.0002320842
75	0xbd672214	-0.056428984
76	0xbda117ac	-0.07865843
77	0x3e4ac1ff	0.19800566
78	0x3eb3c46d	0.35110798
79	0xbc2c4561	-0.010514588
80	0xbed280ea	-0.4111398
81	0x3e3029b2	0.17203405
82	0xbe2b304f	-0.16717647
83	0xbe70a02f	-0.23498605
84	0xbead0c14	-0.33798277
85	0xbea2a1c2	-0.31764036
86	0xbe2c60e2	-0.16833833
87	0xbe4887b8	-0.19583023
88	0x3ea1d80d	0.31610146
89	0xbe121f27	-0.14269696
90	0xbd8385a0	-0.06421971
91	0xbefff3c9	-0.4999068
92	0x3e81d454	0.25357306
93	0xbee3557a	-0.4440115
94	0x3ba831f9	0.0051329103
95	0x3eb5314c	0.35389173
96	0xbe4a4ab9	-0.19755067
97	0x3d1bccdd	0.03803717
98	0xbe6b6dd8	-0.22991121
99	0x3e8c2049	0.27368382
100	0xbecd81e7	-0.4013817
101	0xbd6352f7	-0.055499043
102	0x3d129c76	0.035793744
103	0xbe9dad53	-0.30796298
104	0xbd524f0d	-0.05134492
105	0xbecff7c4	-0.40618718
106	0x3eff354c	0.4984535
107	0x3e57574c	0.21029395

gru_cp_bw.weight_hh_l0 f4 [18, 6]
0	0x3e7a8126	0.24463329
1	0xbea877c0	-0.32903862
2	0xbe09b0f8	-0.13446414
3	0xbee2d72e	-0.44304794
4	0xbd15890c	-0.03650765
5	0xbf1102e0	-0.5664501
6	0x3e0d225a	0.13782635
7	0xbdc5be77	-0.09655469
8	0xbe2b7264	-0.16742855
9	0xbdefae2f	-0.11703145
10	0xbebb1bf6	-0.3654477
11	0x3dafa478	0.08576292
12	0xbe5ab781	-0.21359064
13	0x3dd68567	0.10474663
14	0xbe25196f	-0.16122983
15	0x3e19a0dc	0.15002769
16	0xbc8ec198	-0.017426297
17	0x3d32672f	0.043555435
18	0xbd27a5f8	-0.040929765
19	0xbeb5fb80	-0.35543442
20	0xbefcb9e4	-0.49360573
21	0xbe8a16dc	-0.26970565
22	0x3e400e0f	0.18755363
23	0xbf2ecd5c	-0.68282104
24	0xbea03b39	-0.31295183
25	0x3e5354d6	0.20637831
26	0xbebcb6fb	-0.36858353
27	0x3bb9733d	0.0056594894
28	0x3c2647c2	0.010148944
29	0x3ec47191	0.38367894
30	0x3f11da8e	0.56974113
31	0xbe25901d	-0.16168256
32	0xbeab5f41	-0.3347111
33	0xbdbcbc37	-0.09215587
34	0xbe022b18	-0.12711751
35	0xbda41116	-0.080110714
36	0xbc90c5f5	-0.017672518
37	0x3d58cfa8	0.05293241
38	0xbe903682	-0.28166586
39	0xbec352ff	-0.38149258
40	0xbe26b828	-0.16281188
41	0xbd3a4fc2	-0.04548622
42	0xbec3737c	-0.38174045
43	0xbe2e14c9	-0.17000116
44	0x3b01467b	0.0019725848
45	0x3ece3f3a	0.40282613
46	0x3dfc8d2d	0.12331615
47	0xbe900dd8	-0.28135562
48	0x3ea44ebf	0.32091329
49	0x3e573034	0.21014482
50	0xbe11283e	-0.14175507
51	0x3d8389ba	0.06422754
52	0x3db41a73	0.08794107
53	0xbd74b350	-0.05974132
54	0x3eda67ac	0.4265722
55	0x3e326fc7	0.17425452
56	0x3e909586	0.28239077
57	0xbf1898b5	-0.5960801
58	0x3e5d4f41	0.21612264
59	0xbe84d1d9	-0.2594135
60	0x3eb35b45	0.3503057
61	0x3ee7b044	0.45251667
62	0x3d118e94	0.035536364
63	0x3e323b6f	0.17405485
64	0xbd232a10	-0.039835036
65	0xbec67c79	-0.3876684
66	0x3e7ac7fd	0.24490352
67	0x3e87f401	0.26553348
68	0x3e80cd41	0.25156596
69	0xbe11c63c	-0.14235777
70	0x3eb0caf3	0.34529838
71	0xbf0ec3f9	-0.5576778
72	0x3ec15365	0.37758937
73	0xbdbe2263	-0.092839025
74	0xbc748034	-0.014923144
75	0xbe8a256e	-0.26981682
76	0x3e3edc0c	0.18638629
77	0xbe56f732	-0.20992735
78	0xbdcbdd18	-0.0995428
79	0xbe4e57a8	-0.20150626
80	0x3daafd16	0.083490536
81	0xbe0bed1b	-0.13664667
82	0xbefec91c	-0.4976281
83	0x3ee5bfa2	0.44872767
84	0x3e50f358	0.20405328
85	0x3e8c6a1e	0.2742471
86	0x3e8ccbdd	0.27499285
87	0xbc6cca1f	-0.014452486
88	0x3e9aa2dc	0.30202377
89	0x3e4b0c22	0.19828847
90	0xbf1a8090	-0.6035242
91	0x3e986121	0.29761603
92	0x3d8c978b	0.06864842
93	0xbd222534	-0.03958626
94	0xbdc6b03c	-0.09701583
95	0x3f384ba9	0.7199045
96	0x3f0db68d	0.55356675
97	0x3b1349e9	0.0022474474
98	0x3e248246	0.1606532
99	0xbefb00da	-0.49024087
100	0x3ea2d33c	0.31801784
101	0xbec44ca1	-0.38339713
102	0xbec99192	-0.39368874
103	0xbd054d59	-0.032544468
104	0x3e904a4b	0.2818168
105	0x3f08e901	0.53480536
106	0x3e468ff0	0.19390845
107	0x3e4d4cf4	0.20048887

gru_cp_bw.bias_ih_l0 f4 [18]
0	0xbd07c094	-0.03314264
1	0xbd0cdfdf	-0.034393188
2	0x3e9df1c4	0.30848515
3	0x3f0db02a	0.5534693
4	0x3e8ef87d	0.27923957
5	0xbc1d1916	-0.0095885005
6	0xbe69367d	-0.22774692
7	0xbe842dfa	-0.25816327
8	0x3ebb1f6a	0.36547405
9	0x3c94f08e	0.018181112
10	0x3e9ca424	0.3059398
11	0xbdf47fca	-0.11938436
12	0xbe344e3a	-0.17607966
13	0xbd9819f7	-0.074268274
14	0xbe90d500	-0.28287506
15	0x3e813dc2	0.2524243
16	0xbe3ac220	-0.18238115
17	0xbeae37a5	-0.34026828

gru_cp_bw.bias_hh_l0 f4 [18]
0	0x3ecea92d	0.40363446
1	0x3e5da47d	0.21644779
2	0x3e889ae8	0.26680684
3	0x3bdf2f45	0.006811055
4	0x3e8fd759	0.28093985
5	0x3c31ed4d	0.0108598
6	0x3e80057e	0.2500419
7	0x3e4fc220	0.20288897
8	0x3ec9ca12	0.3941198
9	0xbd8c5301	-0.06851769
10	0x3def0608	0.11671072
11	0x3ec0cbc0	0.3765545
12	0x3ed96e2d	0.4246687
13	0xbe1d6aea	-0.15372816
14	0xbe1d23de	-0.15345713
15	0xbecd675d	-0.40117922
16	0xbd94d4d9	-0.0726716
17	0xbdf1ee55	-0.11813036

fc_dp.weight f4 [1, 14]
0	0x3dd2fee4	0.10302523
1	0xbe97afdb	-0.29626355
2	0xbe16d608	-0.14730084
3	0xbdd40910	-0.10353291
4	0xbdc6a4fd	-0.09699438
5	0xbe188384	-0.14893919
6	0xbdaed9b3	-0.085376166
7	0xbec2cb1d	-0.38045588
8	0xbe3cdb38	-0.18443
9	0x3ecc58a1	0.39911368
10	0xbe871796	-0.26385182
11	0xbec92f85	-0.39294067
12	0xbea403ab	-0.32034048
13	0xbeca84d0	-0.39554453

fc_cp.weight f4 [1, 12]
0	0xbe2fb459	-0.17158641
1	0x3e699f7d	0.22814746
2	0x3dda4479	0.106575914
3	0xbe5f85ed	-0.21828432
4	0x3e92bca7	0.28659555
5	0xbe7dc777	-0.24783121
6	0xbef6e266	-0.48219603
7	0xbc8fcc68	-0.017553523
8	0x3d5f49dd	0.0545138
9	0x3ea623ec	0.3244928
10	0xbe9c15c9	-0.3048537
11	0x3e4b461d	0.19850965

fc_all.weight f4 [1, 24]
0	0x3c3c1d2b	0.011481564
1	0x3b81f0bd	0.003965466
2	0x3dc379b4	0.095446974
3	0xba366b36	-0.00069587247
4	0x3c508f34	0.012729455
5	0xbdec98d2	-0.11552586
6	0xbd0ba3b4	-0.034091666
7	0x3e3bd309	0.18342222
8	0xbd9b3844	-0.07579091
9	0x3d9d6f54	0.0768725
10	0xbe3e5ebc	-0.18590826
11	0x3c5007c5	0.012697165
12	0xbdb3be83	-0.087765716
13	0xbec2eec6	-0.38072795
14	0xbdd2fd02	-0.10302164
15	0x3c1a08c6	0.009401506
16	0xbcba8dae	-0.022772636
17	0xbd6e0b9a	-0.058116533
18	0x3d0ec4a3	0.034855496
19	0xbdc79344	-0.097448856
20	0xbd93e8d3	-0.07222142
21	0xbdbc3c19	-0.0919115
22	0xbe8d2377	-0.2756612
23	0xbe2aace5	-0.16667517
