ablation2_activation_function/birnn_ode_decay/final_model.pt (torch, 76001 bytes, 49 tensors)

embed_dp.weight f4 [1292, 7]
000000 00 00 00 00 00 00 00 00 00 00 00 00 00 00 00 00
       0.0 0.0 0.0 0.0
000010 00 00 00 00 00 00 00 00 00 00 00 00 b0 66 ba bf
       0.0 0.0 0.0 -1.4562588
000020 c4 fe 36 c0 85 ba c2 bf 58 08 9b bf 4d fb 63 3f
       -2.8592997 -1.5213171 -1.2111921 0.8905533
000030 cc ad 32 bf f9 40 6d 3d b1 f7 43 3e 6a a4 00 40
       -0.69796443 0.05792329 0.19137456 2.010035
000040 c9 bc ff bd 8c a6 8e bf db a9 03 bf 0d 9d 29 c0
       -0.1248718 -1.1144576 -0.51431054 -2.6502106
000050 15 a3 4f bf 5e ee b7 be 21 07 49 bf 91 b6 cf 3e
       -0.8110822 -0.35924047 -0.785265 0.40568975
000060 17 09 9f 3f 07 c2 18 3e f6 55 74 bf fc 89 1a bf
       1.2424649 0.14917766 -0.95443666 -0.603668
000070 65 be a8 bf 7f 71 9f bf e5 2b b2 bf 90 5b 8b bf
       -1.3183104 -1.2456511 -1.3919646 -1.0887318
000080 4a a7 63 be 38 bc d4 be 21 4f 9d be 31 f3 9c 3e
       -0.22231784 -0.4154985 -0.30724433 0.3065429
000090 5b 5e cc 3f c7 85 10 bf fd bb b0 bf ab 77 84 3d
       1.5966295 -0.5645413 -1.380737 0.06468137
0000a0 c4 bf 93 bf e7 8a 5b 3f 71 c9 59 bf a1 98 40 3f
       -1.1542897 0.85758823 -0.85073 0.75232893
0000b0 7d 0a 36 bf e2 99 88 3d 2f 2b 02 be 79 05 9c 3d
       -0.71109754 0.06669976 -0.12711786 0.07618231
0000c0 30 07 e6 be a3 53 bb bf 04 9b 29 3f 3c b3 9f be
       -0.4492736 -1.4634899 0.6625216 -0.31191432
0000d0 d0 b7 8a 3f ae ad 3d bf 49 bc 5c bf 93 99 f2 be
       1.0837345 -0.7409314 -0.862248 -0.47382793
0000e0 f9 bb 2d 3f 48 fd 91 bf 64 77 2e bf df 63 45 bf
       0.6786495 -1.140542 -0.68150926 -0.77105516
0000f0 dd bc 72 be 4d 70 23 3e 19 ab a8 be fb fa ad 3e
       -0.23704858 0.15960808 -0.32943037 0.33980545
000100 08 c1 b4 3e 54 a0 48 bd 51 21 45 bf dc 69 77 3f
       0.3530352 -0.048981026 -0.7700396 0.96645904
000110 66 f5 1f 40 c3 c1 05 3f 54 1e 86 3f 83 b1 12 3f
       2.499353 0.5224878 1.0478005 0.5730211
000120 4d 44 e8 bf ce 5b c2 3f e0 5c 36 3f 1e 54 1e 3f
       -1.8145844 1.5184267 0.71235466 0.618471
000130 c8 e8 1d bf 4b ba 37 3f f8 7f f8 be 52 7f 7e 3e
       -0.6168332 0.71768636 -0.48535132 0.24853256
000140 6a e7 8f bf ef 39 7c be e5 e4 0d 3f 0e 51 05 40
       -1.1242497 -0.24631475 0.5542739 2.0830722
000150 09 d6 0f bf b5 2d 40 be 80 ec 63 3e d8 a8 43 be
       -0.56185967 -0.18767436 0.22258186 -0.19107378
000160 e5 55 48 3f 7d ec c0 3f 1c 4f 94 3f c1 f8 dd 3f
       0.78256065 1.507217 1.1586642 1.7341539
000170 92 86 9e bf dd 73 aa bf a9 a4 c0 3f 6c d9 1f bf
       -1.2384818 -1.3316609 1.505025 -0.62441134
000180 e7 b2 a2 3f 70 28 8c 3f 18 f6 12 bd be 4c 26 3f
       1.2710847 1.094984 -0.035879225 0.6496085
000190 97 d1 83 3f 6f f2 89 3c f9 aa b8 3f a5 d7 f2 bf
       1.0298337 0.016839234 1.4427177 -1.897206
0001a0 81 d3 5f bf 78 dc 43 bd d4 59 c1 be c8 fc 92 3f
       -0.87432104 -0.047817677 -0.37763846 1.1483393
0001b0 25 72 de 3c 55 fa 84 be 79 dd 79 bf 3c c2 a9 3e
       0.027154038 -0.25972238 -0.97603565 0.33156002
0001c0 9b 7f d5 3f 6f e8 ae bd e6 14 f9 bf 44 7f cb bc
       1.6679567 -0.08540427 -1.9459503 -0.024840958
0001d0 da 35 5a be 4c ab 5f bf bb d1 7d 3f b5 c5 96 3f
       -0.21309605 -0.87370753 0.9914815 1.1779085
0001e0 64 47 82 3f c3 d8 b5 3e 9e 27 06 be e8 cf a6 3f
       1.0178037 0.3551694 -0.1310105 1.3032198
0001f0 a8 16 cf 3e 36 23 13 bf 67 24 52 bf 37 fa 74 bf
       0.40446973 -0.574756 -0.82086796 -0.956943
000200 a9 28 d4 3f a0 51 d5 3e 10 dc 9d bf d7 51 05 3f
       1.6574908 0.41663837 -1.2332783 0.52078
000210 4b 06 fb 3d c1 51 3c 3e b8 a6 da 3d 27 38 a0 3f
       0.1225706 0.18390562 0.1067633 1.2517136
000220 1d 1e 5b 3f 6e 7a 4e 3f e8 31 93 bf 3c 69 16 bd
       0.85592824 0.8065556 -1.1499605 -0.036721453
000230 59 f9 4d bf 8d f5 e1 be ea e6 ef be e9 75 84 bf
       -0.804586 -0.44132653 -0.4685586 -1.0348483
000240 c9 3f 45 bf c0 4a ef bf 72 db 13 3f ab 7a b5 3f
       -0.77050453 -1.8694687 0.5775672 1.417806
000250 be 76 84 3f 1d dc ce 3c bc a4 7e be 18 8c 9d bf
       1.0348737 0.025251443 -0.24867529 -1.2308378
000260 fd c9 d2 3e 19 55 89 bf 67 ef df 3e ba 20 8b 3e
       0.4116973 -1.0729095 0.43737337 0.27173406
000270 58 08 8d 3f 89 89 b4 bd 97 a6 ef 3f 9c 7b 80 3e
       1.1018171 -0.08815295 1.8722714 0.25094306
000280 ec 45 fa bd cf 01 64 3f d6 62 e8 3f 68 2f 98 3e
       -0.12220368 0.8906526 1.8155162 0.29723668
000290 b2 55 c3 3f 14 a1 b0 bf 7c 7a c2 3d 29 f2 05 3e
       1.5260527 -1.3799157 0.09496018 0.13080658
0002a0 ff 19 29 bf e2 7a 62 3e 91 d0 ab be 96 94 89 be
       -0.6605529 0.22117189 -0.3355756 -0.26871175
0002b0 52 70 db be 3c 69 e7 3f 86 d5 03 bf 8b e0 d2 3e
       -0.4285913 1.807899 -0.51497686 0.41186938
0002c0 c0 ab 1a 40 13 4a 7e bf 7b 53 1c bf be 4f 1c 3f
       2.4167328 -0.9933178 -0.6106488 0.61059177
0002d0 92 6a f3 be ea 2e 27 40 6b 0c 8a 3f 65 d7 9d be
       -0.47542244 2.6122384 1.078504 -0.30828395
0002e0 c4 0b 43 3f e1 14 23 bf cf 3b e7 3e 07 09 88 bf
       0.7618983 -0.63703734 0.45162818 -1.0627755
0002f0 7e 02 6f bf 96 0d bd 3f 68 f1 b0 bd f8 77 e1 be
       -0.9336318 1.4769771 -0.086397946 -0.4403684
000300 84 62 f3 3e 9e b7 bc be 13 21 85 3f e7 2d 52 be
       0.475361 -0.3685884 1.0400718 -0.20525323
000310 4d 7d f2 3c 4c 5f bc 3e 68 4d a5 bc 6c a6 96 bf
       0.029600764 0.36791456 -0.020178512 -1.1769538
000320 c9 60 b4 3f 05 15 87 bf e6 53 8f 3e 3f 4f c3 be
       1.4092036 -1.055329 0.27993697 -0.38146397
000330 e9 02 15 c0 26 87 62 3f 93 4a 0d be 7e ea 87 be
       -2.3283026 0.8848747 -0.13797979 -0.2654609
000340 dc d9 94 3f 01 d5 4d be 1f 90 03 3e 91 8c 86 3f
       1.1628985 -0.20100786 0.12847947 1.0511647
000350 c9 b8 ac bf 87 ab 7d 3e 51 17 96 be 1e 50 d9 3e
       -1.3493892 0.24772464 -0.29314664 0.42443937
000360 c6 f5 80 3f 9b 09 bf be dc f1 19 3d 35 38 8c bf
       1.0075004 -0.37312016 0.03758417 -1.0954653
000370 0b f8 7e be 71 b9 68 3f 85 4a 4f 3e c1 b3 7d 3f
       -0.24899308 0.9090796 0.2024327 0.9910241
000380 33 18 58 bf 83 e8 88 3f a1 dc 75 3f 66 e9 1b c0
       -0.84411925 1.0695957 0.9603978 -2.4361205
000390 d0 b0 75 bf 82 44 fc 3e 4a 40 69 bf 43 3c 96 bf
       -0.9597292 0.49271017 -0.9111372 -1.173714
0003a0 c9 74 16 40 1c 9a fc 3e a7 48 79 3f ab d5 00 3f
       2.350878 0.49336326 0.97376484 0.5032603
0003b0 a6 84 86 be f9 db 3d bf 51 26 6a bf 24 8e 23 3e
       -0.26273078 -0.74163777 -0.91464716 0.15972191
0003c0 40 f2 0e c0 09 85 9d bf b5 67 af 3e d2 45 a9 3e
       -2.2335358 -1.2306224 0.3425881 0.3306108
0003d0 ba e0 62 bf 7c 37 27 bf 43 02 a4 3f cd fe 40 3d
       -0.88624156 -0.6531904 1.281319 0.047117997
0003e0 5f 0c eb 3d d3 1e a9 3f 8e 02 8b be cc 8e 00 c0
       0.11476969 1.3212532 -0.27150387 -2.0087156
0003f0 95 00 44 bf aa fa 95 bf 56 78 31 3f a6 ea 1b 3f
       -0.7656339 -1.1717122 0.69324243 0.6090492

embed_cp.weight f4 [620, 6]
000000 00 00 00 00 00 00 00 00 00 00 00 00 00 00 00 00
       0.0 0.0 0.0 0.0
000010 00 00 00 00 00 00 00 00 9d 51 8d be f8 cb 39 3f
       0.0 0.0 -0.27601328 0.72576857
000020 44 1b 34 bf 63 5a 48 bf d7 a1 ba 3f ce a9 fa be
       -0.70354104 -0.7826292 1.458064 -0.48957676
000030 47 57 06 be 6a 92 af 3f 53 61 d0 3e eb 51 8b be
       -0.13119231 1.3716557 0.40699252 -0.27210936
000040 73 a7 bc bf f8 05 a4 be ed 08 79 be 4d 27 94 3f
       -1.4738601 -0.32035804 -0.24319811 1.1574494
000050 88 b6 4a bf f8 03 70 3f 56 22 88 3f d3 85 fe 3e
       -0.7918477 0.93756056 1.0635478 0.49711475
000060 bb d7 62 3f 6a 79 90 3d c7 cd 42 bf a9 b1 b1 3f
       0.8861043 0.07054408 -0.7609524 1.3882343
000070 ec 11 d0 bf 92 39 17 3f df 00 85 bf ac 89 eb 3e
       -1.6255469 0.5907222 -1.0390891 0.46003473
000080 94 09 52 3f d8 d5 a6 bf d1 82 8f 3f b4 60 b9 3e
       0.82045865 -1.303401 1.1211797 0.3620659
000090 a6 86 22 3f aa 68 37 bf fa a5 b9 3f 66 ed be 3f
       0.6348671 -0.7164408 1.4503777 1.4916198
0000a0 bd 25 ac 3f ce 47 db bf 20 3a 35 3f b1 64 6b bf
       1.3449017 -1.7131288 0.70791817 -0.9195052
0000b0 64 b1 8f 3f 30 4d c7 3e 63 85 62 bf cb 9f 7f bf
       1.122601 0.38926077 -0.8848478 -0.998532
0000c0 7a be a5 bf 52 bb b5 be f0 3c cb be 42 6f d0 bd
       -1.2948754 -0.35494477 -0.3969493 -0.10177471
0000d0 72 1e c6 3d 32 57 40 3f 2f ae 05 bf 4a ff 6c bf
       0.09673776 0.7513305 -0.5221891 -0.9257704
0000e0 13 db e4 3f 0a 2c ca 3f d9 7b 8c 3f 82 9d 64 3f
       1.7879356 1.579469 1.0975295 0.8930284
0000f0 9d f0 a9 bf 94 0a 84 3e 06 b2 48 bf f0 a7 42 3e
       -1.3276554 0.2578932 -0.7839664 0.19009376
000100 cc 59 9f 3f b1 d1 45 3f 8f 3d e3 bf b6 67 b6 3e
       1.2449279 0.7727309 -1.7753161 0.35626
000110 31 48 4e 3f 23 7e 6d be 7d 9a b4 3e 09 84 06 bf
       0.80578905 -0.23192649 0.35274115 -0.5254522
000120 09 28 bd bf 07 f6 0c 3f e6 86 18 3f 49 35 ec be
       -1.4777843 0.5506291 0.5958084 -0.46134403
000130 4c ed a0 3f b1 a1 0c 3f a1 8b 00 bf ce 99 81 3f
       1.2572417 0.5493422 -0.50213057 1.0125062
000140 e6 73 b9 3f 74 90 18 be bd 5f 18 bf 9c 11 45 3f
       1.4488494 -0.14898854 -0.59521085 0.76979995
000150 4e 1d 82 3f 15 fd ef be 43 bf cd 3e c6 02 5d be
       1.0165193 -0.46872774 0.40184984 -0.21583089
000160 62 e9 13 be f8 5e 6b bf 74 e7 c5 be 9e 9d e3 3e
       -0.14444497 -0.91941786 -0.38653147 0.4445619
000170 b9 a4 04 c0 10 7c 45 be 52 e7 db 3d d8 9e 8a 3f
       -2.0725539 -0.19285607 0.1073748 1.0829725
000180 bb 0e 1e bf c4 97 fc 3f e5 66 18 be 6c f3 42 3d
       -0.61741227 1.9733815 -0.14883001 0.047595426
000190 59 2f 94 3f d1 74 01 40 d3 97 7a 3f 61 03 95 bf
       1.1576949 2.022755 0.97887915 -1.1641656
0001a0 d4 c5 c2 bd b5 29 ae 3f 72 91 76 3f ba 7d 05 bf
       -0.09510389 1.3606478 0.9631568 -0.5214497
0001b0 b7 42 f5 3e f6 cd 9d 3e 12 76 6a bd 7c b1 28 bf
       0.47902462 0.30821198 -0.057241507 -0.6589582
0001c0 2a 45 85 be 02 08 41 3f 8d 81 00 bf d9 eb 93 bf
       -0.2602933 0.75402844 -0.5019768 -1.155635
0001d0 5f a9 90 3f 7c 3b 8b 3e 80 12 88 3f 7c 51 61 3e
       1.1301688 0.2719382 1.0630646 0.2200374
0001e0 fd 05 84 3f d2 c3 08 c0 c4 1b 92 3e cc 80 dd bd
       1.0314327 -2.136952 0.28536808 -0.10815582
0001f0 a6 cb d1 3d 29 26 96 3d f2 99 0a bf f9 92 55 be
       0.10243921 0.07331497 -0.5414115 -0.20856847
000200 cf d7 37 be c5 5b c7 3f ff cb b8 3f 60 25 ba 3f
       -0.17953418 1.5574881 1.4437255 1.4542656
000210 86 0c 0a c0 98 9a 21 bf 02 64 82 bf 5a 93 de 3f
       -2.1570144 -0.63126516 -1.018677 1.7388718
000220 d8 92 99 bf 4a ae 9c bd 4d ad 74 bf 5a be e2 3e
       -1.1997938 -0.076504305 -0.95576936 0.44285852
000230 13 8b 2e c0 7b 8c c6 bd 36 fa ef 3f 08 38 22 bf
       -2.7272384 -0.09694763 1.8748233 -0.63366747
000240 ef 6c 6c bf 5c 37 fb 3e 67 14 e9 3f 93 6e b3 3f
       -0.9235372 0.49065673 1.8209351 1.401812
000250 03 f0 8f 3f 43 71 98 3f 41 15 de bf 63 a6 ac bf
       1.1245121 1.1909565 -1.7350236 -1.3488277
000260 20 92 60 3e 12 40 9b bf 70 2e 5a 3e 25 5e e0 3e
       0.21930742 -1.2128928 0.21306777 0.43821827
000270 43 ec c0 be d5 da a9 3e 1b c5 6c 3e 2a 9a 92 3f
       -0.37680253 0.33174768 0.23122065 1.1453297
000280 86 ae f1 bf f6 dd 0d bf ed 5d 86 3e b6 59 3d 3f
       -1.8881385 -0.5541681 0.26243535 0.73965013
000290 49 5a c1 bf 35 a5 c2 bf e0 54 71 be b8 60 ba 3f
       -1.5105678 -1.5206667 -0.23567533 1.4560766
0002a0 d6 dd 6f bf bc 9b 58 3e 60 08 32 bf ef 65 28 bf
       -0.9369787 0.21153158 -0.6954403 -0.6578054
0002b0 0f 3b 14 3f 07 98 9a 3f de b8 6d 3f 15 ad 46 3f
       0.57902616 1.2077645 0.9286021 0.7760785
0002c0 7d 7f 23 3f aa 4a a6 3d 7b 48 97 be ac 4b 5c 3e
       0.63866407 0.0811971 -0.29547486 0.21513242
0002d0 7b 84 a3 be 4e 8c ac be fd 29 d0 bd 1b f9 96 3f
       -0.31937012 -0.33700794 -0.10164259 1.1794771
0002e0 57 59 06 bf 15 ed 92 3f 5b 9a a6 bd 39 26 9f be
       -0.5248007 1.1478602 -0.0813491 -0.3108385
0002f0 74 07 9a 3f 0a a5 e5 3d 1d 6c 33 3f ea 38 ad 3f
       1.2033525 0.11213119 0.7008684 1.3532994
000300 33 1a f8 bf ef 53 86 bf 2b 3a d1 3f 27 21 3a 3f
       -1.9382995 -1.0494365 1.6345876 0.72706836
000310 af 06 8c 3f a6 91 95 3f c5 77 01 40 77 7a 07 bf
       1.093954 1.1685073 2.0229352 -0.5292124
000320 b3 8d 1e 3f 4b cc 13 bf d4 28 63 40 53 60 90 bf
       0.61934966 -0.577336 3.549367 -1.1279396
000330 9e b0 23 3f d8 8f 2e bf 75 21 ba 3f eb 40 f6 3f
       0.6394137 -0.6818824 1.454146 1.9238561
000340 1f cf f5 bd 61 65 d2 3e f1 47 dc 3f 0b 98 5d be
       -0.12002396 0.4109297 1.7209455 -0.21640031
000350 68 94 c6 3f 35 27 d9 bf ff a2 c3 bf a2 8e 2f bf
       1.551404 -1.696509 -1.5284117 -0.68577015
000360 b2 6f 0d be 7e 0b 19 be d2 68 9b 3e f1 25 37 bf
       -0.1381214 -0.1494579 0.3035341 -0.7154227
000370 f5 3f 2c 3f 53 33 73 bf b1 2a ea 3e b5 e0 9d bf
       0.6728509 -0.9500019 0.45735696 -1.23342
000380 63 7c 85 bf 8c 47 e7 3f e6 ae 91 3f 3d b6 b9 3c
       -1.0428585 1.8068709 1.13815 0.022669906
000390 56 fc 26 40 71 14 76 bf 0e c5 78 3e 89 5d 99 bf
       2.6091514 -0.9612494 0.2429392 -1.198167
0003a0 14 6b 80 3f ae 35 ed bf 9f 89 53 bf 3f ca d0 3e
       1.0032678 -1.8532007 -0.8263187 0.40779302
0003b0 29 5f af bf d3 af 21 3e 78 62 b1 be 40 72 53 bf
       -1.3700916 0.15789728 -0.34645438 -0.82596207
0003c0 17 53 69 bf 4d d8 3d bf 59 cd 6a bf 30 be 16 3f
       -0.9114241 -0.74158174 -0.91719586 0.58883953
0003d0 1f da ca 3f f5 82 28 3f a9 7c 82 be 2c ea 86 bf
       1.5847815 0.65824825 -0.25485733 -1.0540214
0003e0 fb 12 ad be d1 00 c8 bd 2d c3 e9 bd 5f 6e 95 be
       -0.33803543 -0.09765781 -0.1141418 -0.2918577
0003f0 43 8a 77 bf b4 ef 01 3e ce fc 44 bf 25 2c 67 bf
       -0.96695346 0.12689096 -0.7694825 -0.90301734

gru_dp_fw.decays f4 [7]
000000 00 00 00 00 00 00 00 00 00 00 00 00 00 00 00 00
       0.0 0.0 0.0 0.0
000010 00 00 00 00 00 00 00 00 00 00 00 00
       0.0 0.0 0.0

gru_dp_fw.gru_cell.weight_ih f4 [21, 7]
000000 12 3b d1 3d 4f 57 40 3e d2 a7 aa 3e f3 3e be be
       0.10216345 0.18783306 0.33331162 -0.371574
000010 cc 87 82 3e dc d9 a1 be f6 c6 b1 be 8c db 2e 3e
       0.2549423 -0.31611526 -0.34722108 0.17075938
000020 21 24 ad bd 27 c5 20 3e 22 0f 72 3e 22 69 3c 3d
       -0.08454157 0.15700208 0.23638585 0.0459987
000030 c8 a4 8e 3e 92 a1 94 be 88 e8 8d be de 17 08 bd
       0.27860093 -0.29029518 -0.2771647 -0.033225887
000040 86 85 9e bd 46 7b b2 3c c8 55 0b 3e a7 2d f2 bd
       -0.07740311 0.021787297 0.13606942 -0.11825114
000050 a7 07 a1 be ea a9 84 3e 27 18 ab bd 92 6e 8c be
       -0.3145115 0.25910884 -0.08354216 -0.27428108
000060 9e d7 b5 bb c8 6c ae 3e 39 fa 20 3e 2d 48 06 3e
       -0.005549385 0.34067369 0.15720452 0.1311347
000070 b7 df 9a bb 05 de de 3c e0 86 ce bd 08 af 9a be
       -0.004726376 0.027205477 -0.10084319 -0.30211663
000080 a9 8a 0d be ed 20 11 3e ff da 41 3e 7a dd 5b 3d
       -0.13822426 0.14172716 0.18931197 0.053678013
000090 42 32 ed bd 18 b7 b6 be 15 93 8a 3d 6c 9a b6 be
       -0.115818515 -0.35686564 0.06766335 -0.3566469
0000a0 e8 52 f6 3d 35 ec 7f be 30 56 4a 3e d1 87 19 bd
       0.12027532 -0.2499245 0.1975944 -0.03748304
0000b0 21 6b a6 3e 5c 3e 8b 3e 9c 8e 1f be 99 f2 6f be
       0.32503608 0.27196014 -0.15581745 -0.23432387
0000c0 ee cd a6 bd 14 2e e0 bd 79 27 9d 3e 12 f5 94 3d
       -0.08144747 -0.10946289 0.30694178 0.07273306
0000d0 08 20 4b be 4b de 90 3e 86 7e ac be f1 77 2d 3e
       -0.19836438 0.28294596 -0.3369028 0.16940285
0000e0 03 4b 99 be 76 96 21 bd 93 bb 21 be 1b 2c 5c 3e
       -0.29940042 -0.03945013 -0.1579421 0.215012
0000f0 56 4c 43 3e f1 1b 06 be c3 99 8f be dd fa 75 be
       0.19072089 -0.13096596 -0.28046998 -0.24021478
000100 6e 3d a0 3d c7 1d 4a 3e 79 47 55 be 15 aa 31 3e
       0.07824217 0.19737922 -0.20828046 0.17350037
000110 82 3e 5a be 0f b3 19 be dc f4 a7 3c 9b 6f bd 3d
       -0.21312907 -0.15009712 0.0205025 0.09249803
000120 93 79 b2 3e 2f 0a 96 3e 57 82 41 bd 21 6f 82 3e
       0.3485838 0.29304644 -0.047243442 0.2547541
000130 5e ac f3 3d 7d 17 11 be 08 af 17 bd 24 05 60 be
       0.11898111 -0.14169116 -0.037032157 -0.21876961
000140 db 40 de bd ce 50 ba be e5 43 ac 3e b9 6a 91 be
       -0.10852214 -0.36389774 0.3364555 -0.28401735
000150 98 ad e7 bd f1 7f 5d 3e b3 45 38 3e bf 93 8e 3d
       -0.11312407 0.21630837 0.17995338 0.06961774
000160 ae d2 59 3e 10 c9 b0 3d ef 1e b1 3e 9f 96 83 3e
       0.21271774 0.086321 0.34593913 0.25700852
000170 b8 e5 33 3e 61 b4 15 3e 8a 90 60 3d f9 46 c5 3d
       0.175681 0.1461959 0.054825343 0.096326776
000180 e0 99 0e 3e 9c 20 a2 3e 6c 97 34 3e 67 7d bd 3d
       0.13925886 0.31665504 0.17635888 0.09252434
000190 1a 32 85 3e cf d7 6c 3e 47 9f 7a 3c 5f 9a 89 3e
       0.26014787 0.231292 0.015296764 0.26875588
0001a0 be be 34 3e 03 9a e5 bb b6 a4 87 be 69 4f df bc
       0.17650887 -0.007006885 -0.26492852 -0.027259545
0001b0 f4 18 96 3e d1 95 be be 29 02 2f bd 7f 68 ba 3d
       0.29315913 -0.37223676 -0.04272667 0.09101962
0001c0 11 b4 9a 3e cf e9 58 3e 7c 78 22 bd 00 f8 8f bd
       0.30215505 0.21182941 -0.039665684 -0.07029724
0001d0 7c 8c 42 3e 12 f6 fc 3c 15 2d 88 be 38 29 b4 3e
       0.18998903 0.030879054 -0.26596895 0.35187697
0001e0 85 59 57 be 1a d9 82 3d 31 ce 48 3b 70 39 43 be
       -0.21030243 0.06389065 0.0030640478 -0.1906488
0001f0 88 a0 ab 3e ea ea 38 bd 16 29 b7 3e 23 fb a1 be
       0.33520913 -0.045145907 0.35773534 -0.31636915
000200 8e fd 42 3e 1e 98 2e be 1c 43 08 3e b3 15 a0 3e
       0.19042036 -0.17050216 0.1330685 0.31266555
000210 48 2f 59 3e 41 a9 8c 3e 37 2b 9e bd ff 9c b1 3e
       0.21209443 0.2747288 -0.07723086 0.3469009
000220 ad 6d 1b be 58 6b 96 be b4 6c 84 3e 4a 19 f2 bd
       -0.15178557 -0.29378772 0.25864184 -0.1182123
000230 c5 6c b1 3e 1d 43 5a 3e 5a a1 1a 3e 1e 7e 94 3e
       0.34653297 0.21314664 0.15100613 0.2900247
000240 24 95 17 3e 4d 72 5f be 49 eb 58 be
       0.14802986 -0.21820946 -0.21183504

gru_dp_fw.gru_cell.weight_hh f4 [21, 7]
000000 bc 68 de 3d e6 2a 20 3e 9b 2b 8a 3e 01 d1 d2 3e
       0.1085982 0.15641364 0.26986393 0.41175082
000010 21 42 c1 bd 82 0f f7 be 10 d9 64 be 40 85 85 be
       -0.09436441 -0.4825402 -0.22348428 -0.26078224
000020 fd 0c bd bc 77 84 a8 be e5 20 ac be 47 0e c9 3d
       -0.023077482 -0.32913563 -0.33618847 0.09817176
000030 3c 63 b9 be ec 5a ab 3e 22 7c 76 3e 9f f8 88 3e
       -0.36208522 0.33467805 0.2407079 0.26752183
000040 b3 66 b2 3e 0a 37 9f ba be 4e 31 3e 24 7a 81 bd
       0.34843978 -0.001214714 0.17315194 -0.063221246
000050 23 6d ef bc 2f 59 82 bb 40 02 90 bc 50 87 8e 3e
       -0.029226845 -0.0039779167 -0.017579198 0.2783761
000060 30 63 11 be cf aa 46 3d 4b fb 21 3e 70 65 81 be
       -0.14197993 0.04850274 0.15818517 -0.25272703
000070 15 0a 6e 3e b4 9d 8a 3b 1e 4b 87 be 2c 01 a7 3e
       0.23246033 0.0042302255 -0.26424497 0.32618082
000080 ca c0 15 3e 5f 98 ce be 90 ea 79 be 19 d0 3f 3e
       0.14624324 -0.40350625 -0.24405885 0.18731727
000090 9b e7 8c 3e 34 2d 9f 3e 05 3e 50 3e 09 79 a5 be
       0.2752045 0.31089175 0.20336159 -0.32318905
0000a0 be 1c 1a be 72 5f 22 be cb c0 65 3e c3 1c 9e 3e
       -0.15050027 -0.15856722 0.22436826 0.30881318
0000b0 14 0d 79 3e 57 2b 20 3e 36 4f 81 be 9e 2b 07 bf
       0.24321395 0.15641533 -0.25255746 -0.5280093
0000c0 c9 d2 20 3e 24 44 88 be 9b 10 b2 3e aa 5f 36 bd
       0.15705408 -0.26614487 0.34778294 -0.044524826
0000d0 0f a4 0e be 9d 97 65 be 66 42 97 be 8e b3 43 3e
       -0.13929771 -0.22421117 -0.29542845 0.19111463
0000e0 b4 86 81 3e 08 ac 3c 3e a4 1a a5 3e 5b 16 34 be
       0.25298083 0.18425 0.32246888 -0.17586653
0000f0 6a b7 de bd 8d f3 e8 bb f0 2f 9a be 8f 33 8d be
       -0.10874827 -0.0071091116 -0.30114698 -0.275784
000100 85 8d 02 3e ce a0 78 be 8a b1 9c be 5d f8 ba be
       0.12749298 -0.24280092 -0.30604202 -0.3651761
000110 68 47 56 3e 57 75 99 3e ca d1 33 be c7 0e 9f 3e
       0.20925677 0.29972336 -0.17560497 0.31065962
000120 7e 43 b6 3e 4d f5 99 be 87 92 1b be 35 6c a7 3d
       0.35598367 -0.30069962 -0.15192614 0.08174936
000130 ab 21 28 be d3 4d 9a 3e ef 00 a1 bc 77 39 03 be
       -0.16419093 0.301375 -0.019653765 -0.1281489
000140 fc 99 31 be 76 d5 a6 3e 53 9c 99 be 9a d7 60 3e
       -0.17343897 0.32584733 -0.30002078 0.21957245
000150 d8 9f 90 bc dc b5 00 be 40 64 1f be 24 60 48 bd
       -0.017654344 -0.12569374 -0.15565586 -0.04891981
000160 e1 67 7d 3e 71 24 cd 3d 5b b7 58 3e d2 2c 14 be
       0.24746658 0.10016716 0.21163695 -0.14470223
000170 71 87 4f 3e 13 c4 49 3e cd 7e bd 3e 20 56 8e be
       0.2026651 0.19703703 0.37010804 -0.27800083
000180 65 a7 36 be ac 55 b8 be 86 41 80 bc 8f cf d4 3d
       -0.17837293 -0.36002862 -0.015656244 0.10391151
000190 be 18 43 bc db 97 a2 be c0 c4 0c bd 70 fb 02 be
       -0.0119077545 -0.31756482 -0.034367323 -0.12791228
0001a0 5e 4d 40 3e 61 2d 88 bd 97 3f 89 3e 62 ff 0d 3e
       0.18779513 -0.0664928 0.26806328 0.13866952
0001b0 af d1 ab be 45 58 8e be a5 9a 7d 3d f6 4e 8f 3e
       -0.33558413 -0.2780172 0.06191506 0.2798993
0001c0 cf 8e 82 be 3e 19 9c 3e 13 fa 95 3e 8c 84 a1 be
       -0.2549958 0.30488008 0.29292354 -0.31546438
0001d0 d9 b0 34 3e a8 a3 b3 be 88 2e aa be 85 ab f6 be
       0.17645587 -0.35085797 -0.33238626 -0.48177734
0001e0 5b 2e e6 be f9 91 73 be 7d 2a 76 3e 4d 03 08 3d
       -0.4495724 -0.23786153 0.24039645 0.033206273
0001f0 09 42 be 3e 0f e3 b9 3e dc 92 db bb ba 07 a0 bd
       0.37159756 0.36306044 -0.0067008566 -0.07813974
000200 2f 26 9d be b8 93 40 3d 0c 28 c2 be 86 5f 9e bd
       -0.30693194 0.047015876 -0.37921178 -0.077330634
000210 f3 e1 64 be 23 f9 65 3e d8 3e ea bd a4 53 ca bd
       -0.22351818 0.2245832 -0.11437768 -0.098792344
000220 6b ce 82 be 55 ff 6a be a5 c7 82 3e ed 91 25 3e
       -0.2554811 -0.22948964 0.25542942 0.16168948
000230 b6 ee 39 3e a0 28 8b be 37 a6 8f 3e 40 4f ce 3e
       0.18157467 -0.27179432 0.280565 0.40294838
000240 91 8a eb 3e 54 62 eb 3d 27 f9 17 be
       0.46004155 0.11493364 -0.14841138

gru_dp_fw.gru_cell.bias_ih f4 [21]
000000 2e 2f 10 be 2f 19 a1 3e 75 74 5f bd bb 1b 85 3e
       -0.14080498 0.31464526 -0.05455442 0.2599772
000010 51 75 78 be 01 f3 67 bd 48 f2 4f be 81 95 50 be
       -0.24263503 -0.05662823 -0.20307267 -0.20369531
000020 f4 c8 84 bc 2d 4d 90 3e 93 0a 6c 3d 44 d7 ba be
       -0.016209103 0.2818388 0.05762727 -0.3649236
000030 9b 1b a8 be c0 43 a6 3e 3b 20 61 3e 9e 46 58 3e
       -0.3283356 0.32473564 0.21984951 0.21120688
000040 59 ba 1a be 10 57 2f 3d b9 87 13 3e 7d d1 c5 be
       -0.15110148 0.04280764 0.14407243 -0.3863639
000050 ba 27 7d be
       -0.24722186

gru_dp_fw.gru_cell.bias_hh f4 [21]
000000 c1 f9 23 3e 2c 41 84 be 28 b5 9e bd f2 55 5b 3c
       0.16013242 -0.25830972 -0.077493966 0.01338719
000010 7e 12 bb 3e aa da cd 3e 0b 4f a3 3e 25 35 33 be
       0.36537546 0.4020589 0.31896242 -0.17500742
000020 15 fa 01 be 7a ce eb 3d 76 e1 58 3e 67 48 a3 3c
       -0.12693055 0.11513992 0.21179757 0.019931985
000030 85 66 7a be d0 a5 57 bd b8 63 3c be ab fa 22 be
       -0.2445317 -0.052648365 -0.18397415 -0.15915935
000040 0d 92 07 3d 6b ad a3 3d d5 0a 2c be dd 41 a2 bc
       0.03309827 0.07992061 -0.16801007 -0.019806797
000050 e7 6a d8 3e
       0.4226906

gru_dp_fw.ode_net.odeblock.odefunc.fc1.weight f4 [7, 7]
000000 00 07 24 bd ec 77 52 be 24 48 17 be 87 04 71 bd
       -0.04004574 -0.20553559 -0.14773613 -0.05884221
000010 d0 1b 95 be b1 49 be 3e b5 50 62 3d 43 f5 45 be
       -0.29122782 0.37165597 0.05525275 -0.19331841
000020 bf 09 7e bd 4b 5d 81 3d 62 ed 1e be 05 b1 6b 3d
       -0.062021013 0.06316622 -0.15520242 0.057541866
000030 74 13 ba 3d 1c 99 b4 3d 4a 5e ca 3d 79 e5 bd 3e
       0.09085742 0.08818266 0.098812655 0.37089136
000040 59 38 83 be d2 fa a6 3e 69 87 7f be 03 4b 84 3d
       -0.25628927 0.32613236 -0.24953999 0.0645962
000050 f9 87 4d be c6 2a 7e 3d 65 a5 41 bd 8b d4 2f be
       -0.200714 0.06205251 -0.047276873 -0.17170922
000060 9b cc 23 be f5 4b b6 3e 87 55 4c bb fc 7d ad 3e
       -0.1599602 0.35604826 -0.0031178908 0.3388518
000070 d9 29 c5 3c 0f 55 7d 3e 0c ff f6 bd d1 9f ad bd
       0.024067806 0.24739479 -0.12060365 -0.08477748
000080 85 1e 46 3e 8f 7d b7 be 3c 0b 9b be 0d 3d 97 3e
       0.1934758 -0.3583798 -0.3028201 0.29538766
000090 4f aa 44 3e db 92 78 3d 00 6f 27 be aa 4d 9f be
       0.19205593 0.060686927 -0.16350937 -0.3111394
0000a0 28 81 25 3d 8f 6c 6d be b8 27 9c bd 12 ca 57 be
       0.040406376 -0.23185943 -0.07624763 -0.21073177
0000b0 f6 1b ed 3c 89 c0 a2 be c9 cd 0c 3e db 49 a3 3e
       0.028943997 -0.31787518 0.13750376 0.31892285
0000c0 d4 24 37 be
       -0.17885143

gru_dp_fw.ode_net.odeblock.odefunc.fc1.bias f4 [7]
000000 ec ef 36 3e 6f 94 5c 3e 6c 86 99 be 15 f9 ae be
       0.1786496 0.21540998 -0.29985368 -0.3417441
000010 e5 00 37 be 37 78 23 3e 5d 91 6e 3e
       -0.17871435 0.15963827 0.23297639

gru_dp_fw.ode_net.odeblock.odefunc.fc2.weight f4 [7, 7]
000000 32 b2 ad bc e2 8c 22 3e a0 89 a8 be d3 83 34 bc
       -0.021203134 0.15874055 -0.329175 -0.0110177575
000010 e4 d5 cc bd 4d 90 cc bd 25 cb c2 3d ba 50 82 3d
       -0.10001734 -0.09988461 0.09511403 0.063630536
000020 e7 25 b9 3d f5 68 69 3e 3f c3 89 be d4 98 75 3e
       0.090404324 0.22793944 -0.26906773 0.2398408
000030 bf 7e 8f 3b 35 81 73 3e 38 62 09 be e7 18 7c be
       0.004379123 0.23779757 -0.13416374 -0.24618874
000040 ef e5 45 3d aa 19 0a be a4 46 9e bc e3 65 7a 3e
       0.048314985 -0.13486353 -0.019320793 0.24452929
000050 68 b0 f9 bd 16 93 23 3e 88 6c 02 be 4a a9 87 be
       -0.1219185 0.15974078 -0.12736714 -0.26496345
000060 75 c4 9e 3e 91 80 be 3e da 01 bc be 17 02 ab be
       0.3100926 0.37207463 -0.36720163 -0.33400032
000070 71 07 5e 3e 5f 13 c0 3e 32 22 75 be 5f de 91 bd
       0.21682526 0.3751478 -0.23938826 -0.07122492
000080 5e 1e c3 3d 28 4b c0 3d af cf b3 3e 03 48 b4 3c
       0.095272765 0.09389335 0.35119388 0.022006994
000090 d8 5b ac 3e 2d 00 4b 3e c4 20 b9 be 4b 73 7c 3e
       0.3366382 0.19824286 -0.3615781 0.24653356
0000a0 a3 72 01 be c8 87 1e 3e db de 9e be b8 d6 33 bc
       -0.12641387 0.15481484 -0.310294 -0.010976486
0000b0 5e 54 47 be 82 54 31 3e 14 3d 4f bd a8 b7 cf 3d
       -0.19465777 0.17317393 -0.050595358 0.101424515
0000c0 7a 97 14 bc
       -0.009069318

gru_dp_fw.ode_net.odeblock.odefunc.fc2.bias f4 [7]
000000 22 1e 84 be 4d 34 5f 3e 76 6f 8f be bc b2 93 be
       -0.2580424 0.21797295 -0.28014725 -0.288473
000010 11 1a b9 3c f9 19 62 be de 4f b7 be
       0.022595437 -0.2208022 -0.3580312

gru_dp_fw.ode_net.odeblock.odefunc.fc3.weight f4 [7, 7]
000000 e0 e3 b6 bc 04 7f 26 be ed b4 18 3e 5c 8d 88 be
       -0.022325456 -0.1625939 0.14912768 -0.2667035
000010 0b df 8b 3e 1a f7 8a 3e d5 39 92 be 3a 64 06 3e
       0.27318606 0.2714165 -0.28559747 0.13124171
000020 78 76 3f 3e d3 d1 83 3d 69 01 a3 be 9a fd a3 bd
       0.18697536 0.06436505 -0.31837013 -0.08007355
000030 2d be 47 be d5 ec eb bb ac 1d 9f be f7 3b 99 be
       -0.1950614 -0.0071998634 -0.31077325 -0.29928562
000040 8d b5 14 3e 84 92 96 3d 63 1b 20 be 82 9a 9c be
       0.14522381 0.073521644 -0.15635447 -0.3058663
000050 45 82 5d be b0 4d 73 be 06 e6 9a 3d 87 16 7b be
       -0.21631725 -0.23760104 0.07563405 -0.24520312
000060 0e fe 94 be c7 30 91 be 04 eb 78 bd f7 32 35 be
       -0.29100078 -0.28357527 -0.060771003 -0.17695223
000070 45 64 ee bd e3 f4 67 3e fd b5 9a be 6d 29 79 3d
       -0.11640219 0.2265201 -0.3021697 0.060830522
000080 47 4d 0e be 45 fa 10 3e 55 81 19 3e 02 ca 91 3c
       -0.13896666 0.1415797 0.14990743 0.01779652
000090 6d 3b a0 be 3d 4d a1 3e e6 f2 0f be b9 c3 2a be
       -0.31295338 0.3150424 -0.14057502 -0.16676225
0000a0 7a ba 1b be 00 01 00 be 50 49 52 3e 6b f3 a8 bd
       -0.15207854 -0.12500381 0.20535779 -0.08249553
0000b0 e2 37 fa bd 5f ab cb 3d 04 51 79 bd 38 b3 b4 be
       -0.1221769 0.09944796 -0.06086828 -0.35292983
0000c0 00 02 71 be
       -0.23535919

gru_dp_fw.ode_net.odeblock.odefunc.fc3.bias f4 [7]
000000 a7 34 11 be 54 75 ae be a0 98 97 be 6b 59 be be
       -0.14180242 -0.3407389 -0.2960863 -0.37177595
000010 f8 15 2e 3e 5c 20 12 3e 64 f3 a5 be
       0.17000568 0.14270157 -0.32412255

gru_cp_fw.decays f4 [6]
000000 90 f6 94 07 00 00 00 00 10 cc 15 03 73 7f 00 00
       2.2413481e-34 0.0 4.4021417e-37 4.572e-41
000010 20 60 6f 70 74 69 6d 69
       2.963325e+29 1.7938338e+25

gru_cp_fw.gru_cell.weight_ih f4 [18, 6]
000000 53 c0 d8 3d 73 ab 9d 3e 11 d4 e2 3d 98 bf f2 bd
       0.10583558 0.30794868 0.11075605 -0.1185295
000010 af c4 de bd d1 c7 df be 1b dc 55 3e 2f 21 c8 be
       -0.10877358 -0.43707135 0.20884745 -0.39087817
000020 24 f4 ae 3d 64 52 28 3e 53 14 17 3e 13 b3 4f 3d
       0.0854266 0.1643768 0.14753847 0.050707888
000030 c2 da 35 3e 91 0e ab 3e a5 7d 3b 3e bb 2a 04 3f
       0.1775923 0.3340955 0.18309648 0.516277
000040 2b c9 af bd 92 7a a3 be 69 ed a3 3e 3d 63 ef bc
       -0.085832916 -0.3192945 0.32017067 -0.029222125
000050 74 1c 85 bd 9c 6c 7d be cd 56 50 3e c7 15 4a be
       -0.06499568 -0.24748462 0.20345612 -0.1973487
000060 65 9c e7 bd c6 3f 82 be b8 43 3d bd 34 43 09 3e
       -0.11309127 -0.2543928 -0.04620716 0.13404542
000070 91 a3 05 3e 4a 18 9a 3e 50 27 9c 3d df 5d 9e 3d
       0.13050677 0.30096656 0.07624686 0.07732748
000080 20 16 b5 be 7e ca d6 be ff 69 d0 be 76 1c b5 3d
       -0.35368443 -0.41951364 -0.4070587 0.08843319
000090 34 d8 7b 3e 46 5e 4e 3e af 2b 9c bd 6a ad 00 be
       0.24594194 0.2015315 -0.076255195 -0.12566152
0000a0 f7 3d 08 3e 2a 7e 8e be 27 84 26 3e 7d fa 00 bf
       0.13304888 -0.2783063 0.1626135 -0.50382215
0000b0 e3 bd 8a bd 6f 1b ad bd 1b 95 8d 3e a5 14 44 3e
       -0.06774499 -0.08452498 0.2765282 0.191485
0000c0 0a 74 c6 bd 52 71 be 3e 5c 7f c4 3e 58 0c 05 3f
       -0.096901014 0.37195832 0.38378417 0.5197196
0000d0 a0 ee 81 3e f0 7e 61 be 9d ef fb 3e 99 27 57 be
       0.2537737 -0.22021079 0.49206248 -0.21011199
0000e0 cb 0e 8a be 74 eb aa be ac a9 0f 3f 0e bf e6 be
       -0.2696441 -0.3338276 0.56118274 -0.45067638
0000f0 cd d6 3a be b2 68 c1 bd c9 4b db 3e 01 62 62 3e
       -0.18246002 -0.09443797 0.42831257 0.22107698
000100 15 4f 0a bf 6c 32 fc 3e f1 f1 f0 3e 02 f6 82 bd
       -0.5402692 0.4925722 0.47059587 -0.063945785
000110 ec e8 8c 3d 7d 17 e2 be 0d fd bf 3e e7 3e aa 3d
       0.06880364 -0.44158545 0.3749775 0.08312779
000120 3e d5 f2 bc 91 f6 70 be ba ee b3 3e 71 9c 91 3e
       -0.029642697 -0.23531558 0.3514307 0.28439668
000130 d9 c7 71 be 22 f8 8d be 3f 26 fe be 6b 63 08 3f
       -0.23611392 -0.27728373 -0.49638554 0.532767
000140 e3 a2 71 be 18 15 8f 3d 18 6b 6d be 56 6f b6 3d
       -0.23597293 0.06986445 -0.23185384 0.089079544
000150 96 9d cd 3d 59 cf 97 be b7 ff ac be 63 56 a4 be
       0.10039823 -0.2965038 -0.33788845 -0.32097158
000160 c8 ef 42 be 87 4f 8e 3e f1 70 7f be f2 19 c4 bd
       -0.19036782 0.2779505 -0.24945427 -0.09575261
000170 72 bb bd 3e 32 30 c2 3c b5 8a 98 be 3e c6 b3 3e
       0.37057072 0.023704622 -0.29793325 0.35112184
000180 29 b8 11 bc 0b d6 87 3d c5 22 e4 be b4 b1 0d be
       -0.008894005 0.06632622 -0.44557777 -0.1383732
000190 5d 96 f1 3e a3 a0 fa be 3d 98 b3 be 7e 6a 88 3d
       0.4718503 -0.4895068 -0.35077086 0.06660937
0001a0 ce e9 a5 3e bf 5e 9f 3e 0c 08 82 be 94 db 01 3f
       0.3240494 0.31126973 -0.25396764 0.50725675

gru_cp_fw.gru_cell.weight_hh f4 [18, 6]
000000 04 f8 68 3e 50 70 1e 3e db d0 b9 be 66 08 b5 3d
       0.2275086 0.15472531 -0.36292157 0.088394925
000010 c5 49 73 3d aa ce 9a be 56 1d 9a be 36 96 8c be
       0.059396524 -0.30235797 -0.30100507 -0.27458352
000020 d5 26 19 3e f1 15 3a 3e 11 65 50 be ea 23 c5 bd
       0.1495622 0.18172432 -0.20351054 -0.09625991
000030 48 80 ab 3d 19 20 97 be 8c 08 a6 3e d4 3b 7b 3e
       0.08374077 -0.29516676 0.32428396 0.24534541
000040 e9 3b 73 3e 49 1a 62 bb 1d 87 cc be 57 a5 e7 bd
       0.23753323 -0.003450053 -0.39946833 -0.11310833
000050 42 a5 4b be a5 6e e5 3a 17 cc 06 be 1e 71 0c bf
       -0.1988726 0.0017504288 -0.13163792 -0.54860103
000060 b7 1e 88 be 22 f2 6f be 16 fa 60 3e 64 59 9c be
       -0.26585934 -0.2343221 0.219704 -0.3053695
000070 82 46 db bd 5d ce 03 3f 41 e8 e6 bb b8 69 8a be
       -0.10706808 0.5148676 -0.00704673 -0.27033782
000080 2a 46 4c be 83 c0 79 3e 83 19 b3 3e ad e9 a2 be
       -0.1994864 0.24389844 0.349804 -0.31818905
000090 0c f8 76 3d 6f 48 87 3e 9f 1a cc 3c a5 c6 b9 be
       0.06029515 0.2642245 0.024915038 -0.36284366
0000a0 c1 3b 84 3e 4f c7 93 3d 29 a4 6d 3e 68 d6 a7 3e
       0.2582684 0.072157495 0.23207153 0.32780766
0000b0 cd d1 5c 3e e5 e0 97 be 20 ef 00 bd 05 fc 23 3e
       0.21564408 -0.29663768 -0.031478047 0.16014107
0000c0 ff c5 86 3e c9 2b 18 be 37 6e 5b 3e 99 59 ec 3e
       0.26322934 -0.14860453 0.21428762 0.46162108
0000d0 2e 37 4d 3e 41 d1 9b 3e 99 f8 99 3e d6 72 ad be
       0.2004058 0.30433086 0.30072477 -0.33876675
0000e0 5d 17 34 3d b3 51 75 3e a2 64 5b 3e ea c4 55 be
       0.043967593 0.23956947 0.21425107 -0.20875898
0000f0 87 00 05 bf 3b 31 ee be 94 c3 06 3f 88 32 d7 bd
       -0.5195393 -0.46521935 0.5264218 -0.10507685
000100 6f 73 ac 3e 88 80 e7 be 49 e8 bb be b3 f8 de 3d
       0.3368182 -0.4521525 -0.36700657 0.10887279
000110 55 a1 d6 3e ca 9e 21 3e 12 36 b4 3d 24 d0 35 bd
       0.41919962 0.1578323 0.087993756 -0.04438795
000120 af 77 81 3e c3 6f 69 3d b6 76 79 3e a3 48 1b 3e
       0.25286624 0.05699135 0.24361691 0.15164427
000130 47 ed 70 3e 46 40 90 bd b0 d8 08 bf 21 74 a9 be
       0.23528014 -0.07043509 -0.5345564 -0.33096412
000140 6c 6e 30 be f2 23 7e be 27 b5 2a 3e 05 04 a8 3e
       -0.17229623 -0.248184 0.16670667 0.32815567
000150 42 2a 7f be 06 88 0e bd ab fc 1b bb ed 03 98 3d
       -0.24918464 -0.03479769 -0.0023801725 0.07422624
000160 db bc e9 3e 8e cb 6a be b2 5c 6f be a0 0b 86 3e
       0.45651898 -0.22929212 -0.23375204 0.26180744
000170 89 b3 b1 be f9 4f 0e be 2a a8 ca 3e d1 af 93 be
       -0.34707287 -0.13897695 0.39581424 -0.28845075
000180 d3 76 fd be f9 5a 19 3e 48 d0 c4 3e 13 66 13 bd
       -0.49504718 0.1497611 0.38440156 -0.035986017
000190 1e 50 b7 be 50 10 a9 3e 54 02 42 3e ee f4 4c 3e
       -0.35803312 0.33020258 0.189462 0.20015308
0001a0 9d 7d 3c be 01 bc 75 3d 1a 58 b1 3d f9 ed 27 be
       -0.18407293 0.059993748 0.08659382 -0.16399373

gru_cp_fw.gru_cell.bias_ih f4 [18]
000000 dd aa 98 be b8 2c 72 bd 1a 0b 8e be eb c5 82 3d
       -0.29817858 -0.05912468 -0.27742845 0.06385406
000010 5c 90 74 3e 3c 8d 4b 3d 07 83 65 be 76 44 d3 3d
       0.23883194 0.04969524 -0.22413264 0.10315792
000020 be 15 c1 bd 4e d7 4e 3e 33 67 a4 3c 9c 74 bb bd
       -0.09427975 0.2019932 0.02006874 -0.09153101
000030 88 51 b1 bd 9f 5b 83 be 38 60 87 3e 1d 96 2f 3e
       -0.08658129 -0.2565584 0.26440597 0.17147107
000040 3d e7 96 be 7d 74 1d 3e
       -0.29473296 0.15376468

gru_cp_fw.gru_cell.bias_hh f4 [18]
000000 f2 7c 00 3e 98 d8 67 be ce de 38 3d 0b 12 59 be
       0.12547663 -0.22641218 0.045134358 -0.21198289
000010 c9 67 48 be 52 7a b1 3e 05 cc c9 be 3e ab a8 3e
       -0.19570841 0.34663635 -0.39413467 0.32943147
000020 18 de 10 be 47 e2 df 3e 6f 7e 18 3d 0d 21 07 be
       -0.14147222 0.43727323 0.03722995 -0.13196202
000030 75 34 a4 be ff ca 8a be ba 93 a1 be 82 e6 88 be
       -0.32071272 -0.27108 -0.3155802 -0.26738364
000040 19 77 7a 3c 21 bb ca 3d
       0.015287184 0.09898973

gru_cp_fw.ode_net.odeblock.odefunc.fc1.weight f4 [6, 6]
000000 a5 bf a2 3d e0 88 c1 3e b7 27 1b 3e 02 5d a3 3e
       0.079467095 0.3779974 0.15151869 0.31906897
000010 9f 9c 97 3d 6c 3b 7b bd e1 27 9a 3d e6 92 67 bd
       0.0740292 -0.061335966 0.075271375 -0.056536578
000020 83 31 a9 be a9 90 56 3e 4b ba 86 3e 45 2a e4 be
       -0.33045587 0.20953621 0.26314005 -0.445635
000030 21 49 bc 3e f2 3d aa 3e 93 0c 98 3e 25 da 0b 3e
       0.36774543 0.33250386 0.29697093 0.13657434
000040 d8 68 ad be 36 ff 7a be ec 20 f1 3e 50 5a 95 3e
       -0.33869052 -0.24511418 0.4709543 0.29170465
000050 e0 b4 34 bd a3 dd 33 be d9 f2 23 3d e4 29 1c be
       -0.04411781 -0.17565016 0.04002652 -0.15250355
000060 43 72 18 be 95 be 01 3e 8b de b5 bd bb 3e 83 3e
       -0.14887337 0.12670358 -0.08880337 0.25633797
000070 77 a5 8e bd 58 76 1f 3e 04 bc 64 3e d6 52 62 3e
       -0.06965154 0.15572488 0.22337347 0.22101912
000080 fd f7 1a 3e fa e3 32 3e 16 e9 32 bd b2 c8 6f bd
       0.15133663 0.17469779 -0.04367932 -0.058541007

gru_cp_fw.ode_net.odeblock.odefunc.fc1.bias f4 [6]
000000 b3 2f 8f be 59 49 9b 3e 37 3f 80 be ba 41 92 3e
       -0.2796608 0.30329397 -0.2504823 0.2856577
000010 f7 37 a0 be f2 46 ac 3e
       -0.31292698 0.33647877

gru_cp_fw.ode_net.odeblock.odefunc.fc2.weight f4 [6, 6]
000000 7b 99 04 3e 8a 5d b0 bc e0 51 a6 be 89 80 98 be
       0.12949173 -0.021528978 -0.3248434 -0.29785565
000010 77 97 50 3d 58 96 85 3e 47 0e 96 bd a8 10 a5 be
       0.050925698 0.26091266 -0.07326942 -0.3223927
000020 d2 df a3 3e eb 1c 71 3e 23 7b c1 bd 29 31 8f 3d
       0.320067 0.23546188 -0.094473146 0.069917984
000030 1a cd a2 be dd e8 6e 3e 5b a7 8c 3e 27 63 a6 be
       -0.31797105 0.23331018 0.27471432 -0.32497522
000040 65 c7 9e be c9 f9 b7 3d ad 34 3d 3e 42 f3 ac bd
       -0.310115 0.089831896 0.18477125 -0.08444835
000050 48 25 e4 bd d7 e6 02 be 9d 23 92 3e 30 b0 00 3e
       -0.11139923 -0.12783371 0.28542796 0.1256721
000060 d4 f3 5c 3d 6b 66 4f be 50 5d 14 be b5 6b 0d 3e
       0.05394347 -0.20253913 -0.14488721 0.13810618
000070 6f b3 22 3e e4 b0 e2 bd 3d 6c 8f be cf 9d ce 3e
       0.15888761 -0.110688955 -0.28012267 0.40354773
000080 55 2a 6b 3e 15 56 bb bd 1c 98 92 be f3 5b b7 be
       0.22965367 -0.09147278 -0.28631675 -0.3581234

gru_cp_fw.ode_net.odeblock.odefunc.fc2.bias f4 [6]
000000 85 99 b3 bd 3a d0 51 3b 90 72 23 be 7f 04 d6 3e
       -0.08769516 0.0032014982 -0.15961671 0.41800305
000010 35 ec 63 3e 9f 94 c8 bc
       0.22258075 -0.02448493

gru_cp_fw.ode_net.odeblock.odefunc.fc3.weight f4 [6, 6]
000000 35 24 73 3e 0c a0 0e be 2d e2 6b bd 1f 1d 96 be
       0.2374428 -0.1392824 -0.057588745 -0.29319093
000010 9a 2f cd 3e 03 1e 02 be 81 c1 36 3e e8 b1 8a 3e
       0.4007538 -0.12706761 0.17847253 0.27088857
000020 d8 34 4c be 30 4f 95 be 2c 27 08 be 09 8f 81 be
       -0.19942033 -0.29161978 -0.13296193 -0.2530444
000030 f9 b7 a6 be 07 70 8d 3e 76 7c aa 3e a8 4b 37 bb
       -0.32562235 0.27624533 0.3329808 -0.0027968679
000040 1f df fa 3b cf 65 db 3e 5a c8 13 3e 35 2c 0c 3e
       0.0076559926 0.4285111 0.14431897 0.13688739
000050 6e 12 21 3d 64 79 27 3e 61 62 80 be df 93 4e 3e
       0.039324217 0.163549 -0.25075057 0.20173596
000060 04 41 2f 3e 5e a6 60 be 34 77 9b bd b1 9f 75 3e
       0.17114645 -0.21938464 -0.075910956 0.23986699
000070 33 b7 2b 3d de 87 1c be d0 c5 9c 3e b9 32 b6 3d
       0.04192276 -0.15286204 0.3061967 0.08896393
000080 fd d9 8e 3d c5 d5 02 be c7 4a 0e be 72 94 a3 3e
       0.06975172 -0.12776859 -0.13895713 0.31949192

gru_cp_fw.ode_net.odeblock.odefunc.fc3.bias f4 [6]
000000 fd 88 db 3e 48 54 ff 3d 59 ef 5e bd 82 84 a3 3d
       0.4287795 0.12467247 -0.05442748 0.07984258
000010 69 a8 ea 3e be 71 e9 3e
       0.45831612 0.4559459

gru_dp_bw.decays f4 [7]
000000 3e 3e 20 6c 6f 63 31 2c 20 73 63 61 6c 65 31 20
       7.7488825e+26 2.520841e-12 2.6223166e+20 1.5026041e-19
000010 3d 20 6e 6f 72 6d 2e 66 69 74 28 78
       7.3696406e+28 2.0592767e+23 1.3666671e+34

gru_dp_bw.gru_cell.weight_ih f4 [21, 7]
000000 63 ce d6 ba 9d 4f 3e be 63 02 2c bd c3 d1 72 3c
       -0.0016388412 -0.18585058 -0.041994464 0.014820519
000010 72 ab 68 3d 1e fc 1c 3e e3 c5 f1 3d a2 3c 79 3e
       0.056804128 0.1533055 0.11805322 0.24339536
000020 ec 1d f2 bd 81 ff ca bd 63 b4 16 bc 50 4e be be
       -0.118221134 -0.09912015 -0.009198281 -0.37169123
000030 e3 72 e2 3d 72 85 14 3c 7b 67 19 3e 3f 97 2d bd
       0.11057069 0.009065019 0.14980881 -0.042380568
000040 5d 4c fe 3e 0c 76 6a be 6a d4 a3 be d9 90 c5 3e
       0.49667636 -0.22896594 -0.31997997 0.38587072
000050 d2 84 a2 bd d8 a4 e3 be 1c f2 8b be ee e5 88 3e
       -0.0793549 -0.44461703 -0.27333152 0.26737922
000060 51 67 93 be ec d5 c5 be c9 18 d5 bd a1 1c 96 be
       -0.28789762 -0.38639772 -0.10405118 -0.29318717
000070 dd a6 09 be 70 f0 1b be 25 48 8c bd c4 31 8f 3e
       -0.1344256 -0.15228438 -0.06849698 0.27967656
000080 22 cc 31 3e 74 4e a0 be 76 3d d7 3e e4 b3 69 3e
       0.17363027 -0.31309855 0.42039078 0.22822529
000090 fa 09 f0 bd dc 10 a6 3c 24 83 78 be c6 53 9e 3e
       -0.11720653 0.020271711 -0.24268776 0.3092329
0000a0 d8 d1 6a 3d b1 08 85 be 11 4d 11 be 50 14 38 3e
       0.05732903 -0.25983194 -0.14189555 0.17976499
0000b0 79 ed 7d 3d b0 6e 10 3d b1 a4 1a be a1 7a c7 be
       0.06199405 0.03526181 -0.15101887 -0.38960746
0000c0 fd a5 f1 3d c1 66 77 bc e0 d8 8a 3e 5c c4 ea 3e
       0.11799238 -0.015100182 0.27118587 0.45852935
0000d0 16 00 65 3d 22 4f f0 bd a8 92 62 3d f2 26 e5 be
       0.055908285 -0.117338434 0.055315644 -0.44756275
0000e0 b0 ee ca 3e f6 b4 19 3e f5 f5 fd bd 71 1e 67 3d
       0.3963523 0.15010437 -0.12400428 0.056425516
0000f0 2e f3 94 3e af 9a 43 3e 57 2f 1a be 57 db 72 3c
       0.2909178 0.19101976 -0.15057121 0.0148228025
000100 ef c7 18 bd 8d ce aa 3e 76 17 57 3d 33 f0 7e 3e
       -0.037300047 0.3336071 0.05251261 0.24896316
000110 13 ba 11 be 96 cf f4 3d 03 39 90 bd 3a 7e 83 be
       -0.14231138 0.119536564 -0.07042124 -0.2568224
000120 9b b6 d9 3e 63 7c 97 be 25 63 9e 3d af 87 cf bd
       0.4252213 -0.29587087 0.07733754 -0.101333015
000130 69 cf 9c be 7d 22 22 3e b0 41 be 3e 4b 3f 9e 3e
       -0.3062699 0.15833469 0.3715949 0.30907664
000140 0e 41 92 3e a7 2a 4d 3e 9d a3 c8 bd 4e 7e 03 3f
       0.28565258 0.20035802 -0.09796832 0.513646
000150 73 cb 84 be e9 72 99 3e a1 88 92 bd c8 ec fd ba
       -0.2593647 0.29970482 -0.07154966 -0.0019372934
000160 d1 c6 b3 be eb 60 e8 be 2b 67 a1 3e 91 e8 5b 3d
       -0.35112622 -0.45386443 0.31524023 0.05368859
000170 87 06 3d be e6 3d 3b 3d 82 8e 66 be 70 03 8e be
       -0.18459521 0.045713328 -0.225153 -0.27736998
000180 bd 04 97 3d a5 ae 91 3e 0a 93 82 be b5 67 ad be
       0.07373951 0.28453556 -0.25502807 -0.33868185
000190 36 6b 4c be 47 11 02 3e a8 d5 dd 3e e8 5b 4d 3e
       -0.19962773 0.12701903 0.4332707 0.2005459
0001a0 d1 47 c8 3e 91 8c 89 be 1e 65 be bd 2f 82 82 3e
       0.39117292 -0.26865056 -0.0929663 0.25489947
0001b0 c8 b9 fe 3c f3 11 06 3e 99 20 9e 3d 20 a7 b0 bd
       0.031094447 0.13092785 0.07721061 -0.086256266
0001c0 db e7 2f 3e 42 4e 84 bd 43 6e cd 3d 47 b2 41 3d
       0.1717829 -0.06460239 0.100307964 0.04728916
0001d0 05 60 9b 3e a7 35 94 bc 0b d9 fa 3d 17 51 c1 be
       0.30346695 -0.01809199 0.12248429 -0.3775718
0001e0 55 f8 18 be 73 ab bf 3e a7 3d 5f be 87 f2 c6 bd
       -0.14938481 0.37435493 -0.21800862 -0.09714227
0001f0 26 d1 89 bc d3 5d 0c be e6 4e a8 be 23 be 49 be
       -0.016823363 -0.13707666 -0.32872695 -0.19701438
000200 24 e5 51 be 13 6a 8b 3d 13 bf 80 bb b7 10 4f bb
       -0.20497566 0.068073414 -0.003929028 -0.0031595656
000210 ec 46 ef be 57 bc d5 bd b3 06 22 3e 6a ae 06 be
       -0.46733797 -0.104363136 0.15822868 -0.13152471
000220 48 09 16 be 31 b8 2d be 97 ce 65 be 81 52 84 3c
       -0.14651978 -0.16964795 -0.22442089 0.016152622
000230 e9 f7 a7 bd ff 8f ee bd 69 e3 ba be 6e a9 f0 3c
       -0.08201582 -0.11648559 -0.36501625 0.029377665
000240 cd df 64 3c 2d 36 aa bd d0 94 a2 be
       0.013969374 -0.083111145 -0.3175416

gru_dp_bw.gru_cell.weight_hh f4 [21, 7]
000000 96 12 95 be 94 9b 8a be a7 9a f9 3e bf 48 9e be
       -0.29115742 -0.27071822 0.48750803 -0.30914876
000010 9a 9d b6 3e 7d f8 ec bd 01 d8 81 be 04 14 52 bd
       0.35667115 -0.11570833 -0.2536011 -0.05128862
000020 92 2b 9b 3d 89 cf ff 3e 7a 39 59 3e ae 3c 15 3e
       0.0757667 0.49963024 0.21213332 0.14573929
000030 37 1a 52 3e 4a 30 6f be 9d c0 c3 bd 3b 61 b7 be
       0.20517813 -0.23358265 -0.095582224 -0.35816368
000040 44 78 98 bd a3 58 8d 3e e9 97 07 be 66 19 c6 3d
       -0.07444814 0.27606687 -0.13241543 0.09672813
000050 e8 10 0f bf f6 33 5d bd 5e 62 4f bd 5f 41 b6 3e
       -0.5588517 -0.054004632 -0.05063092 0.3559675
000060 da 89 bf 3e 53 c5 dc bd 05 e4 76 3d 03 45 ae be
       0.3740986 -0.10779824 0.06027605 -0.34037027
000070 b1 0b 0d 3e ff dc 25 3e 14 10 10 3f 9c 57 e1 bd
       0.13773991 0.16197585 0.56274533 -0.11003038
000080 12 01 55 bc d8 ff 7f 3e 75 c9 8b be 02 2b aa be
       -0.013000743 0.2499994 -0.27302137 -0.33235937
000090 f0 88 8b bd 4a 08 b2 3e f8 8d 61 bd 72 47 2d be
       -0.06813228 0.3477195 -0.055067033 -0.16921785
0000a0 b4 bc 0a 3d d0 e2 10 bd 9f a1 4d be 52 13 2c 3e
       0.033871368 -0.035372555 -0.20081185 0.16804245
0000b0 00 1d b9 3e 5d 95 43 3e 86 1a 16 3e 0d 4b a3 3e
       0.36154938 0.19099946 0.14658555 0.31893197
0000c0 1b 7c 04 bf 1d d8 8e 3e 3b a3 49 3e 46 6b 8c be
       -0.5175187 0.27899256 0.19691174 -0.27425593
0000d0 8f b1 c2 3e f2 48 01 3f 6b c2 b9 be 9f 03 48 bf
       0.3802609 0.5050193 -0.36281142 -0.78130525
0000e0 2f d0 0f be 38 fe 23 3e 72 30 8e 3d 0f 6c c5 3e
       -0.1404426 0.16014946 0.06942834 0.38559005
0000f0 a4 9d e9 bd 29 0f 6b 3e 1b 16 24 bf 20 99 b6 be
       -0.11407021 0.22955002 -0.6409623 -0.356637
000100 99 8c f5 be 2e 38 6b 3e 02 ec 02 3f a6 0e 88 be
       -0.4795883 0.2297065 0.5114137 -0.26573676
000110 85 0b bc 3d 9f 52 7e be b4 4c 7a bd 6a d0 a3 be
       0.09181885 -0.24836205 -0.061108306 -0.31994945
000120 04 4f d6 3e 74 df 3b be 0f 8d a6 3e 4b cc b0 ba
       0.4185716 -0.1834696 0.32529494 -0.0013488618
000130 2c cc b3 3c 07 79 f1 be aa 32 10 3e ac 3f 82 3e
       0.021947943 -0.4716265 0.14081827 0.25439203
000140 db b0 dd 3e 53 9f 50 3e 13 2e a1 3e e7 17 9d be
       0.43298993 0.20373277 0.31480464 -0.306823
000150 8e 06 5a 3e ed ad 17 3e 59 f2 04 3e 21 3b ea bd
       0.21291563 0.14812441 0.12983073 -0.11437059
000160 80 79 2a 3e 2a 7d b7 be 6f 87 05 bf 65 08 16 3c
       0.16647911 -0.3583768 -0.5215978 0.009157275
000170 01 be 91 3e 14 fb 65 be 3d 2e b1 be e2 81 57 3e
       0.28465274 -0.2245906 -0.3460559 0.2104564
000180 2c b0 83 3e 2a fe 88 be 59 fa 09 3f 92 ed ab 3e
       0.25720346 -0.26756412 0.53897625 0.3357969
000190 e7 d3 da 3d 3e 84 2b be 3b 06 e2 3e ae 83 f4 3c
       0.106849484 -0.16749665 0.44145378 0.029847946
0001a0 e4 4c 0d 3f f2 b9 b6 3e f8 7d d5 bd dd e7 2b be
       0.5519545 0.3568874 -0.10424417 -0.16787668
0001b0 97 f1 21 bf dd c4 9a 3e 15 dc 6e be 96 49 c3 3e
       -0.6325926 0.3022832 -0.23326142 0.3814208
0001c0 f9 47 66 be 30 9f 7a 3e cb ec 0a 3e 8f a0 52 3e
       -0.22488393 0.24474788 0.13566892 0.2056906
0001d0 e4 c0 1a bf 98 49 25 3f d9 80 97 be 80 76 07 bf
       -0.6045058 0.6456542 -0.2959049 -0.5291519
0001e0 66 b5 5f be f2 ce 03 be dd bc 53 3e df 44 43 3b
       -0.21846542 -0.12871912 0.20677514 0.002979569
0001f0 e7 27 ea 3e 44 bb ac be 39 37 e3 3e b5 08 de 3e
       0.45733568 -0.33736622 0.4437807 0.43366018
000200 19 18 b9 be 91 9c 02 bf 41 f1 2f 3e ab bf 07 bf
       -0.36151198 -0.5102015 0.17181875 -0.5302684
000210 cc 4c 3b 3e c8 d9 d0 be 4d 47 b4 be c0 d2 5a 3e
       0.18291014 -0.40791154 -0.35210648 0.21369457
000220 57 01 03 be 2f 24 30 bf bd 98 72 3e 3f b9 00 be
       -0.1279348 -0.6880521 0.23691078 -0.12570666
000230 4d ec c0 3e d0 4c c2 3e c9 1b 02 bf 1c 6e f7 be
       0.37680283 0.37949228 -0.50823647 -0.48326194
000240 ec ae ad 3e d6 1e 82 be 92 34 b0 bd
       0.33922517 -0.2541415 -0.08603777

gru_dp_bw.gru_cell.bias_ih f4 [21]
000000 28 75 98 3e c0 7a 17 3e a9 39 09 3d 11 66 5a 3d
       0.29776883 0.14792919 0.033502255 0.053319994
000010 13 dc ca 3e bc a9 f8 3e d2 25 52 3d 3d c8 ae 3e
       0.39621028 0.48566997 0.0513056 0.34137145
000020 8c 5b 80 3e c3 48 6e 3d 3a 28 6e 3f bb 1e 8e 3e
       0.25069845 0.05817486 0.9303013 0.2775782
000030 90 7e c1 3e 37 34 09 3d 81 a7 c2 be e9 e1 81 3e
       0.37791872 0.03349706 -0.3801842 0.25367668
000040 86 fd a3 be 9b b2 57 3e 0f 53 8c 3e 3c b8 17 3b
       -0.3202936 0.21064226 0.2740712 0.0023150584
000050 54 6b 87 be
       -0.26449072

gru_dp_bw.gru_cell.bias_hh f4 [21]
000000 4c b4 12 3e 40 01 ec 3e 39 67 e0 3e d5 bb da 3e
       0.1432659 0.46094704 0.43828753 0.4272143
000010 52 d3 3e be 11 cc 2f 3e 17 56 40 bc 61 7c e2 3e
       -0.186353 0.17167689 -0.011739275 0.4423552
000020 79 a3 e4 3e 07 1f 14 3f cb f2 6a 3e 82 fe 8f 3e
       0.4465597 0.57859844 0.2294418 0.28123862
000030 0e 3e 09 3f 22 30 37 3f 91 1f 86 3e 70 59 38 3e
       0.5361031 0.7155782 0.26195958 0.18002868
000040 59 56 d9 3d 09 1e 98 3e 1e 2b aa 3e 56 02 1b 3e
       0.10612173 0.29710415 0.3323602 0.1513761
000050 0b 54 ab be
       -0.33462557

gru_dp_bw.ode_net.odeblock.odefunc.fc1.weight f4 [7, 7]
000000 ac 20 f1 be e0 54 3d 3d b9 7c 54 3e 30 f7 76 3d
       -0.4709524 0.04622352 0.20750703 0.06029433
000010 13 c2 6e bc e8 53 76 3e f2 f0 24 bf f4 c8 99 3e
       -0.014572638 0.24055445 -0.64430153 0.30036128
000020 ee df a2 3e 4b 25 9d bd ed 74 3d be e6 42 91 bc
       0.3181147 -0.07673129 -0.18501635 -0.017732095
000030 4f 6a d8 be 71 49 02 3f 5c fb 14 bf fb 5b 25 be
       -0.42268607 0.5089331 -0.58196044 -0.16148369
000040 48 85 ab bd 0e d9 0c 3e cf 24 57 be 45 b7 e7 3e
       -0.08375031 0.13754675 -0.21010135 0.4525701
000050 9c 99 9e be c7 f8 65 bd 15 60 e0 bd 9d c7 5f be
       -0.3097657 -0.056145456 -0.10955826 -0.2185349
000060 f9 b9 9a be 06 0b 07 be 51 4c e3 be 16 70 75 3e
       -0.3022001 -0.13187799 -0.44394162 0.23968539
000070 15 4b 54 3e d1 15 a3 be 9b 1a 59 bd 2c 25 4d 3e
       0.20731767 -0.31852582 -0.05300389 0.20033711
000080 c0 fa d2 3d e4 34 da 3d b1 d9 4d be a9 af 51 3d
       0.10301733 0.10654619 -0.20102574 0.051192913
000090 5c a2 6f 3e a9 45 3d 3e cd ec b5 bd 31 e9 63 3d
       0.23401779 0.18483604 -0.08883057 0.05564231
0000a0 09 78 18 be 87 28 a7 3e 1b e1 1c bf 3e 43 25 be
       -0.1488954 0.32648107 -0.61280984 -0.16138932
0000b0 3d f6 6e 3d ec 9e 11 3f e4 5d 2b 3e c6 05 9b bd
       0.0583403 0.5688312 0.16735035 -0.075694606
0000c0 51 30 51 be
       -0.20428587

gru_dp_bw.ode_net.odeblock.odefunc.fc1.bias f4 [7]
000000 c7 ea 2e 3f cf 01 ae be 9b 4b 43 3e 22 fa 32 bf
       0.6832699 -0.33985755 0.1907181 -0.6991292
000010 b9 aa 06 3f 82 46 c3 3e 45 4a 12 3f
       0.5260425 0.3813973 0.57144576

gru_dp_bw.ode_net.odeblock.odefunc.fc2.weight f4 [7, 7]
000000 e0 8c 29 bf 64 e2 0b 3f 3d ba 9a 3d d3 a4 80 3e
       -0.66230583 0.5464232 0.075550534 0.2512575
000010 bb fa 9e be 60 8e e9 3e 07 11 98 bd a5 b7 43 3d
       -0.31050667 0.45616436 -0.07425123 0.04778256
000020 d0 aa 95 3e 00 45 dc be c0 31 b0 3e e7 7f 77 be
       0.29231882 -0.43021393 0.34412956 -0.24169885
000030 5f 8c f3 bd 1d 21 cb be f1 15 14 bf cb a9 92 3d
       -0.11892008 -0.396737 -0.5784598 0.07161292
000040 33 13 20 be b1 d3 d1 3e 4c a8 8e be 5e 34 97 3d
       -0.15632324 0.4098182 -0.27862775 0.07383035
000050 c5 b8 20 bf f5 64 d2 be b6 85 04 be 44 a0 b6 be
       -0.62781936 -0.4109265 -0.12941632 -0.35669148
000060 f0 f1 d6 3e e8 c0 de be 00 ea c2 be 4b 79 e6 be
       0.4198146 -0.4350655 -0.38069153 -0.45014414
000070 bc 35 39 3f df a7 57 be ab 1a c0 3e 01 33 9b bd
       0.7234762 -0.21060131 0.37520346 -0.075780876
000080 32 42 64 bd 9b 8f 15 be 2b 2b d7 3e cf 8f 31 3f
       -0.05572719 -0.14605562 0.42025122 0.6936006
000090 b8 c8 15 bf 7b 42 bd 3e 4c 79 2c bf cd 2e b2 bd
       -0.585094 0.36964783 -0.67372584 -0.08700333
0000a0 d4 1e 5d bd 87 27 03 3f cc 7c 3c 3f 49 ad 5c bd
       -0.053984478 0.5123219 0.73627925 -0.053876195
0000b0 97 18 ba bc 48 57 bc be 1b 96 a8 3e 8e d4 30 bc
       -0.022716803 -0.3678534 0.3292702 -0.0107928645
0000c0 ac 8a e4 3e
       0.44637048

gru_dp_bw.ode_net.odeblock.odefunc.fc2.bias f4 [7]
000000 62 c9 1d bf e5 01 d9 be 01 d1 e6 be 10 bb 17 bf
       -0.6163541 -0.42384258 -0.45081332 -0.5926981
000010 99 09 06 3f 30 72 41 3f c9 2a 2d 3f
       0.52358395 0.7556486 0.6764341
