base_models/birnn_ode_decay_attention/final_model.pt (torch, 79399 bytes, 55 tensors)

embed_dp.weight f4 [1292, 7]
0.0 0.0 0.0 0.0 0.0 0.0 0.0 -0.028475802
0.16741899 -0.8040382 -0.56193006 1.2643433 0.9089906 -0.6444227 -1.088607 0.31667963
1.5780338 0.28505176 1.3770295 0.85893416 1.042835 -1.7275274 -0.078153245 0.44960967
0.22935249 0.50433475 -0.69723696 -1.1146117 1.2121973 -0.1556771 -1.8840998 -1.2126887
-0.2013935 0.52975416 -0.36886695 -1.3499014 0.60874754 0.6493843 0.42754364 -0.17221378
0.13763759 -1.3670554 -0.8742782 -0.9850043 -1.4496655 -0.35841155 0.510283 0.7514519
1.9880233 0.3564736 -1.9310516 0.7679222 -2.145084 -0.2261712 0.61858565 -1.7313544
0.18896596 -0.2753877 0.6086642 -1.7548792 -1.8892595 -1.2748545 0.6858652 0.633918
-0.101539254 -1.00475 -1.1909153 -0.31044596 -0.118908726 0.6362383 1.953657 1.6693618
0.24760585 -0.38438153 0.22505395 0.38766074 -0.2106205 -1.276595 -0.37601388 0.57901084
-1.1257914 1.4106385 -0.047034528 0.3951615 -0.79105604 1.5894017 0.01697724 0.6546705
1.5481025 1.0466098 -0.08712362 -0.21721506 -1.1772314 -0.82921803 -1.705666 -0.12644163
-0.974466 -0.09071269 -0.41666225 -1.2703665 1.4359024 -0.28211075 1.4618288 -0.96129817
1.9596032 -0.37074986 0.29700983 -0.9592944 1.2491515 0.49848667 0.0956907 -0.7104282
-0.055432197 -0.16973704 1.743456 0.73879755 0.81472194 1.7165055 1.1253176 0.47533986
0.80524766 0.24950121 -0.013411009 0.9160129 -1.1135463 0.5236422 -0.023381567 0.3321242
-1.2842337 0.25461414 1.0525252 -1.3607718 0.036040854 -0.521046 -0.7593219 -0.81201285
-0.27941704 -0.1884976 1.2001808 1.9151992 0.8893215 -1.0506144 1.5621645 1.0014149
0.39353997 0.86564666 0.8862692 1.1925792 -1.082635 0.7897238 -0.046649843 -1.170748
0.22079392 -0.3137413 -0.036156762 1.4792951 1.2726045 -1.7500179 0.8595687 -0.21421182
0.8495832 -0.009302879 -0.48997623 1.6653641 -1.9876341 0.27727413 -0.3740846 -1.4504983
-1.8407202 1.1873676 0.1795781 1.371696 -1.6551343 1.5817543 1.9856709 1.3601656
0.51142883 -0.25521758 0.64996713 -0.17477867 1.5115398 -0.42372268 -0.8629941 -1.8888341
0.40664732 -0.66000354 -0.76627743 0.04743687 -1.0859674 0.064125136 -1.0837196 0.8786586
-0.88513446 -1.070253 -0.61275244 -0.21433508 -1.0190768 0.37687802 1.1960514 -0.19036685
0.8579752 1.1330224 -0.8723036 0.18818617 -1.2980559 1.7111871 0.027072249 0.97723925
0.6424679 -2.2427135 -1.2419194 0.1985031 1.2565651 -2.0368876 0.05509448 1.9586055
-0.20577425 -0.30212834 1.1639483 0.73289347 1.0515989 0.7530776 0.42309225 0.063096315
-0.9883586 -1.0597832 0.09756787 0.23743814 0.69225186 -1.1372018 1.064523 -1.4747838
-1.2622888 -0.11297665 -1.4287436 0.61158365 -1.6241645 -1.2567409 -1.9062325 -0.47545847
-0.45964104 -1.7800119 0.73260236 0.6820596 -0.24175182 -0.91405714 -1.2317653 -0.2606633
-0.88794535 -0.41381985 0.15039653 1.8168372 -1.9972068 -0.0648681 0.07307565 0.24771884
00000000: 0000 0000 0000 0000 0000 0000 0000 0000
00000010: 0000 0000 0000 0000 0000 0000 1646 e9bc
00000020: e26f 2b3e 73d5 4dbf a6da 0fbf 00d6 a13f
00000030: 9cb3 683f e3f8 24bf 7957 8bbf d523 a23e
00000040: 03fd c93f 4ef2 913e 8142 b03f 1ce3 5b3f
00000050: 9e7b 853f 9e1f ddbf cf0e a0bd 3d33 e63e
00000060: 61db 6a3e 151c 013f 1f7e 32bf 99ab 8ebf
00000070: 4829 9b3f d169 1fbe 2f2a f1bf 6239 9bbf
00000080: 193a 4ebe f89d 073f 21dc bcbe 92c9 acbf
00000090: e1d6 1b3f 0d3e 263f 00e7 da3e cf58 30be
000000a0: def0 0c3e acfb aebf b2d0 5fbf 3e29 7cbf
000000b0: a48e b9bf b881 b7be e8a1 023f 275f 403f
000000c0: 8c77 fe3f b583 b63e b32c f7bf 8d96 443f
000000d0: 0e49 09c0 6c99 67be a15b 1e3f 059d ddbf
000000e0: 4b80 413e 9eff 8cbe 6bd1 1b3f e29f e0bf
000000f0: 41d3 f1bf 6f2e a3bf dd94 2f3f 7348 223f
00000100: d0f3 cfbd a69b 80bf ea6f 98bf c6f2 9ebe
00000110: 6b86 f3bd 83e0 223f 6f11 fa3f a6ad d53f
00000120: 638c 7d3e a8cd c4be 8b74 663e 787b c63e
00000130: e6ac 57be 7767 a3bf e484 c0be 0e3a 143f
00000140: ef19 90bf cd8f b43f 47a7 40bd 9c52 ca3e
00000150: a682 4abf 8471 cb3f da13 8b3c 7c98 273f
00000160: 3928 c63f 4ff7 853f de6d b2bd a06d 5ebe
00000170: 85af 96bf a247 54bf 4353 dabf ea79 01be
00000180: 9b76 79bf 93c7 b9bd c154 d5be 5f9b a2bf
00000190: a6cb b73f d270 90be 351d bb3f a317 76bf
000001a0: 47d4 fa3f edd2 bdbe ac11 983e 5194 75bf
000001b0: 32e4 9f3f a539 ff3e 7cf9 c33d 9fde 35bf
000001c0: df0c 63bd 8ccf 2dbe 9129 df3f d621 3d3f
000001d0: 9e91 503f 74b6 db3f 680a 903f bf5f f33e
000001e0: b624 4e3f 3f7d 7f3e d9b9 5bbc d27f 6a3f
000001f0: af88 8ebf 6a0d 063f b38a bfbc 2f0c aa3e
00000200: c561 a4bf c95c 823e 25b9 863f c52d aebf
00000210: 939f 133d 4563 05bf ec62 42bf 13e0 4fbf
00000220: c00f 8fbe 8405 41be 869f 993f 3f25 f53f
00000230: 93aa 633f 887a 86bf 02f5 c73f 5d2e 803f
00000240: 127e c93e 059b 5d3f 8ae2 623f 6fa6 983f
00000250: c993 8abf 572b 4a3f e813 3fbd 12db 95bf
00000260: cd17 623e b3a2 a0be 1d19 14bd 8b59 bd3f
00000270: b4e4 a23f 9600 e0bf b20c 5c3f 585a 5bbe
00000280: 497e 593f 1a6b 18bc 2ade fabe a72a d53f
00000290: cb6a febf e0f6 8d3e 0488 bfbe eea9 b9bf
000002a0: b89c ebbf a9fb 973f 52e3 373e bc93 af3f
000002b0: 71db d3bf ed76 ca3f 772a fe3f e819 ae3f
000002c0: 00ed 023f e1ab 82be 3f64 263f 2ef9 32be
000002d0: 237a c13f 2ef2 d8be 2eed 5cbf 51c5 f1bf
000002e0: 1434 d03e fef5 28bf c22a 44bf 2a4d 423d
000002f0: fb00 8bbf 0a54 833d 53b7 8abf c5ef 603f
00000300: 2c98 62bf 0dfe 88bf 58dd 1cbf a87a 5bbe
00000310: 1c71 82bf 28f6 c03e 3618 993f 87ef 42be
00000320: 43a4 5b3f e106 913f 4a4f 5fbf e0b3 403e
00000330: b226 a6bf 2e08 db3f 9fc6 dd3c 5a2c 7a3f
00000340: c778 243f 9e88 0fc0 37f7 9ebf 6644 4b3e
00000350: 20d7 a03f 5e5c 02c0 c0aa 613d 96b3 fa3f
00000360: 7cb6 52be 91b0 9abe 42fc 943f e89e 3b3f
00000370: cb9a 863f b2c9 403f 8c9f d83e a438 813d
00000380: 1205 7dbf faa6 87bf aad1 c73d fc22 733e
00000390: 6b37 313f d48f 91bf 4a42 883f b7c5 bcbf
000003a0: ae92 a1bf 4d60 e7bd 12e1 b6bf bf90 1c3f
000003b0: 9fe4 cfbf e3dc a0bf 6dff f3bf 4b6f f3be
000003c0: 1256 ebbe 6ed7 e3bf d48b 3b3f 759b 2e3f
000003d0: ca8d 77be a6ff 69bf 7caa 9dbf a975 85be
000003e0: 6350 63bf 32e0 d3be 8c01 1a3e 1f8e e83f
000003f0: 79a4 ffbf 91d9 84bd b0a8 953d 02aa 7d3e

embed_cp.weight f4 [620, 6]
0.0 0.0 0.0 0.0 0.0 0.0 -0.07595536 -0.21292
-0.34453824 -0.05167037 0.3248372 0.14698653 0.49188226 0.8286367 -0.20344284 1.4917383
0.1930275 -0.47285557 -0.3737587 -0.9736202 0.3788062 0.35043466 -0.17397186 0.17049585
-1.3976218 1.0556372 -0.8330268 -1.8048668 0.5872657 -0.5362687 -0.20538272 1.8824584
0.47802296 0.710815 -0.013132518 -1.3405125 -0.89125425 -0.61584884 -1.5246705 0.60095936
1.0531596 0.18469913 1.4080708 0.74941885 1.5484245 1.2153124 0.63917917 0.6841976
-1.7831111 0.46630427 -0.92330045 1.5988967 -0.17503406 0.8737867 -0.9930327 -1.5044991
0.8018039 -0.44732592 -0.89508826 0.3058979 -0.022437546 -0.31577778 -1.3270162 1.6769422
-1.9199264 0.5530296 -0.21028392 1.4412137 0.39644185 0.91328573 -0.8130801 -0.007166838
0.16229747 1.1342299 0.055609003 0.9476351 -0.7890576 -0.68076605 1.5066427 0.283814
-1.2134101 -0.67689383 1.3508843 0.6264933 -0.72322136 0.055337194 -0.8694721 -0.13981064
0.95953244 1.1850023 0.5020562 1.7618836 0.14934702 0.9809593 -1.7174598 0.13890535
-1.3085127 0.73443216 0.51767653 0.303391 -0.21956977 0.5411313 0.20005184 -0.27097553
0.03264659 1.0420485 0.25903675 0.54284286 -0.2392919 1.3789915 0.12722169 -0.14149275
0.033139795 1.0165211 -0.44662103 -0.29284796 -0.2737815 -1.0845186 0.6315286 -0.36669102
2.2555068 0.7800721 -2.0217566 -0.9237616 0.51665545 1.6475661 0.20559628 -1.1461462
-0.46266606 -1.5855951 -0.23221615 1.354429 -0.57526165 0.25823933 0.6121023 0.98607606
-0.21010163 0.26557285 0.3416772 -0.6622814 -1.1426469 1.5183152 1.4605578 1.4156327
-0.13861905 -0.051862195 0.7236076 -0.8163949 1.3040292 -0.01014309 1.461871 -1.0865972
1.7334975 -0.5701602 -0.41994774 1.3262522 -0.32851356 0.31331366 -0.12550831 0.02585394
-0.37045863 1.1072295 0.3386994 -0.17016579 0.85437024 1.591824 -0.94759506 -2.0723395
0.3417651 -0.67371416 -1.0082958 0.81051236 -0.27225995 0.12677537 3.2125473 0.29154027
0.029678006 -0.3786106 -0.5450151 -1.7037275 -0.3660156 1.6559398 -0.86858934 0.5214969
-2.5825024 -0.41170764 -0.60003823 0.37379423 -0.92357767 0.41258386 0.055481557 0.014629999
0.7557689 -0.295282 0.60454214 -0.95230263 0.13879292 -0.1038926 -0.9685105 0.5065217
0.7624288 -0.5395277 -0.8878972 1.0979896 -0.6296635 -0.7221435 0.9593422 -0.4578817
-0.2283605 0.89038235 0.8563897 1.8020482 -0.6661729 -0.54375154 -0.30709645 -2.624371
-0.54532546 0.5761389 0.05778213 -0.8608778 0.69839853 0.14596722 0.6927155 1.0446905
0.91351 -0.30205438 -0.14245318 -0.649196 1.4570694 -0.8944815 -0.4727422 -0.6574591
0.18215424 -1.6196351 -0.06789515 0.74184537 1.5351833 1.26306 -0.21712375 1.9892001
0.6858324 -0.67806005 0.11733304 0.17562523 1.0436518 0.7313529 -0.14525867 0.69461167
-2.811234 -0.8719917 0.15864405 1.0370011 0.73739165 -1.293795 0.43726233 2.2692168
00000000: 0000 0000 0000 0000 0000 0000 0000 0000
00000010: 0000 0000 0000 0000 7c8e 9bbd b307 5abe
00000020: 5167 b0be 4fa4 53bd 1051 a63e a383 163e
00000030: fed7 fb3e 8921 543f 5253 50be 48f1 be3f
00000040: 00a9 453e 201a f2be 4d5d bfbe 2c3f 79bf
00000050: e3f2 c13e 2c6c b33e ae25 32be 7796 2e3e
00000060: 45e5 b2bf 1f1f 873f 3f41 55bf e005 e7bf
00000070: 0b57 163f e848 09bf d94f 52be 66f4 f03f
00000080: 6dbf f43e f9f7 353f c629 57bc ea95 abbf
00000090: 3d29 64bf 45a8 1dbf 6728 c3bf 79d8 193f
000000a0: efcd 863f c521 3d3e aa3b b43f ead9 3f3f
000000b0: c632 c63f 5b8f 9b3f 3fa1 233f 9327 2f3f
000000c0: fc3c e4bf 6fbf ee3e 6b5d 6cbf a6a8 cc3f
000000d0: 213c 33be 7cb0 5f3f 6437 7ebf 6d93 c0bf
000000e0: 0543 4d3f e707 e5be 8124 65bf a69e 9c3e
000000f0: f2ce b7bc a0ad a1be abdb a9bf 0ba6 d63f
00000100: 26c0 f5bf 5993 0d3f ab54 57be b179 b83f
00000110: 6dfa ca3e 18cd 693f 0426 50bf cbd7 eabb
00000120: 4f31 263e 722e 913f 44c6 633d 3798 723f
00000130: aeff 49bf af46 2ebf abd9 c03f 1250 913e
00000140: 0651 9bbf ea48 2dbf c7e9 ac3f dd61 203f
00000150: 0925 39bf 41a9 623d b995 5ebf 852a 0fbe
00000160: eba3 753f 28ae 973f c186 003f 6785 e13f
00000170: 6dee 183e 2620 7b3f b9d5 dbbf 343d 0e3e
00000180: 587d a7bf bf03 3c3f 7386 043f 1156 9b3e
00000190: e6d6 60be 9587 0a3f 64da 4c3e 4ebd 8abe
000001a0: 6eb8 053d d861 853f 77a0 843e c0f7 0a3f
000001b0: f008 75be cb82 b03f 6746 023e 7ae3 10be
000001c0: 98bd 073d 5d1d 823f 83ab e4be 2bf0 95be
000001d0: 172d 8cbe 81d1 8abf dcab 213f edbe bbbe
000001e0: 395a 1040 ceb2 473f 7664 01c0 a47b 6cbf
000001f0: 8843 043f 72e3 d23f d587 523e ebb4 92bf
00000200: 91e2 ecbe c8f4 cabf 12ca 6dbe ee5d ad3f
00000210: 5944 13bf f237 843e bdb2 1c3f 7b6f 7c3f
00000220: e224 57be 2af9 873e 50f0 ae3e 468b 29bf
00000230: 4142 92bf 2758 c23f 8ff3 ba3f 7433 b53f
00000240: 27f2 0dbe 746d 54bd 593e 393f 42ff 50bf
00000250: 6eea a63f 342f 26bc 971e bb3f 9e15 8bbf
00000260: 3fe3 dd3f 05f6 11bf 6403 d7be a2c2 a93f
00000270: ee32 a8be a66a a03e 4085 00be a4cb d33c
00000280: c1ac bdbe b2b9 8d3f 026a ad3e f13f 2ebe
00000290: 02b8 5a3f e4c0 cb3f 9795 72bf 36a1 04c0
000002a0: d6fb ae3e 8878 2cbf d60f 81bf bd7d 4f3f
000002b0: a865 8bbe 67d1 013e 609a 4d40 c444 953e
000002c0: 4a1f f33c 40d9 c1be 1c86 0bbf be13 dabf
000002d0: 6666 bbbe d6f5 d33f df5b 5ebf d280 053f
000002e0: b847 25c0 58cb d2be 1b9c 19bf f561 bf3e
000002f0: 966f 6cbf 313e d33e a140 633d aab2 6f3c
00000300: 127a 413f 342f 97be 46c3 1a3f 1bca 73bf
00000310: bb1f 0e3e a5c5 d4bd 4ef0 77bf 68ab 013f
00000320: 892e 433f 7d1e 0abf 3b4d 63bf ec8a 8c3f
00000330: a131 21bf 65de 38bf 7397 753f 786f eabe
00000340: 56d7 69be 19f0 633f 5b3c 5b3f 84a9 e63f
00000350: 4f8a 2abf 4d33 0bbf bf3b 9dbe b2f5 27c0
00000360: 739a 0bbf d77d 133f f4ac 6c3d 7d62 5cbf
00000370: 3fca 323f 6e78 153e ce55 313f 6bb8 853f
00000380: cbdb 693f dfa6 9abe 3fdf 11be b631 26bf
00000390: 4081 ba3f bdfc 64bf 440b f2be 3d4f 28bf
000003a0: a486 3a3e 3450 cfbf 9d0c 8bbd 94e9 3d3f
000003b0: e380 c43f f3ab a13f b055 5ebe 1c9e fe3f
000003c0: b692 2f3f 5895 2dbf 4e4c f03d 1ad7 333e
000003d0: 6296 853f f239 3b3f b0be 14be 12d2 313f
000003e0: 42eb 33c0 d93a 5fbf 9673 223e 74bc 843f
000003f0: b3c5 3c3f 139b a5bf d9e0 df3e d93a 1140

gru_dp_fw.decays f4 [7]
0.0 0.0 0.0 0.0 0.0 0.0 0.0
00000000: 0000 0000 0000 0000 0000 0000 0000 0000
00000010: 0000 0000 0000 0000 0000 0000

gru_dp_fw.gru_cell.weight_ih f4 [21, 7]
-0.18614973 -0.3661099 -0.35520858 -0.20726211 0.087719955 -0.22822896 -0.24575348 -0.057393786
-0.028388212 0.115836084 -0.4176965 0.16134086 -0.13636397 0.5218845 0.19233803 0.11939351
0.32422486 -0.55282253 0.015542861 -0.29954335 -0.32567355 0.15313524 -0.3169498 0.022701317
-0.108590275 0.16766268 0.49639782 -0.078189105 -0.21418951 0.26951668 -0.0015502813 -0.100466035
0.26511598 -0.06738396 -0.012033513 -0.022429604 -0.16267595 0.1374271 -0.07329259 0.363468
-0.1795559 -0.114023484 0.48136875 0.32340333 -0.16218002 0.19697471 -0.23493275 -0.07723848
-0.22973017 -0.080889285 -0.038261514 -0.15952602 0.20424218 -0.2210816 -0.33145615 0.24879184
0.14639686 -0.15478916 0.23687404 0.056487583 -0.14064828 0.026417565 -0.22861257 -0.1454602
0.2038055 -0.112412095 0.3202905 -0.16533457 -0.08562733 0.020600982 0.05602046 0.34196708
0.11685933 -0.31373936 0.1444315 -0.2499118 -0.238488 -0.22123568 -0.39562458 0.208761
0.04994949 -0.26764277 -0.20115656 0.091251336 0.39487946 -0.2602117 -0.104498334 0.022604175
-0.22577496 -0.2513716 0.27860054 -0.49098468 0.19366902 0.084587656 0.423991 0.024280999
-0.04726471 -0.45688206 -0.42651895 -0.30364907 0.17066485 -0.08533603 -0.079156 0.037711896
-0.08931919 -0.07644148 -0.059595115 0.125155 -0.26822862 0.0148198465 0.097373225 0.36331537
-0.18949269 -0.029453604 -0.23991379 0.3204487 0.23818955 -0.00040176738 0.31892064 0.05638095
0.1841062 0.37659872 0.028023481 0.27317667 -0.13213131 0.13578476 0.47090816 0.24369282
-0.074839935 -0.06486995 0.27377596 -0.054382138 0.123645335 0.03957745 0.17184724 -0.11129973
-0.061046366 -0.1602171 0.3809018 -0.4425663 -0.13210666 -0.10958171 0.17646646 0.32633778
0.07349751 0.16556951 -0.12932481
00000000: 099e 3ebe c272 bbbe e6dd b5be 853c 54be
00000010: 85a6 b33d dab4 69be cda6 7bbe bf15 6bbd
00000020: 658e e8bc 783b ed3d 51dc d5be 8a36 253e
00000030: ffa2 0bbe 399a 053f 43f4 443e 9684 f43d
00000040: cd00 a63e c785 0dbf 7ca7 7e3c bf5d 99be
00000050: afbe a6be 7ccf 1c3e 3f47 a2be 1df8 b93c
00000060: 9464 debd c4af 2b3e db27 fe3e 9c21 a0bd
00000070: 7f54 5bbe 17fe 893e cf32 cbba 23c1 cdbd
00000080: 48bd 873e 9a00 8abd 3628 45bc 4abe b7bc
00000090: 8694 26be b1b9 0c3e 6d1a 96bd 7a18 ba3e
000000a0: 80dd 37be 2585 e9bd f775 f63e 1f95 a53e
000000b0: 8512 26be bdb3 493e 3692 70be 352f 9ebd
000000c0: 633e 6bbe 48a9 a5bd 1bb8 1cbd ca5a 23be
000000d0: dd24 513e 3763 62be 9fb4 a9be 4ac3 7e3e
000000e0: 0fe9 153e 0d81 1ebe 1c8f 723e 865f 673d
000000f0: 1a06 10be a669 d83c 6a19 6abe 85f3 14be
00000100: 64b2 503e 5038 e6bd 1efd a33e 774d 29be
00000110: 625d afbd 64c3 a83c b675 653d 4f16 af3e
00000120: f253 ef3d 72a2 a0be dae5 133e e1e8 7fbe
00000130: 3336 74be 9b8b 62be 4e8f cabe 72c5 553e
00000140: d697 4c3d 7908 89be fcfb 4dbe fbe1 ba3d
00000150: a42d ca3e 783a 85be 3903 d6bd 642c b93c
00000160: 8d31 67be c7b3 80be bba4 8e3e 5862 fbbe
00000170: 2c51 463e 4b3c ad3d 5915 d93e f2e8 c63c
00000180: a498 41bd 72ec e9be b160 dabe e477 9bbe
00000190: c4c2 2e3e a8c4 aebd 8a1c a2bd ca77 1a3d
000001a0: fbec b6bd 5a8d 9cbd 021a 74bd a228 003e
000001b0: 4355 89be f1ce 723c 9d6b c73d 7904 ba3e
000001c0: 5f0a 42be af48 f1bc f6ab 75be da11 a43e
000001d0: f6e7 733e 4ea4 d2b9 9149 a33e b6ef 663d
000001e0: 5686 3c3e 8cd1 c03e 8091 e53c d0dd 8b3e
000001f0: 6e4d 07be 290b 0b3e e01a f13e 9c8a 793e
00000200: ae45 99bd 89da 84bd 5d2c 8c3e cebf 5ebd
00000210: c439 fd3d f71b 223d b9f8 2f3e 1df1 e3bd
00000220: c10b 7abd f40f 24be 9005 c33e 0d98 e2be
00000230: f846 07be 606c e0bd a0b3 343e bf15 a73e
00000240: dd85 963d 0e8b 293e b96d 04be

gru_dp_fw.gru_cell.weight_hh f4 [21, 7]
0.3984613 -0.31947592 0.011283725 -0.40758476 -0.050357163 -0.07099524 -0.2396015 -0.16374159
-0.52519935 0.34038216 -0.055702645 0.7446414 -0.04689777 0.3421337 0.42870706 -0.28821334
0.27787384 -0.4780094 0.06080876 0.19765902 0.647598 -0.08641729 -0.19720271 -0.039992936
-0.035815626 0.016325492 0.012365942 0.5952541 0.6677167 -0.13262716 -0.107063495 -0.029057892
0.22472033 -0.0951494 -0.100448854 0.23809396 -0.7394163 0.19049518 0.38899246 0.7049464
0.5546962 -0.032890555 -0.1438172 -0.28196737 -0.0065565286 -0.41163754 0.6782694 0.15025286
0.28066754 -0.49395528 -0.09075242 -0.37561482 -0.03485186 -0.28471655 -0.104287334 -0.4737798
0.3540776 0.09669604 -0.21058059 -0.03813867 -0.08865591 0.023244455 0.23432979 -0.07454128
-0.019775145 0.06585943 0.2609541 -0.30572245 -0.3420009 -0.36151898 0.0031960695 -0.45845452
0.024358751 -0.60865813 -0.058128078 0.29940724 0.45241663 -0.11250867 -0.38162935 0.46832165
0.10512854 0.28342888 -0.36833975 -0.32806444 -0.03269018 -0.06827213 -0.27934915 -0.34579247
-0.021162575 -0.011878424 0.46585792 -0.008568777 -0.18292226 -0.31816927 0.26516205 -0.43758583
-0.073758826 -0.10466571 -0.12893857 -0.023400346 -0.09445673 0.24249932 -0.021068849 -0.27324873
-0.47913843 0.45373735 0.28418604 -0.531052 0.073322035 -0.49757415 -0.70180583 -0.08866846
0.18834294 -0.45384508 0.152723 -0.52036345 -0.09863015 0.37207356 0.60598594 0.46596715
0.6101916 -0.267193 0.24056803 -0.15991262 -0.39972025 -0.6497721 0.20146734 -0.46054772
0.011591719 -0.08723723 0.040692866 0.37881967 0.41239235 -0.09559213 -0.391286 0.6278879
-0.0062020933 0.66120833 0.22773889 0.2861141 0.17405958 -0.21710862 0.49927625 -0.54106337
0.75707686 0.5118355 0.48022962
00000000: 1f03 cc3e 5992 a3be 5fdf 383c f3ae d0be
00000010: 5043 4ebd f465 91bd 185a 75be e0ab 27be
00000020: 7773 06bf 9246 ae3e 7528 64bd d2a0 3e3f
00000030: e017 40bd 262c af3e 7e7f db3e b390 93be
00000040: 7b45 8e3e a6bd f4be 9b12 793d 2067 4a3e
00000050: fcc8 253f 8cfb b0bd 82ef 49be a2cf 23bd
00000060: 68b3 12bd 0abd 853c 859a 4a3c 9362 183f
00000070: 7bef 2a3f 6acf 07be 1b44 dbbd d10a eebc
00000080: 161d 663e b0dd c2bd 21b8 cdbd e7ce 733e
00000090: 634a 3dbf 2b11 433e 052a c73e 5e77 343f
000000a0: 9200 0e3f 3fb8 06bd d144 13be 075e 90be
000000b0: 26d8 d6bb 28c2 d2be 10a3 2d3f e3db 193e
000000c0: a8b3 8f3e b5e7 fcbe 68dc b9bd 9650 c0be
000000d0: d3c0 0ebd 5ec6 91be 9994 d5bd 4493 f2be
000000e0: a949 b53e 9308 c63d 70a2 57be 4b37 1cbd
000000f0: 3b91 b5bd 286b be3c 26f4 6f3e 19a9 98bd
00000100: 7cff a1bc 4fe1 863d c79b 853e a787 9cbe
00000110: be1a afbe 0419 b9be 2675 513b 8dba eabe
00000120: 018c c73c 05d1 1bbf b517 6ebd e84b 993e
00000130: 27a3 e73e f26a e6bd ec64 c3be dbc7 ef3e
00000140: a24d d73d 971d 913e 0797 bcbe 10f8 a7be
00000150: 23e6 05bd 42d2 8bbd da06 8fbe b60b b1be
00000160: 235d adbc b99d 42bc ee84 ee3e 0e64 0cbc
00000170: f94f 3bbe 15e7 a2be 52c3 873e 400b e0be
00000180: de0e 97bd fa5a d6bd 7908 04be 15b2 bfbc
00000190: 8872 c1bd be51 783e 9498 acbc 42e7 8bbe
000001a0: a251 f5be 4350 e83e d580 913e 06f3 07bf
000001b0: dd29 963d 0ac2 febe 8ca9 33bf cf97 b5bd
000001c0: f9dc 403e 625e e8be 6b63 1c3e 8a36 05bf
000001d0: 9bfe c9bd 6d80 be3e e521 1b3f 3f93 ee3e
000001e0: 8435 1c3f 85cd 88be 7757 763e 22c0 23be
000001f0: 22a8 ccbe 7757 26bf 744d 4e3e e9cc ebbe
00000200: 32eb 3d3c 6fa9 b2bd 90ad 263d a7f4 c13e
00000210: 1725 d33e cfc5 c3bd a356 c8be 43bd 203f
00000220: ee3a cbbb f344 293f 6234 693e 8c7d 923e
00000230: ad3c 323e b951 5ebe 23a1 ff3e 2183 0abf
00000240: cacf 413f a707 033f a8e0 f53e

gru_dp_fw.gru_cell.bias_ih f4 [21]
0.033252355 0.4611063 0.11300374 0.45185047 0.594351 0.1515887 0.037529048 -0.17083676
0.25769004 0.49424496 0.01706197 0.3845781 0.2447465 0.27973574 0.11411286 -0.30839923
0.43842682 0.24028131 -0.01137821 -0.014796784 0.16343407
00000000: 9f33 083d 2016 ec3e 816e e73d f258 e73e
00000010: 6327 183f 113a 1b3e 0fb8 193d d5ef 2ebe
00000020: f3ef 833e ad0d fd3e 8bc5 8b3c 6ce7 c43e
00000030: d49e 7a3e 8639 8f3e 01b4 e93d 81e6 9dbe
00000040: 7b79 e03e 4e0c 763e ac6b 3abc 366e 72bc
00000050: 435b 273e

gru_dp_fw.gru_cell.bias_hh f4 [21]
0.17348242 0.010308242 0.14432025 0.5288746 -0.04885486 0.36945793 0.30051267 -0.13764964
0.869817 -0.058613658 -0.026656363 -0.12346236 0.048668962 0.3714785 0.107905425 -0.017561559
0.41806713 0.17191996 -0.3548994 0.15962526 0.2047584
00000000: 60a5 313e e7e3 283c b0c8 133e 5364 073f
00000010: 091c 48bd 9729 bd3e ccdc 993e 07f4 0cbe
00000020: 54ac 5e3f e014 70bd 725e dabc d5d9 fcbd
00000030: 1b59 473d 6e32 be3e 85fd dc3d 42dd 8fbc
00000040: e50c d63e c90b 303e 60b5 b5be ce74 233e
00000050: 30ac 513e

gru_dp_fw.ode_net.odeblock.odefunc.fc1.weight f4 [7, 7]
0.24864954 -0.5535967 0.952664 -0.41011184 -0.031580843 -0.28470263 0.535505 -0.31680757
0.5384314 -0.36580136 0.2039629 -0.28201422 -0.048212923 -0.15675421 0.04050281 -0.046719752
0.5572489 -0.2508945 0.009870138 0.39555958 -0.10642717 -0.050446842 -0.22503258 0.93468404
-0.14609928 0.0032386733 -0.12103492 0.5092809 0.38961184 -0.6635502 0.20575204 -0.41613868
-0.14000572 0.0660979 0.05298514 -0.3411812 -0.10568192 -0.0061180624 0.32292753 -0.21175817
-0.07903009 -0.31997967 0.14463195 -0.5888342 0.45523858 -0.25519755 0.018571876 -0.015010186
0.33598995
00000000: fc9d 7e3e 83b8 0dbf cae1 733f 2efa d1be
00000010: ea5a 01bd 8bc4 91be db16 093f 9a34 a2be
00000020: a4d6 093f 514a bbbe a7db 503e 2b64 90be
00000030: ea7a 45bd 2d84 20be 46e6 253d 365d 3fbd
00000040: dda7 0e3f 3e75 80be 5cb6 213c c986 ca3e
00000050: 7df6 d9bd 59a1 4ebd f16e 66be 7447 6f3f
00000060: 0d9b 15be ec3f 543b 28e1 f7bd 3c60 023f
00000070: 347b c73e 6dde 29bf aab0 523e 2110 d5be
00000080: a95d 0fbe 565e 873d f206 593d 4daf aebe
00000090: c36f d8bd 077a c8bb c256 a53e 22d7 58be
000000a0: 87da a1bd 60d4 a3be 661a 143e d7bd 16bf
000000b0: 0815 e93e 41a9 82be 0c24 983c 48ed 75bc
000000c0: e006 ac3e

gru_dp_fw.ode_net.odeblock.odefunc.fc1.bias f4 [7]
0.32518855 0.041036732 0.4861962 0.53849924 0.05892604 0.090427496 0.71105033
00000000: 1d7f a63e 2216 283d b5ee f83e 16db 093f
00000010: 6e5c 713d 0d32 b93d 6507 363f

gru_dp_fw.ode_net.odeblock.odefunc.fc2.weight f4 [7, 7]
0.6956756 0.28243956 0.42795536 0.93198836 0.6797402 0.24602467 0.2136475 0.23145846
0.015353777 0.7105492 0.07368034 0.4664384 0.36899018 0.66574347 0.2814716 -0.079941414
0.61149454 0.42186847 0.1942923 0.033833027 0.3008984 0.07178199 -0.22258535 0.37810728
0.06230988 0.014499248 0.3443022 0.084821515 0.22053921 -0.15523383 0.46520972 0.085358344
-0.22574332 0.15197988 0.030746903 0.4915256 -0.2579962 0.5004916 0.2754578 -0.027853718
0.243768 0.5305177 0.38234133 -0.056391798 0.5873463 0.23157956 0.607626 0.11743811
0.5830072
00000000: cc17 323f eb9b 903e f71c db3e ca96 6e3f
00000010: 7403 2e3f e4ed 7b3e 69c6 5a3e 7203 6d3e
00000020: 698e 7b3c 8de6 353f b8e5 963d 04d1 ee3e
00000030: 48ec bc3e 2a6e 2a3f 0c1d 903e 53b8 a3bd
00000040: e88a 1c3f 25ff d73e 90f4 463e 8094 0a3d
00000050: 5b0f 9a3e 7002 933d 6aed 63be 4797 c13e
00000060: a538 7f3d 418e 6d3c 6148 b03e e7b6 ad3d
00000070: 08d5 613e 9ef5 1ebe f82f ee3e 5bd0 ae3d
00000080: 4229 67be 9da0 1b3e eee0 fb3c 3ea9 fb3e
00000090: 1418 84be 3820 003f ce08 8d3e 7b2d e4bc
000000a0: 529e 793e 02d0 073f 3ec2 c33e 16fb 66bd
000000b0: 545c 163f 3123 6d3e 618d 1b3f 6483 f03d
000000c0: f63f 153f

gru_dp_fw.ode_net.odeblock.odefunc.fc2.bias f4 [7]
0.17082922 0.3937298 0.030563604 0.2123624 -0.26179224 0.4005061 0.44931188
00000000: dbed 2e3e f496 c93e 8660 fa3c 8775 593e
00000010: a209 86be 230f cd3e 350c e63e

gru_dp_fw.ode_net.odeblock.odefunc.fc3.weight f4 [7, 7]
0.419377 0.40210554 0.4802383 0.11135072 0.547828 0.19683948 0.63853604 0.13735451
0.3427498 0.41364685 0.20039551 -0.086340144 0.082971096 0.5198428 0.030516764 0.20682192
-0.022112507 0.004550848 0.060181815 -0.3344519 -0.49173507 0.6094982 0.35479966 0.29192466
0.30333808 0.113378294 0.6365191 0.58151144 -0.756487 -0.17593895 -0.57786363 -0.2638502
-0.4120257 0.004986124 -0.34395584 -0.6245474 -0.34423894 -0.8138888 -0.22797884 -0.682667
-0.55177516 -0.64334387 -0.47869113 -0.11569031 0.008740754 -0.31334093 0.041143 -0.5942454
-0.6586122
00000000: 95b8 d63e c7e0 cd3e cbe1 f53e d90b e43d
00000010: 753e 0c3f 4a90 493e 1977 233f a9a6 0c3e
00000020: e77c af3e 85c9 d33e 7b34 4d3e 1ad3 b0bd
00000030: c0ec a93d 6b14 053f 4bfe f93c 20c9 533e
00000040: 4a25 b5bc 481f 953b 3581 763d 483d abbe
00000050: b3c4 fbbe 1308 1c3f 4da8 b53e 2677 953e
00000060: 214f 9b3e e132 e83d eaf2 223f efdd 143f
00000070: 22a9 41bf 5729 34be dfee 13bf 6017 87be
00000080: 08f5 d2be a462 a33b fb1a b0be 57e2 1fbf
00000090: 1640 b0be 045b 50bf 4973 69be 44c3 2ebf
000000a0: 2341 0dbf 2fb2 24bf 0117 f5be 0bef ecbd
000000b0: 6135 0f3c 396e a0be 9085 283d 7720 18bf
000000c0: cf9a 28bf

gru_dp_fw.ode_net.odeblock.odefunc.fc3.bias f4 [7]
0.0003768217 0.17262644 -0.12176916 0.58354133 -0.27486864 -0.56089544 -0.45742264
00000000: 2790 c539 fcc4 303e 1c62 f9bd f762 153f
00000010: 95bb 8cbe d896 0fbf 4d33 eabe

gru_cp_fw.decays f4 [6]
1.6002772e+26 4.566e-41 6.9e-44 0.0 8.06267e-35 0.0
00000000: 305f 046b 487f 0000 3100 0000 0000 0000
00000010: b057 d606 0000 0000

gru_cp_fw.gru_cell.weight_ih f4 [18, 6]
0.14938812 0.16817024 -0.24262609 -0.3212828 -0.16744225 0.37986025 0.18513359 -0.108973205
-0.1408279 0.08744847 0.048988614 -0.45564365 -0.13067473 -0.12465571 0.2201084 -0.03286473
-0.32538855 0.24367617 0.13431506 -0.2054484 -0.15064038 -0.35823673 0.1501815 -0.4642336
0.3258688 0.3574828 0.17625311 0.11952341 -0.034472175 0.040856533 0.1701084 0.17426379
-0.22882688 0.20353612 0.028949317 0.11812933 -0.3557636 0.23909399 0.2572171 0.0117232185
-0.47920883 -0.3119873 0.0014708572 -0.40371084 -0.081210986 0.34157923 0.3035462 -0.058059882
-0.22033195 0.18418413 0.1691449 -0.1486803 0.41810596 -0.0061004395 -0.28054973 -0.088095784
0.27894056 0.160805 -0.1347952 -0.005309947 -0.28340518 -0.121529825 0.21367273 -0.24395487
0.12973629 0.33818227 -0.39878973 0.4823549 0.34013492 -0.021018164 -0.19047575 -0.2998419
-0.14179547 -0.0958198 0.2825681 -0.15827689 -0.15201628 -0.5870987 0.15604234 -0.2287475
0.26535627 -0.027144983 0.15839721 -0.36622813 -0.10815097 0.3857928 -0.10347559 0.1786834
-0.50860703 -0.25632685 0.21826977 -0.24535929 0.06657187 0.10566128 0.055360083 -0.26557493
0.25842458 -0.12620787 0.26518673 -0.10211125 -0.09252278 -0.41796574 -0.37372655 -0.44437405
-0.3772352 0.18161064 -0.228094 0.5673597
00000000: 33f9 183e d234 2c3e f972 78be 2e7f a4be
00000010: fb75 2bbe 0b7d c23e a993 3d3e 582d dfbd
00000020: 3035 10be 2f18 b33d 49a8 483d 204a e9be
00000030: 99cf 05be 7e4b ffbd 1964 613e 2b9d 06bd
00000040: 5499 a6be 3f86 793e e389 093e 1161 52be
00000050: 7941 1abe ce6a b7be 2ec9 193e 07b0 edbe
00000060: 46d8 a63e fc07 b73e b27b 343e b1c8 f43d
00000070: b232 0dbd 2e59 273d e530 2e3e 3572 323e
00000080: 9851 6abe c66b 503e 1e27 ed3c caed f13d
00000090: a626 b6be 0ed5 743e f6b1 833e be12 403c
000000a0: dc5a f5be cdbc 9fbe c7c9 c03a 30b3 cebe
000000b0: f251 a6bd 79e3 ae3e 686a 9b3e 33d0 6dbd
000000c0: b39e 61be c49a 3c3e 5234 2d3e a63f 18be
000000d0: fc11 d63e 32e6 c7bb 37a4 8fbe 906b b4bd
000000e0: 4cd1 8e3e 11aa 243e c107 0abe 10ff adbb
000000f0: 7c1a 91be a1e4 f8bd 06cd 5a3e 4ecf 79be
00000100: 97d9 043e 3a26 ad3e 2b2e ccbe 39f7 f63e
00000110: 2a26 ae3e 492e acbc 130c 43be e184 99be
00000120: d532 11be 2c3d c4bd c4ac 903e 5613 22be
00000130: 28aa 1bbe 1a4c 16bf 90c9 1f3e c93c 6abe
00000140: c7dc 873e 285f debc e132 223e 4182 bbbe
00000150: 417e ddbd a286 c53e 03eb d3bd c8f8 363e
00000160: 1234 02bf 463d 83be 1c82 5f3e 773f 7bbe
00000170: d556 883d f164 d83d 41c1 623d 70f9 87be
00000180: 3a50 843e a33c 01be 8ec6 873e b41f d1bd
00000190: 957c bdbd 9bff d5be 1659 bfbe ff84 e3be
000001a0: f924 c1be 24f8 393e 7991 69be 7c3e 113f

gru_cp_fw.gru_cell.weight_hh f4 [18, 6]
-0.421342 -0.63700217 0.1993904 -0.20593014 -0.18100613 0.4047812 0.40751472 -0.1553272
-0.40269318 -0.17860949 0.13413006 -0.028635614 0.11231905 0.08544143 -0.3935511 -0.23699492
0.37943813 0.2429748 -0.014585077 -0.20035225 0.08814763 -0.050374202 -0.30501872 0.38313782
-0.30603784 0.18547077 0.1343784 -0.09478674 -0.3038913 0.471052 -0.19408537 -0.0231641
0.14814545 -0.37853816 0.033938393 0.007719694 -0.5445267 -0.44749743 0.2715534 -0.49733177
0.057071283 0.25958863 0.29642746 -0.25474674 0.09887487 -0.14877409 0.16571446 -0.28863204
0.42993417 0.43594167 -0.1420223 -0.08895303 0.3109468 -0.49098036 -0.33991113 -0.14413376
-0.097659044 0.17412795 0.34229922 0.026205927 -0.48888168 -0.4505409 -0.13819267 -0.38908467
0.0446434 0.34469742 -0.48955414 -0.2966241 0.41480315 0.19867033 -0.3424756 0.24060227
0.4220029 0.0070143067 -0.18666363 0.5173885 0.5912987 -0.5233374 0.3940655 -0.109927475
-0.014603428 0.49713606 0.1776481 0.024595885 -0.2482362 -0.1847769 -0.18438363 -0.36730734
-0.20090044 -0.12488164 0.49511993 0.53375524 -0.24579321 0.34957308 0.00688584 -0.655707
0.6723602 0.018889591 0.057712194 -0.16316056 0.49022108 -0.58296615 -0.23269406 -0.60338587
-0.122042015 -0.30372858 0.2669572 0.13742727
00000000: 23ba d7be 9312 23bf ff2c 4c3e 5adf 52be
00000010: ac59 39be 7b3f cf3e c5a5 d03e 180e 1fbe
00000020: cd2d cebe 68e5 36be 6459 093e 3c95 eabc
00000030: 8807 e63d ebfb ae3d 887f c9be ccae 72be
00000040: b745 c23e 63ce 783e 3ff6 6ebc 2429 4dbe
00000050: bf86 b43d 2e55 4ebd 6a2b 9cbe a42a c43e
00000060: feb0 9cbe 0dec 3d3e 7e9a 093e 8d1f c2bd
00000070: a497 9bbe ba2d f13e 51be 46be a3c2 bdbc
00000080: 71b3 173e c1cf c1be fc02 0b3d 7df5 fc3b
00000090: 1a66 0bbf 621e e5be 0c09 8b3e 45a2 febe
000000a0: 94c3 693d cde8 843e 57c5 973e 2a6e 82be
000000b0: e87e ca3d 3c58 18be 0db1 293e 94c7 93be
000000c0: 5520 dc3e bf33 df3e 4b6e 11be 022d b6bd
000000d0: 6b34 9f3e c761 fbbe d508 aebe cd97 13be
000000e0: 7701 c8bd 994e 323e d841 af3e d0ad d63c
000000f0: b34e fabe 4cad e6be 6182 0dbe 1b36 c7be
00000100: ffdb 363d 2e7c b03e d7a6 fabe 1ddf 97be
00000110: 1461 d43e 3c70 4b3e f658 afbe 7160 763e
00000120: c410 d83e 45d8 e53b c024 3fbe 9373 043f
00000130: 5a5f 173f 71f9 05bf f4c2 c93e a821 e1bd
00000140: 3743 6fbc 9e88 fe3e 62e9 353e 4f7d c93c
00000150: a131 7ebe 2836 3dbe 10cf 3cbe b50f bcbe
00000160: d8b8 4dbe f2c1 ffbd 5c80 fd3e 2fa4 083f
00000170: 37b1 7bbe 3efb b23e 9da2 e13b 6adc 27bf
00000180: cc1f 2c3f 58be 9a3c 9f63 6c3d 9013 27be
00000190: 42fe fa3e 453d 15bf 5a47 6ebe 7f77 1abf
000001a0: 2af1 f9bd 5082 9bbe 9dae 883e bcb9 0c3e

gru_cp_fw.gru_cell.bias_ih f4 [18]
0.375864 0.15826021 -0.439536 0.15956625 0.30203053 -0.24833044 0.4107184 0.22630182
0.51884454 -0.267369 0.39271748 0.40738425 0.21358873 -0.11152576 -0.27919522 -0.05530552
-0.09762972 0.03498639
00000000: 3f71 c03e f70e 223e dd0a e1be 5665 233e
00000010: bfa3 9a3e 564a 7ebe af49 d23e aabb 673e
00000020: ffd2 043f 97e4 88be 4412 c93e ab94 d03e
00000030: 01b7 5a3e 9e67 e4bd adf2 8ebe 0a88 62bd
00000040: 17f2 c7bd e44d 0f3d

gru_cp_fw.gru_cell.bias_hh f4 [18]
0.3054846 0.4023911 -0.12519985 0.23939642 0.30332273 -0.016942428 -0.20507303 -0.0029267427
0.14939292 0.30931637 -0.15633596 0.0738495 -0.26340953 0.4173967 -0.186259 0.09971103
-0.13092388 0.2742906
00000000: 7a68 9c3e 3506 ce3e 6434 00be 5624 753e
00000010: 1e4d 9b3e d9ca 8abc aafe 51be 98ce 3fbb
00000020: 75fa 183e b75e 9e3e 8916 20be 683e 973d
00000030: 9ddd 86be 05b5 d53e aeba 3ebe 4c35 cc3d
00000040: e910 06be d16f 8c3e

gru_cp_fw.ode_net.odeblock.odefunc.fc1.weight f4 [6, 6]
-0.42487788 -0.2942953 -0.39954433 -0.5562224 -0.66513616 0.49121782 -0.6023908 -0.17853096
-0.19504319 -0.19827826 -0.15259556 0.58233595 0.42735016 -0.22202192 0.04924682 0.3141143
0.21078047 0.14293054 -0.76855296 -0.5187429 0.24119428 -0.3239492 -0.66131425 0.7784426
-0.21203597 -0.21219774 -0.14659461 -0.09306567 -0.33106127 0.5557769 -0.45580974 -0.5756202
0.06933273 -0.46697563 -0.40752894 0.72356594
00000000: 9889 d9be e0ad 96be 1391 ccbe 9764 0ebf
00000010: 5d46 2abf e780 fb3e 4936 1abf d2d0 36be
00000020: 67b9 47be 7509 4bbe 0342 1cbe f813 153f
00000030: a4cd da3e b759 63be 09b7 493d 97d3 a03e
00000040: d6d6 573e 625c 123e e3bf 44bf 56cc 04bf
00000050: a2fb 763e abdc a5be e44b 29bf 0448 473f
00000060: f51f 59be 5d4a 59be e61c 16be 3799 bebd
00000070: dd80 a9be 6547 0e3f e55f e9be d85b 13bf
00000080: 51fe 8d3d 6e17 efbe a2a7 d0be 9e3b 393f

gru_cp_fw.ode_net.odeblock.odefunc.fc1.bias f4 [6]
0.12476378 0.5581229 -0.13056222 0.2557173 0.5928231 0.18773206
00000000: 2784 ff3d 24e1 0e3f 1ab2 05be 61ed 823e
00000010: 41c3 173f d53c 403e

gru_cp_fw.ode_net.odeblock.odefunc.fc2.weight f4 [6, 6]
0.30479106 0.26684478 -0.12066402 0.7075538 0.4919459 0.67922443 0.39420345 0.15608035
-0.18275699 0.16528001 0.35125786 0.08818607 0.13669229 0.73423254 0.4163852 0.72584504
0.4251928 0.22420344 0.74958444 0.73032266 0.19331625 0.4070676 0.11668635 0.76715046
0.0985846 0.07088403 -0.064810716 0.75944114 0.55377555 0.74787486 -0.6022347 -0.2770219
0.15785709 0.022140887 -0.32122752 -0.6320145
00000000: 930d 9c3e e19f 883e b31e f7bd 3f22 353f
00000010: 55e0 fb3e a7e1 2d3f 09d5 c93e 87d3 1f3e
00000020: a624 3bbe 2a3f 293e 12d8 b33e e69a b43d
00000030: 10f9 0b3e aaf6 3b3f 7130 d53e fbd0 393f
00000040: dfb2 d93e 9695 653e c4e4 3f3f 6df6 3a3f
00000050: b2f4 453e 2a6b d03e 41f9 ee3d f963 443f
00000060: b9e6 c93d a52b 913d 7bbb 84bd bc6a 423f
00000070: 3cc4 0d3f ba74 3f3f 0e2c 1abf d1d5 8dbe
00000080: 4aa5 213e ce60 b53c ef77 a4be b4cb 21bf

gru_cp_fw.ode_net.odeblock.odefunc.fc2.bias f4 [6]
0.54505694 -0.04306415 0.45077094 0.49940503 0.5972647 -0.44303662
00000000: da88 0b3f 0964 30bd 73cb e63e 04b2 ff3e
00000010: 57e6 183f b2d5 e2be

gru_cp_fw.ode_net.odeblock.odefunc.fc3.weight f4 [6, 6]
-0.22784507 -0.5047395 -0.16937312 0.08012634 0.09703614 0.13446626 -0.07544043 -0.7590051
-0.84371036 -0.7618148 -0.20397817 0.09605966 0.35972267 -0.104871735 0.6569853 0.3753166
0.62705123 -0.10041299 -0.45961922 0.062139183 -0.1999496 -0.21518773 -0.40320113 -0.29474092
-0.64427507 -0.60995895 -0.09260246 -0.6676983 -0.5754663 -0.09084436 0.35952348 0.57417375
0.6126654 -0.09345879 0.5885313 -0.10607741
00000000: 3850 69be 9c36 01bf 2670 2dbe 4719 a43d
00000010: e2ba c63d 86b1 093e 8380 9abd 294e 42bf
00000020: 67fd 57bf 4b06 43bf a7df 50be edba c43d
00000030: 922d b83e fec6 d6bd 3030 283f 7f29 c03e
00000040: 6e86 203f 53a5 cdbd 3653 ebbe a885 7e3d
00000050: 97bf 4cbe 2c5a 5cbe 6170 cebe 48e8 96be
00000060: 36ef 24bf 4526 1cbf 5ca6 bdbd 47ee 2abf
00000070: c251 13bf 9c0c babd 7613 b83e 0dfd 123f
00000080: a4d7 1c3f 5267 bfbd fda9 163f 1d3f d9bd

gru_cp_fw.ode_net.odeblock.odefunc.fc3.bias f4 [6]
0.1836603 -0.47173727 0.3346769 -0.3297814 -0.22148909 -0.039172042
00000000: 7211 3c3e 8c87 f1be c55a ab3e 1cd9 a8be
00000010: 09ce 62be dd72 20bd

gru_dp_bw.decays f4 [7]
1.7221889e+22 6.712585e+22 9.166316e-15 2.790416e+29 1.3425272e+31 7.3077356e+28 2.504518e-12
00000000: 6e66 6964 656e 6365 2c20 2528 7368 6170
00000010: 6573 2973 2c20 6c6f 633d 302c

gru_dp_bw.gru_cell.weight_ih f4 [21, 7]
-0.24177946 0.34738854 -0.10379364 0.078827694 -0.1312143 0.25336567 -0.33294728 0.12303294
0.34457222 0.08127135 -0.112435855 0.18577541 -0.31487533 -0.38716036 0.1492456 -0.38618532
-0.5987693 -0.23497896 0.16779836 0.048621178 -0.41959292 -0.17468464 0.036515024 0.07182673
0.311945 0.20640151 -0.06403794 -0.0853655 -0.07288044 0.3140943 -0.10521412 -0.022660593
-0.31958383 0.28140995 0.14157212 -0.2860177 0.2006029 0.0019380536 0.11408478 -0.27050152
0.07626723 -0.09325489 -0.17819272 -0.04345251 -0.07180575 -0.20776899 0.15297675 0.21439369
-0.056939006 0.39302948 0.013445368 -0.03374052 0.107431926 0.32683316 -0.19725014 0.10304712
0.05371331 0.43548822 -0.20958947 0.09484959 0.07226746 0.07184512 -0.022714224 -0.36497083
-0.25201443 -0.118342794 0.12060038 0.13049002 -0.11661689 -0.019728068 0.13820496 -0.3959652
-0.120034896 -0.286072 -0.44881988 0.019409953 0.23001552 0.091069534 0.4534512 -0.26229334
-0.0570946 -0.17944846 -0.42619884 0.27782378 -0.23313461 0.15654582 -0.12807447 -0.05044086
0.162542 -0.44665715 0.36658925 -0.20328481 -0.41352507 0.19132334 -0.16540234 -0.02424407
0.34152105 -0.10963158 0.2178002 0.07336855 -0.11079499 0.11670259 -0.0928587 0.031195922
-0.16423623 -0.16141032 0.4085893 0.32129607 -0.21535757 -0.23232372 0.2412403 -0.14586462
0.017735055 0.1654958 0.32839772 0.17742679 -0.44706973 0.57798415 0.3538447 0.27244723
0.20295559 -0.07292015 -0.20782915 0.19183277 -0.021412004 -0.1869076 0.32707876 0.024939923
-0.20986454 0.13121325 0.2430995 0.11932858 -0.045525562 0.17882612 -0.047053993 -0.27026302
0.03247325 0.24209245 -0.139938 0.27391353 0.53661245 0.5500465 -0.49439022 0.3235875
-0.045665216 -0.50388026 0.130333
00000000: 0995 77be e9dc b13e c391 d4bd 6a70 a13d
00000010: 0b5d 06be 25b9 813e 1178 aabe b2f8 fb3d
00000020: c56b b03e 9871 a63d c544 e6bd e93b 3e3e
00000030: 5737 a1be e239 c6be d7d3 183e 15ba c5be
00000040: f248 19bf 539e 70be 55d3 2b3e 0027 473d
00000050: e2d4 d6be 88e0 32be c790 153d e519 933d
00000060: 41b7 9f3e eb5a 533e 5326 83bd 1bd4 aebd
00000070: 5742 95bd f8d0 a03e 807a d7bd b5a2 b9bc
00000080: 7ea0 a3be f714 903e 48f8 103e e970 92be
00000090: d96a 4d3e 4a06 fe3a 48a5 e93d 2d7f 8abe
000000a0: fe31 9c3d 6bfc bebd 2778 36be 42fb 31bd
000000b0: e50e 93bd 65c1 54be f0a5 1c3e 058a 5b3e
000000c0: e038 69bd 293b c93e f649 5c3c 8033 0abd
000000d0: 4505 dc3d ad56 a73e f1fb 49be 5e0a d33d
000000e0: 7d02 5c3d 50f8 de3e 9f9e 56be 8040 c23d
000000f0: f600 943d 8923 933d 2e13 babc 75dd babe
00000100: 0908 81be b55d f2bd 55fd f63d 2d9f 053e
00000110: d6d4 eebd c29c a1bc 9a85 0d3e f3bb cabe
00000120: dbd4 f5bd 0778 92be b8cb e5be 9f01 9f3c
00000130: 3089 6b3e aa82 ba3d c12a e83e 504b 86be
00000140: 07dc 69bd 56c1 37be bc36 dabe eb3e 8e3e
00000150: d7ba 6ebe 8c4d 203e f425 03be 139b 4ebd
00000160: 6971 263e 3fb0 e4be 96b1 bb3e e529 50be
00000170: 8fb9 d3be 44ea 433e 3b5f 29be 809b c6bc
00000180: d9db ae3e 8686 e0bd 0407 5f3e 4042 963d
00000190: 7ce8 e2bd c401 ef3d b42c bebd 978e ff3c
000001a0: 8b2d 28be bf48 25be 9e32 d13e eb80 a43e
000001b0: b286 5cbe 45e6 6dbe b207 773e 895d 15be
000001c0: 1b49 913c bb77 293e bf23 a83e 5eaf 353e
000001d0: 53e6 e4be c5f6 133f 222b b53e 347e 8b3e
000001e0: 97d3 4f3e 2957 95bd 2ad1 54be cf6f 443e
000001f0: 3a68 afbc b564 3fbe de76 a73e cf4e cc3c
00000200: bbe6 56be c45c 063e 13ef 783e 8b62 f43d
00000210: 0379 3abd 321e 373e b0bb 40bd ea5f 8abe
00000220: ac02 053d 15e7 773e e84b 0fbe 653e 8c3e
00000230: 6f5f 093f d9cf 0c3f b720 fdbe 43ad a53e
00000240: 730b 3bbd 4cfe 00bf 0476 053e

gru_dp_bw.gru_cell.weight_hh f4 [21, 7]
0.12602939 -0.09004224 -0.41554913 -0.06699257 -0.3743725 -0.2859625 0.20500068 0.65366244
-0.0043467996 -0.3149258 -0.17576492 -0.1607827 0.2563248 0.06258557 0.78304017 0.58531994
-0.39940205 -0.23209332 0.1839588 0.44489783 -0.57007223 0.32691672 -0.011267825 -0.42364615
-0.32386154 -0.2883576 0.15372944 -0.025192061 0.45050523 0.13220702 0.002150777 -0.31366965
-0.56156236 0.17895354 -0.31307927 0.061253253 -0.039155077 0.2448121 0.3535904 0.63159597
0.13614032 0.47585973 0.39935222 0.16273862 -0.004545843 -0.50289637 -0.026526699 -0.029328762
-0.30869746 0.12697668 0.3920454 -0.53698754 -0.21957311 0.020992214 0.22075336 -0.19039969
-0.12467498 0.044424538 -0.45314747 -0.3249519 0.1006655 0.15266593 -0.19103923 -0.41435614
0.70007515 -0.0047602975 -0.38679078 -0.4599419 -0.14511473 -0.39764178 -0.15380523 -0.020937726
-0.41299325 0.4221475 0.25165534 -0.19242774 -0.075305335 -0.37591058 -0.17095059 -0.062145546
-0.23893061 -0.089085594 0.062450014 -0.4229402 -0.24998952 -0.115724355 -0.24854763 0.15598768
0.0178058 -0.003345668 -0.042834815 0.030059582 0.35916546 -0.57694894 -0.55694395 0.06912223
0.36808285 0.033444807 0.27544346 -0.56617826 0.12312376 0.6644496 0.16947427 0.26403776
0.35473377 -0.34988797 0.4331639 -0.32677475 -0.30757195 -0.5703062 -0.28949386 -0.53804743
0.4057189 -0.21446584 -0.014740778 0.19497088 0.42500746 -0.08096616 0.6318156 -0.04402548
-0.39368668 0.17690243 0.20431884 0.23981762 0.35110605 0.53215295 -0.120872125 -0.502945
0.44327718 0.2905909 0.4031639 -0.24126656 0.76059234 0.042099655 -0.08542713 0.14172754
0.085053325 0.5351149 0.36223945 0.5030907 0.07115751 0.16966096 0.35225275 0.53208286
0.25655705 -0.27768376 0.67278415
00000000: d90d 013e 1168 b8bd dbc2 d4be 6733 89bd
00000010: c1ad bfbe ad69 92be b3eb 513e 6c56 273f
00000020: 996f 8ebb f43d a1be b8fb 33be 38a4 24be
00000030: 013d 833e dd2c 803d 5275 483f 87d7 153f
00000040: 6d7e ccbe dfa9 6dbe b25f 3c3e a6c9 e33e
00000050: 41f0 11bf a161 a73e af9c 38bc 26e8 d8be
00000060: 2ed1 a5be 9ba3 93be 406b 1d3e 955f cebc
00000070: 9fa8 e63e 4761 073e 0df4 0c3b 4f99 a0be
00000080: 8dc2 0fbf 993f 373e ed4b a0be b1e4 7a3d
00000090: 1361 20bd 06b0 7a3e cd09 b53e 46b0 213f
000000a0: 5e68 0b3e e3a3 f33e e577 cc3e f4a4 263e
000000b0: 4cf5 94bb d1bd 00bf 854e d9bc df42 f0bc
000000c0: 980d 9ebe 2d06 023e 2dba c83e 0478 09bf
000000d0: c6d7 60be ddf7 ab3c 2b0d 623e 23f8 42be
000000e0: 9955 ffbd 81f6 353d f202 e8be 1860 a6be
000000f0: b729 ce3d 7554 1c3e ca9f 43be 7d26 d4be
00000100: 2038 333f 45fc 9bbb 7109 c6be 817d ebbe
00000110: f598 14be b497 cbbe 1e7f 1dbe 9885 abbc
00000120: da73 d3be b823 d83e f8d8 803e c70b 45be
00000130: af39 9abd 5a77 c0be ac0d 2fbe 548c 7ebd
00000140: 3aaa 74be 8272 b6bd 96cb 7f3d 9e8b d8be
00000150: 41fd 7fbe e400 edbd 4583 7ebe 3cbb 1f3e
00000160: 78dd 913c ff42 5bbb 8f73 2fbd 833f f63c
00000170: 89e4 b73e edb2 13bf e193 0ebf f58f 8d3d
00000180: 5b75 bc3e 6cfd 083d ed06 8d3e 0ff1 10bf
00000190: 4f28 fc3d 5e19 2a3f aa8a 2d3e f52f 873e
000001a0: aa9f b53e 8424 b3be a9c7 dd3e 054f a7be
000001b0: 127a 9dbe 96ff 11bf 8a38 94be 7abd 09bf
000001c0: 63ba cf3e ef9c 5bbe 4e83 71bc 72a6 473e
000001d0: 949a d93e 96d1 a5bd abbe 213f 1054 34bd
000001e0: 4d91 c9be e925 353e f538 513e c092 753e
000001f0: 2cc4 b33e 2d3b 083f ce8b f7bd 01c1 00bf
00000200: 3af5 e23e 55c8 943e 806b ce3e 950e 77be
00000210: 2eb6 423f b070 2c3d 6bf4 aebd 0621 113e
00000220: 7030 ae3d 4afd 083f 7377 b93e 8dca 003f
00000230: 07bb 913d 9abb 2d3e 795a b43e 9536 083f
00000240: 725b 833e 912c 8ebe 953b 2c3f

gru_dp_bw.gru_cell.bias_ih f4 [21]
0.39886722 0.031049307 0.28186303 0.361618 0.44215247 0.4089929 0.49940747 -0.10239593
-0.0030986415 0.09003764 0.06724341 -0.28547373 0.19790445 0.87222785 0.13361104 0.18165419
-0.15962274 0.024500126 0.35187882 0.20516524 -0.105840996
00000000: 5338 cc3e 1e5b fe3c 5a50 903e ff25 b93e
00000010: cf61 e23e 8467 d13e 56b2 ff3e f5b4 d1bd
00000020: 9412 4bbb a765 b83d eab6 893d 9d29 92be
00000030: 77a7 4a3e 534a 5f3f 55d1 083e 8e03 3a3e
00000040: 2574 23be 7db4 c83c 7629 b43e d616 523e
00000050: 2ac3 d8bd

gru_dp_bw.gru_cell.bias_hh f4 [21]
-0.092948504 0.29971877 -0.11699272 0.06073441 0.16515915 -0.033853244 -0.10755183 0.29409495
-0.14350142 0.44627395 0.4265025 0.011919266 -0.25973487 0.4322227 0.1733877 -0.098278254
-0.13643314 -0.2590993 -0.08699496 0.3600456 0.16936027
00000000: c95b bebd bd74 993e e199 efbd a5c4 783d
00000010: 7b1f 293e b3a9 0abd 2244 dcbd 9d93 963e
00000020: 09f2 12be 057e e43e 895e da3e 0649 433c
00000030: f8fb 84be 4b4c dd3e 8c8c 313e 1c46 c9bd
00000040: 21b5 0bbe aaa8 84be 6a2a b2bd e657 b83e
00000050: c76c 2d3e

gru_dp_bw.ode_net.odeblock.odefunc.fc1.weight f4 [7, 7]
-0.21426538 -0.3482825 -0.20576943 0.13658439 -0.2243919 0.24610014 -0.12993746 0.19006485
0.33172962 -0.022772312 0.03317639 -0.10877305 -0.17673616 -0.38322884 0.18118711 0.42940146
0.20609719 -0.052357435 -0.14375667 0.1328992 -0.36623174 -0.3681516 -0.25149024 0.16799921
0.0971655 -0.078448355 0.2739851 0.13832471 -0.0045399754 0.3553994 -0.36699232 -0.13031252
-0.018154046 -0.23017468 -0.4548462 0.04788132 -0.03318065 0.19139722 0.15631954 0.09065886
0.004792119 0.30362192 -0.27095422 -0.044897348 0.14100172 -0.16315985 0.3108651 -0.1314217
0.27251834
00000000: 6268 5bbe 1552 b2be 39b5 52be c7dc 0b3e
00000010: fdc6 65be ad01 7c3e 530e 05be 5ca0 423e
00000020: 77d8 a93e 008d babc f7e3 073d 68c4 debd
00000030: 53fa 34be 9236 c4be 1d89 393e 82da db3e
00000040: 240b 533e c074 56bd f334 13be ba16 083e
00000050: ba82 bbbe 5e7e bcbe 54c3 80be fc07 2c3e
00000060: b5fe c63d 88a9 a0bd c647 8c3e fea4 0d3e
00000070: 13c4 94bb e9f6 b53e 6be6 bbbe a570 05be
00000080: cbb7 94bc e9b2 6bbe 9ae1 e8be 341f 443d
00000090: 6fe8 07bd a2fd 433e 3b12 203e 5aab b93d
000000a0: 3507 9d3b 5574 9b3e 83ba 8abe 48e6 37bd
000000b0: c162 103e 6013 27be b629 9f3e 6993 06be
000000c0: 8687 8b3e

gru_dp_bw.ode_net.odeblock.odefunc.fc1.bias f4 [7]
0.05903962 -0.0027699396 0.10193873 0.33027807 0.5199332 0.09015087 0.25414518
00000000: 87d3 713d e087 35bb 41c5 d03d 351a a93e
00000010: 581a 053f 05a1 b83d 511f 823e

gru_dp_bw.ode_net.odeblock.odefunc.fc2.weight f4 [7, 7]
0.16151226 0.41570166 -0.07336503 0.44912657 0.34735703 -0.2788861 0.32002985 0.22557689
0.24635372 0.33833233 -0.11108957 0.39174306 -0.16418856 0.36312267 -0.0027008713 0.3572771
0.045241967 0.040558122 -0.10076111 -0.2485263 0.17908174 0.3106933 0.020040162 -0.26548505
0.030174138 -0.16988447 -0.060626745 0.46307373 0.37228483 0.3564284 0.23127532 0.08693814
-0.08526215 -0.20649889 0.0001293558 0.33974642 -0.27486446 -0.19017 0.36828628 -0.24382935
0.2106298 0.021742653 0.04839137 0.27954248 0.3769569 0.24863937 0.5047949 0.10168309
-0.0050960216
00000000: 7863 253e d9d6 d43e 6840 96bd ebf3 e53e
00000010: c8d8 b13e 29ca 8ebe f4da a33e a1fd 663e
00000020: 2644 7c3e e539 ad3e ee82 e3bd 8c92 c83e
00000030: 0c21 28be 37eb b93e 1a01 31bb 06ed b63e
00000040: a44f 393d 4620 263d d75b cebd ae7d 7ebe
00000050: 3461 373e 3113 9f3e 442b a43c a8ed 87be
00000060: c12f f73c 32f6 2dbe c053 78bd 0018 ed3e
00000070: 1e9c be3e c97d b63e 70d3 6c3e a00c b23d
00000080: ec9d aebd 7274 53be afa3 0739 3ef3 ad3e
00000090: 09bb 8cbe edbb 42be 0590 bc3e 67ae 79be
000000a0: 57af 573e a61d b23c 0736 463d 3120 8f3e
000000b0: 7f00 c13e 529b 7e3e 3d3a 013f 393f d03d
000000c0: 87fc a6bb

gru_dp_bw.ode_net.odeblock.odefunc.fc2.bias f4 [7]
-0.1663461 -0.18088783 0.17487976 -0.1629908 0.030727614 0.44600615 0.21769023
00000000: a256 2abe a93a 39be ae13 333e 0fe7 26be
00000010: 7ab8 fb3c eb5a e43e 30ea 5e3e

gru_dp_bw.ode_net.odeblock.odefunc.fc3.weight f4 [7, 7]
-0.13787504 0.27054235 0.32711738 0.11669882 0.141044 0.12870564 0.45303312 0.096186936
0.44285354 0.32989952 0.09639081 0.03299845 -0.15865533 0.208231 -0.117337465 -0.34273094
-0.31336427 -0.16882613 -0.18445307 -0.249149 0.090654515 -0.45887083 -0.25944313 0.12046537
-0.50673157 -0.49396032 0.11500626 -0.53532517 -0.48192403 -0.09263266 -0.22562398 -0.31991193
-0.3846642 -0.3060034 0.0049087955 0.28614563 0.38307196 0.105632 0.4959887 -0.097670846
0.18727262 0.5670902 0.045075465 0.04578463 0.32273912 -0.39034158 0.17491224 -0.35336232
-0.10982568
00000000: 1d2f 0dbe 8784 8a3e ee7b a73e caff ee3d
00000010: d76d 103e 69cb 033e f5f3 e73e a8fd c43d
00000020: b3bd e23e 97e8 a83e 8c68 c53d 6229 073d
00000030: 8b76 22be 823a 553e a04e f0bd 6e7a afbe
00000040: 4871 a0be c2e0 2cbe 44e1 3cbe ea20 7fbe
00000050: 13a9 b93d 1ef1 eabe bbd5 84be 8cb6 f63d
00000060: 29b9 01bf 5ee8 fcbe 6788 eb3d 120b 09bf
00000070: bfbe f6be 31b6 bdbd f909 67be 7fcb a3be
00000080: b5f2 c4be 7aac 9cbe f6d9 a03b ae81 923e
00000090: 0222 c43e 9755 d83d 3bf2 fd3e a707 c8bd
000000a0: 65c4 3f3e d32c 113f 0da1 383d aa88 3b3d
000000b0: 103e a53e dada c7be 321c 333e e8eb b4be
000000c0: 49ec e0bd

gru_dp_bw.ode_net.odeblock.odefunc.fc3.bias f4 [7]
0.30747092 0.48939323 -0.41930938 0.007220698 -0.5537112 0.31346068 0.058243368
00000000: d46c 9d3e c091 fa3e b8af d6be 9b9b ec3b
00000010: 04c0 0dbf eb7d a03e 9990 6e3d

gru_cp_bw.decays f4 [6]
0.0 0.0 1.14e-43 0.0 3.7699714e+26 4.566e-41
00000000: 0000 0000 0000 0000 5100 0000 0000 0000
00000010: 20ec 9b6b 487f 0000

gru_cp_bw.gru_cell.weight_ih f4 [18, 6]
0.10552255 0.24631602 0.049386505 -0.08391749 -0.12819718 -0.0077388533 -0.25902507 -0.27663863
-0.10734741 -0.386133 0.55430895 -0.079102874 0.10135393 -0.123538785 -0.116301805 0.10445482
-0.41506183 -0.0003992063 0.4225389 -0.12685178 -0.4481839 0.2443343 0.08994101 -0.17940153
0.14685011 0.10009756 -0.3411148 0.18061689 -0.38326803 -0.11038412 0.19671024 -0.07503727
-0.038775336 0.105169795 0.19863987 -0.1511564 0.06495802 -0.27776378 -0.3701499 -0.120358
-0.39347824 0.038023103 -0.46542513 0.1311086 0.34967142 -0.44247195 -0.19877632 0.08636764
0.28400674 -0.22847973 0.29695225 -0.06031915 0.48277113 -0.19280922 -0.11896837 -0.20500702
0.5000585 -0.020683195 -0.007573347 -0.22281124 -0.31224972 -0.34262094 -0.3090082 0.43301564
0.36321187 -0.017178657 0.06518707 0.032135125 0.15087993 -0.29957557 -0.41443133 0.2663051
0.043328527 -0.03449434 0.28821003 -0.41741624 -0.1704232 -0.031127628 0.06798212 -0.22634599
0.14054666 0.58545953 0.16250129 0.63485265 -0.43320835 0.014137477 0.13324183 0.066486984
-0.40119877 -0.1869753 -0.009090761 -0.06875958 0.052129295 0.32795995 0.013317214 0.30776304
0.2769157 -0.2685253 0.26314217 0.06079819 0.16110794 -0.23628202 -0.3061262 -0.28622034
-0.17931388 0.34851304 -0.06493757 0.5490622
00000000: 351c d83d 443a 7c3e 8149 4a3d efdc abbd
00000010: 1f46 03be 3596 fdbb ef9e 84be 94a3 8dbe
00000020: f5d8 dbbd 39b3 c5be 31e7 0d3f b000 a2bd
00000030: a692 cf3d e701 fdbd a42f eebd 69ec d53d
00000040: fc82 d4be 904c d1b9 0557 d83e 6fe5 01be
00000050: 5c78 e5be c532 7a3e fe32 b83d 09b5 37be
00000060: e05f 163e f3ff cc3d 99a6 aebe a2f3 383e
00000070: b53b c4be 1211 e2bd 696e 493e 24ad 99bd
00000080: e3d2 1ebd 4363 d73d 4068 4b3e bec8 1abe
00000090: b608 853d 0e37 8ebe 4a84 bdbe 417e f6bd
000000a0: fb75 c9be 1dbe 1b3d 344c eebe 5541 063e
000000b0: 2208 b33e af8b e2be 058c 4bbe 84e1 b03d
000000c0: 5569 913e 97f6 69be 200a 983e 3711 77bd
000000d0: c72d f73e c86f 45be b0a5 f3bd 5ced 51be
000000e0: d503 003f ce6f a9bc d729 f8bb a128 64be
000000f0: 32df 9fbe 036c afbe 5336 9ebe 3ab4 dd3e
00000100: e8f6 b93e 41ba 8cbc cc80 853d 1fa0 033d
00000110: 4580 1a3e f861 99be 5830 d4be 2459 883e
00000120: 4179 313d f049 0dbd 4490 933e 95b7 d5be
00000130: 6b83 2ebe 5eff febc 363a 8b3d 3ec7 67be
00000140: 77eb 0f3e ade0 153f bd66 263e b485 223f
00000150: 7ccd ddbe e0a0 673c 8c70 083e 542a 883d
00000160: ed69 cdbe 7476 3fbe 6af1 14bc d3d1 8cbd
00000170: 8785 553d 5eea a73e 7230 5a3c 1e93 9d3e
00000180: e5c7 8d3e 267c 89be 92ba 863e 8607 793d
00000190: 7bf9 243e eaf3 71be 93bc 9cbe 798b 92be
000001a0: 0f9e 37be 4d70 b23e fdfd 84bd 578f 0c3f
