ablation1_min_count/min_count_0/attention_concat_time/final_model.pt (torch, 853691 bytes, 11 tensors)

embed_dp.weight f4 [8364, 20]
00000000: 0000 0000 0000 0000 0000 0000 0000 0000
00000010: 0000 0000 0000 0000 0000 0000 0000 0000
00000020: 0000 0000 0000 0000 0000 0000 0000 0000
00000030: 0000 0000 0000 0000 0000 0000 0000 0000
00000040: 0000 0000 0000 0000 0000 0000 0000 0000
00000050: 1cf5 9dbe 6135 2c3f 6906 343f 2ac8 66be
00000060: 5e35 0a3f 2009 06bc dfc1 1abe 765b 383e
00000070: 7146 83bc 32d0 9e3e 03aa 7e3f 1b40 f83d
00000080: 2c18 57bf bd7e 3c3f 6668 873f 30ec d5bf
00000090: 9937 a2be 6cf6 9f3e dcb9 9e3f a17e 4a3e
000000a0: 880a 273c 7331 0f3f f8d5 f23d becf 8bbf
000000b0: 4017 3fbf a9c0 acbe b850 09be 8d97 1c3f
000000c0: 5eef 7b3f 150a 3c3f b8b7 d43c 7b75 bbbd
000000d0: 2cdd 993f 2fa6 96bf 3700 743f 6a1c fa3e
000000e0: b8d5 1d3f a87b c1bd 3e0f 583e 9e4b bcbf
000000f0: 926a 243f 4504 be3e 1345 83bf aa7f ee3e
00000100: 4a97 90bf 4293 ea3e 3157 b4bf 1e4a 0e3f
00000110: 9de7 1b3f 8b5a 0740 a510 ca3e c533 d53f
00000120: 4592 b1bd 4fa4 39bf 725f 54be bdc8 8abc
00000130: adec ebbe fbc5 9f3e e141 643f 4098 693e
00000140: 8f95 613f f13a 98be d70a 563e a1d8 cabd
00000150: cd38 443e 1ba5 79bf 0f6b 4740 82ea b73f
00000160: e0f4 883f 43ed d3be 729d 1cbf ddd2 713d
00000170: c6e5 4c3f b563 f9be ad2c 463f 47f3 323f
00000180: 619d 8fbf 128a bbbf 12d8 2b40 4039 1e3f
00000190: 1330 753f b305 8fbf 1bc7 8d3f 3a06 9c3d
000001a0: 98ec 0640 d91c 893f a4b3 773f 4dcf 443f
000001b0: c61c 4bbf 3bce 3fbf 2b7e f8bf cb5d a8be
000001c0: 287a 023f a86b 1240 e48e ae3b 6e3e aa3e
000001d0: 9b17 d3be 4490 e0bd 9432 863e fb98 1f3f
000001e0: a063 c4be 16a0 4ebf 68f5 05c0 9dff fb3f
000001f0: 301d c1be 1e30 e4bd e707 15be 29a1 ccbe
00000200: b9cc 383f df8b afbf d5b4 623e 51ec d03e
00000210: 3f86 73bf d4b9 05be d6f8 c33f 4e6a abbe
00000220: 6c02 f6bb 4955 b9bf edae 393f 9ca3 f83e
00000230: f589 edbe bb41 51bf b92f 203e b945 fe3e
00000240: 43ff 843f 25cb 8f3f cf09 1f3f 6af9 6abf
00000250: 932a 5fbf 348d b63e 4880 3a3f 007b 52bf
00000260: 1b84 e43e 3451 3dbf 4420 52bd d2e3 923f
00000270: cfce f93e dfb4 dabf 2d0a cbbf 2b46 203f
00000280: 0d96 4040 2a22 b8be a251 3540 6bbc 28bf
00000290: 148f 243f 8961 5b3f b7d0 323f bfa8 5e3f
000002a0: 4e48 7d3f 3a45 f9bf dbd8 8c3e 7093 673d
000002b0: 4656 31bf bdec 6c3f 7db7 2cbf ee13 c9be
000002c0: 8cdf 923f c7c5 6cbf 4660 92be a8f1 89bf
000002d0: ebdc 6c3f f8a7 da3f b28f 273f 7772 b4be
000002e0: e91d e4bf 5d10 4abf 9cb3 553f f8d0 7abf
000002f0: 31b1 0f3f 30b3 5d3f d82e a83f ff9b 92bf
00000300: 2ae7 febe 4620 d73f bc38 f1bf d5ba 3e3f
00000310: 2561 c13f a3e9 a63f 7d50 b83f b355 78bf
00000320: 2c9e fb3d 9c9e dfbc 88b7 f5be 4dad 133f
00000330: 87a0 c63f 976f 753f 0271 79bf 3c96 23bf
00000340: eb19 76bf 8c56 10c0 81ca e33e 9f71 e73f
00000350: 9ffe e8be 3b21 49be d027 86bf bde4 033f
00000360: 3c2c c93d b6a1 3c3e 86fb febd 3c71 12be
00000370: f848 373f ec20 403f 882c a83e da77 aabf
00000380: e2fa 873e 34cf ba3e 2f49 0b40 6d84 81bf
00000390: fd9c 4bbf 98b6 dfbf ee01 23bd 7cd4 363f
000003a0: 93c7 723e 0735 05c0 26e1 a1bf ab56 953f
000003b0: 01ce ea3f 8b92 633f e394 dd3e 429f babf
000003c0: ce5e 80bf e327 a53f 7692 6f3f 9c29 9bbf
000003d0: c94d 19be e359 d2be c78b b6be 8b1f 25be
000003e0: 4305 0cbc 9c20 02bf c45a 06be 3e31 7a3f
000003f0: b87c d7be 2748 dfbf fd3a adbf 2c3d 56bf
0.0 0.0 0.0 0.0 0.0 0.0 0.0 0.0
0.0 0.0 0.0 0.0 0.0 0.0 0.0 0.0
0.0 0.0 0.0 0.0 -0.30851066 0.6726895 0.7032228 -0.22537294
0.5398768 -0.0081808865 -0.15113018 0.1800364 -0.0160248 0.31018215 0.9947817 0.12121602
-0.8402126 0.7363089 1.0578735 -1.6712704 -0.31683043 0.31242692 1.240047 0.19774868
0.010195382 0.5593483 0.118572176 -1.0922773 -0.7464485 -0.33740738 -0.13409698 0.6116875
0.9841212 0.73452884 0.02596651 -0.09153267 1.2020621 -1.1769465 0.9531283 0.48849803
0.61654234 -0.09447414 0.21099564 -1.4710577 0.64225113 0.37112632 -1.0255455 0.46581775
-1.129617 0.45815474 -1.4089109 0.55581844 0.6090029 2.1149013 0.39465824 1.6656424
-0.08670477 -0.7251634 -0.20739534 -0.016941423 -0.46079007 0.31205735 0.89163023 0.22811985
0.88118833 -0.2973247 0.20902573 -0.099046 0.19162293 -0.97517556 3.1159093 1.4368441
1.069973 -0.41391954 -0.6117774 0.059038986 0.80038106 -0.48708883 0.7741192 0.6990246
-1.1219903 -1.4651511 2.685063 0.61806107 0.9577648 -1.1173614 1.1076387 0.07618375
2.1081905 1.0711929 0.96758485 0.76878816 -0.7934078 -0.7492406 -1.9413503 -0.32884058
0.50967646 2.2878208 0.0053270925 0.33250755 -0.41228947 -0.109650165 0.26210463 0.62342805
-0.38357258 -0.8071302 -2.0931034 1.9687382 -0.3771758 -0.1114199 -0.14553796 -0.39966705
0.7218738 -1.371456 0.22139294 0.40805295 -0.9512672 -0.13059169 1.5310314 -0.33479542
-0.007507613 -1.4479152 0.7253254 0.48562324 -0.46394315 -0.8174092 0.15643205 0.4966257
1.03904 1.123387 0.6212434 -0.91786826 -0.8717434 0.35654604 0.7285199 -0.82218933
0.44632038 -0.7395203 -0.051300302 1.1475775 0.48790595 -1.7086447 -1.586248 0.6260707
3.0091584 -0.35963565 2.8331075 -0.65912503 0.6428082 0.856957 0.69849724 0.86976236
0.98938453 -1.9474251 0.27509198 0.05653709 -0.6927227 0.92548734 -0.6746748 -0.39273018
1.1474471 -0.92489284 -0.28589076 -1.0776873 0.92524594 1.708251 0.65453637 -0.3524358
-1.7821628 -0.7893122 0.8347719 -0.9797511 0.5612975 0.86601543 1.3139296 -1.1453856
-0.4978574 1.6806724 -1.8845439 0.74503833 1.5107771 1.304005 1.4399563 -0.97005767
0.12286028 -0.02729731 -0.47991586 0.5768631 1.5517739 0.958734 -0.9743806 -0.63901114
-0.961333 -2.2552824 0.44490436 1.808155 -0.4550676 -0.19641583 -1.04809 0.515209
0.0982289 0.18421063 -0.12450318 -0.14301008 0.71595716 0.75050235 0.32846475 -1.3317826
0.26558596 0.36486208 2.1763418 -1.0118538 -0.7953642 -1.7477598 -0.039796762 0.71417975
0.23708944 -2.0813615 -1.2646835 1.1667074 1.8344117 0.8889548 0.43277654 -1.4579852
-1.0028932 1.2902797 0.93582857 -1.2122073 -0.14971079 -0.41084203 -0.35653517 -0.16125314
-0.008546176 -0.5083101 -0.13120562 0.9773139 -0.4208734 -1.7443894 -1.3533627 -0.8368709

embed_cp.weight f4 [2759, 16]
00000000: 0000 0000 0000 0000 0000 0000 0000 0000
00000010: 0000 0000 0000 0000 0000 0000 0000 0000
00000020: 0000 0000 0000 0000 0000 0000 0000 0000
00000030: 0000 0000 0000 0000 0000 0000 0000 0000
00000040: 362d 7a3d 330b 26bf f87e f83e 1a7c 45bf
00000050: 9f24 9cbf a1dc a4be 5bda 10be 4f99 7f3f
00000060: 407f 873d 3b30 213f b7ab 50bf f54c 933f
00000070: e5b7 41be 23cc 303f 60e0 08bf 2c22 4cbe
00000080: a862 0a3f e07d 84bc a176 ebbe fc81 d0bf
00000090: 3fee 463f 0c97 123f e023 40bf 6be1 c9be
000000a0: d355 3340 2c4c 7abe 9e10 b33e f007 80bf
000000b0: c6a2 2abf 3f0b 37be cd82 f0be 7677 223f
000000c0: 6b9a 04c0 9146 36bf e3fb c13f fc67 38bf
000000d0: 12e2 09c0 9109 98bf 535d 873f a3f0 53bf
000000e0: 0aa3 ff3e 70d3 1cbf de3b d5bf 1daa 243f
000000f0: cc5b 723e 76c5 a7bf 6d73 953e 8db0 c53d
00000100: cfde 4ebe 4996 b9be fccf 87bf e2c7 22bf
00000110: 2094 0abf b163 81bf 10e8 c13e a36a 0cbf
00000120: ab83 463f 46ed 8cbf d3c6 233d 7425 04c0
00000130: 02a8 78bf 4a41 a63c 0cac 33bf 0af9 353f
00000140: 1b05 2f3f 3d82 cb3d dc67 1b3f 1faa 903f
00000150: 9bc6 f73d e9a3 c1bf 3afc 443e ec86 adbf
00000160: d7fa d63f 939d 96bf 1416 0a40 b689 9fbf
00000170: 5284 0cbe 6382 263f c247 c33e 29d8 9cbf
00000180: 61fb 8ebe c21d 023c ab00 49be 4a78 5d3f
00000190: 50b4 8a3e 8aab 693e a257 923d a931 ddbe
000001a0: 424e 2f3f c38b 8e3e 78ea 9d3d 3667 c8bd
000001b0: 80e6 633f a4ee e63e 316d 573f eef7 e3bf
000001c0: 7229 e03e 65d3 9bbf 0b69 4fbf be2f 73bf
000001d0: 2af9 ea3e 0800 3abf eab3 d8be 12e4 513f
000001e0: db70 e1bd 403f ae3f 263b c8be 4a01 84bd
000001f0: 7dc2 1bbd 6d2c a73f ec6d 16bf 8366 bbbe
00000200: 911f e63c e3a5 a33e 8a22 ae3f 289d babf
00000210: 4c99 a7bc 4559 2b3f a157 b8be b5c5 0ebf
00000220: 6575 38bf f6cc b23f 7c4c 05bf 5342 1e3f
00000230: e730 b53e 4947 a03e c121 96bf fd1d 0ebe
00000240: 3758 cabf df31 223f bb99 e7be 8009 b4bf
00000250: 1561 64bf 4dbf a7bf 4eb1 c43e 4d00 383f
00000260: 9cfa 28be 6953 b1bf b7e3 973f b701 fe3e
00000270: 81a9 69bf 41b5 343f 852c 0ec0 a455 673f
00000280: 9a20 3abf bbea 63bd 7aaf b23e 1c84 d03d
00000290: 69e4 23bf 0a80 e7be bfe0 4f3e b696 683f
000002a0: 07bb 853f 4464 763f 594f dabe d7e7 353f
000002b0: f026 273f 36ba 12bf 9e31 ebbf 151a ef3e
000002c0: 4fc5 5b3f 7551 953f 8fcd 9d3e 0cbb b1bf
000002d0: ac1d e8be ec20 f33f 0746 0ebf 0b38 bdbe
000002e0: 38ee 17bf c0b2 dc3f aa36 00bf 6f77 4d3f
000002f0: f963 443f f15d b5bf d859 33be db03 21be
00000300: bd93 91bf 86da e5be 7a88 e6bd 993c 143f
00000310: 1b87 413f a32c 01c0 8971 803f 6f75 98be
00000320: 9b61 15bf d3c8 b43f e524 203f 011c c5be
00000330: 1070 acbf 0f43 2840 6955 fa3d 46c2 af3e
00000340: d830 e2be 86ee af3f 07a1 b2bf 9120 bb3d
00000350: d508 56bf eab6 2fbf 8b3b b23f 2edb 0fbf
00000360: 4bc5 64bf 8748 583e 01bb 4ebd 351e 303f
00000370: 0a35 f73e 3123 ba3f 7541 8fbd cc39 e13f
00000380: ec38 073e f566 acbf 4821 f53e afd8 493f
00000390: 4b44 73be e94b 94bf 70e8 18bf 7371 d33f
000003a0: 22f2 3c3f 2e27 73be 314d 8f3f d8c1 04bf
000003b0: 82c5 0cbf 04cf 593e 88f4 f83f 2c80 43bf
000003c0: 23b9 c5be cfb1 25bf 6675 64bf 4733 45be
000003d0: 5732 e23f bc7f 1a3d 2641 c8be d2d5 ae3f
000003e0: 0690 043f 40e1 3dbf 1add 87be 703e 683e
000003f0: 15fe c9be e12a c43e 860e 423f fe4f eebe
0.0 0.0 0.0 0.0 0.0 0.0 0.0 0.0
0.0 0.0 0.0 0.0 0.0 0.0 0.0 0.0
0.061078273 -0.6486084 0.4853437 -0.7714249 -1.2198676 -0.32199576 -0.14145796 0.99843305
0.06616068 0.6296422 -0.81512016 1.150786 -0.18917806 0.6906149 -0.5346737 -0.1993491
0.5405679 -0.016173303 -0.45988944 -1.6289668 0.77707285 0.5726173 -0.7505474 -0.39429793
2.8021133 -0.2444312 0.34973615 -1.0002422 -0.6665462 -0.17875384 -0.46974793 0.6346353
-2.071925 -0.71201426 1.5154995 -0.7203367 -2.1544232 -1.187792 1.0575355 -0.8278906
0.49929076 -0.6126013 -1.6658895 0.6432207 0.2366783 -1.3107135 0.29189625 0.09652815
-0.20202182 -0.3624747 -1.0610347 -0.63586247 -0.5413227 -1.0108548 0.37872362 -0.54850215
0.7754466 -1.100991 0.039984535 -2.064786 -0.9713136 0.020294804 -0.701844 0.7108313
0.68367165 0.0993695 0.6070535 1.1301917 0.12098428 -1.5128146 0.19236842 -1.35568
1.67953 -1.1766838 2.1575975 -1.2463901 -0.13722351 0.65042704 0.38140684 -1.2253467
-0.27926162 0.007941665 -0.19629161 0.8651167 0.27090693 0.22819343 0.07145621 -0.4320195
0.68478787 0.27841005 0.07710737 -0.09785311 0.8902359 0.45103943 0.8415099 -1.7810037
0.4378162 -1.2173887 -0.8101966 -0.94994724 0.45893222 -0.726563 -0.42324764 0.8198863
-0.110078536 1.3613052 -0.39107627 -0.06445558 -0.038027275 1.3060433 -0.5876148 -0.36601648
0.028091224 0.319625 1.360429 -1.457921 -0.02045884 0.6693309 -0.36004356 -0.55770427
-0.7205413 1.3968799 -0.5206983 0.6181995 0.35388872 0.31304386 -1.1729051 -0.13878627
-1.5808171 0.6335735 -0.45234475 -1.4065399 -0.89210635 -1.3105255 0.38416523 0.7187546
-0.1650185 -1.385358 1.1866368 0.49610683 -0.9127427 0.7058907 -2.2214673 0.9036505
-0.72705996 -0.05564378 0.34899503 0.10181448 -0.640204 -0.45214874 0.20300578 0.90854967
1.0447701 0.96246743 -0.42638662 0.71056885 0.6529379 -0.57315385 -1.8374517 0.46699587
0.85847944 1.1665484 0.3082089 -1.3885207 -0.45335138 1.8994422 -0.55575603 -0.3695682
-0.5934787 1.724205 -0.5008341 0.80260366 0.76715046 -1.4169294 -0.17514741 -0.15724127
-1.1373211 -0.44893283 -0.112564996 0.57904965 0.7559678 -2.0183494 1.0034648 -0.29777095
-0.5835206 1.4123787 0.62556297 -0.38497928 -1.3471699 2.629093 0.12223322 0.34327906
-0.4417789 1.3744667 -1.3955392 0.09137071 -0.83607227 -0.6863848 1.3924421 -0.56193817
-0.89363545 0.21121417 -0.05047131 0.6879609 0.48282653 1.454199 -0.06994907 1.7595763
0.13205308 -1.346892 0.47876954 0.7884626 -0.2375652 -1.1585666 -0.5972967 1.6518997
0.73806965 -0.23745415 1.1195432 -0.5185828 -0.54988873 0.21270376 1.9449625 -0.7636745
-0.3861781 -0.6472444 -0.89241636 -0.19257842 1.7671613 0.037719473 -0.39112204 1.3659003
0.5178226 -0.7417183 -0.26535875 0.22680068 -0.39451662 0.38313964 0.7580341 -0.46545404

attention_dp.context f4 [21]
00000000: 4e96 1e3f a23f 0fbf 738d 973f f0d7 97be
00000010: ec17 07c0 7f92 b23e 254a 66be 6886 f2be
00000020: b23a 833f deac 943e b07c 9f3e 6bf5 983f
00000030: 90ea d5bd a4c9 50bf 4eef 973f 0ac6 083f
00000040: 5a36 abbf 43d7 9cbf 6a62 633e 8c32 7a3f
00000050: 5154 24be
0.61948097 -0.5595647 1.1840042 -0.29656935 -2.110835 0.34877393 -0.22489221 -0.4736817
1.0252287 0.29038137 0.31149817 1.1949896 -0.1044513 -0.8155768 1.1869905 0.53427184
-1.3375962 -1.2253193 0.2220551 0.9773338 -0.16047789

attention_dp.linear_hidden.weight f4 [21, 21]
00000000: a1f6 173e d9ab debd e801 5d3e 29dc 5fbc
00000010: 4307 2abe 6980 32bd f73d 01be d0bf 30bd
00000020: ac66 313e 655b 203c 2472 a1bc c97e 453d
00000030: 3cb1 acbc 800c e0bd 97be 3fbe 42a1 0e3d
00000040: 85ff e73d 9b9a 41be e699 0dbd e742 2bbe
00000050: 098f 2fbe 21ef 143c 055a 0c3e 0933 663e
00000060: 3a3d eabd fdb0 a23d 3e07 823d 8d5c e13d
00000070: 180a 56bd d34c 13be c5fa 5b3d aa96 7c3e
00000080: 1175 72be 28e9 e13d 2aa7 abbd de82 053e
00000090: fe92 1a3e d94c cf3d dbf0 47be 5025 baba
000000a0: 73d5 203e 17db 0bbe 4283 0bbe 5913 29bc
000000b0: c329 113e 42b4 29be 5ccf 023e b653 23be
000000c0: 2328 a43e 6dd6 a7bd aa59 b23d d302 803e
000000d0: ff0d 5cbe c751 4c3b c17f a2be 65a4 483e
000000e0: 6452 ab3d 7c7d 4bbe 560c 343e 218d 38be
000000f0: 1381 f1bc 0b00 aebc 935d ffbd 26cc 443d
00000100: 5da8 00be 7e77 4a3e 7b52 4cbe 641d 1d3c
00000110: 7b45 263d 93a8 0d3e 5a0a b8bc ea7b 45bc
00000120: 1ff0 ebbd aaf4 443e aebf a6bc 4394 18be
00000130: 01ea 28be e4ca 2f3e 7c0e 5a3c 37e0 173e
00000140: 2c75 e9bd e510 db3d a142 dbbc dc23 dbbd
00000150: 18b9 7cbe 4a47 fe3d 9101 c6bc 6e26 40be
00000160: 5544 54bd 7356 37bd 9fd2 5f3e 5866 883e
00000170: edce 46be eecc 283e f2e1 c7bc 191e 3f3d
00000180: ce67 193d 3dba 77bd b505 913e 1f73 a6bd
00000190: feb3 d03a 2138 46bd 4ac6 f03d 7664 533e
000001a0: bf30 6f3e 8328 0d3e a729 6fbd f082 4dbe
000001b0: 5ef8 923e afa0 003e af00 a93b 3afe fe3c
000001c0: 2b87 a1bd 00b0 423e 6ca7 b13d 5b71 a6be
000001d0: f610 49bc dc9f 15bd 4750 843e 2336 31be
000001e0: 21e1 19be a18b ce3d f93b 03be e1de f63d
000001f0: 44ee 113d 861a f33d ac96 9f3d 3905 7a3e
00000200: 7ff4 4abe 6642 07be a055 85bd 97fc 233e
00000210: a474 9ebd f5f9 1d3e 01a3 133d 2b74 423e
00000220: faa8 87bc dd25 46be c962 34be f87c 22be
00000230: d049 e6bc 788c 10bd 3cb0 01be 1383 f63d
00000240: f4a9 073d 8822 5a3e 8c34 9b3d ffa4 75bd
00000250: 6899 12be 9250 4dbe 2a89 043e 24a8 413e
00000260: 8be3 21be a0d8 f03a e94d 01be 8bd2 19be
00000270: e7e6 b6bd fea3 eb3d 4b58 93be 351f 11be
00000280: db11 a23d 7305 843e ca89 cd3d 22cc 8d3d
00000290: 5c36 da3d 7c8d f93c 36da ba3c 8da7 ea3d
000002a0: 64b2 163e 9fad ec3c 560e 19bd 6c55 0d3e
000002b0: cc10 0a3e 59b5 8cbd 872c 33be 5fbf 61be
000002c0: 3623 89bc ae2e 1fbe 86d7 243e a31e 95bd
000002d0: 9f01 2d3e 2716 973d 6b9c a83d ad79 9cbc
000002e0: f937 a5be b079 2cbe 1841 783d 2d06 97be
000002f0: 5854 aebc 1969 60be a8cf 23bc df5b 2bbd
00000300: b0c4 c3bc 1ca9 34be 2b05 49be 15ae 8f3e
00000310: bc58 09be fcc0 ccbd 2eb4 6b3e 0eb4 283e
00000320: 2867 2a3e e2e4 d3bc 635a eabd d485 053e
00000330: 5374 d7bd efb4 1dbe 1d9f 8abd d093 62be
00000340: e013 a03d aaf2 b73b 2a6f a13c cbf6 f0bb
00000350: df7e 2a3d 8f64 b7ba 57a2 5d3d b14a 963d
00000360: 503c 2bbe 900c f7bd 7e4d a23d 689a 09be
00000370: 43fa 6e3e 0c31 4a3e 09fc a4bd f7a2 84be
00000380: ae5c 53be 23fc 573e cecd 9bbd 835b 19be
00000390: dd3c 37be c555 553d c67d e8bd caca 4ebe
000003a0: e85c 303e 74c4 08be 27f7 6bbe 4114 213d
000003b0: c03c 0f3e 8e7e 0bbd eaac ebbd 9616 b7bc
000003c0: 07ad 18bc 39ac 3f3e 9d26 b1bd f296 02bd
000003d0: 4cfa 4e3d 6a09 06be 1347 cb3d 2a2a 013e
000003e0: 97c5 ba3d 6ae5 a1be ac99 30bc abc9 8fbe
000003f0: dfb2 04be 7720 113d 39e6 31be a571 8cbe
0.14840175 -0.10872621 0.21582758 -0.01366333 -0.16604333 -0.043579493 -0.12621294 -0.043151677
0.17324322 0.009787415 -0.019707747 0.048216615 -0.021080606 -0.10939884 -0.18725048 0.034821756
0.11328033 -0.18906634 -0.034570597 -0.1672474 -0.17144407 0.009090216 0.13706215 0.22480406
-0.11437459 0.07943914 0.063490376 0.11003981 -0.05225572 -0.14384775 0.05370595 0.24666849
-0.2367747 0.11030799 -0.083814934 0.13038203 0.15095136 0.101220794 -0.19525473 -0.0014201794
0.15706424 -0.13657795 -0.1362429 -0.010319554 0.14176087 -0.16572669 0.12774414 -0.15949902
0.32061872 -0.08195195 0.08708508 0.25002155 -0.21489714 0.0031176673 -0.31738093 0.19593962
0.08365324 -0.19872087 0.17582831 -0.18022586 -0.029480493 -0.021240255 -0.1246902 0.048046254
-0.12564225 0.19772145 -0.19953339 0.009589527 0.040593605 0.13833837 -0.022465874 -0.012053469
-0.11520409 0.19233957 -0.020355072 -0.14900307 -0.16495515 0.1716724 0.013309117 0.14831625
-0.11399302 0.10696582 -0.02676517 -0.10700199 -0.24679983 0.12415941 -0.024170669 -0.1876466
-0.05182298 -0.04476018 0.2185769 0.26640582 -0.19414873 0.16484424 -0.024399731 0.046659563
0.03745251 -0.060480345 0.28324667 -0.08127426 0.0015922782 -0.048393372 0.11756571 0.20643792
0.23358439 0.13784985 -0.058389332 -0.2006948 0.28705114 0.12561296 0.005157552 0.031127084
-0.07887109 0.19012451 0.08674511 -0.32508358 -0.01227211 -0.036529407 0.25842497 -0.17305808
-0.15027286 0.10085226 -0.12815847 0.120542295 0.03562762 0.11870293 0.0779241 0.24416055
-0.1981983 -0.13208923 -0.06510472 0.16014324 -0.07737091 0.15427382 0.036044125 0.18989627
-0.016560066 -0.19350381 -0.17615809 -0.15867984 -0.028111368 -0.03529021 -0.12664884 0.12036719
0.033121064 0.21302235 0.07578382 -0.059971806 -0.14316332 -0.20050266 0.12942949 0.18911797
-0.15809457 0.0018375106 -0.12627377 -0.15021722 -0.0893076 0.115058884 -0.287783 -0.14172061
0.07913562 0.25785407 0.10036047 0.06923701 0.106548995 0.030462973 0.02280913 0.11457739
0.14716488 0.028891383 -0.037367187 0.13802117 0.1348297 -0.06870527 -0.17497455 -0.22045659
-0.016740423 -0.1554515 0.1609784 -0.07281234 0.1689515 0.07377272 0.08232959 -0.019100988
-0.32269266 -0.16843295 0.060608953 -0.294969 -0.021280453 -0.21915092 -0.00999824 -0.041835662
-0.023897499 -0.17642635 -0.19630878 0.28062502 -0.13412756 -0.09997746 0.23017952 0.16474935
0.16640913 -0.025865976 -0.11443021 0.13039333 -0.10520234 -0.15401052 -0.0676863 -0.22126698
0.07816291 0.0056136446 0.019706327 -0.0073536388 0.0416249 -0.0013991761 0.054109897 0.07338465
-0.16722226 -0.12062943 0.07924937 -0.13437808 0.23337655 0.19745272 -0.080558844 -0.25905582
-0.20640823 0.21092276 -0.076076135 -0.14976315 -0.17894311 0.05208375 -0.113521144 -0.20194545
0.17222941 -0.13356191 -0.230435 0.039325956 0.13988018 -0.03405624 -0.1150759 -0.022349637
-0.009318597 0.18718041 -0.08649943 -0.031882234 0.05053167 -0.13089529 0.09925666 0.1261374
0.091197185 -0.31620342 -0.010778826 -0.28083548 -0.12958859 0.03543135 -0.17372979 -0.27430454

attention_dp.linear_hidden.bias f4 [21]
00000000: d916 6cbe 0509 18bd b0af 84be 22c4 383a
00000010: cb5c 243c 8404 813e b8ff abbd f45f a73d
00000020: 02a2 893e 77be 48be cf77 0a3e 1827 8bbe
00000030: 0692 ef3c aa26 8bbd 428b 28bd 6efd 3bbd
00000040: 18f3 a43c 396d acbd fb20 7fbe 0777 febd
00000050: 304b 37be
-0.2305559 -0.037117977 -0.2591529 0.0007048269 0.010031889 0.25198758 -0.08398384 0.081725985
0.26881415 -0.19603907 0.13522266 -0.27178264 0.029244434 -0.06794484 -0.04114843 -0.045895986
0.020135447 -0.0841927 -0.24914925 -0.124250464 -0.17899776

attention_cp.context f4 [17]
00000000: c5f9 f93d 55e4 b03f 16a5 df3f fa34 69bd
00000010: e1d2 a7bd a7b3 0e3f 26ac 0ec0 16ea 11bf
00000020: ec0d 31bf d8e2 193f fe52 663f 3e68 6abe
00000030: deea 81be 0cc3 d5be 3d85 1c3f 58b6 26be
00000040: 038e a9bd
0.12205843 1.3819681 1.7472255 -0.056935288 -0.08194519 0.5574288 -2.229257 -0.5699781
-0.6916187 0.6011176 0.89970386 -0.22891328 -0.25374502 -0.4175037 0.61140805 -0.16280496
-0.0827904

attention_cp.linear_hidden.weight f4 [17, 17]
00000000: 25c8 1abe 392a 63be 1474 763d c2f4 9dbd
00000010: a683 e8bd 34f0 b7bb 87a3 2ebe 2892 3ebd
00000020: 3339 d03d d4fe 683e be09 83be e725 31bd
00000030: b65f 523e 8b2d 5e3e 370a 0cbd 2f56 d33d
00000040: dbf8 2f3d 2034 bd3d 7743 0a3e 9199 453e
00000050: 761b 91bd 8d10 513e b44d 543e bf76 ca3c
00000060: 6329 073e 8188 0b3e b368 71be b14f e83e
00000070: 0b0b debd a55e e43d 4b76 5fbe 7612 673e
00000080: 4b6f 9cbd 0b84 b7be c714 fd3b f17d 783e
00000090: 84fe 853d 2959 533e d2e5 cc3d 3d8a 03be
000000a0: f25d 003e 499d c5bd d863 e8bc f334 40bc
000000b0: a93a d3bc 4207 753d ba0d 8f3e aa15 9c3a
000000c0: 922d 27be f290 1c3e e586 8b3e baef 53be
000000d0: e35e a4bd e8d1 58bd 239f fcbd 2e25 283e
000000e0: 057c ecbd 49a7 e13d 4d66 babd 789d 53be
000000f0: 6704 7f3e c95d 75be 6b31 8ebe 99f6 513e
00000100: 7241 323e 5916 0b3e 729f 5cbe 5f1d 1d3e
00000110: d3e5 c3be e412 28bc 5b43 06be 84a8 6d3b
00000120: def6 56bc c513 133e 7d3a b63c 6810 0d3e
00000130: de65 14be 42e2 7bbe 1fec 7fbe 9e3a fe3d
00000140: c8cb 1d3e 6ea5 12be 20b1 1e3c 4a72 13be
00000150: c06c d13d 6ade 45be c087 51be 2be0 56be
00000160: 5522 57bd 09dc 03be 7024 6ebd a912 d6bd
00000170: b0e4 c23b 3de8 09be a236 87bd e724 663e
00000180: b2c9 493e c17b 4d3e 2241 86be af55 bb3c
00000190: 68ac 8a3d 15b1 373e bf0d e7bd caf6 efbb
000001a0: 6dfa ea3d cb14 53bc 79ff d1be 007a 3e3e
000001b0: e28a 00be 3281 4abc d775 49be 7ea9 dfbd
000001c0: 1e1d c7be 90ce 9e3d c105 be3d f0ab 143e
000001d0: 76c3 08be 495a 1bbe 0db8 6a3d d60b e2be
000001e0: 4f58 e63b 16c3 67bd 4c04 493e 2d9b 5c3d
000001f0: 2491 51bc f8c6 d1bd 8b3f dabc 04b2 59bd
00000200: 7110 81be 727f f83c db23 753e 0a54 813d
00000210: 9284 50be 2904 42be f879 a1bd 1f4d 523d
00000220: b136 94be dab8 39be f1a1 64bd 16ff 42be
00000230: 7d7f 053e b5c3 10bb b8e8 803e d26e 81be
00000240: 985f 9e3c b4f0 ef3d c475 d73c 8554 cabd
00000250: 0d74 2ebe 623f 173e 7108 8ebd 09cb 02be
00000260: 728b 263d 5006 b8bd efaa e93a 7f3d 66be
00000270: ca6e c9bc e1b9 6e3c 65a8 bcbd 9827 763e
00000280: 8b64 043d 5eac 663e 64f5 7ebe 0a49 29bd
00000290: 355a a1bc ae8a e1bd 9a93 13be a698 c73d
000002a0: 2188 803e 4e7e 41be 5b02 863e 6325 aebd
000002b0: fa1b 5ebd f839 d0bc 7dc6 a13e 6fd3 d93d
000002c0: 241d fabb e0fc 093e 7bbd c93c b846 a9bd
000002d0: 579b 29be 02ca 123e d8a7 9d3d a988 01be
000002e0: d648 953d af17 803d 9ef5 883e c90b 80bd
000002f0: 6b4f 513e f05b 1fbe db40 abbd 3d03 ea3d
00000300: 2a69 f0bd 8e52 6abe c8be d9bd f2f9 16be
00000310: 44e8 11be ad12 123e eaf8 17be 4864 b93d
00000320: 16bf 6f3e cd14 84be 31fc 313d fe91 aebe
00000330: f2ee d33d 55fc 2b3e 349a d93c 2c35 71be
00000340: 14df bb3d e642 26bd 0fb8 5cbe 7665 7dbe
00000350: 4e7e 7dbd 3708 703e 446a 5f3d cd86 d2bd
00000360: 2f86 573d 5c96 09bd a6f4 3e3e d9f7 37be
00000370: 11df 1ebe 4ffb 833d 2f66 303e 24e3 2cbe
00000380: 00eb bf37 99ed 6cbe 4096 c83d 6cde 4abe
00000390: 832c 5b3e b328 8fbe 3b6f b23d 62ce 153e
000003a0: 306e 3abe 9e16 0abd 09a6 503e 4f18 6ebe
000003b0: 1d83 d43d 53ef 5bbd a7ca 0e3e b975 1d3d
000003c0: 10d8 5dbd f6d4 3b3e 8e6b d63c 9d89 8a3e
000003d0: e393 973d 7874 98be 93bf 023e fd8a a33d
000003e0: 6009 c8bd c613 5ebe 098a 2b3e 361d 393e
000003f0: 5535 e3bd 3b3b 9b3e b176 513e 3258 17bd
-0.15115412 -0.22184075 0.060169294 -0.077126995 -0.11353235 -0.0056133512 -0.17054568 -0.046526104
0.1016716 0.22753459 -0.2559337 -0.043249037 0.20544323 0.21697061 -0.03418943 0.103191726
0.042961936 0.09238458 0.13502298 0.19296862 -0.07085316 0.2041647 0.20732766 0.024714826
0.13199382 0.13626291 -0.23575096 0.453733 -0.1084195 0.111508645 -0.21822469 0.22565636
-0.07638415 -0.35842928 0.007723424 0.24266793 0.06542686 0.2063948 0.10004772 -0.12845702
0.12535837 -0.096491404 -0.028367922 -0.011731374 -0.025784807 0.059821375 0.2794016 0.0011908312
-0.16325977 0.15289667 0.27251354 -0.20696917 -0.08025911 -0.052934557 -0.123350404 0.16420433
-0.11547092 0.11018235 -0.091015436 -0.20665538 0.24904023 -0.23961557 -0.27772078 0.20504226
0.17407778 0.13582744 -0.21545199 0.15343235 -0.3826128 -0.01025841 -0.13111632 0.0036263773
-0.013120381 0.1436301 0.022244686 0.1377579 -0.14491984 -0.2459803 -0.24992417 0.12413524
0.15409768 -0.14320919 0.009685785 -0.14399067 0.102258205 -0.19323125 -0.20461941 -0.20983951
-0.052522976 -0.12876906 -0.05814022 -0.10452778 0.005947672 -0.13467498 -0.06602217 0.22475015
0.19705847 0.2006674 -0.26221567 0.022868006 0.06771165 0.17938645 -0.11281919 -0.0073231207
0.11473546 -0.012883375 -0.41015223 0.18601227 -0.1255298 -0.012359904 -0.19673859 -0.10921
-0.38889402 0.077542424 0.09278441 0.14518714 -0.13355812 -0.1517116 0.05730443 -0.44149655
0.00702957 -0.056582533 0.19630545 0.053858925 -0.012790952 -0.102430284 -0.026641628 -0.053148285
-0.25207856 0.030334208 0.23939459 0.06314857 -0.20363072 -0.189469 -0.07884592 0.05134308
-0.28947976 -0.18136922 -0.0558185 -0.1904262 0.13036914 -0.0022089307 0.2517755 -0.25279862
0.019332692 0.11715832 0.026301272 -0.09879402 -0.17036457 0.14770272 -0.06935204 -0.12772764
0.04066033 -0.08985579 0.0017827431 -0.22484396 -0.024588961 0.014570684 -0.09211806 0.24038541
0.032322448 0.2252669 -0.24898297 -0.04132942 -0.019696334 -0.11012779 -0.14411774 0.09745912
0.25103858 -0.18895838 0.26173672 -0.08503225 -0.0542259 -0.025418267 0.31596747 0.10636031
-0.0076328684 0.1347537 0.024626484 -0.08265442 -0.16563164 0.14334872 0.07698029 -0.12649788
0.07289283 0.06254517 0.2674989 -0.06252248 0.20440452 -0.15562415 -0.083619796 0.11426399
-0.117388085 -0.22883055 -0.10632092 -0.14743784 -0.14248759 0.14264937 -0.14841047 0.0905233
0.23412737 -0.2579712 0.0434534 -0.34095758 0.103483096 0.16795476 0.026562788 -0.2355544
0.09173408 -0.040591143 -0.21554588 -0.24745736 -0.06188803 0.23440634 0.054544702 -0.102796175
0.0526182 -0.03359066 0.18648013 -0.1796564 -0.1551478 0.06444418 0.1722648 -0.16883522
2.2878405e-05 -0.23137511 0.09794283 -0.1981141 0.21403699 -0.2796074 0.08712622 0.1462951
-0.18206096 -0.033712976 0.20375837 -0.2325146 0.103765704 -0.053695034 0.13944493 0.038442347
-0.05416113 0.18342957 0.026174333 0.27058116 0.07401254 -0.2977636 0.12768392 0.07985494
-0.09767413 -0.2168723 0.16751875 0.1807755 -0.11094157 0.30318627 0.20455433 -0.036949344

attention_cp.linear_hidden.bias f4 [17]
00000000: d648 3abe 441f 2c3e fa0d 183e 69ad 933e
00000010: 262b f8b9 0c45 b93d 1112 233d cce6 84be
00000020: cca6 3bbd d4ac a7bc 1f87 c4bc b34c 353e
00000030: 827f 57be 2f04 7e3e e5c6 05be 4e0e 59bd
00000040: a349 423e
-0.18191847 0.16808802 0.14849082 0.2884324 -0.00047334394 0.09046373 0.03981215 -0.25957334
-0.045813367 -0.020468153 -0.023990212 0.1770504 -0.21044734 0.24806283 -0.13064153 -0.052992158
0.18973403

fc_dp.weight f4 [1, 21]
00000000: ada9 4a3e c648 5fbe 593c b2bd d286 953e
00000010: 50ee 183d 739c d03d 0c20 53be 61a4 a73d
00000020: 3dd4 eebd 7807 94be e604 25be e626 95be
00000030: 91e8 903e 4c25 34be 9141 013e 8a0b e53d
00000040: 9c7f ac3d 2fe2 b33d ab5d 673e 016d 853d
00000050: b6e7 12be
0.19791289 -0.21805105 -0.08702917 0.29204422 0.037336648 0.1018609 -0.20617694 0.0818565
-0.11661575 -0.28911948 -0.1611515 -0.2913124 0.28302434 -0.17592353 0.12622668 0.111838415
0.08422777 0.087833755 0.22594325 0.065149315 -0.14346203

fc_cp.weight f4 [1, 17]
00000000: 7178 933d 1aaf d63e aeb2 1b3e 7430 043c
00000010: dd68 53bd b446 773e 5e15 273e dc2c c43b
00000020: ce86 463e 1b55 fdbd 5f02 9d3d d3c1 63bd
00000030: 573c a0bd 403b 17be fbb6 c2be 828f d0bd
00000040: c7a1 133f
0.07200707 0.41930467 0.1520488 0.008068193 -0.051613677 0.24148065 0.16316745 0.005986793
0.19387361 -0.12369748 0.07666468 -0.055604767 -0.07824009 -0.14768696 -0.38030228 -0.10183622
0.5766873

fc_all.weight f4 [1, 34]
00000000: 450d 703c 5210 b43c 3551 003e b7e0 c23a
00000010: b2ae 993c 17fb 16be 2dfc 5b3d cc4e b4bc
00000020: 06a4 2bbe 3432 d5bd 7740 9d3d 8aa4 473e
00000030: ca6b 453e 6db0 72be 2cec 61be 989b b63b
00000040: a310 fbbd acc7 d8be 389a d3bd 3872 07bc
00000050: 30cf ee3b 2b28 f03d 1cd2 78be 3e4d e4ba
00000060: 3a0d 543d 5ef8 91be 3398 2fbd dbb8 133d
00000070: a9d5 cebd 624f 9a3e d982 0cbe 21f1 dcbd
00000080: 9160 b3bd 6d81 b53d
0.014651601 0.021980438 0.12530978 0.0014867996 0.018760059 -0.1474422 0.05370729 -0.02201023
-0.16761789 -0.10409966 0.07678311 0.1949636 0.192794 -0.23700114 -0.22062749 0.0055727474
-0.122590326 -0.42339838 -0.10332149 -0.008266978 0.0072878823 0.117264114 -0.242989 -0.001741804
0.051770426 -0.28509802 -0.042869758 0.036064964 -0.10099346 0.3013869 -0.1372179 -0.10788179
-0.08758653 0.08862577
