base_models/ode_birnn_attention/final_model.pt (torch, 69707 bytes, 39 tensors)

embed_dp.weight f4 [1292, 7]
0	0x00000000	0.0
1	0x00000000	0.0
2	0x00000000	0.0
3	0x00000000	0.0
4	0x00000000	0.0
5	0x00000000	0.0
6	0x00000000	0.0
7	0x3f6a17e2	0.9144269
8	0xbe80735a	-0.25088006
9	0x3f66c5bc	0.9014547
10	0xbe9fd90e	-0.31220287
11	0xbea9cf96	-0.33166188
12	0xbef3fa97	-0.47652122
13	0x3d279f51	0.04092342
14	0x3f3ece12	0.7453319
15	0xbf459ad2	-0.7718936
16	0xbfe68543	-1.8009418
17	0xbf6886ad	-0.908305
18	0xbff914ae	-1.9459436
19	0xbf1b6a9a	-0.60709536
20	0xc0003c6c	-2.0036879
21	0xbfb00e39	-1.375434
22	0x3fa4b595	1.2867914
23	0xbf223575	-0.6336282
24	0x3f63ae21	0.88937575
25	0x400a04fe	2.1565547
26	0xc0203b9d	-2.5036385
27	0xbf931754	-1.1491494
28	0xbf56995f	-0.83827776
29	0xbd4d7030	-0.05015582
30	0x3fe61475	1.7974993
31	0xbfc5b8bc	-1.5447001
32	0xbf5ebcb4	-0.8700669
33	0xbd84efb0	-0.06491029
34	0x3e03786b	0.12838905
35	0x3d7aa341	0.061190847
36	0xbe1f3766	-0.15548477
37	0x3e383a43	0.17990975
38	0xbf3e0f97	-0.7424254
39	0x3f396cfb	0.72431916
40	0x3f0a793d	0.54091245
41	0x3f695ce7	0.9115738
42	0xbe31965f	-0.17342518
43	0xbf7aedbb	-0.98019
44	0xbe96273d	-0.2932681
45	0x3f619ccc	0.8812988
46	0xbf4b4585	-0.79402953
47	0x3fafabfd	1.3724362
48	0xbe4d30e4	-0.20038182
49	0xbe5d9d0a	-0.21641937
50	0x3e98b753	0.29827365
51	0x3f9b82c0	1.2149277
52	0x3fb0dadc	1.381679
53	0x3f36b19f	0.7136478
54	0xbf32642b	-0.69684094
55	0x3e3bc3ff	0.18336485
56	0xbf48907c	-0.78345466
57	0x3f314b4e	0.6925553
58	0x3fad8a7a	1.3557885
59	0xbea66eb0	-0.32506323
60	0x3f9f3788	1.2438822
61	0xbf45722e	-0.7712735
62	0x3bae9e94	0.0053289626
63	0xbf570f0c	-0.84007335
64	0x3ee2c432	0.4429031
65	0xbfd8a77b	-1.6926111
66	0xbf087b02	-0.53312695
67	0x3f866c13	1.0501732
68	0x3ea00773	0.31255683
69	0x3f00e002	0.5034181
70	0xbf171fe4	-0.59033036
71	0x3d3d6951	0.046243016
72	0xbfe594c2	-1.7936022
73	0xbf41d91b	-0.757219
74	0x3ea03ebf	0.3129787
75	0xbf8c9d3e	-1.0985487
76	0x3f4e191b	0.8050706
77	0x3fde100a	1.7348645
78	0x3f423f6e	0.75878036
79	0xbce120df	-0.027481494
80	0xbeb96ca8	-0.3621571
81	0x3ed30e09	0.41221645
82	0xbf25a760	-0.6470852
83	0x3f978f74	1.1840653
84	0xbd0e7546	-0.03477981
85	0xbf81fb52	-1.0154822
86	0x3fa6cc61	1.3031121
87	0x3f1b0949	0.60561043
88	0x3f67da34	0.90567327
89	0x4025c83c	2.5903463
90	0x3eaf7349	0.34267643
91	0x3eaf2e50	0.3421502
92	0x3f28f5be	0.6599997
93	0xc040250d	-3.0022614
94	0xbfad6400	-1.3546143
95	0x3eb90767	0.3613846
96	0xbf9b67e4	-1.214108
97	0xbfa2c4e8	-1.2716341
98	0x3f87b520	1.060215
99	0x3f48c9be	0.78432834
100	0x3dd65a3c	0.104664296
101	0xbbb89735	-0.0056332597
102	0xbebf711a	-0.37390977
103	0x3fb8877b	1.4416345
104	0x3de2175f	0.11039614
105	0x3edc1392	0.4298368
106	0xbfcb670f	-1.5890826
107	0x3f052f7b	0.52025574
108	0x3d0aae62	0.03385771
109	0x3f2fa369	0.6860872
110	0xbf9e9810	-1.2390156
111	0xbf7db086	-0.9909748
112	0x3f99696f	1.1985301
113	0xbf032469	-0.5122743
114	0x3fe78097	1.8086118
115	0x3b973e16	0.0046155555
116	0x3f2b860e	0.67001426
117	0x3f08a5aa	0.53377783
118	0x3f1ffbdc	0.6249368
119	0xbec13af0	-0.37740278
120	0x3ece5f2e	0.4030699
121	0xbec5eb89	-0.38656262
122	0x3f3fb99d	0.748926
123	0xbf62e836	-0.88635576
124	0x3f09261f	0.53573793
125	0xbe9a1c0e	-0.3009953
126	0x3f54f939	0.83192784
127	0xbfc7b17f	-1.5601043
128	0x3e06c5d3	0.13161401
129	0xbf8d7bb2	-1.1053374
130	0x3f813c71	1.009657
131	0x3ed8d66f	0.423511
132	0x3dc6e9ae	0.097125396
133	0xbd4698b9	-0.04848549
134	0x3f04ebff	0.519226
135	0xbf703c18	-0.93841696
136	0xbf170df5	-0.5900567
137	0x3f065d8a	0.5248648
138	0xc00bb78f	-2.1830785
139	0xbeacdd5c	-0.33762634
140	0xbe5d50d4	-0.21612865
141	0xbf779736	-0.96715105
142	0xbf9ceb36	-1.2259281
143	0xbeee804e	-0.46582264
144	0xbe879c41	-0.264864
145	0xbf7a26a2	-0.977152
146	0x3e8fc90d	0.28083077
147	0x3f459cb9	0.77192265
148	0xbeb1f375	-0.34756055
149	0xbf804de4	-1.002377
150	0x3f73fe8b	0.95310277
151	0xbf09439a	-0.53618777
152	0x3f6ae3df	0.91753954
153	0x400f8eb6	2.2430854
154	0x3f8e32c5	1.1109244
155	0xc009fc6d	-2.1560318
156	0x3f7414fe	0.9534453
157	0x3dc5407a	0.096314386
158	0xbe657fdf	-0.2241206
159	0x3fdf232e	1.7432611
160	0x3e0da2d7	0.1383165
161	0xbfcec271	-1.6153089
162	0x3f7adce8	0.97993326
163	0xbff9a172	-1.9502394
164	0x3f3771af	0.7165784
165	0xbea16bfc	-0.31527698
166	0xbff5d906	-1.9206855
167	0xbeefa8a6	-0.46808356
168	0x3f80d4c7	1.0064934
169	0xbf8c86a0	-1.0978584
170	0x3f1909d2	0.5978061
171	0x3d86b953	0.065783165
172	0x3d4684fa	0.04846666
173	0xbf68f924	-0.9100516
174	0xbfeb0861	-1.8361932
175	0xbfe81ee8	-1.8134432
176	0x3d3d2f3f	0.046187636
177	0x3e2e1906	0.17001733
178	0x3f3a2106	0.7270664
179	0x3f32c61f	0.6983356
180	0xbe343f0a	-0.17602172
181	0x3f6c8217	0.92386
182	0xbfd2f20b	-1.6480116
183	0x3f980f99	1.187976
184	0xbe9256c3	-0.2858182
185	0xbee582c7	-0.44826338
186	0x3ef410dd	0.47669116
187	0x3d80a63a	0.06281705
188	0x3e3a77a4	0.18209702
189	0xbf282ba8	-0.65691614
190	0x3c2dc46f	0.010605915
191	0x3f7d3786	0.9891285
192	0x3ef994e5	0.4874641
193	0x40086371	2.1310694
194	0x3f49dc9f	0.78852266
195	0xbf4f27e1	-0.80920225
196	0xbd26e731	-0.040747825
197	0xbe39ef9b	-0.18157808
198	0xbee81946	-0.45331782
199	0x3e962f2e	0.2933287
200	0x3fae9af7	1.3641042
201	0xbfe6e62c	-1.8038993
202	0xbf030b31	-0.5118895
203	0xbf312315	-0.69194156
204	0x3f90df99	1.1318237
205	0x3f0b0a4b	0.5431258
206	0x3e88ad58	0.2669475
207	0xbf715b69	-0.94280106
208	0x3f38464c	0.71982265
209	0xbf876ed4	-1.0580697
210	0x3f357d1d	0.7089403
211	0x3f435e62	0.7631589
212	0x3c404ce2	0.01173708
213	0xbf494402	-0.78619397
214	0xbdc201ad	-0.09472976
215	0xc00d545d	-2.2082741
216	0xbfb53c98	-1.4159117
217	0xbfeaa79a	-1.8332398
218	0xbfa55363	-1.2916073
219	0xbf065c0a	-0.5248419
220	0xbea948be	-0.3306331
221	0x3d2c981d	0.042137254
222	0x3f3f6338	0.7476077
223	0xbfa3dbd5	-1.2801462
224	0xbf87b512	-1.0602133
225	0xbe63a5a4	-0.22231156
226	0xbf4d3110	-0.8015299
227	0xbf715478	-0.94269514
228	0x3f1e6164	0.61867356
229	0xbf961158	-1.1724043
230	0xbfd28efe	-1.6449888
231	0x3eb73ed5	0.35790125
232	0x3a750600	0.00093469024
233	0xbf8bc9d8	-1.0920973
234	0xbf8bd6d1	-1.0924932
235	0x3fe8dc92	1.8192313
236	0xc0183087	-2.3779619
237	0x3f337d52	0.701131
238	0x3e6e372d	0.23263235
239	0x3f09c4f6	0.53816164
240	0x3e9f4beb	0.31112608
241	0xbf71fb48	-0.9452405
242	0xc02bd1aa	-2.6846719
243	0xbf082210	-0.53176975
244	0x3f347b0d	0.7050026
245	0xbef159df	-0.4713888
246	0x3ed387b9	0.41314486
247	0xbf135aba	-0.5756031
248	0x3fb8833b	1.4415048
249	0xbd8b15bc	-0.06791255
250	0xbeb9efe5	-0.36315838
251	0xbfc89287	-1.5669717
252	0x3cfb8a6f	0.030705659
253	0x3f02aeb6	0.5104784
254	0xbf70f2e1	-0.94120604
255	0xbeb33365	-0.35000148

embed_cp.weight f4 [620, 6]
0	0x00000000	0.0
1	0x00000000	0.0
2	0x00000000	0.0
3	0x00000000	0.0
4	0x00000000	0.0
5	0x00000000	0.0
6	0x3fb8d76d	1.4440743
7	0x3e69f95e	0.22849032
8	0xbe2ccefe	-0.16875836
9	0x3e558b02	0.20853809
10	0xbf7ea827	-0.9947533
11	0xbee8d667	-0.45476076
12	0xbf45c6f0	-0.7725668
13	0xc0037c47	-2.0544603
14	0x3f03c3b3	0.5147049
15	0x3faa4c67	1.3304566
16	0xbe5c60e5	-0.21521337
17	0x3ec36268	0.38161016
18	0xbfc0c68b	-1.506059
19	0x3fb87dfb	1.4413446
20	0x3f87ce63	1.0609859
21	0x3f3af7cb	0.7303435
22	0xbe0b0ed4	-0.13579875
23	0x3fc6d80c	1.5534682
24	0xbf9ba0e5	-1.2158476
25	0x3f1e5972	0.6185523
26	0x3e0148cf	0.1262543
27	0x3f38a043	0.7211954
28	0x3ea05065	0.31311336
29	0x3f3bb57e	0.7332381
30	0x3f4ec510	0.80769444
31	0x3f8ccaf9	1.0999442
32	0xbec5620c	-0.38551366
33	0x3f5fb625	0.87387305
34	0xbf11e5ce	-0.5699128
35	0xbe508f46	-0.20367154
36	0x3e8d9380	0.27651596
37	0xbf7a8dce	-0.97872627
38	0xbf28b91a	-0.6590744
39	0xbf0ee0fa	-0.55812037
40	0x3f810334	1.0079103
41	0xbf1d3e16	-0.6142286
42	0x3f9366f6	1.1515796
43	0xbef6fca6	-0.4823963
44	0x3e986084	0.29761136
45	0xbfc7f187	-1.5620583
46	0xbe680290	-0.22657228
47	0x3de400a9	0.111329384
48	0xbf540198	-0.8281493
49	0xbf834f82	-1.0258639
50	0xbf2cbd02	-0.67475903
51	0x3f322296	0.69584024
52	0x3dca13c6	0.09867053
53	0xbe9c0895	-0.30475298
54	0xbf8712ea	-1.0552647
55	0x3e24ecd2	0.16105965
56	0x3f882a22	1.0637858
57	0xbfa1275c	-1.2590137
58	0x3fb42d65	1.4076353
59	0x3f870dc2	1.0551074
60	0xbf169037	-0.58813804
61	0x3f0b9023	0.5451681
62	0x3fdf51f7	1.7446889
63	0x3f8d784a	1.1052334
64	0x3fb226ce	1.3918092
65	0x3d6530f1	0.055954877
66	0x3dc7c19e	0.097537264
67	0xbeae4ea5	-0.34044376
68	0x4017bde7	2.3709657
69	0x3f9516b2	1.1647551
70	0x3f0c29fd	0.5475157
71	0x3f8b16ca	1.086633
72	0x3f1f7a62	0.62296116
73	0xbfa785e1	-1.3087732
74	0x3f3f93e2	0.74835026
75	0x3fa5da97	1.2957333
76	0x3f887351	1.0660192
77	0xbeeca63c	-0.46220577
78	0xbf410ef9	-0.7541347
79	0xbfa16870	-1.2609997
80	0x3f773b5a	0.9657494
81	0xbf0e47cb	-0.555783
82	0x3f540e36	0.82834184
83	0xbf3cd98d	-0.73769456
84	0xbe248fbf	-0.1607046
85	0x3fd71f7f	1.6806487
86	0xbf273332	-0.6531249
87	0x3f3cc9c3	0.73745364
88	0xbf046c0d	-0.5172737
89	0x3fdd6a69	1.7298099
90	0xbf82b95d	-1.0212818
91	0xbfc918d6	-1.5710704
92	0xc00a51de	-2.1612468
93	0xbf2789e0	-0.65444756
94	0x3c4177e1	0.0118083665
95	0xc03ba6b2	-2.9320493
96	0xbf88c95b	-1.0686449
97	0xbed9a069	-0.42505196
98	0x3e28dc77	0.1649035
99	0x3ebb541e	0.36587614
100	0xbe920e41	-0.285265
101	0xbefcd531	-0.49381402
102	0x3fdd19d2	1.7273505
103	0xbd584f19	-0.05280981
104	0x3f9ba73e	1.2160413
105	0x3f3f8dc7	0.7482571
106	0xbdacbb73	-0.084341906
107	0x3fae4f42	1.3617938
108	0xbf4681b9	-0.7754169
109	0xbfd163c4	-1.6358571
110	0x3f7be99b	0.9840333
111	0x3bdf541e	0.0068154475
112	0x3f815932	1.0105345
113	0xbeaf04f4	-0.34183466
114	0x3ff7070d	1.9299027
115	0xbe263ab6	-0.16233334
116	0x3f446bbc	0.7672689
117	0xbea011c2	-0.31263548
118	0xbff42fdb	-1.9077104
119	0x3ef24dee	0.4732508
120	0x3fdd4cc3	1.7289051
121	0x3edcc3d8	0.43118167
122	0xbea6415a	-0.32471734
123	0xbebf86d4	-0.37407553
124	0xbfb355d2	-1.4010565
125	0xbf3098e8	-0.68983316
126	0xbfeee837	-1.8664616
127	0xc0042887	-2.0649736
128	0x3e78d8b7	0.2430142
129	0x3f1e3252	0.6179553
130	0x3f0c494c	0.5479934
131	0x3f4de842	0.8043252
132	0xbe92fd88	-0.28709054
133	0xc01f14f2	-2.4856534
134	0x3fab373e	1.3376234
135	0xbf123387	-0.57109874
136	0xbf2442ee	-0.64164627
137	0x3f17ed6e	0.59346664
138	0xbfd492fe	-1.6607358
139	0xbed3ae48	-0.41343904
140	0x3f258ad8	0.64664984
141	0xbf221024	-0.6330588
142	0x3f245781	0.6419602
143	0xbf3db8ed	-0.741103
144	0xbf572e9b	-0.8405549
145	0x3eb84726	0.35991782
146	0xbf4c43be	-0.79790866
147	0x4022f514	2.5462084
148	0xbeba4fbe	-0.36388963
149	0x3eebc005	0.46044937
150	0xbb47cb5d	-0.0030486204
151	0x3f7b6032	0.9819366
152	0xbf80a4bb	-1.0050272
153	0xc01d7912	-2.4605145
154	0x3e1acc4c	0.15116996
155	0xbf717d15	-0.94331485
156	0xbe065fbb	-0.13122456
157	0xbfd17853	-1.6364845
158	0xc02e787e	-2.7261043
159	0x3f829cbf	1.0204085
160	0xbf40a493	-0.7525112
161	0x3edbdbcf	0.42941138
162	0xbfca4549	-1.5802394
163	0xbfaed82a	-1.3659718
164	0x3daff5db	0.08591815
165	0x3e3c61b0	0.1839664
166	0x3ea34acb	0.31893
167	0xbfcf946e	-1.6217172
168	0x3f8202c6	1.0157096
169	0xbf6bd778	-0.92125654
170	0x3deed9dd	0.11662648
171	0xbcab6fa3	-0.020927256
172	0xbefcfc6c	-0.49411333
173	0xbd7bd2ca	-0.06148032
174	0xbe0d3188	-0.13788426
175	0xbec0803c	-0.37597835
176	0xbf998579	-1.1993858
177	0x3e70a840	0.23501682
178	0x3f9e5853	1.2370704
179	0xbfbab2ef	-1.4585856
180	0x3d9985c9	0.074962206
181	0xc0202e85	-2.5028393
182	0xbff6ff14	-1.9296594
183	0xbf9f104f	-1.2426852
184	0x3fc6d329	1.5533191
185	0xbf20795a	-0.6268517
186	0xbadd7d95	-0.0016898388
187	0xbdaf896b	-0.08571132
188	0xbf237873	-0.63855666
189	0x3ed8a58a	0.42313796
190	0x3f318b55	0.6935323
191	0xbe67fc76	-0.226549
192	0xbf3b8b1d	-0.73259145
193	0x3f44a551	0.7681475
194	0xbe7c850f	-0.24660133
195	0x3f757ecd	0.9589661
196	0xbe3d2743	-0.18472008
197	0xbf490911	-0.7852946
198	0xbdf21094	-0.11819568
199	0xbfbb4839	-1.4631416
200	0x3dfb069f	0.12257122
201	0xbf30b483	-0.6902544
202	0x3eb7309a	0.35779268
203	0x3e244a34	0.16043931
204	0xbef4eb19	-0.47835615
205	0x3f129c41	0.57269675
206	0xbeeea27d	-0.46608344
207	0xbe9b0d85	-0.30283752
208	0xbd5391c8	-0.0516527
209	0x3f4e3967	0.8055634
210	0x3e0ec7b5	0.1394337
211	0xbfdfc19d	-1.7480961
212	0x3f0a8d80	0.5412216
213	0xc01d0f34	-2.454053
214	0xbe902a09	-0.2815707
215	0x3e764da0	0.24053049
216	0xbf32b4a6	-0.698069
217	0x3ead5370	0.3385272
218	0x40031ee6	2.048761
219	0xbfaf437c	-1.369247
220	0xbef4f906	-0.4784624
221	0xbfd5b4ab	-1.669576
222	0x400fa3f1	2.2443812
223	0x3d350048	0.04418972
224	0xbcce9aed	-0.025220359
225	0xbf7494ee	-0.9553975
226	0x3f9bfba2	1.2186167
227	0xbf52d81b	-0.82361
228	0x3f0fe672	0.56211007
229	0x3fb305d7	1.3986157
230	0x3e26908f	0.16266082
231	0xbfa3a9c9	-1.2786189
232	0x3ec527b6	0.3850686
233	0xc00edec8	-2.2323475
234	0xbfa1ded4	-1.2646127
235	0x3f8379c9	1.0271541
236	0x3effeb4d	0.49984208
237	0x3f5249a8	0.8214364
238	0xbef20229	-0.47267273
239	0xbe244838	-0.16043174
240	0xbe8ded6f	-0.2772021
241	0xbf0d5320	-0.55204964
242	0xbd916133	-0.070986174
243	0xbe3ac8c1	-0.18240644
244	0x3f5ff141	0.874775
245	0xbf2de828	-0.6793237
246	0x3e9fd243	0.31215104
247	0xbf325086	-0.6965412
248	0x3f40c67f	0.7530288
249	0xbfa194e2	-1.262356
250	0x3f94baf4	1.1619554
251	0x3e54c2ec	0.20777482
252	0xbf5c9d19	-0.8617721
253	0xbf98e11c	-1.1943698
254	0x3f3c6332	0.7358886
255	0xbf3fed64	-0.74971604

ode_dp.odeblock.odefunc.fc1.weight f4 [7, 7]
0	0x3e29c141	0.16577627
1	0xbe6757dc	-0.2259211
2	0xbf365f6c	-0.7123935
3	0x3e798576	0.24367318
4	0xbf26acbd	-0.6510733
5	0xbdea5345	-0.11441664
6	0x3eafb68c	0.3431896
7	0x3eb1a3fb	0.3469542
8	0xbf156e69	-0.583716
9	0xbeac1ad9	-0.33614233
10	0x3ed1bf7f	0.40966412
11	0xbec03029	-0.37536743
12	0x3e850469	0.25979927
13	0x3e2a8fd0	0.16656423
14	0xbbeb95ac	-0.007189473
15	0x3d67a07b	0.05654953
16	0x3e424e2d	0.18975134
17	0x3cdfba65	0.02731056
18	0xbe20481f	-0.15652512
19	0x3e787fcb	0.24267499
20	0xbf113533	-0.567218
21	0xbd9d97ba	-0.07694955
22	0xbe78b037	-0.2428597
23	0x3dfb0b4b	0.12258013
24	0x3d396b3a	0.045268275
25	0xbece13ed	-0.40249577
26	0xbe2cd112	-0.16876629
27	0xbec7cd94	-0.3902403
28	0x3ee87ad8	0.45406222
29	0xbe28e1af	-0.16492341
30	0x3d4d5043	0.05012537
31	0xbea62c56	-0.324557
32	0xbeaa2590	-0.33231783
33	0xbe15ac7b	-0.14616577
34	0x3ec15c80	0.37765884
35	0xbeda22c9	-0.42604664
36	0x3e848dcb	0.2588943
37	0xbe9022ba	-0.28151494
38	0x3dbf1a79	0.09331221
39	0xbe8a3688	-0.2699473
40	0x3e6788ff	0.22610854
41	0x3d18c206	0.03729441
42	0xbead7afe	-0.33882898
43	0x3ec8932d	0.39174786
44	0xbe095790	-0.13412309
45	0x3e544ce8	0.20732462
46	0xbf1a4680	-0.60263824
47	0x3d9de7cd	0.07710228
48	0x3e9d52c0	0.30727196

ode_dp.odeblock.odefunc.fc1.bias f4 [7]
0	0x3f460a30	0.77359295
1	0x3f3698f9	0.7132717
2	0x3f3f3385	0.7468799
3	0x3f1797af	0.59215826
4	0x3eebc1c7	0.46046278
5	0x3d21c62a	0.039495625
6	0x3ec4f1d2	0.38465744

ode_dp.odeblock.odefunc.fc2.weight f4 [7, 7]
0	0x3f279579	0.6546245
1	0x3f2c2566	0.67244565
2	0x3f23db42	0.64006436
3	0x3f36efb5	0.71459514
4	0x3f40b940	0.7528267
5	0x3eb25c02	0.3483582
6	0x3e92d5d7	0.28678772
7	0x3eae9468	0.340976
8	0xbaabdc98	-0.0013112007
9	0x3eabf1c6	0.33582896
10	0x3e0ffdf7	0.14061724
11	0x3dd9a4cb	0.10627135
12	0x3ee4240e	0.44558758
13	0xbcfd04a3	-0.030886
14	0x3e53eacf	0.20695041
15	0xbe0a6ed8	-0.13518846
16	0x3d7eedb8	0.062238425
17	0x3df40fc2	0.11917068
18	0x3de35c1b	0.11101552
19	0xbe97d95b	-0.29658017
20	0xbe2ccd53	-0.168752
21	0xbe8b33b7	-0.27187893
22	0x3e58bcc7	0.21165763
23	0x3ef3d230	0.47621298
24	0x3e1398f9	0.14413823
25	0x3cd5c84b	0.026096484
26	0x3ebff606	0.37492388
27	0x3eb1f17b	0.34754547
28	0x3f210d22	0.62910664
29	0x3e0b7c13	0.1362155
30	0x3f0090fd	0.50221235
31	0x3e65aacd	0.22428437
32	0x3e9076ab	0.28215536
33	0x3ec32211	0.38111928
34	0x3f241613	0.6409618
35	0x3f1d0051	0.6132861
36	0x3f248368	0.6426301
37	0x3e74a94e	0.2389271
38	0x3c4b1b35	0.012396623
39	0xbdbb348d	-0.09140883
40	0xbd9f0c8b	-0.07766064
41	0x3e1bbc8d	0.15208645
42	0x3e389fce	0.1802971
43	0xbe0414ba	-0.12898532
44	0x3c4f3c5b	0.012648667
45	0xbdf99165	-0.12185935
46	0xbe3f1988	-0.18662083
47	0x3d9846e9	0.074354
48	0x3d97b44d	0.074074365

ode_dp.odeblock.odefunc.fc2.bias f4 [7]
0	0x3f199e46	0.6000713
1	0x3d098fba	0.033584334
2	0xbe2c5f63	-0.16833262
3	0x3e9e6774	0.30938303
4	0x3ecac6a4	0.39604676
5	0x3e2ea66f	0.17055677
6	0x3d4d64a1	0.050144795

ode_dp.odeblock.odefunc.fc3.weight f4 [7, 7]
0	0xbf0a1c8f	-0.53949827
1	0xbea2efab	-0.31823477
2	0xbdf10b12	-0.117696896
3	0xbc2dd81d	-0.010610607
4	0x3d3f6157	0.04672369
5	0xbbdec547	-0.0067984196
6	0xbf093a92	-0.53604996
7	0x3eabcfa0	0.33556843
8	0x3f26bd5a	0.6513268
9	0x3d98f6ac	0.07468924
10	0x3e3f9610	0.18709588
11	0x3edbbf41	0.42919353
12	0x3ebe4a61	0.37166122
13	0x3dcebfdd	0.10095189
14	0xbebc8f06	-0.36827868
15	0xbe607094	-0.21917945
16	0xbd9dd09d	-0.077058055
17	0xbf0c4e7b	-0.5480725
18	0xbf129f61	-0.5727444
19	0xbdc542b3	-0.096318625
20	0xbea1b4ea	-0.3158334
21	0x3ea9ad95	0.33140245
22	0xbdfee247	-0.12445503
23	0xbe60c415	-0.219498
24	0x3ec5a6a4	0.386037
25	0x3e23d847	0.16000472
26	0xbe999997	-0.29999992
27	0x3ec2771d	0.379815
28	0xbe9afdf4	-0.30271876
29	0x3e5ef8ce	0.21774599
30	0x3daf9536	0.085733816
31	0xbe341185	-0.17584808
32	0xbcabf96c	-0.020992957
33	0xbcd56420	-0.02604872
34	0x3e289586	0.16463289
35	0xbf0161ce	-0.50539863
36	0xbe0c6a6d	-0.13712473
37	0xbd0ed465	-0.034870524
38	0x3dfa9423	0.12235286
39	0xbf197112	-0.59938157
40	0xbeb06d84	-0.34458554
41	0xbe7b31f5	-0.24530776
42	0x3e8bca10	0.273026
43	0x3a00d581	0.0004914627
44	0x3ec7c4cc	0.39017332
45	0x3e3a0333	0.18165283
46	0x3eacbe47	0.3373892
47	0x3ea41b1b	0.3205193
48	0x3f0192c1	0.50614554

ode_dp.odeblock.odefunc.fc3.bias f4 [7]
0	0xbdb170d9	-0.08664102
1	0x3f39aa61	0.725256
2	0xbf091019	-0.5354019
3	0xbea67582	-0.32511526
4	0xbe39ae14	-0.18132812
5	0x3d9fd203	0.078037284
6	0xbd633f2c	-0.055480167

ode_cp.odeblock.odefunc.fc1.weight f4 [6, 6]
0	0x3e56e6d3	0.2098649
1	0x3e47dd1c	0.1951794
2	0x3e020b10	0.12699533
3	0xbec4e4b5	-0.3845574
4	0xbeabec5a	-0.3357876
5	0xbe856060	-0.2605009
6	0xbccd3422	-0.025049273
7	0x3d566023	0.052337777
8	0x3da0aeb8	0.07845825
9	0x3d477966	0.04869976
10	0x3f402b62	0.75066197
11	0x3ed9b28c	0.42519033
12	0xbf0e420c	-0.5556953
13	0xbecabf59	-0.39599112
14	0x3e3537b3	0.17697029
15	0x3ed9ef17	0.42565224
16	0x3dbeba89	0.093129225
17	0x3e7c0097	0.246096
18	0xbe966dd1	-0.29380658
19	0xbf32b13d	-0.69801694
20	0x3f0618ea	0.52381766
21	0x3e45d24a	0.193185
22	0x3ee6eff3	0.45104942
23	0xbe74ffe1	-0.23925735
24	0xbe8992ab	-0.2686971
25	0xbf0f38cd	-0.55946046
26	0xbd5ab824	-0.053398266
27	0x3d25b601	0.040456776
28	0x3f24a16b	0.64308804
29	0xbee91a22	-0.4552775
30	0xbe8b1f65	-0.2717239
31	0xbde0e2ac	-0.10980734
32	0x3e84a207	0.25904867
33	0x3ed26c0a	0.41098052
34	0x3dfef7a6	0.12449579
35	0xbe98fbc8	-0.29879594

ode_cp.odeblock.odefunc.fc1.bias f4 [6]
0	0xbef1bbd5	-0.47213617
1	0x3ef5ed26	0.48032492
2	0x3f0c29ce	0.5475129
3	0x3f16ae16	0.58859384
4	0x3e724fbf	0.23663233
5	0xbd8fc288	-0.07019526

ode_cp.odeblock.odefunc.fc2.weight f4 [6, 6]
0	0x3e92362f	0.28556964
1	0x3e29bdcd	0.1657631
2	0x3d42838c	0.047488734
3	0x3f3004c6	0.68757284
4	0x3e9766c2	0.29570585
5	0x3e757790	0.2397139
6	0xbe47d387	-0.19514285
7	0x3e574a6f	0.21024488
8	0x3e188da7	0.14897786
9	0xbc51eed1	-0.012813286
10	0x3e63a2c2	0.22230056
11	0x3c3c3a27	0.011488474
12	0xbd686b1d	-0.056742776
13	0x3f0cadbf	0.54952615
14	0x3ed46abc	0.41487682
15	0x3f3040b1	0.6884871
16	0x3ec0939c	0.37612617
17	0x3e607381	0.21919061
18	0x3e863aed	0.26216832
19	0x3e3b611c	0.18298763
20	0xbe269f9c	-0.16271824
21	0xbe14c792	-0.14529255
22	0xbe776514	-0.24159652
23	0x3e804a64	0.25056756
24	0xbd5d9db8	-0.05410549
25	0x3f2780be	0.6543082
26	0x3f063ca4	0.5243628
27	0x3f0ec952	0.5577594
28	0x3f30df65	0.69090873
29	0x3f172f1b	0.5905625
30	0x3e43590a	0.19076934
31	0xbe21448b	-0.15748803
32	0xbe1a6636	-0.15078053
33	0x3dbc16fc	0.091840714
34	0xbec4b811	-0.38421682
35	0xbea6113f	-0.32435033

ode_cp.odeblock.odefunc.fc2.bias f4 [6]
0	0x3f058e09	0.52169853
1	0x3e292d11	0.16521098
2	0x3db6c581	0.0892439
3	0x3ecd5850	0.4010644
4	0xbdb20143	-0.08691647
5	0xbe10aff5	-0.14129622

ode_cp.odeblock.odefunc.fc3.weight f4 [6, 6]
0	0x3f434559	0.7627769
1	0x3e774add	0.24149652
2	0x3f573226	0.84060895
3	0xbd99357e	-0.07480906
4	0x3ede7554	0.4344889
5	0x3e5857e5	0.21127279
6	0x3e32838f	0.17432998
7	0x3dd92f41	0.10604716
8	0xbf051a5f	-0.51993364
9	0xbeb3e0db	-0.3513249
10	0xbc378c1e	-0.01120284
11	0x3de26086	0.11053567
12	0xbf2dd57a	-0.67903864
13	0xbe9aae33	-0.30211028
14	0xbed5e922	-0.4177943
15	0xbf1092ad	-0.5647381
16	0xbcc47da4	-0.023985691
17	0x3e228958	0.15872705
18	0x3f119de5	0.5688155
19	0x3e95abc4	0.2923261
20	0x3ee673a1	0.45010093
21	0x3e7067aa	0.23477045
22	0x3e54cb9c	0.20780796
23	0x3ee44cea	0.4458993
24	0xbc19b043	-0.009380403
25	0x3e8c59f6	0.27412385
26	0xbe5d8582	-0.2163296
27	0x3ebfc528	0.37455106
28	0x3ebf5654	0.3737055
29	0x3e54b267	0.2077118
30	0xbcba6878	-0.022754893
31	0xbe27ed7e	-0.1639919
32	0xbedc9efa	-0.4309004
33	0xbd3e47ce	-0.046455197
34	0xbe5a24cf	-0.21303104
35	0x3e9a2902	0.3010941

ode_cp.odeblock.odefunc.fc3.bias f4 [6]
0	0x3c3567c5	0.011072104
1	0xbe14ce18	-0.14531744
2	0xbeab8940	-0.3350315
3	0x3ed60ed0	0.41808176
4	0xbd80be1d	-0.06286261
5	0xbe08e93d	-0.13370223

gru_dp_fw.weight_ih_l0 f4 [21, 7]
0	0x3de3f1c4	0.111300975
1	0x3e58e295	0.21180184
2	0xbea22946	-0.31672114
3	0x3e5fb68f	0.21846984
4	0xbce4dd80	-0.02793765
5	0x3e885864	0.26629937
6	0xbcc136bf	-0.023585675
7	0xbe6cd2ba	-0.23127261
8	0xbe322f2e	-0.1740081
9	0x3c2f8384	0.010712508
10	0x3e3d24b2	0.1847103
11	0x3eaecfde	0.34142965
12	0xbe367fab	-0.17822139
13	0x3e6171e5	0.22016104
14	0x3def485e	0.11683725
15	0xbd891d3d	-0.0669503
16	0xbdacac9f	-0.08431362
17	0x3c25350c	0.010083448
18	0xbe5c7a4c	-0.21531028
19	0x3e5b46c6	0.21413717
20	0x3e3ec4b2	0.18629721
21	0xbdbdcf2d	-0.09268031
22	0xbe332374	-0.17493993
23	0x3d4e3aa6	0.0503489
24	0x3e7d6bf5	0.24748214
25	0x3d1418f0	0.036156595
26	0xbe9ff72c	-0.31243265
27	0xbebfec58	-0.37485003
28	0xbc968a0e	-0.018376376
29	0x3e2b6411	0.16737391
30	0xbd4e6cd2	-0.050396748
31	0xbd208046	-0.03918483
32	0xbe92d83c	-0.286806
33	0xbf03d546	-0.51497304
34	0x3ab5b357	0.0013862652
35	0x3eb0dda1	0.3454409
36	0x3e08f2fc	0.13373941
37	0x3e8964f5	0.26834837
38	0x3d5c730e	0.053820662
39	0x3d9ccc67	0.07656174
40	0x3ba00a3d	0.004884033
41	0xbe9aaae2	-0.30208498
42	0x3dd8d521	0.10587526
43	0xbe8eb515	-0.2787253
44	0x3e3c50be	0.18390176
45	0x3e99ee05	0.30064407
46	0x3e9c9ad7	0.30586883
47	0x3ebde0b7	0.37085506
48	0x3e64a88f	0.22329925
49	0xbd9d1853	-0.07670655
50	0xbe033671	-0.12813736
51	0xbe70f288	-0.23530018
52	0x3ea7219f	0.32642838
53	0xbdd297b5	-0.10282842
54	0x3d3f97c5	0.046775598
55	0x3c5b70c2	0.013393583
56	0x3e6226cc	0.22085112
57	0x3ea275b8	0.31730437
58	0xbedf1886	-0.43573397
59	0xbdbe867d	-0.09302995
60	0xbe6e6fe5	-0.23284872
61	0x3cfd82e2	0.030946199
62	0xbe9dc9fc	-0.30818164
63	0xbe7d1367	-0.24714433
64	0xbcd9826f	-0.026551453
65	0x3e31d1bd	0.17365165
66	0x3e60651b	0.21913569
67	0x3e3c699d	0.18399663
68	0xbe41c40a	-0.18922439
69	0xbe91b4ab	-0.2845815
70	0x3ec0b75c	0.37639892
71	0x3ea257e1	0.3170767
72	0x3d9f4c2b	0.077782
73	0x3e435625	0.1907583
74	0xbd277f1f	-0.040892716
75	0x3e5228ae	0.2052333
76	0x3ed6e48e	0.41971248
77	0x3e9f86ec	0.31157625
78	0x3d4d321b	0.050096612
79	0xbd933206	-0.071872756
80	0xbe864edc	-0.2623204
81	0x3ebafbef	0.36520335
82	0xbe6800e4	-0.2265659
83	0x3e953f49	0.29149845
84	0xbe0c9016	-0.1372684
85	0x3e334c82	0.17509654
86	0xbd995977	-0.07487767
87	0x3e1d7db2	0.1537998
88	0xbe7b1afe	-0.24522015
89	0x3d058e5c	0.032606468
90	0x3e75c20e	0.23999807
91	0xbf024c69	-0.5089784
92	0xbda55bba	-0.08074136
93	0xbe570712	-0.20998791
94	0x3e3183fd	0.17335506
95	0xbe156271	-0.14588334
96	0xbe65baad	-0.22434492
97	0xbe96a225	-0.2942058
98	0xbe14842a	-0.14503542
99	0x3df8a54b	0.12140902
100	0x3d012f94	0.031539515
101	0x3e9f3b74	0.31100047
102	0xbe0d1783	-0.137785
103	0xbd8f0cb1	-0.069848426
104	0xbd6b63da	-0.057468273
105	0x3dcbebae	0.09957062
106	0x3ea9b202	0.33143622
107	0xbd950520	-0.07276368
108	0x3e80d95b	0.2516583
109	0x3e0144c0	0.12623882
110	0xbe525e61	-0.20543815
111	0xbe491d68	-0.19640124
112	0x3c3b8264	0.011444662
113	0xbe0e5e8c	-0.13903254
114	0x3e28b455	0.16475041
115	0x3e04cb27	0.12968121
116	0x3df4b0dd	0.119477965
117	0xbd2107a7	-0.03931394
118	0x3d69c01e	0.057067983
119	0xbe15293f	-0.14566515
120	0x3cf1e875	0.02952979
121	0xbe4bd013	-0.19903593
122	0xbe87263a	-0.26396352
123	0x3e3304ab	0.1748225
124	0x3e217e70	0.15770888
125	0xbe439b27	-0.19102155
126	0x3e111906	0.14169702
127	0x3e55cb33	0.20878296
128	0xbea19948	-0.31562257
129	0xbe6b229a	-0.22962418
130	0x3e47b2da	0.1950182
131	0xbe9b79ad	-0.3036627
132	0x3e124180	0.14282799
133	0xbe230f75	-0.15923865
134	0x3e574c38	0.21025169
135	0x3c8b9fcd	0.017043972
136	0x3e148cb5	0.145068
137	0x3e4b83bb	0.1987447
138	0xbcafb1d0	-0.021447092
139	0x3e87fc2a	0.26559573
140	0x3efef37f	0.49795148
141	0x3d87394a	0.06602724
142	0xbca9fb5f	-0.020749746
143	0xbe672746	-0.22573575
144	0x3d85d2c1	0.06534339
145	0xbde0d10d	-0.10977373
146	0x3ddba384	0.107245475

gru_dp_fw.weight_hh_l0 f4 [21, 7]
0	0x3d9d9f10	0.076963544
1	0xbe568581	-0.20949365
2	0x3ea6ef03	0.32604226
3	0x3ed7ba00	0.42134094
4	0xbe9de5f6	-0.3083951
5	0xbea17389	-0.3153346
6	0x3f253411	0.6453257
7	0x3f1d1a6f	0.6136846
8	0xbea74e99	-0.32677153
9	0x3da3d91a	0.08000393
10	0x3f25b200	0.6472473
11	0xbef63784	-0.4808923
12	0xbc6d90b9	-0.014499837
13	0x3edefd6a	0.43552715
14	0xbe4eb6ce	-0.20186922
15	0xbddabf64	-0.10681036
16	0x3eb450bb	0.35217842
17	0x3e906ac5	0.2820646
18	0xbf1cd4c6	-0.61262167
19	0xbf0c58bf	-0.54822916
20	0x3c6e7b5b	0.014555777
21	0x3f0663e8	0.52496195
22	0xbe0619e7	-0.13095818
23	0x3e52e221	0.20594074
24	0x3e093f89	0.13403143
25	0xbe6a0a87	-0.22855578
26	0x3c004ed6	0.007831296
27	0x3e0b1878	0.13583553
28	0x3e30528c	0.17218989
29	0xbc9a09bc	-0.01880347
30	0x3d0a155a	0.03371177
31	0x3eb64aac	0.35603845
32	0xbd5264e2	-0.05136574
33	0xbd3066bb	-0.04306672
34	0x3eab3d86	0.33445376
35	0xbcb6a562	-0.022295658
36	0x3e144ab7	0.14481626
37	0x3ea81d73	0.32834968
38	0xbe8f751c	-0.28019035
39	0xbeff7650	-0.49894953
40	0xbf034246	-0.51273
41	0x3ecc7dd0	0.39939737
42	0x3df6d8d5	0.12053076
43	0xbb61d657	-0.0034460032
44	0x3efd595e	0.49482244
45	0x3dc2add7	0.095058136
46	0xbdafd2a4	-0.085850984
47	0xbe6f2235	-0.23352893
48	0x3ec33dee	0.38133186
49	0x3db65e1f	0.08904671
50	0x3ec0d9a3	0.37666044
51	0xbf20e49b	-0.62848824
52	0xbea1cadc	-0.31600082
53	0xbdf5c6c0	-0.12000799
54	0x3ecb36be	0.39690202
55	0x3e433716	0.19063982
56	0xbdb48366	-0.08814125
57	0xbef4d996	-0.47822255
58	0x3e3373cd	0.17524643
59	0x3cf69096	0.03009824
60	0xbea4d33d	-0.32192412
61	0xbe73a1bb	-0.23792164
62	0x3eafaaaf	0.3430991
63	0x3e323da0	0.1740632
64	0x3e042d26	0.12907848
65	0x3e9422ff	0.2893295
66	0x3d892af4	0.06697646
67	0xbe835f60	-0.25658703
68	0xbcfb7cb1	-0.030699106
69	0x3e8f5611	0.2799535
70	0x3e8fe744	0.2810613
71	0xbe9c4989	-0.30524853
72	0x3e80ff72	0.2519489
73	0x3e962e68	0.2933228
74	0xbe90504e	-0.28186268
75	0xbee362df	-0.4441137
76	0x3ebfb403	0.37442026
77	0xbccd0651	-0.025027426
78	0xbd8d81fc	-0.06909558
79	0x3ce97aa8	0.02850087
80	0x3e4a5720	0.19759798
81	0xbf06875c	-0.5255029
82	0xbdd7189c	-0.10502741
83	0xbe21bcdc	-0.157947
84	0x3dd5b115	0.10434166
85	0xbd8dbd9b	-0.0692093
86	0x3f0480b1	0.5175887
87	0x3e2d9d5e	0.16954562
88	0xbe3e1013	-0.1856082
89	0x3e8d096b	0.27546248
90	0x3eac5860	0.33661175
91	0x3e72762e	0.23677894
92	0x3e36a1c5	0.17835148
93	0xbe16e62b	-0.1473624
94	0x3ed906dd	0.4238805
95	0xbef6b92b	-0.48188147
96	0x3cf85fe4	0.030319162
97	0x3dcb923d	0.09940002
98	0x3eb094d6	0.34488553
99	0xbdc45e39	-0.09588284
100	0x3daa29c0	0.083087444
101	0xbd9840d1	-0.07434238
102	0xbf1320e1	-0.57472044
103	0xbe056e88	-0.13030446
104	0x3f1298af	0.57264227
105	0xbec5b405	-0.38613907
106	0x3ed26c09	0.4109805
107	0xbe4b9c89	-0.19883932
108	0xbec4d284	-0.3844186
109	0x3edd6e4f	0.4324822
110	0x3ed534e5	0.41641918
111	0xbebb05d2	-0.36527878
112	0x3e2c1043	0.16803078
113	0xbe7560bb	-0.23962681
114	0x3eab0341	0.3340092
115	0x3ed22d91	0.4105039
116	0xbea3c969	-0.319896
117	0xbefb8da3	-0.49131498
118	0x3ecf44b8	0.40482116
119	0x3f0e251f	0.5552539
120	0xbe5a202b	-0.21301334
121	0xbd4e8160	-0.05041635
122	0x3f1cf445	0.61310226
123	0xbf06c6b0	-0.52646923
124	0x3d8ac51f	0.06775879
125	0x3e81633c	0.25271022
126	0xbc8042f2	-0.015656922
127	0x3db7a0f7	0.089662485
128	0x3ab05585	0.0013453221
129	0xbf0b1d86	-0.54341924
130	0x3f253ac6	0.64542806
131	0x3dbbfcb2	0.09179057
132	0xbeeb3bda	-0.459441
133	0xbe82e6cd	-0.25566712
134	0x3e710e98	0.23540723
135	0xbe4c9006	-0.19976816
136	0xbe6c9b79	-0.23106183
137	0x3f10cf0a	0.56565917
138	0xbdc21be3	-0.09477975
139	0xbeef01b5	-0.4668099
140	0x3e6d006f	0.23144697
141	0xbe9ac1de	-0.30226034
142	0xbc87a419	-0.01655774
143	0x3dd36fcf	0.1032406
144	0xbf425627	-0.7591271
145	0xbe2b5531	-0.16731717
146	0x3f1c15e7	0.6097092

gru_dp_fw.bias_ih_l0 f4 [21]
0	0x3edfdd4f	0.43723533
1	0x3e4e25c5	0.20131595
2	0x3efa4c49	0.48886326
3	0x3e6b193c	0.22958845
4	0x3e4dc0fb	0.20093147
5	0x3f1141b8	0.56740904
6	0x3d84e349	0.06488664
7	0x3f0c7f04	0.5488131
8	0x3e823e89	0.25438336
9	0xbeaaf3de	-0.3338918
10	0x3eadfd1f	0.3398218
11	0x3f64d912	0.89393723
12	0xbe13cbe6	-0.1443325
13	0x3ed87af2	0.422813
14	0x3e2c45aa	0.1682345
15	0x3e3e33ad	0.185744
16	0xbee9715d	-0.45594302
17	0xbdc7a3da	-0.09748049
18	0xbd91e7d2	-0.07124294
19	0x3e72b7f2	0.23702982
20	0x3e56b08a	0.20965782

gru_dp_fw.bias_hh_l0 f4 [21]
0	0x3ed74d8d	0.42051354
1	0x3d8f5c3b	0.070000134
2	0x3f1a7d81	0.60347754
3	0x3de14038	0.10998577
4	0x3f1879ba	0.5956074
5	0x3f096061	0.5366269
6	0x3e3d78b2	0.18503073
7	0x3f546bf8	0.8297725
8	0x3e8e4bd1	0.27792218
9	0xbc902aa2	-0.017598454
10	0x3f10e9be	0.5660666
11	0x3ed0800e	0.40722698
12	0xbdb92236	-0.09039728
13	0x3f26fee9	0.6523271
14	0x3ec22669	0.3791993
15	0xbe0a6c1a	-0.135178
16	0xbe93b420	-0.28848362
17	0x3e88a3ca	0.2668746
18	0xbdcfde05	-0.10149769
19	0x3edd680e	0.4324345
20	0xbe494d86	-0.19658479

gru_cp_fw.weight_ih_l0 f4 [18, 6]
0	0x3d592e92	0.05302293
1	0xbde20dc6	-0.11037783
2	0xbdd1d717	-0.10246103
3	0xbe4435ce	-0.1916115
4	0xbe9ecfb6	-0.31017846
5	0xbeaa12cb	-0.33217463
6	0x3e4ce0ec	0.20007676
7	0xbeb73185	-0.35779968
8	0xbd475e57	-0.048673954
9	0xbc941448	-0.018076077
10	0x3eac9a5a	0.3371151
11	0x3df40afa	0.11916156
12	0xbc88ce09	-0.016699808
13	0x3f03ff08	0.5156102
14	0xbe98112f	-0.2970061
15	0xbe96a4d6	-0.29422635
16	0xbe78f4b7	-0.24312101
17	0xbe8edfae	-0.2790503
18	0x3e646378	0.2230357
19	0x3ed7a945	0.4212133
20	0xbef14973	-0.4712635
21	0xbeaffee4	-0.34374154
22	0x3dd8c277	0.10583966
23	0x3e0c8f24	0.13726479
24	0xbee38426	-0.4443676
25	0x3ea8191c	0.32831657
26	0x3e95bb5d	0.2924451
27	0xbe85167e	-0.25993723
28	0xbdffd54e	-0.124918565
29	0x3eb66017	0.35620186
30	0xbe89c8d4	-0.26911032
31	0xbd8810cc	-0.06643829
32	0x3e50494e	0.20340464
33	0x3eb0a96d	0.34504262
34	0xbe9081a1	-0.282239
35	0x3cbaf360	0.022821128
36	0x3bcc3434	0.006231809
37	0xbe782af1	-0.24235131
38	0xbd3704d8	-0.044682354
39	0xbd159300	-0.036517143
40	0xbe45520a	-0.19269577
41	0xbef32345	-0.47487846
42	0x3e48fc0e	0.19627401
43	0xbe485709	-0.19564451
44	0xbe7fedef	-0.24993108
45	0x3eb184bd	0.34671584
46	0xbe733f34	-0.23754579
47	0xbe9f4fd3	-0.3111559
48	0x3ea0232e	0.3127684
49	0xbe2dbf24	-0.16967446
50	0xbf0c0b17	-0.5470442
51	0x3d6798fb	0.056542378
52	0x3e2a62c1	0.16639234
53	0x3dae3d1d	0.0850775
54	0xb84fe676	-4.956728e-05
55	0x3e3ce0b0	0.18445086
56	0x3e2a6379	0.16639508
57	0x3f011caf	0.5043439
58	0xbdc0b851	-0.094101556
59	0xbebd9cbf	-0.3703365
60	0x3dceffdf	0.10107397
61	0xbe8a4556	-0.27006024
62	0xbe9efd0a	-0.31052428
63	0xbe5e9d1c	-0.2173962
64	0xbe9b5aa2	-0.30342585
65	0x3dc4544d	0.095863916
66	0xbde1ab04	-0.11018947
67	0xbd23d9e7	-0.04000273
68	0xbea7de3c	-0.3278674
69	0xbd814f81	-0.06313992
70	0x3eaba240	0.33522224
71	0xbea5cab1	-0.32381204
72	0x3e65a248	0.22425187
73	0xbdd07ec5	-0.10180429
74	0xbe6d10b2	-0.231509
75	0x3cbbfd83	0.022948032
76	0x3eb2b7dd	0.34905902
77	0xbe3654aa	-0.17805734
78	0xbeb729b1	-0.35773996
79	0x3e40d427	0.1883093
80	0x3e7f1f3b	0.24914257
81	0x3ea1549e	0.3150987
82	0xbe2eba3e	-0.17063233
83	0xbd5ea88b	-0.054359954
84	0x3e12e30e	0.14344427
85	0xbe7dcc6e	-0.24785015
86	0x3c27602b	0.010215799
87	0x3f0157ce	0.50524604
88	0xbe8d940a	-0.27652007
89	0xbe833be3	-0.25631627
90	0xbed8debe	-0.4235744
91	0xbe6a74dd	-0.22896142
92	0xbcf0f923	-0.029415673
93	0x3eb3371d	0.35002986
94	0x3e9c8823	0.30572614
95	0x3e73135f	0.23737858
96	0xbd8fc2ee	-0.07019602
97	0x3e787993	0.24265127
98	0x3e61d16d	0.22052546
99	0xbea8251a	-0.32840806
100	0xbe6017e5	-0.21884115
101	0x3ee7ecf3	0.45297965
102	0x3d22b950	0.03972751
103	0xbc029e6c	-0.007972341
104	0xbea8f043	-0.32995805
105	0x3dba0d69	0.09084589
106	0xbdee0310	-0.11621678
107	0xbe83aa1c	-0.2571572

gru_cp_fw.weight_hh_l0 f4 [18, 6]
0	0x3e891672	0.26774937
1	0xbee556a5	-0.44792667
2	0x3db38de7	0.087673
3	0x3ccf44f4	0.025301434
4	0xbe562c6b	-0.20915382
5	0x3ec88b37	0.39168712
6	0x3e8f2512	0.2795797
7	0x3c9edde4	0.019392915
8	0xbe182156	-0.14856467
9	0x3e59d83a	0.2127389
10	0xbec67e98	-0.38768458
11	0xbe191c43	-0.14952187
12	0x3e6d51d9	0.23175754
13	0xbc96214c	-0.018326424
14	0xbd508a31	-0.05091304
15	0xbd71ecfc	-0.059063897
16	0x3e130fe8	0.14361537
17	0x3d2f1307	0.042742755
18	0xbdf9bbdc	-0.121940345
19	0xbe8f32fc	-0.27968585
20	0x3dc799fb	0.09746166
21	0x3ea19efa	0.31566602
22	0xbe9ab656	-0.30217236
23	0xbe11ac5a	-0.14225903
24	0xbd2414a8	-0.04005876
25	0x3ea3f4ce	0.3202271
26	0x3d82e018	0.06390399
27	0x3edcfe12	0.4316259
28	0x3c0ee25c	0.0087209605
29	0xbf0177c2	-0.5057336
30	0xbdc28614	-0.094982296
31	0x3e1e5b7d	0.15464588
32	0x3eb9f8a4	0.3632251
33	0xbebb13a5	-0.36538425
34	0xbef0ed02	-0.47055823
35	0x3df5f5c6	0.12009768
36	0x3e8afbcc	0.2714523
37	0x3e8fe2e6	0.28102797
38	0xbe078a2e	-0.13236305
39	0xbee91c56	-0.4552943
40	0xbde4be2c	-0.11169085
41	0x3e2caa39	0.1686181
42	0x3e8ea3df	0.278594
43	0x3d64be75	0.055845696
44	0xbed0363c	-0.40666378
45	0xbd48a979	-0.048989747
46	0x3e42200c	0.18957537
47	0x3db31ffd	0.08746336
48	0xbca7bc7b	-0.020475617
49	0xbec9ccd9	-0.394141
50	0x3e357608	0.17720807
51	0xbdc0e25d	-0.09418175
52	0x3e8b2ee0	0.271842
53	0x3f13c198	0.57717276
54	0x3dfca819	0.123367496
55	0xbe3eac09	-0.18620314
56	0xbe42d546	-0.1902667
57	0x3e7ecaec	0.24882096
58	0x3e4bed40	0.19914722
59	0x3eff5ef5	0.49877134
60	0xbda24142	-0.07922603
61	0xbe81e8e9	-0.2537301
62	0xbdb49a77	-0.08818524
63	0xbd682113	-0.056672167
64	0x3ebbd93a	0.36689168
65	0xbe4d284e	-0.20034906
66	0xbe638a06	-0.2222062
67	0xbde1a633	-0.11018028
68	0x3ef20528	0.4726956
69	0xbcdc335b	-0.026879957
70	0xbe881494	-0.265782
71	0x3e725930	0.23666835
72	0xbf0cd74c	-0.55016017
73	0x3e14688e	0.1449301
74	0xbe5067d4	-0.20352107
75	0xbe261204	-0.1621781
76	0x3edb62a1	0.42848685
77	0x3d63f3e5	0.055652518
78	0x3ca1bad7	0.019742412
79	0x3e936767	0.28789827
80	0xbdb51168	-0.088412106
81	0x3f259b3a	0.6468998
82	0x3e2c1af9	0.16807164
83	0xbe2fae3b	-0.17156307
84	0xbe9ac8b1	-0.3023124
85	0xbe70f05d	-0.23529191
86	0x3e88a406	0.2668764
87	0xbd3ea38b	-0.046542685
88	0x3d533b7b	0.051570397
89	0x3dee4a6a	0.11635287
90	0xbeb4038c	-0.35158956
91	0xbe6c6efa	-0.23089209
92	0xbeb5a188	-0.354748
93	0xbe3c5a32	-0.18393782
94	0x3eb83530	0.3597808
95	0xbbaf004b	-0.005340611
96	0x3d529fe2	0.051422007
97	0x3d111ec4	0.03542973
98	0xbe75ae62	-0.23992303
99	0x3ed2c393	0.41164836
100	0xbea826de	-0.32842153
101	0x3dd832c4	0.10556558
102	0xbdd5868b	-0.10426053
103	0xbe201517	-0.15633045
104	0x3e833fb9	0.25634554
105	0xbf1784a8	-0.5918679
106	0xbeee6dbe	-0.46568102
107	0x3e086ac7	0.13321982

gru_cp_fw.bias_ih_l0 f4 [18]
0	0x3ea723aa	0.32644397
1	0x3f0e8239	0.55667454
2	0x3ea5e0ae	0.3239798
3	0xbed0d91a	-0.40790635
4	0x3bc569a3	0.006024556
5	0xbd1df745	-0.038565893
6	0xbe1686e0	-0.14699888
7	0x3e462116	0.19348559
8	0xbea92977	-0.33039448
9	0xbcc160eb	-0.023605784
10	0xbd31ec8b	-0.043438476
11	0xbe9c5510	-0.30533648
12	0x3d7f2805	0.062294025
13	0x3d7adf2e	0.061247997
14	0x3e665590	0.22493577
15	0xbd928509	-0.07154281
16	0x3d80385f	0.06260752
17	0xbd5fd3aa	-0.054645218

gru_cp_fw.bias_hh_l0 f4 [18]
0	0x3e8d2a49	0.27571324
1	0x3e6803ca	0.22657695
2	0xbeae761d	-0.34074488
3	0xbdba85e6	-0.0910757
4	0xbe8095f3	-0.25114402
5	0x3cd19933	0.025585746
6	0xbde84b79	-0.1134252
7	0x3e821ee5	0.25414196
8	0xbe7f9c6e	-0.24962017
9	0xbd84b054	-0.064789444
10	0xbe6f8b5b	-0.23393004
11	0x3d920b18	0.07131022
12	0x3da70d90	0.08156884
13	0x3e13e70a	0.14443603
14	0x3de1452d	0.10999522
15	0xbec15a7c	-0.37764347
16	0x3e2fd869	0.17172398
17	0x3e2bfb53	0.16795091

gru_dp_bw.weight_ih_l0 f4 [21, 7]
0	0x3bcda214	0.0062754247
1	0x3ef56e8d	0.47935906
2	0xbd35268c	-0.044226214
3	0xbe986893	-0.29767284
4	0x3ec1424d	0.37745896
5	0xbefbee31	-0.49205163
6	0x3b939d4a	0.0045048343
7	0xbea5683b	-0.32306084
8	0x3e06e624	0.13173729
9	0xbf127e55	-0.5722402
10	0xbeaf1d66	-0.34202117
11	0x3dee0562	0.116221204
12	0xbdbe0e19	-0.09280033
13	0x3e8a2afd	0.26985922
14	0x3e8b2fad	0.2718481
15	0xbb111c85	-0.0022142243
16	0x3db8cee8	0.09023839
17	0xbdf39b4d	-0.11894856
18	0x3dc40f77	0.09573262
19	0xbe86ab42	-0.26302534
20	0xbeda40fb	-0.426277
21	0xbe65f792	-0.22457722
22	0x3d4aa0c9	0.049469743
23	0x3e934e52	0.2877069
24	0xbde40519	-0.11133785
25	0xbda2c1fd	-0.079471566
26	0xbc8d6002	-0.017257694
27	0x3ab32ec6	0.0013670556
28	0x3ea373b6	0.31924218
29	0x3e0b4108	0.13599026
30	0x3b933050	0.0044918433
31	0xbd8392b9	-0.064244695
32	0x3e897fb2	0.26855236
33	0xbe9e23cc	-0.30886686
34	0x3e177d1a	0.14793816
35	0x3d5037f4	0.05083461
36	0x3e8835f4	0.26603663
37	0x3e54d9c6	0.20786199
38	0xbd96726f	-0.07346045
39	0xbdf2aed9	-0.11849756
40	0xbe203102	-0.15643695
41	0x3db0d7d6	0.086349174
42	0x3eba0842	0.36334425
43	0x3c8df73c	0.017329805
44	0x3e72a07a	0.2369403
45	0xbeaaefcc	-0.33386075
46	0x3e4d26a6	0.20034274
47	0x3e669354	0.22517139
48	0xbdbc46a0	-0.09193158
49	0xbef0b42c	-0.4701246
50	0xbd78d207	-0.060747173
51	0x3e4e6a9e	0.20157859
52	0xbdfcb4c5	-0.123391666
53	0xbe9f9a82	-0.31172568
54	0x3c550967	0.01300273
55	0x3e939372	0.2882343
56	0x3e0afc44	0.13572794
57	0x3cf0313a	0.029320348
58	0x3e5b75a0	0.21431589
59	0x3d705193	0.058671545
60	0x3d996e53	0.07491746
61	0x3e5d921f	0.21637772
62	0x3ef21d54	0.47288
63	0x3dcb9216	0.09939973
64	0xbc55fd57	-0.013060889
65	0xbe43400d	-0.19067402
66	0x3d15311b	0.036423784
67	0x3e882f65	0.2659866
68	0x3ed65ea6	0.41869086
69	0x3e328492	0.17433384
70	0x3e54ac1c	0.2076878
71	0x3ebf11c0	0.3731823
72	0xbe1e2e6a	-0.15447393
73	0x3e0d267e	0.13784215
74	0x3ea01469	0.31265572
75	0xbe0b6584	-0.13612944
76	0xbde95817	-0.11393755
77	0x3e588b81	0.21146967
78	0xbe0021f8	-0.12512958
79	0xbe9f78e8	-0.31146932
80	0xbe8e46a7	-0.27788278
81	0xbd53556c	-0.051595137
82	0x3ef3dd87	0.4762995
83	0xbe8f19d5	-0.27949396
84	0x3eb685e7	0.35649034
85	0xbd4029d7	-0.0469149
86	0x3e4b04c8	0.19826043
87	0xbe7ac6ca	-0.24489895
88	0xbe464edc	-0.1936602
89	0xbe5b1953	-0.21396379
90	0xbd9036f5	-0.07041732
91	0xbe3f817e	-0.18701741
92	0x3e6b8a1e	0.23001906
93	0xbe34004e	-0.17578241
94	0x3c8542f8	0.016267285
95	0x3cf40a67	0.029790116
96	0x3e6896f8	0.2271384
97	0xbedef933	-0.435495
98	0xbf07f590	-0.53109074
99	0x3d431c7e	0.047634594
100	0x3ea03337	0.31289074
101	0x3ef35b4d	0.47530594
102	0x3e868cf3	0.2627941
103	0xbeb1dd51	-0.34739164
104	0x3ed624ba	0.41824895
105	0x3dfda16d	0.12384305
106	0xbd115ccb	-0.035488885
107	0xbe5f94a8	-0.21834052
108	0xbe1f3032	-0.15545729
109	0x3d896bc0	0.06710005
110	0x3eaea078	0.34106803
111	0xbee02a52	-0.43782288
112	0xbe22a1e5	-0.1588207
113	0xbcc2edcf	-0.023795037
114	0x3da97713	0.08274665
115	0x3eb53cbb	0.35397896
116	0xbf0663d9	-0.52496105
117	0xbe14fbe7	-0.14549218
118	0x3e82daa9	0.2555745
119	0xbe33c57b	-0.17555802
120	0xbe681619	-0.2266468
121	0xbe446aa3	-0.19181304
122	0xbe4e211b	-0.20129816
123	0x3d1e83ac	0.03869979
124	0x3d18f3be	0.037341826
125	0xbe90f0d2	-0.2830873
126	0x3e17f0de	0.14837977
127	0xbe5faa2f	-0.21842264
128	0x3ed1ddf4	0.4098965
129	0x3f20e5fc	0.6285093
130	0x3d424056	0.047424637
131	0xbe616f9d	-0.22015233
132	0x3e7ac887	0.24490558
133	0xbdb88ca1	-0.09011198
134	0x3e85b6e1	0.26116088
135	0xbdd40c19	-0.1035387
136	0x3ea95b06	0.33077258
137	0x3e1b273a	0.15151682
138	0xbe872a84	-0.26399624
139	0x3eb9e13d	0.36304656
140	0xbc849dee	-0.016188588
141	0x3f00b4f1	0.50276095
142	0xbcece2c9	-0.028916733
143	0x3e53230a	0.20618835
144	0x3e9a83fd	0.30178824
145	0xbec62358	-0.3869884
146	0xbea8a1dd	-0.32935992

gru_dp_bw.weight_hh_l0 f4 [21, 7]
0	0x3e9b99a5	0.3039066
1	0x3a185f29	0.000581252
2	0xbf1f17ec	-0.62145877
3	0x3dd19b42	0.10234691
4	0xbe21da31	-0.1580589
5	0x3ea987e3	0.33111486
6	0x3e867c4a	0.262667
7	0xbeb9125b	-0.36146817
8	0x3ddb839b	0.10718461
9	0xbd4ab27a	-0.049486615
10	0xbef98a0e	-0.4873814
11	0xbe822185	-0.25416198
12	0x3e92fa7a	0.28706723
13	0x3f17da07	0.5931706
14	0xbdab5957	-0.083666496
15	0x3cdf453a	0.02725469
16	0x3e8d9750	0.27654505
17	0xbeec2a5e	-0.46126074
18	0xbe733441	-0.23750402
19	0x3e04d5db	0.12972204
20	0x3f11dae6	0.5697464
21	0xbd8e6af1	-0.06953991
22	0xbe345afc	-0.17612833
23	0x3e7f0f67	0.2490822
24	0xbead306f	-0.33826014
25	0x3e10da41	0.14145757
26	0x3e0e8fe5	0.13922079
27	0x3db9cb7f	0.09072017
28	0xbea76430	-0.32693624
29	0x3ed0ab56	0.4075572
30	0x3cea2a28	0.028584555
31	0x3d632553	0.055455517
32	0x3d60492b	0.05475728
33	0xbe7cd411	-0.24690272
34	0xbe71ac44	-0.2360087
35	0xbea0d6bf	-0.31413838
36	0x3d952bac	0.072837204
37	0xbe451fb9	-0.19250382
38	0x3e94b4d3	0.29044208
39	0xbc1c125f	-0.009525864
40	0x3eed714d	0.46375504
41	0x3ef2b3a3	0.47402677
42	0x3e6f760f	0.2338488
43	0xbea489b1	-0.321363
44	0x3da819fd	0.08208082
45	0x3eeecf48	0.46642518
46	0x3e8e0bd1	0.2774339
47	0x3eb092ec	0.34487092
48	0xbe9a258e	-0.30106777
49	0x3e2c3cce	0.1682007
50	0x3e811d85	0.25217834
51	0xbe7df2dc	-0.24799675
52	0xbeac83fc	-0.33694446
53	0x3e9499bc	0.2902354
54	0x3d1f9d1a	0.038968183
55	0xbe5a42ae	-0.21314499
56	0x3e61d2df	0.22053097
57	0x3e801be7	0.25021288
58	0xbec7fc1b	-0.3905953
59	0xbd28b8d3	-0.041191887
60	0xbecc6845	-0.399233
61	0xbeb2ba1a	-0.3490761
62	0xbe839c9a	-0.25705415
63	0x3f1dc220	0.61624336
64	0xbeee69e8	-0.46565175
65	0x3e3d1ebe	0.18468758
66	0xbc069ba6	-0.00821582
67	0x3e5ca137	0.21545874
68	0x3e85a8be	0.26105303
69	0xbe3fa711	-0.18716075
70	0x3d9a256d	0.0752667
71	0x3e2e6c32	0.1703346
72	0x3e8dea63	0.27717885
73	0xbe1c6a49	-0.1527492
74	0x3e275218	0.1633991
75	0x3e877e01	0.2646332
76	0x3e67c283	0.22632794
77	0x3eb56841	0.35431102
78	0xbde7cba9	-0.11318142
79	0xbd6d33ca	-0.057910718
80	0xbe50b4d7	-0.20381485
81	0x3ea40fc2	0.32043272
82	0xbe8b3ac9	-0.27193287
83	0xbe8ab537	-0.2709138
84	0x3e102f5c	0.14080566
85	0x3eb609f6	0.35554475
86	0xbee11703	-0.4396287
87	0xbe219469	-0.1577927
88	0x3e3ff505	0.18745811
89	0xbe59ca60	-0.21268606
90	0x3cb0eaac	0.021596275
91	0xbe2dd7b2	-0.16976812
92	0x3d1d5c42	0.038418062
93	0x3df6667c	0.12031266
94	0xbe6d2ca3	-0.23161559
95	0x3de326f8	0.11091417
96	0x3d317657	0.04332575
97	0xbedd4fbe	-0.432249
98	0x3e15780b	0.14596574
99	0xbe8858ad	-0.26630154
100	0xbd571080	-0.05250597
101	0xbe95a000	-0.29223633
102	0xbeb5d64b	-0.35515055
103	0xbdd413c3	-0.10355332
104	0x3ef4e3fc	0.47830188
105	0xbf1007a0	-0.56261635
106	0x3eb8fa7c	0.36128604
107	0x3f08fc98	0.5351043
108	0xbecbbb70	-0.3979144
109	0x3eb821b7	0.35963222
110	0xbe868b8a	-0.26278335
111	0xbe56e28f	-0.20984863
112	0xbf18eaed	-0.5973347
113	0x3ddc0161	0.107424505
114	0x3f13ab8d	0.5768364
115	0xbe5ca2c5	-0.21546467
116	0x3ed7bce2	0.42136294
117	0xbedaa0e3	-0.42700872
118	0xbeed365f	-0.46330544
119	0x3ea35911	0.3190389
120	0xbeadf893	-0.3397871
121	0x3ef95687	0.48698828
122	0x3dd13e11	0.10216916
123	0x3ed2ff41	0.41210368
124	0x3f091167	0.5354218
125	0xbdcc0a45	-0.09962896
126	0x3d7241d7	0.05914482
127	0x3c7c1dc4	0.015387956
128	0xbe5ccc73	-0.21562366
129	0xbe12caa4	-0.14335114
130	0xbe9abe93	-0.30223522
131	0xbe7d2cd9	-0.2472414
132	0xbdd21a36	-0.102589056
133	0x3e31c803	0.17361455
134	0xbddb2534	-0.10700455
135	0xbebb1ea2	-0.36546808
136	0xbe80f38f	-0.2518582
137	0xbe5e40aa	-0.21704355
138	0x3f2dad2e	0.67842376
139	0x3ed7322c	0.42030466
140	0x3db93ceb	0.09044822
141	0xbe84a442	-0.2590657
142	0xbf20a9b9	-0.62758976
143	0xbea9b4a3	-0.33145627
144	0xbf24fe0d	-0.6445015
145	0xbe92c5ec	-0.28666627
146	0x3e7f746c	0.24946755

gru_dp_bw.bias_ih_l0 f4 [21]
0	0xbdfbf237	-0.12302058
1	0xbd42d02f	-0.04756182
2	0x3f1b84e8	0.60749674
3	0x3edc56d5	0.43034998
4	0xbeae66fd	-0.3406295
5	0x3ef586a8	0.47954297
6	0xbdd1bbb5	-0.102408804
7	0xbe870ea9	-0.26378372
8	0x3e4b9c88	0.1988393
9	0xbe1e605d	-0.15466447
10	0xbeca94b3	-0.39566574
11	0xbf14e215	-0.58157474
12	0xbcf76455	-0.03019921
13	0x3eaf9d36	0.3429963
14	0xbe22b9a5	-0.1589113
15	0xbda424b6	-0.080148146
16	0x3e88709a	0.26648408
17	0xbe25fc29	-0.16209473
18	0xbe843a39	-0.2582567
19	0xbdf478b4	-0.11937085
20	0x3ed0e9d8	0.4080341

gru_dp_bw.bias_hh_l0 f4 [21]
0	0xbda65faa	-0.08123715
1	0x3e3e27be	0.18569848
2	0x3df0235a	0.11725493
3	0x3f14a944	0.5807078
4	0xbd535c49	-0.05160168
5	0x3e48c537	0.19606481
6	0x3e9f8772	0.31158024
7	0xbf1c182e	-0.60974395
8	0xbdffa514	-0.12482658
9	0xbe271e1c	-0.1632008
10	0xbe1811d4	-0.14850551
11	0xbe4f5965	-0.20248945
12	0xbee91767	-0.45525667
13	0x3ea7b129	0.3275235
14	0x3e4a8f3d	0.19781204
15	0xbdb34b64	-0.08754614
16	0xbeb61b20	-0.3556757
17	0x3d400314	0.046877936
18	0xbc3e8e0c	-0.011630546
19	0x3cc45fe5	0.023971507
20	0xbe7f87b2	-0.24954107

gru_cp_bw.weight_ih_l0 f4 [18, 6]
0	0x3e808aae	0.25105804
1	0x3ec07412	0.37588555
2	0xbecae1dd	-0.39625445
3	0xbe1594f0	-0.14607596
4	0x3eaf32e4	0.34218514
5	0x3e8e8578	0.27836204
6	0x3ec89abe	0.3918056
7	0x3e2fcb3f	0.17167376
8	0xbd7ca700	-0.0616827
9	0xbed33c9b	-0.41257176
10	0x3df95191	0.12173761
11	0x3e736957	0.23770653
12	0x3ea06056	0.31323498
13	0xbebcec04	-0.36898816
14	0x3db7e6c6	0.089795634
15	0xbe364c97	-0.17802654
16	0xbe2ab1e1	-0.16669418
17	0x3da62480	0.081124306
18	0xbf0cfdd5	-0.55074817
19	0x3ed6a792	0.4192472
20	0x3ebee83e	0.37286562
21	0x3e86b82f	0.26312396
22	0xbdf5dbb2	-0.12004794
23	0x3f0d9e45	0.55319625
24	0xbe323020	-0.1740117
25	0x3de1fc3d	0.11034439
26	0xbece3948	-0.40278077
27	0x3e433fef	0.19067357
28	0xbebe9475	-0.3722264
29	0xbe593216	-0.21210513
30	0x3e829423	0.25503644
31	0x3e78f388	0.2431165
32	0xbd81ad40	-0.06331873
33	0xbca0561a	-0.019572306
34	0x3e5c7de9	0.21532406
35	0x3d6e2177	0.058137383
36	0xbe79662c	-0.24355382
37	0xbe2b0711	-0.16701914
38	0xbe00a52f	-0.12563013
39	0x3ebd5a83	0.36983117
40	0xbeaeb7c5	-0.3412458
41	0x3d671d18	0.05642423
42	0x3eaa7a98	0.33296657
43	0x3e4d2559	0.20033778
44	0xbe09ef47	-0.13470183
45	0x3ea31f36	0.3185975
46	0x3e0c8f53	0.13726549
47	0xbdf88df5	-0.12136451
48	0x3e9e84e6	0.30960768
49	0xbe748b78	-0.23881328
50	0xbe6d5397	-0.23176418
51	0xbd18973a	-0.037253596
52	0x3e62e56b	0.22157829
53	0xbe7c693d	-0.2464952
54	0x3eb931ab	0.36170706
55	0x3e1672ae	0.14692184
56	0xbe0028f5	-0.12515624
57	0xbe325af3	-0.17417507
58	0xbb37af7c	-0.002802818
59	0xbee77323	-0.4520503
60	0x3f050858	0.51965857
61	0x3eb4b805	0.35296646
62	0x3db7eee6	0.08981113
63	0xbc33dc12	-0.010977762
64	0xbebbd51a	-0.3668602
65	0x3e48a429	0.19593872
66	0xbe4d63e3	-0.20057635
67	0x3ef64f8e	0.4810757
68	0x3e1969c7	0.14981757
69	0xbecbc5e4	-0.39799416
70	0xbe69aa58	-0.22818887
71	0x3de13328	0.109960854
72	0x3e9dd8de	0.3082952
73	0x3ea85229	0.32875183
74	0xbead063d	-0.33793822
75	0xbe02c7bb	-0.12771504
76	0xbe37a1a2	-0.17932752
77	0x3d35212d	0.044221092
78	0x3e464b35	0.19364627
79	0x3df84ef5	0.12124435
80	0xbdd59438	-0.10428661
81	0x3e389469	0.18025364
82	0x3d8649ab	0.0655702
83	0xbeaebd7a	-0.34128934
84	0xbe943345	-0.28945366
85	0xbda5dfa8	-0.080993
86	0x3e02993c	0.12753767
87	0x3c9c98e1	0.019115867
88	0x3e934bdd	0.28768817
89	0x3ec5a3ee	0.3860163
90	0x3e8a3d33	0.26999816
91	0xbe2aa86e	-0.16665813
92	0xbe5b8602	-0.21437839
93	0xbe86f2e5	-0.2635719
94	0x3e9e6abb	0.30940804
95	0x3e67200f	0.22570823
96	0xbdf3e979	-0.11909766
97	0x3e5fea31	0.2186668
98	0x3eee1244	0.4649831
99	0xbdfa75df	-0.122295134
100	0xbe70677b	-0.23476975
101	0x3ecea8a5	0.4036304
102	0xbefde6f7	-0.49590275
103	0x3d360dd9	0.0444468
104	0xbd7de969	-0.061990175
105	0xbe5053a7	-0.20344411
106	0x3e618e08	0.22026837
107	0xbe57d5dc	-0.21077675

gru_cp_bw.weight_hh_l0 f4 [18, 6]
0	0x3e27ee31	0.16399457
1	0xbe8519ea	-0.25996333
2	0xbed775a7	-0.4208195
3	0xbea1d7b3	-0.31609878
4	0x3de0e2d4	0.10980764
5	0xbe8c4717	-0.27397987
6	0xbe0bb16a	-0.13641897
7	0xbd1f2427	-0.038852837
8	0xbc668bf7	-0.014071456
9	0x3ea1e05c	0.31616485
10	0x3ed27714	0.41106474
11	0xbea5c917	-0.32379982
12	0x3ef7254e	0.4827065
13	0xbe90bf97	-0.2827117
14	0x3c4cddc6	0.012504047
15	0x3e19db46	0.15025052
16	0xbdea4ebb	-0.11440798
17	0x3e34ef83	0.17669491
18	0xbdba392a	-0.090929344
19	0x3ea7857d	0.3271903
20	0xbd84f2ba	-0.06491609
21	0xbebb8210	-0.36622667
22	0x3d92430e	0.07141696
23	0xbe8abd86	-0.2709772
24	0x3e8779dd	0.26460162
25	0xbe8ad3b4	-0.27114642
26	0xbec0216d	-0.37525502
27	0xbea881c7	-0.32911512
28	0x3e47d4af	0.19514726
29	0x3e1ceb3c	0.1532411
30	0xbd449f5b	-0.048003536
31	0x3eb03a8c	0.34419668
32	0x3e842eec	0.2581705
33	0xbed5497f	-0.41657636
34	0xbee0f908	-0.43939996
35	0xbe92d251	-0.28676084
36	0xbe8eccb3	-0.27890548
37	0x3d008373	0.03137536
38	0x3ded4ad5	0.11586539
39	0xbe3d2a63	-0.184732
40	0x3eb133b9	0.34609774
41	0xbedfd35e	-0.43715948
42	0x3e24159e	0.16023871
43	0xbd9b8ccd	-0.07595215
44	0xbe842a50	-0.25813532
45	0xbeb7abbb	-0.35873207
46	0xbbf584c6	-0.0074926345
47	0x3e69410b	0.22778718
48	0xbe921883	-0.28534326
49	0x3e99765f	0.29973122
50	0x3dc8864a	0.097912386
51	0x3e81db97	0.25362846
52	0x3e6e20d5	0.23254712
53	0xbdba273f	-0.09089517
54	0x3d2538a7	0.04033723
55	0xbe0d3cea	-0.13792768
56	0x3e0cb11d	0.13739438
57	0x3dbb1bf5	0.09136192
58	0x3eddf482	0.43350607
59	0x3e2b4b85	0.16728027
60	0x3e8f36da	0.27971536
61	0xbe4c6763	-0.19961314
62	0xbee0d73e	-0.43914217
63	0xbe4a2294	-0.19739753
64	0xbc9f2ce2	-0.019430581
65	0xbf2727d1	-0.6529513
66	0xbda5e46c	-0.08100209
67	0x3eae7f16	0.34081334
68	0xbded7fbe	-0.115966305
69	0x3e5c076a	0.21487203
70	0x3ea16a0d	0.31526223
71	0x3bc2ebe2	0.0059485296
72	0x3ecf0fd8	0.40441775
73	0xbe7f28fd	-0.2491798
74	0xbe3aea85	-0.18253525
75	0xbe9c8991	-0.30573705
76	0xbd274bc4	-0.04084374
77	0xbeef7079	-0.46765497
78	0x3ec70f8b	0.38879046
79	0x3e3eb471	0.1862352
80	0xbd190380	-0.037356853
81	0xbe83673a	-0.25664693
82	0xbd2c6ae3	-0.042094123
83	0x3da5ee3b	0.081020795
84	0xbe04686e	-0.12930462
85	0x3e392b5e	0.1808295
86	0xbebd4f13	-0.3697439
87	0xbeb12f9d	-0.3460664
88	0xbe1dd109	-0.15411772
89	0x3e437d19	0.1909069
90	0x3f10167d	0.56284314
91	0xbe6d4592	-0.2317107
92	0x3deac236	0.11462824
93	0xbf19aa7d	-0.6002577
94	0xbee1e08c	-0.44116628
95	0xbedac6ba	-0.4272974
96	0xbec88df8	-0.39170814
97	0x3eae031a	0.3398674
98	0xbcd5db70	-0.026105613
99	0x3ea744d5	0.32669702
100	0xbea0c324	-0.3139888
101	0xbe83efaf	-0.25768802
102	0xbdef7104	-0.11691478
103	0xbee1eb65	-0.44124904
104	0x3f0009a9	0.5001474
105	0x3dd4b76b	0.10386547
106	0xbea16fae	-0.31530517
107	0x3eb3ab99	0.35091856

gru_cp_bw.bias_ih_l0 f4 [18]
0	0xbe315bd1	-0.17320181
1	0x3dfcb820	0.123398066
2	0x3e0fbce4	0.140369
3	0xbdf2b25c	-0.118504256
4	0x3ebcae0e	0.36851543
5	0x3f03f639	0.5154758
6	0xbec5eb46	-0.38656062
7	0xbd7e02be	-0.062014334
8	0xbec885cd	-0.39164582
9	0x3e130f53	0.14361314
10	0xbe3e6500	-0.18593216
11	0xbdf1f5a6	-0.11814432
12	0x3ebaeb97	0.36507866
13	0xbdcd2f4f	-0.10018789
14	0xbe9b7038	-0.30359054
15	0xbe2a1ff3	-0.1661375
16	0x3e0f6c76	0.14006218
17	0x3e1851f2	0.1487501
