ablation2_activation_function/birnn_time_decay_attention/final_model.pt (torch, 67855 bytes, 31 tensors)

embed_dp.weight f4 [1292, 7]
000000 00 00 00 00 00 00 00 00 00 00 00 00 00 00 00 00
       0.0 0.0 0.0 0.0
000010 00 00 00 00 00 00 00 00 00 00 00 00 5b c4 06 bf
       0.0 0.0 0.0 -0.52643365
000020 66 6d 51 3f fc d2 64 bf 76 a5 1d c0 73 94 89 be
       0.81807554 -0.89384437 -2.463224 -0.2687107
000030 27 0f 84 bf c4 a6 9b bf b6 1f 59 be 37 17 41 3e
       -1.0317124 -1.2160268 -0.21203503 0.18856512
000040 c5 ce 88 3f b7 96 13 bf 7a 8d 7f 3f 81 54 35 3f
       1.0688101 -0.5765185 0.9982525 0.7083207
000050 55 8a b4 3f 91 68 cd be 02 a2 f2 bf ec d4 83 3f
       1.4104716 -0.4011884 -1.8955691 1.0299354
000060 de 54 73 bf f2 93 2b bf 73 3f 03 c0 85 92 59 3f
       -0.9505137 -0.6702262 -2.0507476 0.84989196
000070 bf 3a a3 bf 75 8c 8d 3f 9b 16 92 bf 42 79 cf 3e
       -1.2752303 1.1058489 -1.1413149 0.405222
000080 05 71 98 bf 18 20 98 be fe 83 27 be ee b7 a8 3e
       -1.1909491 -0.29711986 -0.16358945 0.32952827
000090 3a e9 35 be 85 0d b8 3f cf ea 58 3f 56 4e 5b 40
       -0.1776475 1.4379126 0.8473329 3.4266562
0000a0 6f fa d7 3f a5 ab e4 3e c4 f0 25 bf 78 aa 4f bf
       1.6873301 0.44662204 -0.64820504 -0.8111949
0000b0 de 33 b8 bf 59 89 b4 bd 15 af 8e bf 3c 9d 94 be
       -1.4390829 -0.088152595 -1.1147181 -0.2902621
0000c0 26 3a a6 3f 0c bf 7f 3f f2 7a 9b be 9e 08 1f bf
       1.2986495 0.9990089 -0.30367237 -0.62122524
0000d0 e5 a4 00 40 d3 a0 a7 bf 2f f2 18 bf 27 aa 88 3e
       2.0100644 -1.3095955 -0.5974454 0.26692316
0000e0 80 f9 c1 3e 47 e4 a1 bf 05 1a 12 c0 f4 1d 27 3e
       0.37885666 -1.264779 -2.282838 0.1632002
0000f0 d1 8a 81 3e 47 47 36 3f b2 c2 87 3e 0b f5 a4 3e
       0.2530122 0.7120251 0.26515728 0.32218203
000100 88 55 52 3e 81 3c ed 3f c6 36 2f 3f 52 c4 82 3f
       0.2054044 1.8534089 0.6844295 1.0216162
000110 eb da 86 3f 73 49 75 3d 94 3d 0a be bf fd 00 3f
       1.0535558 0.0598845 -0.13500053 0.50387186
000120 63 b5 12 40 e2 ed 1e 3f 00 b5 b9 3f 0b 8c d6 be
       2.292321 0.6208173 1.4508362 -0.4190372
000130 3f eb 8f be bd 79 96 bf f3 e2 ed bf 62 47 8a 3f
       -0.28109166 -1.1755902 -1.8584884 1.0803034
000140 5f c8 7f 3e f4 c3 68 3e 97 18 d8 3f 89 f9 24 3f
       0.2497878 0.22731 1.6882504 0.6444326
000150 9a 60 ca be 4f f9 af 3d d7 89 49 bf 6c 84 7f 3f
       -0.39526826 0.08592474 -0.7872595 0.99811435
000160 41 7b c9 bc 7c 8b dd bf 05 9b ef bd 41 81 0d bf
       -0.024594905 -1.7308192 -0.116994895 -0.5527535
000170 1d ca 53 c0 be 1a be bf f1 18 9b be 8e ff 0b c0
       -3.309211 -1.4851911 -0.30292466 -2.1874728
000180 44 5b 16 c0 c4 f8 94 3f 04 d4 c8 be 9e 77 29 be
       -2.3493204 1.1638417 -0.39224255 -0.16549537
000190 1b da d9 bf 7c bb c6 3f 58 5a a4 bf 42 66 1c 40
       -1.7019686 1.5525966 -1.2840071 2.4437413
0001a0 b7 c8 50 be e4 70 c5 bf 1c 91 8b 3e 0f c9 e5 3c
       -0.20389067 -1.5425076 0.27259147 0.028049974
0001b0 6b bf 90 3e e8 a4 fc 3d 72 58 9e be 82 e6 78 3d
       0.2827104 0.12336141 -0.30926853 0.060766704
0001c0 30 3c 45 bf 58 e0 03 3f ea dc b0 3e bf fe a8 bf
       -0.77044964 0.51514196 0.34543544 -1.3202742
0001d0 1a 3f c7 3e 4f 82 ae 3e 0a 77 95 3e 70 96 7f 3f
       0.3891533 0.34083793 0.29192382 0.99838924
0001e0 fb da 77 3f ca cb 6b bf 49 f7 48 bf 5e 4b 00 bf
       0.9681851 -0.9210783 -0.7850233 -0.50115
0001f0 51 d9 f9 be a3 e6 ab be 27 90 07 be 7e de 7d 3f
       -0.48798612 -0.335744 -0.13238584 0.9916762
000200 8f 0a 42 3f 80 70 bd 3e a9 f7 0b 3f 2d 11 27 3f
       0.7579736 0.36999893 0.54674774 0.65260583
000210 7f a0 ba be e8 45 de be 46 ea 89 3f a1 53 f0 3f
       -0.36450574 -0.4341271 1.077462 1.8775522
000220 f6 d4 65 3e 6f c5 97 3f ad 01 65 3f 31 61 04 c0
       0.2244452 1.1857127 0.8945568 -2.068432
000230 da c5 33 3e 93 b5 7f 3e 8a f4 7e be 6f 13 49 be
       0.17555943 0.24971609 -0.24897972 -0.1963632
000240 72 5b c8 3d 77 21 8c 3f e3 e1 2b 3d b4 10 7e bf
       0.09783067 1.0947713 0.04196347 -0.99244237
000250 7a 93 69 bd bd f4 07 bf eb 60 ae bf df 2c 4d bf
       -0.05702541 -0.53107816 -1.3623327 -0.8014659
000260 69 58 5e 3f c5 2c 20 40 d4 bf bf be 2e c1 2b bf
       0.86853653 2.5027325 -0.3745104 -0.67091644
000270 20 20 ea be 42 49 82 bb 69 14 1f 3e 42 19 20 40
       -0.45727634 -0.003976018 0.1553513 2.5015416
000280 c8 d1 e7 3d c1 23 5c 3d c3 fd 01 bf dd 51 cf bf
       0.113193095 0.053745035 -0.50777835 -1.6196858
000290 75 15 48 be a5 ad 6e 3f e4 f8 8d bd 02 8f c7 be
       -0.19539435 0.9323371 -0.06932238 -0.38976294
0002a0 53 84 55 bf d4 1a 78 3e 60 78 ba bf 0b 9b 78 be
       -0.83405036 0.24228984 -1.4567986 -0.24277894
0002b0 74 b9 52 3e 39 cf 8e 3f 8f 8f a2 3f 0c 93 99 3f
       0.20578557 1.1156989 1.2700061 1.1998
0002c0 9f c2 07 40 53 a6 d6 bf 23 8e db 3e e0 f7 8c be
       2.1212537 -1.6769508 0.4288188 -0.27532864
0002d0 65 f8 95 3f 54 da 3f 3f 5d 51 9d be 42 6c bb bf
       1.1716429 0.7494252 -0.30726138 -1.4642413
0002e0 c2 bb 86 bf 0b 5d 04 3f 22 a5 80 3e 2e d6 29 bf
       -1.0526049 0.5170447 0.25125986 -0.6634244
0002f0 d7 9b c7 3d c6 f8 68 3f 9c a4 e3 bc 6b 62 02 bf
       0.09746521 0.910046 -0.027788453 -0.50931424
000300 b3 c5 c9 3f b2 82 97 3e 05 9c ce 3f 08 a2 95 bf
       1.5763458 0.295919 1.6141363 -1.1690073
000310 f3 23 e6 bd e7 1e 23 3f cd 9c 72 bf e0 22 9d bf
       -0.112373255 0.6371903 -0.9477051 -1.2276268
000320 47 f7 14 3f 3b 52 d8 bf d7 37 b8 3f 20 4d ae 3e
       0.58189815 -1.6900095 1.4392041 0.34043217
000330 2d 01 d8 bf 26 de 54 3d c0 5f 62 bf 66 ce 38 bf
       -1.6875359 0.05196967 -0.8842735 -0.7218994
000340 01 55 8f 3f 4f 0f c8 3f 00 e3 b7 3f 27 b4 13 bf
       1.1197816 1.5629672 1.436615 -0.57696766
000350 c0 cd c9 bd bf b6 a9 bf e8 2a e8 3f cb 23 89 bf
       -0.09853697 -1.3258895 1.8138094 -1.0714048
000360 0b 22 4f 3e 7f 96 a7 3e 5e d6 2a bf 9d 0b db bf
       0.2022783 0.32732007 -0.6673335 -1.7112919
000370 55 9a f3 3f e3 46 16 3f e9 a9 af 3f c4 e1 08 bf
       1.9031473 0.58701915 1.3723727 -0.5346949
000380 97 7c c7 be ea e5 e4 3c af e9 98 bf 7a df 80 3f
       -0.38962242 0.027941663 -1.1946315 1.00682
000390 53 3a 03 40 19 80 42 be f7 d4 77 3f e2 1c 8c bd
       2.0504348 -0.18994178 0.96809334 -0.068414465
0003a0 29 53 b5 bf 8c b9 89 3f 22 b3 b6 3e 76 ce 05 be
       -1.4166003 1.075975 0.35683542 -0.1306704
0003b0 71 9d b8 bf b7 0b df bf 6d 85 e4 bf f8 f2 f2 3f
       -1.4423047 -1.742545 -1.7853218 1.8980398
0003c0 25 72 95 bf d4 8f 03 c0 a2 b5 14 40 eb b4 79 3f
       -1.1675459 -2.0556536 2.323586 0.97541684
0003d0 7c 9f 00 c0 92 38 1c 3e cd 99 72 bf 4a dd 1e bf
       -2.0097342 0.15255955 -0.9476593 -0.6205641
0003e0 65 61 25 3f f4 84 23 3e ed 14 05 3c f9 ad 36 40
       0.6460174 0.15968686 0.008122665 2.8543684
0003f0 c9 00 1f c0 42 91 10 40 3c 23 46 3f de ec db 3f
       -2.484423 2.2588658 0.77397513 1.7181661

embed_cp.weight f4 [620, 6]
000000 00 00 00 00 00 00 00 00 00 00 00 00 00 00 00 00
       0.0 0.0 0.0 0.0
000010 00 00 00 00 00 00 00 00 8f 9c fd 3d 09 ed c3 bd
       0.0 0.0 0.12383377 -0.09566695
000020 27 e2 42 c0 ad 24 99 bf b5 db 26 3f c3 3f 95 be
       -3.0450532 -1.1964318 0.65178996 -0.2915021
000030 5f b4 82 3f 08 b6 26 bd 7c 32 af be f4 9f 2c bf
       1.0211295 -0.040700942 -0.34218204 -0.6743157
000040 c2 7c 86 bf 21 0e 21 bf 58 9f a5 3f 4b 80 c2 bf
       -1.0506823 -0.62912184 1.2939253 -1.5195402
000050 71 c5 87 3f 84 2f cc be 8c 38 b9 3f 1c ce a9 3e
       1.0607129 -0.39880002 1.4470382 0.3316506
000060 21 3a 82 be ec 22 bc 3f 3b a0 d9 bf 13 63 6f bf
       -0.25434974 1.4698157 -1.7002023 -0.9351055
000070 20 d8 8c be 86 fc 48 bf 8c 2c 8f 3f 2e df 68 bf
       -0.2750864 -0.7851032 1.118547 -0.90965545
000080 3b a7 15 40 0b 84 31 be 5e 00 9f be cf 02 24 bf
       2.338332 -0.17335527 -0.31054968 -0.64066786
000090 84 46 9a 3f c9 a2 ed 3f 33 3d 27 3f 34 21 32 3e
       1.205277 1.8565303 0.6532776 0.17395478
0000a0 5c 47 f8 be d8 87 86 3e 40 a2 a5 bf c0 4e 82 bc
       -0.48491943 0.26275516 -1.294014 -0.015906692
0000b0 4e dd c2 3f 2b 9f 03 c0 f3 59 0c 40 8b 62 25 bf
       1.5223787 -2.0565898 2.19299 -0.6460349
0000c0 32 d1 d0 bf 26 76 c2 bf 21 34 28 be 1f db 97 3d
       -1.6313841 -1.5192306 -0.16426136 0.07414841
0000d0 68 36 8c 3d c7 84 0c 3e 30 f8 2b 3f 76 5b 13 be
       0.06846315 0.13722526 0.6717558 -0.14390358
0000e0 9a 88 8d 3d 3b 24 13 3f 21 41 46 bf 33 47 94 3b
       0.0691082 0.5747716 -0.7744313 0.004525089
0000f0 52 72 81 3f c9 7f a0 3f 5a fb 5d 3f 0d 56 4a 3f
       1.0113013 1.2538997 0.8671166 0.79037553
000100 de 4c 3d 3f ff a4 c2 bf 0b 63 8b 3f c3 8a a9 bf
       0.73945415 -1.5206603 1.08896 -1.3245472
000110 54 1a 05 bf 12 9d 14 bf 22 ec de 3e f0 b4 29 be
       -0.519933 -0.5805217 0.4353953 -0.16572928
000120 2d aa 2b be 0b 6c 40 bf d3 88 93 be 50 4f a9 bf
       -0.16764136 -0.7516486 -0.28815326 -1.3227329
000130 37 11 aa 3f ff 40 1f be 22 64 27 be c3 5e 1f be
       1.3286504 -0.15552138 -0.16346791 -0.15563492
000140 60 b2 0e bf 6c 5d 85 3f 92 99 bc bf 0b 20 80 3e
       -0.5574093 1.0419135 -1.4734366 0.25024447
000150 d9 6e a1 3f 8c b1 e2 bf c2 0d c7 3f 99 56 00 be
       1.2611953 -1.7710433 1.5551074 -0.12533034
000160 8a 3f fa 3f 27 f1 ce 3f 15 da ba 3f 7f 32 cc be
       1.955064 1.6167344 1.4597803 -0.39882275
000170 35 aa 32 3d 1e b9 43 40 e7 6d 8a bf e0 6b ab be
       0.043619353 3.0581737 -1.081479 -0.3348074
000180 26 9e 88 3f e1 9b 1d c0 04 d2 bb be c5 05 84 bf
       1.0673263 -2.462639 -0.36683667 -1.0314261
000190 7c ae 72 3f 47 fe 87 3e 53 5c 23 3f 08 2e 84 3f
       0.9479749 0.26561186 0.6381275 1.0326548
0001a0 b4 9d db 3e 16 cb ae 3d b3 5d a7 3f 9b 82 41 3f
       0.42893755 0.08534829 1.307547 0.75589913
0001b0 bd 68 d6 be ad 00 07 bf d6 e4 bd be 32 0b 27 3f
       -0.41876784 -0.52735406 -0.3708865 0.6525146
0001c0 64 f3 91 3e 26 02 cb 3e 59 66 01 3c f8 c0 91 bf
       0.28506005 0.39650077 0.007897937 -1.1387014
0001d0 a1 17 83 bf 3b e4 f6 be f5 60 e9 be 06 b4 33 3f
       -1.0241586 -0.48221 -0.45581785 0.7019657
0001e0 13 11 68 bf db e3 ce 3e 76 46 34 c0 98 1e 19 3f
       -0.90651053 0.40408215 -2.8168006 0.5981231
0001f0 f9 7c 00 3f b1 73 26 bf ba db fa 3d 1a e7 cf bf
       0.50190693 -0.6502028 0.12248941 -1.6242402
000200 ac 5b 3a 3e 92 32 fc bc 19 49 80 3f 8b 6d ed be
       0.18199033 -0.030785833 1.0022308 -0.46372637
000210 d1 33 09 c0 2f 64 9d 3f 87 e0 87 bf 6f 03 25 3d
       -2.1437876 1.2296199 -1.0615395 0.040286478
000220 fd 60 7a be 84 80 45 be 5c 8b ce 3e 06 81 71 bf
       -0.2445106 -0.19287306 0.40340698 -0.943375
000230 63 aa 45 3e 77 9e 78 3f 78 19 87 3f 93 6a ff be
       0.19303279 0.971168 1.0554647 -0.49885997
000240 14 7a 9c bf 45 38 4a 3d 46 b7 61 bf 96 2f 9e 3e
       -1.2224755 0.04937007 -0.8817028 0.3089568
000250 7b 66 e3 bf 39 17 ee 39 e9 bb 7f bf 47 b6 69 3e
       -1.776565 0.000454122 -0.99896103 0.2282344
000260 4c ad fc bf 30 84 a7 be 49 b6 41 be b2 73 ab 3e
       -1.9740386 -0.3271804 -0.18917193 0.33486706
000270 bc ca 9a 3f 9d 2d 78 3f 5d 2d 20 3f 78 30 c7 be
       1.209312 0.969446 0.6256922 -0.38904166
000280 24 fb f6 bf 99 ea 0f 3f 94 a2 0f bd 67 6b 54 3f
       -1.9295392 0.5621734 -0.035067156 0.8297638
000290 e5 ed e9 bd ce 42 19 be 23 ab d7 bd f2 c0 86 bf
       -0.11422328 -0.1496689 -0.105306886 -1.0527632
0002a0 cf dc 7b 3f 02 ee 7b 3f 4e a2 b1 bf 74 b0 73 3f
       0.983838 0.98410046 -1.3877656 0.9519112
0002b0 ac 7c a0 be fa 11 d5 3f ad f3 a2 3f df 32 47 be
       -0.31345117 1.6646111 1.2730614 -0.19453
0002c0 33 3e 37 be 83 af 93 bf 15 6d de be 8a 9f 48 bf
       -0.17894821 -1.1537937 -0.43442598 -0.7836844
0002d0 fd ff 79 bf 8c e6 a1 3f f8 2f a3 3f 80 b8 80 3f
       -0.9765623 1.2648482 1.2749014 1.0056305
0002e0 c1 95 aa bf d1 35 c9 bf ec 6e 0c 3f 24 ca e4 bd
       -1.3326951 -1.5719548 0.54856753 -0.11171368
0002f0 ae 67 61 3e d5 e7 0b 3e 47 51 66 3f 12 e1 aa 3f
       0.22012207 0.13662656 0.8996777 1.3349936
000300 c3 df 7d 3f a6 9b 9b 3e da 62 af 3e f0 57 8f 3f
       0.9916956 0.30392188 0.34255105 1.1198711
000310 71 a9 2a 3f 14 b6 e0 3f fd 06 c4 3d f3 af b2 3f
       0.666648 1.7555566 0.095716454 1.3959945
000320 9b af 19 bd e8 70 85 3d 72 4b 03 bf a7 78 e4 3e
       -0.037520986 0.06515676 -0.51286995 0.446233
000330 09 cf 10 40 6e b3 b7 be 57 3d 05 c0 72 25 36 3f
       2.2626364 -0.3587908 -2.081869 0.71150887
000340 c7 3c 2b be b7 24 2d 3d e1 00 c2 be f7 54 93 3c
       -0.16722403 0.042271342 -0.37891296 0.01798485
000350 bc 11 da bf 7c 3a 2e 3f 8b a0 b7 3f 54 3a 39 bf
       -1.7036662 0.6805799 1.4345869 -0.72354627
000360 6a f9 83 3e 92 fe 97 3f 8c b7 50 be 9d d1 35 3e
       0.25776225 1.1874564 -0.20382518 0.17755742
000370 16 8f ae 3e 7f 51 0a bf 7a 14 4b 3e e0 c4 eb 3e
       0.3409354 -0.54030603 0.1983203 0.4604864
000380 b5 de 1d 3f 9c f3 3a bf e7 d8 3a 3f 99 f3 7c 3f
       0.6166795 -0.7302797 0.72987217 0.988092
000390 fc 5e 17 bf 35 43 98 3e 01 a3 13 bf 62 ad 52 3e
       -0.5912931 0.29738775 -0.576706 0.20573953
0003a0 11 45 e8 bf b8 e0 e5 3e 1b 87 d8 3a bf b5 e4 3e
       -1.8146077 0.4489801 0.0016519757 0.4466991
0003b0 02 71 44 bf 27 21 17 bf 61 79 21 40 f0 7e f8 3e
       -0.76734936 -0.5903496 2.5230334 0.48534346
0003c0 ac c1 18 40 ec 59 2b 3e 39 56 3b bf 3f a5 f2 3e
       2.3868208 0.16733521 -0.7317844 0.47391698
0003d0 fb 8a 10 40 7a a3 b9 bf 53 57 4b bd 05 9f 76 3f
       2.2584827 -1.4503014 -0.049643826 0.96336395
0003e0 0f 42 1c bf 2a e7 31 bf 76 a4 e9 bf 96 68 6d bf
       -0.610383 -0.69493353 -1.8253314 -0.9273771
0003f0 05 f9 08 3f 24 3c 7c be 3d cf 10 3f 1a 59 44 3f
       0.53504974 -0.24632317 0.5656622 0.7669846

gru_dp_fw.decays f4 [7]
000000 25 bd b0 bb fa 4d c3 bb cf c0 8e bb c4 69 52 3e
       -0.0053936415 -0.0059602233 -0.0043564807 0.20548159
000010 11 29 c3 bb d2 9d d3 bb c4 84 c3 bb
       -0.005955823 -0.0064580226 -0.0059667546

gru_dp_fw.gru_cell.weight_ih f4 [21, 7]
000000 6d 15 e2 bd ca b3 86 be 0c e2 ef 3d 58 e1 83 3e
       -0.11039243 -0.26309043 0.11713037 0.2575786
000010 d3 ab 75 be 2c de 61 be 0c e4 84 3d d7 6a 9d bc
       -0.23991327 -0.22057408 0.06488809 -0.019215984
000020 70 87 b7 3e be 25 6c 3d 2c 07 c2 be c6 e1 8a be
       0.35845518 0.05765318 -0.37896097 -0.27125376
000030 be 2a 86 3d 57 bc 83 be 1c 06 14 3e 86 76 73 be
       0.06551121 -0.2572963 0.14455456 -0.23775682
000040 a4 0e 1c be 40 b7 11 3e 46 40 07 be 7f 4d 08 3c
       -0.1523996 0.1423006 -0.13208112 0.008319258
000050 81 d7 80 3d e5 3c f1 3d 8a ce 02 be 45 d6 5e bd
       0.06291104 0.11779193 -0.12774101 -0.054403562
000060 03 3c dd 3d 74 c1 39 ba 6d d6 8c 3e 34 1e 3a 3e
       0.10802462 -0.00070860167 0.27507344 0.18175584
000070 76 a4 e3 3e 36 ff ec 3e f7 3e 80 be a7 7f 1b 3e
       0.4446141 0.4628846 -0.25048038 0.15185414
000080 06 36 1f 3e f1 4b 01 bd 8f f8 e1 bd aa eb 94 be
       0.15547952 -0.031566564 -0.11033737 -0.29086047
000090 a1 fa 9f be 12 ee 5c 3e e9 7e 1f 3e 31 05 0c 3e
       -0.31245902 0.21575192 0.15575756 0.13673855
0000a0 9e b8 15 be 1b 79 db 3e 57 89 35 b9 73 df 8c be
       -0.14621207 0.42865834 -0.00017312668 -0.27514228
0000b0 b7 61 d2 3d 2b 7b 49 bc d3 9d 9d 3e 89 58 05 be
       0.10272544 -0.012297432 0.30784473 -0.13022055
0000c0 6d 56 b6 be 60 55 59 3e 04 68 f1 3e 1a 13 bb 3d
       -0.35612813 0.21223974 0.4714967 0.09134503
0000d0 34 43 d9 3d 14 cd e5 3e 1f 56 6f be e9 bd 32 be
       0.10608521 0.44883025 -0.23372696 -0.17455257
0000e0 ca f9 03 3f e9 b4 d9 3d b9 8c 09 be 1f e1 cb 3e
       0.5155302 0.10630209 -0.13432588 0.3982019
0000f0 e9 96 3a be a8 53 ea bd 1c 5a 63 3d ae 0d 25 3e
       -0.1822163 -0.114417374 0.055505857 0.161185
000100 3f 12 b1 bd 27 ed 32 3e 26 a8 3b 3e 45 20 0a 3e
       -0.08646058 0.17473279 0.18325862 0.13488872
000110 9b eb b5 be aa fc 98 be 85 12 06 3e 46 9e 77 3e
       -0.35531315 -0.29880267 0.13093002 0.2418147
000120 94 5c c8 bd 8d 39 83 3e 54 67 73 3e 55 3c 4c be
       -0.09783283 0.25629845 0.23769885 -0.1994489
000130 67 05 ad 3d b4 3c 8d 3d f2 80 8c 3d 44 fb 9a 3c
       0.08448296 0.06896344 0.06860532 0.01891864
000140 07 25 47 be cf 48 d9 bc fd f1 85 bd 84 6a 22 be
       -0.19447719 -0.026523976 -0.06540296 -0.15860945
000150 a2 5c 91 be 69 7e 22 be c2 62 16 be b1 d3 a5 3e
       -0.28390986 -0.15868534 -0.1468611 0.3238807
000160 b1 16 0e 3e 5d 2f b8 be ae a3 e6 3d fe d5 20 3e
       0.13875844 -0.35973635 0.11261688 0.15706632
000170 4a 8e fc 3d 1b 06 2a 3e be 13 af 3e 80 f2 2a be
       0.12331827 0.16603892 0.3419475 -0.16694069
000180 60 57 8d 3e 21 8f d7 3d 49 54 19 3e 38 07 68 3d
       0.27605724 0.105253465 0.14973558 0.05664751
000190 ad eb dd 3d 07 2c 9a 3e 3b 6c 80 3e 55 c8 13 be
       0.10835967 0.30111715 0.25082573 -0.1443189
0001a0 48 eb 90 be e3 8e 11 3e 81 3b 3b 3d d6 c5 c0 be
       -0.28304505 0.14214663 0.045711044 -0.37650937
0001b0 51 2f 9b 3e d8 64 93 be 8a 80 d4 be e6 1e 04 bf
       0.30309537 -0.28787875 -0.41504318 -0.5160965
0001c0 ed 86 93 bc f6 1f 9a 3d 2d bd b2 be 79 62 fb bb
       -0.018008674 0.07525627 -0.34909955 -0.007671651
0001d0 c6 59 9e bd 79 e4 4a be b3 20 d0 bd 83 9d 0b 3e
       -0.07731967 -0.19813718 -0.10162487 0.13634305
0001e0 86 85 b2 be d5 00 38 be 4c a3 6f bd fa 8f 26 be
       -0.34867495 -0.17969067 -0.05850534 -0.1626586
0001f0 d9 21 bb 3e 4a 98 ce 3d 7f 8f e5 3c fd 45 89 bd
       0.3654926 0.100876406 0.028022526 -0.06702802
000200 a9 6b f8 be fa 03 d5 be 08 79 34 3d c2 96 7d be
       -0.48519638 -0.41604596 0.044060737 -0.24764541
000210 92 96 a5 be c7 e4 36 be 88 c7 89 3e c0 a5 b9 be
       -0.3234144 -0.17860709 0.26910043 -0.3625927
000220 51 b9 02 3d 91 f8 42 3e ca 85 cc be ec f3 b5 3d
       0.031915013 0.19040133 -0.39945823 0.08884415
000230 c0 93 9a be 6a d1 c3 3d 42 25 ff 3d 2c b6 b2 be
       -0.3019085 0.09561427 0.12458278 -0.3490461
000240 86 7b 20 be 38 d0 42 bd 0d dc ef 3d
       -0.1567212 -0.047561854 0.11711893

gru_dp_fw.gru_cell.weight_hh f4 [21, 7]
000000 82 c8 3f bf 6a f6 ba bd 40 28 3b bd 3f 44 ba bd
       -0.74915326 -0.09129031 -0.045692682 -0.09095048
000010 3a a2 11 3f e6 d9 5b be 38 0f 4d 3f c6 53 93 3d
       0.56888163 -0.2146984 0.80101347 0.07193713
000020 d7 6c a5 3e a3 1f 2c 3e e3 97 f0 be f2 6e 99 3e
       0.323096 0.16808943 -0.4699088 0.29967457
000030 b4 3a d2 be 32 08 ea 3e 1b 3c e9 be 1d d4 fa bb
       -0.41060412 0.45709378 -0.4555367 -0.0076546804
000040 da b8 90 be 6d 87 14 be c2 43 17 3f 95 17 71 be
       -0.2826603 -0.14504786 0.59087765 -0.23544152
000050 a3 05 63 3e b8 58 1e bd 2f 97 5f 3d 95 bd 0d 3e
       0.22170119 -0.038658828 0.05458754 0.13841851
000060 ac e8 e1 be 98 cb dd 3e f0 c9 02 bf 62 28 3b 3e
       -0.44122827 0.43319392 -0.5108938 0.18277124
000070 31 80 17 be 7d 75 21 3e f4 63 ae 3e 93 ed ab bd
       -0.14794995 0.15767474 0.34060633 -0.08394923
000080 29 01 d2 bd 12 d5 11 3e dc e4 c1 3e 7e 1d d0 3e
       -0.102541275 0.14241436 0.37869918 0.406475
000090 85 b1 26 3e 0a 01 b4 3e fd a9 b5 3e fa 6c 29 be
       0.16278656 0.35157043 0.35481253 -0.16545478
0000a0 28 30 a4 3e b7 24 94 be c7 78 ec be dd 76 29 be
       0.3206799 -0.2893426 -0.46185896 -0.16549249
0000b0 8c 73 ba 3d 35 b5 1f bf db 01 7c 3d 8c 4d c2 be
       0.0910407 -0.62385875 0.061525207 -0.3794979
0000c0 63 1d 40 3f c7 07 08 bf 5a 8a 2a 3d 90 e4 33 bc
       0.7504484 -0.5313687 0.04163585 -0.0109797865
0000d0 ec 57 c1 bc 18 11 b4 3e 3e 96 c4 3c 32 7d 45 3d
       -0.023601495 0.35169291 0.023997422 0.0482151
0000e0 27 3c 99 3e c5 1c 93 3e 8e d9 93 3e 86 2e 9e be
       0.29928705 0.28732887 0.2887692 -0.3089487
0000f0 29 80 aa be b8 a5 5a 3e 77 1c 43 3d 3f d9 97 be
       -0.33300903 0.21352279 0.047634568 -0.29657933
000100 fe 3a bd 3e f6 9b 9c 3c 3e d1 06 3e 06 c0 7e 3e
       0.3695907 0.019117337 0.13165757 0.24877939
000110 db aa a3 3e 85 77 11 bf ab f9 a1 3d f8 71 bf be
       0.3196629 -0.56823 0.079089485 -0.3739164
000120 79 65 e9 be de 1a 88 be 1c 85 09 be 8b 88 c1 3d
       -0.4558523 -0.26582998 -0.13429683 0.09449872
000130 7e 66 25 3d 85 52 2f be 59 7e e5 3e 2f d2 9a 3e
       0.040380947 -0.17121322 0.44822958 0.30238482
000140 77 36 a2 3d ba 97 68 3d e1 10 af bd b9 5e fd be
       0.079205446 0.056785323 -0.08548141 -0.4948633
000150 6a 9f d2 bc 6a 10 c5 be 45 0e bb 3d 99 04 48 3d
       -0.02571078 -0.38489085 0.09133581 0.04883251
000160 83 79 a7 3d ae 74 eb 3d d6 89 2e bf a7 0c eb be
       0.081774734 0.11496864 -0.6817907 -0.4590809
000170 db 4f 8c be 1e cb a6 be c6 60 29 be 78 e3 75 be
       -0.27404675 -0.3257684 -0.16540822 -0.24012554
000180 e2 b7 99 bd b1 7b 44 3e 04 ed 20 3e e4 0c 9f 3e
       -0.07505776 0.1918781 0.15715414 0.31064522
000190 8a 04 8e be 77 aa b1 3e 1d 3c 24 bf 01 f6 a8 3d
       -0.27737838 0.34700367 -0.64154226 0.082500465
0001a0 23 92 33 bf 74 08 0e bf 6a 8c 70 be 96 07 af 3e
       -0.7014486 -0.5548165 -0.23491064 0.34185475
0001b0 62 9b 11 bf 01 af f5 3e ae 6b c1 bd 02 07 2f 3e
       -0.5687772 0.4798508 -0.094443664 0.17092517
0001c0 97 14 0a bf be 36 b1 3e 76 e5 27 be 04 2f 04 bf
       -0.5393767 0.34612077 -0.16396126 -0.5163424
0001d0 2f 13 b7 3e 61 8b 1e be bf 9a 22 3f aa 85 ee 3e
       0.35756823 -0.15482856 0.63517374 0.46586353
0001e0 ed df 5e be 78 0c a2 3d 47 59 b7 3e 3c c8 23 bf
       -0.21765108 0.079125345 0.358103 -0.6397741
0001f0 aa 8f 88 bd 73 6d 17 bf 5e f9 f4 bd 2b 95 44 be
       -0.06668027 -0.5915138 -0.119616255 -0.19197528
000200 3f 69 b8 bc 1f 44 b9 bc 92 ee 27 bd f2 70 69 bd
       -0.022511123 -0.02261549 -0.040999003 -0.05699248
000210 45 50 32 3f af a2 04 be 2e 0e 14 bd 7d 12 15 3e
       0.6965373 -0.12952684 -0.036146335 0.14557834
000220 3f e5 51 3d 58 e9 71 3e ad 35 70 3e 36 f0 b3 3d
       0.051244017 0.2362417 0.23457976 0.08786051
000230 2a f9 bd be ed 2a 1d 3e d8 14 f5 3d 58 2f 8e be
       -0.3710416 0.15348406 0.11966866 -0.27770495
000240 e4 a4 ad 3e 8c 76 13 bf b4 7a 3f 3f
       0.33914864 -0.57602763 0.74796605

gru_dp_fw.gru_cell.bias_ih f4 [21]
000000 32 fd 9e 3e 47 96 c6 3e 3b a9 08 3f 0c b9 96 3e
       0.31052548 0.38786528 0.53383225 0.29438055
000010 f1 91 85 3d d5 89 61 be 36 23 b2 3e e6 23 b4 3e
       0.06521977 -0.22025235 0.3479249 0.35183638
000020 9f 66 d7 3c 78 b6 e5 bd 61 ca 77 3d ad 59 b5 3e
       0.02629405 -0.11216444 0.060495738 0.3541998
000030 ce ad df be 86 7d 36 3f 6c c3 c6 3c aa 97 6d be
       -0.4368729 0.71285284 0.024263106 -0.23202386
000040 c9 ae 9a be 27 9e 84 bb 32 c6 78 3e f6 32 99 be
       -0.30211475 -0.0040471735 0.24294356 -0.29921693
000050 7b fd c9 3e
       0.39451203

gru_dp_fw.gru_cell.bias_hh f4 [21]
000000 f2 ae 8b 3e af 1c 55 3e ad 79 8f 3e e3 18 e2 3e
       0.2728191 0.20811723 0.2802252 0.44159612
000010 8b 74 47 3d f1 30 3d 3e 73 f9 02 3f e9 68 82 3e
       0.04869513 0.18475701 0.5116188 0.25470665
000020 2c 1a 8a be 06 3b 34 be fc 4f ab 3d 2f 8b b2 3e
       -0.26973093 -0.1760064 0.08364865 0.34871814
000030 bd 3d 4e be fc af 13 3f d6 69 3d be 48 e0 05 3e
       -0.20140739 0.57690406 -0.18497404 0.13073838
000040 08 04 8a be 2e 93 2b 3d 7c 52 99 3e 4c c9 b9 be
       -0.269562 0.04188841 0.29945743 -0.3628639
000050 1b a4 84 3e
       0.25906453

gru_cp_fw.decays f4 [6]
000000 e0 cb e0 6f 2f 23 92 bb e0 cb e0 6f 17 09 91 bb
       1.3914222e+29 -0.0044597606 1.3914222e+29 -0.0044261324
000010 b2 73 6c ba b9 30 03 bc
       -0.00090199255 -0.008007222

gru_cp_fw.gru_cell.weight_ih f4 [18, 6]
000000 3d f9 71 3d 18 0b fb 3e 20 f0 3f 3e ba e7 a3 bd
       0.059075583 0.490319 0.18743944 -0.08003183
000010 16 5b 83 be f7 b2 57 3e c4 59 d9 be 2d 50 9d 3e
       -0.2565543 0.21064363 -0.42451298 0.30725232
000020 c9 4a 9e bd da 89 3c be 93 dd fa be 35 a4 c2 3d
       -0.07729108 -0.18411961 -0.48997173 0.09503976
000030 c2 d1 99 be bf 88 35 be f7 a8 a3 be 8e e5 6e 3e
       -0.30042845 -0.17727946 -0.31964847 0.23329756
000040 ad 65 33 be d7 9b 91 3e 99 00 63 be f7 a3 8e be
       -0.17519255 0.2843921 -0.22168197 -0.2785947
000050 d5 ae 47 be c7 10 1f be eb d4 86 be 39 b9 2d be
       -0.19500287 -0.15533744 -0.2633432 -0.16965188
000060 fa 82 ff bd 4d a7 ae bd bd d8 0b be a5 d7 52 bd
       -0.12476154 -0.08528004 -0.13656898 -0.051475186
000070 9f e7 3f 3e ac b3 ce be 6c f9 0c 3f 0a 46 a8 3e
       0.187407 -0.40371454 0.5506809 0.32865936
000080 11 46 7f 3a d7 79 05 be fc 83 8e bd 2e 66 23 3d
       0.0009737919 -0.1303476 -0.06958768 0.039892368
000090 56 a8 8c be a7 22 b5 3e 3b c7 6f 3e 92 ad 80 be
       -0.2747218 0.35378 0.23415844 -0.25132424
0000a0 a2 87 be 3d 27 fa 32 3e ef 61 b3 3d d7 fa bd be
       0.09303214 0.17478238 0.08758914 -0.37105438
0000b0 28 bb 38 be 1c 23 60 bd 5b 04 87 3e d0 a8 c3 be
       -0.18040144 -0.054720983 0.2637051 -0.3821473
0000c0 3b 74 bc 3e de 0d d3 3e 98 2a 51 3e d4 2c 87 be
       0.36807427 0.41221517 0.20426404 -0.2640139
0000d0 57 10 96 be d0 bd 7e 3d e0 97 10 be 0b d3 19 3e
       -0.2930934 0.062192738 -0.14120436 0.15021913
0000e0 ca d4 a1 3e 61 b6 4c be 31 f0 4c be f3 1e 3c be
       0.31607658 -0.19991447 -0.20013501 -0.18371181
0000f0 37 49 04 bc b5 c6 92 3e 5f 69 cc 3d 49 62 5f be
       -0.008074096 0.28667226 0.099810354 -0.21814837
000100 79 1f fe bd 67 5b 0e 3e a5 53 8f 3c bb 09 b7 be
       -0.12408347 0.13902055 0.01749594 -0.3574961
000110 bb 25 8a 3e 77 95 09 3f 61 aa de bd 6a 33 f4 be
       0.2698191 0.5374369 -0.10872341 -0.47695476
000120 ed b2 ac bd 09 5c 18 be ef 99 bb be 80 16 bc be
       -0.08432565 -0.14878859 -0.3664088 -0.36735916
000130 14 21 b9 be 32 30 cf bc ed fb 8f be 9f 23 bb be
       -0.3615805 -0.025291536 -0.28121892 -0.36550614
000140 bd 81 d1 bb 7c a3 13 3e d4 7b d5 bd 74 25 1b be
       -0.00639364 0.14417833 -0.10424009 -0.15151006
000150 83 36 cc be 11 b7 01 3f 67 b2 c5 be 4b 2a 98 be
       -0.3988534 0.5066996 -0.38612673 -0.29719767
000160 d1 c9 d5 be 08 85 5c 3d ff b5 96 3e bd 8d e0 3d
       -0.41755536 0.053837806 0.29435727 0.109645344
000170 39 6d 9e 3e c4 96 e9 3e a9 0b f2 3e d2 18 39 3e
       0.30942705 0.45622838 0.4727452 0.18075874
000180 7f ba 0b be 74 28 06 be ce 10 c9 bd 43 5a 12 be
       -0.13645361 -0.13101369 -0.09817658 -0.14292245
000190 27 d5 a9 bd 2a 67 38 3e 5b 98 37 3e 9a af b1 ba
       -0.08292609 0.18008104 0.17929213 -0.0013556362
0001a0 7e ad 68 be ac c3 99 3e 7e 05 9d 3e 1b db 4f 3e
       -0.22722432 0.30032098 0.30668253 0.20298426

gru_cp_fw.gru_cell.weight_hh f4 [18, 6]
000000 21 e9 04 be 31 78 ba bb fc 80 16 be 2e 06 bb bd
       -0.12979557 -0.0056905975 -0.14697641 -0.09132038
000010 3c c4 72 3c a7 4a ff bd 73 1b 2a be b6 17 c7 3e
       0.014817294 -0.12465411 -0.16612034 0.38885278
000020 7e 0d 1a be 5b 8d b0 3d 0a 4a 3b be ad 53 b2 3d
       -0.1504421 0.086207114 -0.18289962 0.08707366
000030 68 ea e5 3e 13 54 b0 3e dc 42 8b 3e e8 81 3f bd
       0.449054 0.34439144 0.27199447 -0.046754748
000040 ac 19 bf 3a ff d6 f8 bd d7 4c 92 3e ac bc c0 bd
       0.0014579794 -0.12150382 0.2857425 -0.09410986
000050 45 76 e7 3e f3 e0 a7 be 76 88 f9 3b d3 56 be 3e
       0.4520742 -0.3278881 0.0076151444 0.37175617
000060 07 ab 87 bd df 6e e1 3e c0 65 54 3e f0 af 12 be
       -0.06624418 0.440299 0.2074194 -0.14324927
000070 8b 08 57 3e e2 d8 77 3e 43 66 a5 bd 71 09 91 3e
       0.20999353 0.24203828 -0.080761455 0.28327516
000080 e7 66 64 3b b8 40 6e be fa 15 91 3e 7c 9e a8 3e
       0.0034851374 -0.23266876 0.2833708 0.32933414
000090 67 0d 9f 3e 5f f1 22 be af 32 41 be 72 46 84 bb
       0.31064913 -0.15912388 -0.1886699 -0.004036718
0000a0 ce de d9 be f3 70 11 bf a0 e5 89 3d 9d 71 d1 3e
       -0.425528 -0.5681297 0.067332506 0.40906993
0000b0 92 05 44 be e9 2e d6 be 28 3d db bc 51 af ac 3e
       -0.1914275 -0.41832665 -0.02676256 0.33727506
0000c0 f0 86 ed bd 27 bf 4d bd 86 0b 11 3e 24 9d ac 3d
       -0.11598003 -0.050231125 0.14164552 0.0842841
0000d0 61 97 15 bf ca c3 83 be ae 1b 2d 3e 6b 47 83 3e
       -0.5843411 -0.25735313 0.1690509 0.25640425
0000e0 ed 8b cd be 37 da 18 3e 7d 91 cc 3e 04 e3 8f be
       -0.40145817 0.14926992 0.3995475 -0.28102887
0000f0 13 5f 29 3e 05 52 79 be a9 01 e9 3d e6 75 19 bc
       0.16540174 -0.24347694 0.1137727 -0.009366488
000100 31 9b 8a 3d 20 a7 c2 be 74 14 60 3e 8f d7 77 3d
       0.06767882 -0.3801813 0.21882802 0.060508307
000110 db db 8f be 28 f1 0a 3e a9 24 16 3e df 55 c9 bd
       -0.28097424 0.13568556 0.14662422 -0.09830832
000120 3f 77 a1 3d 45 61 a9 3e d9 35 27 3f 51 b7 ad be
       0.078840725 0.33082023 0.6531654 -0.33928922
000130 2b aa 05 3e f4 20 98 bd ef 3c 1e 3f 5a 7b 3e be
       0.13053195 -0.0742816 0.6181173 -0.18601742
000140 ad 40 cc 3e 22 3d ff be 1c 12 ef 3e 34 3d 08 be
       0.39893094 -0.49851328 0.46693504 -0.13304597
000150 af fe 13 be fe ef 90 3e c7 cf 9b 3e 14 7a 06 bf
       -0.14452623 0.283081 0.3043196 -0.52530026
000160 74 1b 35 be 5e 05 d6 3d 64 ba d0 bc ae ad 98 be
       -0.17686254 0.104502425 -0.025479503 -0.29820007
000170 f3 21 12 bf 00 b8 d5 3e 48 40 92 be d4 eb d2 3e
       -0.5708305 0.41741943 -0.28564668 0.41195548
000180 99 4c 37 bd 7a 1f b5 3e 4f fe 2d 3f 59 91 22 bf
       -0.044750784 0.35375577 0.6796617 -0.6350303
000190 bd d7 51 bd b3 f7 26 3d ae 1b 65 3c 61 7a ea bd
       -0.051231135 0.040763568 0.01398365 -0.11449123
0001a0 aa 75 93 be 3a d9 0c 3f 84 95 b7 be 81 77 cf be
       -0.28800708 0.5501896 -0.3585626 -0.40520862

gru_cp_fw.gru_cell.bias_ih f4 [18]
000000 4d 5a 10 be df 98 29 3f 45 fd b1 3c 22 f7 23 3e
       -0.14096947 0.6624889 0.021727214 0.16012242
000010 2d 4b 0a 3f b5 55 10 3f 8a a7 1a 3e d7 aa 13 3e
       0.5402096 0.5638078 0.15102974 0.14420639
000020 81 21 5f 3e 48 c3 b4 3e 88 f8 e9 be 13 ac 58 3d
       0.21790124 0.35305238 -0.45697427 0.052898478
000030 64 03 97 bd 84 c1 a2 3e ea 2b ab 3e 0f 73 95 be
       -0.073736936 0.31788266 0.3343194 -0.29189345
000040 7f 94 4d 3e 91 9c 9c 3e
       0.20076178 0.305882

gru_cp_fw.gru_cell.bias_hh f4 [18]
000000 f6 05 80 be cd 71 83 3e f1 7a 74 be 04 5a e5 3e
       -0.25004548 0.2567276 -0.23875023 0.4479524
000010 16 ea a3 3e c6 e5 8c 3e de d6 90 bd 2f f9 6d be
       0.3201453 0.27519053 -0.07072233 -0.23239587
000020 02 89 4f be 61 3e fe bd 5c 6f 80 3e f5 14 e1 be
       -0.20267108 -0.124142416 0.2508496 -0.439613
000030 5c b7 97 3e eb 15 e2 3d d7 46 a5 3e 96 b7 aa be
       0.2963208 0.11039337 0.3228061 -0.3334319
000040 9e 8c a2 3d 48 62 1c 3e
       0.07936977 0.15271866

gru_dp_bw.decays f4 [7]
000000 00 cd e0 6f be 66 ce bb 5c c7 af bb 14 54 08 bb
       1.3914494e+29 -0.006298869 -0.0053643417 -0.0020802068
000010 6e 74 65 72 9b 80 b7 bb 63 6f 6e 66
       4.5448206e+30 -0.0056000478 2.8149449e+23

gru_dp_bw.gru_cell.weight_ih f4 [21, 7]
000000 db 3d 4c be 80 d5 92 bd a0 67 99 3e 03 3d 86 3c
       -0.19945471 -0.07169628 0.29961872 0.016386515
000010 a8 b6 01 be 49 dd 6a 3c 8c 92 ec bc 56 0d a5 be
       -0.12667334 0.014334985 -0.028878473 -0.32236737
000020 21 51 25 be 1a f9 02 be c7 e0 2a bd 08 84 08 3b
       -0.1614423 -0.12790337 -0.04171827 0.002083065
000030 25 b0 c8 3e f6 23 a1 3e 02 4f 37 3d ed 80 0d be
       0.39196888 0.3147275 0.044753082 -0.13818713
000040 86 4f 16 3d 3e 8b be 3d de c3 b8 be 4c 32 af 3d
       0.036696933 0.09303902 -0.36086935 0.08554515
000050 a4 d8 83 3c dd 49 98 3e 88 fd d5 bd 6e 2a 12 bd
       0.016094513 0.29743853 -0.10448748 -0.035684995
000060 17 f4 42 be 76 07 60 be d0 23 c6 be 84 69 a3 bd
       -0.19038425 -0.21877846 -0.38699198 -0.0797911
000070 ea 9a 17 be 74 64 76 3b 91 bc 29 3e 91 d4 a4 be
       -0.14805189 0.0037596496 0.16575839 -0.32193425
000080 56 ad 9a 3d d3 f7 2e be d4 91 bc 3e 34 e0 00 3e
       0.075525925 -0.17086725 0.36830008 0.12585527
000090 2a 4e 4d 3e 2a c6 b2 bb be 43 8d be 3b e1 f2 be
       0.20049348 -0.005455752 -0.27590746 -0.47437462
0000a0 d0 02 02 be f3 8a 28 be 3e 36 2d 3e 42 72 88 3d
       -0.12696385 -0.16459255 0.16915223 0.06662418
0000b0 13 a3 8a be 09 41 06 3e ae c9 0a bf 1c f2 6b 3e
       -0.2707754 0.13110746 -0.5421399 0.23041576
0000c0 bc aa 41 3d 66 c7 b2 3d 88 51 bb be e6 4c 92 be
       0.047281966 0.087294385 -0.3658564 -0.28574294
0000d0 70 12 19 3e 76 bc de bd 90 6f 95 be f2 e4 6f bd
       0.1494844 -0.1087579 -0.29186678 -0.05856795
0000e0 26 19 e3 be 22 61 92 bd dd 5f a7 3e e8 b2 a4 3e
       -0.44355124 -0.07147433 0.32690325 0.32167745
0000f0 73 e6 9c 3e fb 4a a2 3d 5c d0 8a 3e 21 64 8e 3e
       0.3064457 0.07924458 0.2711209 0.27810767
000100 36 8b 90 3e 89 2c 19 be 68 45 a2 3e e3 fd 0e 3e
       0.2823121 -0.14958395 0.31693578 0.13964038
000110 2c 7d e8 bd 7c 43 51 bc 36 c7 54 3e 55 d4 29 3d
       -0.11352 -0.012772437 0.20779118 0.04146226
000120 37 b1 86 39 1e fe 78 3d 9b 79 42 3d 56 f8 81 3e
       0.00025690507 0.06078922 0.047479253 0.25384778
000130 59 ad 6d bc d3 3f ab 3e 3d f5 85 be 69 73 98 bd
       -0.014506661 0.33447132 -0.26163664 -0.07443888
000140 32 25 bb be a5 e9 c1 bc b2 d3 ea 3d c3 33 e5 bd
       -0.36551815 -0.02367098 0.11466159 -0.111915134
000150 c9 53 52 be e1 0e b8 be 0d 13 29 be 84 2b d4 3c
       -0.20539774 -0.35948852 -0.16511174 0.025899656
000160 8d cb a5 3d a7 f8 b8 3e 27 fa 33 be 0b 28 f1 3d
       0.08095465 0.36127207 -0.17575894 0.11775216
000170 a5 bc 15 be 9d 57 17 3e 21 14 1c be a8 91 0e 3e
       -0.14622743 0.14779516 -0.15242054 0.13922751
000180 cf 9f 83 3e 8e 1a a5 3e 82 7f b6 bd d2 56 1b 3d
       0.25707862 0.32246822 -0.08911039 0.037924595
000190 77 9e 46 be 52 d0 52 3e 92 19 99 be 82 40 79 be
       -0.19396387 0.2058728 -0.2990232 -0.24341014
0001a0 fd 25 5c bd 7d 6c 35 3f 3f d0 9b bc e4 ef 03 bf
       -0.053747166 0.70868665 -0.019020198 -0.5153792
0001b0 d2 16 da be a4 e2 86 be a3 25 92 be f8 f5 b7 be
       -0.42595536 -0.26344788 -0.2854434 -0.35929847
0001c0 8e fb d4 bd ec 9e 9d be 3c 50 88 3e b9 e5 3c be
       -0.10399543 -0.3078531 0.26623714 -0.18447007
0001d0 24 31 f0 3c 95 63 db 3c 2f da 88 3e d0 9c 88 3e
       0.029320307 0.026780883 0.2672896 0.26682138
0001e0 4d 81 d1 bd a8 b4 e3 3e d9 d9 bd 3d ab 37 14 bd
       -0.1022974 0.44473767 0.09270067 -0.0361859
0001f0 8c 47 bb 3e d0 7c 49 be 10 e1 02 be 7a b7 be be
       0.36578023 -0.19676518 -0.12781167 -0.37249357
000200 ff 94 be 3e 9f 89 ef 3d 5e 86 81 3e b4 c4 ef bb
       0.3722305 0.11696171 0.25297827 -0.00731715
000210 bd c9 93 3e 36 1e 2f 3d 7d b2 2a be df 98 8c be
       0.28864852 0.04275342 -0.1666965 -0.2746038
000220 00 31 06 be 33 5f 6e bb bd e0 2f be a0 1b b1 3e
       -0.1310463 -0.003637266 -0.17175575 0.3459139
000230 a3 16 8e be 69 99 a4 3e 20 5a d9 3e d7 d3 b4 3a
       -0.27751645 0.32148293 0.42451572 0.0013796043
000240 41 b5 82 be 4b 8a 27 be 2b 83 b9 be
       -0.2552891 -0.16361348 -0.36232886

gru_dp_bw.gru_cell.weight_hh f4 [21, 7]
000000 48 a7 28 bf 59 79 40 3d 59 d6 8b 3d ae 3d ed 3e
       -0.6588025 0.046990726 0.06827993 0.4633612
000010 89 70 27 3f 7f 5d 18 be 13 00 ce be 5d c9 1c 3e
       0.6540609 -0.14879416 -0.40234432 0.15311189
000020 e1 a3 cf be 40 d2 e6 3d 85 2c 45 3e bc 84 0a be
       -0.40554717 0.11270571 0.19255264 -0.13527197
000030 08 f2 19 3f 9e f7 dd bc 81 b3 20 3e 1c b8 f5 bd
       0.60134935 -0.027095612 0.15693475 -0.11998007
000040 0f 29 86 3d 07 79 46 3f c2 26 a9 3e b1 09 0c 3e
       0.065508 0.77528423 0.33037382 0.13675572
000050 10 2d b6 3d b0 23 58 3e 9a ea 72 be 53 3a 57 3e
       0.08895314 0.21107364 -0.23722306 0.21018343
000060 2c 37 4c bd 1a 48 68 3e 1a 68 ed 3e 5d 01 27 3e
       -0.049857304 0.22683755 0.46368486 0.16309114
000070 ab b9 c7 3d 04 a8 05 bf 66 9c 1a 3f de 63 9a 3c
       0.0975221 -0.52209496 0.60394895 0.018846449
000080 18 c9 c2 3e 9f 50 28 3f 76 5e 4e 3e c3 56 39 bd
       0.38044047 0.6574802 0.20153221 -0.045248758
000090 9c 4d 34 be ea cd 00 3f 26 ad 1e bd 27 fb 17 3f
       -0.1760773 0.503142 -0.038739346 0.59367603
0000a0 a0 24 80 3e ab d4 62 bc f3 2b b0 be e1 b8 bd bd
       0.25027943 -0.013844649 -0.3440853 -0.092637785
0000b0 8b 37 b8 bd 61 f0 e4 3d 18 a3 5a 3e d2 02 f5 3e
       -0.08994969 0.11178661 0.21351278 0.47853714
0000c0 17 f2 7a bc 80 94 87 3d a1 2f 1e bf ec 50 01 be
       -0.015316508 0.06620121 -0.61791426 -0.12628525
0000d0 49 3b 39 3f 23 83 3d 3e 78 9e 62 bd a8 c9 71 be
       0.72356087 0.18507056 -0.05532691 -0.23612082
0000e0 6b 4b 38 be 58 4b d6 3e 1e 6b f4 3e fb e9 27 bd
       -0.1799752 0.41854358 0.47737974 -0.040994626
0000f0 c8 17 f5 bd da 4b 3b 3f ba 9d 37 3e 7f 1a 43 3e
       -0.119674265 0.73162615 0.17931262 0.19053076
000100 66 70 d1 bd ed cb 4b 3e a4 3f 18 3e 5d d3 86 be
       -0.102265164 0.1990201 0.14868027 -0.26333132
000110 1a 43 fd 3e 56 0f b0 be 0f 6c 4a be a8 af 67 3c
       0.49465257 -0.343867 -0.19767784 0.014141001
000120 86 fd 04 be 44 82 d0 3e 51 fa 25 bd 68 9c 19 3f
       -0.12987337 0.40724385 -0.040521923 0.6000428
000130 63 37 0f bf 4c f6 31 be b3 7e 90 be 8e 05 81 3d
       -0.5594389 -0.17379111 -0.28221664 0.062998876
000140 39 e0 ad 3e f3 f3 3d be c7 4d c9 3d 56 27 99 be
       0.3396013 -0.1855009 0.09829288 -0.29912823
000150 36 7e d8 be fd 7b 4d 3e 17 6a 40 3e 00 d2 3b 3f
       -0.4228379 0.20066829 0.1879047 0.7336731
000160 c3 44 32 be 19 e4 9e 3d d1 10 28 3e 2a af 96 3e
       -0.17409043 0.0775835 0.16412665 0.29430515
000170 ca c8 97 be b8 2f 86 3e ec c4 c2 3e c4 e3 81 3b
       -0.29645377 0.26208282 0.38040864 0.0039639194
000180 86 35 c7 3e 4a 71 73 3e 8e 67 6b 3e 82 20 b1 be
       0.38908023 0.23773685 0.22988722 -0.34595114
000190 f0 4b 85 be fc 63 d6 be a8 77 ed be d2 80 ab 3e
       -0.26034498 -0.41873157 -0.46380353 0.3349672
0001a0 c2 3f 5a be 4d ff 68 be 46 ab 63 3f a6 40 3c 3e
       -0.21313384 -0.2275364 0.8893322 0.18384036
0001b0 e7 19 11 be 0d 87 83 be 8b d4 d4 be 8a 82 ab bd
       -0.14170037 -0.25688973 -0.41568407 -0.08374508
0001c0 b0 06 e9 bd 2c 07 65 bf 90 75 60 3d 3a 37 81 3e
       -0.11378229 -0.8946407 0.054799616 0.25237447
0001d0 5a 3a 8b 3e 8d f6 f2 ba 9f e7 47 be a1 ae a4 3e
       0.27192956 -0.0018536613 -0.1952195 0.3216448
0001e0 e5 39 40 bf ca aa eb bd f2 ea a1 3e 46 6a 2a 3f
       -0.7508834 -0.11507185 0.31624562 0.6656841
0001f0 c8 04 b9 bd 4f a1 b7 be 33 b0 ea 3e 2f 55 4e bf
       -0.09034115 -0.35865256 0.45837554 -0.8059873
000200 8f 48 c8 3d ac d0 22 3f 5d 7e 0f 3f ce d9 1f be
       0.097794645 0.6359966 0.5605219 -0.1561043
000210 86 ea 82 3d 35 fb ad 3e 6c b9 01 bf 2d 2b 0d 3e
       0.06392388 0.33980718 -0.50673556 0.13786002
000220 12 6a 16 3f d2 eb 30 3e 8c eb ed bd df ed fb be
       0.587556 0.17277458 -0.116171926 -0.4920492
000230 57 84 a9 bd c0 a5 2c 3f 16 72 29 bd 90 15 2a be
       -0.08277195 0.67440414 -0.041368566 -0.16609788
000240 5b 43 f0 bd 37 a8 c1 be d6 9d ab 3e
       -0.11731597 -0.3782365 0.33518857

gru_dp_bw.gru_cell.bias_ih f4 [21]
000000 5c e6 4c 3e c8 21 e3 3d ef ed 10 3f 84 79 0b 3f
       0.2000975 0.11090428 0.5661306 0.54482293
000010 28 9c b8 3e 2e 2f 4f 3f 42 36 38 3f 35 23 79 be
       0.36056638 0.80931365 0.7195779 -0.24329837
000020 c5 7a 89 3f b2 f1 ae 3d 5f 6b 67 3e 39 d4 9a bd
       1.0740591 0.085421935 0.22599553 -0.075600095
000030 b5 87 da 3e 55 af e0 3e 60 37 e7 3d f9 0f 31 be
       0.4268166 0.43883768 0.11289859 -0.1729125
000040 d8 d8 36 be c6 2f 93 3e 08 bc 9c be bc a3 98 bc
       -0.17856157 0.28747386 -0.30612206 -0.018632762
000050 ef d2 52 3e
       0.20588277

gru_dp_bw.gru_cell.bias_hh f4 [21]
000000 37 50 91 3e 14 31 66 3c 8c 12 de 3e 7b 71 14 3f
       0.28381512 0.014049787 0.43373525 0.5798566
000010 1a cb 8e 3c e4 d5 9f 3e e3 00 98 3e ea 13 7f be
       0.01743083 0.31217873 0.29688177 -0.2490994
000020 ad f0 28 3f 7a 5c 48 3d 3e 1e c1 3e 9e c2 a3 bc
       0.6599224 0.048916318 0.37718385 -0.019990262
000030 f9 ce 9b 3e 53 d5 cd 3e 46 f6 f2 be ef 8b 8e be
       0.30431345 0.40201816 -0.47453517 -0.27841136
000040 b4 e5 98 3e 95 be 75 be f5 d1 b2 3e 00 fd 0b 3e
       0.2986275 -0.23998483 0.3492581 0.1367073
000050 1b 23 9f bd
       -0.07770368

gru_cp_bw.decays f4 [6]
000000 00 b6 e2 ba 1a 3e af bb 45 50 b7 bb f9 1a be bb
       -0.0017296672 -0.0053479793 -0.0055942857 -0.0058015552
000010 72 56 bb ba 39 8e 25 bb
       -0.001429273 -0.0025261773

gru_cp_bw.gru_cell.weight_ih f4 [18, 6]
000000 c9 ee 95 bc f8 54 6b bd 56 08 16 3d ab ae b8 3e
       -0.018302338 -0.05745408 0.036629044 0.3607076
000010 69 d8 aa 3e b9 3c c2 3e 05 e3 1a 3f c1 09 a5 be
       0.33368233 0.37936953 0.60502654 -0.32234004
000020 f8 f1 44 3e c8 0a 37 3b ae 36 a1 3e ae 13 34 3e
       0.19232929 0.002793001 0.3148703 0.17585632
000030 23 99 e1 be ed 65 be 3c 82 72 77 3c 9e 0a f5 3e
       -0.44062147 0.023241961 0.015102984 0.47859663
000040 a4 7e 04 3e 3e 4c fe bd e5 a7 bd bb 66 57 20 3e
       0.12938935 -0.12416886 -0.005787837 0.1565834
000050 ec 9c e4 be e3 52 d8 3d e9 11 da be f6 e1 ed 3c
       -0.44650972 0.105626844 -0.4259179 0.02903841
000060 0b c0 a2 be 38 cc b5 be 6f 44 9f bd 29 79 e2 bd
       -0.31787142 -0.3550737 -0.077767245 -0.11058266
000070 5f b1 20 be 82 26 5c 3e 8a 58 c2 be cf d5 4e 3e
       -0.15692662 0.21499065 -0.37958175 0.20198749
000080 6a cd 2e be bc 8a dc 3e 1a 21 94 be 1b e8 b9 be
       -0.17070547 0.43074596 -0.28931504 -0.36309895
000090 2f 56 37 be 9c 20 0d 3e 67 78 49 3e e4 ce f7 bd
       -0.1790397 0.1378197 0.19674836 -0.12100008
0000a0 93 18 d3 3c 8e a9 eb be 99 47 c7 bd c9 40 b1 3e
       0.025768554 -0.46027797 -0.09730453 0.3461974
0000b0 94 bf 06 be 4e ae 72 3d 80 c0 fc be 09 f1 fe 3c
       -0.13159019 0.05924826 -0.49365616 0.031120794
0000c0 1b df 27 3f de 0a dd bd 9f 5e 40 3e ce 3c ab be
       0.65574807 -0.107930884 0.18786095 -0.33444828
0000d0 e8 c8 2f be 7f 7a 8f 3d 2f c9 2c bd 80 e6 a2 bd
       -0.17166483 0.07005786 -0.04218405 -0.07954121
0000e0 16 63 ba be 5e 3a a5 3e d3 c4 15 3e 76 5e b7 be
       -0.36403722 0.32271093 0.14625864 -0.35814255
0000f0 1d 29 5c 3e b1 01 72 3e cf 81 6c be 0b 34 8a be
       0.21500058 0.23633458 -0.23096393 -0.2699283
000100 99 aa 3a 3e 5d 53 cd be a4 50 45 be dc eb 45 be
       0.1822914 -0.40102664 -0.19269043 -0.19328254
000110 8b 47 6f 3d 73 f4 ec be 72 2d d0 3e 09 25 9b 3d
       0.058417838 -0.4628025 0.40659672 0.07575423
000120 85 79 8c be 28 8c c5 3e 14 04 99 be f7 72 a6 bd
       -0.27436462 0.38583493 -0.29885924 -0.081273966
000130 5c 19 84 be b5 ce 70 be f5 98 a1 3e d1 c8 e2 3e
       -0.25800598 -0.23516352 0.3156201 0.44293836
000140 4f c1 3b 3e db 09 c2 3e c7 da 90 bd a9 d5 65 bc
       0.1833546 0.37898144 -0.070729785 -0.014027991
000150 cd 26 8b 3e 71 a4 74 be 1c 8f 23 be 99 43 17 3d
       0.2717804 -0.23890854 -0.1597256 0.0369297
000160 09 f4 9c be d7 19 d0 be 2b 3b 8d be c8 6f 4d 3c
       -0.30654934 -0.40644714 -0.27584204 0.012538858
000170 c1 47 eb bd a7 03 b7 be a9 64 22 be 11 fe 7e be
       -0.11488295 -0.35744974 -0.15858711 -0.24901606
000180 14 df f3 3e aa 65 6f be 49 20 c7 3e 9b fe 60 3e
       0.47631133 -0.23378626 0.3889182 0.21972124
000190 e5 0c 6b 3e 6d 3c 61 bc 66 10 9b 3e 69 b9 bd bc
       0.22954138 -0.013747317 0.3028595 -0.0231597
0001a0 d8 89 01 3e 2a 53 1c bd 48 cd 92 3e 46 0f 97 3c
       0.1265024 -0.03816525 0.28672242 0.0184399

gru_cp_bw.gru_cell.weight_hh f4 [18, 6]
000000 d5 74 d4 3e 00 dd e1 be 75 05 11 3d 2a c8 3c be
       0.41495386 -0.44113922 0.035405595 -0.18435732
000010 25 0d 0e be b4 3c 78 3e 6c a7 ad 3e 63 ac 43 bd
       -0.13872202 0.24241906 0.33916795 -0.047771823
000020 f2 ce e1 be e1 91 e5 bd f4 69 64 3d 83 60 4c 3e
       -0.441032 -0.11209465 0.055765107 0.19958691
000030 ca 3b 8a be 44 e4 2e be 33 bd f9 3e 84 1b b2 3e
       -0.2699874 -0.17079264 0.4877716 0.34786618
000040 c1 68 0e 3d a1 d4 e5 be 2f d4 0d 3f 68 83 4e bc
       0.03476787 -0.44888785 0.5540189 -0.012604572
000050 33 97 a8 be e0 ff d0 3e 00 7a 88 bd f0 73 9e be
       -0.32927856 0.40820217 -0.06663895 -0.30947828
000060 cd 4f 42 3e 68 b9 02 3d e6 db 80 3e 9b 79 14 3f
       0.18975754 0.0319151 0.2516777 0.57998055
000070 95 83 c2 bd df 5a e4 bc 08 e4 7f 3e 6e 98 b6 be
       -0.094977535 -0.027875362 0.24989331 -0.3566317
000080 f9 46 c5 3e d5 e0 56 3e df 88 24 bf 65 e8 1f bf
       0.3853071 0.20984204 -0.6427135 -0.6246398
000090 ca 94 b2 3e ef d9 b1 bd 03 5b 9e 3e 29 2d dd bd
       0.34879142 -0.08684146 0.3092881 -0.10799629
0000a0 e6 70 92 3e 27 ef 14 3b c6 26 18 3e 03 6c d9 be
       0.2860176 0.0022725554 0.14858541 -0.4246522
0000b0 78 b6 8d be 97 7d 04 3f 30 51 33 be 27 0d a7 be
       -0.27678275 0.51754135 -0.1751144 -0.32627222
0000c0 96 3f 2a bd b2 76 4c bc 2f f8 eb 3d 38 66 16 3d
       -0.041564547 -0.012479471 0.11521947 0.036718577
0000d0 d7 32 e0 bd 6d ac 6c be aa 3d b5 3c 07 09 4e be
       -0.10947197 -0.2311265 0.02212413 -0.20120631
0000e0 0d a2 d1 3e df b2 fb 3d 53 93 9f 3e 28 bc ec bd
       0.40943947 0.12289976 0.31167087 -0.115593255
0000f0 f8 65 37 be 88 ab 4b 3d 28 38 7a be 97 a7 84 3e
       -0.17909992 0.04972413 -0.24435484 0.2590911
000100 e5 3f 50 be fe ec 5b be 41 ba 6e 3d 66 48 8e be
       -0.20336874 -0.21477124 0.058283094 -0.2778961
000110 64 dc 10 3f 59 93 25 3c e7 5f 72 be 31 f6 e6 3b
       0.5658629 0.010105931 -0.23669396 0.0070483913
000120 b0 a7 b0 3e 7d bc bf be 1e 2f e5 3d f5 24 b3 3e
       0.34502935 -0.37448493 0.111906275 0.34989133
000130 ea 7b 88 3d f0 62 77 be 8b ea 21 bf 9b ae 35 bd
       0.0666426 -0.24158835 -0.6324851 -0.04435597
000140 27 4d 86 3e 5b 01 31 3e f2 90 a3 3e 49 af cf 3e
       0.26230738 0.17285673 0.31946522 0.4056342
000150 54 ed 02 bf 68 d2 80 be 24 9e 35 be b7 c3 7c be
       -0.51143384 -0.25160527 -0.17736107 -0.24684034
000160 ea ee 4f 3e e4 fe b7 bd 61 05 2b 3f cb 56 8f bd
       0.20305982 -0.089841634 0.6680508 -0.06998976
000170 b7 3e 16 3e af 48 e4 3e c6 c2 eb b9 da 51 6f be
       0.14672361 0.44586703 -0.0004496781 -0.23371068
000180 51 e3 c7 be 9e 0b af be f4 9f dd be b9 cc 02 bf
       -0.39040616 -0.3418855 -0.43286097 -0.5109363
000190 24 b8 03 3f 8d 8e fa 3e 01 c5 a9 be 9c d2 ab 3e
       0.5145285 0.48936883 -0.33158115 0.3355912
0001a0 09 0c 43 3e 29 45 fc be 6d e0 de 3e 70 50 dd 3e
       0.1904756 -0.49271515 0.43530598 0.4322543

gru_cp_bw.gru_cell.bias_ih f4 [18]
000000 39 8f 80 3e 11 d1 ff 3e 63 2c dd 3e 39 8a ee bd
       0.2510927 0.49964193 0.43197927 -0.11647458
000010 69 2d a3 3e de 4e 49 3e e5 3d a6 be 2f 66 14 bd
       0.31870583 0.19658992 -0.32469097 -0.036230262
000020 4d 0d c5 bd 94 89 cc bd f7 99 91 3e f5 cd 9d 3e
       -0.096216775 -0.099871784 0.28437778 0.30821195
000030 d4 7a 9f 3d a1 c7 3a 3e de 29 31 3e f6 d4 63 3e
       0.077870995 0.18240215 0.17301127 0.22249207
000040 32 32 88 3e f0 56 b2 3e
       0.26600796 0.34831953

gru_cp_bw.gru_cell.bias_hh f4 [18]
000000 2f d8 c3 bd 33 99 77 bd da 9d 30 3e ad 2f ed 3d
       -0.09562718 -0.060448837 0.17247716 0.11581359
000010 11 34 15 be f1 8e 08 be b0 a7 01 3e 9b 30 34 3e
       -0.14570643 -0.13335778 0.12661624 0.17596667
000020 75 a3 8a be 78 d6 69 3d 51 ef 57 bd c6 66 69 3e
       -0.27077833 0.0570893 -0.052718464 0.22793111
000030 b5 0f 95 bd 14 45 61 bd 07 e9 ac bd 51 fe b4 3d
       -0.072783865 -0.05499752 -0.08442884 0.088375695
000040 a6 a6 a4 bd 08 96 b8 be
       -0.08039598 -0.36051965

attention_dp.context f4 [14]
000000 8e 71 94 3f bb 91 0f 3f 54 03 ae 3f cf 9b a1 be
       1.1597154 0.5608174 1.3594766 -0.31564185
000010 14 5e 90 be da ee 51 bf 77 50 cf 3f a5 28 67 bd
       -0.28196776 -0.82005084 1.6196431 -0.056435246
000020 13 e5 2d 3f f1 9e 1d bf ee 86 b7 3f 27 ab d3 3d
       0.67927665 -0.6157065 1.4338052 0.10335379
000030 ef 1d 4b 3f 84 10 bd 3e
       0.7934255 0.36926663
