ablation1_min_count/min_count_0/birnn_time_decay/final_model.pt (torch, 486857 bytes, 25 tensors)

embed_dp.weight f4 [8364, 11]
0.0 0.0 0.0 0.0 0.0 0.0 0.0 0.0
0.0 0.0 0.0 0.6816344 -0.18583022 -0.9532675 1.6130099 0.25104207
1.6863972 0.5727197 -2.2812407 -0.61203307 -0.39830777 -1.4011283 -1.7109282 0.7713387
-0.6819022 0.23757932 0.6956736 0.30710414 -0.21447413 -0.3437814 0.100998394 0.43169555
-0.2318254 0.27997243 0.28641376 0.016261434 1.1924124 -1.4719188 -0.11573699 1.7779198
-1.394318 0.49890277 -0.5006474 -1.4587169 0.22327836 0.569964 0.33129555 0.09363144
-2.8433397 -1.5433372 -0.6228524 0.3523861 -0.8803105 -0.42890397 -0.3368048 -1.1536192
0.6350786 -0.10422168 -0.5982096 -0.5163044 0.33207807 0.3807588 0.80988383 0.5585691
1.1860749 0.7157371 -0.08154024 0.69954914 -0.033810373 -2.0292575 0.58498126 1.9177215
0.23025931 0.112574 -1.2174959 -1.2245412 -1.2816259 -1.4725426 -0.7446342 -1.8689582
-0.819959 -0.12145663 0.015557415 -0.17485015 0.14615892 2.0904248 -0.04354297 -1.271737
0.2133109 -0.48699856 -0.0788516 1.2208171 0.7532894 -0.069594085 0.14062475 0.32720074
0.56068265 0.7430415 0.26596716 0.5179568 1.3742284 -2.1082447 -0.22544686 0.47436634
0.67059606 -1.0970191 1.6177299 -0.961143 0.80936843 -0.27225682 0.7397927 -1.4443012
-1.2000612 1.9453754 0.69721293 -0.55531293 -0.4682708 -1.5677115 0.3111427 0.06375633
-0.36367118 0.30733466 -0.6028548 -1.7592722 -1.6748884 -1.2696329 1.1533331 0.49632698
1.8400183 0.50899625 -0.8887696 -0.12748991 1.4922535 0.30641815 -2.6102374 0.81528664
-0.90507716 -0.20907259 0.40265086 -0.36114058 -1.0189713 -1.899815 0.62434626 -0.85488516
1.3596727 -0.22716278 0.09697655 -0.27884924 -0.68976605 -0.25078517 -1.0137043 -0.6189809
0.6835655 -2.1282275 -0.71529436 -0.5074403 0.17935292 -1.5643631 0.051966835 0.26098013
0.4060765 0.33340502 -1.7956725 0.8400508 0.5940421 0.4029671 -0.79441315 0.42007467
-0.98103565 -0.5369308 1.0574441 0.7231085 -0.3026559 -1.3087126 -1.6632224 1.765216
0.49888074 -0.20499462 -0.084884994 -0.7605599 -0.92085946 0.5510876 -0.80614 0.5106771
-0.44161847 0.08864153 -0.46547487 0.330146 0.050272614 -1.3534728 0.9068169 0.4845738
-0.35399607 -0.7970009 -0.3572295 -0.66159946 1.380065 -1.7564362 -1.3778627 0.32862082
-0.027424524 0.122534476 -0.56496036 0.028857224 -0.19947185 1.4282626 0.34994823 -0.045683853
-0.9924308 0.27713194 -0.32538593 -1.2038896 -1.318204 0.45897588 0.81191266 0.62587684
-1.5338986 0.115603276 1.1515042 0.82096463 -0.7192309 -2.701723 -0.0024506177 -1.3274632
-0.520165 0.34867033 -1.5526586 2.0661018 -0.3106348 0.94882464 -0.14169638 0.900008
-0.089703225 0.35835826 -0.72468406 -1.1008375 0.30832964 0.7896923 0.9373745 -0.006458762
-0.6177149 0.5843286 0.108388126 1.2162195 -0.7013082 -1.009975 0.63675714 -0.16433048
-0.4256058 0.46207458 -0.8873365 -0.19018191 -0.63640517 -0.039875705 -0.5419162 0.27531427
00000000: 0000 0000 0000 0000 0000 0000 0000 0000
00000010: 0000 0000 0000 0000 0000 0000 0000 0000
00000020: 0000 0000 0000 0000 0000 0000 987f 2e3f
00000030: 474a 3ebe 5709 74bf 1c77 ce3f 9688 803e
00000040: dddb d73f c29d 123f d9ff 11c0 33ae 1cbf
00000050: ffee cbbe 2c58 b3bf b2ff dabf 7476 453f
00000060: 2591 2ebf fe47 733e aa17 323f c13c 9d3e
00000070: 1b9f 5bbe 1e04 b0be 3fd8 ce3d 3307 dd3e
00000080: a363 6dbe 8c58 8f3e d3a4 923e b336 853c
00000090: f8a0 983f d667 bcbf 8407 edbd e092 e33f
000000a0: 0379 b2bf 2f70 ff3e 6e2a 00bf 3cb7 babf
000000b0: 15a3 643e 29e9 113f 929f a93e d7c1 bf3d
000000c0: 47f9 35c0 138c c5bf 4173 1fbf f36b b43e
000000d0: 075c 61bf 4d99 dbbe ae71 acbe cba9 93bf
000000e0: 8394 223f 2d72 d5bd 4424 19bf 862c 04bf
000000f0: 2306 aa3e d1f2 c23e 8c54 4f3f 62fe 0e3f
00000100: 4dd1 973f 8c3a 373f 92fe a6bd a715 333f
00000110: bf7c 0abd 5bdf 01c0 55c1 153f e677 f53f
00000120: 19c9 6b3e 338d e63d e8d6 9bbf c4bd 9cbf
00000130: 510c a4bf 477c bcbf 59a0 3ebf 063a efbf
00000140: d5e8 51bf 41be f8bd 87e4 7e3c eb0b 33be
00000150: afaa 153e 85c9 0540 1d5a 32bd 47c8 a2bf
00000160: 2c6e 5a3e e057 f9be f37c a1bd bc43 9c3f
00000170: 93d7 403f 5887 8ebd efff 0f3e db86 a73e
00000180: e688 0f3f f837 3e3f d92c 883e d198 043f
00000190: b7e6 af3f 7bed 06c0 8bdb 66be 25e0 f23e
000001a0: 2fac 2b3f 1f6b 8cbf c611 cf3f 780d 76bf
000001b0: c532 4f3f 3f65 8bbe 0e63 3d3f ddde b8bf
000001c0: 9b9b 99bf 1002 f93f 8c7c 323f fd28 0ebf
000001d0: 31c1 efbe c5aa c8bf 194e 9f3e ae92 823d
000001e0: 1c33 babe f85a 9d3e b154 1abf d52f e1bf
000001f0: be62 d6bf 5583 a2bf 6ba0 933f 921e fe3e
00000200: b885 eb3f 944d 023f 6886 63bf b78c 02be
00000210: 2a02 bf3f d7e2 9c3e 210e 27c0 a0b6 503f
00000220: 23b3 67bf 2017 56be 4128 ce3e 6be7 b8be
00000230: a76d 82bf 232d f3bf 28d5 1f3f c1d9 5abf
00000240: c109 ae3f 5c9d 68be a49b c63d 54c5 8ebe
00000250: 8294 30bf ea66 80be 10c1 81bf 8875 1ebf
00000260: 26fe 2e3f e134 08c0 881d 37bf 9ce7 01bf
00000270: 4ba8 373e 0d3d c8bf 2ddb 543d 309f 853e
00000280: 42e9 cf3e 10b4 aa3e 99d8 e5bf 920d 573f
00000290: 2513 183f b451 ce3e a95e 4bbf 0714 d73e
000002a0: 2725 7bbf 4c74 09bf 545a 873f a31d 393f
000002b0: b7f5 9abe e583 a7bf 79e4 d4bf 99f2 e13f
000002c0: 4c6d ff3e 1cea 51be 2fd8 adbd 0eb4 42bf
000002d0: 72bd 6bbf 1414 0d3f 315f 4ebf bcbb 023f
000002e0: d11b e2be b189 b53d b952 eebe e608 a93e
000002f0: a8ea 4d3d 993e adbf 2725 683f 0f1a f83e
00000300: f93e b5be 4008 4cbf c9e6 b6be 955e 29bf
00000310: f8a5 b03f e7d2 e0bf ce5d b0bf fd40 a83e
00000320: 65a9 e0bc 5bf3 fa3d 3ea1 10bf fc65 ec3c
00000330: 5942 4cbe 4fd1 b63f 6a2c b33e fe1e 3bbd
00000340: f20f 7ebf 3de4 8d3e fc98 a6be 0e19 9abf
00000350: e9ba a8bf e3fe ea3e 82d9 4f3f 7739 203f
00000360: ca56 c4bf 69c1 ec3d 7d64 933f bd2a 523f
00000370: 841f 38bf 08e9 2cc0 8b9a 20bb 50ea a9bf
00000380: 8929 05bf eb84 b23e 84bd c6bf 033b 0440
00000390: 860b 9fbe 2ce6 723f db18 11be ed66 663f
000003a0: 53b6 b7bd bc7a b73e e584 39bf 3ee8 8cbf
000003b0: 62dd 9d3e 4629 4a3f c6f7 6f3f 06a4 d3bb
000003c0: 9022 1ebf 8f96 153f 98fa dd3d 15ad 9b3f
000003d0: ef88 33bf dc46 81bf 8402 233f 4046 28be
000003e0: 01e9 d9be 0a95 ec3e 7c28 63bf 0cbf 42be
000003f0: 73eb 22bf b554 23bd 05bb 0abf fef5 8c3e

embed_cp.weight f4 [2759, 9]
0.0 0.0 0.0 0.0 0.0 0.0 0.0 0.0
0.0 -1.2601197 0.03290185 1.0953215 -0.45970014 -0.22616547 0.8342758 -0.26824868
0.87384075 0.1592918 0.17588638 1.1206149 1.046914 0.03828447 0.31179678 1.2436446
0.09956561 1.4849199 -1.3722469 0.47038552 1.7094976 0.77362126 1.6675855 0.014056529
0.19087541 0.21152258 -1.0840354 -1.6102558 1.8720698 1.571101 -0.6892096 0.24941017
-0.8081706 -0.17761439 0.18801163 1.8258462 0.8053181 0.45360315 0.56456476 -0.18798174
1.1642859 -0.123982474 -0.85063064 1.0295854 1.1731901 0.88043576 -0.053883195 1.7937579
1.3820068 1.4021456 -0.7554786 -0.4227398 -0.31581104 -1.3158863 0.4853842 -0.2670135
1.2920134 0.5219477 0.031325374 -0.27321717 -2.0632384 -0.5318528 0.59939766 1.5033679
0.3344472 -0.50335073 -0.28775045 0.6682253 -0.48685145 0.83215076 0.83268285 -0.26804048
0.13710302 0.68436265 0.677899 -0.59607905 -2.297329 0.33231795 1.7361312 0.1579391
-1.2299119 -0.17608564 -0.49785712 -0.27483708 -0.4398262 0.084834985 0.3016033 -0.25391048
0.6597459 -1.3371086 0.121681355 1.1337095 1.0849414 -0.61824816 0.54529494 -2.4893303
-1.3913215 -1.7425138 0.2677396 -0.90483266 -0.7162912 -1.9025389 1.0824022 -2.7347908
-1.0137966 -0.3966705 0.14107357 -0.9207407 -0.30671254 -0.41105294 -0.34314695 0.75402653
0.8243144 1.5843447 -0.88732046 -0.737037 -1.0257185 0.9161609 0.09788548 -1.2058575
-0.9629559 -0.32177725 0.5327589 -0.84057 -0.9773252 0.88511527 0.031152496 1.8845485
-0.945189 0.018536843 0.30445537 -0.87876904 2.007163 -0.34325105 -0.46843925 0.14857267
2.658333 1.0174454 2.456251 -0.83287185 0.397081 -0.7627223 0.22799446 2.2489655
0.9618515 1.0858489 1.3394248 1.1833334 0.11056741 -0.8389009 0.96883357 -0.9311986
1.1384608 -2.8592072 0.63960814 0.057556503 1.9422356 0.7940031 1.8458322 -1.1972287
3.4901311 -0.07908844 -2.3731074 -0.75213206 -1.3599153 0.11567049 0.2009449 0.4455482
0.11640081 -0.55103016 -0.025920438 -1.6291208 0.65479916 -0.68973905 0.5259475 0.71854156
0.34548703 -0.60297847 -0.8198996 1.2577941 -0.13347416 0.19634008 1.0661176 -1.003757
1.4670023 -0.15415092 -1.114466 0.343966 0.57507247 -0.3738682 0.5754035 -0.39852887
1.809923 -1.0986416 -1.6268293 -0.35824877 0.44979054 -0.14621988 -0.74167997 1.4730977
0.19560151 0.3640129 -0.40373623 0.6168724 1.6580662 -0.3486364 -3.1772795 -1.1755921
0.08758511 1.5122914 2.2692695 0.4356057 -0.99617374 -0.35572708 1.1057099 0.36054966
1.099401 -0.1513849 1.1753107 0.6653099 -0.7387262 1.2527816 -0.40175578 -0.3998537
-1.1328753 -0.14027363 0.6487989 0.15290035 -0.6491365 0.8235413 -0.09297843 -1.4443395
0.12824182 0.15042192 0.48101333 0.7634704 -0.18374644 1.7691481 0.0060775117 -0.558061
1.2549852 0.846917 0.47683877 -0.5414353 -0.5245603 0.14965647 -0.5181845 -1.4205245
00000000: 0000 0000 0000 0000 0000 0000 0000 0000
00000010: 0000 0000 0000 0000 0000 0000 0000 0000
00000020: 0000 0000 9a4b a1bf 17c4 063d 7f33 8c3f
00000030: d15d ebbe ec97 67be 1993 553f e457 89be
00000040: 07b4 5f3f 641d 233e 8f1b 343e 4f70 8f3f
00000050: 4701 863f 2dd0 1c3d d4a3 9f3e bf2f 9f3f
00000060: 0ee9 cb3d db11 be3f c9a5 afbf 5fd6 f03e
00000070: d1d0 da3f 0b0c 463f 7173 d53f 5b4d 663c
00000080: d874 433e 6099 583e acc1 8abf dd1c cebf
00000090: fc9f ef3f d619 c93f 0a70 30bf 6165 7f3e
000000a0: 45e4 4ebf 8ce0 35be 1f86 403e 54b5 e93f
000000b0: 5429 4e3f ac3e e83e 5187 103f 497e 40be
000000c0: 5207 953f 86ea fdbd eec2 59bf 74c9 833f
000000d0: 182b 963f 3d64 613f a0b4 5cbd dc99 e53f
000000e0: 99e5 b03f 8279 b33f 0c67 41bf 5a71 d8be
000000f0: fcb1 a1be f66e a8bf 4784 f83e feb5 88be
00000100: b260 a53f 5d9e 053f 094f 003d 1fe3 8bbe
00000110: 190c 04c0 8127 08bf 2072 193f 5c6e c03f
00000120: aa3c ab3e 98db 00bf 0754 93be d010 2b3f
00000130: 9844 f9be d507 553f b42a 553f 9a3c 89be
00000140: bc64 0c3e 6432 2f3f ca8a 2d3f a398 18bf
00000150: 7007 13c0 9425 aa3e 8c39 de3f caba 213e
00000160: c16d 9dbf cb4f 34be 21e7 febe 72b7 8cbe
00000170: e630 e1be f7bd ad3d bf6b 9a3e 8e00 82be
00000180: 1be5 283f 6026 abbf 1334 f93d 651d 913f
00000190: 5cdf 8a3f 8345 1ebf 7398 0b3f 3051 1fc0
000001a0: d316 b2bf b10a dfbf 2a15 893e 1da3 67bf
000001b0: dc5e 37bf 6586 f3bf 288c 8a3f d006 2fc0
000001c0: 16c4 81bf 6518 cbbe 9775 103e aab5 6bbf
000001d0: 6d09 9dbe 8875 d2be f5b0 afbe e207 413f
000001e0: 4506 533f cfcb ca3f 6f27 63bf 75ae 3cbf
000001f0: be4a 83bf 8589 6a3f 2f78 c83d 8a59 9abf
00000200: 4784 76bf fdbf a4be e362 083f 982f 57bf
00000210: fc31 7abf ea96 623f 8533 ff3c e338 f13f
00000220: e8f7 71bf 94da 973c 93e1 9b3e 02f7 60bf
00000230: 5c75 0040 9abe afbe 45d7 efbe 6f23 183e
00000240: 2122 2a40 a73b 823f 3733 1d40 1737 55bf
00000250: 334e cb3e c541 43bf 6177 693e 0def 0f40
00000260: e63b 763f 19fd 8a3f 4672 ab3f 7877 973f
00000270: 2b71 e23d 36c2 56bf 7a05 783f 0863 6ebf
00000280: 15b9 913f 40fd 36c0 5cbd 233f 5ec0 6b3d
00000290: 2d9b f83f ca43 4b3f 3b44 ec3f ca3e 99bf
000002a0: 4f5e 5f40 1ff9 a1bd fee0 17c0 ba8b 40bf
000002b0: b411 aebf a6e4 ec3d 80c4 4d3e e51e e43e
000002c0: 8c63 ee3d 5010 0dbf 1957 d4bc 0887 d0bf
000002d0: eba0 273f bd92 30bf 7fa4 063f 57f2 373f
000002e0: ade3 b03e cc5c 1abf f1e4 51bf 66ff a03f
000002f0: 73ad 08be 600d 493e 8b76 883f 1c7b 80bf
00000300: bbc6 bb3f bdd9 1dbe d2a6 8ebf 501c b03e
00000310: f337 133f a76b bfbe a54d 133f fa0b ccbe
00000320: 8fab e73f 4aa0 8cbf f13b d0bf 626c b7be
00000330: f24a e63e aaba 15be bdde 3dbf 778e bc3f
00000340: c34b 483e e65f ba3e 84b6 cebe 59eb 1d3f
00000350: 833b d43f 7880 b2be 8c58 4bc0 cd79 96bf
00000360: d25f b33d c492 c13f b63b 1140 b607 df3e
00000370: 3e05 7fbf dc21 b6be e787 8d3f f799 b83e
00000380: 2cb9 8c3f a504 1bbe 9570 963f c051 2a3f
00000390: 291d 3dbf 265b a03f efb2 cdbe a0b9 ccbe
000003a0: 0f02 91bf e4a3 0fbe af17 263f e991 1c3e
000003b0: cf2d 26bf 9ad3 523f 7a6b bebd 1ee0 b8bf
000003c0: d351 033e 3408 1a3e 6147 f63e cc72 433f
000003d0: 0728 3cbe 7273 e23f dd25 c73b 16dd 0ebf
000003e0: 5ba3 a03f 8dcf 583f 3624 f43e 819b 0abf
000003f0: 9549 06bf 8c3f 193e bda7 04bf bfd3 b5bf

gru_dp_fw.decays f4 [11]
-1.7824155e-33 -5.478225e-33 2.0199119e-34 2.71406e-33 -1.8768963e-32 4.6359173e-32 1.1832651e-34 1.1566859e-32
-1.7194301e-33 2.0492399e-33 -7.4436086e-33
00000000: c913 1489 7b8e e389 053f 8607 ac79 6109
00000010: 76e8 c28a e9b5 700b 6d48 1d07 f93b 700a
00000020: 3cd8 0e89 833e 2a09 0399 1a8a

gru_dp_fw.gru_cell.weight_ih f4 [33, 11]
-0.0019100445 0.17525345 0.24134654 0.26404592 0.054150466 -0.050337926 0.027196487 -0.016651724
0.022655455 -0.01667329 0.289584 -0.22409795 0.18404946 -0.024862748 0.14919445 -0.069359906
0.2667342 -0.049541034 -0.23621318 0.1866579 0.19025113 -0.2620169 0.17060283 -0.26213202
0.08377066 -0.1412006 -0.17959483 0.20045766 0.19449897 0.19032268 0.017636597 -0.10555141
-0.11093868 -0.14225398 -0.14346886 -0.10018548 0.019780701 0.108955674 0.28113934 0.27566293
-0.15115525 0.27587816 0.14226289 -0.09005392 -0.0022118576 -0.07011051 -0.1952689 0.13498886
0.20791644 -0.09496887 -0.25629288 0.24439242 0.2794046 -0.05787265 -0.27997398 0.026885904
0.13266501 0.17353459 -0.18090214 0.09476266 0.29881153 -0.0765398 0.10139913 -0.094401
0.00077924324 -0.06315975 -0.066900834 0.09142676 0.26262018 0.09502609 0.11205072 0.2720198
-0.2478001 0.09600582 0.17952359 -0.2377306 -0.084492356 -0.18534505 -0.16893476 0.20903696
0.048771534 0.2891862 0.27770215 0.1848292 -0.16877685 0.10702201 -0.22089188 -0.12113045
0.018469071 0.051269855 -0.1218322 0.13833325 -0.124208786 -0.04979289 0.19499502 -0.22539255
0.250833 0.22479057 0.2748592 0.26633063 -0.11979319 -0.25357088 0.03545855 0.14667891
-0.17649493 -0.094173126 -0.14100425 0.15151209 0.19564126 -0.1621273 -0.05731219 -0.28344017
-0.072696924 -0.24581195 -0.05725594 0.26359722 0.09589106 0.09052678 0.23307 0.13520338
-0.019020688 -0.26076034 -0.12013749 0.29585084 -0.16265894 -0.12605223 -0.03060104 -0.23123924
0.26771238 -0.24914505 0.28651255 0.14202398 0.054398008 -0.23689193 0.29351315 -0.25569493
0.053061683 -0.15910597 -0.012871028 -0.1745351 -0.09410056 0.23419249 -0.011826705 0.10995629
-0.15006036 -0.06539447 -0.24190488 -0.014916614 0.13976377 0.08192395 0.14001401 0.15934424
0.27788594 -0.2781613 0.23988022 0.24579315 0.11815064 -0.120583035 0.13142289 -0.11222393
0.27286923 0.22528835 -0.11152599 0.19487263 -0.29522485 0.2951678 -0.039390747 -0.2886859
0.080374986 0.17281649 0.18868168 0.003438842 0.10584589 0.09257621 -0.0018519966 0.17261863
-0.2381789 -0.28314736 0.19560051 -0.26880297 -0.2109971 -0.03464358 0.123019464 -0.16121152
-0.24996017 0.24944822 0.18449533 0.2594614 -0.09399517 -0.040414654 0.20268303 0.18492894
-0.26254797 -0.1662798 -0.2359366 0.071736135 -0.15622644 0.22543108 0.25388375 0.25481445
0.20081364 -0.019302445 0.24730211 0.15247683 -0.21248353 0.14881572 0.2932525 0.2666878
0.2777433 0.02531588 0.03706261 0.076825544 -0.011857975 -0.1477392 0.045817524 0.067180544
0.03454632 -0.079376884 -0.014606138 -0.11523297 -0.2458387 -0.14981379 0.26424742 0.27172157
-0.28403884 0.21889597 -0.012546859 -0.1319408 0.04452466 -0.00063644187 -0.15351865 0.032470506
0.0091413 -0.2842229 -0.20409006 -0.08267221 0.19688101 -0.04689168 0.2483726 0.2307484
-0.300463 -0.033311713 0.11996205 -0.1342889 -0.21227585 0.15084629 0.14142528 0.14085336
0.025023952 0.23084792 -0.10595612 0.055070896 -0.046484265 0.017644899 0.07475685 -0.1962299
00000000: 755a faba a475 333e 8c23 773e 0731 873e
00000010: e1cc 5d3d 242f 4ebd 2bcb de3c 3269 88bc
00000020: ef97 b93c 6c96 88bc 5b44 943e ef79 65be
00000030: 7677 3c3e f6ac cbbc 6ec6 183e 910c 8ebd
00000040: 6391 883e 8aeb 4abd dee1 71be 4023 3f3e
00000050: 31d1 423e 1427 86be 82b2 2e3e 2b36 86be
00000060: f48f ab3d e496 10be b5e7 37be c644 4d3e
00000070: bd2a 473e f3e3 423e a07a 903c 562b d8bd
00000080: d233 e3bd 07ab 11be 80e9 12be 0c2e cdbd
00000090: 230b a23c 2724 df3d 7ff1 8f3e b123 8d3e
000000a0: 71c8 1abe e73f 8d3e 5dad 113e 316e b8bd
000000b0: d0f4 10bb 1996 8fbd 92f4 47be 853a 0a3e
000000c0: 0ce8 543e 0a7f c2bd d238 83be 0242 7a3e
000000d0: 1f0e 8f3e df0b 6dbd c058 8fbe d43f dc3c
000000e0: 56d9 073e 0db3 313e 693e 39be ed12 c23d
000000f0: d3fd 983e e6c0 9cbd 59aa cf3d 5055 c1bd
00000100: 2146 4c3a e659 81bd 4e03 89bd f43d bb3d
00000110: 2776 863e 0a9d c23d d97a e53d 2e46 8b3e
00000120: 4fbf 7dbe b39e c43d 08d5 373e a76f 73be
00000130: 540a adbd 18cb 3dbe 3cfd 2cbe c90d 563e
00000140: a9c4 473d 3710 943e fa2e 8e3e de43 3d3e
00000150: d7d3 2cbe 5b2e db3d 7b31 62be 3e13 f8bd
00000160: 734c 973c 5700 523d 2983 f9bd 3ba7 0d3e
00000170: 2d61 febd a1f3 4bbd c6ac 473e 4ecd 66be
00000180: 2f6d 803e 802f 663e 58ba 8c3e 7d5c 883e
00000190: 2256 f5bd 0bd4 81be fc3c 113d ff32 163e
000001a0: 16bb 34be d7dd c0bd 6b63 10be fc25 1b3e
000001b0: 2f56 483e b304 26be 30c0 6abd 121f 91be
000001c0: 20e2 94bd 21b6 7bbe 3485 6abd 37f6 863e
000001d0: 8862 c43d 1b66 b93d e7a9 6e3e c172 0a3e
000001e0: 46d1 9bbc 6182 85be a50a f6bd c379 973e
000001f0: 1190 26be d613 01be 08af fabc fbc9 6cbe
00000200: 9911 893e e11f 7fbe c6b1 923e bc6e 113e
00000210: 72d0 5e3d cc93 72be 5b47 963e 72ea 82be
00000220: 3557 593d adec 22be 01e1 52bc 54b9 32be
00000230: cbb7 c0bd 28d0 6f3e ccc4 41bc c330 e13d
00000240: 6ca9 19be 89ed 85bd eab5 77be d064 74bc
00000250: 3c1e 0f3e bec7 a73d d55f 0f3e 232b 233e
00000260: 1147 8e3e 286b 8ebe 29a3 753e 33b1 7b3e
00000270: f6f8 f13d 3df4 f6bd b993 063e a9d5 e5bd
00000280: 84b5 8b3e fdb1 663e bd67 e4bd b18c 473e
00000290: b627 97be 3c20 973e 3158 21bd a3ce 93be
000002a0: a49b a43d cef6 303e c535 413e 325e 613b
000002b0: bbc5 d83d 9998 bd3d b2be f2ba f0c2 303e
000002c0: 2be5 73be b1f8 90be 804b 483e 8ba0 89be
000002d0: a00f 58be 6de6 0dbd a1f1 fb3d a214 25be
000002e0: 8ff5 7fbe 5b6f 7f3e 58ec 3c3e 20d8 843e
000002f0: 8a80 c0bd d689 25bd 248c 4f3e 035e 3d3e
00000300: b06c 86be 4045 2abe 5d99 71be 65ea 923d
00000310: d3f9 1fbe 68d7 663e 0dfd 813e 0a77 823e
00000320: 17a2 4d3e 2920 9ebc c43c 7d3e e322 1c3e
00000330: 4895 59be 2663 183e 3125 963e 4e8b 883e
00000340: 5f34 8e3e 4063 cf3c f7ce 173d b656 9d3d
00000350: f447 42bc f248 17be 28ab 3b3d f495 893d
00000360: 7180 0d3d 5990 a2bd 954e 6fbc 43ff ebbd
00000370: 24bd 7bbe c968 19be 704b 873e 171f 8b3e
00000380: 8a6d 91be 4426 603e 5791 4dbc 7d1b 07be
00000390: 7d5f 363d e4d6 26ba fe33 1dbe cbff 043d
000003a0: 64c5 153c aa85 91be fcfc 50be 0c50 a9bd
000003b0: 2d9b 493e 7e11 40bd 6355 7e3e 4f49 6c3e
000003c0: 49d6 99be dd71 08bd aaae f53d 0883 09be
000003d0: d75e 59be 7377 1a3e cad1 103e dd3b 103e
000003e0: 08ff cc3c 6663 6c3e 86ff d8bd 0592 613d
000003f0: 4966 3ebd 098c 903c 1f1a 993d 7ef0 48be

gru_dp_fw.gru_cell.weight_hh f4 [33, 11]
0.14006394 -0.3581311 -0.1073787 -0.083996706 0.15396465 0.24834274 -0.019818475 0.038612373
-0.13495173 0.3074578 -0.19982733 -0.01913792 -0.016981464 -0.050392684 0.013483715 0.15252048
0.25105512 -0.14429136 0.16782315 0.28847083 0.027988536 -0.14890863 0.33367288 -0.037082948
0.22949643 0.27764037 0.03037465 -0.23710486 -0.16723986 -0.08695743 0.16036186 -0.15655883
0.14875215 -0.23882551 -0.20065334 -0.090099506 -0.029568298 0.21154246 -0.213887 0.15461814
0.06771648 0.012426973 -0.22089201 0.22514954 0.102597095 -0.012537151 0.10398028 -0.056072984
0.20021065 0.070461914 0.33311293 0.022529561 0.23554856 0.11699022 0.27365887 0.17477629
0.053756204 -0.12244341 0.2162012 0.067749456 0.23574807 -0.21061444 0.019215332 -0.18743366
-0.044714313 0.1149047 -0.2387214 0.038437624 -0.15067126 -0.20695116 0.0020128756 0.21974108
-0.18061155 -0.32190228 -0.21988723 -0.0082020415 -0.08054827 -0.16205359 -0.11251035 0.111571565
0.1259066 -0.15387908 0.030763458 -0.17073885 -0.23674256 0.23261721 0.104819514 0.2177326
0.21224512 0.14423716 -0.1464941 0.28201997 -0.25457537 0.14161308 0.12645714 0.10287526
0.0063272184 -0.20078312 -0.08689783 -0.0029739588 0.20862173 -0.18530037 -0.12450349 -0.006354963
0.22569714 0.16771469 0.04064429 -0.30596378 -0.24404122 -0.24082084 -0.16859841 -0.04957491
-0.16928719 0.08784668 -0.17072609 0.2671386 0.15916847 -0.2429478 -0.26850876 -0.2861145
0.14122194 0.2116521 0.18487933 -0.045453895 0.20530817 -0.15587191 0.09969431 -0.30139133
0.25949362 0.026782257 0.08989276 0.1293509 0.053661622 -0.2934153 0.20714036 0.0455242
0.19562173 0.0380921 -0.09483932 -0.11188606 -0.12689522 0.16912313 -0.14471799 -0.2795354
0.27295762 -0.028725268 -0.10610123 -0.14606214 -0.023421953 -0.10866973 0.02749014 -0.24617688
-0.0377675 0.090495005 0.29861572 0.10022934 -0.07881969 0.2888816 0.19845904 0.076795734
-0.2551506 -0.21403693 0.17162994 -0.096601635 -0.2525721 0.18720472 0.2152488 -0.24886908
-0.04513377 0.20135212 -0.24086718 -0.16978322 0.07051926 -0.27552533 0.026976585 -0.22927271
-0.15613943 -0.02101797 -0.11660626 -0.063057825 -0.25801894 0.18413907 0.2736199 -0.18615592
0.21101423 0.13603003 0.1263339 -0.23642483 0.0031590452 0.16363065 -0.06682036 -0.057666566
-0.10769422 -0.071764834 0.006032158 -0.25719577 -0.07649458 -0.28950125 -0.22678785 -0.20712018
0.0062267166 -0.18566005 -0.21541771 -0.17964458 0.036635943 0.20649518 -0.11907856 0.28341913
-0.27843252 -0.28131753 0.09929892 0.07280533 -0.24305907 0.00017491278 0.09901453 -0.060481228
0.15987815 -0.09754537 0.15212262 0.17679982 0.24420136 0.062408555 -0.28653246 0.25577095
0.19106181 -0.24557303 -0.21339864 -0.06534958 0.14890768 -0.25698027 -0.27658606 0.23577233
-0.089167595 0.19886537 -0.25152856 -0.23244962 -0.14840272 -0.23397076 -0.17291199 -0.23198286
-0.24797699 -0.18472551 -0.20881608 0.040299226 -0.01676898 -0.15619254 0.38650087 -0.030926721
0.313603 0.13192491 0.36821234 0.19323955 0.13760906 0.014795341 -0.07586985 0.20275147
00000000: ec6c 0f3e f65c b7be 5de9 dbbd 7706 acbd
00000010: e9a8 1d3e 8f4d 7e3e 5b5a a2bc 0228 1e3d
00000020: c930 0abe 1c6b 9d3e 899f 4cbe 21c7 9cbc
00000030: b61c 8bbc 8f68 4ebd cdea 5c3c 542e 1c3e
00000040: 4c8a 803e 1dc1 13be d5d9 2b3e 73b2 933e
00000050: 3748 e53c 817b 18be 2cd7 aa3e 4ae4 17bd
00000060: 1d01 6b3e e126 8e3e 42d4 f83c 9ecb 72be
00000070: ed40 2bbe bd16 b2bd e635 243e f550 20be
00000080: 7c52 183e ad8e 74be 1278 4dbe 1786 b8bd
00000090: 3739 f2bc 969e 583e 3205 5bbe 3854 1e3e
000000a0: f0ae 8a3d 819a 4b3c 8431 62be 9a8d 663e
000000b0: 6d1e d23d 9f68 4dbc 9df3 d43d c9ac 65bd
000000c0: 0504 4d3e 564e 903d c78d aa3e ea8f b83c
000000d0: a433 713e 9298 ef3d 041d 8c3e 8ef8 323e
000000e0: 772f 5c3d 9cc3 fabd d963 5d3e 3ac0 8a3d
000000f0: f167 713e 50ab 57be 7969 9d3c 9cee 3fbe
00000100: 5b26 37bd 2853 eb3d 6273 74be c570 1d3d
00000110: 9149 1abe 01eb 53be 73ea 033b ce03 613e
00000120: 3cf2 38be 60d0 a4be 1e2a 61be db61 06bc
00000130: 7ef6 a4bd 60f1 25be d46b e6bd a27f e43d
00000140: a9ed 003e 7a92 1dbe a603 fc3c 2ad6 2ebe
00000150: a46c 72be 3533 6e3e 9dab d63d 4bf5 5e3e
00000160: c956 593e e8b2 133e 8d02 16be ec64 903e
00000170: b457 82be 0503 113e fb7d 013e 44b0 d23d
00000180: 8e54 cf3b 179a 4dbe 7df7 b1bd c0e6 42bb
00000190: efa0 553e 61bf 3dbe b0fb febd 4b3d d0bb
000001a0: 271d 673e 66bd 2b3e a17a 263d 49a7 9cbe
000001b0: f1e5 79be bd99 76be 10a5 2cbe 100f 4bbd
000001c0: 9f59 2dbe f6e8 b33d d2d2 2ebe 64c6 883e
000001d0: 0ffd 223e 4fc7 78be fb79 89be 9a7d 92be
000001e0: 7c9c 103e 54bb 583e 0251 3d3e dd2d 3abd
000001f0: 4e3c 523e e39c 1fbe 882c cc3d f74f 9abe
00000200: 59dc 843e 7766 db3c b219 b83d 9074 043e
00000210: 4acc 5b3d 883a 96be 9a1c 543e 9577 3a3d
00000220: 1051 483e 7606 1c3d 1e3b c2bd 8524 e5bd
00000230: d2f0 01be 9d2e 2d3e f430 14be 441f 8fbe
00000240: 1ac1 8b3e 4151 ebbc 9a4b d9bd 5091 15be
00000250: 65df bfbc 3c8e debd 0133 e13c cb15 7cbe
00000260: 18b2 1abd 7255 b93d 29e4 983e 0a45 cd3d
00000270: 386c a1bd 4ae8 933e d938 4b3e 1547 9d3d
00000280: 19a3 82be 7f2c 5bbe c2bf 2f3e 14d7 c5bd
00000290: 2151 81be 98b2 3f3e 2e6a 5c3e 89d7 7ebe
000002a0: 30de 38bd 402f 4e3e e3a5 76be a7db 2dbe
000002b0: 676c 903d a811 8dbe 00fe dc3c 77c6 6abe
000002c0: 04e3 1fbe e12d acbc 43cf eebd 7624 81bd
000002d0: 0f1b 84be f48e 3c3e e817 8c3e a89f 3ebe
000002e0: 1d14 583e 754b 0b3e ad5d 013e 5a19 72be
000002f0: fc07 4f3b cb8e 273e 1dd9 88bd c733 6cbd
00000300: ca8e dcbd 71f9 92bd 69a9 c53b 2aaf 83be
00000310: 31a9 9cbd 8239 94be 133b 68be 5017 54be
00000320: 7c09 cc3b ab1d 3ebe 7696 5cbe c0f4 37be
00000330: 920f 163d 7973 533e 76df f3bd 501c 913e
00000340: b58e 8ebe da08 90be 3b5d cb3d f61a 953d
00000350: 7ae4 78be cb68 3739 21c8 ca3d 2abb 77bd
00000360: 19b7 233e dec5 c7bd 08c6 1b3e 030b 353e
00000370: ec0f 7a3e 1da0 7f3d 62b4 92be 69f4 823e
00000380: b5a5 433e 7f77 7bbe 2c85 5abe 00d6 85bd
00000390: 417b 183e eb92 83be b09c 8dbe 4d6e 713e
000003a0: 809d b6bd 5da3 4b3e 5ac8 80be 4607 6ebe
000003b0: e2f6 17be 0896 6fbe d70f 31be ea8c 6dbe
000003c0: aeed 7dbe af28 3dbe e2d3 55be cd10 253d
000003d0: 1a5f 89bc f0f0 1fbe 71e3 c53e 095a fdbc
000003e0: 9390 a03e 5317 073e 5486 bc3e 97e0 453e
000003f0: 64e9 0c3e 2868 723c a761 9bbd 159e 4f3e

gru_dp_fw.gru_cell.bias_ih f4 [33]
0.35123116 0.24372427 0.03134034 -0.30642805 -0.2840236 0.17307067 -0.36089993 -0.27680117
0.07129968 0.22347476 0.15552248 0.25080243 0.11476011 -0.0065390193 0.19602755 0.13925312
0.1315674 0.0024337166 0.2282444 -0.21162595 -0.27167326 -0.16036081 -0.15530041 -0.16111147
0.004720076 -0.08049628 0.31333697 -0.035347696 -0.08269782 0.297469 0.15373662 0.21971685
-0.18828124
00000000: 92d4 b33e db92 793e ba5e 003d 23e4 9cbe
00000010: 8b6b 91be 7039 313e e0c7 b8be e2b8 8dbe
00000020: 9105 923d 91d6 643e 4941 1f3e 2d69 803e
00000030: 5907 eb3d 4545 d6bb 72bb 483e 5f98 0e3e
00000040: 9bb9 063e fd7e 1f3b e6b8 693e 79b4 58be
00000050: c218 8bbe a035 24be 1207 1fbe 68fa 24be
00000060: deaa 9a3b 3cdb a4bd b46d a03e bfc8 10bd
00000070: 7a5d a9bd db4d 983e 226d 1d3e 74fd 603e
00000080: cccc 40be

gru_dp_fw.gru_cell.bias_hh f4 [33]
0.315584 -0.22510965 0.081971094 -0.33263138 -0.16734324 0.3300091 -0.34764117 -0.28658703
0.24076065 0.244892 -0.04330349 0.19881079 -0.13920683 -0.20373517 -0.13650548 -0.14523965
-0.10428547 -0.29868975 0.07871123 0.020800024 -0.10643201 0.29102492 0.110778116 -0.09615218
-0.06674809 0.18007904 -0.0842662 -0.093900025 0.08479609 -0.11684345 -0.0077498658 -0.23081918
-0.15098442
00000000: 3a94 a13e 2583 66be 76e0 a73d a94e aabe
00000010: 075c 2bbe f4f6 a83e 06fe b1be 89bb 92be
00000020: f689 763e f8c4 7a3e 005f 31bd 0e95 4b3e
00000030: 3c8c 0ebe f49f 50be 18c8 0bbe b4b9 14be
00000040: 9f93 d5bd dded 98be 5a33 a13d d064 aa3c
00000050: 07f9 d9bd 3801 953e a3df e23d 6feb c4bd
00000060: 39b3 88bd a466 383e c293 acbd a84e c0bd
00000070: 93a9 ad3d 9e4b efbd 96f2 fdbb dd5b 6cbe
00000080: a99b 1abe

gru_cp_fw.decays f4 [9]
1.1578384e+27 -0.0027746558 -0.0020696037 2.9395964e+29 -0.0044160495 2.5984552e+11 9.007199e+15 7.036803e+28
1.806269e+28
00000000: 746f 6f6c 00d7 35bb 30a2 07bb 6e75 6d70
00000010: 82b4 90bb 0000 7252 0000 005a 125f 636f
00000020: 6e74 696e

gru_cp_fw.gru_cell.weight_ih f4 [27, 9]
-0.3481969 0.47031286 -0.0068824124 0.21197517 0.250005 0.21295027 0.13768192 -0.3310714
-0.30533603 0.16221288 -0.00616281 0.3012146 0.17411289 -0.16624805 -0.021273537 -0.30455288
0.032464232 -0.038551442 0.49454468 0.21748044 0.0879332 0.14414707 -0.1090327 0.2320891
0.14058699 0.063923575 0.017196465 0.26674575 -0.01456904 -0.22017777 0.22870092 0.21871947
0.24834509 -0.046242975 -0.05661222 -0.40261695 0.3041359 0.02621374 0.4211286 -0.19532822
0.038512375 0.32235387 -0.16162163 0.18544705 -0.33179238 -0.19862798 0.10882475 0.32218724
-0.11666573 0.26257253 0.13615452 -0.29656655 0.15854757 0.15680662 -0.3139186 0.2754368
-0.14161618 0.23295291 -0.0856205 -0.13518664 0.12385506 0.3405999 0.094645485 -0.30989814
-0.22304574 -0.34854645 0.35163444 0.23294595 -0.2778708 -0.15724005 -0.35355502 -0.047377694
0.05683848 0.29452422 -0.17033948 0.062094938 0.20405392 0.28096342 -0.36928472 -0.18637463
0.091916405 0.3231169 -0.3683057 0.20605525 -0.21406686 -0.19036524 0.29526585 -0.018434625
0.3357792 0.064930476 0.08406494 -0.23431568 0.07008954 -0.1965368 0.54707605 0.52263004
0.0030046294 -0.23921192 -0.28295255 -0.036626093 -0.34602833 -0.1723451 0.41031575 -0.4066516
0.020368472 -0.18894503 0.0025565377 -0.24560484 -0.085988395 0.039980173 -0.21093172 0.11011042
-0.3133647 -0.01763111 -0.0043473057 -0.43714124 0.28168297 -0.19669169 -0.23052686 -0.52347654
-0.08672244 -0.09416381 -0.055881888 0.021556202 -0.043761734 -0.08288147 0.062323287 -0.06969548
-0.19294691 -0.19397703 -0.150889 -0.19774754 0.3735181 0.37779775 -0.31248602 -0.054879073
0.1046627 -0.03108313 -0.23813625 0.37373757 -0.10436711 0.31473044 -0.17755829 -0.017181175
0.44023272 -0.14542173 -0.08739489 0.105624534 0.094070256 0.06900695 -0.40284833 0.0940047
0.072629325 0.030507991 0.44351658 -0.31317627 0.2732167 0.07505708 0.15774283 -0.0835788
-0.39925388 0.21699771 -0.23376974 0.2614124 -0.115102455 -0.15758719 0.06723362 -0.33008978
0.05303761 -0.16191064 -0.2938798 0.03678336 0.14685652 0.1062695 0.32280517 -0.3751166
-0.3264527 -0.03483618 0.37334344 -0.0082566645 0.018161092 -0.23753147 -0.15347123 0.19874232
-0.097043194 -0.09029324 -0.121708795 0.07975889 -0.103243046 0.12334089 0.006113505 0.1977934
0.019755155 0.11144954 0.31499845 -0.068861745 0.18795542 -0.24457972 -0.37887314 -0.3829334
-0.44223234 -0.050199468 0.041311823 -0.09411286 0.17330125 0.007921704 -0.04260596 0.20318596
-0.044877283 -0.37831557 -0.28374383 0.12777975 -0.2877135 0.245917 0.2897469 -0.20945682
0.17936334 -0.24617992 -0.09497033 -0.14286174 0.15060437 0.033821456 0.3092706 -0.1265753
0.10366531 -0.36029392 -0.23008972 0.16237879 0.23485838 0.1155412 0.10328882 0.19397624
-0.26545393 -0.082219176 0.22556703 0.13596848 -0.11439326 -0.08054804 0.36571306 0.07883009
-0.16399954 0.046915267 -0.010144067
00000000: dd46 b2be d9cc f03e dc85 e1bb 0510 593e
00000010: a800 803e a30f 5a3e 7dfc 0c3e 3182 a9be
00000020: 0155 9cbe 221b 263e 66f1 c9bb cd38 9a3e
00000030: a64a 323e ee3c 2abe d745 aebc 5bee 9bbe
00000040: 37f9 043d 1ee8 1dbd f634 fd3e 31b3 5e3e
00000050: 5216 b43d 4a9b 133e 894c dfbd c4a8 6d3e
00000060: 09f6 0f3e 5dea 823d 9adf 8c3c e692 883e
00000070: fcb2 6ebc 4876 61be 9330 6a3e fff7 5f3e
00000080: 2d4e 7e3e 4669 3dbd 37e2 67bd cf23 cebe
00000090: b3b7 9b3e 33be d63c 2b9e d73e 1f04 48be
000000a0: 27bf 1d3d 910b a53e 2480 25be d5e5 3d3e
000000b0: b1e0 a9be 2265 4bbe 83df de3d baf5 a43e
000000c0: 71ee eebd e86f 863e 176c 0b3e 92d7 97be
000000d0: 4b5a 223e ea91 203e f0b9 a0be 0d06 8d3e
000000e0: d503 11be 358b 6e3e cd59 afbd 5e6e 0abe
000000f0: b9a7 fd3d 1c63 ae3e 7ed5 c13d f8aa 9ebe
00000100: 1a66 64be ae74 b2be 6e09 b43e 6289 6e3e
00000110: 1545 8ebe 8903 21be 2a05 b5be 1d0f 42bd
00000120: 77cf 683d e1cb 963e 796d 2ebe 4357 7e3d
00000130: 83f3 503e 70da 8f3e e312 bdbe fed8 3ebe
00000140: ab3e bc3d 946f a53e 9192 bcbe 2600 533e
00000150: 5834 5bbe 1bef 42be 162d 973e 3604 97bc
00000160: 40eb ab3e 45fa 843d 3d2a ac3d 73f0 6fbe
00000170: 1b8b 8f3d f140 49be 2d0d 0c3f 15cb 053f
00000180: 51e9 443b f8f3 74be 28df 90be 3e05 16bd
00000190: a02a b1be 3c7b 30be e814 d23e a334 d0be
000001a0: c8db a63c ce7a 41be 968b 273b d67f 7bbe
000001b0: af1a b0bd 40c2 233d 7cfe 57be 9281 e13d
000001c0: 5771 a0be 1e6f 90bc d873 8ebb fad0 dfbe
000001d0: c038 903e 8c69 49be 3c0f 6cbe 8f02 06bf
000001e0: 899b b1bd f5d8 c0bd 68e4 64bd a296 b03c
000001f0: 813f 33bd c3bd a9bd b446 7f3d 81bc 8ebd
00000200: e093 45be eaa1 46be a582 1abe 557e 4abe
00000210: c43d bf3e b56e c13e 2bfe 9fbe e1c8 60bd
00000220: 6659 d63d 0ca2 febc fdd9 73be 885a bf3e
00000230: 6cbe d5bd 5924 a13e d7d1 35be 89bf 8cbc
00000240: 2f66 e13e 6fe9 14be 18fc b2bd ad51 d83d
00000250: e8a7 c03d 8453 8d3d 2342 cebe 8985 c03d
00000260: afbe 943d e5eb f93c 9b14 e33e a458 a0be
00000270: 0fe3 8b3e 87b7 993d 5687 213e 5d2b abbd
00000280: 016b ccbe a634 5e3e 5661 6fbe d9d7 853e
00000290: d6ba ebbd 895e 21be c8b1 893d 8701 a9be
000002a0: f73d 593d e7cb 25be 6a77 96be 26aa 163d
000002b0: 8e61 163e d3a3 d93d b846 a53e 480f c0be
000002c0: cf24 a7be 62b0 0ebd df26 bf3e f646 07bc
000002d0: 92c6 943c 733b 73be 9027 1dbe 1b83 4b3e
000002e0: 95be c6bd aaeb b8bd 7642 f9bd a158 a33d
000002f0: 1771 d3bd 269a fc3d cc53 c83b 5a8a 4a3e
00000300: 90d5 a13c a83f e43d 7a47 a13e 6307 8dbd
00000310: 6377 403e 1b73 7abe a9fb c1be d90f c4be
00000320: 476c e2be f59d 4dbd 9636 293d 3ebe c0bd
00000330: e275 313e 09ca 013c 9683 2ebd fb0f 503e
00000340: 3ed1 37bd 94b2 c1be df46 91be b2d8 023e
00000350: 2f4f 93be abd1 7b3e b559 943e d97b 56be
00000360: 06ab 373e 9716 7cbe ce7f c2bd 594a 12be
00000370: 0838 1a3e 5e88 0a3d b758 9e3e f59c 01be
00000380: 7a4e d43d 7278 b8be a49c 6bbe a046 263e
00000390: b77e 703e dda0 ec3d 1789 d33d b5a1 463e
000003a0: 94e9 87be 8762 a8bd 0bfb 663e 523b 0b3e
000003b0: 0347 eabd 5ff6 a4bd be3e bb3e ac71 a13d
000003c0: 7fef 27be 392a 403d 4d33 26bc

gru_cp_fw.gru_cell.weight_hh f4 [27, 9]
0.14001708 -0.06463974 -0.28446168 -0.02082896 0.22805433 -0.15382312 -0.2794362 0.15294956
-0.077305205 -0.31376013 0.27428317 -0.2514301 -0.26422668 -0.11932159 -0.34664235 0.23130868
-0.11919888 0.29629055 0.28750685 -0.109342255 -0.51518786 0.28369313 0.09710208 -0.403506
0.063568845 -0.19490123 -0.06587928 0.2142059 0.22856684 -0.021525031 -0.029148858 -0.24068974
0.011009837 -0.19370519 0.026628591 -0.34750623 0.32241553 -0.15141028 0.34486684 0.20265526
0.20688401 -0.09723422 0.26793408 0.30045447 0.17060901 0.19510002 -0.312319 -0.008270158
-0.16378346 -0.072937 -0.24145545 -0.0331047 0.31377083 -0.067208335 0.18521425 0.20933858
-0.27179208 0.015794681 -0.15717863 0.04948321 0.09998137 0.077659205 -0.1482468 0.2862688
0.3631316 0.0050028837 0.009016089 -0.14590226 -0.045088593 -0.0031821246 0.33919775 -0.20164797
-0.014115175 0.26236564 -0.01646845 0.011102776 0.1059898 0.23520061 -0.23998055 -0.25124782
0.051254217 0.086953156 -0.40180415 0.05544662 -0.34064558 -0.05133935 0.33390343 -0.018473262
0.02567799 0.3081718 0.054648872 0.10064016 -0.30792928 0.36219168 -0.4792456 0.27462935
-0.23361337 0.19630596 -0.2731148 -0.1835602 0.10077779 -0.27735585 -0.006991014 -0.4267191
-0.27726635 -0.15571485 -0.10882329 0.077379555 -0.26607198 -0.0680269 -0.3768189 0.15913083
0.039295845 -0.40352502 0.11016892 0.028173221 0.17191166 -0.3073995 0.29676494 -0.00014962687
-0.030469615 -0.19142827 0.17393766 -0.015056923 -0.105538875 0.08283494 0.15649691 0.20576116
0.0030999302 0.053866018 -0.19665687 -0.38179967 -0.29349247 -0.13707155 -0.08307906 0.19398351
0.13170348 -0.1826393 0.2641045 0.049703058 0.2680474 -0.24216983 -0.058854494 0.0155226635
0.074038506 0.1505548 0.2652944 0.050654892 -0.030273166 0.24058956 -0.29778853 0.33673325
-0.13000406 -0.060415342 0.38089052 -0.2198569 0.1757633 -0.109976865 -0.18932614 0.117805384
-0.22407201 -0.2006714 0.26574296 -0.15816505 -0.19911382 0.2838305 0.095788196 0.0696753
-0.020231873 -0.30333924 0.0059217815 -0.016077856 -0.08677512 -0.26452833 -0.12381417 -0.44239312
-0.1294821 0.2161801 -0.072260894 -0.25104132 -0.16764599 -0.3979873 0.33234414 0.17226772
0.06689513 0.3140919 -0.071862414 -0.3088068 -0.2555156 0.008469658 0.19444321 -0.17976038
0.06273167 -0.23971643 -0.070173696 -0.38932624 -0.058151886 -0.31197134 -0.09558121 0.13237996
-0.007199603 0.1563419 0.15575165 0.29752657 -0.2058141 -0.37834603 -0.0817618 0.06545804
-0.18514217 0.036126636 -0.14867847 0.11289767 -0.16468704 -0.18900014 -0.09034999 0.13112433
-0.30382645 -0.36683404 0.146186 -0.21294273 -0.09803644 -0.041298427 0.31592414 0.073434204
-0.2429588 -0.24094778 0.009212767 -0.16838567 0.04226998 -0.04325427 0.020969322 0.15150177
0.35096645 -0.31902462 0.19528113 -0.2787774 -0.05994291 -0.3430414 0.40230486 0.21326499
0.12700213 -0.32798323 -0.1081725
00000000: a360 0f3e d761 84bd f6a4 91be 7fa1 aabc
00000010: 1387 693e cf83 1dbe 4312 8fbe cf9e 1c3e
00000020: 3152 9ebd 2ba5 a0be d86e 8c3e 72bb 80be
00000030: b848 87be e15e f4bd 1b7b b1be 2fdc 6c3e
00000040: 8b1e f4bd 65b3 973e 1934 933e d5ee dfbd
00000050: 5ae3 03bf 3a40 913e 75dd c63d 5798 cebe
00000060: 6230 823d 3094 47be b7eb 86bd cb58 5b3e
00000070: 6d0d 6a3e 4355 b0bc 96c9 eebc 5f77 76be
00000080: 9a62 343c a75a 46be 3424 da3c 56ec b1be
00000090: a613 a53e 4c0b 1bbe 6392 b03e dc84 4f3e
000000a0: 67d9 533e bc22 c7bd a82e 893e 2bd5 993e
000000b0: 21b4 2e3e 4dc8 473e 47e8 9fbe 8f7f 07bc
000000c0: dab6 27be fe5f 95bd 1940 77be cb98 07bd
000000d0: 92a6 a03e 86a4 89bd cea8 3d3e da5c 563e
000000e0: 5528 8bbe d963 813c 6ff3 20be e8ae 4a3d
000000f0: 08c3 cc3d ca0b 9f3d 02ce 17be d391 923e
00000100: 63ec b93e 3bef a33b 38b8 133c 6767 15be
00000110: d1ae 38bd 318b 50bb 54ab ad3e ce7c 4ebe
00000120: 5643 67bc ca54 863e d8e8 86bc 6be8 353c
00000130: 2e11 d93d 6ed8 703e 76bd 75be 8ea3 80be
00000140: f1ef 513d 7f14 b23d 46b9 cdbe ff1b 633d
00000150: 1969 aebe 3649 52bd 64f5 aa3e 3d55 97bc
00000160: a65a d23c b2c8 9d3e 7fd7 5f3d 6e1c ce3d
00000170: e8a8 9dbe 3071 b93e ae5f f5be 389c 8c3e
00000180: 5838 6fbe 6e04 493e b4d5 8bbe 34f7 3bbe
00000190: 9664 ce3d 9601 8ebe e014 e5bb ed7a dabe
000001a0: dbf5 8dbe b773 1fbe bfde debd 2c79 9e3d
000001b0: 963a 88be b051 8bbd 68ee c0be 31f3 223e
000001c0: aef4 203d d59a cebe 3ea0 e13d 87cb e63c
000001d0: 9c09 303e 7863 9dbe 93f1 973e 28e5 1cb9
000001e0: 6a9b f9bc c605 44be b71c 323e 50b1 76bc
000001f0: c424 d8bd 5da5 a93d ba40 203e 0eb3 523e
00000200: 3328 4b3b 9da2 5c3d 6b60 49be 3f7b c3be
00000210: a544 96be 7c5c 0cbe 5b25 aabd 9da3 463e
00000220: 47dd 063e cc05 3bbe b438 873e 6f95 4b3d
00000230: 823d 893e 5efb 77be 6911 71bd c552 7e3c
00000240: 80a1 973d 0a2b 1a3e abd4 873e 817b 4f3d
00000250: 6eff f7bc 1c5d 763e bd77 98be 4d68 ac3e
00000260: c91f 05be 1476 77bd 1504 c33e 2b22 61be
00000270: 4bfb 333e 8d3b e1bd b6de 41be f343 f13d
00000280: 2273 65be ce7c 4dbe 760f 883e 05f6 21be
00000290: 7ee4 4bbe 3b52 913e 9a2c c43d ecb1 8e3d
000002a0: 50bd a5bc 484f 9bbe 810b c23b b5b5 83bc
000002b0: 27b7 b1bd 4270 87be 4992 fdbd 5a81 e2be
000002c0: f596 04be 515e 5d3e 85fd 93bd 7d88 80be
000002d0: 64ab 2bbe fec4 cbbe 0329 aa3e f366 303e
000002e0: 5000 893d a7d0 a03e 9a2c 93bd ed1b 9ebe
000002f0: f1d2 82be 52c4 0a3c 1f1c 473e 1b13 38be
00000300: 7679 803d 3978 75be 3ab7 8fbd c555 c7be
00000310: ac30 6ebd b5ba 9fbe 15c0 c3bd 9d8e 073e
00000320: a6ea ebbb 1718 203e 5c7d 1f3e 6755 983e
00000330: eec0 52be 92b6 c1be bb72 a7bd dd0e 863d
00000340: e995 3dbe 86f9 133d 2b3f 18be e536 e73d
00000350: b8a3 28be 4189 41be 6a09 b9bd 7545 063e
00000360: 248f 9bbe acd1 bbbe c8b1 153e a90d 5abe
00000370: 54c7 c8bd 8a28 29bd cfc0 a13e ac64 963d
00000380: 31ca 78be 04bb 76be 25f1 163c 4b6d 2cbe
00000390: 4923 2d3d 642b 31bd dbc7 ab3c 4823 1b3e
000003a0: e0b1 b33e 3257 a3be c7f7 473e e9bb 8ebe
000003b0: b286 75bd 1fa3 afbe e7fa cd3e 2362 5a3e
000003c0: d90c 023e 6bed a7be 8b89 ddbd

gru_cp_fw.gru_cell.bias_ih f4 [27]
0.07457698 0.29279816 0.22892386 -0.10069633 0.21904354 0.039396837 -0.13276935 -0.29782674
-0.20720667 0.21107253 0.4752202 -0.12924731 0.15323488 0.41793454 0.23229562 -0.23560598
0.3581804 -0.15245745 -0.16906431 -0.17264064 -0.35997748 -0.25585365 -0.022615958 0.14586079
-0.12003014 -0.21997689 -0.11022634
00000000: d1bb 983d a4e9 953e 046b 6a3e e139 cebd
00000010: f34c 603e 945e 213d b0f4 07be bf7c 98be
00000020: fc2d 54be 6623 583e 1050 f33e 6859 04be
00000030: 9be9 1c3e 84fb d53e e7de 6d3e b242 71be
00000040: 6c63 b73e ce1d 1cbe 321f 2dbe b5c8 30be
00000050: f84e b8be 40ff 82be 1a45 b9bc 885c 153e
00000060: 5dd2 f5bd 9f41 61be 59be e1bd

gru_cp_fw.gru_cell.bias_hh f4 [27]
-0.24663834 0.119067505 -0.02456778 0.030322624 -0.3817751 0.21832024 -0.077150054 -0.3393633
-0.29302406 -0.13355365 0.39168528 0.24523738 0.056424633 -0.011776175 -0.047465187 -0.3058881
0.09079579 -0.13680705 0.33480403 -0.06064062 -0.007999685 0.35541478 -0.13211553 -0.03730275
-0.10558374 0.084827565 0.18753086
00000000: c38e 7cbe aad9 f33d 5e42 c9bc 2767 f83c
00000010: 0778 c3be 578f 5f3e d900 9ebd 07c1 adbe
00000020: 4007 96be 4ac2 08be f98a c83e 821f 7b3e
00000030: 841d 673d dcf0 40bc db6a 42bd 5d9d 9cbe
00000040: 25f3 b93d 2617 0cbe 6f6b ab3e 4c62 78bd
00000050: 1c11 03bc edf8 b53e 4b49 07be c5ca 18bd
00000060: 4a3c d8bd 13ba ad3d 1708 403e

gru_dp_bw.decays f4 [11]
-0.0006541543 -7.615831e-07 -2.625634e-07 -0.0055199172 1.4942361e+28 7.0292255e+28 4.4652827e+30 4.61142e+24
1.7538986e+25 1.1307937e+24 -0.013449477
00000000: 8d7b 2bba 986f 4cb5 70f6 8cb4 6ce0 b4bb
00000010: 2020 416e 6420 636f 6d70 6172 6520 7468
00000020: 6520 6869 7374 6f67 325b 5cbc

gru_dp_bw.gru_cell.weight_ih f4 [33, 11]
0.0046650246 0.07931722 -0.0887339 0.11343549 -0.35551885 0.41989666 -0.09020816 -0.119684234
-0.14333753 -0.39342862 0.25668854 -0.34485397 0.35034075 -0.0043631806 0.024700413 0.014736614
0.10666279 -0.24570349 0.41705248 -0.15998097 -0.069870524 0.08744916 0.21266416 -0.023218911
0.14112078 0.23847438 0.024201497 0.30339614 -0.2589938 0.073668644 0.2677502 -0.23798756
-0.0573997 -0.008183878 0.05244835 0.21450943 -0.17172053 -0.1380767 -0.16321233 -0.07770008
-0.08620976 -0.13645278 -0.24932039 -0.0153236175 0.16775633 -0.24367654 0.11403548 0.03307403
0.020125048 0.009964269 0.046005912 0.25869858 -0.184041 -0.20907542 0.18812117 -0.14937338
-0.023847414 -0.29837665 -0.040931694 -0.27607715 -0.06878487 0.07425857 -0.18196377 0.18647934
0.25426793 0.1916602 -0.24110079 -0.10779694 -0.44131994 -0.06154394 -0.053914208 0.072531626
0.11007327 0.17142595 0.08330105 -0.29654068 -0.018243015 -0.16113418 0.061778843 0.026998267
0.22250888 0.17288077 -0.005298907 -0.039386544 0.021509284 0.23919968 0.1937021 -0.03376545
-0.14871027 0.3374518 0.091307744 0.14798327 0.04846229 0.07805863 0.19288218 0.204968
0.04099597 0.20530885 0.17506509 -0.059433945 0.08565208 0.03394342 0.07223328 -0.2722281
0.31254917 0.16685608 0.103811696 -0.22592904 -0.1283604 0.2788279 -0.08074357 0.13148285
-0.102073856 0.18631764 -0.109469034 0.27950448 -0.09006546 0.048263714 -0.08689606 0.38124248
-0.20567448 -0.13254032 -0.22064985 -0.30054983 0.064578824 0.10596175 -0.13483879 -0.013342811
0.2919072 -0.18674952 -0.22652964 -0.124779776 0.12384076 0.15331568 0.18491642 -0.10741907
-0.15523228 0.38828847 -0.06443863 0.004318951 -0.15899369 0.110322565 0.15718424 0.015877575
0.15954988 -0.34128666 0.12696104 0.11491829 -0.3736668 -0.09551597 0.13748413 -0.018966405
0.10706884 -0.038152657 -0.0070015183 0.30547914 -0.24479082 0.104294196 0.008092238 0.20377405
-0.27779585 0.12565938 -0.021860674 -0.0542427 0.26608896 -0.2945689 0.011909652 0.24842189
0.11753343 -0.2470337 0.22279313 -0.07585234 -0.2935813 -0.09539991 0.10129657 -0.00083822396
0.0838027 0.09990454 0.23901124 -0.14446153 0.32448295 0.105966866 -0.034849092 0.09407365
-0.23328026 0.0064265872 -0.07049773 -0.38733938 0.0014088026 0.22450255 -0.024567096 0.159132
0.015267845 0.31976473 0.26564732 0.05378417 0.16781104 -0.17769575 0.44703123 -0.12715185
-0.17837493 0.36698082 -0.084803686 -0.09067414 -0.12472532 -0.13804744 0.11462232 0.36637706
-0.1449677 -0.18006581 0.100929126 -0.07798446 0.01749573 -0.10002288 0.037447877 -0.27767423
-0.11222059 0.17593773 0.037618395 -0.04967391 0.131847 0.07751932 0.13503051 -0.047209658
0.027990164 -0.022100896 -0.32690582 0.18022954 0.18865559 -0.0074404557 0.27635276 0.35534388
0.026743524 -0.053651996 -0.64186126 0.14806168 -0.17574607 0.16119172 -0.027878027 -0.24611162
-0.21033493 -0.0737948 0.13125059 -0.23493676 0.27407557 0.027318593 -0.063979775 0.041977357
-0.091212116 -0.005611901 -0.16715601 0.33181286 -0.11305067 0.13183431 -0.08528702 -0.07623952
00000000: 10dd 983b 1171 a23d 1eba b5bd de50 e83d
00000010: 9106 b6be b2fc d63e 0ebf b8bd 021d f5bd
00000020: 13c7 12be 7a6f c9be ae6c 833e b390 b0be
00000030: dd5f b33e 03f9 8ebb 8558 ca3c d771 713c
00000040: 0572 da3d b299 7bbe e787 d53e 0dd2 23be
00000050: 4718 8fbd 8c18 b33d a2c4 593e 9635 bebc
00000060: f781 103e a132 743e 3842 c63c bd56 9b3e
00000070: d69a 84be 96df 963d 8e16 893e 03b3 73be
00000080: f31b 6bbd ac15 06bc 15d4 563d 5ca8 5b3e
00000090: 82d7 2fbe fa63 0dbe 2221 27be 3821 9fbd
000000a0: be8e b0bd 47ba 0bbe d84d 7fbe e90f 7bbc
000000b0: 51c8 2b3e 5886 79be 6f8b e93d a278 073d
000000c0: 49dd a43c 2c41 233c b270 3c3d 2474 843e
000000d0: 3e75 3cbe de17 56be d6a2 403e 56f5 18be
000000e0: a75b c3bc d3c4 98be fea7 27bd fc59 8dbe
000000f0: 15df 8cbd e114 983d b654 3abe 71f4 3e3e
00000100: 682f 823e 9242 443e 20e3 76be a4c4 dcbd
00000110: b0f4 e1be 8015 7cbd 25d5 5cbd 768b 943d
00000120: 186e e13d 498a 2f3e be99 aa3d 2ed4 97be
00000130: 6072 95bc 5c00 25be d00b 7d3d 782b dd3c
00000140: 5ed9 633e a807 313e 74a2 adbb c953 21bd
00000150: 3d34 b03c c3f0 743e d859 463e a44d 0abd
00000160: 8147 18be 7bc6 ac3e 8eff ba3d ed88 173e
00000170: 6580 463d 34dd 9f3d e882 453e 22e3 513e
00000180: 64eb 273d 7c3c 523e 4344 333e 0271 73bd
00000190: 5c6a af3d 4108 0b3d 0bef 933d 7b61 8bbe
000001a0: 7206 a03e 52dc 2a3e 3a9b d43d f159 67be
000001b0: e970 03be 88c2 8e3e e35c a5bd 71a3 063e
000001c0: 190c d1bd 0dca 3e3e 4d31 e0bd 361b 8f3e
000001d0: 3d74 b8bd 2cb0 453d 90f6 b1bd 3732 c33e
000001e0: 559c 52be a6b8 07be 09f2 61be abe1 99be
000001f0: e741 843d 7902 d93d 2e13 0abe ce9b 5abc
00000200: dc74 953e 443b 3fbe 63f7 67be 8a8c ffbd
00000210: 39a0 fd3d c9fe 1c3e bb5a 3d3e 88fe dbbd
00000220: 36f5 1ebe bfcd c63e 67f8 83bd fd85 8d3b
00000230: 3ecf 22be ccf0 e13d e8f4 203e b011 823c
00000240: 0b61 233e 20bd aebe 1302 023e 485a eb3d
00000250: 4151 bfbe e09d c3bd a4c8 0c3e 6f5f 9bbc
00000260: e846 db3d f645 1cbd fe6c e5bb c367 9c3e
00000270: 72aa 7abe 3298 d53d 4e95 043c 25aa 503e
00000280: 423b 8ebe daac 003e 2815 b3bc 982d 5ebd
00000290: d03c 883e bcd1 96be b320 433c 4f62 7e3e
000002a0: 5eb5 f03d 67f6 7cbe e223 643e 7958 9bbd
000002b0: 4a50 96be 0761 c3bd 9374 cf3d 42bc 5bba
000002c0: c0a0 ab3d c09a cc3d 5dbf 743e b9ed 13be
000002d0: a122 a63e 2805 d93d ecbd 0ebd b0a9 c03d
000002e0: 05e1 6ebe 1f96 d23b 1d61 90bd 5951 c6be
000002f0: 92a7 b83a ffe3 653e ef40 c9bc 80f3 223e
00000300: fc25 7a3c 34b8 a33e ed02 883e ca4c 5c3d
00000310: a8d6 2b3e e0f5 35be 47e1 e43e 1834 02be
00000320: eba7 36be e9e4 bb3e 8ead adbd 5db3 b9bd
00000330: fd6f ffbd 4f5c 0dbe 1bbf ea3d c695 bb3e
00000340: 6a72 14be 2c63 38be eeb3 ce3d 51b6 9fbd
00000350: 3553 8f3c ccd8 ccbd f262 193d 512b 8ebe
00000360: e9d3 e5bd 0529 343e bf15 1a3d df76 4bbd
00000370: e602 073e 73c2 9e3d 7045 0a3e ea5e 41bd
00000380: a14b e53c f00c b5bc 3360 a7be 188e 383e
00000390: ee2e 413e 11cf f3bb 1c7e 8d3e a2ef b53e
000003a0: 3c15 db3c 32c2 5bbd 0551 24bf 7b9d 173e
000003b0: c7f6 33be 710f 253e 7660 e4bc af04 7cbe
000003c0: 0a62 57be ba21 97bd 8e66 063e 4393 70be
000003d0: a253 8c3e 3ecb df3c d407 83bd 73f0 2b3d
000003e0: 6bcd babd 0ae4 b7bb f22a 2bbe 60e3 a93e
000003f0: 1c87 e7bd 93ff 063e f6aa aebd 7723 9cbd
