ablation3_epochs/birnn_ode_decay/final_model.pt (torch, 76001 bytes, 49 tensors)

embed_dp.weight f4 [1292, 7]
00000000: 0000 0000 0000 0000 0000 0000 0000 0000
00000010: 0000 0000 0000 0000 0000 0000 c9dc bd3f
00000020: d4c8 0dc0 d446 553e 4abc 0ac0 4197 4bbe
00000030: 224b 923f 661f c53f ed0b 973e 8b97 893e
00000040: bfe0 733d 76cf a23d 1484 28be 4811 bdbe
00000050: b40f 89be db14 41be 5607 303f b9a8 d9bd
00000060: d941 893f 9a78 9ebf 7d6d f8bf 6ac8 90be
00000070: 2d6f c03f 845e b7be f7a9 85bd b232 223f
00000080: d7ae 67bf 169d 1c3e 6426 0c40 5139 e53c
00000090: 703a c9bc a5ef 413c 0ec7 e4be 1243 19bf
000000a0: d1f1 0f40 d3b4 5ebf 7682 8abe 7281 783f
000000b0: 440c 383f c7c6 a93f 3668 d73f bb8f 93be
000000c0: 5f4c 5b3e d836 90bd 9d86 e4bf 7654 d43f
000000d0: 8a14 163f e983 ab3e 2347 aebe 6d3d 2d3f
000000e0: 971c c3be f07c 88bf 08f0 94bf 2e82 96be
000000f0: 0388 40bf fa4a 46bf 0970 bb3f f657 3e3f
00000100: c159 3e3f fd34 0abd e830 d7be 490c 64bf
00000110: 72f9 7e3e 5bd2 97bf 706a 963f 8474 5a3f
00000120: 353e 9fbf edfb 99bf d04e eebe ad7a 8b3f
00000130: 0568 3a3f e2fd c3bf 10b5 c1bf 9418 cbbf
00000140: 98da 0f3e 5808 c5bf b351 c1be 309d 44bf
00000150: 084f f03e a26b cf3e 1f21 173f 70c8 853f
00000160: 35b4 6dbf 88c1 923f a044 8b3e 21e3 d4bf
00000170: f459 7dbf fb4e 113f 90bc 863f 99a1 c93f
00000180: b6f9 953b 0b4c d13e 77f1 9ebf ecd8 0e3f
00000190: 2e9f 7c3e a067 143f ac93 ab3f 6623 4c3f
000001a0: 5780 6abf 7788 c6bd dd94 ba3e adc9 55be
000001b0: 5088 23bf 8268 b03f 6d66 6dbd d255 3c3f
000001c0: f81d e6bf 1332 683e e17b 913e 1e17 41bf
000001d0: b265 823f 8f31 21be 19bc e4bf 7b30 9d3f
000001e0: 4959 823d 63f3 4dbf b932 e0bf b0d1 a23f
000001f0: 14cc 273f 6f4b c9bf 89b6 253f c775 ba3f
00000200: c853 813f f46f 803f 243e 593c 0de8 9ebf
00000210: 51e3 a8be 62eb 8a3e 28da fc3d 95ce 93be
00000220: 614f 01c0 747a 4b3e edb5 83bf 81ec d8be
00000230: 2dc1 03bf 54cd 873f ed33 a13d b0aa b63f
00000240: 0c78 abbf 8a83 363f 5f61 733f 3ea9 c7be
00000250: 0a3a 8e3f 1897 c6bf 4cfb 71bf 879a 513f
00000260: 12df eb3e 928c 1b3e 2c9b acbf d823 123f
00000270: 0a32 ae3f fcc4 183e ea71 43bf 5424 aebe
00000280: d42f 61bf 2509 86bf ca48 00be 4a00 9dbf
00000290: 6faf 0fc0 c9a7 c3be 1696 2f3f 0b24 87bf
000002a0: 8cf3 73be 01ed f03e 4c43 853f 886f 86bf
000002b0: a329 af3f 2573 0dbf f6a9 35c0 07c5 a0bf
000002c0: 3fa0 a2be 4360 143f fa0c b03f 2174 0f3e
000002d0: 5ccc 63bd 8ccc 14bf 0d8f 913e e769 dd3e
000002e0: 8660 53bf 55d0 a23f 8d25 4abf d81e eabe
000002f0: 661b a5bf e719 29bd 92b3 4abe 09e1 5dbf
00000300: 4742 2cbf 14ed 02bf 5d27 01bf 20f1 86be
00000310: 2d9d 1a3f f883 973e baab 83bf bba3 41bf
00000320: 9b2c 4e3f 8abc 403e bb86 753e 03e8 b4bf
00000330: 5f51 1fbf f8ca 41bd f076 9cbf ff86 04bf
00000340: 039f 9abf 8579 643f f74d 693f 2ff8 b13e
00000350: 5767 57bf 4a24 283e 77f3 443f fdd0 53bf
00000360: 066e 2bbf f404 383f 50ca 1d3d 2dc9 8e3f
00000370: c0d4 2b3d 1404 3ebf ff6a 0fbf 821a 7f3e
00000380: 1ee3 88bf 6b05 f33f 42a7 8f40 d9f8 da3e
00000390: 24c6 1840 735d 30bc d5eb 103b 00f8 5f3e
000003a0: 2ebc 443e 6e08 cfbe c9a4 fa3e 702a ce3f
000003b0: 248b 323f db16 0a40 8570 a6bf 6c38 5d3f
000003c0: 097c 29bf 3aef 42bf 0527 a33d ba66 bd3f
000003d0: 56ff bfbf 57c3 5f3d 8239 863e 5d2b 7dbf
000003e0: 5942 1dbf 7de3 27bf e071 6f3e 40c0 823d
000003f0: 0b31 313f 9240 8bbf 80a6 863e 1899 59bf
0.0 0.0 0.0 0.0 0.0 0.0 0.0 1.4833003
-2.2153826 0.208278 -2.1677423 -0.19881918 1.1429179 1.5400207 0.29501286 0.2687343
0.059540506 0.07949726 -0.16456634 -0.36927247 -0.26769793 -0.18855612 0.68761194 -0.106278844
1.072322 -1.2380555 -1.9408413 -0.28277904 1.5033928 -0.35814297 -0.06526559 0.63358605
-0.9050116 0.15294299 2.1898432 0.027981432 -0.024563998 0.011836921 -0.44683117 -0.59867966
2.2491343 -0.86994666 -0.2705266 0.9707252 0.71893716 1.3263787 1.6828678 -0.28820595
0.21415852 -0.070417106 -1.7853581 1.6588275 0.5862509 0.33499077 -0.34038648 0.67671853
-0.3810775 -1.0663128 -1.1635752 -0.29396194 -0.7520754 -0.77458155 1.4643565 0.7435297
0.74355704 -0.03374194 -0.420295 -0.89081246 0.24899843 -1.186107 1.1751232 0.8533404
-1.2440859 -1.2030007 -0.46544504 1.0896813 0.7281497 -1.5311854 -1.5133381 -1.5866876
0.1404823 -1.5393171 -0.37757644 -0.7680235 0.46935296 0.40511805 0.59034914 1.0451794
-0.928531 1.1465311 0.27200794 -1.6631814 -0.9896538 0.5676114 1.0526295 1.5752441
0.004576887 0.4087833 -1.2417439 0.55799747 0.24670097 0.5797062 1.3404441 0.79741514
-0.9160208 -0.09693997 0.364417 -0.20877714 -0.6387987 1.3781893 -0.05795901 0.7356845
-1.7977896 0.22675352 0.28414825 -0.754259 1.0187285 -0.15741561 -1.7869903 1.228042
0.06364686 -0.80449504 -1.7515479 1.2720242 0.65545774 -1.5726146 0.6473165 1.4567193
1.0103693 1.0034165 0.013259444 -1.2414566 -0.3298593 0.27132708 0.123462975 -0.28868547
-2.02047 0.19870931 -1.0289894 -0.42367938 -0.5146664 1.0609536 0.07871232 1.427084
-1.339601 0.7129446 0.9507045 -0.3899631 1.1111462 -1.551486 -0.94524074 0.81876415
0.46068627 0.15190342 -1.3484855 0.57085943 1.3609021 0.14918894 -0.76345694 -0.3401209
-0.87963605 -1.0471541 -0.12527767 -1.2265713 -2.2450826 -0.38213947 0.6858839 -1.0557874
-0.23823375 0.4705582 1.0411162 -1.0502787 1.3684582 -0.5525382 -2.8384986 -1.2560128
-0.31762883 0.57959384 1.375396 0.14009143 -0.055614814 -0.58124614 0.28429452 0.4324486
-0.8256916 1.2719828 -0.7896355 -0.45726657 -1.2898986 -0.041284468 -0.19795063 -0.866715
-0.6728863 -0.51143 -0.5045069 -0.2635584 0.6039608 0.29592872 -1.0286782 -0.7564046
0.8053681 0.18821922 0.23977177 -1.4133304 -0.6223354 -0.047312707 -1.2223797 -0.5176849
-1.2079777 0.89247924 0.9113459 0.34759662 -0.8414206 0.16420093 0.76934 -0.82740766
-0.6696476 0.7188256 0.03852302 1.1155144 0.04195094 -0.7422497 -0.5602264 0.24912456
-1.0694311 1.8986028 4.489167 0.4276798 2.3870935 -0.0107644675 0.0022113223 0.21871948
0.1921241 -0.4043612 0.48953846 1.6106701 0.6974356 2.157645 -1.3003088 0.8641422
-0.6620489 -0.7614628 0.07966427 1.4796975 -1.4999797 0.05462965 0.2621575 -0.9889429
-0.61429363 -0.65581495 0.23383284 0.06384325 0.6921546 -1.087908 0.26298904 -0.8499923

embed_cp.weight f4 [620, 6]
00000000: 0000 0000 0000 0000 0000 0000 0000 0000
00000010: 0000 0000 0000 0000 40d3 543e ea50 1f3e
00000020: c5ea cd3e 976f 243e a094 4b3f 12ad 85bf
00000030: 1476 d4bf 8803 ac3d 6995 9b3f 7667 56bf
00000040: f0cf aabf 5dc8 a8be 75c2 61bc d09e a93e
00000050: 4972 0d3f c53d 1cbd d5ff 43bf 970f 1240
00000060: 59c6 8c3f d7a5 61bf 92ab 8cbf 65c3 7a3f
00000070: 7312 b1be 212b 8abe 41f6 1f3f 201e 1f3d
00000080: 3e6e 88bf 42ac 2240 609e ed3f 287e d1bf
00000090: c1b0 5f3f 387e 96be b1bd 723c 42e7 8b3f
000000a0: f2c9 f63e c6e6 adbf d7d7 93bf dec8 8cbe
000000b0: 2347 0140 3366 633e d758 a93f e1ab 3a3e
000000c0: 1e43 c5be 42df a3bf 47fb c23f fcf9 1e3e
000000d0: 8698 c03f a73b 99bf 8f42 473f 1228 e93f
000000e0: 8c83 e4be 2f52 7d3f de89 95bf 0395 9fbe
000000f0: bd5c 1e3e 91df d83f 7d37 08be ba10 073f
00000100: fca3 a03f 35c6 1fc0 12e4 253f 6bc5 333f
00000110: 4455 9dbf 7b00 a1bf f1f8 24bf 478d d03e
00000120: b789 bd3e 129d 803e d39f 08bd 3482 e3be
00000130: e789 d2bf 473d 323f 956e 393f 6d8f 4c3e
00000140: 16f6 c1bf c5ce 83bf 90f4 ddbe 8047 f33d
00000150: 39dd 34bf 9be9 cf3e a3dd ce3e 9990 c6be
00000160: c19b e6bf b6f9 b73f 35e8 8fbe 305b e2bf
00000170: f682 02bf 02fd 3bbf d42b 71bf e6cd fc3f
00000180: 188a 3dbe bcb0 3fbf af7f b3bf d4fc f3be
00000190: 9d49 75bd 0067 98be 38cb 333f a324 b8bf
000001a0: 517e 45bf e2ad e33e 31c6 86bf 3554 e13d
000001b0: d266 803e 8052 383f 58f7 67bf 6bd3 e03e
000001c0: 938f c6bf dab3 95bf 14f5 c4be ec4e 6a3d
000001d0: 1550 523f 4854 f83e 5631 273f 73f7 ba3e
000001e0: 12b5 b8bf 3f31 a0be 2c7a 9a3f ff92 7c3d
000001f0: d299 2cbf 3a45 e3be 7396 5dbd 4bfb 4d3e
00000200: 8245 5c3f ddde e53f db7b 143f c7ef ea3f
00000210: cce7 0dbf 8c2a 6d3f c158 853f 37b6 a63f
00000220: 967a 0a3f 08d7 bb3e 2c1f 493f e271 f0bf
00000230: 8858 f3be 5d5c f93e 2d7d 893f 877c a5bf
00000240: 532d fcbe 9103 f6bd f81b 01bd d3ca 20be
00000250: 68c5 8d3f 617b 14bf 669b 643e df62 c6be
00000260: cb74 973f 4b6e c2be 6bcf 803c f013 0cbe
00000270: f311 48bf 29e7 8d3e 6395 cfbf 65ed 813f
00000280: 92ac 1040 4fac f13f 5944 a93f e022 983f
00000290: ba5c 7e3f c87f 0e3f 4ad2 363f 98d2 c8bf
000002a0: cce3 bebf 853e 0ec0 594e aabe 7d7c ab3f
000002b0: edc5 163f 3c85 69bf 88cf fc3e 7c2d f1bd
000002c0: 8e41 0abf 376e 9e3f d5cc a2bf 635e 0abf
000002d0: 67f1 a33e ad70 c8bf 051c 94be 5d91 be3d
000002e0: 6b21 7fbb ee70 d0be 82b7 743f 9a6c 823f
000002f0: 8715 cb3f 974e 1b3e 3b12 95bf 0230 203f
00000300: d317 ebbe 7dd3 b6bf 5f92 20bf d1e0 53be
00000310: 98cf aebe f2cf 823f 796a 73bf 6431 ddbe
00000320: 6279 6fbd 2a79 8dbe bc0e c8be 9033 303d
00000330: a91d d73d 9839 913f 2ec5 20bf 98e8 1f3f
00000340: 3ec0 3ebf 08ad 0740 d63b 97bf a2e6 e53e
00000350: ef97 87be 3fc1 f0be 8dcc 143f dc64 653f
00000360: 6d45 59bf f25d 773e 2416 b9bf 4506 373f
00000370: 9468 92bf 86d4 8c3f 5063 0dbf d325 96bf
00000380: 21a2 e6bc 4501 e6bc 45c3 dcbf 251d 69bf
00000390: 8fea 8dbe 39e7 bfbe ff24 663f 4eda 0b3f
000003a0: f3c4 a53f fe80 32be 0c58 e9be 4c99 823f
000003b0: a028 7c3f f044 fd3d 7165 19be b153 613e
000003c0: a34b e2bf 9e59 213e b5fe 95bd 3f45 6a3f
000003d0: 9f65 033f e76f 723f 8766 313d e4c5 bdbf
000003e0: cd51 a33f 2d94 7cbf 4d76 a0bd 8f60 e1bd
000003f0: eb62 fb3e 8a54 373e 4c21 503e 936d 0b40
0.0 0.0 0.0 0.0 0.0 0.0 0.2078371 0.1555821
0.40218177 0.16058193 0.7952366 -1.0443442 -1.6598535 0.08399111 1.2154971 -0.8375162
-1.3344707 -0.32965365 -0.013779272 0.33128977 0.5525251 -0.038144846 -0.76562244 2.2822015
1.0998031 -0.88143677 -1.0989859 0.979544 -0.34584388 -0.2698603 0.6248513 0.03884709
-1.0658643 2.5417638 1.8563957 -1.6366625 0.8737908 -0.29393172 0.014815734 1.0929949
0.48200947 -1.3586051 -1.1550244 -0.27497 2.0199668 0.22206955 1.3230237 0.18229629
-0.3852777 -1.2802508 1.5232934 0.15525049 1.5046546 -1.197133 0.77835935 1.8215353
-0.44631612 0.9895353 -1.1682699 -0.31168374 0.15465064 1.6943227 -0.13302417 0.527599
1.2550044 -2.4964726 0.6480113 0.7022311 -1.2291646 -1.2578272 -0.64442354 0.40732786
0.3701913 0.25119835 -0.033355545 -0.44435275 -1.6448334 0.6962475 0.7243436 0.19976588
-1.5153224 -1.0297476 -0.4335065 0.11878872 -0.7065006 0.40607914 0.4040347 -0.38782194
-1.8016282 1.4373081 -0.28106847 -1.7684078 -0.5098108 -0.73432934 -0.942075 1.9750335
-0.1850971 -0.7487905 -1.4023341 -0.4765383 -0.059884656 -0.29766083 0.7023196 -1.4386181
-0.7714587 0.444686 -1.0529233 0.11002389 0.25078446 0.72000885 -0.9061179 0.439113
-1.5512565 -1.1695511 -0.3846823 0.057204172 0.82153445 0.48501801 0.65309656 0.36516914
-1.4430258 -0.31287572 1.2068534 0.061663624 -0.6742221 -0.44388753 -0.054098558 0.20115392
0.8604356 1.7958637 0.5800149 1.8354424 -0.5543182 0.92643046 1.041771 1.3024358
0.540933 0.36687493 0.7856319 -1.8784754 -0.4752848 0.4870328 1.0741326 -1.2928628
-0.4925333 -0.12012399 -0.031520814 -0.15702371 1.1075869 -0.5800076 0.22324905 -0.38747308
1.1832517 -0.37974772 0.015723905 -0.1367948 -0.7815239 0.27715424 -1.6217464 1.0150572
2.2605329 1.888071 1.3223983 1.1885643 0.9936024 0.5566373 0.71414626 -1.5689268
-1.4913268 -2.222566 -0.332629 1.3397366 0.5889576 -0.91218925 0.49377084 -0.117762536
-0.5400628 1.2377385 -1.271876 -0.5405027 0.32020113 -1.5659386 -0.28927627 0.093050696
-0.003892983 -0.4071116 0.9559251 1.0189393 1.5865945 0.15166698 -1.1646188 0.62573254
-0.45916614 -1.4283291 -0.62723345 -0.2069123 -0.34142756 1.021971 -0.9508434 -0.43201745
-0.05846537 -0.27631503 -0.3907374 0.043017924 0.10503704 1.1345701 -0.6280087 0.62464285
-0.7451209 2.119936 -1.1815135 0.4490252 -0.26483104 -0.47022435 0.5812462 0.89607024
-0.8487156 0.24156931 -1.4459882 0.7149394 -1.1438165 1.1002357 -0.55229664 -1.1730293
-0.028153481 -0.028076777 -1.7247092 -0.91060096 -0.27718017 -0.37481096 0.899002 0.5462998
1.2950729 -0.17432019 -0.45574987 1.0203032 0.9849949 0.123666644 -0.14980103 0.22004582
-1.7679332 0.15756842 -0.07323972 0.9151191 0.51326936 0.94702 0.04331067 -1.4826016
1.2759339 -0.986636 -0.07835064 -0.11004745 0.49098906 0.17903343 0.20325202 2.1785629

gru_dp_fw.decays f4 [7]
00000000: 0000 0000 0000 0000 0000 0000 0000 0000
00000010: 0000 0000 0000 0000 0000 0000
0.0 0.0 0.0 0.0 0.0 0.0 0.0

gru_dp_fw.gru_cell.weight_ih f4 [21, 7]
00000000: 2844 b33e 845f b13d 8e9c 093e dd01 313e
00000010: c601 633e d133 633c 8dee 9fbe 276c 00be
00000020: aa6b e33d b842 14bd 293f fcbd 0f33 1dbd
00000030: 505f 06be 806e b43e 9435 9bbe 49e4 84be
00000040: 96e9 9f3e 65ce 653e 785c ba3c 3596 e7bd
00000050: dd51 a7bd e1da 7fbd a692 ab3e 3ba9 0c3e
00000060: d647 22be 9e00 94be 3fe4 b33e 2e24 4d3d
00000070: 1533 10be e038 a63e 00bf 2fbc bc7e 4b3e
00000080: 22a7 473e 4387 89be 3f5e a43e 60fc 753e
00000090: 3838 97be 3f8c b23e 16d5 a83e d1d9 9d3e
000000a0: 850f babe 693e 2d3e 8517 b4be 76bf 4ebe
000000b0: 1877 aa3d 543e 223d e10a c0be 0520 ae3e
000000c0: 7cbf 47be 74b9 73be 7655 aa3e c4f4 b3be
000000d0: 6e7d a8be 3b57 a5be 7885 3f3e 600e 483e
000000e0: 5078 8e3e a87f 243e aff6 a93e ea5b 173e
000000f0: 32a9 1cbe e5a7 8c3d 52ee edbd 77fc 843e
00000100: 1e70 823e 615d 333e bf57 ab3e d3c4 3dbe
00000110: 6d77 493d 9e04 abbe 34dc febd 5d4f e2bd
00000120: b1a6 8c3e 1536 053e 7be2 2b3d c183 473e
00000130: 367d 2abd ef75 acbd 65d9 b9be 5443 8f3e
00000140: def2 8f3e 5cf0 22be 2c89 08be c127 81be
00000150: 1cbd a53e 44d7 f3bd 2179 9d3e 9f49 dfbd
00000160: bcda cdbd d9fa 0abe d7a4 bdbe 8155 f13d
00000170: 9897 01bd 23b7 653e eb43 98be da54 bebe
00000180: d5ed 423e b7b1 453e 4036 643e b1e4 56be
00000190: c75c a1bc 8f73 a6be 1dc7 8ebe d6d8 643e
000001a0: b9fb 2cbe 5f33 9fbe b0e8 8bbe 3962 58be
000001b0: 45df 9e3d 92e9 83be 13d3 ab3e 4c05 ac3e
000001c0: e8ee 963e c227 383e ad81 a2be 6324 15be
000001d0: c848 b0be 3983 bf3e 8ce6 b4bd b3aa 44be
000001e0: 48c2 81bd 61b9 59bd 4344 fbbb e315 aebd
000001f0: ad93 3f3e 7b9d 363d 9f13 7abd bc7c 8abe
00000200: 7636 a83e 1042 f23d 14c7 9fbe d89f 583d
00000210: 9e7b 43be 34b3 5e3e 343f e9bb db2e 36be
00000220: f5ab 873e baea 9cbd e12c 8fbe a094 dfbd
00000230: 1eec 12be 1e9d ab3e 3f69 843e 7a9e 763d
00000240: 5f83 a73e b5eb a93e 609e 1bbe
0.35012937 0.08660796 0.13438627 0.17285867 0.22168645 0.013867334 -0.31236687 -0.12541257
0.1110452 -0.03619644 -0.12316734 -0.03837877 -0.13122296 0.35240555 -0.30314314 -0.25955418
0.312329 0.22442015 0.02274917 -0.113079466 -0.08169911 -0.0624646 0.3351032 0.13736431
-0.15847716 -0.2890672 0.35135075 0.05008333 -0.14081986 0.32465267 -0.01072669 0.19872564
0.1949735 -0.2686101 0.32103154 0.24022055 -0.2953508 0.34872624 0.32975072 0.30830243
-0.36339965 0.16918339 -0.35174194 -0.20190224 0.083234966 0.039610222 -0.375083 0.34008804
-0.19506639 -0.23801214 0.33268327 -0.3514768 -0.32908195 -0.32293114 0.18703258 0.19536734
0.27826166 0.16064322 0.33196017 0.14781156 -0.15298918 0.06867961 -0.116177216 0.25973865
0.25476164 0.1751609 0.33465382 -0.18532114 0.04918616 -0.3340196 -0.12444344 -0.110502936
0.27470925 0.13008912 0.041964035 0.19483854 -0.041623317 -0.084209315 -0.3629867 0.27981055
0.2811498 -0.15912002 -0.13333577 -0.25225642 0.32370842 -0.11906293 0.30756477 -0.10902714
-0.10051486 -0.13572253 -0.37039825 0.11783887 -0.03163871 0.22433142 -0.29739317 -0.37174112
0.19036038 0.19306074 0.2228632 -0.20985676 -0.01969756 -0.3251004 -0.27886286 0.22348341
-0.168929 -0.3109388 -0.27325964 -0.21131219 0.07757429 -0.25764138 0.33559474 0.3359779
0.29479146 0.17983916 -0.3173956 -0.14564662 -0.34430528 0.37404802 -0.08833036 -0.19205742
-0.06335884 -0.053155307 -0.0076680495 -0.08500268 0.18708678 0.04458378 -0.06105387 -0.2704829
0.3285405 0.11829007 -0.31206572 0.052886814 -0.19090125 0.21748048 -0.00711813 -0.17791311
0.2649838 -0.07661958 -0.27963927 -0.1091702 -0.14347884 0.33518308 0.25861546 0.06020973
0.32717416 0.33187643 -0.15197134

gru_dp_fw.gru_cell.weight_hh f4 [21, 7]
00000000: dc45 a53d 48ab 67bd 112e 8abe 86c8 babe
00000010: 4d7a 95be a179 fa3e c444 84bd d377 ac3e
00000020: 6e4b 303d c8f5 f03b b3d3 433e cefd e7bd
00000030: de82 c23c 25c3 d4bc 094e ca3e 4dfd b53d
00000040: a769 77be d651 8bbe 5575 c23e 1a2d f5bd
00000050: 1fb2 01be 73dd ebbe 5199 3e3e e2f5 d43d
00000060: fae6 813e 8b69 29bd 9da9 b9be ac18 4fbd
00000070: 8e34 803d 0693 303e e874 fdbc fc3a 0bbd
00000080: 068c 24be 9637 c83d 6311 6d3e 2cf1 7d3e
00000090: 5f29 943d 0e44 f33d 5e04 72be 521a 4cbe
000000a0: 532d 603d 7fed 0fbe e6a1 81be be0b 993e
000000b0: 0bef d4be 7f86 6abe e882 c63e b503 53be
000000c0: ae99 bb3b ad45 d6bd 55db 2c3e 3abb 92be
000000d0: cf4e 843e c25d 2ebe 93d7 91ba 075c b2be
000000e0: 6c81 713e dd96 533e e4b6 143e 75a1 5e3d
000000f0: 89f0 8b3e bc76 c7bd 3ea2 fc3c 8176 293e
00000100: b0fd 8c3e 4d93 8bbe d8b9 03bc 8f4f b3be
00000110: 5c43 8bbe dcfb 87bd eb89 b2be 8a61 9c3e
00000120: c63b 1a3b 0076 17be 036b c13e a406 cc3d
00000130: f291 c93d 16cd 90be 39b7 b5be 8edc b1bd
00000140: 8ae0 0ebe 0ed4 573e 818f 60be 627d a9be
00000150: f50f 373d 8057 e1bd 7b19 bebe 7755 ae3e
00000160: 4b31 95be ce58 003e 2ced 843e cbfe aebd
00000170: f533 9ebe 271f ad3e 6e70 95bd 431d 4abe
00000180: bdb1 013e 7e3a 633c fc32 7c3e 5982 dfbe
00000190: d1a0 cd3d 3efa 043e 5139 acbd 6dfb 433e
000001a0: 366d 833e c30b d9bd eb8d 36be 9cec 853c
000001b0: 7e7e 99be 699c 56be daf6 f5bd 71a5 53be
000001c0: 9dce c43e de6b 16be 0570 fbbd da42 32be
000001d0: 3082 a03e a38c d1be 2730 14be 2cd6 6abe
000001e0: b5b0 0a3d 51af d5be 8f86 8ebe bd84 783e
000001f0: 62d4 d13e 4282 bbbc 303e f6bd 6b22 143d
00000200: 619e 2fbe ee7a 503d a9b9 bebe d744 13bd
00000210: c1e8 c7be acaf 1f3e ef84 b53d 2d3d ad3e
00000220: bc38 67be 7814 95be dc28 23bc 9ebc 70be
00000230: bc14 973e 90a3 cabe a518 8d3e da9c 58be
00000240: d3e7 503d efc8 513e 5935 073e
0.08069965 -0.05655983 -0.2698827 -0.36481112 -0.2919487 0.4892092 -0.064584285 0.3368517
0.043040685 0.007353518 0.19123726 -0.11327706 0.023744043 -0.025971958 0.3951266 0.08886204
-0.24161397 -0.27210873 0.37980142 -0.11971493 -0.12665604 -0.4606739 0.18613173 0.10398461
0.25371534 -0.04136042 -0.36262217 -0.05056064 0.06260024 0.17243585 -0.030939534 -0.0339918
-0.1606904 0.09776227 0.23151164 0.24799031 0.072344534 0.11878215 -0.23634478 -0.19931915
0.054730725 -0.14055441 -0.2531883 0.2989177 -0.41588625 -0.22902869 0.3877175 -0.20606883
0.005725107 -0.10462508 0.16880544 -0.28658468 0.25841376 -0.17027953 -0.0011126868 -0.34835836
0.23584527 0.20663019 0.14522892 0.054353196 0.2733195 -0.09739444 0.030839082 0.16549112
0.27537298 -0.2726082 -0.008039914 -0.35021636 -0.2719983 -0.06639835 -0.34870848 0.30543166
0.0023534163 -0.14791107 0.37776956 0.09962204 0.0984229 -0.28281468 -0.3549135 -0.086846456
-0.13952842 0.21076986 -0.21929742 -0.33103472 0.044692952 -0.110030174 -0.37128815 0.3404958
-0.2913917 0.12533876 0.25962198 -0.08544692 -0.30899015 0.3381283 -0.07296835 -0.19737725
0.12665458 0.013868926 0.24628824 -0.43654135 0.10040439 0.12986085 -0.0840937 0.1913888
0.2566926 -0.105979465 -0.17827575 0.016348176 -0.29979318 -0.20958103 -0.12009974 -0.2066858
0.38438883 -0.14689586 -0.122772254 -0.17408314 0.31349325 -0.4092761 -0.14471494 -0.22933263
0.033859927 -0.41735318 -0.27837035 0.24269386 0.40982348 -0.02288926 -0.1202358 0.036165636
-0.1715026 0.050898485 -0.37251022 -0.035954323 -0.39044765 0.15594357 0.08863246 0.33835736
-0.22580236 -0.2911718 -0.009958472 -0.23509452 0.29508007 -0.39577913 0.27557865 -0.21153584
0.051002335 0.20486806 0.13203944

gru_dp_fw.gru_cell.bias_ih f4 [21]
00000000: c482 8bbe 39d6 90be 6157 16be 3178 13bd
00000010: c95b 1dbe 47f9 a8be 8193 913e f5d2 2b3e
00000020: b1cd b8be 9b88 5d3e edd5 0bbe e252 8ebd
00000030: 4002 abbd b348 73be fe46 8cbe 8b48 b03c
00000040: 7d15 5dbd ab25 413e eb43 483c 5934 dc3d
00000050: 92d7 22bd
-0.27248204 -0.2828844 -0.1468177 -0.036003295 -0.15367045 -0.33002684 0.2843285 0.16779692
-0.3609443 0.21634142 -0.13655825 -0.069494024 -0.083500385 -0.23758201 -0.27397913 0.021518966
-0.05397557 0.18862025 0.012223224 0.10752172 -0.039756365

gru_dp_fw.gru_cell.bias_hh f4 [21]
00000000: 9b81 3e3e a681 85be 1e6b eebc 1f67 32be
00000010: 50b4 82be bd99 9b3e 98d4 21be c141 923e
00000020: 1d5d 05bc 4656 5ebd ee38 02be b980 6abe
00000030: bb3e a73e a567 c0bd f4ae 613e b9df f3bc
00000040: 14c9 813e 8dc1 c9be 68dd 34be 523a 57be
00000050: 9f41 113e
0.18604128 -0.26075476 -0.029103812 -0.1742215 -0.25528193 0.3039073 -0.15803754 0.2856579
-0.008139876 -0.054281496 -0.1271703 -0.22900666 0.32665047 -0.093947686 0.22039396 -0.029769765
0.25348723 -0.3940548 -0.17662585 -0.21018341 0.14185189

gru_dp_fw.ode_net.odeblock.odefunc.fc1.weight f4 [7, 7]
00000000: 9827 5a3e 0e56 053e 77a6 04be f011 803e
00000010: 3e9d ae3e d682 703e f6cc a6bd 8a22 afbe
00000020: 5639 bfbe baaa 98be c084 edbd 4425 803e
00000030: d1eb 5a3e 3df4 8fbe f42c c1be 9919 8fbe
00000040: 7bb4 6abe 2c56 16be 3fd9 343e 3786 62be
00000050: 7da8 a33d fa81 bb3e f3ad b53e 2c0a e6bc
00000060: 6605 70bd 03e5 5e3e 12ed b3be fc38 b7be
00000070: 227b a53d 0dd4 643e f52d 18be 5e89 5abe
00000080: df1c a43e acf3 703e f393 48be d189 4bbe
00000090: 0bed c0bd a99e 09be 4310 95be 6bc9 a2bc
000000a0: adb7 b0bd b01f a53e 760f a8be 6ace aabe
000000b0: 2ff5 9d3e 593e c03e ea99 673e 64be 653d
000000c0: 555f acbe
0.21304166 0.13021109 -0.12954126 0.25013685 0.3410434 0.2348741 -0.08144562 -0.3420604
-0.3734843 -0.29817754 -0.11597586 0.2502843 0.2137902 -0.28116027 -0.3772961 -0.27949217
-0.2292041 -0.1468131 0.17660998 -0.22121511 0.07991121 0.36622602 0.35484275 -0.028081022
-0.0585989 0.21767049 -0.35141808 -0.35785663 0.08080126 0.22346516 -0.14861281 -0.21341464
0.32053277 0.23530453 -0.19587688 -0.19876792 -0.09420212 -0.1343943 -0.2911397 -0.019871434
-0.086287834 0.32250738 -0.32824296 -0.33360606 0.30851123 0.37547567 0.22617307 0.056089774
-0.33666483

gru_dp_fw.ode_net.odeblock.odefunc.fc1.bias f4 [7]
00000000: bf3e be3e 8bd4 963e 8973 8abe 704b 383e
00000010: 50fe 6c3e 9fff 233e ddde 00bd
0.37157246 0.29459032 -0.2704127 0.17997527 0.23143888 0.1601548 -0.03146254

gru_dp_fw.ode_net.odeblock.odefunc.fc2.weight f4 [7, 7]
00000000: 8636 52be 3c6f 80be dc64 4f3c fa3d f83d
00000010: 3fe5 3e3e 87bd 9d3e 23c1 33be 5240 09be
00000020: dcc1 da3b 1d8b 54be 69ed 863e b179 d33d
00000030: d7c8 b13e 7ea7 003e 470a 6f3e 09f8 a33e
00000040: 67fe ad3d ccb8 073e a80f afbe cbab 993d
00000050: 59fc 963c 7355 a6be 829d e93d a48a a7be
00000060: 1bdc ebbc 7328 823d 734d 523e f207 973e
00000070: 6d48 a83e 7bed 6abe 67a7 a43e 62fe 50be
00000080: 197d a4be 94df 5e3d b0fd 813e 692e f93d
00000090: bb35 c13d 99b7 60be 5f28 aabe e7d9 b23e
000000a0: be18 15be c7f7 99be cbb0 393e fa71 89be
000000b0: 44c7 933e 3cc9 f8bd 9293 423e ae8f 013e
000000c0: fb90 14be
-0.20528612 -0.25084865 0.012658324 0.12121196 0.18642138 0.3080866 -0.17554145 -0.13403443
0.006675942 -0.20756193 0.26353005 0.10325945 0.3472354 0.12563893 0.23343764 0.32025173
0.08495789 0.13254088 -0.34191632 0.0750347 0.018430876 -0.32487068 0.11406995 -0.32722962
-0.028791478 0.06355371 0.20537357 0.2949825 0.32867756 -0.22942154 0.32158968 -0.2040954
-0.32126692 0.05441244 0.2538886 0.12167055 0.094340764 -0.21945037 -0.33233926 0.3493187
-0.1456022 -0.30071852 0.18133847 -0.2684477 0.28862965 -0.121477574 0.19001606 0.12652466
-0.1450843

gru_dp_fw.ode_net.odeblock.odefunc.fc2.bias f4 [7]
00000000: 3869 89be c13f 0a3e 6bcf 46be f4c2 0a3e
00000010: c3ac 223e 3cc1 653e a31e 9f3e
-0.26838088 0.13500883 -0.19415061 0.13550931 0.15886216 0.22436994 0.3107806

gru_dp_fw.ode_net.odeblock.odefunc.fc3.weight f4 [7, 7]
00000000: 9b63 ab3e e3e5 cd3c f2aa 43be 1c0a 2b3e
00000010: aeff 533e 16dd 483e 7db4 c63d 6695 263d
00000020: cb6c 1bbd 5640 2dbd 77d8 383e 936b a33e
00000030: d522 5abd 1b3f 39be 2c3a 44be 2e0c ff3d
00000040: f57e a63c d3e7 f3bc 2848 b8be 979f 01be
00000050: 3e7f 9e3b 92ee 8fbe 1d08 9e3e 42bb 613e
00000060: 742b 593e 9638 943d 4bc5 8ebe 1298 a7bd
00000070: d707 943e 3006 293e 1434 7cbd 332a 36be
00000080: 2043 cbbb 9f01 78bd ddec ae3e 8ef3 afbe
00000090: 9310 b03e bd23 08be 4cd0 b93e 8d94 c83d
000000a0: ff6a 873e 723d 763e 650b a53e b460 a03e
000000b0: 6146 06be 0d12 8dbe 4b8e 793e 116e a93e
000000c0: 78a4 833e
0.3347443 0.025134033 -0.19108179 0.16703075 0.20703003 0.19615588 0.09702394 0.04066982
-0.03794555 -0.042297684 0.18051325 0.3191801 -0.053255875 -0.18090479 -0.19162816 0.12453495
0.02032421 -0.029773628 -0.3599255 -0.12658535 0.004836946 -0.28111702 0.30865565 0.2204409
0.21207982 0.072373554 -0.27884898 -0.08183302 0.2891223 0.16506267 -0.061573103 -0.17789535
-0.0062030703 -0.06054842 0.34165087 -0.34365505 0.34387645 -0.13294883 0.3629173 0.09793959
0.2644882 0.24046877 0.32235256 0.3132378 -0.13112785 -0.27552834 0.24370687 0.33091787
0.25711417

gru_dp_fw.ode_net.odeblock.odefunc.fc3.bias f4 [7]
00000000: 648f 443e d27e 9dbe 90ff d53d 1028 313e
00000010: 0e13 ef3d 16fc 09bd b7c9 5c3e
0.19195324 -0.3076082 0.10449135 0.17300439 0.11673556 -0.033687674 0.21561323

gru_cp_fw.decays f4 [6]
00000000: 633d 2762 6573 7427 2c20 6672 616d 656f
00000010: 6e3d 4661 6c73 6529
7.712574e+20 3.3924358e-15 4.5581085e+30 7.10043e+28 2.2855511e+20 5.0948327e-14

gru_cp_fw.gru_cell.weight_ih f4 [18, 6]
00000000: 2915 dd3e c288 853e a0b2 753e f76a 1c3f
00000010: 143a 0fbe a563 343e 2baf b03e b05f 91bd
00000020: 8f3c 20bf 365f 66bd d3a3 72be 169f 083f
00000030: 2799 143f 8ff6 f5be d71a 893e a5df c03e
00000040: 0c61 9a3e 2447 bebd c0ca 0a3d 9d8a a7ba
00000050: e7a0 e6be fdc2 bebd 6882 e23e 320f 213e
00000060: c20c 9c3d 7887 993e 4480 fcbe 17fd d5bd
00000070: ceb1 543e bb96 663d e330 073e f06e 1d3e
00000080: 0206 0f3e 922e 8e3e 3d05 ddbe 1892 4ebe
00000090: daab bfbe 09e0 5fbd a918 f9be 123d 363e
000000a0: 33fb be3e e5fa bfbd e2fa f8bd 03ee f13c
000000b0: 10ef 34bf 27be 84be 45e7 c3be c3e3 223f
000000c0: 5881 d6be 8eee 183e 5aa5 07bf 1b4e ddbd
000000d0: 9363 9f3e 97bf 033f 4664 003e 7c75 a33e
000000e0: 837b c03e 458f 93bd 04c3 efbe db2d 00bd
000000f0: 3a6a 31be 2a31 f0bd d5cb 13bf 2a49 a53e
00000100: f0aa b7be be43 1fbe 5371 ca3e 9bf5 9f3c
00000110: eefc a3be 0c4c c8be c31b fabe a942 143d
00000120: 2fcb 9bbe f39a e83d bdc1 aabe 8003 243e
00000130: 732c 453e 8228 3cbd 6577 1e3e d41c 2ebe
00000140: 931b e03e 3705 df3e 99ad 1e3e 807e f0be
00000150: c1b8 043e bfd9 0fbe a6d9 993e 0328 b83e
00000160: bd25 61be 5341 1cbf 48da babd 4b65 5e3e
00000170: 8485 d13e 79c8 03bf 6675 9dbe 4212 c63e
00000180: 42e6 adbd 211f 593e e9f4 04bf 15bf f0bd
00000190: 07b3 cbbe 911d 89be b63a 1b3d 2384 6a3e
000001a0: 1a59 31be 1bf6 c0be 1c50 e3be 60f0 623e
0.43180206 0.260809 0.23993921 0.61100715 -0.13986999 0.17616136 0.34508643 -0.07098329
-0.62592405 -0.056243144 -0.23695306 0.53367746 0.5804619 -0.48039672 0.2677829 0.37670627
0.30152166 -0.09290913 0.033884764 -0.0012782399 -0.45044634 -0.09314535 0.44240117 0.15728453
0.07619621 0.29986167 -0.4931661 -0.10448664 0.20770952 0.05629609 0.13202243 0.1537435
0.13967136 0.27769905 -0.4316806 -0.20172918 -0.374358 -0.054657016 -0.48651627 0.17796734
0.37301025 -0.09374026 -0.12157227 0.029532438 -0.7067728 -0.25926325 -0.38262382 0.63628787
-0.41895556 0.14934751 -0.5298668 -0.10805913 0.31130657 0.5146422 0.12538251 0.3192557
0.37594232 -0.07205061 -0.46828473 -0.03129373 -0.17325678 -0.11728127 -0.577329 0.32282382
-0.35872602 -0.15553185 0.39539585 0.019526294 -0.32028908 -0.3912052 -0.48849306 0.036196385
-0.30428454 0.11357679 -0.33350936 0.1601696 0.19255237 -0.04593707 0.15475233 -0.17003185
0.43771037 0.43558666 0.1549591 -0.46971512 0.12961103 -0.14047907 0.30048865 0.35968027
-0.21987052 -0.61037177 -0.09123665 0.21718328 0.40922177 -0.5147777 -0.3075363 0.38685805
-0.08491184 0.21203281 -0.51936203 -0.11755196 -0.39785025 -0.2678037 0.037897788 0.22901969
-0.17319146 -0.37687764 -0.44397056 0.22162008

gru_cp_fw.gru_cell.weight_hh f4 [18, 6]
00000000: 71fc 56be 1139 bb3d 6fa7 793b 8a06 13bf
00000010: 3306 d5be 768a 20bf 7e57 da3e 8966 bbbe
00000020: 3c70 f4bd a383 af3e 2eb7 ea3d 68ed 9abe
00000030: c277 ad3d 0d51 da3d d58c 083f 8e45 d5bd
00000040: 12a6 0ebe 336c 3e3d 6b6b 37bf 23d2 f13d
00000050: fe9d dd3e 93f4 14be 3aaa 573d 19cb 6b3e
00000060: f4f2 a33e bb7b 85be 1a21 bdbc 6733 8dbc
00000070: 54e9 413c fea3 263e 1946 20be 14eb ae3e
00000080: 76db e83e cda2 93be 05d5 6d3d c621 46be
00000090: 6afc 23be 754f bebd 5a3b b23e 9ba3 07be
000000a0: b452 bcbc 0018 ad3e faab 3fbf bf33 db3e
000000b0: 0f5c 413f 1b8b d3be b5d6 11bf 9245 f23d
000000c0: 19ca 2ebf c64c 6c3d d35d 2c3f 696d e4be
000000d0: 2e07 e9bd 6b9a 6ebd ef3f 403e f1dc 46be
000000e0: 13f3 0c3b b958 94be 5ad6 c53e 7034 18be
000000f0: bfb4 0bbf 5e77 593b e3d3 0cbd 1160 95be
00000100: 71d4 adbc f4bf f8be d20b 383e 94d7 47bd
00000110: 77e3 a23c 66c4 ddbe f08e 41be 8e1b 19bf
00000120: 5b6d cd3c 2852 10be 8ab3 10bf fd6c e03e
00000130: 7c71 903e 144a d13b 8a6f cf3e 1216 9bbe
00000140: f957 383e 7914 673d 2466 8d3e f341 c9be
00000150: e411 c2be 9113 f43e edb2 f33c 6ae0 41be
00000160: e3a2 1b3c 71b1 293e dd20 b83e f69b 233d
00000170: b0c5 0fbe 536a 73be c0f7 0ebe 861f 263e
00000180: 8d30 22be 6b74 7dbe 0b83 afbe 8512 473e
00000190: f7d0 0ebe c28e 39be 0aa8 1a3f 78ac bdbd
000001a0: 7af7 f5be 4479 023c 3cfa 87be b3a1 9abd
-0.20994736 0.09141744 0.0038094183 -0.5743185 -0.41606292 -0.62711275 0.42644876 -0.36601666
-0.119354695 0.34280118 0.1146072 -0.30259252 0.084701076 0.106599905 0.5333989 -0.10413657
-0.13930538 0.046489906 -0.7164828 0.118076585 0.432846 -0.14546423 0.052652575 0.23026694
0.32021296 -0.2607096 -0.023087073 -0.017236425 0.011835415 0.16273496 -0.1565174 0.34163725
0.45479935 -0.28835145 0.05806448 -0.19348821 -0.16014257 -0.09292499 0.34810907 -0.13246004
-0.022988655 0.33807373 -0.7487179 0.42812917 0.75531095 -0.41317067 -0.5696824 0.11829676
-0.68277127 0.057690404 0.67330664 -0.44614723 -0.113783225 -0.058252733 0.18774389 -0.1942022
0.0021507188 -0.2897394 0.386401 -0.14863753 -0.5457267 0.003318272 -0.03438176 -0.29174855
-0.021219464 -0.4858395 0.17973259 -0.048789576 0.019883854 -0.43313903 -0.18902183 -0.5980767
0.025076559 -0.1409384 -0.56523955 0.4383315 0.28211582 0.0063870046 0.40514785 -0.30290276
0.18002309 0.05641601 0.2761699 -0.39308128 -0.37904274 0.47671178 0.029748404 -0.18933263
0.009499284 0.16571595 0.35962573 0.039943658 -0.14040256 -0.23771028 -0.13961697 0.16222963
-0.15838833 -0.24751441 -0.34279665 0.19440658 -0.13946901 -0.18120864 0.6041266 -0.092614114
-0.48040372 0.007963482 -0.265581 -0.07550373

gru_cp_fw.gru_cell.bias_ih f4 [18]
00000000: d9ad 99be ef39 8a3e 33a3 2ebe 8705 7f3e
00000010: 53ad 5dbe cc17 21be ec54 c53d adee a7bc
00000020: 863f 733e 1453 09bc 0f9c 8a3e c963 a83d
00000030: 8aae d9bc cc52 23be 0205 a1bd f730 6c3e
00000040: 3685 aabb 1e31 6c3e
-0.30015448 0.26997325 -0.17054443 0.24904452 -0.21648149 -0.15731734 0.09635338 -0.020499552
0.23754701 -0.008381624 0.27072188 0.082221575 -0.026572485 -0.15949553 -0.07862283 0.23065554
-0.0052038683 0.23065612

gru_cp_fw.gru_cell.bias_hh f4 [18]
00000000: e487 de3e c19d d13d d55e 0ebe 9fc4 32be
00000010: 1e56 96be b39f 8a3e 9048 003f f7e4 bb3e
00000020: d3b5 823e da9b b33e 016c f63e f75a 4c3d
00000030: 8483 43be c6e1 95be 7ebf 503e f4ce 16be
00000040: 8167 853e dbb0 593e
0.4346305 0.10235167 -0.13903363 -0.17457817 -0.29362577 0.27074966 0.5011072 0.36698124
0.25529346 0.35079843 0.48129275 0.04989144 -0.19093138 -0.29273814 0.20385548 -0.14727384
0.2605553 0.21258871

gru_cp_fw.ode_net.odeblock.odefunc.fc1.weight f4 [6, 6]
00000000: fba1 bf3d ae25 acbe cf10 8bbe 9d70 7c3e
00000010: 494f e0bd 4055 5d3e 7079 90be dff8 aabe
00000020: f711 2ebd 6811 67bd 512e ed3e 5750 62be
00000030: 7e93 093f c7c8 8c3e 4d64 a73c 3f74 9fbc
00000040: ae8d 903e 929f 693d 0f90 203e 0fc8 cabe
00000050: 1352 60be 5b6c 963c e096 463e c8bb debe
00000060: 317f 803d c927 1ebd 2e95 bcbe d1bf 2d3e
00000070: d76e 58be bbe5 803e 6740 813e fb8b 4a3e
00000080: ea50 9c3e 9540 2ebe b8d1 01be 8b78 4bbe
0.09357067 -0.33622497 -0.2716126 0.24652334 -0.109526224 0.21614552 -0.2821765 -0.33393
-0.0424976 -0.056413084 0.463244 -0.2210096 0.5374068 0.2749693 0.02043357 -0.01946461
0.28233093 0.057036944 0.15679954 -0.39605758 -0.21906309 0.018362215 0.19393492 -0.4350264
0.0627426 -0.03861216 -0.36832565 0.16967703 -0.21136032 0.2517527 0.25244448 0.19779961
0.30530483 -0.17016824 -0.12677658 -0.19870202

gru_cp_fw.ode_net.odeblock.odefunc.fc1.bias f4 [6]
00000000: 2e49 cc3e 9d4e 81be c4b9 80bd 4d26 f3bd
00000010: bf63 e93e 3180 94be
0.39899582 -0.2525529 -0.06285432 -0.1187254 0.45583913 -0.29004052

gru_cp_fw.ode_net.odeblock.odefunc.fc2.weight f4 [6, 6]
00000000: 01d2 013f 3861 46be 649b ebbd 0eb9 3c3e
00000010: 7539 0b3f f454 1bbd 10f7 b5be ef5a a93d
00000020: 5ac0 873e c9cf f7bc 06aa 713e d6e9 a7be
00000030: 360c ba3e b3f2 a13e 7e4d afbe 980e c1be
00000040: e86e 013e e692 463e 4029 c43e e9d9 933d
00000050: 5d6c cb3e 23bb c53e 5cda 04bd 5a04 b93e
00000060: f4a5 0b3e b777 9abe 231b fb3c 8966 01bf
00000070: 8456 89be aab8 703d 1cc5 923e 17b8 e13d
00000080: e1ce 9fba 8b65 2cbe b945 fbbe 2c63 89be
0.50711066 -0.19373024 -0.11504248 0.18429968 0.5438455 -0.037922814 -0.35540056 0.08269297
0.2651394 -0.030250447 0.23600015 -0.3279559 0.3633744 0.31630477 -0.3423881 -0.37706447
0.12639964 0.19391975 0.3831272 0.072192974 0.39731112 0.38619336 -0.032434806 0.36136132
0.13637525 -0.3016946 0.030652588 -0.5054708 -0.2682382 0.05876986 0.28666008 0.110214405
-0.0012192392 -0.1683561 -0.49076632 -0.26833475

gru_cp_fw.ode_net.odeblock.odefunc.fc2.bias f4 [6]
00000000: 7f04 9abd 2bb0 91be 5ccd 993c 91b1 913e
00000010: 1149 0cbe 90c8 13be
-0.07520389 -0.28454718 0.01877468 0.28455785 -0.13699748 -0.14431977

gru_cp_fw.ode_net.odeblock.odefunc.fc3.weight f4 [6, 6]
00000000: 344a b6be 23e7 f73d a5aa 5bbe 08d5 1dbe
00000010: 81bc 853e 18b2 2f3e cdb0 c83e 864a de3e
00000020: 71fa bbbc 1320 97bd 5162 c5bd 4e6a 933e
00000030: 7a42 69be 1105 703e 1d0c e6bc d3f0 afbd
00000040: 1042 013e eab9 143e 4b35 e6be 4ccd cdbd
00000050: 96f6 b8be 0114 86be dd4c d73d ee95 543e
00000060: 65d9 89be dfcc f4bd be2c 3e3e 8512 a7be
00000070: defa b4bd dace e6bd 6c9a 0fbf 2f3c 0c3e
00000080: ba79 1bbe 4e8f 5c3e 8024 a9bd 3e67 dfbe
-0.35603487 0.12104633 -0.21451814 -0.15413296 0.2612038 0.17157781 0.39197388 0.43416232
-0.022946568 -0.073791645 -0.09637893 0.28792042 -0.22779265 0.23439433 -0.028081948 -0.085908554
0.12622857 0.14524046 -0.44962534 -0.10048923 -0.3612563 -0.26187137 0.105127074 0.20760319
-0.2692367 -0.119531386 0.18571755 -0.32631317 -0.088369116 -0.112699226 -0.56095004 0.13694833
-0.15183154 0.21539041 -0.08258915 -0.43633455

gru_cp_fw.ode_net.odeblock.odefunc.fc3.bias f4 [6]
00000000: bfa8 06bf f2e0 c53e df88 393e 28ec 223e
00000010: 6cf0 cabe 096c 163e
-0.52601236 0.38648182 0.18118618 0.15910399 -0.39636552 0.1468965

gru_dp_bw.decays f4 [7]
00000000: 7200 6500 7000 7200 2d00 6600 6100 6c00
00000010: 6c00 6200 6100 6300 6b00 2000
9.275545e-39 1.0469404e-38 9.367284e-39 9.91837e-39 9.00003e-39 9.09185e-39 2.938886e-39

gru_dp_bw.gru_cell.weight_ih f4 [21, 7]
00000000: b27d 963e 59ad 4c3e 916d a3bd 6be1 033e
00000010: 5369 053d 65b9 8fbe 04e6 943c a5f1 37be
00000020: df41 8a3e 0de9 a2be 5be4 c93e 6530 4cbe
00000030: 8a94 81be 73a7 173e 4938 e8bd af35 383e
00000040: 4a62 f4bd 690c 6b3e fa03 423e 31f8 6d3e
00000050: 1a16 7a3e 90b0 21be f0d2 82bd f63c b9be
00000060: 0464 23be 04c1 6dbe 3b8e e4bc 6284 9ebd
00000070: 490c 683e a5f4 f2bd 5645 3dbe f3ac 00be
00000080: b9eb cbbd da92 133e 2c42 dabc 0d20 e43e
00000090: a826 53bc c3e2 e83d bbc3 33bb 13b6 0f3e
000000a0: ed73 a2be d923 a83d 60cf 8fbe 25b2 0f3e
000000b0: f6c7 0dbd 041f 4f3e dba1 113e 242b 853e
000000c0: ce26 c0be aa1e 51be ebf5 c8bd dd9f 703e
000000d0: 7532 3b3e 10a4 e53d 292a 70bd a792 78be
000000e0: 1581 4e3d fbbf 04bf 4d29 4e3e faf2 e5be
000000f0: 3368 b8bd 141e aa3a 2cbc 9c3e fc52 193d
00000100: f71d c8bd 39e7 cf3e b20e 8b3e 61e2 963e
00000110: 53a6 e9be d3f0 723c 3f7a e43d 1633 cd3c
00000120: 775b bfbe 5e80 3d3e 9c46 3cbd 04f3 e4bd
00000130: 7f18 3ebe 07cd e5be 24a2 eebd a757 08be
00000140: b108 323e 1f97 6ebe e938 5c3e 8561 09be
00000150: 7cf0 da3e 66f2 a2bc d49d c23d f72e 723e
00000160: 09ba a53d 4665 013e 31ab 563e 4719 97be
00000170: f97b 0b3d 2595 bfbd db78 dabe c0c0 02be
00000180: 8cd1 b03e d871 febd 4dde ef3d 24d7 dabd
00000190: 237f 803e 4c8e 51be adb5 5ebe 381b 39be
000001a0: 2d52 9f3e 621c 9d3e 0e1b e53e b2f9 91be
000001b0: 59b2 983e 9538 ab3d 7588 243e 5479 1d3d
000001c0: 7a1b b9bd d10f 9dbd 38cc cc3d 8c08 dd3d
000001d0: 7a00 ff3d c1ee 97be 2c21 3f3e b448 453e
000001e0: cdfb f13d e9da e73d 43bb c43d ba9c 373d
000001f0: 9750 c63b bb6d f2bd 75ff cd3d 0d08 213e
00000200: 54ef 213e 922d f7bd 0caf 97bd 5438 5bbc
00000210: 3817 c93d 5093 0abf 574d 20bd 39bc 8ebe
00000220: fafc a0be 9fdd 62be 5f28 6fbe d684 08bf
00000230: af65 aebe 71d1 113e c298 323e 565a c6be
00000240: 024a 05be c6df a33e 990a 18be
0.29392773 0.19988002 -0.079798825 0.12878959 0.032571148 -0.28071132 0.018176086 -0.17963274
0.2700338 -0.3181843 0.39432034 -0.19940336 -0.2530864 0.1480997 -0.113388605 0.17989229
-0.1193281 0.22953953 0.1894683 0.23239209 0.24422494 -0.1579001 -0.063878894 -0.36179322
-0.15956122 -0.23218161 -0.027899852 -0.07740094 0.22660936 -0.118630685 -0.18483481 -0.12565975
-0.0995707 0.14411488 -0.026642881 0.44555703 -0.012887634 0.11371376 -0.0027429897 0.140343
-0.3172907 0.082099624 -0.28087902 0.140328 -0.034614526 0.20226675 0.14221899 0.26009476
-0.37529606 -0.20421854 -0.0981253 0.23498483 0.18280967 0.11212933 -0.058633957 -0.24274693
0.05041607 -0.5185544 0.20132942 -0.4491194 -0.090042494 0.0012978935 0.30612314 0.037432656
-0.0977134 0.40606096 0.2715965 0.29469588 -0.45634708 0.014827925 0.11156129 0.025048774
-0.3737447 0.18506 -0.045965776 -0.11179164 -0.18564032 -0.44882986 -0.116520196 -0.13314687
0.17386128 -0.23299836 0.21506085 -0.13416107 0.427616 -0.019890975 0.095027596 0.23650728
0.08092124 0.12636289 0.20963742 -0.29511473 0.034053776 -0.09354619 -0.4267033 -0.12768841
0.34534872 -0.12424058 0.117123224 -0.10685566 0.25096998 -0.20464438 -0.21748991 -0.1807679
0.31117383 0.30685717 0.44747204 -0.28510815 0.29823568 0.083604015 0.16067679 0.038445786
-0.09038444 -0.07669032 0.09999889 0.10792646 0.12451263 -0.29674342 0.18664998 0.19266015
0.11815605 0.11321051 0.0960603 0.0448272 0.0060520875 -0.11837336 0.1005849 0.15725727
0.15813953 -0.12069239 -0.074064344 -0.013380129 0.09818882 -0.5413103 -0.039136257 -0.27877977
-0.31443006 -0.22154854 -0.23355244 -0.5332769 -0.34061953 0.14240052 0.17441085 -0.38740796
-0.13016513 0.32006663 -0.14847793

gru_dp_bw.gru_cell.weight_hh f4 [21, 7]
00000000: 0481 b1be 0cc2 96be b3f4 d13e 9401 41be
00000010: 3f0b 863e 561c 5b3e 3ad1 f03e f612 783d
00000020: d5d1 853d 7426 833e d2c7 2bbe c522 a5be
00000030: c7c5 3e3e 2217 03be 6893 a2be 1052 8ebe
00000040: 818f 353e ebbb 9abe 6603 843c 293d f13c
00000050: e629 aebe cbf8 803e c1c8 563e c301 83be
00000060: d38f 08be 1b31 a63e 2d54 853e 2980 e93e
00000070: 4a33 24bc 81c1 10bf 33a0 0f3d 672e 93be
00000080: ce83 633e 2b56 82be 2911 babd 63f0 41be
00000090: 8965 02bf 5c77 d03d 7d74 913b e173 fa3d
000000a0: 605a 23be 0f46 d3bc 4d07 d9be 27bf 9ebe
000000b0: 2170 273c 7b7e 6d3e 402f 4f3e 5260 f2bd
000000c0: 3d2b c43d 77e9 493e bcdb a3bd 5498 283e
000000d0: 1daf eb3d aae7 903e 24cb 883e eff0 d93d
000000e0: 9101 85bc 234b 183f ba63 86be 4858 573e
000000f0: 9cc0 af3c 5b5b 41be ce6e adbe 187b 9abc
00000100: a36b b6bd 77f7 48bd ec94 c73e 3adc febd
00000110: fe9a de3e 0618 003f e2c3 1a3d b2a9 533d
00000120: c9bb a8be 7ed9 99be 3616 ae3e 24a4 ab3d
00000130: 491f 40be 477c 443b 5601 a1be cf67 e8be
00000140: 539d 103f 10bd c83e e70d b53e f85a d13c
00000150: 5f76 1abe 0f67 89be 129e 5cbc 6521 a2be
00000160: f587 383d 9096 babd 927f 17be d5d4 09bf
00000170: d4a7 1a3e f600 923e 1cbb 013f ba1d 6e3e
00000180: 79df ab3e 5db1 90be b00f a33e dfc8 81bc
00000190: e6b6 abbd f1df 08be e896 1fbf 538a 3a3f
000001a0: de0b 83be 2b43 24bf 7f33 d83e 0298 9bba
000001b0: 0ed2 ca3e 8f9d b23e e959 51be 831f 493d
000001c0: 3b1d 103f 13da a8be ee9b 1d3e 6656 f4be
000001d0: 63c6 1fbf 662b 3cbd de92 1fbf a2aa 06bf
000001e0: 16e1 4a3e 7058 71be 576b eb3d efa2 033e
000001f0: 2872 4abf 20fb ea3e 4642 f4be 25e9 05be
00000200: 8d16 833e 46a3 463f 66a9 8d3d 2e79 1fbf
00000210: 91a2 d83e f01d b13e 31ed bb3e a1a0 babe
00000220: cd47 c2be f2ff db3d bb91 003f 5333 d8be
00000230: 7e1e babe dc29 8a3d f1ae 2bbe 7d2e ae3e
00000240: d777 643e 148a fdbe a082 d73e
-0.34668744 -0.2944492 0.41007003 -0.18848258 0.26180455 0.21397528 0.47034627 0.060564958
0.06534163 0.25615275 -0.16775444 -0.3225309 0.18630134 -0.12801793 -0.31753087 -0.27796984
0.17730524 -0.30221495 0.016114902 0.029448109 -0.3401634 0.25189814 0.20975019 -0.25587282
-0.13336115 0.3245934 0.26040784 0.4560559 -0.010021994 -0.56545264 0.035064887 -0.2874634
0.22218248 -0.25456366 -0.09085304 -0.18939357 -0.5093618 0.10179016 0.0044389353 0.122291334
-0.15952444 -0.025790242 -0.42388383 -0.31005213 0.010219605 0.2319278 0.20232868 -0.11834778
0.095785595 0.19717966 -0.080008954 0.16464359 0.115080096 0.28301746 0.26717484 0.106416576
-0.016236098 0.5948965 -0.2624796 0.2102977 0.021454148 -0.18882506 -0.338736 -0.018857524
-0.08907249 -0.049064126 0.38980806 -0.12444349 0.43477625 0.50036657 0.037784465 0.051675506
-0.3295577 -0.30048746 0.3400132 0.08380917 -0.18761934 0.0029981302 -0.31446332 -0.453917
0.5649006 0.39206743 0.3536217 0.025556073 -0.15084217 -0.2683644 -0.013465421 -0.31666103
0.045051534 -0.09110749 -0.14794758 -0.5384038 0.15103084 0.28516358 0.5067613 0.23253527
0.33568934 -0.28260317 0.31847906 -0.015842853 -0.083844945 -0.13366677 -0.6233964 0.72867316
-0.2559499 -0.6416499 0.42226788 -0.0011870863 0.39613384 0.34885833 -0.20444454 0.049102318
0.562946 -0.32978877 0.15391514 -0.47722167 -0.6241209 -0.045939825 -0.62333477 -0.52604115
0.19812426 -0.23568892 0.11495083 0.12855123 -0.7908044 0.45894718 -0.47706813 -0.13077219
0.25603142 0.77592885 0.06917076 -0.6229428 0.42311528 0.34593153 0.367044 -0.36450675
-0.37945405 0.10742177 0.5022237 -0.42226657 -0.3635139 0.06746265 -0.16765954 0.34019843
0.2231134 -0.49519408 0.42091846

gru_dp_bw.gru_cell.bias_ih f4 [21]
00000000: c9c5 0a3f 50bf f33e 3fbf 463e 33c1 2c3e
00000010: 90b9 e03e 240a 0d3f 9d50 ba3e b9a2 153f
00000020: b42b c03d 5f8d e53e 5c16 1a3f 2325 123e
00000030: ba66 0a3f e107 ef3e c5ae c2bd de16 97be
00000040: 7c08 2e3e 724d 02bd 26ee c33c d065 7cbe
00000050: 09a3 1bbd
0.54208046 0.47606897 0.19408892 0.16870575 0.43891573 0.550936 0.36389628 0.5845142
0.09383336 0.4483442 0.6019037 0.14271979 0.54063 0.466857 -0.09505991 -0.29509634
0.16995424 -0.03181214 0.023917269 -0.24648213 -0.03799728

gru_dp_bw.gru_cell.bias_hh f4 [21]
00000000: 1f86 9a3e 9322 ad3e 0c27 d53c f1af ab3e
00000010: 460f 273f 00e6 8f3e 92d1 993e 5f29 653e
00000020: 046d 0d3f 1e52 8ebd 0888 1b3f c4f3 33be
00000030: 81b3 493f dc66 733f 4741 6e3e f5f8 ccbe
00000040: d3f8 1e3e e956 87be ef20 1fbe 6f91 033e
00000050: 2011 53bd
0.3018045 0.3381544 0.026019596 0.3353267 0.6525768 0.28105164 0.30042702 0.22379063
0.5524447 -0.06949256 0.6075444 -0.17573458 0.78789526 0.95078826 0.23267089 -0.4003369
0.15524606 -0.26433495 -0.15539907 0.12848447 -0.051530004

gru_dp_bw.ode_net.odeblock.odefunc.fc1.weight f4 [7, 7]
00000000: c290 56be fec5 46be 376a 24be 0eee 113e
00000010: b9fb bc3d 3ca9 92be b191 c2bd bee1 0ebd
00000020: 2bf6 6f3e e1e1 d43e 2fd6 d03e acb8 c13e
00000030: 39f7 49be 82bd 55be 81ef 88be 02dc 21be
00000040: dd1d 9d3e c4eb 593e e5ce e93d be1f e4bd
00000050: 52af 5d3e 26b4 f63d 54a3 823c 86b5 573e
00000060: eb78 21bd 475a 25be 6a9a 7bbe 3000 c93e
00000070: a048 f0bd f151 9e3d 59fb 023c 33a0 a43e
00000080: 6a5d f43c 9892 ebbe 8072 2e3d 0e82 923d
00000090: 219b 3abe f889 8cbd b8b3 08be 1742 8cbe
000000a0: 274d b3be 5c24 a6be 1f1c 2d3e 86f2 683e
000000b0: 2e73 433e 29e4 813e 9c3e a43e 067c c3bd
000000c0: 1712 dc3d
-0.20953658 -0.19411466 -0.16056143 0.14250967 0.092277 -0.2864474 -0.09500445 -0.034883253
0.2343375 0.41578582 0.4078841 0.37836206 -0.19723214 -0.20873073 -0.26745227 -0.15806583
0.30686846 0.21281344 0.11416415 -0.11138867 0.2164891 0.12046079 0.015947022 0.2106534
-0.039421957 -0.1614772 -0.24570623 0.39257956 -0.11732602 0.07730473 0.007994496 0.32153472
0.0298297 -0.4601028 0.042589664 0.07153712 -0.1822324 -0.06862253 -0.13349807 -0.27394173
-0.350198 -0.32449615 0.16905259 0.22748765 0.19086906 0.25369385 0.32079017 -0.0954514
0.10745638

gru_dp_bw.ode_net.odeblock.odefunc.fc1.bias f4 [7]
00000000: 097d 4d3e b0c7 983e d4c2 0c3f 9941 16be
00000010: 6f1a 7d3e 23b7 863e 2faf c03e
0.20067228 0.2983985 0.54984784 -0.14673461 0.24717115 0.26311597 0.37633654

gru_dp_bw.ode_net.odeblock.odefunc.fc2.weight f4 [7, 7]
00000000: 22a5 bf3e 5b1d b9bc 2f5b 843e 88ff e53e
00000010: 26fa a33e 89e0 103e 1fb1 24be 0c6d 7e3e
00000020: 1dcd 8ebe 0bcf 153e cb38 883e 7478 42be
00000030: bab6 16be b986 08be 931a 043e 8c30 143f
00000040: 4a4d 743e b33b 7f3e b204 c93e bba6 cd3d
00000050: dcf1 0b3f 30fe e83d 69f9 2c3e 8ca1 553d
00000060: eae9 293e 6354 2cbe 4c22 a9be 1194 d93d
00000070: 7f9e 673e 957e 533d 88d3 023f 2afb c03e
00000080: 83f7 6a3e 80ba 4f3e 8a6b bc3e 81ae 9d3d
00000090: ea05 223f 6257 573e d8e5 9d3e 7560 0f3e
000000a0: dfb1 ae3e 0b87 a7bc 5edd 943d 4d3f cb3e
000000b0: 2c60 0a3e a4cf 473e 61d7 9b3e dd87 4c3d
000000c0: b3e2 2d3e
0.37430674 -0.022597006 0.25850818 0.44921517 0.32026786 0.14148153 -0.16083191 0.24846286
-0.27890864 0.14629762 0.2660583 -0.18991262 -0.14718142 -0.13332643 0.12900762 0.57886577
0.23857608 0.24925117 0.39261395 0.10041567 0.54665923 0.113766074 0.16892017 0.052156016
0.16593137 -0.16829066 -0.3303398 0.106239446 0.22619055 0.05163439 0.5110402 0.37691623
0.2294598 0.20285988 0.36800796 0.076992996 0.63290274 0.21029428 0.3083942 0.14001639
0.3412008 -0.020450136 0.07268785 0.39696732 0.13513249 0.19512802 0.3043776 0.049934257
0.1698101

gru_dp_bw.ode_net.odeblock.odefunc.fc2.bias f4 [7]
00000000: c01c 903e 5275 7d3e be14 273f cf59 dbbe
00000010: d598 0b3f e6fa 3c3f 0e43 0b3f
0.28146935 0.24751785 0.65266025 -0.42841956 0.5453008 0.7382034 0.5439919

gru_dp_bw.ode_net.odeblock.odefunc.fc3.weight f4 [7, 7]
00000000: e247 93bd dd7c debe 10a9 d6be 32cc 67be
00000010: dfc0 6ebe 2a6a 4bbd 3c3e e8be 1715 d23d
00000020: 0987 23be 8660 1b3e 957a 0c3d 94f9 6cbc
00000030: ee59 42be 8f45 c1bd 417c 10be 53f8 48bc
00000040: 02fc cf3e e7d2 28bc 85ab 003f f26e e43e
00000050: 0eda 0dbd ff77 133e 155b f33e 2d70 043e
00000060: 2b8d 823e 1a4e 1a3f 0979 283f e2ce 2b3f
00000070: 2a9b 603e fe42 8c3e 62d4 a23b 32ef 893b
00000080: 93a8 a03d bfab 833c bda7 813e 15a4 1abf
00000090: 2880 23be aaf2 46bf ff26 88bd 6f81 3ebf
000000a0: 74cf d5be 2ded bcbe 77a4 c33e 7714 d63e
000000b0: f7b9 ae3e 1d91 8e3e 17de 0c3f 6c97 e23e
000000c0: 45a1 583e
-0.07191445 -0.43454638 -0.4192586 -0.22636488 -0.23315762 -0.049661793 -0.4535998 0.10257929
-0.1596948 0.1517354 0.03429659 -0.014463801 -0.18979618 -0.094370954 -0.14109899 -0.012266236
0.40621954 -0.010304189 0.5026172 0.44615895 -0.03463178 0.14401244 0.47530428 0.12933417
0.25498328 0.60275424 0.65809685 0.67112553 0.2193419 0.2739486 0.0049691657 0.0042094225
0.07844653 0.016073106 0.25323287 -0.6040662 -0.15966856 -0.77714026 -0.06648063 -0.7441625
-0.41759837 -0.368997 0.38211414 0.41812488 0.34126255 0.27845088 0.5502638 0.4425615
0.2115527

gru_dp_bw.ode_net.odeblock.odefunc.fc3.bias f4 [7]
00000000: f731 2cbf e2ca f63d 4a69 b1bb 4e35 223f
00000010: 633e 9a3d fa0e 12bf 9d04 8a3d
-0.6726374 0.120504156 -0.0054141628 0.63362586 0.075314306 -0.570541 0.06739161

gru_cp_bw.decays f4 [6]
00000000: 7420 6973 2032 3420 696e 2074 6865 2074
00000010: 776f 2d73 6964 6564
1.8470206e+31 1.5263178e-19 5.0842705e+31 5.083156e+31 1.3740969e+31 1.6926159e+22

gru_cp_bw.gru_cell.weight_ih f4 [18, 6]
00000000: 37db 25be 0744 5fbe 7ce3 5f3d 237c 61bd
00000010: 5158 bf3d 4c98 203e e423 4b3d 3ef2 4bbe
00000020: bafa ce3c 7629 0fbd 3693 22be cfd9 b13e
00000030: 964c 84bd c4a9 293c 0b94 14be 74a3 bebe
00000040: 27c0 143c 071a abbd c2c6 9e3e 8bd4 69be
00000050: 6d36 ebbe 01fc 013f 9272 88be 12d9 85bc
00000060: 0449 923d 54e9 3ebe 2e03 bd3e 37b6 4d3e
00000070: 32c7 1bbe de36 863d 1c37 d9be 28ca 283e
00000080: 0a54 d83d 7562 b93d 77b4 543b 5907 0c3d
00000090: fd01 9c3e 80f0 683e 1f2a 5ebe 1691 55be
000000a0: 7c01 17bd 103a 9abd c493 0cbc f43f 92be
000000b0: bee5 9bbe a15a 173e 2a1d 5a3e b3a5 4f3d
000000c0: a803 81be 3f43 3b3e 93b4 6bbe cbd6 0a3e
000000d0: 4d2b 84be 6aaa 063e 2cec 453d 9705 aa3e
000000e0: 6ce3 b13e 481c a2be c7b2 a5bd f53a 813e
000000f0: ee74 333e 2d04 1f3d 22f6 2fbe d56b 99be
00000100: ddbb f6bc 0a9e 953e 8e93 cebd 6334 c9bc
00000110: 8f57 f0be f09d e2be c213 263e c52a b23e
00000120: 1890 c0bd 01da 873e 4349 8b3e da84 04be
00000130: ccc7 d8bd 4d58 91be 948b 62bc 827c 353d
00000140: 7a9e 853c 2141 09be e046 503e a6f5 5dbd
00000150: c4f9 a83e 75bd c3be bddf b8be 0de7 2bbd
00000160: 1935 d8bd 2e8b cfbe b0bc ccbe 4c5c 3d3e
00000170: 748f 50bd de58 4c3d 4a6f e23c 3d8a 5d3e
00000180: e2f7 b93e 1462 6a3b adee 90be 1d9b 903e
00000190: aeba 1dbe 1902 923d 8831 14bf a5f0 083d
000001a0: 8013 373f a076 88be d9d0 59bd f81e 9a3d
-0.16196905 -0.21803294 0.054660305 -0.055050027 0.09343017 0.15683097 0.049594775 -0.19916627
0.02526604 -0.03495165 -0.15876469 0.34736487 -0.0645992 0.010355417 -0.14509599 -0.3723408
0.009079016 -0.08354574 0.31011015 -0.22834985 -0.4593996 0.5077515 -0.2664991 -0.016338859
0.07142833 -0.18643695 0.36916488 0.2008904 -0.15212706 0.06553434 -0.42424858 0.16483366
0.10562904 0.09051982 0.0032456198 0.034186695 0.30470267 0.22747993 -0.21695755 -0.20856127
-0.03686665 -0.07530606 -0.008580152 -0.28564417 -0.30448717 0.14780666 0.21300188 0.050695132
-0.25198102 0.18287371 -0.23018102 0.135585 -0.25814286 0.13150945 0.048320934 0.3320739
0.34743822 -0.31662202 -0.0809074 0.25240293 0.17525074 0.03882234 -0.17183736 -0.29965082
-0.030118877 0.29222137 -0.100867376 -0.024561113 -0.46941802 -0.44261122 0.16218475 0.34798256
-0.09402484 0.2653351 0.27204332 -0.12941304 -0.10584983 -0.2838768 -0.013827223 0.044308193
0.01631092 -0.13403751 0.20339537 -0.054189347 0.33003056 -0.38230482 -0.361082 -0.041968394
-0.105570026 -0.40535873 -0.39987707 0.1849224 -0.050918058 0.049889438 0.027640957 0.21634765
0.36321932 0.0035764026 -0.28307095 0.28243342 -0.15403244 0.07129306 -0.5788808 0.03343262
0.7151413 -0.26653004 -0.05317769 0.07525438
