ablation3_epochs/ode_attention/final_model.pt (torch, 107783 bytes, 23 tensors)

embed_dp.weight f4 [1292, 13]
000000 00 00 00 00 00 00 00 00 00 00 00 00 00 00 00 00
       0.0 0.0 0.0 0.0
000010 00 00 00 00 00 00 00 00 00 00 00 00 00 00 00 00
       0.0 0.0 0.0 0.0
000020 00 00 00 00 00 00 00 00 00 00 00 00 00 00 00 00
       0.0 0.0 0.0 0.0
000030 00 00 00 00 d2 53 3f bf 12 30 88 bf ca 9d 8b be
       0.0 -0.74737275 -1.063967 -0.2726882
000040 e1 5d 92 3e 48 19 94 3f d8 5d e0 3f 55 88 64 be
       0.2858725 1.1570215 1.7528639 -0.22317632
000050 bd b7 d7 bf c6 b8 e9 bd c7 70 e7 3d de 94 ad bd
       -1.6852947 -0.11412196 0.113008074 -0.0847566
000060 db 43 c8 3d ea 8b 92 3f 65 26 be bf a9 ba 3a bf
       0.097785674 1.1448948 -1.4855467 -0.7294107
000070 53 09 0b 3f ef 84 c4 3f a2 f4 77 be 80 8d c9 3f
       0.543111 1.5353068 -0.24214414 1.5746307
000080 28 3e d6 bf 62 df d3 bf e6 51 2f 3e db 0a 56 bf
       -1.6737719 -1.6552546 0.17121086 -0.83610314
000090 83 3a ad 3f 14 34 41 3e 3a 8e 8c 3f e6 e3 68 bf
       1.3533481 0.18867522 1.0980904 -0.90972745
0000a0 85 b2 23 3f de 31 2c bf 4a 83 2a bf 26 96 ab be
       0.63944274 -0.6726359 -0.6660658 -0.33512992
0000b0 d4 17 4b bf f5 46 c5 bf 83 7a da 3e 57 d7 92 bf
       -0.79333234 -1.5412279 0.42671594 -1.1471967
0000c0 7f 7e 23 40 0d 54 27 be 31 48 3d be ce 3c b2 bf
       2.5545957 -0.16340657 -0.1848457 -1.3924806
0000d0 43 28 4c bf 3b df 22 3f b0 cc 57 be ae 44 c3 3d
       -0.79748935 0.6362187 -0.21074176 0.09534584
0000e0 da 7b 36 3f 53 a5 78 bf 6f f9 7d 3f e6 ed d0 bf
       0.7128273 -0.97127265 0.9920873 -1.6322601
0000f0 71 bc cb be 99 78 0f 3f cc 30 1c 3c 5a 15 64 bf
       -0.39792207 0.5604339 0.009533118 -0.8909508
000100 f2 39 cf 3f 12 08 29 3f 76 30 36 3f a1 8a 3b bf
       1.6189559 0.6602794 0.71167696 -0.73258406
000110 00 0a 7a 3e a0 8f 77 bf 4c ce fb 3e 0a f0 b7 be
       0.24417877 -0.9670353 0.4918083 -0.35925323
000120 2c 43 13 3e 2d db c8 3f 8f d0 41 3f 1e 55 1b 3f
       0.14381093 1.5691887 0.7570886 0.60676754
000130 1f 99 62 3f 6d 29 9d be 71 4c b0 bf 1b cb 94 bd
       0.88514894 -0.30695668 -1.3773328 -0.07265302
000140 b5 1b 32 3e d6 73 25 3f ca f1 4f be 3a 9f 03 be
       0.17393382 0.64629877 -0.20307079 -0.12853709
000150 4b cf ae 3e 1b ad 38 3f b4 c1 ba be b8 93 aa bf
       0.34142527 0.7213914 -0.3647591 -1.332633
000160 85 8f c5 3f 0c 9a e4 bf 13 7a 09 3f 97 61 46 3e
       1.5434424 -1.7859511 0.53701895 0.19373165
000170 8a f6 30 3d 42 73 71 bd a4 04 21 3f eb ca 63 be
       0.043203868 -0.05894781 0.62897706 -0.22245376
000180 90 68 a2 bf 34 9c 80 3f af 80 1a bf f3 74 03 be
       -1.268816 1.004767 -0.60352606 -0.12837581
000190 9b f2 17 3e fa d9 08 c0 90 78 69 3f d7 27 62 be
       0.1483864 -2.1383042 0.9119959 -0.2208551
0001a0 d8 88 ae 3e 0d 3c 9f 3e 0f 2d 27 3f 99 1f eb bf
       0.34088778 0.31100503 0.6530313 -1.8369018
0001b0 04 f6 72 3f 80 e8 2a 3f 14 65 54 be b2 d8 43 bf
       0.9490664 0.66761017 -0.20741683 -0.76502526
0001c0 ad 6f 89 3f f0 1b 7b bf 71 5d 8a bc bc b5 2f bf
       1.0737206 -0.98089504 -0.01689026 -0.6863668
0001d0 29 95 13 3e 2f a4 dc bf de 12 e1 3e eb b1 c1 3e
       0.14412369 -1.7237605 0.43959707 0.37831053
0001e0 30 3f 17 3f 21 cf 1d 3d b6 e9 f6 bd f7 1a ed 3e
       0.5908079 0.03852761 -0.120562956 0.46309635
0001f0 11 40 70 be 7e dd 3e be 19 b8 a6 bd e5 74 87 3e
       -0.2346194 -0.1863918 -0.081405826 0.2645637
000200 2e 1a 80 3f 16 b1 ba be b4 68 e8 bd 2c 72 02 40
       1.000799 -0.3646323 -0.113480955 2.0382185
000210 28 f2 3f be 6a 02 fd bf f2 4f bc 3e 00 e0 8b 3e
       -0.18744719 -1.9766362 0.36779743 0.27319336
000220 24 48 0e bf 26 d2 1a 3f 2f 34 9a 3f 70 0f c7 3f
       -0.5557883 0.6047691 1.2047175 1.5551586
000230 a3 73 93 bf 9f 9e da bc 01 8a 93 be 4d d0 09 3e
       -1.1519665 -0.026686965 -0.28816226 0.13458367
000240 be 07 8a bf 3d b0 b2 3f 76 54 8e 3f 12 68 c4 3e
       -1.0783613 1.3960034 1.1119525 0.3836065
000250 e4 8a 5a 3f ee 7e 9a bf 1a 19 96 3f c3 4f 6a bf
       0.8536818 -1.2069986 1.172641 -0.91527957
000260 f7 eb 8a bf c4 f2 23 3f a0 9e 03 bf 03 c7 7a 3e
       -1.0853261 0.64042306 -0.5141392 0.2448998
000270 86 38 02 be 65 8c 41 bf 01 d1 4d be e0 f0 23 bf
       -0.12716874 -0.7560485 -0.2009926 -0.6403942
000280 0b 70 c2 bf 80 e2 6f 3d 7b 75 a9 3e 18 72 f4 3d
       -1.5190443 0.058565617 0.33097443 0.11935824
000290 b5 a0 2d bf fb 27 b6 bc 41 00 16 3d 70 c3 3c bf
       -0.67823344 -0.022235861 0.036621336 -0.73735714
0002a0 11 45 9e bf 1c bd 39 3f ed d0 a7 3f 46 25 99 3f
       -1.2364827 0.72554183 1.3110634 1.19645
0002b0 6b 1b 19 3d 59 e3 73 3f d4 f2 d3 be 45 17 8f 3f
       0.037379663 0.9526878 -0.413962 1.1178976
0002c0 51 2b 6f 3e 00 89 ed 3f 24 6e d3 bf 8a 6e 37 bf
       0.23356368 1.8557434 -1.6517987 -0.71653044
0002d0 46 4d 6e bf 9a 2d 85 3f 79 42 8e 3e 30 5d 4b 3f
       -0.9308666 1.0404541 0.2778509 0.7943907
0002e0 1e 39 a9 be 92 20 b6 3f bb 1b ee be f8 e1 89 3f
       -0.3305139 1.422869 -0.46505532 1.0772085
0002f0 a6 53 65 3e d2 c1 80 bf f7 37 d7 be e0 38 19 bf
       0.2239519 -1.0059149 -0.42034885 -0.5985241
000300 c8 0c 58 3f e3 a0 43 bd 9a a3 5e 3f 63 e6 12 3d
       0.843945 -0.047760855 0.86968386 0.035864245
000310 d6 2f 7b be c8 6a 93 3f ae 4f 90 bf 64 e3 1e c0
       -0.24529967 1.1516962 -1.1274316 -2.4826288
000320 69 d0 ef bc 00 38 58 bf d0 18 07 bf f2 b8 c4 3d
       -0.029274182 -0.8446045 -0.52772236 0.09605588
000330 3d 6a a4 bf f8 b7 3a 3e e0 f1 22 3e f2 f7 33 bf
       -1.2844921 0.18234241 0.1591258 -0.7030021
000340 87 77 c8 be a7 66 05 bf 9f b1 74 3f ff be 81 3f
       -0.39153692 -0.5210976 0.9558353 1.0136412
000350 a5 27 ef bf 1d fc be bf 53 83 f2 bf 7c 10 a1 bc
       -1.8683974 -1.4920689 -1.8946327 -0.01966118
000360 29 1b 0d be 08 ff c2 3e 38 3d be 3e 91 17 7c 3f
       -0.13779892 0.38085198 0.3715608 0.9847346
000370 bc 9a 05 c0 dd 21 3b bf a2 01 89 bf 9e 3d a2 3e
       -2.0875692 -0.73098546 -1.0703623 0.31687635
000380 af d1 3f bf e9 2e 32 3f 22 62 a4 bd 69 02 f5 bf
       -0.74929327 0.6960283 -0.0802653 -1.914136
000390 4b 11 3b 3f cc 85 b5 3c 8c 33 c9 bf 78 de 8f bf
       0.7307326 0.022158526 -1.5718856 -1.1239767
0003a0 82 c7 ec 3f 98 3b 10 be d6 d6 47 bf f0 3c 6b 3f
       1.8498385 -0.14085233 -0.7806219 0.9188986
0003b0 05 fa c5 3e 95 ec 6f 3f 77 ed 57 be b8 7b 71 bf
       0.38667312 0.9372037 -0.2108668 -0.94329405
0003c0 49 fb 30 be f0 73 3b 40 20 df 4f 3f 1b 45 e6 be
       -0.17283358 2.9289513 0.81199837 -0.44974598
0003d0 e8 98 1c 3f cc f2 88 bf c7 4a 9a 3e e4 6e 50 be
       0.61170816 -1.0699096 0.30135176 -0.20354801
0003e0 8d c1 c9 be f0 75 d2 3e b6 1b 95 be 34 55 8c 3e
       -0.3940548 0.41105604 -0.29122704 0.27408755
0003f0 95 73 d6 3e cf fb 07 3f 7a 1d 65 3f 34 70 3f 3e
       0.41885057 0.53118604 0.894981 0.18695146

embed_cp.weight f4 [620, 11]
000000 00 00 00 00 00 00 00 00 00 00 00 00 00 00 00 00
       0.0 0.0 0.0 0.0
000010 00 00 00 00 00 00 00 00 00 00 00 00 00 00 00 00
       0.0 0.0 0.0 0.0
000020 00 00 00 00 00 00 00 00 00 00 00 00 12 16 45 bf
       0.0 0.0 0.0 -0.769868
000030 f8 5e 87 bf a6 d7 98 bf e0 c4 ea bc 1c 3e f7 3f
       -1.0575857 -1.1940811 -0.02865833 1.9315829
000040 4f aa bf 3f 35 de aa bf 4b 7b 64 3e 33 b6 19 c0
       1.4973849 -1.3349062 0.22312658 -2.4017456
000050 2b 56 30 bf 1f 60 97 3e 20 17 ff 3d 5a 88 21 bf
       -0.6888148 0.29565522 0.124555826 -0.6309868
000060 00 e3 27 bf 29 cd 0a 3f c9 98 15 c0 1d 4f a0 3f
       -0.6558075 0.542193 -2.3374503 1.2524143
000070 30 4b f6 be b6 67 cb bf 86 cb c9 3e d5 c2 84 3f
       -0.4810424 -1.5891025 0.3941309 1.0371958
000080 12 b8 83 bf 3c 3f c2 3e 39 64 72 3f 2a 47 bc 3f
       -1.0290549 0.3793887 0.9468418 1.4709218
000090 b1 cf 0d c0 3a 14 1a 3f a6 69 1f c0 bc 25 1e bf
       -2.2158015 0.60187113 -2.4908233 -0.6177633
0000a0 4b b3 b5 3f 5b 26 5d bf 5d 92 1a 3f 7e f3 0d be
       1.4195341 -0.8638665 0.6037958 -0.13862416
0000b0 d1 38 f2 be 6a 57 a8 3e f9 69 e3 3c b4 d2 7a bf
       -0.47308972 0.32879192 0.027760493 -0.9797776
0000c0 52 98 39 bf 48 29 a5 be 34 da d7 bf f9 1d 03 bf
       -0.7249805 -0.32258058 -1.6863465 -0.5121761
0000d0 5d c4 00 3e 75 6c bf 3e 65 f8 36 bf cd ba 8a 3e
       0.12574907 0.37387434 -0.7147277 0.27095643
0000e0 49 c9 e3 be 74 88 b5 3f cb f3 94 3f 50 ed e2 3c
       -0.44489506 1.4182267 1.16369 0.02770105
0000f0 09 ef 0d 3f cd e2 4a bf b6 0f 2d 40 31 6a bb 3f
       0.55442864 -0.7925232 2.704084 1.4641782
000100 d9 64 fd bf 03 f0 62 be d7 1b ef 3e 6d b8 5d 3f
       -1.9796401 -0.2216187 0.46700928 0.86609536
000110 f3 3b d2 3e b9 56 0e bf 2d 3f fe be 1b 8c d8 bf
       0.41061363 -0.5560108 -0.49657574 -1.6917757
000120 41 ea df 3c a7 10 04 bf 64 89 58 be 44 24 bb bf
       0.02733338 -0.5158791 -0.2114616 -1.4620442
000130 4a 9e 8b 3f 50 2c 82 3f 08 39 ab 3e 37 1b 04 bf
       1.0907681 1.0169773 0.3344195 -0.51604027
000140 d1 28 18 be fb 7d 63 3f 30 d0 97 3f 76 a9 87 be
       -0.1485932 0.88864106 1.1860409 -0.26496476
000150 8a 82 ac bc f2 d3 da bd 75 ae 83 3e d7 4e 37 be
       -0.02105834 -0.106849566 0.25719038 -0.17901169
000160 be 54 00 bf fd 19 b7 be fb 36 3a be 33 09 f2 bd
       -0.50129306 -0.35762015 -0.18185036 -0.11818161
000170 25 c0 92 3f 4e 61 6d be 1b c5 12 40 9d ad c8 bd
       1.1464888 -0.2318165 2.2932804 -0.09798739
000180 71 af 92 bf 30 cd 1c c0 ce 49 cf bf 5f 96 85 bf
       -1.145979 -2.4500237 -1.6194398 -1.0436515
000190 3b 60 a0 3f f2 db d2 bb b5 86 01 bf d3 e3 53 bf
       1.2529367 -0.006434911 -0.5059617 -0.8276951
0001a0 07 04 fe bf a0 02 67 3f 79 16 a9 bd 39 0c 62 3f
       -1.9844979 0.9023838 -0.082562394 0.882999
0001b0 5d c1 98 3f 37 21 8a 3e 29 dc 12 bf 43 ee cb 3e
       1.193401 0.26978466 -0.5736719 0.39830217
0001c0 55 0f 6c 3f 34 42 32 bf 0d ec b9 3b 6d f6 4b 3f
       0.92210895 -0.6963227 0.0056738914 0.7967289
0001d0 5b c2 10 c0 b0 42 51 bf 25 92 8a be 05 4f 64 3e
       -2.2618625 -0.8174238 -0.27064624 0.22295769
0001e0 d4 71 b7 be e2 b7 7e 3f 03 28 84 3e 17 ee 76 bf
       -0.3582903 0.9949933 0.25811777 -0.96457046
0001f0 d1 96 79 3f d0 13 69 bf a5 59 25 be 0b 28 9a be
       0.9749575 -0.91045856 -0.16147478 -0.30108675
000200 5f 38 99 3f 9d fa 8e 3f f2 d8 42 3f 13 3a 10 3f
       1.1970328 1.1170231 0.7611228 0.56338614
000210 09 13 e5 bf 0b 8c b6 bf df 02 9e 3f 01 8d a2 be
       -1.7896434 -1.4261488 1.2344626 -0.31748202
000220 37 fb 1f bf b5 a5 da be 93 86 55 3f 0d c4 b5 3e
       -0.624927 -0.4270455 0.8340847 0.35501137
000230 85 b6 9e be c8 90 29 c0 a7 0c 46 3f 4a 7d 1b bf
       -0.30998626 -2.6494617 0.77363056 -0.6073805
000240 2d 15 98 3f 89 a9 4d bf 8e 3b 08 bf 31 a8 87 3f
       1.1881462 -0.80336815 -0.53215873 1.0598203
000250 64 92 da 3f 5a 6f 22 bf f5 c5 3a 3f 8a 33 35 3f
       1.7075925 -0.6345116 0.7295831 0.7078177
000260 37 f2 be be ea a0 27 bf aa 75 4d bf cc 45 2a 3e
       -0.3729417 -0.6547991 -0.80257666 0.16628188
000270 31 a5 ac 3f f4 e7 5e 3e 49 83 cd bf 1a db 54 3f
       1.3487912 0.2176817 -1.605569 0.8314682
000280 20 91 5f 3f 0d 6f 9e be 5d 25 d1 bd d9 c2 e0 3e
       0.8733082 -0.309441 -0.102122046 0.43898657
000290 be e3 83 3f 58 dd 6c 3f 44 bd 16 3f 91 41 42 bd
       1.0303876 0.92525244 0.58882546 -0.04742581
0002a0 00 a0 b0 3f 27 fc 15 bf ce d8 db bf e2 7b 4a bf
       1.3798828 -0.5858788 -1.7175539 -0.7909528
0002b0 bb 06 fa bf c3 9e 93 3f ee 20 1e be c1 f7 9f bf
       -1.9533304 1.1532825 -0.15442249 -1.2497483
0002c0 a0 a1 ce 3f a6 d7 0b 3f 1c aa 54 3e 51 9a 9a 3f
       1.6143074 0.5462593 0.20768017 1.2078344
0002d0 2b 08 1b 3f fd b3 5e 3e ab 7c 52 3f 75 21 c9 bc
       0.6055934 0.21748348 0.8222148 -0.024552086
0002e0 f0 b8 e4 3f e6 48 67 be f0 5c 1a bf f7 bb 05 c0
       1.7868938 -0.22586402 -0.6029806 -2.0895975
0002f0 11 3a 5d 3e f1 76 ad 3f 5a 4a 36 bf 4e 04 d7 be
       0.21604182 1.3551923 -0.712072 -0.41995472
000300 f9 19 11 40 8f 45 b9 bf 09 5e 2e 3e f2 6b a2 3e
       2.2672102 -1.4474353 0.17028059 0.3172298
000310 78 31 3d 3f 84 f5 98 bf 25 f7 02 3e 7b ea c7 bd
       0.7390361 -1.1949925 0.1278959 -0.097615205
000320 88 97 8d 3f 37 e4 4a bf 1c 0d f0 3e fd 45 cc bf
       1.1061869 -0.7925448 0.46885002 -1.5958859
000330 80 9a 14 3c ea 8b 04 3f c5 67 9d 3f 0f 18 22 3e
       0.009070039 0.5177599 1.2297293 0.1582949
000340 40 be 86 bf df fe 4e 3f c0 fa ad bd 87 62 4f bf
       -1.052681 0.8085765 -0.084950924 -0.81009716
000350 0e 58 76 3d 0e 6f f8 be 0b 83 7a 3f 05 4c 52 3f
       0.06014257 -0.48522228 0.97856206 0.82147247
000360 fd aa a1 3f b9 77 91 be ca a9 ee 3e dd 58 85 3f
       1.2630306 -0.28411654 0.46613914 1.0417744
000370 04 10 9f 3d d0 ee 99 bf ce f4 7e 3e 1b c7 d8 3f
       0.077667266 -1.2026005 0.24898073 1.6935762
000380 28 4d 1b 3d 35 28 b7 be 65 69 42 3b 2b 5e 39 bf
       0.03791538 -0.35772863 0.002966487 -0.72409314
000390 15 49 84 be 64 12 f9 3c 8b 99 d8 be 10 8c 0b 3e
       -0.25837007 0.030404277 -0.42304644 0.13627648
0003a0 d1 84 98 3e bb 93 af be 3e 06 c3 3f 75 c9 93 bf
       0.2978883 -0.34292397 1.523628 -1.1545855
0003b0 40 ae c3 3f 43 86 01 3f 93 55 a0 bf fa 1a 8c 3f
       1.5287552 0.5059549 -1.2526115 1.0945733
0003c0 1b 20 4d 3f 9d cb b4 be 4e 0d 5b 3e 86 bd 80 be
       0.80127114 -0.35311595 0.21391794 -0.25144595
0003d0 c7 4d 8f bf 91 09 65 bc 3b d5 5f bf c9 0c 92 3c
       -1.1195611 -0.013979332 -0.8743474 0.017828362
0003e0 e2 04 d2 be ce d1 e2 3f b6 c0 2d 3f ba 92 47 3d
       -0.4101935 1.7720277 0.6787218 0.048723914
0003f0 17 0a bd 3f 54 13 96 3f c6 16 85 3f 82 64 80 bf
       1.4768704 1.1724648 1.0397575 -1.0030673

ode_dp.odeblock.odefunc.fc1.weight f4 [13, 13]
000000 15 b1 c9 be 0d dd 97 bd f0 38 16 3e d6 6c 9b 3e
       -0.39392915 -0.07415209 0.14670157 0.30356473
000010 a2 c5 58 be a8 37 89 3c 49 fb bb bd e4 43 22 3e
       -0.21169141 0.016750172 -0.09178788 0.1584621
000020 30 d9 b7 3d f3 13 6b 3e 2d e2 bc be e9 3b 69 3e
       0.08976972 0.22956829 -0.36891308 0.2277676
000030 a0 17 3a 3e a4 ea fc 3c 58 25 34 3e 5f 26 e8 3e
       0.18173075 0.030873604 0.1759237 0.45341775
000040 4b 06 7b be 92 3d 06 3e c8 f8 96 3e 48 ac 79 3d
       -0.2451412 0.13109425 0.2948668 0.060955316
000050 21 d5 1c be 00 7a 4d be 36 61 43 3d f6 71 a9 be
       -0.15315677 -0.2006607 0.04770013 -0.33094758
000060 2a 98 bd 3c 84 95 91 3e 98 2d c7 be 00 eb b1 3e
       0.023143847 0.28434384 -0.38901973 0.34749603
000070 96 aa 8b 3e c3 41 1f 3e 02 87 04 ba 9a 07 48 3d
       0.27278584 0.1555243 -0.0005055518 0.048835374
000080 41 c0 67 3e 3d b1 82 be 6e e1 d0 bd 36 c0 a0 3e
       0.22631933 -0.25525847 -0.10199247 0.31396645
000090 88 9c 79 bd b5 4b 10 3e eb 62 3f 3e 41 03 8a bd
       -0.060940295 0.1409138 0.18690078 -0.06738902
0000a0 85 11 76 be 24 70 f2 3e f2 43 3a bd 00 7c b1 bd
       -0.2403012 0.47351182 -0.045474954 -0.08666229
0000b0 0d 2e 94 bd f9 bc 9c 3e 90 6b 8e 3d 9c a0 40 be
       -0.07235346 0.30612925 0.0695411 -0.18811268
0000c0 47 53 9a 3e cb 41 85 be 7d c7 79 3d f1 22 4a be
       0.3014166 -0.2602676 0.060981262 -0.19739892
0000d0 f5 8d 05 3e 00 b9 16 3e cd d0 8d 3d a1 f6 0f be
       0.13042434 0.1471901 0.06924591 -0.14058925
0000e0 33 46 59 3e 83 a0 66 bd c3 64 64 be ab f9 81 3e
       0.21218185 -0.05630542 -0.22304063 0.25385794
0000f0 f4 a9 97 be e0 18 07 3e 6f 7e 96 3d a7 c9 40 3e
       -0.2962185 0.13193083 0.07348334 0.18826924
000100 9a 83 04 bd 9f c6 9e be f5 c4 0b be e6 c5 f3 3e
       -0.032352068 -0.3101091 -0.13649352 0.47611922
000110 54 2c 7c 3e 48 2b 9e 3d 44 f1 d5 ba 2d 74 e4 3d
       0.24626285 0.07723099 -0.0016322513 0.11154971
000120 60 aa 64 3d 8c fd 76 3d b8 0d 0e 3e ac e4 09 bb
       0.055826545 0.060300395 0.13872421 -0.002104084
000130 1d 5c 9c 3d 74 8b ca 3b d3 02 aa be f8 be 00 3e
       0.07634757 0.006181175 -0.3320528 0.12572849
000140 75 19 42 3d ac f9 80 3e 13 74 a4 be 7b 40 a9 3d
       0.04738756 0.25190485 -0.32119808 0.08264252
000150 36 88 2e bd cb 9c 2e bd 0e ba 8e be 2d c6 87 be
       -0.04261037 -0.04263 -0.27876323 -0.26518384
000160 32 79 5c be dd bc c1 3e 6f 19 95 3e 4b d9 96 be
       -0.21530607 0.37839404 0.29120967 -0.29462656
000170 3d b1 96 3e 76 5e 02 3d bb 18 6b 3d 92 a4 3b 3d
       0.29432097 0.031828366 0.05739663 0.045811243
000180 1a 91 44 3e 30 7d c2 bd a1 62 8a be ee 3f bb ba
       0.19195977 -0.09496534 -0.27028373 -0.001428602
000190 a1 dc 56 3e 80 05 2a 3b 49 28 ad 3e 79 4f 91 bd
       0.20982601 0.002594322 0.33819798 -0.07095236
0001a0 93 1d 13 be 86 8c 87 be 44 e7 b9 3e 50 78 82 bd
       -0.1436675 -0.26474398 0.36309254 -0.06370604
0001b0 13 e8 77 be 18 5b 1a 3e 56 49 9d 3e d0 ac 00 3e
       -0.24209623 0.15073812 0.30720013 0.12565923
0001c0 f7 07 d9 bd 89 ef 47 3e cb e1 87 3c 70 c2 ff bd
       -0.10597222 0.19524969 0.016587159 -0.12488258
0001d0 48 32 49 3e 61 53 4d 3d 78 2a 77 bd 8c 3d 13 3e
       0.19648087 0.050128344 -0.060343236 0.14378947
0001e0 3b ba 3b 3e 02 ef 9d 3d c8 f1 23 be b0 2f 40 be
       0.1833276 0.07711603 -0.16010201 -0.18768191
0001f0 e4 24 3e 3e e5 74 af bd a1 03 85 3e e4 eb c5 3d
       0.1856876 -0.08567218 0.2597933 0.09664133
000200 59 b8 43 be c5 dd cb bd 82 de 7c 3d 5a 95 10 3e
       -0.19113292 -0.099544086 0.061735637 0.14119473
000210 a7 2e 1d 3e 68 5a 26 bc 59 5b 5b be ac 40 54 bd
       0.15349828 -0.0101533905 -0.21421565 -0.05181949
000220 8f 7c 9b 3e 59 b4 ff 3d 09 b9 be be 08 58 9e 3d
       0.30368468 0.124855705 -0.37250546 0.077316344
000230 55 d5 b8 3e 4f 85 8d be 80 b3 c7 be ee ad 72 3e
       0.3610026 -0.2764077 -0.39004135 0.23699161
000240 ab 41 70 be 7b 19 d0 bd 07 db db bd 44 c7 38 be
       -0.2346255 -0.1016111 -0.107351355 -0.18044764
000250 38 94 ac 3e 6e ff cc 3d e4 30 2b 3e f7 55 36 3d
       0.33706832 0.10009657 0.16717869 0.044515576
000260 41 7e 17 3e dc d2 cf bd 78 3e 74 be a6 a4 2b bc
       0.14794256 -0.1014764 -0.23851955 -0.010476267
000270 e4 ea 7e bc 79 1c 8a be b8 6a eb 3b 89 52 15 bd
       -0.015558932 -0.26974848 0.0071843527 -0.036455665
000280 cb 29 c8 bd 7a 11 4b 3e a1 66 17 be 47 80 40 3d
       -0.097735964 0.19830886 -0.14785244 0.046997335
000290 d4 b6 11 3e ab 07 f5 bd 19 9e 17 3d b0 e4 5c bd
       0.142299 -0.11964353 0.037016008 -0.05392903
0002a0 41 93 ab bc
       -0.02094424

ode_dp.odeblock.odefunc.fc1.bias f4 [13]
000000 5e a2 31 be 94 b9 c3 3e 42 5c 81 bd 3f d5 da 3e
       -0.17347094 0.38227522 -0.06316425 0.4274082
000010 cc 79 97 3e 78 fb a8 bd 75 d0 0c 3e 6a 52 72 3e
       0.2958511 -0.08251089 0.13751395 0.23664251
000020 29 47 d7 bd b8 97 3e be 6d e0 2d bd 00 c1 50 3e
       -0.105116196 -0.18612564 -0.042450357 0.20386124
000030 2c 8a 48 be
       -0.19583958

ode_dp.odeblock.odefunc.fc2.weight f4 [13, 13]
000000 5c de 9b 3c 9f 24 b8 3e ee d6 2f 3d f7 04 21 bd
       0.019026928 0.3596544 0.042929582 -0.039311375
000010 83 63 ff 3b 2c 28 00 3d 1d 11 c7 3e da 93 84 3e
       0.007793845 0.03128831 0.38880244 0.25894052
000020 0d 27 35 bd 29 de 08 3e d0 4e 60 3d eb 7b ea bb
       -0.044226695 0.13365997 0.05476266 -0.0071558855
000030 da 0d 63 bc f9 49 e3 bd 6a 16 50 3e 59 12 a5 3e
       -0.013858283 -0.110980935 0.2032105 0.3224056
000040 2d 2d af bc 67 65 a7 be 71 88 4c 3e 69 85 5c bd
       -0.021383846 -0.3269455 0.19973923 -0.053838167
000050 ad 45 d0 3c d0 20 7c bd 8c 7c b9 3d 61 91 89 3e
       0.025423849 -0.06155473 0.090569586 0.26868728
000060 4f 1f bb 3d 82 08 4b be e6 ef 4b bd c8 65 e3 bd
       0.09136831 -0.19827464 -0.04978933 -0.111033976
000070 af 09 f2 3d cb 30 8d bd 20 bd 28 bc 09 d4 fc bd
       0.11818253 -0.06894072 -0.010298997 -0.1234513
000080 1c 6f 90 be 45 cd f2 3d de 2d fa bd 16 19 e3 bd
       -0.2820977 0.11855558 -0.1221578 -0.11088769
000090 30 6f b8 3d f9 73 58 bd a4 1c 21 be 52 23 a1 be
       0.09005582 -0.052844975 -0.15733582 -0.3147226
0000a0 7c 9b 91 be c1 fd 89 be 5f 42 dd 3d 5e 3c 57 be
       -0.28438938 -0.2695141 0.10803675 -0.21019122
0000b0 10 3b 53 bd eb 1a 97 be bc 18 88 be d3 30 bb 3d
       -0.05157 -0.29512724 -0.2658137 0.09140172
0000c0 8e 0a 20 bd 2d 25 1e be 7a 77 81 bd 94 79 24 3c
       -0.039072566 -0.15443869 -0.063216165 0.010038752
0000d0 f5 f2 ea bc e6 16 34 3e 56 b5 68 bc 5d ff 54 3e
       -0.028680304 0.1758686 -0.01420339 0.20800538
0000e0 e9 f8 db 3b 0b 5c f3 3d 78 9a 96 3e dd 0b 10 3e
       0.006713022 0.1188279 0.29414725 0.14067025
0000f0 9b 67 ad 3e dd 16 2f be 8d c9 53 3d 88 d3 a4 3e
       0.33868107 -0.17098565 0.051705886 0.32192636
000100 ca 93 89 3e 58 d4 35 bc 28 00 ff 3e 44 f9 aa bc
       0.26870567 -0.01109799 0.49804807 -0.020870812
000110 ec 6e 00 3e ca 52 ba bd 76 93 84 3e 84 66 83 3e
       0.12542313 -0.09097822 0.25893754 0.2566415
000120 d2 6a 48 3c af 4a c3 3e 64 45 30 3e 42 35 58 3d
       0.012232499 0.38142917 0.1721397 0.052785166
000130 0d 3c c8 3e d4 5e 68 bd 00 ba 69 3e 56 7d 7d 3e
       0.39108315 -0.05673106 0.2282486 0.24754843
000140 08 0c 0e 3e 94 b0 dc 3e eb 9f af 3d 43 83 6a 3d
       0.13871777 0.43103468 0.08575424 0.057254087
000150 a2 62 46 3e cb 0f 99 bd cd f7 c0 3d 8a cf a7 bc
       0.19373563 -0.074737154 0.09422264 -0.020484705
000160 84 6a 5a 3e de 5b 17 3e ee 34 17 be 9f 1b 10 3e
       0.21329695 0.14781138 -0.14766285 0.14073037
000170 f4 a2 e7 3e 51 c2 7f 3e 8b fc a8 3d e1 c4 0d 3e
       0.4524151 0.2497647 0.08251294 0.13844635
000180 ef 9c 1e 3e 16 2c 18 3e 9f f7 52 3e d9 e8 54 3c
       0.15489553 0.14860567 0.20602272 0.012994968
000190 b4 b1 0c be 54 13 8d be d6 f3 19 be 7f ae 4d 3e
       -0.13739663 -0.2755381 -0.15034422 0.20086096
0001a0 64 66 2b 3e aa 1b 07 be 54 5f 81 3e a9 ed bf bd
       0.16738278 -0.13194147 0.25268042 -0.09371502
0001b0 9e 14 51 be 5a 72 0d 3e dd 54 d1 3d 6a 73 96 be
       -0.20418021 0.13813153 0.102212645 -0.2938493
0001c0 3b 4e 6c be 8a ee 12 3e d7 4f 86 3e f4 25 07 bd
       -0.23076718 0.14348808 0.26232788 -0.03299518
0001d0 15 55 25 3c 90 b2 c6 3e ea 85 3b 3e 50 f1 a9 3e
       0.010091086 0.38808107 0.18312803 0.3319192
0001e0 ba e0 b8 3e c5 26 6d 3d 0e a1 48 3e 33 99 f8 bd
       0.36108953 0.0578983 0.19592687 -0.121385954
0001f0 62 62 5e 3e 6e 16 b0 3e 49 f2 ea bd dc c9 74 3e
       0.21717218 0.34392112 -0.114719935 0.23905128
000200 65 9a c8 3d a9 79 1f 3e 9b 9a bd 3e 54 a0 68 3d
       0.097950734 0.15573753 0.37032017 0.056793526
000210 25 ba 2f 3e 10 7f aa 3e dd 0f 84 3d b6 d0 03 3e
       0.17160852 0.33300066 0.06448338 0.12872586
000220 21 c7 c0 3e b7 02 d7 bc 2f 1b 2a 3d 52 c6 79 be
       0.37651923 -0.026246412 0.04152983 -0.2439206
000230 4f 6f 4c be 5b dd fd 3c 0c b8 e4 bc 0a 86 c8 bd
       -0.19964336 0.03098934 -0.027919792 -0.09791191
000240 d8 d2 97 3d 9c 87 ac bc cf 6a 58 3e bc 4f 1f 3e
       0.07413262 -0.021060757 0.21134494 0.1555776
000250 1c 49 5f 3e 7b 7c c3 3e 9b 86 0d be a7 fa ab 3e
       0.21805233 0.3818091 -0.13820879 0.3358967
000260 4c 4c 17 3e 22 d0 84 3e 59 c2 e0 bd a2 fd 86 bd
       0.14775199 0.25940043 -0.10974569 -0.06591345
000270 8d e4 51 be 09 49 00 be 7d e7 d7 3c 36 03 74 3e
       -0.20497341 -0.1252786 0.0263555 0.2382935
000280 31 31 a3 be 8d f0 a8 3d bf 73 7b 3e c6 be 5d bb
       -0.31873468 0.082490064 0.24555872 -0.0033835634
000290 bf 7e 0c be bd 0f 43 3d 6d 18 50 3e 14 45 0f be
       -0.13720225 0.04762243 0.20321818 -0.13991195
0002a0 86 18 ec bd
       -0.11528115

ode_dp.odeblock.odefunc.fc2.bias f4 [13]
000000 3e b0 f2 3d 06 ac 48 3e a6 68 ac bc 5f f8 8e be
       0.11850022 0.19596872 -0.021045994 -0.27923867
000010 40 8b 0a 3e 7d e6 13 bd 45 75 23 3e 41 df c0 3d
       0.13529682 -0.036108483 0.15962704 0.09417582
000020 d4 92 f2 bd dd 53 0d 3e d1 4a 7e 3d e7 fc 21 be
       -0.118444115 0.13801523 0.06208307 -0.15819131
000030 8d 2b 09 3e
       0.1339552

ode_dp.odeblock.odefunc.fc3.weight f4 [13, 13]
000000 b0 86 10 be ce 11 87 3d f5 8f c0 bd ab ee a4 3c
       -0.14113879 0.06595193 -0.094024576 0.020133337
000010 df 8e b7 bd 9e b6 05 bd 6e 74 fe 3d 20 e6 7d 3e
       -0.089627974 -0.03264486 0.12424551 0.24794817
000020 c6 23 17 3e 4b e3 20 3e 90 35 10 3e 1c 60 dd 3d
       0.1475974 0.15711705 0.14082932 0.10809347
000030 54 02 65 3e ad 17 0d 3e 3e be 2e bd 06 6f 32 bd
       0.2236417 0.13778563 -0.042661898 -0.04356291
000040 ef 2c 30 3e 26 b4 9e be dc 2e 2e be c7 a0 0c be
       0.17204641 -0.30996817 -0.17010063 -0.13733207
000050 e4 5b 8a be 94 55 2f 3c 99 2c 9c be fb 06 f3 bd
       -0.27023232 0.010701556 -0.30502775 -0.11866566
000060 bb 1a 56 be 5f ff a1 3d 75 cc a1 be 76 cf 60 be
       -0.20908634 0.07910036 -0.316013 -0.2195414
000070 60 5f 38 3e b3 18 65 3d 40 0e fb 3d 81 38 02 be
       0.18005133 0.055931758 0.12258577 -0.12716867
000080 7b 5b a2 be 67 ab be be 6e 36 19 3e b2 a6 5b be
       -0.3171042 -0.37240145 0.1496217 -0.21450308
000090 39 90 9a bd 7e e3 ac be 00 68 20 be 0d f0 b3 bb
       -0.075470395 -0.33767313 -0.15664673 -0.005491263
0000a0 5d c5 73 be f2 f2 62 bd e9 89 e5 bd b9 1a 68 3e
       -0.23805757 -0.055407472 -0.11207945 0.22666444
0000b0 b9 8e 36 3e 2d 96 77 be 32 d1 e3 3d 5c a8 35 3e
       0.17827882 -0.24178381 0.11123885 0.17740005
0000c0 e6 59 46 be 4c 58 8b bc c9 39 bb bd 34 07 4c 3e
       -0.19370231 -0.017009877 -0.09141881 0.19924623
0000d0 9a 2c b8 3e a6 99 e9 3d 2e 1a 3f 3d c2 05 98 3e
       0.35971528 0.11406259 0.046655826 0.29691893
0000e0 ba 19 f5 3e 4a 63 d5 3e 8e 59 c2 3e 5e c6 0b 3f
       0.4787119 0.41677314 0.3795895 0.5459956
0000f0 3f 58 be 3d 3b d3 62 3e c6 2b 6a 3e 9f 39 43 3e
       0.09294175 0.2215089 0.2286826 0.1906495
000100 c8 99 c8 bc 25 a2 78 3e 55 9c 3a 3e 1a 0b 04 3e
       -0.024487391 0.24280603 0.18223698 0.1289486
000110 07 fc bd bd 91 79 4c 3d 3a ae 0c bd b1 1a 8b 3d
       -0.09276586 0.049920622 -0.034345843 0.067922
000120 3e 7f 85 bd 94 db 36 3e 49 51 76 be a5 26 c3 3b
       -0.0651841 0.178572 -0.24054445 0.0059555345
000130 b4 d7 10 3e 28 25 a4 bd df 89 f4 bc 2a 62 b9 3e
       0.14144784 -0.080148995 -0.029850898 0.36207706
000140 06 a8 7b 3e da 78 2d be a2 cf 7f 3d 08 88 d4 3e
       0.24575815 -0.16940632 0.062453873 0.41510034
000150 e9 43 37 3e 0a 79 96 3e 45 96 b6 bd 35 3d 84 3e
       0.17897 0.2938922 -0.089153804 0.25827947
000160 42 52 5e 3e 06 af 95 3e d6 fe 8b 3e 2b 67 8c be
       0.21711066 0.29235095 0.27342862 -0.2742246
000170 0e 13 a9 3d 75 9d 1d be 8a b8 fd 3d 22 09 55 be
       0.082555875 -0.15392096 0.12388714 -0.20804265
000180 0b 41 c5 be 27 74 8c bd 5a 82 15 3e 28 15 52 3e
       -0.38526186 -0.06858092 0.14600506 0.20515883
000190 a4 f9 82 be 88 3f 86 bc b3 55 8d 3d e5 e8 46 3e
       -0.25581086 -0.016387716 0.069011115 0.1942478
0001a0 2f 89 07 3e b6 9c ce 3d f3 1a 14 be 42 d1 3b be
       0.13235925 0.10088484 -0.14463405 -0.18341544
0001b0 cc c0 4f 3e 17 af c1 3d 81 69 06 3d 1c f7 48 be
       0.2028839 0.09457224 0.03281546 -0.19625515
0001c0 74 17 96 3e 07 60 93 3e 15 7a 29 be bd 57 51 be
       0.29314768 0.287842 -0.16550477 -0.20443626
0001d0 21 f4 8d 3e c2 52 67 bd 95 7d 3c 3b f1 6b e6 bd
       0.27725318 -0.05647541 0.0028761376 -0.11251057
0001e0 54 a3 8f 3d b7 26 af 3d 53 96 99 be 95 2b a4 bc
       0.07013574 0.08552306 -0.299975 -0.020040313
0001f0 c7 3e 7d be a7 12 3d 3d 94 93 fd 3b 12 ed b9 be
       -0.24730979 0.046160366 0.00773854 -0.36313683
000200 5d 58 b1 be 6a 05 ca be 13 2b 86 bd 00 fe db 3d
       -0.34637728 -0.39457256 -0.065511845 0.10741806
000210 7c ed 3c 3e 1a d7 cb bd c4 6d 86 bd f9 db 24 be
       0.18449968 -0.09953137 -0.06563905 -0.16099538
000220 3b 91 6c be 2e f7 30 3e a3 12 2d be ff 32 0e 3e
       -0.23102276 0.17281792 -0.1690164 0.13886641
000230 f1 8b 23 bd 1f fb 2c be cb 0e 34 3d ec 9f 75 3e
       -0.03992838 -0.1689267 0.04395942 0.23986787
000240 fa a2 61 be 05 01 e7 3c ec f0 d2 bb ff ce 2a be
       -0.22034827 0.028198728 -0.0064374115 -0.16680525
000250 36 54 84 3e 3c 0c 9c 3d 1b b0 cd 3d 69 3e 6c 3e
       0.25845498 0.07619521 0.10043355 0.23070683
000260 d9 c2 00 3e e2 74 5e be dd 9e 54 3e d2 3e 01 3e
       0.12574328 -0.21724275 0.20763727 0.1262162
000270 f3 f9 b1 3c 8a 3a 06 3e 5e fd 24 3d f3 04 5f be
       0.02172563 0.13108268 0.040280692 -0.21779232
000280 05 e7 9b bd 79 ad 8b bd f3 31 f5 bd 20 c1 9c 3e
       -0.07612423 -0.06820197 -0.11972418 0.30616093
000290 79 8b 9f 3e 9e de 30 3e 1c 76 51 3d f5 39 4e bc
       0.31161097 0.17272422 0.05113803 -0.01258706
0002a0 84 14 6c 3e
       0.23054701

ode_dp.odeblock.odefunc.fc3.bias f4 [13]
000000 51 d7 f4 bd d9 5a 39 bd e5 f9 18 3e 08 62 36 3e
       -0.11955131 -0.045252655 0.14939077 0.17810833
000010 7b 2b 60 3d e5 52 01 be 98 33 3b 3c e1 d5 5e 3c
       0.054728966 -0.12629278 0.011425875 0.013600797
000020 42 3b ed 3d a1 59 63 bd 49 42 04 be 35 0f 50 3e
       0.11583568 -0.0555054 -0.12915911 0.20318301
000030 36 ad df 3c
       0.027304273

ode_cp.odeblock.odefunc.fc1.weight f4 [11, 11]
000000 21 fa 59 3e 49 78 9a 3e 07 b3 63 3e 64 5f 25 bc
       0.21286823 0.30169895 0.22236262 -0.010093544
000010 95 93 a3 3c d4 a8 97 3d 7c 9f 37 3c 49 10 06 bd
       0.019967834 0.07405248 0.011207458 -0.032730374
000020 25 24 b9 be ab c6 1f 3e 78 b2 01 be e9 ef 6c 3e
       -0.3616039 0.1560313 -0.12665737 0.23138393
000030 03 ab 47 3e 69 38 8a bd 74 53 c7 be 19 11 a6 be
       0.1949883 -0.06749041 -0.38930857 -0.3243492
000040 41 b7 42 be 8d f7 59 be aa 58 b0 bd 28 80 aa 3d
       -0.19015218 -0.2128584 -0.08610661 0.08325225
000050 42 c8 ad be 0a be a5 3d 4d b0 92 be 5f ba a3 3e
       -0.33941847 0.08092888 -0.28650132 0.31978127
000060 fb 58 03 be 6a aa 70 bd 48 d1 0c be f2 b1 23 3e
       -0.12826912 -0.05875627 -0.1375171 0.1598585
000070 ce 14 61 3e ee 10 56 3d bb f1 a9 bc e1 1d e8 bd
       0.21980593 0.05226224 -0.020745149 -0.11333824
000080 42 0f ea 3d 08 a5 97 3c cb df 78 3e e4 37 20 be
       0.114286914 0.01851131 0.2430412 -0.1564632
000090 fc b2 0a bf 82 8a 05 bf 6e a6 c4 be d1 1b 0c 3f
       -0.5417936 -0.5216447 -0.38408226 0.54729944
0000a0 82 d3 22 bf c8 42 ef bd b6 1e 01 bf 2f 5e 4e be
       -0.63603985 -0.116826594 -0.50437486 -0.20153116
0000b0 e4 18 aa be 71 e4 0b 3e e6 e9 6e 3c 55 a2 1a be
       -0.33222115 0.13661362 0.014582133 -0.15100987
0000c0 f5 0e 92 be 10 0a 24 3e 94 8e bf 3e 19 d0 dc 3d
       -0.28527036 0.16019464 0.37413466 0.10781879
0000d0 83 bb 96 bd 93 0f 21 3e d5 2d 5f be 1c 94 64 be
       -0.07359984 0.15728597 -0.21794827 -0.22322124
0000e0 ea 73 9a 3e 52 05 76 3d a3 e5 ee 3d fe 1c f6 3d
       0.3016656 0.060063668 0.116648935 0.120172486
0000f0 29 59 16 3d 4f ae be 3e d6 7d 6b 3d 51 d3 0f 3e
       0.036706124 0.37242362 0.057493053 0.14045455
000100 ea ac 97 be 9e 17 de 3d 11 e8 82 3e 68 19 82 3e
       -0.2962411 0.10844348 0.25567678 0.25410008
000110 44 d5 04 bf 43 f4 b5 bb 0b 3f 29 bf 60 4b 92 3c
       -0.5188792 -0.0055528 -0.6611182 0.017858207
000120 60 ac 03 3f 98 f4 b2 be 07 ec 1c 3e 4b 86 33 be
       0.514349 -0.34952235 0.15324412 -0.17531697
000130 b7 91 f0 bd f7 dd 19 bd 62 66 a7 3e 72 0c 48 3e
       -0.11746543 -0.037565198 0.326953 0.19535998
000140 1b 1e aa be 69 e9 94 be b1 af 86 be 61 75 c0 3d
       -0.33226094 -0.29084328 -0.26305917 0.09397388
000150 c1 c1 56 bd 38 5b 67 bd c9 71 97 be 86 76 9a be
       -0.052430872 -0.056483477 -0.29579 -0.3016855
000160 c2 39 3c 3d b7 62 d6 3e 44 c7 96 be b4 2b 22 be
       0.04595352 0.41872188 -0.29448903 -0.15836984
000170 5b 53 65 bf f8 ac ed be 11 de 89 3e a1 7d 85 be
       -0.89580315 -0.46421027 0.26927236 -0.2607241
000180 8c c6 8a 3d d7 ff 09 bf 1c 99 0a bf f8 d0 b3 bd
       0.06776151 -0.53906006 -0.54139876 -0.08780092
000190 bf 4e 0b 3f 10 74 b7 be ac b4 3c 3e 0e 70 c7 be
       0.5441703 -0.35830736 0.18428296 -0.38952678
0001a0 2b 06 c1 3e 3f 05 b3 bd 5d 54 fa be 12 ed 9f 3e
       0.37700018 -0.08741235 -0.4889249 0.31235558
0001b0 67 d4 8d bc 6f f2 c4 be bb aa 12 be 0e c7 9e 3e
       -0.017313195 -0.38466212 -0.14322941 0.31011242
0001c0 da 9d 9f bd ee 0b 22 3e 6c a7 d5 3d a8 0e a0 3d
       -0.0779378 0.15824863 0.10432324 0.078152955
0001d0 a4 90 da 3d a3 7a ae be 13 80 83 be 36 61 85 be
       0.10672119 -0.3407794 -0.2568365 -0.2605073
0001e0 7e 33 b4 3d
       0.08798884

ode_cp.odeblock.odefunc.fc1.bias f4 [11]
000000 d1 d7 c1 3e 1e 80 d3 3e b0 7a 4b 3e af f7 fa 3e
       0.37859967 0.41308683 0.1987102 0.49017093
000010 21 41 3d 3c 2f 40 9a 3d 3f 5b f5 3e 8f b9 15 3e
       0.0115511725 0.07531773 0.47921178 0.14621566
000020 c6 69 a3 3e e1 ae b7 3e 3c a9 f1 3e
       0.31916636 0.3587561 0.47199428

ode_cp.odeblock.odefunc.fc2.weight f4 [11, 11]
000000 db ef 61 bd e6 59 61 3e 13 44 7d bc f4 c3 f3 3e
       -0.055160385 0.2200695 -0.015458125 0.47610438
000010 13 db 89 3e df 73 f5 bc 4a e8 10 3f 16 a4 88 3e
       0.26924953 -0.029962478 0.56604445 0.26687688
000020 5b 78 22 3f c7 66 fa 3e f0 c1 85 3e ec 67 64 3c
       0.634649 0.48906538 0.26124525 0.0139407925
000030 53 4d cc 3e a0 c7 c9 bd 00 b6 94 3e 14 8f 8b 3d
       0.39902744 -0.098525286 0.29045105 0.06814399
000040 56 d1 c1 bd 61 35 41 3e fe 76 53 3e 8d 6d fc 3e
       -0.09463756 0.18868019 0.2065086 0.4930233
000050 31 14 87 3e 12 3f 57 3d a5 f1 c1 be 01 d6 b4 bd
       0.26382592 0.052550383 -0.37879673 -0.088298805
000060 6f 8f 12 be 7f 3a a8 be a0 4d af 3d 68 98 b3 bd
       -0.14312528 -0.3285713 0.08559728 -0.087693036
000070 70 c2 62 be 42 58 94 3d 22 cb ae be 87 4a 11 3e
       -0.22144485 0.07243396 -0.34139353 0.14188586
000080 57 dd ac be 86 63 2f 3e 20 0e 98 be 9b 49 73 bd
       -0.3376262 0.17127809 -0.29698277 -0.059396368
000090 e9 c4 cf 3c 7e 34 54 3e 9d 76 87 3e 0a 1c 1f 3e
       0.025362449 0.20723149 0.26457682 0.1553804
0000a0 71 52 1e 3e a7 c0 1c bd f3 be 63 3e 09 9d 81 3e
       0.15461136 -0.038269665 0.2224081 0.2531512
0000b0 1f ec 81 3e ab c4 78 3e dd 82 b0 3d 2f 47 de 3d
       0.2537546 0.24293773 0.0861871 0.10853421
0000c0 22 68 1e 3d e2 94 a3 3e 4b 18 a1 3e e3 af 4d 3e
       0.038673528 0.31949526 0.31463847 0.20086627
0000d0 96 f3 0e 3e ba 70 29 3e 1c 39 ed 3e 9a e3 ae 3e
       0.13960108 0.16546908 0.46332633 0.3415802
0000e0 38 5f fa 3d 0f 0f 4d 3e 20 07 dd 3e 38 7a ea 3e
       0.12225193 0.20025276 0.43169498 0.4579637
0000f0 87 60 22 3e e6 69 0a 3e 9f 4f a1 3e 24 12 02 3f
       0.15857135 0.1351696 0.3150606 0.5080893
000100 37 55 ae 3e c2 dc 2e bd e5 15 a4 3e a4 81 14 3e
       0.3404939 -0.042691 0.32047954 0.14502579
000110 42 c5 a2 3e f4 74 2c 3c f2 8d a4 3e 94 1c d9 3e
       0.3179112 0.010525931 0.32139546 0.42404616
000120 de b8 be 3d f2 70 c0 bc 48 2b 28 3e bd 41 a5 bb
       0.09312604 -0.023491357 0.1642276 -0.005043237
000130 20 8c bb 3e f3 99 88 3d eb 0f a9 3d 62 7a 48 be
       0.36630344 0.066699885 0.08254989 -0.19577935
000140 55 6b 12 be 49 e8 88 bc b2 c5 46 3e ee f7 bb 3d
       -0.14298756 -0.016712325 0.19411352 0.09178148
000150 5b 44 05 bd 7a 7f c2 3e dd f4 57 be 04 92 d7 3c
       -0.032535892 0.37987882 -0.21089502 0.026314743
000160 69 d8 7c be 60 42 47 be 91 fd f9 3d fa f5 a4 3d
       -0.24691929 -0.19458914 0.12206567 0.08054729
000170 f6 4e 7d 3e 0a e1 cf bd 15 25 ba 3e 0c 77 53 3e
       0.24737152 -0.10150345 0.36356416 0.20650882
000180 fb 55 80 3e 4a 44 49 bd d6 a9 03 3e 06 4a 41 3e
       0.25065598 -0.04913739 0.12857756 0.18875894
000190 f2 31 2e be b7 7b e4 bd 8d 53 46 3e 01 74 c1 3d
       -0.1701124 -0.11156409 0.1936781 0.09445954
0001a0 67 a5 bc 3e 9e 0f 81 3e bf 3b d4 3d a8 84 b7 3c
       0.36844942 0.25207227 0.10362958 0.022402123
0001b0 73 65 7e 3e 36 30 9b 3e e9 39 14 3e 1b a6 84 be
       0.24843387 0.3031022 0.14475216 -0.25907978
0001c0 0a 3f 4b 3e 00 7d 0c be e2 da 87 3e 27 bf 98 3e
       0.19848266 -0.13719559 0.26534182 0.29833338
0001d0 85 e3 82 3e 58 0b de 3d 87 58 61 3e 19 16 fb 3d
       0.2556421 0.108420074 0.22006427 0.12260074
0001e0 87 06 92 3d
       0.07130151

ode_cp.odeblock.odefunc.fc2.bias f4 [11]
000000 41 af 06 3f a8 e5 86 bd 29 f1 cd bb 47 0a 23 3d
       0.52611166 -0.06586772 -0.006284852 0.039804723
000010 04 ee f8 3e 42 90 e5 3e 10 3c 61 3e 46 c2 7c 3e
       0.48619092 0.44836622 0.21995568 0.24683484
000020 c7 d5 80 3d 1b e8 16 be 37 3d 8c 3e
       0.06290775 -0.14736979 0.27390453

ode_cp.odeblock.odefunc.fc3.weight f4 [11, 11]
000000 1a 77 81 be 8d 8e 77 bd 6d fd 00 be f2 9b 75 3e
       -0.2528618 -0.06043868 -0.12596674 0.2398527
000010 2a dd 50 3e 7a b0 a1 3d ec b9 ac be 63 f6 17 bc
       0.20396867 0.07894988 -0.33735597 -0.009275052
000020 c3 7a 94 be f2 59 fa bd c7 40 2b bd a0 58 1c bf
       -0.2899991 -0.12224187 -0.041809823 -0.6107273
000030 f1 e2 0d bf c4 a5 39 3e 4c 1a 9d be 0a 90 04 bf
       -0.5542441 0.18129641 -0.30684125 -0.51782286
000040 e9 f7 0b bf 8e d9 0c 3c 1e f1 e1 3c eb 31 c6 bd
       -0.54675156 0.008596791 0.027580794 -0.0967749
000050 ff e0 6e be bc 6b 20 bd fd d4 17 be 20 62 5a bc
       -0.23328017 -0.039165244 -0.14827342 -0.013329059
000060 d8 4f 95 3b 00 49 1f 3e 48 94 6a be 34 e0 73 3d
       0.0045566373 0.15555191 -0.22908127 0.05953999
000070 32 e3 41 3e 78 26 92 be 04 44 f1 bd 25 22 0d 3e
       0.18934324 -0.28544974 -0.11780551 0.13782556
000080 75 f6 89 be b1 c3 da be 46 65 1b 3e da 44 6b bd
       -0.26945844 -0.42727426 0.15175352 -0.05743871
000090 f1 ac 93 3d ed a5 c2 3d 55 92 ec bd cd a1 46 3e
       0.0721072 0.09504304 -0.11551348 0.1939766
0000a0 90 6f 53 bd 96 a6 2f be d6 dc c6 bd 00 86 8a 3d
       -0.051620066 -0.17153391 -0.0971009 0.0676384
0000b0 e2 90 bb 3e 18 21 9b 3e fc 6f c7 3d ab ea 23 3e
       0.36633974 0.30298686 0.09738156 0.16007487
0000c0 e0 1e c5 3e 23 3a 29 3e 50 5a 19 3b 9d 7b 3a 3e
       0.38500118 0.16526084 0.0023399778 0.18211217
0000d0 a7 2b 25 3e e1 2d b0 3e ab 72 76 3e 7d 65 06 3f
       0.16129933 0.34410003 0.2406718 0.5249861
0000e0 42 16 2d 3e f8 e9 20 be 7e 3a d4 bd a7 04 86 3e
       0.16903022 -0.15714252 -0.10362719 0.26175424
0000f0 17 87 ce 3e ec be bd 3e 2e 11 1f 3e 87 dc db bc
       0.4033744 0.37059724 0.15533897 -0.026838554
000100 d1 89 06 3e 90 d6 cf bd 08 94 04 bf 39 a5 f7 be
       0.1313851 -0.101483464 -0.5178838 -0.48368242
000110 59 14 3f be 3a ff 7c be 26 05 fa bd a8 4a 87 be
       -0.18660106 -0.24706736 -0.12208013 -0.26424146
000120 d1 95 3a be 1b d5 91 be ef 68 84 be 2d dc 41 bd
       -0.18221213 -0.284829 -0.25861308 -0.047329117
000130 0d 36 97 be 48 83 25 3e 80 7c 9c 3e ea 55 0b be
       -0.29533425 0.16163361 0.30563736 -0.13606992
000140 98 9b ad 3e 68 8b bd 3c e5 f0 d1 bc ad b8 f4 3e
       0.3390777 0.023137763 -0.025627563 0.47797146
000150 be cf f2 bc c2 97 06 3d 0c b7 84 3e 65 2d 31 3e
       -0.029640075 0.03285957 0.25920904 0.17302473
000160 22 aa c6 be 0a 06 0f 3e fc 2b 49 3d e4 76 53 3e
       -0.38801676 0.13967147 0.049114212 0.20650822
000170 39 5e 1f be 93 9b ba be 14 bb 29 be 28 02 b1 bd
       -0.15563287 -0.3644682 -0.16575271 -0.086429894
000180 c2 2f e5 3d 28 95 1b 3e ec 45 80 3c 76 ac 38 3b
       0.1119075 0.15193617 0.015658341 0.0028178967
000190 2b 92 92 be c6 3c bb bc 0e 71 b1 be 64 a7 9e bc
       -0.28627142 -0.022856127 -0.34656566 -0.019366927
0001a0 e7 47 8f 3d a6 16 0d 3e fd c2 8d be b7 82 bd be
       0.06996136 0.13778171 -0.27687827 -0.3701379
0001b0 49 e4 68 be e9 c9 82 bd 68 b7 c4 be 99 99 35 3e
       -0.22743334 -0.063861676 -0.38421178 0.17734374
0001c0 bc 6d 57 be fa dd 98 be b3 1b 6b be f0 c5 d7 3d
       -0.21037954 -0.29856855 -0.22959785 0.105358005
0001d0 31 04 e0 be cc 82 1c bb 62 5c 95 be 44 4c 09 bd
       -0.43753198 -0.0023881672 -0.29172045 -0.03352
0001e0 6c 60 58 be
       -0.21130532

ode_cp.odeblock.odefunc.fc3.bias f4 [11]
000000 48 fd 01 3e f8 d7 9d be 4b 00 55 be 8d 4f 31 3c
       0.12694275 -0.30828834 -0.20800893 0.010822189
000010 c6 49 ae 3e 56 fb f4 bd 2a a9 e7 3d 4c d7 76 3e
       0.3404066 -0.11962001 0.11311562 0.24105567
000020 cd 8f 10 be 31 fd 59 be 38 6a cf 3c
       -0.14117356 -0.21287991 0.025319204

attention_dp.context f4 [13]
000000 a6 8a 87 be 5a cd f8 3e ff e0 97 3e 11 e4 bb bf
       -0.26472968 0.4859417 0.29663846 -1.4678975
000010 f9 30 75 3f 3f cc 16 3c eb c4 33 3f 14 eb 32 3f
       0.9577785 0.0092039695 0.7022235 0.6988995
000020 a6 d6 12 3f 66 5f fe be db a5 2c 3f 65 f3 cd 3e
       0.5735878 -0.49682158 0.67440575 0.40224758
000030 09 e8 2f 3f
       0.6871343

attention_dp.linear_hidden.weight f4 [13, 13]
000000 78 c7 08 bc 3e 1c 1a 3e 5c c7 9e 3d d7 97 6b 3e
       -0.008348338 0.15049836 0.077528685 0.23007141
000010 1b 0d 8c bd 9e 80 78 bc ec da 08 bd 75 47 20 3e
       -0.06838437 -0.0151673835 -0.033411905 0.15652259
000020 60 b2 04 bf 0e 03 b8 3a 16 bb 25 3e cd 1f 25 bc
       -0.5183468 0.0014038996 0.16184649 -0.010078383
000030 d9 de 46 3e 2a 9a 7b 3e dd 09 f9 bd 56 4c a9 bd
       0.19420947 0.24570528 -0.121600844 -0.08266513
000040 e6 8b fb 3d ab 93 98 3d 1e d6 8f 3e b6 53 11 3e
       0.12282543 0.074500404 0.28093046 0.1419209
000050 1c 55 c6 be f2 5e 0d 3e f0 55 2b 3e 1c 74 b6 be
       -0.38736808 0.1380575 0.16732001 -0.3563546
000060 00 36 b3 3d 12 cc 41 be a8 a9 ea 3d 62 0b 47 bd
       0.08750534 -0.18925503 0.114581406 -0.04859484
000070 63 e7 e1 bd e2 85 02 bf 0c cd ad 3d 4b 94 3b 3e
       -0.11030462 -0.5098554 0.08486375 0.18318288
000080 28 00 c6 3d fa e7 dd bc 45 74 9b 3e cd b7 e7 bc
       0.096679986 -0.027088154 0.30362144 -0.028285885
000090 8e 8d 9b be 47 73 0f 3e 6e 1e dd 3d ac 96 0b bd
       -0.30381435 0.14008819 0.107968196 -0.03407924
0000a0 18 22 a4 3d ad db f5 3e 82 d6 e4 bd 2b b9 94 be
       0.08014315 0.48019162 -0.111737266 -0.29047522
0000b0 27 d7 81 3d a9 65 f7 bd 97 31 a1 3e 83 fa 07 3e
       0.06339865 -0.12079937 0.31483147 0.13279156
0000c0 bd df 9c 3e 12 1a 8c be 16 64 26 3e e0 64 5c be
       0.3063945 -0.2736364 0.16249117 -0.21522856
0000d0 b6 90 80 bd 42 7e 09 be 2f 8c 0a be 8c 9c 02 bd
       -0.062776014 -0.1342707 -0.13530038 -0.031887576
0000e0 fd 03 0f 3e af 9e 26 3e 03 ca ff 3d 21 9f be 3d
       0.13966365 0.1627147 0.124897026 0.09307695
0000f0 c5 47 48 3c b0 95 d2 3d 30 f0 58 be 80 60 83 be
       0.012224142 0.10282457 -0.21185374 -0.2565956
000100 55 f4 8e bc 1b b9 de bd 25 8c de bd 60 33 36 be
       -0.017450491 -0.1087515 -0.10866574 -0.17793036
000110 98 7f 53 be 20 a2 5d 3b 7b 0b d4 3b 31 18 bc 3e
       -0.20654142 0.0033818558 0.006471095 0.36737207
000120 9b c1 80 be 25 df 98 be 05 4e 45 be 66 16 e9 3d
       -0.2514771 -0.29857746 -0.19268043 0.11381225
000130 c0 bc 86 3d 5a e3 2f 3e c7 3b 3a 3e 48 31 a9 3d
       0.0657897 0.17176571 0.18186866 0.08261353
000140 61 44 34 be 1c 79 d7 bc 1d 90 4e 3e a4 18 6b 3e
       -0.1760421 -0.026302867 0.20172162 0.22958618
000150 7e 0b 07 3e 4f e9 2f bd 8a e9 0c be 39 5f 97 be
       0.13187978 -0.04294711 -0.13760963 -0.29564837
000160 00 f0 87 3e 0c 2b 4f 3e de 06 4d 3e e1 99 f0 3d
       0.26550293 0.20231265 0.20022151 0.117481
000170 61 9e 92 3d 91 0f 73 bd 2f 8e a4 be f1 82 09 3d
       0.07159115 -0.059341017 -0.32139727 0.03357214
000180 b1 e4 43 3e 5e b2 87 bd 93 84 30 be cb 28 22 3e
       0.19130208 -0.06625818 -0.17238073 0.15835874
000190 c4 cd c1 bd 34 50 92 be 09 38 27 3e 53 81 42 3e
       -0.09463075 -0.28576815 0.1632997 0.18994646
0001a0 45 98 35 3e 77 d6 30 be 19 b6 82 be 57 a1 a5 3d
       0.17733867 -0.17269312 -0.25529554 0.08087414
0001b0 5c 67 7b 3d 2c 5a 96 3e d6 5b 81 3d bb a9 75 be
       0.061377868 0.2936567 0.063163444 -0.23990528
0001c0 e1 ec 15 be ef ac 03 3e 3c 8f c6 3e 27 5e 93 3e
       -0.14641143 0.12858938 0.38781154 0.2878277
0001d0 5d 2e 56 bd cd 8f a5 bd 20 39 8e 3c 88 3d 3a 3e
       -0.05229031 -0.080840684 0.017361224 0.18187535
0001e0 ca c7 89 3e a1 41 54 3e 9b 0c 9e 3e e5 c9 d5 3e
       0.2691024 0.2072816 0.30868992 0.41755596
0001f0 8f 62 6d 3d 2d 87 53 be 64 23 04 be 4e 00 a7 bd
       0.05795532 -0.20657034 -0.12904125 -0.08154355
000200 73 72 19 3d c6 39 56 be e3 26 59 3e 84 b1 6f 3c
       0.037462663 -0.20920476 0.2120624 0.014629725
000210 3a 7a 4e 3e f5 55 91 bb 48 b7 28 3c 8a 2e 6f bc
       0.20163813 -0.0044352957 0.010297604 -0.014598498
000220 71 70 c8 be 8e 09 19 3e 24 72 29 be 7e 29 d0 be
       -0.39148286 0.14945051 -0.16547447 -0.40656656
000230 12 16 d1 bd e6 b4 3b 3e 40 e1 7b be f5 f1 4a 3e
       -0.10209288 0.18330726 -0.24597645 0.19818862
000240 8a 74 43 be 1e 69 2b be 91 e8 b7 3c c2 57 b2 bc
       -0.19087425 -0.16739318 0.022449763 -0.021770362
000250 88 b6 64 be 8c 8f 29 3e cb 36 e6 3d be 57 c5 3d
       -0.22335255 0.16558665 0.1124092 0.09635876
000260 93 e3 52 be ee 43 0a be 73 aa 9b 3e d3 89 24 bd
       -0.20594625 -0.13502476 0.3040348 -0.040170502
000270 16 19 0c be b7 73 1c 3e 30 a1 d5 be de d6 87 3c
       -0.13681445 0.15278517 -0.4172454 0.016581949
000280 e4 68 98 3e d1 0a 33 be d6 7e c6 bd 59 aa 85 be
       0.29767525 -0.17484595 -0.09692161 -0.26106527
000290 52 d0 1d 3e c0 e0 b6 bd 80 10 80 3e 89 a3 8b 3d
       0.15411499 -0.089295864 0.25012589 0.06818301
0002a0 71 dc 3c 3e
       0.18443467

attention_dp.linear_hidden.bias f4 [13]
000000 c9 25 95 3e 48 24 e4 be 06 5c 38 bf dd 29 50 bc
       0.2913039 -0.4455893 -0.72015417 -0.0127052935
000010 9d e1 ba bd bc b2 c0 3d 36 de fe bd 2d 20 25 bf
       -0.091250636 0.09409091 -0.12444727 -0.6450222
000020 12 af b7 bd e6 fb 95 3e a8 43 02 bb 4c 61 1b bd
       -0.08968939 0.29293746 -0.0019876752 -0.037934586
000030 27 55 4d 3d
       0.050130036

attention_cp.context f4 [11]
000000 10 8e 90 3f 19 7b cc 3f d1 94 7b 3f 4d 6e d6 3f
       1.1293354 1.5975066 0.9827395 1.6752411
000010 48 58 84 bf bb 08 08 3e bf 2a 71 3f 87 13 9c bf
       -1.0339441 0.1328458 0.9420585 -1.2193459
000020 d6 53 7a 3e cc c0 a1 3f 32 81 76 3e
       0.24446043 1.2636962 0.24072722

attention_cp.linear_hidden.weight f4 [11, 11]
000000 c6 17 96 3e 05 fe 47 be 26 22 94 be 06 d2 7f 3e
       0.29315013 -0.19530495 -0.28932303 0.24982461
000010 a5 d5 80 3e e5 ca 67 3e fd 0f 00 bd ed 6c 40 be
       0.25162998 0.22635992 -0.031265248 -0.18791552
000020 2b cf 7a bd 79 41 a8 be 1e b3 87 be e0 80 57 bd
       -0.061232727 -0.32862452 -0.26503843 -0.05261314
000030 27 b1 82 3e f1 9c dc bd 2c f7 7a 3e 9a 85 98 3e
       0.25525782 -0.10772122 0.24508351 0.2978943
000040 8c 65 b6 bd 82 d6 e1 3d d2 04 05 3e 72 a3 b6 3d
       -0.08906087 0.11027242 0.1299012 0.089178935
000050 1d bc cd 3c eb 54 a7 3c e3 a6 0c 3e 11 88 d6 3e
       0.025114113 0.020426234 0.13735537 0.41900685
000060 52 f9 01 3e ef 88 32 3e ea c9 5f be 6f 41 ad bd
       0.12692764 0.17435049 -0.21854368 -0.08459746
000070 ea 15 9a 3e 93 a9 2e be c8 31 98 bc 92 90 74 bb
       0.30094844 -0.17056875 -0.018578425 -0.0037317616
000080 49 e3 ad 3e 9f 5c dd bd b7 fe 87 bd 6c 87 59 3e
       0.33962467 -0.10808682 -0.0664038 0.21243066
000090 9e b6 a7 be e0 c4 41 be 14 3d 68 bd db 70 fa 3d
       -0.32756513 -0.18922758 -0.056698874 0.12228557
0000a0 63 7c 14 3e 84 89 12 be 90 6c f0 3d 3f b1 88 3e
       0.14500575 -0.1431027 0.11739457 0.26697728
0000b0 3a 62 1b 3e 76 c7 0f be ca 2a a1 3e 19 78 a7 3d
       0.15174189 -0.14040932 0.31477958 0.08177204
0000c0 83 af b3 3d 32 d9 83 3d c3 be 35 be 31 13 d4 3d
       0.087737106 0.06437911 -0.17748551 0.10355223
0000d0 a7 cc d3 bd 67 36 32 be 35 53 2a 3e 36 ce 80 3e
       -0.10341769 -0.17403565 0.16633303 0.25157326
0000e0 4a 52 86 3d 91 19 11 3d 15 5d b1 be ba 63 1a 3e
       0.06558664 0.035424773 -0.34641328 0.15077105
0000f0 82 15 a7 3d 17 11 6a 3e 1d b4 81 3d 5c 8d b2 3e
       0.08158399 0.22858082 0.06333182 0.34873474
000100 7d d3 78 be 92 3f 8d 3e 46 1c 9f 3c 07 5b a2 bd
       -0.24299426 0.27587563 0.019422662 -0.07927518
000110 cb 54 ed be 16 2b b3 3d 9e 4b 9a bd ff fd 11 3d
       -0.46353754 0.08748452 -0.07533954 0.03564262
000120 43 81 a8 be 4b ed 10 be a0 0a a2 3d 75 16 47 be
       -0.3291112 -0.1415302 0.07912183 -0.1944216
000130 2f a8 bf bc 1a 86 ab be 93 9d 7b 3e f2 22 3a be
       -0.023395626 -0.3350075 0.24571829 -0.18177393
000140 b9 59 a5 be 85 17 69 3e 95 f7 26 be 56 ab 02 be
       -0.32295015 0.22762878 -0.16305383 -0.12760672
000150 13 01 20 bd aa 4b 39 3e e9 3b 88 be f7 f7 85 3e
       -0.039063524 0.1809527 -0.26608208 0.26165745
000160 4b 35 59 be 8d 55 61 3c 8a 2b 2a be 69 97 b3 3d
       -0.21211736 0.013753307 -0.16618171 0.087691136
000170 92 b8 73 be d2 6f ed 3d b3 cf 75 3d 3e dc 03 3e
       -0.23800877 0.11593594 0.06001253 0.12876984
000180 9d 60 aa 3e e5 fd 98 3e 2a 3e 25 bd 08 e7 a4 bd
       0.33276835 0.29881206 -0.040342487 -0.08051878
000190 09 50 8c 3d 86 cc 87 bc 9a 04 37 be 2f e8 91 3e
       0.06851203 -0.016577017 -0.17872849 0.28497455
0001a0 23 ce 40 be 20 0c cd 3d 43 0f b7 3e 86 07 22 bd
       -0.18828635 0.10012078 0.3575383 -0.039557956
0001b0 c0 7d 55 bd bd bb 80 3c ec 53 61 3e 6c 14 49 be
       -0.052121878 0.01571452 0.2200467 -0.19636697
0001c0 96 ff 6e 3e 8f 97 bf 3d 10 0f bb 3d 7d 36 c8 be
       0.23339686 0.093550794 0.09133732 -0.3910407
0001d0 ff 8e 48 3e c5 a1 9f be 06 45 1c be ce 87 b5 3e
       0.19585799 -0.31178108 -0.15260705 0.35455173
0001e0 6d 2b 25 3e
       0.16129847

attention_cp.linear_hidden.bias f4 [11]
000000 1d 25 91 bd 3a ac 8a 3d 0b 7d 0c bd 8f 29 4b 3e
       -0.07087157 0.06771131 -0.034298938 0.19840072
000010 38 db fe bb ac ae 9a be f5 15 ca 3d 55 f3 0a 3e
       -0.0077775978 -0.3021139 0.09867469 0.13569386
000020 95 7f b6 3e ec 7b 07 3e 41 29 b7 be
       0.35644212 0.13230866 -0.35773662

fc_dp.weight f4 [1, 13]
000000 64 8c ed bd 0f 16 ae 3d 59 47 10 3e 83 46 9b 3e
       -0.11599043 0.08500301 0.14089717 0.30327234
000010 8a 4d 03 bd b0 cf 2b be 32 e7 bb bd 12 35 37 3e
       -0.03205637 -0.16778445 -0.091749564 0.17891338
000020 ca 87 8b be 6c 81 aa 3c 8d ad 81 3e 8f cf 30 be
       -0.27252036 0.020813666 0.2532772 -0.17266677
000030 ba 0e fb bd
       -0.12258668

fc_cp.weight f4 [1, 11]
000000 19 3e b4 bd 96 60 58 be 4d 48 2c 3c 56 9b 49 be
       -0.08800907 -0.21130595 0.010515285 -0.19688162
000010 54 12 b4 3e 6f b3 99 3e d5 6b 0b 3d 49 b2 bb 3d
       0.35170233 0.3001971 0.034038384 0.091648646
000020 61 80 06 bf 82 ed a9 be 75 32 ee bc
       -0.5253964 -0.33189017 -0.029076794

fc_all.weight f4 [1, 25]
000000 2c 42 cc 3b e1 d0 59 3c 5d 94 0d 3e 3d 1e 08 ba
       0.0062334742 0.0132944295 0.13826127 -0.0005192494
000010 7b f1 5b 3c bd e7 20 be 78 45 cb bc 9b e6 3a 3e
       0.013424273 -0.15713401 -0.024813399 0.18252032
000020 15 49 9b bd 42 95 89 3d d4 af 0c 3e 0b 0b 51 be
       -0.07582299 0.06717922 0.13738948 -0.20414369
000030 b9 1e bf bc 99 fe 01 be de 6a d2 be 59 d4 f4 bd
       -0.02333008 -0.12694778 -0.41097158 -0.119545646
000040 d0 41 c5 3c 89 f7 e8 bb c8 f1 87 bd c5 5b 8a 3d
       0.024079233 -0.0071095866 -0.06637913 0.06755785
000050 7a 26 6b bd d4 e7 b8 bd d5 33 6f bd d3 bf 3b be
       -0.05740974 -0.09028593 -0.05839904 -0.18334894
000060 5a 54 1a 3e
       0.1507124
