ablation1_min_count/min_count_0/birnn_concat_time_delta_attention/final_model.pt (torch, 444223 bytes, 27 tensors)

embed_dp.weight f4 [8364, 10]
0	0x00000000	0.0
1	0x00000000	0.0
2	0x00000000	0.0
3	0x00000000	0.0
4	0x00000000	0.0
5	0x00000000	0.0
6	0x00000000	0.0
7	0x00000000	0.0
8	0x00000000	0.0
9	0x00000000	0.0
10	0xbf5b1126	-0.8557304
11	0x40168c02	2.3522954
12	0x3f4333d7	0.76250976
13	0xbebc273e	-0.3674869
14	0x3f151c48	0.5824628
15	0xbdc6290d	-0.096757986
16	0xbfd5acc0	-1.6693344
17	0xc04ea816	-3.2290092
18	0xbf86f43e	-1.0543287
19	0xbfa14952	-1.26005
20	0x3f95a22e	1.1690118
21	0xbe1219ae	-0.14267609
22	0x3e3e0031	0.1855476
23	0x3e0fb40e	0.14033529
24	0x3ebf889b	0.3740891
25	0x3dca9848	0.098923266
26	0x3ea96e0a	0.33091766
27	0x3e98954b	0.29801401
28	0xbf806607	-1.0031136
29	0x3f2989e5	0.66226035
30	0x3fa051e6	1.2524993
31	0xbe17e8a1	-0.14834835
32	0xbeb08d01	-0.34482577
33	0x3dd0f98c	0.10203847
34	0xbf0ff891	-0.5623866
35	0xbd3c7f6e	-0.046019964
36	0x3de588bc	0.11207721
37	0x3fdaf575	1.7106158
38	0xbee7946a	-0.45230418
39	0x3f75df4c	0.9604385
40	0x3d0c5c38	0.034267634
41	0x4015b4d5	2.339162
42	0xbeba9a27	-0.36445734
43	0xbef13c69	-0.47116402
44	0x3eb7efdf	0.35925195
45	0x3f7258f6	0.94666994
46	0xbeb386ba	-0.35063726
47	0x3e51e5b4	0.20497781
48	0x3e158f3b	0.1460542
49	0x3e2f378b	0.17111032
50	0xbff1e22f	-1.8897151
51	0xbf2a5a61	-0.6654416
52	0x3f4d3543	0.80159396
53	0x3fb60e05	1.4223028
54	0x3e5cacb2	0.21550253
55	0xbf78195d	-0.969137
56	0xbe7b64ac	-0.24550122
57	0x3fd94bbf	1.6976241
58	0x3f3f13b4	0.7463944
59	0xbf46fdf2	-0.7773124
60	0x3f9123c6	1.1339042
61	0xbf40a3ca	-0.7524992
62	0x3eb369e1	0.35041717
63	0x3e453de8	0.19261897
64	0x3f3b37b5	0.7313188
65	0xbf291175	-0.6604226
66	0x3f9f7891	1.2458669
67	0xbf35068e	-0.70713127
68	0xbec2757c	-0.37980258
69	0xbfa410cc	-1.2817626
70	0xbf7184ba	-0.9434315
71	0x3ef129f4	0.4710232
72	0xbf679abb	-0.90470475
73	0x3ed84dc9	0.42246845
74	0x3fb1edb5	1.3900667
75	0x3f1fd878	0.6243968
76	0xbe5fa4e1	-0.2184024
77	0x3f6d76e0	0.92759514
78	0x402b822b	2.6798198
79	0x3ec20c36	0.3789994
80	0xbefd83c1	-0.49514583
81	0xbfc15f74	-1.5107255
82	0x3fdbbdeb	1.7167333
83	0x3f77f56c	0.9685886
84	0xbf9f632c	-1.245214
85	0x3fd186d2	1.6369269
86	0xbfcfdb02	-1.6238711
87	0xbee26224	-0.442155
88	0x3f924ab7	1.1429051
89	0xbf9a2939	-1.204383
90	0xbe903b81	-0.28170398
91	0x3fad03e2	1.351681
92	0x3e320d11	0.17387797
93	0xbf6acbff	-0.91717523
94	0xbf92b886	-1.1462562
95	0x3e888a2d	0.2666792
96	0x3fee6d45	1.8627096
97	0x3ec440aa	0.38330585
98	0x3fc7ebf8	1.5618887
99	0xbfb65df7	-1.4247426
100	0x3f84b106	1.0366523
101	0xbe579507	-0.21052943
102	0x3f39dde0	0.7260418
103	0x3ed34bba	0.41268712
104	0xbfed3af8	-1.8533621
105	0x3f16bf9b	0.58886117
106	0x3e10d4a5	0.14143617
107	0xbfcb6cd2	-1.5892584
108	0xbf6665cc	-0.8999908
109	0x3f58e122	0.84718525
110	0xbf28cea9	-0.6594034
111	0x3e8dcaa6	0.2769367
112	0x3f264ef5	0.6496423
113	0x400b50db	2.17681
114	0x3f7b1a9b	0.9808747
115	0x3f0acc8b	0.5421836
116	0xbe0669be	-0.13126275
117	0x3f3aee15	0.73019534
118	0xc014c972	-2.3247952
119	0x3f462e74	0.7741463
120	0xbf89f207	-1.0776986
121	0xbe59223e	-0.21204469
122	0xbfa19977	-1.2624959
123	0x3f3ba5aa	0.7329966
124	0xbfdc7d7e	-1.7225797
125	0xbf7d9595	-0.9905637
126	0xbf3afa37	-0.7303805
127	0xbfca6f55	-1.5815226
128	0xbf85d581	-1.0455781
129	0xbf0d54a5	-0.5520728
130	0xbde7375e	-0.11289857
131	0xbd2e85e5	-0.04260816
132	0xbe89486c	-0.26813066
133	0xbfcc111c	-1.5942721
134	0xbe2615c7	-0.16219245
135	0x3f675046	0.9035686
136	0x3fae0dac	1.3597922
137	0x3c5064fc	0.012719389
138	0xbe0137b9	-0.12618913
139	0xbf53df41	-0.82762533
140	0x3ea0c0b5	0.31397024
141	0x4009ef16	2.1552176
142	0x3e245476	0.16047844
143	0x3f18d206	0.5969547
144	0x3f1def0e	0.61692894
145	0x3ed9aa35	0.4251267
146	0xbedb781f	-0.42865083
147	0xbfe76263	-1.80769
148	0xbf4214d9	-0.7581306
149	0x3f26f865	0.6522277
150	0x3edac81d	0.427308
151	0x3d9e47dc	0.0772855
152	0x3f959691	1.1686574
153	0xbf024d90	-0.508996
154	0xbea46f53	-0.32116184
155	0xbe1a6a12	-0.15079525
156	0xbfddbca2	-1.7323191
157	0x40301d6b	2.7517955
158	0xbed4fbf7	-0.41598484
159	0xbe9db7ad	-0.30804196
160	0xbf80e7e5	-1.0070769
161	0x3e7a1d5e	0.24425265
162	0xbd61cdb4	-0.055127814
163	0xbfbee865	-1.4914671
164	0xbf82ee73	-1.0229019
165	0xbf8dfd44	-1.1092916
166	0x3ee19b96	0.44064015
167	0x3ff024ee	1.876127
168	0xbf1705e1	-0.58993345
169	0x3f0c43fd	0.5479124
170	0x3e94aaf1	0.29036668
171	0x3c9ef32f	0.019403068
172	0xbf36c2bf	-0.7139091
173	0x3e82709d	0.25476542
174	0x3f6a6c89	0.9157186
175	0x3ed94b22	0.42440134
176	0x3e4b7c99	0.19871749
177	0xbe1ae9f1	-0.15128304
178	0x3f4b07dd	0.79308873
179	0xbe0cab9e	-0.13737342
180	0x3d10d758	0.035361618
181	0x3f016339	0.50542027
182	0x3e888607	0.26664755
183	0x3fe1e625	1.764836
184	0x3fcee6bc	1.6164165
185	0x3d9132b5	0.0708975
186	0xbf4dce0c	-0.8039253
187	0x3f8048b4	1.0022187
188	0x3f03a42a	0.5142237
189	0xbff712ba	-1.930259
190	0x3f2148b5	0.6300157
191	0x3e995715	0.2994925
192	0xbf9566db	-1.1672014
193	0x3f54cab1	0.8312178
194	0xbe515e36	-0.20446095
195	0x3f2dc629	0.67880493
196	0x3f309f41	0.68993
197	0x3e7b8707	0.24563228
198	0xbfb9d565	-1.4518248
199	0xbe1f7eed	-0.15575762
200	0x3f4d1968	0.8011689
201	0xbe4c52fb	-0.1995353
202	0x3fa42420	1.2823524
203	0xbee3e3d0	-0.44509745
204	0x3efe341c	0.4964913
205	0xbf7ddfb4	-0.9916947
206	0xbf27322c	-0.6531093
207	0xbf5cc16d	-0.86232644
208	0xbf45a8d5	-0.7721074
209	0xbed33f3f	-0.4125919
210	0x3e01ad24	0.12663704
211	0x3ef82a74	0.4846989
212	0xbf50d634	-0.8157685
213	0xbf173c66	-0.59076536
214	0x3ed0ab48	0.40755677
215	0x3f6c868b	0.92392796
216	0x3e984512	0.29740196
217	0x3fcfba8a	1.6228802
218	0x3fc4577f	1.5339202
219	0xbfa10859	-1.2580673
220	0xbee214dd	-0.44156542
221	0x3f604c2e	0.8761624
222	0x3d96d212	0.073642865
223	0xbeeb7818	-0.45990062
224	0x40282ed6	2.6278586
225	0xbe1233fc	-0.14277643
226	0x3fdd6792	1.7297232
227	0xbe8b5a69	-0.27217415
228	0xbf567b62	-0.8378202
229	0xbe022b3c	-0.12711805
230	0xbf834fc9	-1.0258723
231	0xbf1e8009	-0.61914116
232	0xbf43d3ca	-0.7649504
233	0xbf429e9b	-0.7602326
234	0xbff41dda	-1.907161
235	0x3f193a1d	0.598543
236	0x3fb70e57	1.4301251
237	0xbf86bb49	-1.0525905
238	0xbfaead01	-1.3646547
239	0x3e9b947b	0.3038672
240	0x3e9e6ab1	0.30940774
241	0x3e5fd742	0.21859458
242	0xbf1d15ec	-0.61361575
243	0xbfaeaac6	-1.3645866
244	0xbec53eb4	-0.385244
245	0xbf8380dd	-1.0273701
246	0xbfcfc618	-1.6232328
247	0x3e522a1a	0.20523873
248	0xbff0a2ea	-1.8799717
249	0x3f3eb91e	0.74501216
250	0x3e93559c	0.28776252
251	0xbdc53c39	-0.09630627
252	0x3ec4f2fd	0.38466635
253	0x3f904b86	1.1273048
254	0xc01486b3	-2.3207214
255	0x3f89ac97	1.0755795

embed_cp.weight f4 [2759, 8]
0	0x00000000	0.0
1	0x00000000	0.0
2	0x00000000	0.0
3	0x00000000	0.0
4	0x00000000	0.0
5	0x00000000	0.0
6	0x00000000	0.0
7	0x00000000	0.0
8	0x3f6e610a	0.9311682
9	0xbfcb6b0b	-1.5892042
10	0x3f42d212	0.7610179
11	0xbe40a87b	-0.1881427
12	0x3f9591e4	1.1685147
13	0x3fc75e06	1.5575569
14	0xc04adbf4	-3.1696749
15	0x3f999524	1.1998639
16	0xbe834e35	-0.25645605
17	0xbfc56cf7	-1.5423878
18	0x3e73d0cc	0.23810118
19	0x3ffe9093	1.988787
20	0xbf84cfe2	-1.0375941
21	0x3f877228	1.0581713
22	0x3e426b19	0.18986167
23	0xbf9628a6	-1.1731155
24	0x3ee17cb6	0.4404046
25	0x4002cca7	2.043741
26	0xbec46f30	-0.3836608
27	0xbf95ad61	-1.1693536
28	0xbf0c5346	-0.54814565
29	0xbfb785e2	-1.4337733
30	0xbf65e615	-0.898042
31	0x3dc78b98	0.09743422
32	0xbfb88de6	-1.4418304
33	0x400c52c7	2.1925523
34	0xbf90c604	-1.131043
35	0xbecfd8cf	-0.405951
36	0xbd874f2a	-0.06606896
37	0x3eb8dbec	0.36105287
38	0xbf864a7f	-1.0491484
39	0xbdad16ab	-0.08451589
40	0x3f5654d2	0.83723176
41	0xbf08afcd	-0.5339325
42	0x3fcdc0eb	1.6074499
43	0xbd0de5fa	-0.03464315
44	0xbf6667b9	-0.9000202
45	0xbf99d7bf	-1.2018965
46	0x3f54b328	0.8308587
47	0xbe205274	-0.15656453
48	0x3f9bc3a5	1.2169081
49	0xbd696816	-0.05698403
50	0xbd52f23d	-0.051500548
51	0xbe31bd2d	-0.17357321
52	0xbfe0440e	-1.7520769
53	0x3e61971d	0.22030301
54	0xbf82322e	-1.0171564
55	0xbfb4b030	-1.4116268
56	0x3f67bca7	0.90522236
57	0x3f0f91f7	0.560821
58	0xbfd07b5b	-1.6287645
59	0x3e860816	0.26178044
60	0xbfab50cc	-1.3384032
61	0xbfa2a43f	-1.2706374
62	0xbf509023	-0.81469935
63	0xbf5fd221	-0.87430006
64	0xbfcc6243	-1.5967487
65	0x3f684aa9	0.9073892
66	0xbfc7f39c	-1.5621219
67	0xbe5e7615	-0.21724732
68	0xbcb171c6	-0.021660697
69	0x3fda7276	1.7066181
70	0x3fcc8f1a	1.5981171
71	0x3f0c1d96	0.54732645
72	0xbf6558dd	-0.8958872
73	0x3ecbff4a	0.39843208
74	0x3fa5f4b0	1.2965298
75	0x3eca21a1	0.39478782
76	0x3f383bcd	0.7196625
77	0xbf91192a	-1.1335804
78	0x3e954163	0.2915145
79	0x3fc3710d	1.5268875
80	0xbfa59369	-1.2935611
81	0xbf5c264d	-0.8599594
82	0xbd9ba607	-0.076000266
83	0x3f7953e2	0.9739362
84	0xbd852249	-0.0650068
85	0x3f889e5b	1.0673326
86	0x3fec29cc	1.8450255
87	0x3e9e9e40	0.3098011
88	0x3fb6a919	1.4270355
89	0xbe176484	-0.14784437
90	0x3f225e8d	0.63425523
91	0x3edc7f49	0.4306586
92	0xbfe83922	-1.8142436
93	0x3f7aec5e	0.9801692
94	0x3e37ba69	0.17942204
95	0x3f2006f8	0.62510633
96	0xbe186338	-0.14881599
97	0xbfa60112	-1.2969077
98	0xbfd42540	-1.6573868
99	0xc00677f8	-2.1010723
100	0xbf529492	-0.8225795
101	0x3ef26c39	0.47348192
102	0x3f2d5756	0.6771139
103	0xbf29433f	-0.66118234
104	0xbfce35d6	-1.611018
105	0xbe9e95bc	-0.30973613
106	0x3ee1f09c	0.44128883
107	0x3fb29038	1.3950262
108	0x3e69de24	0.22838646
109	0x3f9c5b70	1.2215405
110	0x3f34f22b	0.7068202
111	0x3e0f40f7	0.13989626
112	0x3f35590c	0.70839
113	0xbf6b9268	-0.92020273
114	0xbf8978c8	-1.0739985
115	0x3f530371	0.82427126
116	0xbfa6108d	-1.2973801
117	0x3fa4fa28	1.2888842
118	0xbefa03cd	-0.48831025
119	0x3f5e9434	0.8694489
120	0xbd420c65	-0.0473751
121	0x3f9c7ab8	1.2224951
122	0x3e8a4e63	0.2701293
123	0x3f157141	0.58375937
124	0xbf2c00cb	-0.6718871
125	0xc042baa4	-3.0426416
126	0x3f137044	0.5759318
127	0x3f877b10	1.0584431
128	0x3f8f737c	1.1207118
129	0xbdbfb50e	-0.09360705
130	0x3e902fd8	0.28161502
131	0x3f3fafaf	0.74877447
132	0x3ffabbb0	1.9588528
133	0xbf961472	-1.172499
134	0x3f173797	0.590692
135	0x3ed15860	0.40887737
136	0xbdcd6414	-0.10028854
137	0x3ff2a67c	1.8957057
138	0x3eca5a55	0.39522043
139	0xbe0a3c66	-0.13499603
140	0x3f0388bb	0.5138051
141	0xbece3ff3	-0.40283164
142	0x3f9a1ee8	1.2040682
143	0x3fb657c8	1.4245539
144	0x3fa2f243	1.2730182
145	0xbbc7e115	-0.00609983
146	0x3fbd368b	1.478227
147	0xbf985e6c	-1.1903815
148	0xbf29eff8	-0.6638179
149	0xbf047946	-0.5174755
150	0x3fe78778	1.8088217
151	0xbe449cbb	-0.19200413
152	0x3eb036b7	0.34416744
153	0xbdecef0d	-0.11569033
154	0x3f947649	1.1598598
155	0xbf8d12e9	-1.1021396
156	0x3ea10b7f	0.31454083
157	0xbdbbfb2d	-0.09178767
158	0x4021e8d3	2.5298355
159	0x3eec5278	0.4615667
160	0x3f607cb8	0.87690306
161	0x3f4d1e6f	0.8012456
162	0x3e4bd47d	0.19905277
163	0x3e52cb74	0.20585424
164	0x3fbb046d	1.4610726
165	0x400465de	2.0687175
166	0xbf1caa70	-0.61197567
167	0x3e877c7a	0.26462156
168	0xbf965b29	-1.174657
169	0xbf9e6b21	-1.2376443
170	0xbf6c5745	-0.9232066
171	0xbef8543b	-0.48501763
172	0xbfda40ca	-1.7051022
173	0xbf130a6b	-0.5743777
174	0xbe406a9b	-0.18790667
175	0xbb96d47d	-0.0046029673
176	0x3ef11a4a	0.4709037
177	0x3fd0a1b3	1.6299347
178	0x3d5f5c4c	0.05453138
179	0xbf154272	-0.5830451
180	0x3fec7be9	1.8475314
181	0x3f8899c4	1.0671926
182	0xbe561abb	-0.20908634
183	0xbdff9ded	-0.12481294
184	0x3ecb3d98	0.3969543
185	0xbdc8b3d3	-0.09799924
186	0x3eb76fbf	0.35827443
187	0x3fd72ab3	1.6809906
188	0xc00a3418	-2.1594296
189	0x3f7f496e	0.9972142
190	0xbf3be9b7	-0.73403496
191	0x3fb1e80f	1.3898944
192	0x3d64ad42	0.055829294
193	0x3e6ac0d2	0.22925118
194	0xbf9b8f0d	-1.2153031
195	0xbfc63d7a	-1.5487511
196	0xbf09fac4	-0.5389826
197	0x3f195c68	0.59906626
198	0x3f3b1be5	0.7308944
199	0xbda08650	-0.07838118
200	0x3e941559	0.28922537
201	0xbf98ff63	-1.1952938
202	0x3dd2f5d0	0.10300791
203	0xbf871c76	-1.055556
204	0xbf526cfa	-0.82197535
205	0x3f939f9b	1.1533083
206	0x3f80ca87	1.0061806
207	0xbf1cd24a	-0.61258376
208	0x3ffae5c9	1.9601375
209	0x3f49cc68	0.78827524
210	0x403c0ebd	2.9383996
211	0xbdc68284	-0.09692863
212	0xbeaa1d5c	-0.33225524
213	0x3f58711e	0.84547603
214	0xbf82ef9c	-1.0229373
215	0x3eb4e56f	0.35331294
216	0x3ef03ef9	0.46923044
217	0xbdc31377	-0.09525197
218	0xbfa64f36	-1.2992923
219	0x401f9dca	2.4940057
220	0x3ffa996c	1.9578071
221	0x3f9de463	1.2335323
222	0xbf23f9d3	-0.64053077
223	0xc00b926a	-2.1808114
224	0x3fe2b6a4	1.7711987
225	0x3e82f8ac	0.25580347
226	0x3f7c1fe6	0.98486173
227	0xc016dca6	-2.3572173
228	0x3f361f5e	0.7114161
229	0xbf702938	-0.93812895
230	0x3f11e23b	0.56985825
231	0x3e985597	0.297528
232	0x3e7a17d3	0.2442315
233	0xc01311d8	-2.297964
234	0x3f4efd0c	0.8085487
235	0xba95e966	-0.0011437356
236	0xbc86d9f6	-0.016461354
237	0x3f9a1746	1.2038352
238	0xbeb06930	-0.34455252
239	0x3f5d3dba	0.8642231
240	0x3fe2fd32	1.7733519
241	0x3e09f91f	0.13473938
242	0x3f516b77	0.81804603
243	0x3c2c9195	0.010532756
244	0x3f972454	1.1807961
245	0xbede8900	-0.43463898
246	0xbe3fed21	-0.18742801
247	0xbf68197c	-0.90663886
248	0xbf4687ec	-0.7755115
249	0x3e337a63	0.17527156
250	0xbf461014	-0.77368283
251	0x3e91ebc2	0.2850018
252	0xbe9644b2	-0.29349285
253	0x3f746349	0.95464
254	0xbf0e483a	-0.5557896
255	0x3f93bca9	1.154195

gru_dp_fw.weight_ih_l0 f4 [33, 11]
0	0xbc8eeff0	-0.017448395
1	0xbeb9ad72	-0.3626514
2	0x3e1a71e2	0.15082505
3	0x3e4f87a4	0.20266587
4	0xbb12a0b3	-0.0022373616
5	0x3deff753	0.11717095
6	0xbe98e715	-0.29863802
7	0x3e46e99f	0.19425057
8	0xbc2e30dc	-0.010631766
9	0x3e167214	0.14691955
10	0xbeab3051	-0.334353
11	0xbc87f623	-0.01659686
12	0xbe5d62c8	-0.21619713
13	0xbd82f41f	-0.06394219
14	0xbcd689ac	-0.026188694
15	0x3d2340f1	0.039856855
16	0xbe536795	-0.20644982
17	0xbed2bf62	-0.41161638
18	0xbe0f1377	-0.13972269
19	0x3e67aa16	0.22623476
20	0x3e902d35	0.2815949
21	0x3d60a834	0.05484791
22	0x3d6d6d43	0.05796553
23	0xbe878c17	-0.26474068
24	0x3eb8d878	0.36102653
25	0xbde14775	-0.109999575
26	0xbc9bdef2	-0.019027207
27	0xbdc2cdaf	-0.09511887
28	0xbe51d326	-0.20490703
29	0xbe9c2229	-0.30494812
30	0x3d9374a7	0.07199984
31	0x3ec61295	0.38686052
32	0xbe1a433f	-0.15064715
33	0x3d2b21a8	0.041780144
34	0x3ca4d2d7	0.020120068
35	0x3d6d5984	0.057946697
36	0xbe266322	-0.16248754
37	0x3de12405	0.10993198
38	0xbe48f66c	-0.19625252
39	0xbeb43001	-0.35192874
40	0xbe61046b	-0.21974342
41	0x3d833354	0.064062744
42	0xbe463fd6	-0.19360289
43	0x3dba404f	0.09094297
44	0x3de1e2b8	0.11029571
45	0x3dd545bb	0.10413691
46	0xbdfe4f4f	-0.12417471
47	0xbd9a5f2a	-0.07537682
48	0x3e8480dc	0.25879562
49	0x3e31955e	0.17342135
50	0xbcffacd9	-0.03121035
51	0xbe72604e	-0.2366955
52	0xbe8c8039	-0.27441576
53	0xbe3c74ef	-0.18403982
54	0x3cda7911	0.026669057
55	0xbe9e2136	-0.30884713
56	0x3e331b82	0.17490962
57	0x3ccd0951	0.025028856
58	0x3e96cd48	0.29453492
59	0x3eb418d7	0.351752
60	0xbc70b0b1	-0.014690564
61	0xbe652308	-0.22376645
62	0x3e244bd2	0.16044548
63	0xbdb1c894	-0.08680835
64	0x3ecb383c	0.3969134
65	0xbec13b45	-0.37740532
66	0xbe00b1dd	-0.1256785
67	0x3da1dadb	0.079030715
68	0xbe84a973	-0.2591053
69	0x3e84db7f	0.25948712
70	0x3e9a7ea7	0.30174753
71	0xbe274560	-0.16335058
72	0x3e830c1a	0.2559517
73	0xbd96b346	-0.073584124
74	0xbe00c387	-0.12574588
75	0x3e70679c	0.23477024
76	0x3dce133c	0.100622624
77	0x3d0d9c0b	0.034572642
78	0x3e9f902f	0.3116469
79	0xbb160439	-0.00228907
80	0x3ca1cff4	0.01975248
81	0x3cd20492	0.025636945
82	0x3d3e9a75	0.04653402
83	0x3dcc13b0	0.099646926
84	0x3e57eeb5	0.21087153
85	0xbe48a1d2	-0.1959298
86	0x3e146bfd	0.1449432
87	0x3e112b90	0.14176774
88	0xbe130ce7	-0.1436039
89	0x3d953feb	0.07287582
90	0x3ea82bc8	0.32845902
91	0xbe8d9c85	-0.27658477
92	0xbdce62a3	-0.10077407
93	0x3e316f7e	0.17327687
94	0x3eae86f2	0.3408733
95	0x3d859c6a	0.06523974
96	0x3d4e092b	0.050301712
97	0xbe65afbc	-0.22430319
98	0x3eb100f6	0.34571046
99	0x3da92dbe	0.08260678
100	0xbc34ba2b	-0.011030714
101	0xbe411917	-0.18857227
102	0x3e436f50	0.19085431
103	0xbe80b7fc	-0.2514037
104	0xbe041875	-0.12899955
105	0xbe4dad28	-0.20085585
106	0xbe73928b	-0.2378637
107	0x3d3ac7e6	0.045600794
108	0x3d99251d	0.07477782
109	0x3c23554b	0.009969066
110	0x3cb1afdb	0.0216903
111	0x3de48392	0.111579075
112	0x3e41ae41	0.18914129
113	0xbe335471	-0.1751268
114	0xbe88ea09	-0.26741055
115	0x3cc8f53a	0.024530996
116	0x3e448113	0.19189863
117	0x3ed10df7	0.40830967
118	0xbd81844c	-0.06324062
119	0x3e1c5312	0.15266064
120	0xbea22371	-0.31667665
121	0xbebcfdf9	-0.36912516
122	0xbd6ca47d	-0.057774056
123	0xbe70dfad	-0.23522826
124	0xbd63a679	-0.055578683
125	0xbd9127f1	-0.07087696
126	0x3e4c9f68	0.19982684
127	0xbe13c31c	-0.14429897
128	0x3e83364c	0.25627363
129	0x3dc66821	0.0968783
130	0x3d373071	0.04472393
131	0x3d76d08a	0.060257472
132	0xbdf83258	-0.12118977
133	0x3ec3cfa9	0.3824437
134	0x3ec3620a	0.38160735
135	0xbe7af06c	-0.24505776
136	0xbe447ae4	-0.19187504
137	0x3e300d33	0.17192535
138	0x3d10a4a8	0.03531328
139	0x3eb55f2d	0.35424176
140	0xbe8acba3	-0.27108487
141	0xbe3ceaf0	-0.18448997
142	0x3e868647	0.2627432
143	0x3e57c7a1	0.21072246
144	0xbd611a9e	-0.054957025
145	0xbd990f4b	-0.0747362
146	0x3d3ce43f	0.04611611
147	0x3e70c999	0.23514403
148	0xbe9ffff5	-0.31249967
149	0xbd342b76	-0.04398676
150	0xbd8e7167	-0.069552235
151	0xbe37409b	-0.17895739
152	0x3e9dffab	0.30859122
153	0xbdfb65e1	-0.12275291
154	0x3d3f850f	0.046757754
155	0xbe5b18aa	-0.21396127
156	0x3db4b6db	0.088239394
157	0x3e82b576	0.2552907
158	0x3d96662b	0.07343706
159	0x3e884281	0.26613238
160	0x3e7ab8ec	0.24484605
161	0xbea1c9ce	-0.31599277
162	0x3e6f0d66	0.23344955
163	0x3dc92f42	0.09823467
164	0xbdd1c4dd	-0.10242627
165	0x3e34f294	0.17670661
166	0xbe257443	-0.16157632
167	0x3e445d34	0.19176179
168	0xbd491f91	-0.04910237
169	0xbe02c493	-0.127703
170	0x3e9c5613	0.3053442
171	0xbe918bf6	-0.28427094
172	0xbd204a56	-0.039133392
173	0x3e88601f	0.26635835
174	0x3e48a043	0.19592385
175	0x3cc37ae8	0.023862317
176	0xbe15badf	-0.14622067
177	0xbe7808b8	-0.24222076
178	0x3e935e0b	0.28782687
179	0xbe3ec5c5	-0.1863013
180	0x3de7c179	0.11316199
181	0xbe44902c	-0.19195622
182	0xbe3a0dab	-0.18169276
183	0xbe318966	-0.1733757
184	0xbe30c8cb	-0.17264096
185	0xbe213c7f	-0.15745734
186	0x3db7e56b	0.08979305
187	0x3c8face7	0.017538501
188	0x3e1b5ee1	0.15172912
189	0x3e6eacca	0.23308101
190	0xbd63d3aa	-0.05562178
191	0xbe74d0e6	-0.23907813
192	0x3d50ce38	0.050977916
193	0x3e61554f	0.22005199
194	0x3d712ec4	0.05888249
195	0x3da9ce6c	0.08291325
196	0x3e834375	0.25637403
197	0xbe104a8b	-0.14090936
198	0x3d62a65b	0.05533443
199	0xbd1d8255	-0.038454372
200	0x3e269f24	0.16271645
201	0xbd17aeb1	-0.037031833
202	0xbd0ea00c	-0.0348206
203	0xbc61a099	-0.0137712
204	0xbeb7aac6	-0.35872477
205	0x3d4ca9f0	0.049966753
206	0xbe72caec	-0.23710221
207	0x3cacfa3d	0.021115417
208	0x3da3f431	0.0800556
209	0x3e6eb43e	0.23310944
210	0xbe299c2c	-0.16563481
211	0xbd3b574c	-0.04573755
212	0x3e1228a2	0.14273313
213	0x3e16fc16	0.147446
214	0x3e045a58	0.12925088
215	0x3dd7d622	0.105388895
216	0xbe2d4422	-0.16920522
217	0xbd07cd43	-0.033154737
218	0xbdc96886	-0.098343894
219	0x3e52f089	0.2059957
220	0xbe5097d0	-0.20370412
221	0xbe0a09b6	-0.13480267
222	0x3bfb6025	0.0076713734
223	0xbd8af3ce	-0.06784783
224	0x3d1f1b03	0.03884412
225	0x3d7526d7	0.059851494
226	0x3d8fa997	0.070147686
227	0xbdd752f6	-0.105138704
228	0xbd14efb3	-0.036361407
229	0xbe8087be	-0.25103563
230	0x3d00fb9b	0.03148995
231	0xbe31590d	-0.17319126
232	0xbdffa25e	-0.12482141
233	0xbe531e93	-0.20617132
234	0xbe0407bc	-0.12893575
235	0x3e801f65	0.25023952
236	0xbe9d8a65	-0.3076965
237	0xbc5aff72	-0.013366567
238	0x3ed26991	0.41096166
239	0xbc849735	-0.016185382
240	0x3d9294f4	0.07157317
241	0x3ed2ecf5	0.4119641
242	0xbe453d4f	-0.19261669
243	0xbe54e93d	-0.20792098
244	0xbdf02c65	-0.117272176
245	0xbd8e54be	-0.06949757
246	0xbd811156	-0.06302135
247	0x3e86cf04	0.26329815
248	0x3e231357	0.15925346
249	0x3ea9313c	0.33045375
250	0x3e010d71	0.12602784
251	0x3dad768d	0.084698774
252	0x3ea53855	0.3226954
253	0x3e2dfbcf	0.16990589
254	0xbe43fa94	-0.19138557
255	0x3cfb5e1b	0.030684521

gru_dp_fw.weight_hh_l0 f4 [33, 11]
0	0xbe8a1627	-0.26970026
1	0x3e83376a	0.25628215
2	0x3ee2719f	0.4422731
3	0x3e28828f	0.16456054
4	0x3e288f7a	0.16460982
5	0x3ed6c919	0.419503
6	0xbd89163a	-0.066936925
7	0x3e38a4b6	0.18031582
8	0xbe0a6eba	-0.13518801
9	0xbee7a502	-0.45243078
10	0x3d92a873	0.071610354
11	0x3e288ac1	0.1645918
12	0xbde52794	-0.111891896
13	0xbd59b975	-0.05315538
14	0x3e2a5eb4	0.16637689
15	0xbd58ff7b	-0.05297802
16	0x3e470d2a	0.19438615
17	0x3eba2dcc	0.36363065
18	0x3e1bd341	0.15217306
19	0x3d32cd04	0.04365255
20	0xbe402872	-0.18765429
21	0xbe0f3c18	-0.13987768
22	0xbe995a07	-0.29951498
23	0xbb8a8ef6	-0.004228468
24	0xbdf39079	-0.1189279
25	0xbe889adf	-0.26680657
26	0x3d168c7a	0.036755063
27	0x3daafaa3	0.083485864
28	0x3e82be06	0.255356
29	0x3ece6688	0.403126
30	0xbe93e1b9	-0.2888315
31	0xbe5453da	-0.20735112
32	0xbe53df75	-0.20690711
33	0x3e395873	0.18100147
34	0xbe5e8d4e	-0.21733591
35	0xbdd9f21a	-0.1064188
36	0x3e86db42	0.26339155
37	0xbed3f6df	-0.41399285
38	0x3d3a4f0b	0.045485537
39	0x3e808cb9	0.25107363
40	0x3e07aadd	0.13248773
41	0xbddd6159	-0.10809583
42	0xbe580a83	-0.2109776
43	0xbdcc0ecc	-0.0996376
44	0xbebeb756	-0.3724925
45	0x3e47f824	0.19528252
46	0x3ea346ff	0.31890103
47	0x3e0c9ca0	0.13731623
48	0x3d661e89	0.056181464
49	0x3e5a93e1	0.21345474
50	0x3edf6363	0.43630514
51	0xbe206de5	-0.15666921
52	0x3e443bed	0.19163485
53	0xbd86b127	-0.06576758
54	0xbe8843df	-0.26614282
55	0xbe1c8417	-0.15284763
56	0xbe00bb49	-0.12571444
57	0x3e42d092	0.19024876
58	0x3d1628eb	0.036660116
59	0xbbdd026f	-0.006744675
60	0x3e59163c	0.21199888
61	0x3e7630f3	0.2404211
62	0x3d11fd34	0.035641864
63	0xbcee77dc	-0.029109888
64	0xbeb0451a	-0.3442772
65	0xbeb4a467	-0.3528168
66	0xbe9b5d09	-0.30344418
67	0xbe795f6e	-0.2435281
68	0x3e463e47	0.19359694
69	0xbe56744a	-0.20942798
70	0xbeaa7ab0	-0.33296728
71	0x3d840de8	0.06447965
72	0x3f0ad4be	0.5423087
73	0x3e3acffc	0.18243402
74	0xbe70b546	-0.2350665
75	0xbe19bcfa	-0.15013495
76	0xbeb96069	-0.36206368
77	0xbe7c83e8	-0.24659693
78	0xbdbb3dff	-0.09142684
79	0xbe11523a	-0.14191523
80	0x3e858ec7	0.26085493
81	0x3e8804cf	0.2656617
82	0xbdb0c851	-0.08631957
83	0x3e5bef19	0.21477927
84	0xbe96c937	-0.2945039
85	0xbe47b95a	-0.195043
86	0xbede4cf2	-0.4341808
87	0x3ea95e38	0.33079696
88	0xbe7c1cb8	-0.2462033
89	0x3e40639a	0.18787995
90	0x3e97d7cb	0.29656824
91	0x3ccb82aa	0.024842579
92	0x3eb25496	0.3483016
93	0xbe1fa925	-0.15591867
94	0x3e8a8f34	0.2706238
95	0x3be067da	0.0068483176
96	0xbcace3e7	-0.021104766
97	0xbe1b7e1e	-0.15184829
98	0xbe6b80ad	-0.22998305
99	0xbd3c5070	-0.04597515
100	0x3eb55f56	0.35424298
101	0x3d41fde7	0.04736128
102	0x3e1779ac	0.14792508
103	0x3d8ad95a	0.06779738
104	0x3e829d9e	0.25510877
105	0x3e3b0211	0.18262507
106	0x3e15757b	0.14595596
107	0xbe5467ec	-0.20742768
108	0x3ceb7856	0.028743904
109	0xbea18ca8	-0.31552625
110	0x3d8433e7	0.06455212
111	0x3c898c30	0.01679048
112	0x3e83c714	0.25737822
113	0xbe0452fd	-0.12922283
114	0xbda1f149	-0.079073496
115	0x3d45a2cc	0.04825096
116	0x3da4c7f7	0.08045953
117	0xbe104d4a	-0.14091983
118	0xbe29d99e	-0.1658692
119	0xbe010c24	-0.12602288
120	0xbd4b6f61	-0.049666766
121	0xbd9c7849	-0.0764013
122	0x3e6f2297	0.23353039
123	0xbafd2464	-0.0019313213
124	0x3cbde935	0.02318249
125	0xbc514e05	-0.012774949
126	0xbc6863d2	-0.014183955
127	0x3e05694e	0.13028452
128	0xbe621691	-0.22078921
129	0x3e30ced0	0.17266393
130	0xbc7bfa0b	-0.015379439
131	0xbe3eb8b4	-0.18625146
132	0x3e049030	0.12945628
133	0xbe0aa295	-0.13538583
134	0x3d863694	0.06553379
135	0xbd037f05	-0.032103557
136	0xbdf5c8ed	-0.12001214
137	0xbe9cdb68	-0.30636144
138	0xbecf453b	-0.40482506
139	0x3e0e5a65	0.1390167
140	0x3e77b2f9	0.24189366
141	0x3e09e1b8	0.13465011
142	0x3dbd8658	0.0925414
143	0x3ede2e9d	0.43394938
144	0xbd465759	-0.048423145
145	0x3da97b15	0.08275429
146	0xbea95146	-0.3306982
147	0xbeb85542	-0.36002547
148	0x3de44a84	0.11147025
149	0xbe1db122	-0.15399602
150	0xbe3421c3	-0.17591004
151	0x3ed7d4bf	0.421545
152	0xbcdefd57	-0.027220411
153	0xbba6634f	-0.0050777565
154	0x3d9a5ab7	0.07536834
155	0xbe59965b	-0.21248762
156	0x3e7b2b12	0.24528149
157	0x3dc143ca	0.09436758
158	0xbece30aa	-0.40271503
159	0x3c25f3c7	0.010128922
160	0xbe88572d	-0.2662901
161	0xbe81e6ae	-0.25371307
162	0xbe214345	-0.15748318
163	0x3e91da4e	0.28486866
164	0xbe585143	-0.21124749
165	0x3d233f01	0.039855007
166	0xbe67b264	-0.22626644
167	0xbe411549	-0.18855776
168	0xbe22c0b0	-0.15893817
169	0xbea4fc62	-0.32223803
170	0x3e323aae	0.17405197
171	0x3e2bc708	0.16775143
172	0xbe09d932	-0.1346176
173	0x3dc5844f	0.096443765
174	0x3d964990	0.0733825
175	0xbe4cd535	-0.20003207
176	0x3d633a1d	0.055475343
177	0xbdbd13ff	-0.092323296
178	0x3e88b52f	0.26700732
179	0x3e7ecb70	0.24882293
180	0x3ddff93c	0.109362096
181	0x3dd8efea	0.10592635
182	0x3db6c949	0.08925111
183	0xbd5fd380	-0.05464506
184	0xbc7cc8e2	-0.015428754
185	0xbe168e72	-0.14702776
186	0xbe104742	-0.14089683
187	0x3e497af3	0.19675808
188	0xbde65719	-0.11247081
189	0xbc9ad5ee	-0.018900838
190	0x3e23233e	0.15931413
191	0xbd4d5439	-0.05012915
192	0xbe21af2d	-0.1578948
193	0xbe6ba7f3	-0.23013286
194	0x3e4ca42e	0.19984505
195	0xbdf2042d	-0.11817203
196	0xbe498db6	-0.19682965
197	0x3e1c201d	0.15246625
198	0x3e11298e	0.14176008
199	0x3e6f0410	0.23341393
200	0xbd4c9c1a	-0.049953558
201	0xbec93423	-0.3929759
202	0xbe150e26	-0.14556178
203	0x3e0dcf2f	0.13848566
204	0xbe84183b	-0.25799736
205	0x3de7ef7b	0.11324974
206	0x3d5823d5	0.052768547
207	0x3e29f879	0.16598691
208	0x3eb0daa7	0.34541818
209	0xbe10aefc	-0.14129251
210	0x3da75cf9	0.0817203
211	0xbe69eb26	-0.22843608
212	0xbebd7350	-0.3700204
213	0xbe530ab4	-0.20609552
214	0xbeb8d94c	-0.36103284
215	0x3e043fbc	0.12914938
216	0xbdd55cf4	-0.1041812
217	0x3d5f902d	0.054580856
218	0xbe61f41c	-0.22065777
219	0x3d6aa17b	0.057282906
220	0x3ea2bdf5	0.3178555
221	0xbe631c24	-0.22178704
222	0x3e1ab5ab	0.15108363
223	0xbe297160	-0.16547155
224	0xbe306907	-0.17227565
225	0xbde50ff8	-0.111846864
226	0xbd413457	-0.047169056
227	0xbd258191	-0.040406767
228	0x3e8f71bd	0.28016463
229	0xbe95836a	-0.29201823
230	0x3e8c9bba	0.2746256
231	0xbed80e6c	-0.42198503
232	0xbdb21992	-0.086962834
233	0xbd9990f1	-0.074983485
234	0x3dfcf3a7	0.123511605
235	0xbe82c0ea	-0.25537807
236	0x3ce66c4d	0.028127814
237	0x3e19d8f0	0.15024161
238	0xbea40850	-0.32037592
239	0xbe156206	-0.14588174
240	0x3da43757	0.08018368
241	0xbca19c0b	-0.019727727
242	0x3cf9f399	0.030511664
243	0x3b4d6530	0.003134083
244	0xbea5d886	-0.32391757
245	0xbdf6fff8	-0.12060541
246	0x3d4f5e06	0.050626777
247	0xbf148d46	-0.58028066
248	0xbe123ff4	-0.14282209
249	0xbcda3c8e	-0.026640203
250	0x3ebea342	0.3723393
251	0x3e755b3e	0.23960587
252	0x3e1743ef	0.14772008
253	0xbe32501c	-0.17413372
254	0xbe9701b6	-0.29493493
255	0x3d634a52	0.0554908

gru_dp_fw.bias_ih_l0 f4 [33]
0	0x3f048257	0.5176138
1	0x3eb09e79	0.34495905
2	0x3e8b70e8	0.27234578
3	0x3e189c15	0.1490329
4	0x3db1bde4	0.08678797
5	0xbe464c08	-0.19364941
6	0x3e3da30a	0.18519226
7	0x3ea7ff91	0.3281217
8	0xbdfe4f06	-0.12417416
9	0x3eb58fd4	0.35461295
10	0x3d8151fa	0.06314464
11	0x3e779130	0.24176478
12	0xbb5fd0d3	-0.0034151569
13	0x3dfa63af	0.122260444
14	0xbd2f38bd	-0.04277872
15	0xbe9cc177	-0.30616352
16	0x3ee4eb92	0.44710976
17	0x3e746fd3	0.23870783
18	0xbeb1217d	-0.34595862
19	0x3de905ec	0.11378083
20	0x3e65ef29	0.22454514
21	0x3df0ff93	0.11767497
22	0x3ddb86f3	0.10719099
23	0xbe52d7fe	-0.20590207
24	0x3e5a3d34	0.2131241
25	0xbb921086	-0.004457536
26	0xbe49a8f2	-0.19693354
27	0x3e345095	0.17608865
28	0x3d46617f	0.048432823
29	0xbe18d0a3	-0.14923339
30	0xbe234b9e	-0.15946814
31	0xbdf21d5f	-0.11822008
32	0xbdc47c67	-0.0959404

gru_dp_fw.bias_hh_l0 f4 [33]
0	0x3cfd5e5b	0.030928781
1	0xbd185989	-0.037194762
2	0x3e30543f	0.17219637
3	0x3e581ede	0.21105525
4	0xbe46d56b	-0.1941735
5	0x3e3ee0a6	0.18640384
6	0x3e85ce4c	0.26133955
7	0x3eeba972	0.46027714
8	0x3e33c0ac	0.17553967
9	0x3c94f340	0.018182397
10	0x3da5b226	0.0809062
11	0xbea3510e	-0.31897777
12	0xbe7544ab	-0.23951976
13	0xbc9bb23e	-0.019005891
14	0x3ea81265	0.32826534
15	0x3d45caa4	0.048288956
16	0x3ec5f9cb	0.3866714
17	0xb8acb482	-8.235221e-05
18	0xbeaf384a	-0.34222633
19	0xbd6aeab8	-0.05735275
20	0xbd1fe192	-0.03903348
21	0x3e4917ba	0.19637957
22	0xbde63c39	-0.11241955
23	0x3da6b06c	0.081391186
24	0x3e470734	0.19436342
25	0x3dda50f0	0.10659969
26	0xbe5a98cd	-0.21347351
27	0x3e899f48	0.26879334
28	0x3e536578	0.20644176
29	0xbe56dc59	-0.20982493
30	0x3e8c105c	0.2735623
31	0xbe15cbe2	-0.14628556
32	0xbd3d707e	-0.04624986

gru_cp_fw.weight_ih_l0 f4 [27, 9]
0	0xbdd1f39d	-0.10251544
1	0xbcae0934	-0.021244623
2	0xbee8d933	-0.4547821
3	0x3e9c1a3f	0.30488774
4	0x3e2a4237	0.16626821
5	0xbd8425ea	-0.06452544
6	0x3cd3d3b0	0.025857776
7	0x3e85e2dc	0.26149642
8	0x3e390a55	0.18070348
9	0xbe5e005a	-0.21679822
10	0xbe96df03	-0.2946702
11	0xbec063f4	-0.37576258
12	0xbe555645	-0.2083369
13	0xbc71da2c	-0.014761489
14	0x3e222d1f	0.15837525
15	0xbedfe51d	-0.43729487
16	0xbe39e49e	-0.18153617
17	0xbe339754	-0.17538196
18	0xbccd7393	-0.025079524
19	0x3e83bf93	0.25732097
20	0x3e0f1cc4	0.13975817
21	0xbe8bc6ba	-0.27300054
22	0xbdc1ab39	-0.09456486
23	0x3e2ab9e4	0.16672474
24	0x3e039f4a	0.12853733
25	0x3e62418d	0.22095318
26	0x3e859ad0	0.26094675
27	0xbeb87a2e	-0.36030716
28	0xbe1d7ee4	-0.15380436
29	0xbe2643fd	-0.16236873
30	0x3e48fbde	0.1962733
31	0x3e2577fd	0.16159053
32	0x3d09d1d7	0.033647384
33	0x3c3dd925	0.011587416
34	0x3e5399f8	0.20664203
35	0xbceb8ece	-0.028754618
36	0xbdbd8372	-0.09253587
37	0xbe94da18	-0.29072642
38	0xbe07ab76	-0.13249001
39	0xbeeb278d	-0.45928612
40	0xbe983952	-0.29731232
41	0x3ead8e82	0.33897787
42	0x3e565c33	0.20933609
43	0x3d873b6a	0.06603129
44	0x3e31d68f	0.17367004
45	0xbead7116	-0.3387534
46	0x3ecd6910	0.4011922
47	0xbd96d02c	-0.073639244
48	0x3e212d11	0.15739848
49	0xbe19defb	-0.15026467
50	0x3e570059	0.20996226
51	0xbe9fb882	-0.31195456
52	0x3e7d5a96	0.24741587
53	0xbe29cceb	-0.16582076
54	0x3dd17e17	0.10229128
55	0x3e9f2898	0.31085658
56	0xbd9dcde4	-0.07705286
57	0xbd789790	-0.060691416
58	0xbb18ebc9	-0.0023333898
59	0x3cb9e98b	0.02269437
60	0xbe3b69ec	-0.18302125
61	0xbeabace7	-0.33530352
62	0x3e2ff958	0.17184961
63	0x3c138ff1	0.009006486
64	0x3e828924	0.25495255
65	0x3e7f1fd6	0.24914488
66	0x3e25ce00	0.16191864
67	0x3e77eb95	0.24210961
68	0xbe5d9049	-0.21637072
69	0x3d9cb25b	0.07651206
70	0x3d15be9a	0.036558725
71	0x3e7a04c1	0.24415876
72	0x3e5ce612	0.2157214
73	0xbe0bd1f6	-0.13654312
74	0x3eb0b7d1	0.3451524
75	0x3db4f76e	0.08836256
76	0x3e056d9a	0.13030091
77	0xbe22058d	-0.1582243
78	0x3e2c8439	0.16847314
79	0x3ec38bbf	0.38192555
80	0x3e542f4a	0.20721164
81	0x3e338a1f	0.17533158
82	0x3ea4eff7	0.3221433
83	0xbe1543d3	-0.14576654
84	0xbd02806f	-0.031860765
85	0xbe03b732	-0.12862852
86	0x3de67696	0.11253087
87	0xbe0c7a21	-0.13718463
88	0x3e871a12	0.26387078
89	0x3e86f351	0.2635751
90	0x3eec4194	0.46143782
91	0x3e9d9f69	0.30785683
92	0x3e1f21a0	0.1554017
93	0x3c585460	0.01320371
94	0xbd1b0cda	-0.037854053
95	0x3ef28696	0.47368306
96	0x3ed7b72a	0.4213193
97	0x3e3cea75	0.18448813
98	0x3f01a9cf	0.5064973
99	0x3e602f49	0.21893038
100	0xbe69bb6b	-0.228254
101	0x3e1a197a	0.15048781
102	0x3dfde140	0.12396479
103	0x3e147b2a	0.14500108
104	0x3d997054	0.07492128
105	0x3e823f31	0.25438836
106	0xbe4dd05c	-0.20099014
107	0xbdc1dde7	-0.09466153
108	0xbe92a280	-0.28639603
109	0x3d9bb122	0.07602145
110	0x3e4708e9	0.19436993
111	0x3d95ea92	0.07320131
112	0xbe512158	-0.20422876
113	0x3eae5bac	0.34054315
114	0x3e6d2176	0.23157296
115	0xbd8c6a1d	-0.06856177
116	0xbcd75101	-0.026283743
117	0xbe9a768d	-0.30168572
118	0xbe2a31e2	-0.16620591
119	0x3e1c1cf8	0.15245426
120	0x3d2b7d0e	0.04186731
121	0xbe03378d	-0.1281416
122	0x3e979332	0.2960449
123	0xbe8257d4	-0.25457633
124	0x3ec57312	0.38564354
125	0x3ba4a49f	0.005024507
126	0xbebdf18b	-0.37098345
127	0xbd3fb724	-0.046805516
128	0xbe76b55c	-0.2409262
129	0xbe93f117	-0.28894874
130	0xbdd88e79	-0.105740495
131	0x3e341d26	0.17589244
132	0xbd64b495	-0.05583628
133	0x3eaa6dcd	0.33286896
134	0xbe407cfc	-0.18797678
135	0xbd1a2458	-0.037632316
136	0x3e83edc1	0.2576733
137	0xbe1cf4b8	-0.15327728
138	0xbe05eb59	-0.1307806
139	0x3e58ec5e	0.21183917
140	0x3d7d33fd	0.061817158
141	0x3e16a9da	0.1471323
142	0xbc2a884a	-0.01040847
143	0x3c54ac53	0.012980538
144	0xbd9cfc5a	-0.0766532
145	0xbdd7835f	-0.10523104
146	0xbdca2788	-0.09870821
147	0xbda35c07	-0.07976537
148	0xbdf04ba5	-0.11733178
149	0xbecfd904	-0.40595257
150	0x3ea8ca92	0.3296705
151	0x3e759d42	0.2398577
152	0x3e2ec3d6	0.17066893
153	0x3ab906e1	0.001411643
154	0x3e231e68	0.15929568
155	0x3da809b2	0.08204974
156	0x3e3783dc	0.17921394
157	0x3e8cab18	0.27474284
158	0xbdcfb9d9	-0.101428695
159	0x3e346198	0.17615354
160	0x3ec673c8	0.3876021
161	0x3ebcc01f	0.36865327
162	0x3e8b77bf	0.27239797
163	0xbd9bed3a	-0.07613607
164	0x3dd0aa4e	0.10188733
165	0xbe8cb694	-0.27483046
166	0xbe3d8bef	-0.18510412
167	0x3eac4eeb	0.3365396
168	0x3d32e806	0.043678306
169	0xbd97b9b1	-0.07408465
170	0x3d6bd6fc	0.057578072
171	0x3ed09803	0.40740976
172	0xbdcaf5f3	-0.09910192
173	0x3c7cb3e3	0.015423748
174	0xbd69de40	-0.05709672
175	0x3ca201b4	0.019776203
176	0x3ed177b7	0.40911648
177	0x3d242b65	0.040080447
178	0xbe2eda6f	-0.17075513
179	0xbe4043ce	-0.18775865
180	0xbd9c9cd1	-0.07647098
181	0x3c169939	0.009191805
182	0x3e875f59	0.26439932
183	0x3e26ea2f	0.16300271
184	0x3e03cbfb	0.12870781
185	0xbe062859	-0.13101329
186	0x3f00cc25	0.503115
187	0x3c0e36bb	0.008680041
188	0x3f0ac8b3	0.5421249
189	0xbe82811f	-0.25489137
190	0xbe63adf5	-0.22234328
191	0xbed8cfea	-0.42346126
192	0xbe8b2567	-0.27176973
193	0xbe4f4eaa	-0.20244852
194	0xbcbc4a96	-0.022984784
195	0x3e1022bf	0.14075755
196	0xbeb7383f	-0.357851
197	0x3dd73bef	0.10509478
198	0x3dc179a8	0.09447032
199	0xbe9c1ab2	-0.30489117
200	0xbf03ad17	-0.5143599
201	0xbddda77d	-0.108229615
202	0xbe4c8510	-0.19972634
203	0x3e031d66	0.12804183
204	0x3e19dfc4	0.15026766
205	0x3d9da2e0	0.076970816
206	0xbdf97a36	-0.12181513
207	0x3e9bf057	0.30456802
208	0xbe49431a	-0.19654503
209	0x3de45fed	0.11151109
210	0x3e96a676	0.29423875
211	0xbd9ddc37	-0.07708018
212	0x3e79c730	0.2439239
213	0xbb6df9d9	-0.003631225
214	0x3e0ee79a	0.13955536
215	0x3e00f646	0.12593946
216	0x3eb730f2	0.3577953
217	0xbe103fd6	-0.14086851
218	0xbe170019	-0.14746131
219	0xbee3113d	-0.4434909
220	0x3debcd19	0.11513729
221	0x3e8de639	0.27714708
222	0xbe887974	-0.2665516
223	0xbe64ffc5	-0.22363193
224	0xbeaad6e8	-0.33367085
225	0xbe9ce6f7	-0.30644962
226	0x3edccdc0	0.43125725
227	0xbe8a1e32	-0.26976162
228	0x3ed86ff3	0.4227291
229	0x3e8f540e	0.27993816
230	0xbc4285d7	-0.01187273
231	0x3e0b5a6e	0.13608715
232	0x3d9a2e8f	0.075284116
233	0xbd995a8a	-0.07487972
234	0xbdc8f744	-0.09812787
235	0xbc2038cf	-0.009779169
236	0xbc4ee5e7	-0.012628055
237	0xbb79fa3c	-0.0038143536
238	0x3e603064	0.2189346
239	0xbd8df11b	-0.06930753
240	0x3dca2b7d	0.09871576
241	0xbcbdd9c1	-0.023175122
242	0xbebc33a1	-0.3675814

gru_cp_fw.weight_hh_l0 f4 [27, 9]
0	0xbd0930c8	-0.033493787
1	0xbe0019c9	-0.12509836
2	0xbdebe775	-0.11518756
3	0x3df3bb36	0.11900942
4	0x3e9ce287	0.30641577
5	0x3c54bea0	0.012984902
6	0xbde23bab	-0.11046537
7	0x3bbe11b7	0.0058004516
8	0xbe7a05a4	-0.24416214
9	0x3e734330	0.23756099
10	0xbd8a25ad	-0.06745467
11	0x3e4a7438	0.19770896
12	0xbe3aa92d	-0.18228598
13	0x3e6a3c0f	0.22874473
14	0x3d5e8062	0.054321654
15	0x3df26c76	0.118370935
16	0xbe8c974d	-0.27459183
17	0xbea83ce6	-0.32858962
18	0xbeb5f764	-0.35540307
19	0xbc94d227	-0.018166615
20	0x3d710168	0.05883923
21	0xbe6b03eb	-0.22950713
22	0x3e85bcc2	0.26120573
23	0xbe3d5e76	-0.18493065
24	0x3c151635	0.009099533
25	0x3db488cc	0.088151544
26	0x3e0447a5	0.12917955
27	0x3e64dd37	0.22350012
28	0xbe7a1a74	-0.24424154
29	0xbec68196	-0.3877074
30	0x3e65ecc0	0.22453594
31	0x3e0f9b4f	0.1402409
32	0x3e04253e	0.12904832
33	0xbe626620	-0.2210927
34	0xbe91ba22	-0.2846232
35	0xbe86e8d8	-0.2634952
36	0x3eac81eb	0.3369287
37	0x3ebdbe08	0.37059045
38	0xbe99c143	-0.3003026
39	0xbe3072b2	-0.17231253
40	0x3cf71102	0.030159477
41	0xbd1d5f0d	-0.038420726
42	0x3eda8fc6	0.42687815
43	0x3db426cd	0.08796463
44	0xbecbab14	-0.3977896
45	0xbe429e76	-0.1900576
46	0xbdbe8b29	-0.093038864
47	0xbed6b275	-0.41933027
48	0x3ceb2b84	0.028707273
49	0xbe96d93f	-0.2946262
50	0x3ea266a5	0.31718937
51	0x3d98d9d8	0.074634254
52	0xbec4bc46	-0.3842489
53	0xbe048d11	-0.12944438
54	0x3e97b823	0.29632673
55	0xbdf2b2eb	-0.11850532
56	0x3c945a6d	0.018109525
57	0x3e829f0e	0.25511974
58	0xbe29774c	-0.16549414
59	0x3e3ff4cf	0.18745731
60	0xbe383671	-0.17989518
61	0xbd80e96f	-0.06294524
62	0xbca4e5c4	-0.020129092
63	0xbed5f586	-0.41788882
64	0x3cfa0117	0.030518098
65	0x3e2d3f50	0.16918683
66	0xbdc1932d	-0.094519
67	0xbee972f0	-0.45595503
68	0x3dbae37a	0.09125419
69	0xbe922c30	-0.28549337
70	0x3e831bba	0.2560709
71	0x3dd6a8b1	0.10481394
72	0x3e5dbe11	0.21654536
73	0xbe2de3ff	-0.16981505
74	0xbdfc97fd	-0.12333677
75	0x3e216a14	0.15763122
76	0x3e068a4d	0.13138695
77	0x3e476116	0.19470629
78	0xbe9f85a9	-0.31156662
79	0xbc5f8d73	-0.013644564
80	0xbe8794c8	-0.264807
81	0xbe10e184	-0.14148527
82	0xbde8091f	-0.11329865
83	0x3d592d1b	0.05302153
84	0xbc012b81	-0.007883907
85	0x3e4c9aee	0.19980976
86	0x3e397f53	0.18114977
87	0xbd2eeee8	-0.042708308
88	0x3d0e0ce0	0.034680247
89	0xbec034c1	-0.37540248
90	0xbe78efcb	-0.24310224
91	0xbe8fd9fb	-0.28095993
92	0xbe07b4a7	-0.13252507
93	0xbeadff6a	-0.33983928
94	0xbe483076	-0.19549736
95	0xbd56ccbf	-0.052441355
96	0xbec8aef7	-0.39195988
97	0x3d277fae	0.04089325
98	0xbe3dbaca	-0.18528286
99	0x3f023739	0.50865513
100	0x3e84e4d9	0.25955847
101	0xbe871b2e	-0.26387924
102	0x3ebc51a0	0.36781025
103	0x3e6399f6	0.222267
104	0xbe0ec50e	-0.13942358
105	0x3ee6494e	0.44977802
106	0xbe9f74bf	-0.31143758
107	0x3dc23ec4	0.09484628
108	0xbe9e466b	-0.309131
109	0xbeaa4c52	-0.33261353
110	0xbd71f411	-0.05907065
111	0x3d9f458d	0.07776938
112	0xbc76f02d	-0.015071911
113	0x3e6bac14	0.23014861
114	0xbe83d56d	-0.25748768
115	0xbe0bfed4	-0.13671428
116	0x3ea2f119	0.31824568
117	0xbdb0dbe8	-0.08635694
118	0x3e09bf6a	0.13451925
119	0x3d046554	0.032323197
120	0xbbe6b2a7	-0.00704034
121	0x3e7f7979	0.24948682
122	0xbdd2917b	-0.102816544
123	0xbda1f1d8	-0.07907456
124	0x3e2046f1	0.15652062
125	0xbca086f3	-0.019595599
126	0x3e3a92fc	0.18220133
127	0xbdc16400	-0.094429016
128	0x3dfc3f59	0.1231677
129	0xbe808787	-0.251034
130	0xbe14cb5a	-0.14530697
131	0xbe1fadd2	-0.15593651
132	0x3ee1073e	0.43950838
133	0xbea3a79b	-0.3196381
134	0x3db75831	0.08952368
135	0x3e035c8a	0.1282827
136	0xbe8bc6e2	-0.27300173
137	0x3e5468c4	0.2074309
138	0xbe2a9e6c	-0.16661996
139	0xbd932ca6	-0.071862504
140	0xbe9a1c0d	-0.30099526
141	0x3d242e8d	0.040083457
142	0xbc696c4d	-0.014247012
143	0x3dce5aa6	0.100758836
144	0x3e18516b	0.14874808
145	0x3c9d91da	0.019234587
146	0x3cc2d5a7	0.023783518
147	0x3dccaa97	0.09993475
148	0x3dae4f92	0.085112706
149	0x3e26447e	0.16237065
150	0x3ddf8713	0.10914435
151	0xbe38cd62	-0.18047097
152	0xbeecd409	-0.4625552
153	0x3e3d52c3	0.18488602
154	0xbe50b652	-0.2038205
155	0xbd4e108f	-0.05030876
156	0xbe64e7e9	-0.22354092
157	0x3ba361db	0.0049860305
158	0x3e22d1c1	0.15900327
159	0x3e8c0b4f	0.27352378
160	0x3ddd6500	0.1081028
161	0xbe5523de	-0.20814463
162	0xbe356c19	-0.17717017
163	0x3cff8d6e	0.031195369
164	0xbe48020c	-0.19532031
165	0xbc920530	-0.01782474
166	0x3eec66c3	0.4617215
167	0x3ea6caa1	0.3257647
168	0x3ef8e608	0.48613
169	0x3e164ee1	0.14678527
170	0x3e260003	0.16210942
171	0xbe6778ac	-0.22604626
172	0x3f04ac95	0.5182584
173	0xbe18e355	-0.1493047
174	0xbc7a61d9	-0.015282118
175	0x3ecdfa3c	0.40229976
176	0xbdbaa624	-0.0911372
177	0x3e631438	0.22175682
178	0xbe385541	-0.18001272
179	0xbe052d6e	-0.13005611
180	0xbe1836fa	-0.14864722
181	0xbd2067b1	-0.039161388
182	0x3d8e59a8	0.06950694
183	0xbaad4ad9	-0.0013221159
184	0xbeb7e0da	-0.35913736
185	0xbe0e8d3c	-0.13921064
186	0xbe9092a9	-0.28236893
187	0xbe025594	-0.12727958
188	0x3e5d1f45	0.2159396
189	0xbd8024b2	-0.06256999
190	0x3d692f16	0.05692967
191	0xbc48548f	-0.012227192
192	0xbdde7546	-0.10862212
193	0x3e9be8a6	0.30450934
194	0xbe25bc88	-0.161852
195	0x3ef8f15e	0.4862165
196	0xbefdd667	-0.49577639
197	0xbd2b05c6	-0.041753553
198	0x3d7daa93	0.06193025
199	0x3d23849d	0.03992139
200	0xbe756c96	-0.23967203
201	0x3d922c4a	0.07137354
202	0xbe016b67	-0.12638627
203	0x3d077f07	0.033080127
204	0x3f006f07	0.50169414
205	0xbe7c6934	-0.24649507
206	0xbdbbe843	-0.0917516
207	0x3ed97597	0.42472526
208	0xbd394949	-0.045235906
209	0xbdf3a8ab	-0.11897405
210	0x3e7862ba	0.24256411
211	0x3e00c6ca	0.12575832
212	0x3eb3cbd5	0.3511645
213	0x3d597bd6	0.053096615
214	0xbe1ecfd3	-0.15508966
215	0xbf0097f9	-0.5023189
216	0x3df747de	0.120742545
217	0x3e72b441	0.23701574
218	0xbd94ba18	-0.07262057
219	0x3c72219b	0.01477852
220	0x3edf672f	0.4363341
221	0xbe71e5cf	-0.23622821
222	0x3e9b7195	0.30360094
223	0xbe8faa60	-0.28059673
224	0xbe6350a1	-0.22198726
225	0xbeb49ca2	-0.3527575
226	0xbe055cc1	-0.13023664
227	0xbe4bf11a	-0.19916192
228	0xbe0c4a07	-0.13700114
229	0xbe27a10b	-0.16370027
230	0xbe0e3846	-0.13888654
231	0x3d7d4cf6	0.061840974
232	0x3dda624c	0.1066328
233	0x3e52fc9e	0.20604178
234	0xbcf5e20f	-0.03001502
235	0xbcfecc39	-0.03110324
236	0xbe183440	-0.14863682
237	0xbe427b45	-0.18992336
238	0xbe380f20	-0.1797452
239	0xbed6279c	-0.41827095
240	0x3b30045a	0.0026858062
241	0x3e1f331b	0.15546839
242	0x3f0ce76b	0.55040616

gru_cp_fw.bias_ih_l0 f4 [27]
0	0xbd768376	-0.060183965
1	0xbe0eb297	-0.13935314
2	0x3ddfd7cd	0.109298326
3	0x3d804f64	0.062651426
4	0x3e18f1d3	0.14935999
5	0x3e2b65a7	0.16737996
6	0xbe052001	-0.1300049
7	0x3d6a8111	0.057251994
8	0x3ebabcb6	0.364721
9	0x3d8f9d8f	0.07012474
10	0x3f00524b	0.5012557
11	0xbe0815e7	-0.13289605
12	0xbeb3b0c3	-0.35095796
13	0x3e4136e2	0.18868592
14	0xbd2b92d2	-0.041888066
15	0x3e272261	0.16321708
16	0x3df4e387	0.1195746
17	0x3e8abd0a	0.2709735
18	0x3d9a4fda	0.07534762
19	0xbd1ad462	-0.0378002
20	0xbdc07028	-0.09396392
21	0x3caa9b26	0.020825934
22	0xbe8fa315	-0.2805411
23	0x3e3dab78	0.18522441
24	0x3e22e4f6	0.15907654
25	0xbe4c1168	-0.19928515
26	0xbefda058	-0.49536395

gru_cp_fw.bias_hh_l0 f4 [27]
0	0xbe56c4d4	-0.20973521
1	0x3d90be24	0.070675164
2	0xbe447fe1	-0.19189407
3	0x3e43e1d6	0.19129118
4	0xbd8da9b6	-0.069171354
5	0xbc9db29d	-0.019250209
6	0x3e7be5f5	0.2459944
7	0xbd8b7a04	-0.06810382
8	0x3ec0bdb4	0.37644732
9	0x3f0aaefc	0.54173255
10	0x3db9510e	0.09048663
11	0x3e29cc79	0.16581906
12	0x3e1e1d87	0.15440951
13	0x3e3f369d	0.18673177
14	0xbe739e8c	-0.2379095
15	0x3d9aedec	0.07564911
16	0x3e938d9e	0.28818983
17	0x3f28b68b	0.6590354
18	0xbc501cd2	-0.012702184
19	0x3e31b4b8	0.17354095
20	0x3d64eff0	0.055892885
21	0xbd8ce157	-0.06878918
22	0xbc958cf6	-0.018255692
23	0x3e9eef13	0.31041774
24	0x3dcf3862	0.10118176
25	0x3ea09bbb	0.31368813
26	0xbedca3fc	-0.4309386

gru_dp_bw.weight_ih_l0 f4 [33, 11]
0	0xbe723ee8	-0.2365681
1	0xbdccd655	-0.10001818
2	0x3bdd823b	0.0067599094
3	0x3dff9308	0.12479216
4	0xbe596d23	-0.21233039
5	0x3cb05865	0.021526525
6	0x3ceebb9f	0.0291422
7	0x3eb000ba	0.34375554
8	0x3e5b6274	0.21424276
9	0xbcb7a1c2	-0.022416
10	0x3e5605dc	0.20900673
11	0x3ea67cc4	0.32517064
12	0x3dbe9d87	0.0930739
13	0xbef03755	-0.46917215
14	0x3e679b0f	0.22617744
15	0x3e6aa80f	0.22915672
16	0x3ea95368	0.33071446
17	0xbafd0616	-0.0019304182
18	0x3c9d1419	0.019174622
19	0xbe89cd46	-0.26914424
20	0xbe271135	-0.16315158
21	0x3eabac82	0.3353005
22	0xbdcd814d	-0.10034428
23	0x3e8d17fb	0.27557358
24	0x3e0469ad	0.12930937
25	0xbe9843ee	-0.29739326
26	0x3e9feabf	0.31233785
27	0x3daca117	0.08429163
28	0x3da15efd	0.07879446
29	0xbe6ead7a	-0.23308364
30	0x3e2326c6	0.1593276
31	0xbdfe4ed5	-0.1241738
32	0x3ee6f190	0.45106173
33	0x3eabbf76	0.3354451
34	0xbddc9155	-0.107699074
35	0xbe469da1	-0.19396068
36	0x3c32cbd1	0.010912851
37	0xbe176151	-0.14783217
38	0x3ba78c42	0.0051131556
39	0x3e6c0f3e	0.2305269
40	0x3f102495	0.5630582
41	0xbe36a8e0	-0.17837858
42	0x3e92ecaa	0.28696185
43	0x3f1c3693	0.61020774
44	0x3ddba2a4	0.107243806
45	0xbe5a0138	-0.21289527
46	0xbd2502d4	-0.0402859
47	0xbe585af3	-0.21128444
48	0x3defe098	0.1171276
49	0x3bffd1c0	0.0078069866
50	0x3e4ee1e9	0.20203365
51	0x3ec2d128	0.380502
52	0x3d5e5ddb	0.054288726
53	0x3bf48dec	0.0074632075
54	0xbe0bd666	-0.13656005
55	0x3e8800b0	0.26563025
56	0x3e723aa6	0.23655185
57	0x3e3d9626	0.18514308
58	0xbe713027	-0.23553525
59	0xbe502dfd	-0.20330043
60	0xbcfb4960	-0.030674636
61	0xb8e0801c	-0.000107050146
62	0x3ee0148b	0.43765673
63	0xbd19e472	-0.037571378
64	0x3e4207db	0.18948309
65	0x3dd14a83	0.1021929
66	0xbec48442	-0.38382155
67	0x3eb4e9e9	0.3533471
68	0x3e5e2593	0.21694021
69	0xbeac48f7	-0.33649418
70	0x3dc27ba4	0.09496239
71	0x3ec8e207	0.39234945
72	0x3ea07667	0.31340334
73	0xbdaee659	-0.08540029
74	0x3dadfd05	0.08495525
75	0x3e5ffc16	0.21873507
76	0x3d61feb7	0.055174556
77	0x3d1d5a1b	0.03841601
78	0xbe59e785	-0.21279724
79	0xbda2511d	-0.079256274
80	0xbcaecd4f	-0.021338133
81	0x3ed374c8	0.41300035
82	0xbe8a1294	-0.269673
83	0xbe89aaac	-0.26888025
84	0x3e92ef1d	0.28698054
85	0x3d168eb8	0.0367572
86	0x3e96ccbe	0.2945308
87	0xbd1341a9	-0.03595129
88	0x3e3f0f9e	0.18658301
89	0x38816333	6.1696766e-05
90	0x3c51c340	0.012802899
91	0x3d1a764c	0.037710473
92	0x3e5ffbe5	0.21873434
93	0x3e928417	0.28616402
94	0x3d8b6fed	0.068084575
95	0x3ee95a12	0.4557653
96	0x3dc969a6	0.09834604
97	0x3e01ae84	0.12664229
98	0x3ec28113	0.379891
99	0xbe502742	-0.20327476
100	0x3e632d55	0.22185262
101	0xbe91a5c2	-0.28446776
102	0x3ea0895e	0.31354803
103	0x3e7dff9e	0.24804541
104	0x3df76ac9	0.120809145
105	0x3d735296	0.059404932
106	0x3b9d85eb	0.004807224
107	0x3d470f70	0.048598707
108	0x3db3ad68	0.08773309
109	0x3cd22c3d	0.02565586
110	0x3e5ece44	0.21758372
111	0xbdcc9a80	-0.09990406
112	0xbe3dbd7a	-0.18529311
113	0x3e0dca23	0.1384664
114	0xbe0c5efc	-0.13708109
115	0xbe44b985	-0.19211395
116	0xbd825fb5	-0.06365911
117	0xbe9bf4c4	-0.3046018
118	0xbe62097a	-0.22073928
119	0x3dad2162	0.08453633
120	0x3eb299ce	0.3488297
121	0x3e55b12e	0.2086837
122	0xbd2fca07	-0.042917278
123	0x3e8394c5	0.2569944
124	0x3e694fba	0.2278432
125	0xbd73fc8b	-0.059567016
126	0x3d4cf27f	0.05003595
127	0xbccf6f9d	-0.025321776
128	0xbdb2274b	-0.08698901
129	0xbdc4287f	-0.095780365
130	0x3e45b121	0.1930585
131	0xbd926d99	-0.0714981
132	0xbcbb6c35	-0.022878746
133	0x3e42ca44	0.1902247
134	0xbe491a94	-0.19639045
135	0x3db9775a	0.09055968
136	0xbd31f483	-0.043446075
137	0xbcb5e52c	-0.022204004
138	0x3e4ad657	0.19808327
139	0xbe1ceb89	-0.15324225
140	0xbe8eeaaf	-0.27913424
141	0x3deecd98	0.11660308
142	0xbd0dedef	-0.03465074
143	0xbe404e4e	-0.18779871
144	0xbebb7ef2	-0.3662029
145	0x3e2cca21	0.16873981
146	0xbe480099	-0.19531478
147	0xbe29abe4	-0.16569477
148	0xbd35514c	-0.044266984
149	0x3e215718	0.1575588
150	0xbe9d8e55	-0.30772653
151	0xbd24adde	-0.040204875
152	0xbeb2aff0	-0.34899855
153	0x3e8467dc	0.25860488
154	0x3e032b64	0.12809521
155	0xbeb74f24	-0.35802567
156	0xbe3dadee	-0.1852338
157	0xbdd1dd55	-0.10247294
158	0x3c274af3	0.01021074
159	0x3ead0bcb	0.3379806
160	0xbdc230a0	-0.09481931
161	0xbe0303f6	-0.1279448
162	0x3e07a914	0.13248092
163	0x3b203c11	0.0024449865
164	0x3e742a2f	0.23844217
165	0xbe50eb84	-0.20402342
166	0xbe8ce558	-0.27518725
167	0x3e6df6c5	0.23238666
168	0x3e152dff	0.14568327
169	0xbdeefd95	-0.11669461
170	0x3c821377	0.015878422
171	0xbe3bff16	-0.18359026
172	0xbdaa76d1	-0.08323444
173	0x3e1bd6fc	0.15218729
174	0xbdea7f40	-0.11450052
175	0xbdc9cc46	-0.09853415
176	0x3d42a7f1	0.047523443
177	0xbddffeb3	-0.10937252
178	0x3ca811fe	0.020516392
179	0xbce99345	-0.028512606
180	0x3d8762cf	0.06610643
181	0x3e138ea0	0.14409876
182	0xbea4aa01	-0.32160953
183	0x3e89b835	0.2689835
184	0xbd233248	-0.039842874
185	0xbe6bb9ac	-0.23020047
186	0x3e50c556	0.20387778
187	0xbe703df6	-0.23461136
188	0x3cf7eadc	0.030263357
189	0xbe57f209	-0.21088423
190	0xbd101820	-0.035179257
191	0x3cc73509	0.024317281
192	0x3e641a72	0.22275713
193	0x3c80a62b	0.015704235
194	0xbe17ab8c	-0.14811534
195	0x3d8735c5	0.066020526
196	0xbdcab86e	-0.098984584
197	0x3da539e7	0.080676846
198	0xbdd0fd05	-0.1020451
199	0xbea0ab37	-0.31380627
200	0x3e7950df	0.24347256
201	0x3dbb38b6	0.09141676
202	0xbe535936	-0.206395
203	0xbdee377f	-0.11631679
204	0x3daaeb8d	0.08345709
205	0x3e20090e	0.15628454
206	0x3d89edd2	0.06734814
207	0xbded3bcf	-0.11583673
208	0xbca12948	-0.019673005
209	0xbdf98968	-0.12184411
210	0xbcc7fdb1	-0.024412962
211	0x3e8426e6	0.25810927
212	0x3ce9513e	0.028481122
213	0xbe93b5b2	-0.2884956
214	0x3e3424eb	0.17592208
215	0xbb2ac8f3	-0.0026059716
216	0xbd8bcb36	-0.06825869
217	0x3d263d58	0.040585846
218	0xbe3d7b9e	-0.18504187
219	0x3ece6a8e	0.4031567
220	0x3db2e87f	0.08735751
221	0x3e232d60	0.15935278
222	0xbe49993c	-0.1968736
223	0xba976f07	-0.0011553474
224	0xbe1be906	-0.1522561
225	0xbc81be66	-0.01583786
226	0x3d47c84c	0.048775002
227	0xbead27da	-0.33819467
228	0x3db10582	0.08643629
229	0xbeac4bd0	-0.3365159
230	0x3e93415a	0.28760797
231	0xbe980fe0	-0.29699612
232	0x3d854757	0.065077476
233	0xbe072a93	-0.13199835
234	0xbe0e951c	-0.13924068
235	0x3e667238	0.22504508
236	0x3e1a03d4	0.15040523
237	0x3e819d16	0.2531516
238	0xbd4b6e08	-0.04966548
239	0xbd63354a	-0.055470742
240	0x3ca52f7f	0.02016425
241	0x3da9809d	0.08276484
242	0x3da0e4cf	0.07856142
243	0x3c5b46ec	0.013383608
244	0xbca3031e	-0.019898947
245	0x3df86492	0.12128557
246	0x3c8f6f1f	0.017509041
247	0xbe3ea03a	-0.18615809
248	0xbe877274	-0.26454508
249	0xbcb3d6de	-0.021953043
250	0xbdac44f6	-0.08411591
251	0xbe9ae03d	-0.30249205
252	0xbe25c694	-0.16189033
253	0x3db4b353	0.08823266
254	0xbd0314d5	-0.03200229
255	0xbe133c83	-0.14378552
