ablation1_min_count/min_count_250/attention_concat_time/final_model.pt (torch, 58107 bytes, 11 tensors)

embed_dp.weight f4 [707, 12]
0	0x00000000	0.0
1	0x00000000	0.0
2	0x00000000	0.0
3	0x00000000	0.0
4	0x00000000	0.0
5	0x00000000	0.0
6	0x00000000	0.0
7	0x00000000	0.0
8	0x00000000	0.0
9	0x00000000	0.0
10	0x00000000	0.0
11	0x00000000	0.0
12	0x3fbd744b	1.4801115
13	0xbf802e09	-1.0014049
14	0xbfa9e546	-1.3273094
15	0xbfadd313	-1.358004
16	0xbe1c1745	-0.15243252
17	0xbd9a2b37	-0.07527774
18	0xbf2f9bc4	-0.68597054
19	0xbdb859f4	-0.09001532
20	0x3e763325	0.24042948
21	0xc04b382e	-3.175304
22	0x3f8d07c1	1.1017991
23	0xbf12b4a5	-0.5730689
24	0x3ea4fcd4	0.32224143
25	0xbf856d26	-1.0423934
26	0xbf3a337a	-0.72734797
27	0x3db18f62	0.08669926
28	0x3f4cfa13	0.8006908
29	0xbf370eeb	-0.7150714
30	0xbf8cd8c1	-1.1003648
31	0x3f4cf84c	0.8006637
32	0xc0090884	-2.1411448
33	0x3f9676f3	1.175505
34	0x3f7b1534	0.9807923
35	0xbe47d074	-0.19513112
36	0xbf3b35ca	-0.7312895
37	0x3e217483	0.15767102
38	0xbe949dcd	-0.29026642
39	0xbfeb2138	-1.8369513
40	0xbf3d6c3b	-0.7399327
41	0x3f0549dc	0.52065825
42	0xbf2ff14c	-0.68727565
43	0x3ee45cd9	0.44602087
44	0xbe290456	-0.1650556
45	0xbc4d19e9	-0.0125183845
46	0xbfa1abd1	-1.2630559
47	0xbeee3e83	-0.46532068
48	0x3c8bddd7	0.017073555
49	0xbfafe0e7	-1.374051
50	0xbcd10069	-0.02551289
51	0x3f685a88	0.9076314
52	0xbf09268d	-0.5357445
53	0xbe00f84e	-0.1259472
54	0xbee56ceb	-0.4480966
55	0x3e94a2d8	0.2903049
56	0xc0491640	-3.141983
57	0xbfce7795	-1.6130244
58	0xbee76323	-0.45192823
59	0x3eb97806	0.36224383
60	0xbfe5dd4a	-1.7958157
61	0xbfabd3bf	-1.3423995
62	0x3f0cb6ce	0.5496644
63	0x3f53bf62	0.827139
64	0xbf0bc545	-0.54597884
65	0xbe47cdce	-0.19512102
66	0xbf11a404	-0.56890893
67	0x3fc81de8	1.5634127
68	0x40050241	2.0782626
69	0xbeceda8e	-0.4040112
70	0x3d03a9b7	0.032144275
71	0xbfe40354	-1.7813516
72	0xbea7871a	-0.32720262
73	0x3f28f25e	0.6599482
74	0x3d8bb2a6	0.06821184
75	0x3fc8f203	1.5698856
76	0x3e825589	0.25455883
77	0xbf8c8f9e	-1.0981328
78	0xc00c0c80	-2.188263
79	0xbc9ed7ce	-0.019390013
80	0xbeb94a80	-0.3618965
81	0xbe50ef1c	-0.20403713
82	0x3f10c0bc	0.5654409
83	0x3e7004bf	0.2343931
84	0xbd6dc9f6	-0.058053933
85	0xbe1a6668	-0.15078127
86	0x3e0244ee	0.12721607
87	0xbd266f41	-0.040633444
88	0xbc0cd3d9	-0.00859543
89	0xbe0becd3	-0.1366456
90	0x3fbc7cfa	1.472564
91	0xbf9b0813	-1.2111839
92	0xbf7b48ff	-0.9815826
93	0xbf0571f4	-0.52127004
94	0x3faa7b88	1.3318949
95	0xbf238f7f	-0.6389083
96	0x3fd9380b	1.6970228
97	0xbeffb3f1	-0.49941972
98	0x3fbba9e5	1.4661223
99	0x3f93e5d7	1.1554517
100	0x3fa753d2	1.3072455
101	0xbf4ae6de	-0.79258525
102	0xbe7f7664	-0.24947506
103	0xbd65db9c	-0.05611764
104	0xbb36d6a5	-0.0027898934
105	0xbf66979f	-0.90075105
106	0x3f0acec3	0.54221743
107	0x3faafc55	1.3358256
108	0xbf57b283	-0.8425676
109	0xbf66a488	-0.90094805
110	0xbcd22441	-0.025652053
111	0xbf994625	-1.1974531
112	0xbf96dbed	-1.1785866
113	0xbf041dae	-0.5160779
114	0x3fd4a197	1.6611813
115	0xbe9a69d7	-0.30158874
116	0x3f3e7506	0.74397314
117	0x3f975254	1.1822
118	0xbe908f29	-0.28234223
119	0xbe994d5c	-0.29941833
120	0x3fbde19d	1.4834477
121	0x3fcd5882	1.6042635
122	0x3d99e30f	0.07514011
123	0x3f2077f0	0.6268301
124	0xbe96040a	-0.29299957
125	0xbf1a4691	-0.60263926
126	0xbf1e961a	-0.61947787
127	0xbfb1c3c5	-1.3887869
128	0xbe1a3d8d	-0.15062542
129	0x3e64dadb	0.22349112
130	0xbf8b59aa	-1.0886738
131	0xbd9a3842	-0.075302616
132	0xbea8dd79	-0.3298147
133	0x3f4970ff	0.78688043
134	0x3e4899be	0.19589898
135	0xbf999986	-1.1999977
136	0x3fd4df54	1.6630654
137	0x404dbcab	3.2146404
138	0xbe794f35	-0.24346621
139	0x3d7bc7c0	0.061469793
140	0xbe40255a	-0.18764248
141	0x3f7c6a51	0.98599726
142	0xbde707a4	-0.11280754
143	0xbf9542f3	-1.1661056
144	0x400ea6f6	2.2289405
145	0xbf4103df	-0.7539653
146	0x3fd8958b	1.6920637
147	0x3da0a7c3	0.07844498
148	0xbe28e6c1	-0.16494276
149	0x3f97103b	1.1801828
150	0xbd8d431b	-0.06897565
151	0xbfe44424	-1.7833295
152	0xbf19d21d	-0.6008623
153	0x3e9e2a90	0.30891848
154	0xbe30fc4e	-0.17283747
155	0xbf023fff	-0.508789
156	0x3fe264d9	1.7687026
157	0x3f58bc04	0.8466189
158	0xbf17ad70	-0.5924902
159	0x3bc56928	0.0060244985
160	0xbf7dffef	-0.9921865
161	0x3fae1177	1.359908
162	0x3f4e1cd0	0.80512714
163	0xbf9b305b	-1.2124132
164	0xbf5afefd	-0.8554533
165	0x3f164282	0.5869523
166	0x3f865db6	1.0497348
167	0x3fcf3220	1.6187172
168	0xbf203bd5	-0.62591296
169	0xbe019c87	-0.12657367
170	0x3f5c6f68	0.8610749
171	0xbfabcb7d	-1.3421475
172	0xbdbfb626	-0.09360914
173	0x3d2f21f4	0.04275699
174	0xbf50e0c4	-0.81592965
175	0xc00ba6d4	-2.1820574
176	0x3f3458cd	0.70448
177	0x3fdbb9b4	1.7166047
178	0x3ec67cc2	0.38767058
179	0x3f9aa839	1.2082587
180	0xbdbdffc8	-0.09277302
181	0xbec64d25	-0.38730732
182	0x3f9f502d	1.2446343
183	0x3e568aa9	0.20951332
184	0x3f152519	0.5825973
185	0x3e05f170	0.13080382
186	0xbe330808	-0.17483532
187	0x3f8e759e	1.1129644
188	0xbf5c29be	-0.86001194
189	0x3e848ba6	0.25887793
190	0xbdb064a2	-0.08612944
191	0x3f85272d	1.040258
192	0x3fa3187f	1.2741851
193	0xc015b75c	-2.3393164
194	0xbcff73fb	-0.031183233
195	0x3fad7fc6	1.3554618
196	0x3eda1eed	0.4260172
197	0xbd964435	-0.07337228
198	0x3e199786	0.14999208
199	0xbf636135	-0.888202
200	0x3ed346bf	0.41264912
201	0xbebd4110	-0.369637
202	0x3fc5e6c2	1.5461047
203	0x3fd5ec90	1.6712818
204	0xbf0d4084	-0.5517657
205	0x3e34f195	0.17670281
206	0xbf9edafd	-1.241058
207	0x3f83b746	1.0290306
208	0x3e5f5401	0.21809389
209	0x3f969030	1.1762753
210	0x3d01795b	0.031609874
211	0x3f9f31cd	1.2437073
212	0x40077165	2.116296
213	0x40021d86	2.033052
214	0x3ed39087	0.41321203
215	0xbfafc50b	-1.3732008
216	0xbf99e26d	-1.2022225
217	0x3f535e3c	0.82565665
218	0x3c1f41c4	0.00972027
219	0x3dae8ee8	0.08523351
220	0xbf2ef670	-0.68344784
221	0x3f686bb9	0.9078937
222	0xbeb248c3	-0.34821138
223	0xbf51c7d6	-0.8194555
224	0xbfca75b5	-1.5817171
225	0xbed82d42	-0.4222203
226	0xbf786756	-0.9703268
227	0x3f10bd12	0.565385
228	0xbf2c4380	-0.67290497
229	0xbfb165fe	-1.385925
230	0x3ee44b3a	0.44588643
231	0x3ce01842	0.027355317
232	0x3fd5f5fc	1.6715693
233	0xbff74bfb	-1.9320062
234	0xbf58abeb	-0.84637326
235	0xbe64a9d5	-0.22330411
236	0xbf2dbe46	-0.6786846
237	0xbfbad3f3	-1.4595932
238	0xbf33660a	-0.70077574
239	0xbfd84107	-1.6894845
240	0xbf97d02d	-1.1860405
241	0x3ecb39b2	0.39692456
242	0x3f848c60	1.0355339
243	0xbfcb4387	-1.5879983
244	0x3f81bab9	1.0135108
245	0xbeae9e65	-0.3410522
246	0xbf682f58	-0.9069724
247	0x3e06448f	0.1311209
248	0xbfcd0caf	-1.6019496
249	0x3f0d4837	0.55188316
250	0x3f927c4e	1.1444185
251	0x3f320a2b	0.69546765
252	0xc012c6cd	-2.2933838
253	0x3fd50b69	1.6644107
254	0xbf02952b	-0.5100886
255	0xbf8f95ea	-1.1217625

embed_cp.weight f4 [457, 10]
0	0x00000000	0.0
1	0x00000000	0.0
2	0x00000000	0.0
3	0x00000000	0.0
4	0x00000000	0.0
5	0x00000000	0.0
6	0x00000000	0.0
7	0x00000000	0.0
8	0x00000000	0.0
9	0x00000000	0.0
10	0xbef15011	-0.47131398
11	0xbf24ad68	-0.64327097
12	0xbfaf228b	-1.3682417
13	0x3fb61e72	1.4228041
14	0x3fc156ba	1.5104592
15	0x3f856ea8	1.0424395
16	0x3f8007e7	1.0002412
17	0xbd00fd18	-0.03149137
18	0x3f6d59e6	0.927153
19	0x3f589a40	0.84610367
20	0xbea95ada	-0.33077127
21	0xbf2c3866	-0.6727356
22	0xbf74d5fa	-0.95639
23	0x3fd41456	1.6568706
24	0x3fbee7f3	1.4914535
25	0xbff94d7c	-1.9476771
26	0xbfaf1309	-1.3677684
27	0x3ea507a7	0.322324
28	0xbfb84919	-1.4397308
29	0xbe785e1f	-0.24254654
30	0x3f3917e9	0.7230211
31	0xbf28c98a	-0.65932524
32	0x3f9c9606	1.2233284
33	0xbef76bb0	-0.48324347
34	0x3fa627d0	1.29809
35	0x3fe69fd1	1.8017522
36	0xbe7150ce	-0.23565981
37	0x3f872a1a	1.0559723
38	0x3e24ec6d	0.16105814
39	0xbe172efa	-0.14764014
40	0x3f23c546	0.6397289
41	0x3e5e3a40	0.21701908
42	0xbe268278	-0.16260707
43	0xbf52a8f7	-0.8228907
44	0x3f8771c6	1.0581596
45	0xbf49809c	-0.7871187
46	0xbed2bda1	-0.411603
47	0xbe6cadb3	-0.23113136
48	0x3f0797fc	0.52966285
49	0x3ee7117b	0.45130524
50	0xbf10e29c	-0.5659578
51	0x3e9c77f3	0.30560264
52	0xbeccc97a	-0.39997464
53	0xbeb598d3	-0.35468158
54	0xbf2d7aa8	-0.67765284
55	0xbf916454	-1.1358743
56	0xbd9b2795	-0.07575909
57	0xbf10d19a	-0.56569827
58	0xbf17a5d2	-0.59237397
59	0xbe2e43ac	-0.17018002
60	0x3ce79ed1	0.028273972
61	0xbef6ef26	-0.4822933
62	0x3fce5998	1.6121092
63	0x3f809dbf	1.004814
64	0x3fb93899	1.4470397
65	0xbfc7ef12	-1.5619833
66	0x3f51c972	0.81948006
67	0x3fc1d4d4	1.5143075
68	0x3ffa43ce	1.9551942
69	0xbfc6ea1a	-1.5540192
70	0xbfab8ae2	-1.3401759
71	0x3f9fad4e	1.2474763
72	0x3ed34d61	0.41269973
73	0x3f00807e	0.50196064
74	0x3ebc5aca	0.36788017
75	0xbe4ff3ba	-0.20307818
76	0xbcf5b657	-0.029994173
77	0xbf390b58	-0.72282934
78	0xbf34b164	-0.70583177
79	0xbd5c4758	-0.053778976
80	0xbebd72ad	-0.37001553
81	0xbf74142e	-0.9534329
82	0x3f315a84	0.6927874
83	0x3ee2ad6d	0.44272938
84	0xbfb5ab8e	-1.4192979
85	0x3ffa8ec1	1.9574815
86	0x3ec08b77	0.37606403
87	0x3ea67472	0.32510716
88	0xbfa05904	-1.2527165
89	0x3fb9a971	1.4504834
90	0xbf80458d	-1.0021225
91	0xbf45f9ae	-0.77334106
92	0xbfcd1b55	-1.6023966
93	0xbde6caf8	-0.11269182
94	0x3f2d178b	0.6761405
95	0x3fa5a025	1.2939497
96	0x3e7f675b	0.2494177
97	0x4024c035	2.5742314
98	0x3f4b2dbf	0.7936668
99	0x3ca0447f	0.019563911
100	0xbe7aadca	-0.24480358
101	0x3eea2120	0.45728397
102	0x3d6250c3	0.0552528
103	0xbf0b3c53	-0.5438892
104	0x3f5dc837	0.8663363
105	0x3f9e0150	1.234415
106	0xbebdf5f8	-0.37101722
107	0xbe8e4f58	-0.2779491
108	0x3ef67978	0.48139548
109	0x3e836989	0.25666454
110	0xbf383ecc	-0.7197082
111	0x3e827e16	0.2548682
112	0xbf5fe160	-0.8745327
113	0x3e9f74b0	0.31143713
114	0x3ebf3172	0.3734241
115	0x3f8e52fa	1.1119072
116	0xbd9f7ba0	-0.077872515
117	0xbeeed202	-0.46644598
118	0xbe7c5a06	-0.24643716
119	0x3ef0234a	0.46901923
120	0xbf845b39	-1.0340339
121	0x3ef01b73	0.46895942
122	0xbffb432d	-1.9629875
123	0xbf47b7bd	-0.7801474
124	0x3fb2f3ae	1.3980615
125	0xbf73a271	-0.9516974
126	0xbf318564	-0.6934416
127	0x3fadfdda	1.3593094
128	0x3f827034	1.0190492
129	0x3f832eab	1.0248617
130	0x3ed69abc	0.41914928
131	0x3bbdd6c3	0.005793424
132	0xbd84db16	-0.064871
133	0xc01060fc	-2.2559195
134	0xbd26193c	-0.04055141
135	0xbec14e3a	-0.37754995
136	0xbf49d036	-0.7883333
137	0xbc6fee18	-0.014644168
138	0xbfbdcc51	-1.4827977
139	0xbdba73a3	-0.09104087
140	0x3fc2e156	1.5225017
141	0x3ed964ed	0.42459813
142	0xbf02d7cb	-0.51110524
143	0xbf02fc28	-0.5116601
144	0xbfa67125	-1.3003279
145	0xbf6199a5	-0.8812507
146	0x3f8c6afe	1.0970151
147	0xbf9d7e8a	-1.2304242
148	0xbedae32e	-0.4275145
149	0xc0139f15	-2.3065846
150	0xbf5768d0	-0.84144306
151	0xbec7ad42	-0.38999373
152	0x3fac9246	1.3482139
153	0x3f402b53	0.7506611
154	0x3e914e40	0.28380013
155	0x3f82a722	1.0207255
156	0x3f86ad6b	1.0521673
157	0x3fe4525f	1.7837638
158	0x3f282cd8	0.65693426
159	0xc02fc411	-2.746342
160	0x4025357b	2.5813892
161	0xbe048cf9	-0.12944402
162	0xbe63a631	-0.22231366
163	0xc0158a51	-2.3365672
164	0x3d00521c	0.031328306
165	0x3f64dde1	0.8940106
166	0xbf597167	-0.84938663
167	0x3ecc95b2	0.39957958
168	0x3f89dec8	1.0771112
169	0x3ed222e6	0.4104225
170	0xbeea8983	-0.45808038
171	0x3c266b8d	0.010157478
172	0x3fc87711	1.5661336
173	0xbf533335	-0.8250001
174	0x3f7d72d0	0.99003315
175	0x3fc86d90	1.5658436
176	0xbf973ee4	-1.1816068
177	0xc021349e	-2.5188365
178	0x3b7f0b54	0.0038916664
179	0x3f5d4af0	0.8644247
180	0xbf1fa3ae	-0.6235913
181	0xbf408443	-0.75201815
182	0x3fdbb181	1.7163545
183	0x3f43dce8	0.7650895
184	0xbe5f84ec	-0.2182805
185	0x3f1bd737	0.60875267
186	0x3f4298b4	0.76014256
187	0x3ebc4893	0.3677412
188	0xbfb6843a	-1.4259102
189	0x3bd17513	0.00639213
190	0x3f9d0565	1.2267271
191	0xbf3c4794	-0.7354672
192	0xbe89960c	-0.2687229
193	0x3f8927e7	1.0715302
194	0x3fb35d9d	1.4012944
195	0x3e8e7c39	0.2782915
196	0xbea0b30c	-0.31386602
197	0x3fecaf38	1.8490973
198	0x3f96efee	1.1791971
199	0x3f12f8ac	0.57410693
200	0x3f99b657	1.2008771
201	0x3e1fe737	0.15615545
202	0xbf5f8554	-0.8731282
203	0x3f2206c4	0.63291574
204	0x3f460c4d	0.7736252
205	0x401e628b	2.4747646
206	0x3e63d716	0.22250018
207	0x3ed675ec	0.41886842
208	0x3f063d74	0.5243752
209	0x400a2e37	2.1590707
210	0xbe661b5a	-0.22471371
211	0x3f0386e0	0.5137768
212	0xbfdca2ea	-1.7237217
213	0xbf416991	-0.75551707
214	0xbf80125a	-1.00056
215	0xbff8d780	-1.9440765
216	0x3ea9c1a4	0.3315555
217	0x3f38301e	0.7194842
218	0x3f890480	1.0704498
219	0xbe064420	-0.13111925
220	0xb9e90e2d	-0.00044451785
221	0x3f59de92	0.8510524
222	0x3fd1240f	1.6339129
223	0xbdce8b87	-0.100852065
224	0x3e3a0b9a	0.18168488
225	0xbd5e989e	-0.054344766
226	0xbf6e2d03	-0.9303743
227	0xbec24a5b	-0.37947354
228	0xbf97989c	-1.1843448
229	0xbef71808	-0.48260522
230	0xbf3d3278	-0.73905134
231	0xbec9cc4a	-0.39413673
232	0x3f85fb56	1.0467327
233	0xbf7c6270	-0.98587704
234	0x3d4d5a1a	0.050134756
235	0xbef89ca7	-0.48557016
236	0x3d990ad6	0.0747277
237	0xbe0fbed0	-0.14037633
238	0xbfc80642	-1.562691
239	0x3f43d4db	0.76496667
240	0xbf529a78	-0.8226695
241	0x3da37888	0.07981974
242	0x3f9393ba	1.1529458
243	0x3f9f922e	1.2466486
244	0x3fb76d6f	1.4330271
245	0x3e35e22f	0.17762063
246	0x3d041a46	0.03225162
247	0x3f39a0eb	0.72511166
248	0x3f22211c	0.6333177
249	0x3de516c6	0.11185984
250	0x3f00d00d	0.5031746
251	0xbf92fcca	-1.1483395
252	0xbfa4e499	-1.2882262
253	0x3f701c8e	0.9379357
254	0xbee519ae	-0.44746155
255	0xbf936509	-1.1515208

attention_dp.context f4 [13]
0	0x3eef6450	0.4675622
1	0xbfc76497	-1.5577573
2	0xbf7884ff	-0.97077936
3	0x3f5390c0	0.82642746
4	0xbfa114a7	-1.2584428
5	0x4026dd93	2.6072738
6	0x4005d8a5	2.091348
7	0xbf427dcb	-0.75973195
8	0xbed6835a	-0.41897088
9	0x3f9bce49	1.2172328
10	0xbf8f28bc	-1.1184306
11	0xbee32ad5	-0.44368616
12	0xbf32590a	-0.6966711

attention_dp.linear_hidden.weight f4 [13, 13]
0	0xbe3d678f	-0.18496536
1	0xbe5901dd	-0.21192117
2	0x3dd25089	0.10269267
3	0x3de0b25b	0.109715186
4	0xbe9650ae	-0.2935843
5	0xbdc01524	-0.09379032
6	0xbe841f79	-0.25805262
7	0xbe2d8afe	-0.16947553
8	0xbea1f923	-0.3163539
9	0xbc52df0b	-0.01287056
10	0xbda86764	-0.08222845
11	0xbea0ddc7	-0.31419203
12	0x3e8629aa	0.26203662
13	0xbe1b820d	-0.15186329
14	0x3d9cb491	0.07651628
15	0x3dfb5345	0.12271742
16	0xbe1afbec	-0.15135163
17	0x3e1d19f3	0.1534193
18	0x3d3a3f41	0.04547048
19	0x3e97e7ec	0.2966913
20	0xbddb45ff	-0.1070671
21	0xbdd06bf2	-0.10176839
22	0x3e021aa4	0.12705475
23	0x3ec9b91b	0.39399037
24	0x3e652aa8	0.22379553
25	0x3ced126c	0.028939448
26	0x3c71329d	0.01472154
27	0x3e8bb3e2	0.27285677
28	0xbb972620	-0.004612699
29	0xbc368f35	-0.011142542
30	0xbec5ab61	-0.38607314
31	0x3d6f416f	0.05841201
32	0xbc63eb66	-0.013911104
33	0xbe3af7c3	-0.18258576
34	0xbbfe4162	-0.007759259
35	0x3e1b2f73	0.15154819
36	0x3e894a2d	0.26814404
37	0x3d327d70	0.043576658
38	0x3d2c13d0	0.042011082
39	0x3e7d7d87	0.24754916
40	0xbe92b722	-0.28655344
41	0xbe822f2e	-0.2542662
42	0x3df2a8cc	0.11848602
43	0x3d4e384e	0.050346665
44	0x3d7feedb	0.06248365
45	0xbd8ba0c8	-0.06817776
46	0x3e936199	0.287854
47	0x3cc3b2a6	0.023888897
48	0x3dec5ea6	0.1154149
49	0x3d9de22f	0.07709157
50	0xbe9b771d	-0.30364314
51	0x3d87f4cf	0.066384904
52	0xbe3fa10c	-0.18713778
53	0x3e443947	0.19162475
54	0x3d95c5a7	0.0731309
55	0x3d0ce03a	0.034393527
56	0x3eb24dec	0.34825075
57	0x3e839950	0.25702906
58	0x3eaeb61f	0.34123322
59	0x3db0dca2	0.08635832
60	0xbd0d4817	-0.03449258
61	0x3de4fda5	0.11181191
62	0xbd2652eb	-0.04060642
63	0x3e88b24a	0.26698524
64	0xbe6a30a8	-0.22870123
65	0xbc404ee9	-0.011737564
66	0x3e2e864a	0.17043415
67	0xbe37ecf5	-0.17961486
68	0xbdc13322	-0.09433581
69	0xbe17f868	-0.14840853
70	0xbe3e0491	-0.1855643
71	0xbab2fd44	-0.0013655801
72	0xbdacdec6	-0.08440928
73	0xbe2387fb	-0.15969841
74	0xbe66129d	-0.22468038
75	0xbe1d2a5a	-0.15348187
76	0xbe24de54	-0.16100436
77	0xbde8d6b6	-0.11369078
78	0xbe0e401c	-0.13891643
79	0xbd9b3aff	-0.07579612
80	0x3e375332	0.1790283
81	0x3dbe1dc3	0.0928302
82	0x3e0a301f	0.13494919
83	0xbe4ff1da	-0.20307103
84	0xbd1414e9	-0.036152754
85	0xbe086a9e	-0.13321921
86	0x3e9b210c	0.3029865
87	0x3e683af9	0.22678746
88	0x3e54ba42	0.20774177
89	0x3e74986f	0.23886274
90	0xbe6655e8	-0.22493708
91	0x3e61173b	0.21981518
92	0xbe86bf28	-0.26317716
93	0x3e367f3b	0.17821972
94	0x3e400d6a	0.18755117
95	0x3ea6cf24	0.3257991
96	0x3e143f9a	0.14477387
97	0x3ecaf0c3	0.39636812
98	0xbe9201dd	-0.28517047
99	0x3a88dddb	0.0010442095
100	0x3e830e85	0.25597015
101	0x3e4b8084	0.19873244
102	0x3cafb578	0.021448836
103	0x3e681c5c	0.22667068
104	0xbc03eba5	-0.0080517875
105	0xbce94998	-0.028477475
106	0x3e33438d	0.17506237
107	0x3e325b3a	0.17417613
108	0x3ea17cb0	0.31540442
109	0x3e774eb7	0.24151121
110	0x3ea5b084	0.32361233
111	0x3e3e0636	0.18557057
112	0xbdd3f7b3	-0.10349979
113	0x3e7eb16d	0.2487237
114	0x3e4d0737	0.20022283
115	0x3df14131	0.117800124
116	0xbcf57e2f	-0.029967396
117	0x3d076880	0.033058643
118	0xbe49d0f1	-0.19708611
119	0xbcd8438e	-0.0263994
120	0xbe993433	-0.29922637
121	0xbe4e500f	-0.20147727
122	0xbe2fb140	-0.1715746
123	0x3c96bc65	0.01840038
124	0xbd22691f	-0.039651033
125	0x3c02db68	0.007986881
126	0x3caf9018	0.021431014
127	0xbdccf8a1	-0.1000836
128	0xbe5dfba7	-0.21678029
129	0x3dce3ede	0.10070585
130	0x3eaa0708	0.3320849
131	0x3dbd1b7d	0.092337586
132	0x3d627f75	0.055297334
133	0x3d01d33a	0.031695582
134	0xbebcca7c	-0.36873233
135	0x3d540e17	0.05177125
136	0xbd0f2da5	-0.03495564
137	0xbd968d3c	-0.07351157
138	0xbe0415f0	-0.12898993
139	0x3ebce384	0.3689233
140	0x3e51df73	0.20495395
141	0x3e1962b4	0.14979059
142	0x3cd61223	0.026131695
143	0x3d432ad7	0.047648277
144	0x3d7b8be1	0.061412696
145	0x3e484498	0.19557416
146	0xbc95e178	-0.018295988
147	0xbeb9ffff	-0.36328122
148	0x3dab15e7	0.08353787
149	0xbdad3718	-0.08457774
150	0x3de33f6c	0.11096081
151	0x3e53f530	0.20699
152	0x3e745794	0.23861533
153	0x3c469769	0.01212106
154	0x3e2e730d	0.17036076
155	0xbe49ca2b	-0.19706027
156	0xbe827606	-0.2548067
157	0xbdb230bc	-0.087007016
158	0x3ea31013	0.318482
159	0xbe2a7022	-0.16644338
160	0xbd82a9f7	-0.063800745
161	0x3ce8bbdd	0.028409893
162	0xbdf51c25	-0.11968259
163	0xbe00aef0	-0.12566733
164	0xbd6be9f1	-0.05759615
165	0x3e7c64b5	0.24647792
166	0xbcc73a2f	-0.024319736
167	0x3e9d800b	0.30761752
168	0x3cf90289	0.030396717

attention_dp.linear_hidden.bias f4 [13]
0	0x3d960e67	0.07326966
1	0xbc8336a7	-0.016017271
2	0x3d355923	0.04427446
3	0xbdbf445a	-0.09339209
4	0xbd6d17b2	-0.057883926
5	0xbefa45b9	-0.4888132
6	0xbeca7321	-0.3954096
7	0xbd965653	-0.07340684
8	0x3e88972c	0.26677835
9	0xbeb3dd97	-0.35129997
10	0x3d7a7dfc	0.061155304
11	0x3f1382be	0.5762137
12	0x3d500911	0.050789896

attention_cp.context f4 [11]
0	0x3f3a0631	0.726657
1	0xc00972cf	-2.1476324
2	0x3d733bc9	0.059383187
3	0x3f41e375	0.75737697
4	0x3ec85c30	0.39132833
5	0x3f0ed75a	0.5579735
6	0x3fb53026	1.4155319
7	0xbf994715	-1.1974818
8	0x3f6480e6	0.89259183
9	0xbf833449	-1.0250331
10	0xbf139998	-0.5765624

attention_cp.linear_hidden.weight f4 [11, 11]
0	0xbe87aa75	-0.26497236
1	0xbd260e5a	-0.04054103
2	0x3cdf6b7f	0.027272938
3	0xbe40aa5d	-0.18814988
4	0x3dafea2c	0.085895866
5	0x3d58a4ec	0.052891657
6	0xbecb7703	-0.39739236
7	0xbe86d995	-0.26337877
8	0x3e2d3bbe	0.16917321
9	0x3e34aff5	0.17645247
10	0x3cbe3075	0.023216465
11	0x3da685b6	0.08130972
12	0x3e9fe3bb	0.31228432
13	0x3d5a1021	0.053238038
14	0x3e46ab6b	0.19401328
15	0x3e135acb	0.14390104
16	0x3db2eab4	0.08736172
17	0x3e649596	0.22322688
18	0xbe768ce5	-0.24077184
19	0x3dee5d7d	0.11638925
20	0x3e4d092a	0.20023027
21	0x3dc65f83	0.09686186
22	0x3d189bc3	0.03725792
23	0x3e179710	0.1480372
24	0xbe9a8175	-0.30176893
25	0x3d783e9d	0.060606588
26	0xbe161eb2	-0.14660147
27	0xbd90e42c	-0.0707477
28	0x3d941b38	0.07231754
29	0xbebd3b8c	-0.36959493
30	0x3e2316f1	0.1592672
31	0xbcaa99a6	-0.020825218
32	0x3e4d4e86	0.20049486
33	0x3eb27b34	0.34859622
34	0x3d74806b	0.05969278
35	0x3e1936be	0.14962289
36	0xbe4fa96d	-0.20279475
37	0x3ea7a3f5	0.32742277
38	0xbe8841a3	-0.26612577
39	0xbe3e68f9	-0.18594731
40	0x3da9cb6b	0.08290752
41	0x3e83ba06	0.25727862
42	0x3e3c30f4	0.18378049
43	0xbdb8d5e0	-0.090251684
44	0x3e1b5b9c	0.15171665
45	0x3cb9e6b9	0.022693025
46	0xbcacf50c	-0.021112941
47	0xbe45917a	-0.19293776
48	0x3e4536b6	0.19259152
49	0x3e0821f0	0.13294196
50	0xbec71f4b	-0.38891062
51	0xbe378540	-0.17921925
52	0xbdcd692c	-0.100298256
53	0x3e543183	0.20722012
54	0x3ee62637	0.4495103
55	0xbc514016	-0.012771627
56	0xbef79b2a	-0.48360568
57	0xbccaead7	-0.024770183
58	0xbdaa7344	-0.083227664
59	0x3ea2e874	0.31817973
60	0xbae6d17b	-0.0017610037
61	0xbe646fae	-0.22308227
62	0x3d0f6a85	0.035013694
63	0xbbfec29e	-0.007774665
64	0x3e865a01	0.26240543
65	0xbe4d97ba	-0.2007741
66	0x3e4c2994	0.19937736
67	0xbe2c357d	-0.16817279
68	0xbdbee506	-0.093210265
69	0x3de5c3de	0.11218999
70	0xbdf00f1d	-0.11721633
71	0x3e2029e3	0.15640979
72	0x3d907bcf	0.070548646
73	0xbd6c5913	-0.057702135
74	0x3e864f8b	0.2623256
75	0x3ebe76a6	0.37199897
76	0xbe4d45a1	-0.20046093
77	0x3e6dc93b	0.23221295
78	0x3f14613f	0.57960886
79	0xbdb043bd	-0.0860667
80	0xbe5aecd8	-0.21379411
81	0x3e84da77	0.25947925
82	0x3d228e91	0.039686743
83	0xbce1e2f1	-0.027574034
84	0x3eb41124	0.35169327
85	0x3d1a26ee	0.037634782
86	0xbe3562cf	-0.17713474
87	0x3de974b6	0.11399214
88	0x3cccb2f6	0.024987679
89	0xbc085856	-0.008321842
90	0x3c925a8a	0.017865438
91	0x3e721065	0.23639067
92	0xbdb5961b	-0.08866521
93	0x3e2c8b90	0.16850114
94	0xbe9ac9b1	-0.30232003
95	0xbde14847	-0.11000114
96	0xbdfa66ae	-0.12226616
97	0xbe0f3019	-0.13983192
98	0x3de5dafe	0.1122341
99	0xbd049289	-0.03236631
100	0xbd8e077d	-0.06935022
101	0xbdbe5833	-0.092941664
102	0xbe5b9acb	-0.21445768
103	0x3bd083b1	0.006363355
104	0xbd336b86	-0.043803714
105	0x3e5a9963	0.21347575
106	0x3ddff928	0.10936195
107	0xbe69c6d9	-0.2282976
108	0xbe230756	-0.15920767
109	0xbe1a2e32	-0.15056685
110	0x3d1b0b7a	0.03785274
111	0xbe2afa6e	-0.16697094
112	0x3e9f9d92	0.31174904
113	0xbc09c644	-0.008409087
114	0x3e4453ce	0.19172594
115	0x3eb9196a	0.36152202
116	0x3c9efa64	0.019406505
117	0x3ec011ce	0.37513584
118	0x3d5f7f05	0.054564495
119	0xbe9e792d	-0.30951825
120	0xbc1a3179	-0.009411209

attention_cp.linear_hidden.bias f4 [11]
0	0x3e19a34d	0.150037
1	0xbe009cc5	-0.12559803
2	0xbe73ac27	-0.2379614
3	0x3ed05bc1	0.40695003
4	0x3e426c06	0.1898652
5	0xbca9907a	-0.020698775
6	0xbe0facea	-0.14030805
7	0xbd02864e	-0.031866364
8	0xbd3ebb2c	-0.04656522
9	0x3dd76c6a	0.10518725
10	0x3e058510	0.1303904

fc_dp.weight f4 [1, 13]
0	0x3a617372	0.00086002715
1	0x3e48f289	0.1962377
2	0x3e6fc8f5	0.23416503
3	0x3ea4acf3	0.321632
4	0xbe94b7ea	-0.29046565
5	0x3e558c04	0.20854193
6	0xbe001788	-0.12508976
7	0xbd67c89b	-0.056587797
8	0x3e8ed106	0.27893847
9	0x3e12b84c	0.14328116
10	0x3e1559ef	0.14585088
11	0x3e090977	0.13382517
12	0xbdcb8d76	-0.09939091

fc_cp.weight f4 [1, 11]
0	0xbe8d4bcc	-0.2759689
1	0x3d0f102c	0.034927532
2	0x3e3a5edd	0.1820025
3	0xbeaf2aa3	-0.34212217
4	0x3ead2519	0.33817366
5	0x3e3523d7	0.17689453
6	0x3daceb2a	0.084432915
7	0xbd025baf	-0.031825718
8	0xbd9dda63	-0.077076696
9	0x3d95752a	0.07297738
10	0xbed13a09	-0.4086459

fc_all.weight f4 [1, 24]
0	0x3c106272	0.008812534
1	0x3c524ee0	0.012836188
2	0x3e0a2d60	0.13493872
3	0xb920e206	-0.0001534299
4	0x3c9f9f63	0.019485181
5	0xbe07dfd0	-0.13268971
6	0xbc81c0ce	-0.015839007
7	0x3e06da7c	0.13169283
8	0xbdae9167	-0.08523827
9	0x3d8e03e3	0.06934335
10	0xbe2deb7c	-0.16984361
11	0x3ba79fee	0.0051155007
12	0xbdf3c343	-0.119024776
13	0xbeed5b55	-0.46358743
14	0xbdb0bbfc	-0.08629605
15	0x3c1c1d8a	0.009528527
16	0xbc4f4771	-0.01265131
17	0xbd222069	-0.03958169
18	0x3d63cdc0	0.05561614
19	0xbdc6d672	-0.09708871
20	0xbdc195a2	-0.09452368
21	0xbd515d99	-0.051114652
22	0xbdce967f	-0.100872986
23	0xbdd51962	-0.10405232
