ablation1_min_count/min_count_0/ode_attention/ode_birnn_attention/final_model.pt (torch, 495563 bytes, 39 tensors)

embed_dp.weight f4 [8364, 11]
0.0 0.0 0.0 0.0 0.0 0.0 0.0 0.0
0.0 0.0 0.0 0.4121969 -1.675849 -2.3027563 0.5119836 0.11908398
1.310315 -1.5232062 1.4836787 -1.2270343 -0.35627764 -0.325093 0.92154205 -1.5116415
0.3924538 0.81893796 0.9631835 -0.08911928 -2.387798 -1.2798969 0.7136118 -0.9590097
1.0564831 -0.041768447 0.59267646 1.3640326 0.5633775 0.17964199 0.28451926 0.15555893
0.40256342 0.020318946 -0.27898985 -1.0033185 -0.16259724 -0.9944118 1.0424947 0.5705701
-0.09451709 -1.357948 0.8588954 -0.0083632525 2.0490403 -0.20936254 -0.11668233 0.80578667
1.120856 1.3756934 -1.0943806 2.5359662 1.0659475 -1.3854614 0.77799356 0.6684332
-0.66877824 -0.06168448 -0.35467523 -0.60803694 0.5726923 0.021753907 0.5229461 1.0627658
-0.37235594 0.5432662 -1.099194 0.8350147 1.058172 0.62816864 0.5747294 -0.5585235
1.6689292 -1.5456358 -0.18807042 -2.225055 0.83067316 0.21168779 -0.7662079 -0.25667238
-0.92287874 -0.09152051 -0.6855825 0.12751868 -1.105606 1.3854501 -0.22358797 -0.44022435
-0.34475428 0.3552754 0.7156066 1.1507419 -1.3826603 -1.396274 -0.5195124 -0.23661514
0.819814 0.18614852 -1.3923287 0.12003254 -1.1626706 0.37672657 -1.105531 1.5736353
1.0824366 0.6066159 0.24373685 0.42719308 -0.049565922 -0.79398465 0.2618829 -0.5190116
-1.7215596 0.15843351 -0.42100874 -0.054913517 0.5665787 -1.2251791 -0.25980878 0.77153194
0.41750655 0.20594402 0.46816894 0.6596347 -0.4105541 0.22931546 1.3274001 0.9979789
0.44578254 1.0474485 0.10468256 1.3385087 1.6265486 1.5526195 0.110094815 -0.926112
1.1680474 -0.80693305 0.8931252 -0.5553156 -2.0140886 -2.076209 -2.5640252 -1.4107494
0.63248676 1.2618941 -2.7710426 -0.74689263 0.85468066 0.14055648 -0.28065008 2.5011415
0.7338921 -0.1586954 2.3354366 0.9257697 0.23081718 1.6484509 0.1486513 -0.44854492
0.099043734 -2.1623242 -0.5477013 -0.29449585 -0.29590082 0.38403997 -0.1364832 -0.017887807
0.14928931 0.63287973 0.20957363 1.6507828 -1.4352266 1.539955 -1.9575013 1.1217476
-0.45763487 0.75741386 1.5962809 -0.81856805 0.3163791 0.7910348 -0.16310926 0.21564458
-1.6192997 0.5569451 0.49815 0.8387933 0.20299105 0.6969429 -1.0468153 0.5076261
0.10001196 -1.8181884 1.0284489 2.027303 -1.1392919 -1.5215813 -0.22139047 -0.012666588
0.25884727 -0.91838825 -1.4952444 -1.7239764 0.5669156 0.6115179 0.77040255 0.032443304
0.078937195 0.7007605 0.7191004 0.50747263 1.0452336 0.9273562 0.96950513 2.1410325
-1.423697 -0.61409974 0.4125533 1.4551989 0.343571 0.27364978 1.4692085 0.34580985
0.116268255 -0.22343919 0.36656603 -1.1948018 1.6632925 1.0514799 -0.67990214 -0.42454985
-0.6263468 -1.7294534 0.79826176 -0.7880488 1.1763581 -1.9691103 0.7394344 -1.0188606
1.3719894 -0.45049626 -0.41335163 0.117211044 0.3512232 -0.5002511 -0.103071876 -1.2779174
00000000: 0000 0000 0000 0000 0000 0000 0000 0000
00000010: 0000 0000 0000 0000 0000 0000 0000 0000
00000020: 0000 0000 0000 0000 0000 0000 790b d33e
00000030: 3882 d6bf 5c60 13c0 5b11 033f 4de2 f33d
00000040: 67b8 a73f 6cf8 c2bf 2fe9 bd3f 760f 9dbf
00000050: 066a b6be 9772 a6be 2eea 6b3f 787d c1bf
00000060: b4ef c83e eba5 513f 3293 763f 2b84 b6bd
00000070: afd1 18c0 a9d3 a3bf 43af 363f a981 75bf
00000080: d73a 873f 6415 2bbd a5b9 173f 9f98 ae3f
00000090: 8239 103f 12f4 373e 82ac 913e d74a 1f3e
000000a0: cb1c ce3e eb73 a63c c2d7 8ebe be6c 80bf
000000b0: e47f 26be c691 7ebf 7770 853f e210 123f
000000c0: 2d92 c1bd 3dd1 adbf 92e0 5b3f 0606 09bc
000000d0: 7a23 0340 2263 56be 25f7 eebd 0948 4e3f
000000e0: 3678 8f3f b916 b03f aa14 8cbf 454d 2240
000000f0: f870 883f cd56 b1bf 962a 473f 701e 2b3f
00000100: 0d35 2bbf dea8 7cbd fe97 b5be 4fa8 1bbf
00000110: f69b 123f 4035 b23c ccdf 053f b608 883f
00000120: 70a5 bebe 7e13 0b3f 64b2 8cbf 86c3 553f
00000130: 2e72 873f a9cf 203f 7721 133f 65fb 0ebf
00000140: 799f d53f 65d7 c5bf 8895 40be 4d67 0ec0
00000150: ffa6 543f afc4 583e 3326 44bf 906a 83be
00000160: c841 6cbf 1b6f bbbd 5682 2fbf 4294 023e
00000170: 7f84 8dbf 6e56 b13f 3ff4 64be 1665 e1be
00000180: a283 b0be a8e6 b53e fe31 373f 834b 933f
00000190: 03fb b0bf 1bb9 b2bf c4fe 04bf 3d4b 72be
000001a0: 55df 513f b89d 3e3e d437 b2bf 9fd3 f53d
000001b0: 64d2 94bf 4ee2 c03e 0a82 8dbf e26c c93f
000001c0: 488d 8a3f 2e4b 1b3f 2796 793e 0db9 da3e
000001d0: a305 4bbd 9442 4bbf 8415 863e f2dd 04bf
000001e0: 115c dcbf 653c 223e 758e d7be ffec 60bd
000001f0: 4d0b 113f abd2 9cbf a805 85be 1e83 453f
00000200: 6bc3 d53e fde2 523e d7b3 ef3e d2dd 283f
00000210: 2634 d2be acd1 6a3e 3fe8 a93f 8c7b 7f3f
00000220: 9c3d e43e cb12 863f cf63 d63d 4154 ab3f
00000230: bf32 d03f 3cbc c63f 6479 e13d ad15 6dbf
00000240: 9482 953f 2a93 4ebf daa3 643f 2a29 0ebf
00000250: d4e6 00c0 9ce0 04c0 fd18 24c0 7093 b4bf
00000260: a7ea 213f bf85 a13f c358 31c0 5b34 3fbf
00000270: 5acc 5a3f 0aee 0f3e 5eb1 8fbe b412 2040
00000280: 5ae0 3b3f 0c81 22be cb77 1540 3eff 6c3f
00000290: 575b 6c3e 7000 d33f 0c38 183e aea7 e5be
000002a0: 71d7 ca3d 8563 0ac0 2736 0cbf 29c8 96be
000002b0: 5080 97be e3a0 c43e 41c2 0bbe 7389 92bc
000002c0: 4cdf 183e 6804 223f 789a 563e da4c d33f
000002d0: 81b5 b7bf 3f1d c53f 678f fabf 6d95 8f3f
000002e0: 1e4f eabe e0e5 413f ef52 cc3f ad8d 51bf
000002f0: 71fc a13e 4281 4a3f 1d06 27be efd1 5c3e
00000300: 3645 cfbf f493 0e3f 840d ff3e 28bb 563f
00000310: e3dc 4f3e da6a 323f 0bfe 85bf c9f3 013f
00000320: 12d3 cc3d 66ba e8bf 37a4 833f 55bf 0140
00000330: 51d4 91bf 2dc3 c2bf 2fb4 62be 8587 4fbc
00000340: a187 843e 7e1b 6bbf 2b64 bfbf 42ab dcbf
00000350: 6121 113f 708c 1c3f 1a39 453f 45e3 043d
00000360: d3a9 a13d 0a65 333f f716 383f bae9 013f
00000370: 37ca 853f 3767 6d3f 7d31 783f ad06 0940
00000380: b43b b6bf a435 1dbf 303a d33e f543 ba3f
00000390: 8ae8 af3e d31b 8c3e 060f bc3f fd0d b13e
000003a0: 0d1e ee3d 3ecd 64be 8bae bb3e 44ef 98bf
000003b0: c5e6 d43f e596 863f 110e 2ebf 995e d9be
000003c0: 4458 20bf bb5e ddbf e25a 4c3f 91bd 49bf
000003d0: e792 963f ce0b fcbf 934b 3d3f 066a 82bf
000003e0: 599d af3f 72a7 e6be d3a2 d3be 580c f03d
000003f0: 87d3 b33e 7510 00bf 5917 d3bd cc92 a3bf

embed_cp.weight f4 [2759, 9]
0.0 0.0 0.0 0.0 0.0 0.0 0.0 0.0
0.0 0.38744277 0.115644366 -2.1202142 0.79518765 -0.039475825 -1.1127679 0.06610899
1.3736106 -1.2735819 -0.23486151 0.73868054 -0.79260814 -0.572425 -0.82915664 -1.1254935
0.679759 -1.3011615 -0.22352445 -0.45937863 0.32926396 -0.8591968 -1.8387419 2.8027997
-0.12402886 1.034494 -0.7635379 -0.3213381 -0.5076258 1.0831178 0.6458748 1.4224943
-0.15109584 0.66529375 -0.17440942 0.28211325 -0.46803215 -0.36930302 1.9255815 -0.8814438
-0.74011236 -0.32207686 0.46537438 -0.84248835 -2.5615141 0.6516425 0.7415024 -1.8675778
0.26057765 0.26984102 -0.7712494 -0.08741217 0.49425146 0.18326715 -0.563916 0.25276172
-0.28204277 2.111922 0.75887686 -0.3511744 2.0412977 -0.19239962 0.6016983 0.5349437
0.4714753 -0.75280946 0.24966544 -0.12181235 0.13272244 -0.03734734 1.3486257 0.36720014
-1.3714548 -0.26220483 1.9073836 -0.2885072 0.38224947 -1.9021478 -1.2886808 0.6935948
-0.43748367 -1.1042342 -0.7912396 1.0133144 0.9812108 -0.49193656 -0.8940283 -0.08977587
-0.36369994 0.913282 1.3398552 -0.8412428 -0.5407835 1.3551767 -0.9348767 0.35550112
-0.5995939 0.41613314 1.9355677 -0.13980885 1.0770509 -1.4117087 -0.37974653 0.11191667
-0.20257314 -1.5861126 -0.20486608 -0.19354308 0.89830256 0.7714988 -1.0348817 0.013594328
0.04486656 0.115833595 -0.13859418 0.17322625 -1.934218 -2.256783 -0.20273413 -1.5449001
0.20110252 1.299135 -1.5823567 0.0109489355 0.91658604 -1.3494306 -0.0540658 -1.3661559
-0.17524602 -0.46535987 1.1750517 -0.09206237 -2.0502474 0.039473217 0.9244457 -2.230441
-0.62271947 1.5530465 0.031951208 -1.2645894 -1.0675262 0.69759613 0.087848425 1.5983458
0.565705 0.19040652 -0.4125777 -0.46046638 -0.08067256 0.18630823 -0.19275261 -0.42878532
-0.7958313 0.8310799 0.037738644 -0.06942182 0.087954216 -0.3437385 -0.9354507 -0.40974262
0.39973792 -1.1409465 -0.672728 0.7567268 -0.26983503 0.6241757 0.3508286 1.6336882
-0.19627722 0.15678911 0.49891728 1.2924949 -0.636481 -0.074275285 -0.8972199 -1.5780865
0.06424286 -0.3898815 1.218364 0.6237117 -0.10339185 1.820384 0.32759804 1.8419462
1.4595143 -0.5018141 0.54415 -0.83828485 0.14826505 0.015027636 1.0827992 -0.6809958
0.07487286 0.26850232 -0.002970703 -0.29971838 0.59690046 0.20823829 -0.9328028 -0.33803037
-1.6836774 0.89365715 -0.106049694 -0.36575493 0.5570744 -1.3319205 0.2586013 0.4942549
2.021843 0.0202688 1.4563129 0.2672008 -0.7642906 0.8364264 -0.9766731 0.20675194
-1.3326777 -0.15222791 -0.65717965 -2.6734982 -0.7522934 -0.09474584 -0.21354964 -0.4276125
-0.50986713 2.9862554 1.9224606 0.95621413 -1.7975756 1.3326784 0.03331377 0.62520343
0.6597715 0.015832769 0.42690954 -0.036417257 -2.246552 0.8568621 -0.6332722 1.0249114
0.118541576 0.74105513 0.20105028 0.74901986 -0.34828365 -1.3272924 -1.2003533 -0.5944459
00000000: 0000 0000 0000 0000 0000 0000 0000 0000
00000010: 0000 0000 0000 0000 0000 0000 0000 0000
00000020: 0000 0000 e65e c63e f4d6 ec3d 97b1 07c0
00000030: 6b91 4b3f 67b1 21bd 2e6f 8ebf 2664 873d
00000040: 79d2 af3f bb04 a3bf 897f 70be 2b1a 3d3f
00000050: 5ee8 4abf 728a 12bf 9c43 54bf 2c10 90bf
00000060: b004 2e3f 768c a6bf 98e3 64be ad33 ebbe
00000070: 4995 a83e 52f4 5bbf e55b ebbf 1261 3340
00000080: d802 febd 4d6a 843f 3877 43bf 6d86 a4be
00000090: c4f3 01bf 9ba3 8a3f 0d58 253f 4b14 b63f
000000a0: deb8 1abe b150 2a3f 6298 32be 2671 903e
000000b0: e9a1 efbe 4915 bdbe 7479 f63f 4da6 61bf
000000c0: 0178 3dbf 42e7 a4be 8d45 ee3e 51ad 57bf
000000d0: d9ef 23c0 0bd2 263f 1ad3 3d3f ca0c efbf
000000e0: 6f6a 853e 9a28 8a3e 9a70 45bf 2705 b3bd
000000f0: 870e fd3e 62aa 3b3e cd5c 10bf fc69 813e
00000100: e967 90be bb29 0740 c145 423f 22cd b3be
00000110: 9fa4 0240 6804 45be e608 1a3f 12f2 083f
00000120: 3665 f13e 1fb8 40bf 4ca8 7f3e c178 f9bd
00000130: 64e8 073e 86f9 18bd c49f ac3f a801 bc3e
00000140: d58b afbf b63f 86be 2525 f43f 37b7 93be
00000150: 34b6 c33e 9479 f3bf 7ef3 a4bf 6e8f 313f
00000160: dcfd dfbe 8c57 8dbf ae8e 4abf 49b4 813f
00000170: a230 7b3f 1cdf fbbe 0adf 64bf 69dc b7bd
00000180: e136 babe d9cc 693f 6080 ab3f b05b 57bf
00000190: ca70 0abf 6e76 ad3f 1454 6fbf 3e04 b63e
000001a0: fc7e 19bf 670f d53e afc0 f73f 0d2a 0fbe
000001b0: cedc 893f dfb2 b4bf 236e c2be 9134 e53d
000001c0: 556f 4fbe bd05 cbbf 6ac8 51be 2830 46be
000001d0: 28f7 653f f280 453f 0177 84bf bfba 5e3c
000001e0: ffc5 373d 2a3a ed3d a2eb 0dbe 3962 313e
000001f0: 7594 f7bf 226f 10c0 8999 4fbe 49bf c5bf
00000200: d2ed 4d3e 0e4a a63f aa8a cabf 2a63 333c
00000210: 62a5 6a3f 24ba acbf 1a74 5dbd 32de aebf
00000220: b173 33be a643 eebe 1868 963f 328b bcbd
00000230: 4137 03c0 abae 213d 79a8 6c3f 8cbf 0ec0
00000240: 8b6a 1fbf 3aca c63f 45df 023d 11de a1bf
00000250: b3a4 88bf a995 323f e0e9 b33d 9896 cc3f
00000260: 0bd2 103f edf9 423e 623d d3be 40c2 ebbe
00000270: a837 a5bd 96c7 3e3e f160 45be c089 dbbe
00000280: 9abb 4bbf a7c1 543f d693 1a3d 072d 8ebd
00000290: 5721 b43d 7efe afbe b279 6fbf c9c9 d1be
000002a0: 73aa cc3e 890a 92bf e737 2cbf d9b8 413f
000002b0: d127 8abe fbc9 1f3f ce9f b33e b21c d13f
000002c0: e5fc 48be 538d 203e 1672 ff3e 7970 a53f
000002d0: 6bf0 22bf a41d 98bd 34b0 65bf bdfe c9bf
000002e0: c391 833d 8c9e c7be 5af3 9b3f 92ab 1f3f
000002f0: 1bbf d3bd 5802 e93f eeba a73e e5c4 eb3f
00000300: 5dd1 ba3f e476 00bf 6a4d 0b3f d699 56bf
00000310: cbd2 173e 7936 763c 2a99 8a3f be55 2ebf
00000320: f156 993d 2379 893e 20b0 42bb b074 99be
00000330: 78ce 183f 6b3c 553e 2acc 6ebf 5112 adbe
00000340: be82 d7bf b7c6 643f 9530 d9bd 3b44 bbbe
00000350: 6e9c 0e3f 5f7c aabf 6467 843e fa0e fd3e
00000360: e065 0140 c10a a63c 7668 ba3f 8bce 883e
00000370: 8ca8 43bf 0a20 563f 4007 7abf c8b6 533e
00000380: 2f95 aabf a2e1 1bbe ed3c 28bf 981a 2bc0
00000390: 4d96 40bf 1b0a c2bd c2ac 5abe 07f0 dabe
000003a0: a786 02bf cf1e 3f40 3013 f63f 73ca 743f
000003b0: f516 e6bf 3595 aa3f 0574 083d 550d 203f
000003c0: c9e6 283f b9b3 813c e393 da3e 432a 15bd
000003d0: 82c7 0fc0 515b 5b3f 201e 22bf 4c30 833f
000003e0: edc5 f23d cab5 3d3f 20e0 4d3e c4bf 3f3f
000003f0: 3c52 b2be b8e4 a9bf 2da5 99bf 9b2d 18bf

ode_dp.odeblock.odefunc.fc1.weight f4 [11, 11]
-0.45034665 -0.27872783 -0.4182335 0.1558464 -0.012670975 -0.046334054 0.1856413 -0.18876807
-0.0814585 0.022850579 0.19469565 -0.36754712 0.23124963 -0.49594855 -0.15503773 -0.08523268
0.0940397 0.2174217 0.14850436 -0.14542252 0.40991977 0.23421675 -0.21429107 0.108184
-0.2803223 0.30687413 -0.10580998 -0.0023704874 0.15407139 -0.39407757 -0.046818376 0.25917235
0.45490804 -0.102663346 -0.1882625 -0.20656405 0.106015556 0.2365355 -0.32631734 -0.18225168
0.051376257 -0.0035757637 0.3429886 0.29973227 -0.2882501 0.16125405 -0.3376079 -0.2573668
-0.3569837 -0.30134445 0.16923696 0.09020372 0.35631242 0.032342046 -0.22152759 -0.28223425
-0.096460626 0.24711089 0.02927469 -0.29203206 0.17776422 -0.08917901 -0.008116184 0.11508439
0.2096821 0.0042506205 -0.042488176 -0.26678947 0.021478524 0.4417538 -0.18710805 0.07785923
-0.2749609 -0.11020985 -0.25090957 0.29360208 -0.07843794 0.05514724 -0.07994079 -0.41423568
-0.22500174 -0.35247913 -0.36207426 -0.23446853 -0.39917538 -0.066537976 -0.12271567 -0.05271421
-0.18326826 -0.06601836 -0.08435379 -0.12991695 0.24512339 -0.25572973 0.13103858 -0.13636139
0.2603682 -0.14353262 0.14522545 0.105810456 -0.42015842 -0.21265495 0.12816365 0.12526727
0.060217563 -0.25441024 -0.18806332 0.29915735 0.025736555 -0.034337465 -0.019318674 0.18147586
0.04685889 -0.14473508 -0.03598434 -0.19108865 0.121498 0.06777672 0.087445274 -0.009881702
-0.19685657
00000000: d693 e6be 6ab5 8ebe b422 d6be 3396 1f3e
00000010: ec99 4fbc c7c8 3dbd c118 3e3e 6b4c 41be
00000020: b7d3 a6bd 2331 bb3c 4c5e 473e 232f bcbe
00000030: b4cc 6c3e f8ec fdbe 36c2 1ebe 798e aebd
00000040: e397 c03d cba3 5e3e 8711 183e a4e9 14be
00000050: 01e1 d13e 84d6 6f3e 1e6f 5bbe 938f dd3d
00000060: 6886 8fbe 9b1e 9d3e e7b2 d8bd 2e5a 1bbb
00000070: e4c4 1d3e 89c4 c9be a0c4 3fbd 3db2 843e
00000080: b5e9 e83e 2941 d2bd e3c7 40be 8785 53be
00000090: af1e d93d 5d36 723e 1113 a7be 2fa0 3abe
000000a0: e96f 523d 5c57 6abb 349c af3e 8276 993e
000000b0: 8495 93be c81f 253e f1da acbe 95c5 83be
000000c0: 91c6 b6be d249 9abe 744c 2d3e babc b83d
000000d0: 956e b63e 1879 043d 21d8 62be 0281 90be
000000e0: 268d c5bd a30a 7d3e 7ad1 ef3c 3a85 95be
000000f0: d307 363e 7ca3 b6bd bef9 04bc 5db1 eb3d
00000100: e8b6 563e ca48 8b3b 1508 2ebd a198 88be
00000110: bbf3 af3c 8e2d e23e 4199 3fbe a974 9f3d
00000120: adc7 8cbe b4b5 e1bd 3877 80be 0353 963e
00000130: 12a4 a0bd 13e2 613d ffb7 a3bd b316 d4be
00000140: db66 66be 2578 b4be cc61 b9be 8518 70be
00000150: b760 ccbe 1045 88bd 5a52 fbbd dbea 57bd
00000160: adaa 3bbe a234 87bd aec1 acbd f308 05be
00000170: a001 7b3e 02ef 82be fa2e 063e 52a2 0bbe
00000180: fb4e 853e 37fa 12be fbb5 143e 27b3 d83d
00000190: 011f d7be 38c2 59be 553d 033e 1046 003e
000001a0: b1a6 763d 0f42 82be ac93 40be 272b 993e
000001b0: 78d5 d23c 71a5 0cbd 3242 9ebc cfd4 393e
000001c0: 1cef 3f3d 6f35 14be 5164 13bd beac 43be
000001d0: f2d3 f83d 85ce 8a3d 8216 b33d dde6 21bc
000001e0: c594 49be

ode_dp.odeblock.odefunc.fc1.bias f4 [11]
0.53104883 0.39368904 0.28665698 0.06479518 0.44815114 0.43182364 0.69754857 0.4262674
0.07601222 0.19015187 -0.1255908
00000000: d1f2 073f 9c91 c93e b4c4 923e 56b3 843d
00000010: 1174 e53e fd17 dd3e 8b92 323f b83f da3e
00000020: 4bac 9b3d 2cb7 423e e09a 00be

ode_dp.odeblock.odefunc.fc2.weight f4 [11, 11]
0.56441635 0.20903026 0.00853482 0.5259854 0.3483701 0.5413932 0.5606483 0.08189534
0.24766502 0.47332746 -0.060133558 0.54708153 0.3926102 0.5202366 0.064624965 0.50528944
-0.00097078667 0.43644094 0.43656287 -0.029050607 0.52101916 0.20879401 0.053931694 0.11572149
0.34194118 0.37427977 0.502706 0.3518098 0.39523092 0.30979836 0.22277834 0.6035314
0.3387201 0.51411885 0.49263808 0.5203697 0.5324105 0.3887584 0.54916805 0.17924708
0.14015497 0.0869173 0.46787778 0.3947907 -0.40194228 -0.20723689 -0.3547227 -0.17168882
-0.24530475 0.19338988 0.014122052 -0.024929905 0.1695398 -0.16508192 -0.30213627 0.5732622
0.43887085 0.56987894 0.28897443 0.1796316 0.15046415 0.4739006 0.4080075 0.27473128
0.5781664 0.034230206 0.103783004 0.18484472 -0.28051865 0.1256024 0.22008395 0.16483046
-0.35046175 -0.24467759 0.10813605 -0.020093491 0.26175904 0.4536748 0.33355692 0.5196559
0.11458993 0.7144107 0.111560136 0.12006027 0.58531684 0.13359389 0.26219413 0.19099759
0.57322913 0.38968143 0.57246155 0.30539924 0.55650735 0.14789374 0.08605998 0.47094733
-0.0015575412 0.3179569 -0.029460263 0.0005945455 0.27498323 0.1509092 0.10160815 0.14997917
0.16541085 -0.0007009104 -0.05255216 0.23840903 0.32321116 -0.16581509 0.13749216 0.051277123
0.22469497 0.048766937 0.034300715 -0.10820158 0.20950559 0.21570112 0.19725212 -0.13326518
-0.22279331
00000000: 977d 103f 070c 563e a1d5 0b3c fba6 063f
00000010: 915d b23e bf98 0a3f a686 0f3f beb8 a73d
00000020: e69b 7d3e fa57 f23e 9b4e 76bd 890d 0c3f
00000030: 3404 c93e 3a2e 053f 185a 843d a65a 013f
00000040: 647c 7eba 3075 df3e 2b85 df3e 8afb edbc
00000050: 8361 053f 19ce 553e 7be7 5c3d 63ff ec3d
00000060: ea12 af3e 99a1 bf3e 57b1 003f 6a20 b43e
00000070: b55b ca3e e49d 9e3e 0120 643e 0981 1a3f
00000080: b96c ad3e 4b9d 033f 0f3b fc3e f336 053f
00000090: 0e4c 083f 570b c73e 4796 0c3f 8c8c 373e
000000a0: c984 0f3e b301 b23d ad8d ef3e 0222 ca3e
000000b0: 61cb cdbe e835 54be 379e b5be 32cf 2fbe
000000c0: 2b31 7bbe ff07 463e 2e60 673c cd39 ccbc
000000d0: d79b 2d3e 3c0b 29be 9bb1 9abe 50c1 123f
000000e0: aeb3 e03e 96e3 113f 75f4 933e 59f1 373e
000000f0: 4613 1a3e 19a3 f23e 5ce6 d03e 94a9 8c3e
00000100: b702 143f f934 0c3d 2f8c d43d ef47 3d3e
00000110: 24a0 8fbe ea9d 003e b05d 613e 51c9 283e
00000120: b96f b3be c38c 7abe 6f76 dd3d 1b9b a4bc
00000130: 4805 863e 1048 e83e f9c7 aa3e 2b08 053f
00000140: 20ae ea3d 9fe3 363f a479 e43d 29e2 f53d
00000150: 53d7 153f d6cc 083e 4f3e 863e df94 433e
00000160: 25bf 123f 5384 c73e d78c 123f 4a5d 9c3e
00000170: 4477 0e3f 7571 173e 3740 b03d 0220 f13e
00000180: 6926 ccba 3fcb a23e a656 f1bc 46db 1b3a
00000190: 9aca 8c3e f187 1a3e ef17 d03d 2494 193e
000001a0: 7661 293e 4dbd 37ba ef40 57bd 7f21 743e
000001b0: ef7b a53e 6ecb 29be bfca 0c3e f607 523d
000001c0: 7016 663e d7bf 473d e87e 0c3d ca98 ddbd
000001d0: a288 563e c1e0 5c3e 76fc 493e ab76 08be
000001e0: ee23 64be

ode_dp.odeblock.odefunc.fc2.bias f4 [11]
0.41040382 0.32361218 0.22731575 0.1447186 -0.12750742 0.36176237 0.24051727 0.33400005
0.026871644 -0.04205414 0.104256615
00000000: 7320 d23e 7fb0 a53e 76c5 683e 1d31 143e
00000010: 4e91 02be eb38 b93e 294a 763e 0e02 ab3e
00000020: ec21 dc3c f640 2cbd 7e84 d53d

ode_dp.odeblock.odefunc.fc3.weight f4 [11, 11]
0.30428523 0.23759665 0.33083335 0.21990503 0.16723911 0.11247682 -0.1876269 -0.058015082
-0.055162564 -0.16844265 -0.022978317 -0.07520956 -0.5221582 -0.38202983 -0.37837043 0.043454938
-0.19746903 -0.022581153 -0.423973 -0.31175023 -0.3685453 -0.028981013 0.3002559 0.30033624
0.16735205 0.12019922 -0.048189707 0.4090782 0.29623398 0.13086736 -0.11198241 -0.15854132
0.00035407164 -0.19625239 0.007877481 -0.25895417 -0.20444576 -0.030843673 -0.49964234 -0.0033787994
-0.4623004 -0.4411238 -0.12590338 -0.15279864 0.30713335 0.48289266 0.34398445 0.124421194
-0.20048508 0.26430613 -0.03408263 0.29107863 0.22591847 0.0637428 -0.13046148 0.119010925
-0.36529225 -0.16614245 -0.31325826 -0.25847524 -0.3385017 -0.36271974 -0.056508936 0.18072802
0.22102922 -0.27847236 0.015138265 0.29734096 -0.03243116 -0.07619343 -0.090176515 0.5002347
-0.10292779 0.4645682 0.538026 0.2911312 0.0016467319 0.0059167254 0.35881624 -0.14690435
0.122398004 -0.028900798 0.18396004 0.25232714 0.4247649 0.27884755 -0.15984976 -0.07631004
0.23459238 0.37228402 -0.08090576 0.38118333 -0.08014245 0.24228384 -0.17502937 0.073694095
0.3960059 0.08660037 -0.049115792 0.16313589 0.30724892 -0.05673587 0.33321166 0.012921607
0.45568866 0.15512182 0.27757466 0.44756413 0.029239338 0.22136055 0.4685295 0.3502564
0.5083693 0.36750227 0.07040917 0.591775 0.108766556 0.64783525 0.16112441 0.21088502
0.5464529
00000000: 46cb 9b3e 894c 733e fd62 a93e c92e 613e
00000010: bb40 2b3e 3f5a e63d 4421 40be 39a1 6dbd
00000020: 24f2 61bd 3b7c 2cbe 063d bcbc 7807 9abd
00000030: 29ac 05bf 6a99 c3be c5b9 c1be cefd 313d
00000040: 5235 4abe 1cfc b8bc fd12 d9be ba9d 9fbe
00000050: f8b1 bcbe 9769 edbc 24bb 993e acc5 993e
00000060: 565e 2b3e 022b f63d 9262 45bd b372 d13e
00000070: fbab 973e 1802 063e 0957 e5bd a858 22be
00000080: b1a2 b939 63f6 48be 8d10 013c a495 84be
00000090: 3b5a 51be dfab fcbc 1fd1 ffbe d96e 5dbb
000000a0: a3b2 ecbe fbda e1be d1ec 00be 3f77 1cbe
000000b0: 9540 9d3e b53d f73e bb1e b03e 8ad0 fe3d
000000c0: f64b 4dbe 2253 873e 3a9a 0bbd 4208 953e
000000d0: 2c57 673e 968b 823d b297 05be 00bc f33d
000000e0: 9607 bbbe 3f21 2abe 6363 a0be de56 84be
000000f0: 1850 adbe 67b6 b9be ea75 67bd c410 393e
00000100: 7c55 623e ee93 8ebe 7c06 783c 133d 983e
00000110: 89d6 04bd 4d0b 9cbd 77ae b8bd 620f 003f
00000120: cecb d2bd e2db ed3e 12bc 093f 260f 953e
00000130: 27d7 d73a 17e1 c13b c3b6 b73e 186e 16be
00000140: ceab fa3d 5ec1 ecbc 0560 3c3e 0631 813e
00000150: c97a d93e 1bc5 8e3e a8af 23be 7048 9cbd
00000160: fc38 703e 039c be3e ebb1 a5bd 762a c33e
00000170: ba21 a4bd 4119 783e e63a 33be eeec 963d
00000180: 49c1 ca3e 895b b13d a42d 49bd 180d 273e
00000190: bb4f 9d3e df63 68bd b89a aa3e 26b5 533c
000001a0: 0650 e93e 41d8 1e3e 441e 8e3e 2027 e53e
000001b0: 5687 ef3c 57ac 623e 19e3 ef3e cf54 b33e
000001c0: 7e24 023f 4229 bc3e af32 903d 917e 173f
000001d0: 00c1 de3d 88d8 253f ccfd 243e 3ef2 573e
000001e0: 56e4 0b3f

ode_dp.odeblock.odefunc.fc3.bias f4 [11]
0.19809757 -0.18235433 -0.06668254 -0.2813391 -0.04811858 -0.16218708 0.011338924 0.3133321
0.26184407 0.47833994 0.3014691
00000000: 17da 4a3e 18bb 3abe db90 88bd ae0b 90be
00000010: fd17 45bd 5f14 26be e5c6 393c 116d a03e
00000020: 6d10 863e f9e8 f43e 285a 9a3e

ode_cp.odeblock.odefunc.fc1.weight f4 [9, 9]
0.2210268 0.013423015 -0.06867527 0.050179306 0.16172467 0.017965231 -0.09523565 -0.025389468
0.17269838 -0.016698223 -0.07330267 -0.071207576 0.3516866 0.24402322 0.2716522 0.11598863
0.2812007 0.16750062 -0.008004479 0.1638332 0.16343954 0.16717291 -0.021973688 -0.03319861
-0.4450656 0.2967212 -0.27234328 0.03173423 -0.33629945 0.22151345 -0.038084958 -0.13599819
-0.06612707 0.08223499 -0.15608886 -0.025181103 -0.00970752 0.18971919 -0.3283875 0.16167437
-0.1952752 -0.21396634 0.019894116 0.21620995 0.010983467 0.12699308 -0.20327273 0.5442325
-0.3117776 -0.0655854 0.29364526 -0.32833865 -0.024382839 -0.10282604 -0.0940067 0.42764106
-0.5411192 0.045922417 -0.21947786 -0.32585606 -0.3871844 0.3453975 -0.6223046 -0.28736243
-0.008309588 0.34674904 -0.039674457 -0.09557764 0.36159083 0.23978066 -0.08899192 0.21036042
-0.22826366 0.059737902 0.042044815 0.015562918 0.17939648 -0.032589387 -0.15651056 -0.078482345
-0.018078266
00000000: d954 623e 35ec 5b3c 9fa5 8cbd d188 4d3d
00000010: 279b 253e d22b 933c e90a c3bd 93fd cfbc
00000020: d8d7 303e b6ca 88bc b61f 96bd 47d5 91bd
00000030: 4410 b43e 39e1 793e ff15 8b3e 728b ed3d
00000040: 8af9 8f3e 4885 2b3e 3825 03bc e4c3 273e
00000050: b25c 273e 602f 2b3e 2a02 b4bc 44fb 07bd
00000060: a3df e3be d7eb 973e 9470 8bbe c1fb 013d
00000070: 712f acbe 6cd4 623e f9fe 1bbd 1c43 0bbe
00000080: a16d 87bd d26a a83d c2d5 1fbe 9a48 cebc
00000090: 4a0c 1fbc bf45 423e 6822 a8be f78d 253e
000000a0: 39f6 47be fe19 5bbe fcf8 a23c 2466 5d3e
000000b0: 00f4 333c 790a 023e ba26 50be d252 0b3f
000000c0: 50a1 9fbe a351 86bd ac58 963e 011c a8be
000000d0: 85be c7bc 7596 d2bd 9686 c0bd c5f3 da3e
000000e0: ca86 0abf 2519 3c3d cebe 60be 9bd6 a6be
000000f0: 093d c6be f1d7 b03e 5b4f 1fbf 2b21 93be
00000100: f024 08bc 1789 b13e af81 22bd 36be c3bd
00000110: 6f22 b93e 1089 753e 6541 b6bd b968 573e
00000120: f3bd 69be bbaf 743d 2f37 2c3d 9cfb 7e3c
00000130: b6b3 373e 737c 05bd 4e44 20be 5abb a0bd
00000140: df18 94bc

ode_cp.odeblock.odefunc.fc1.bias f4 [9]
0.36733186 -0.24864203 0.316299 0.39099097 0.14974031 0.4059943 0.44504964 -0.39041227
0.329139
00000000: ec12 bc3e 049c 7ebe f1f1 a13e f82f c83e
00000010: 8655 193e 7cde cf3e 8cdd e33e 1ee4 c7be
00000020: e884 a83e

ode_cp.odeblock.odefunc.fc2.weight f4 [9, 9]
-0.04373333 0.28403306 -0.10057498 -0.25556403 -0.08315163 -0.29466683 0.14447707 0.027371675
0.12771781 0.2687903 0.12815174 0.5098849 0.16509396 0.06925819 0.026001772 0.36871812
-0.03956006 0.2678592 0.15185435 -0.06317667 -0.11584904 -0.06679124 0.11212046 0.16339105
0.38497236 0.13588382 0.45638776 -0.025072282 -0.010669767 -0.068688 0.23435234 0.15853895
0.28154927 0.550511 -0.13025934 -0.0377328 -0.045090046 0.11347036 0.28656733 -0.18676199
-0.13603367 0.07696115 -0.060641002 0.20037368 -0.010944843 -0.060502656 -0.21167307 0.43325204
0.43747032 0.00651327 0.300523 0.067455664 0.13544749 -0.12055396 0.051045243 -0.23300609
0.019962251 0.08600743 -0.09161547 0.18229449 -0.17268895 0.016127978 0.2679471 -0.16868816
-0.18707967 0.1723016 -0.12008696 -0.2715138 0.43060645 0.074113816 -0.037439782 -0.14706267
0.07765206 0.2127127 0.16657592 0.33107492 0.06902451 0.21970531 -0.15558797 0.017186569
-0.12413648
00000000: b821 33bd c86c 913e 41fa cdbd 4ad9 82be
00000010: 674b aabd 92de 96be ccf1 133e 903a e03c
00000020: 75c8 023e e29e 893e 363a 033e d187 023f
00000030: 640e 293e 3dd7 8d3d ab01 d53c 9fc8 bc3e
00000040: bb09 22bd d724 893e b57f 1b3e c562 81bd
00000050: 4342 edbd d8c9 88bd 699f e53d fc4f 273e
00000060: 191b c53e 2125 0b3e a8ab e93e 6364 cdbc
00000070: 3fd0 2ebc 4bac 8cbd 0ffa 6f3e 0958 223e
00000080: 3a27 903e 4aee 0c3f b462 05be b58d 1abd
00000090: 57b0 38bd 2663 e83d f4b8 923e 893e 3fbe
000000a0: 694c 0bbe cf9d 9d3d b362 78bd c22e 4d3e
000000b0: 0052 33bc a2d1 77bd d3c0 58be 36d3 dd3e
000000c0: 1cfc df3e 456d d53b 27de 993e 3226 8a3d
000000d0: bfb2 0a3e ffe4 f6bd d114 513d 2699 6ebe
000000e0: e087 a33c aa24 b03d e4a0 bbbd 68ab 3a3e
000000f0: 5fd5 30be d21e 843c 5d30 893e 97bc 2cbe
00000100: d091 3fbe d56f 303e 27f0 f5bd db03 8bbe
00000110: 7378 dc3e fcc8 973d 755a 19bd 9997 16be
00000120: 0b08 9f3d 5cd1 593e e192 2a3e a782 a93e
00000130: b95c 8d3d 6efa 603e 7452 1fbe d9ca 8c3c
00000140: 443b febd

ode_cp.odeblock.odefunc.fc2.bias f4 [9]
0.013727071 0.32349956 0.29925218 0.115929455 0.000756158 0.11833366 -0.16707543 -0.07739899
0.14101616
00000000: 82e7 603c bca1 a53e 9537 993e 6c6c ed3d
00000010: e838 463a eb58 f23d d215 2bbe 5d83 9ebd
00000020: 8a66 103e

ode_cp.odeblock.odefunc.fc3.weight f4 [9, 9]
0.31097025 0.5119452 0.2092449 0.19348462 0.12891887 0.069637075 0.22628514 0.13662286
0.50399965 0.06263328 0.16691096 -0.09777351 0.26916304 0.083477795 0.036572672 0.39495483
0.39035603 0.23207793 0.0005363422 -0.47531277 -0.39009318 -0.09952079 0.050707616 -0.09204302
0.09858215 0.018306335 -0.001252943 0.058440637 -0.3239617 -0.3685865 -0.24199113 -0.3973334
-0.3171674 0.104614764 -0.37086266 -0.4242878 0.123164736 0.45129573 -0.0904357 0.03624733
0.4057376 -0.08428569 0.4664943 0.36990067 0.3856606 0.036785327 0.2917684 0.25552034
0.38451248 0.04841103 0.20506364 -0.16086933 -0.11270613 -0.039448388 0.16572174 -0.3803386
-0.4393285 0.15552086 -0.2707501 -0.47542343 -0.08680822 -0.11146487 -0.17288476 0.066069864
0.3466726 0.3165378 0.19596586 0.33002713 0.29066953 0.18898642 0.33142662 -0.13434795
0.16600719 -0.0057550347 0.35797888 0.47022703 0.410658 0.22854379 -0.015922278 0.3366587
0.021291612
00000000: 7e37 9f3e d70e 033f 4c44 563e d520 463e
00000010: 4f03 043e e29d 8e3d 4bb7 673e dde6 0b3e
00000020: 1f06 013f e145 803d b5ea 2a3e 7a3d c8bd
00000030: bdcf 893e 68f6 aa3d 3acd 153d 8537 ca3e
00000040: bfdc c73e d6a5 6d3e 5199 0c3a 325c f3be
00000050: 4bba c7be 8ed1 cbbd cab2 4f3d 0d81 bcbd
00000060: 70e5 c93d 2bf7 953c ca39 a4ba 735f 6f3d
00000070: 4fde a5be 5fb7 bcbe 86cc 77be 496f cbbe
00000080: c463 a2be 4440 d63d b6e1 bdbe 403c d9be
00000090: cb3d fc3d 3c10 e73e 5a36 b9bd 1578 143d
000000a0: d7bc cf3e fa9d acbd 57d8 ee3e 9f63 bd3e
000000b0: 4e75 c53e 36ac 163d ab62 953e 90d3 823e
000000c0: d2de c43e a54a 463d 34fc 513e eeba 24be
000000d0: 79d2 e6bd a294 21bd f6b2 293e bebb c2be
000000e0: aaef e0be dc40 1f3e c29f 8abe b36a f3be
000000f0: 82c8 b1bd b247 e4bd b408 31be a34f 873d
00000100: 127f b13e 3e11 a23e 46ab 483e 51f9 a83e
00000110: a3d2 943e a885 413e c0b0 a93e 8292 09be
00000120: cafd 293e bb94 bcbb 0249 b73e 99c1 f03e
00000130: c441 d23e 6207 6a3e 706f 82bc 875e ac3e
00000140: bf6b ae3c

ode_cp.odeblock.odefunc.fc3.bias f4 [9]
0.37052196 0.121205 0.06402427 0.13015991 -0.16526769 0.048077546 0.018419517 0.25069422
0.16805708
00000000: 0eb5 bd3e 543a f83d 281f 833d a448 053e
00000010: ef3b 29be f6ec 443d 87e4 963c fe5a 803e
00000020: 2817 2c3e

gru_dp_fw.weight_ih_l0 f4 [33, 11]
0.043696307 0.019318983 -0.08459582 -0.08906198 0.19280417 0.0031786188 -0.1081674 0.03771514
0.16563986 -0.4259676 0.029112065 -0.078709885 -0.010232104 -0.12003013 -0.11043419 0.14571682
-0.07771605 -0.086555764 -0.06034905 -0.05099485 -0.12585396 -0.25157622 -0.12275472 -0.13715307
0.10756752 -0.2526313 -0.01787079 -0.07035615 -0.22345263 -0.08692352 0.08563211 -0.1178119
0.02151299 0.12206545 0.30439654 -0.019396987 0.18995622 0.28558373 0.06591077 0.041853808
-0.010668182 0.0144497845 0.048867054 0.21389689 -0.035840515 -0.18790258 -0.09676803 0.1406705
0.41119176 -0.12450612 -0.11599075 -0.17145334 0.1502991 -0.16777751 -0.19722281 0.24795231
-0.12809451 0.078173175 -0.00087454054 0.29375356 0.12999527 0.25246525 0.14043148 -0.19405498
0.1469679 0.042078406 -0.14795452 -0.03344678 0.28201467 0.06663792 0.21700396 -0.11993696
-0.053673707 -0.33853212 -0.015434686 -0.035337817 0.08473357 0.008897529 -0.0480591 0.07798917
0.15941021 0.1461593 -0.1799331 -0.14693636 -0.0072643887 0.29853496 0.008032335 0.124464884
0.05172467 -0.3128591 -0.14047474 -0.0062217563 -0.24134822 0.19015604 -0.20050459 -0.3138226
0.22946732 -0.3224451 0.05229315 -0.16469781 0.08504263 0.08182709 0.2457872 -0.036230206
0.059300657 -0.097643666 0.20062587 -0.08061579 -0.16502658 -0.23122765 -0.037362363 -0.19545217
0.15751544 0.00072638626 0.32808957 -0.041796677 0.033336353 -0.10884917 -0.038706765 0.03655599
-0.11819208 -0.25841245 0.20829247 0.27308825 0.27998087 -0.022668991 -0.052588724 0.017522654
-0.22579205 -0.02455303 0.08553914 0.0564366 0.3076617 -0.08712693 -0.087010115 0.048090782
-0.25401044 -0.030291848 0.20750678 -0.070937514 -0.101658046 -0.08785546 0.2237401 -0.3347958
0.15195946 0.057162475 0.14053856 -0.24135663 -0.106478654 -0.06502972 0.2707435 -0.16306779
-0.09108276 0.225959 -0.2855802 -0.13493271 0.089396626 -0.36402944 -0.088093 0.080333225
0.06827586 0.15313937 0.06870636 -0.17487276 0.13169627 -0.20924918 0.30930114 -0.03046427
0.27619952 -0.09673073 0.019982895 -0.09074572 0.035033498 -0.12670381 -0.26653132 0.16909222
-0.045359276 0.23796317 -0.032128766 -0.21216917 -0.016667774 -0.09248065 -0.047619488 0.027261926
0.19479059 -0.13883981 -0.1649911 0.15405373 -0.036051698 -0.1526475 -0.13686603 -0.046706256
0.03525227 -0.030104868 -0.086745024 -0.3864155 0.15142395 0.24091034 -0.31640026 -0.18992296
-0.0024466321 0.17967933 -0.16084795 0.043790095 0.01756269 -0.1602872 0.16094771 0.26694486
0.16390845 -0.014551503 0.24563171 0.17627496 0.21348216 -0.14624913 0.24715109 0.13994737
0.16455473 -0.15165731 -0.16021843 0.09841891 0.26378185 -0.08330614 0.21312669 -0.21608438
0.25257978 -0.19785376 0.44526297 -0.087490514 0.027330834 -0.11627853 0.04057797 -0.15964974
0.064614184 -0.22319563 -0.031637695 0.014200586 -0.04279163 -0.36312515 -0.12227823 -0.034872394
0.34739935 -0.058938596 -0.23418492 0.278552 -0.089996025 -0.020323064 0.031806376 0.08407434
-0.34235218 -0.17750852 0.2784901 -0.22276711 -0.017354576 -0.030703163 -0.052196007 0.21077242
00000000: e6fa 323d d842 9e3c 9340 adbd 2166 b6bd
00000010: 756e 453e 6050 503b df86 ddbd 317b 1a3d
00000020: 7f9d 293e 6d18 dabe 6d7c ee3c a632 a1bd
00000030: 8ea4 27bc 5bd2 f5bd 522b e2bd ca36 153e
00000040: 9829 9fbd 2644 b1bd 9130 77bd fadf 50bd
00000050: dcdf 00be 99ce 80be d466 fbbd db71 0cbe
00000060: 5c4c dc3d e458 81be c365 92bc e316 90bd
00000070: c4d0 64be f504 b2bd e35f af3d 5e47 f1bd
00000080: 033c b03c 73fd f93d ddd9 9b3e 6ee6 9ebc
00000090: e283 423e 0838 923e 3afc 863d e66e 2b3d
000000a0: 99c9 2ebc cabe 6c3c d228 483d c907 5b3e
000000b0: 81cd 12bd 8969 40be 512e c6bd ed0b 103e
000000c0: ba87 d23e 11fd febd 8f8c edbd 7791 2fbe
000000d0: 02e8 193e decd 2bbe c7f4 49be 36e7 7d3e
000000e0: 352b 03be 4219 a03d 6c41 65ba de66 963e
000000f0: 7b1d 053e 2043 813e 45cd 0f3e 59b6 46be
00000100: c17e 163e 685a 2c3d 6481 17be 7eff 08bd
00000110: 3a64 903e 7679 883d 4936 5e3e 82a1 f5bd
00000120: f6d8 5bbd 1554 adbe c4e1 7cbc 63be 10bd
00000130: cb88 ad3d f1c6 113c 9ed9 44bd c9b8 9f3d
00000140: 6e3c 233e c9aa 153e 6240 38be 7c76 16be
00000150: 1c0a eebb 93d9 983e 0e9a 033c 72e7 fe3d
00000160: 3fdd 533d 112f a0be 9cd8 0fbe e0df cbbb
00000170: fd23 77be 44b8 423e 1351 4dbe 5bad a0be
00000180: 7bf9 6a3e 8617 a5be 5831 563d 8ba6 28be
00000190: d52a ae3d f694 a73d a4af 7b3e 2066 14bd
000001a0: 3fe5 723d 67f9 c7bd de70 4d3e e419 a5bd
000001b0: bafc 28be f1c6 6cbe 4709 19bd 9d24 48be
000001c0: ba4b 213e f56a 3e3a 5bfb a73e fe32 2bbd
000001d0: b38b 083d 50ec debd fc8a 1ebd bcbb 153d
000001e0: b00e f2bd a34e 84be 9f4a 553e 39d2 8b3e
000001f0: a759 8f3e 52b4 b9bc 4667 57bd ab8b 8f3c
00000200: 0836 67be 7023 c9bc 252f af3d 102a 673d
00000210: d685 9d3e 9b6f b2bd 5c32 b2bd d7fa 443d
00000220: a80d 82be 9c26 f8bc a87c 543e b047 91bd
00000230: 1832 d0bd 90ed b3bd 201c 653e 5b6a abbe
00000240: 439b 1b3e 3323 6a3d 57e9 0f3e 3126 77be
00000250: 7b11 dabd 4d2e 85bd e49e 8a3e 3efb 26be
00000260: 9989 babd cc61 673e 9137 92be cd2b 0abe
00000270: 9415 b73d 1162 babe 1a6a b4bd bf85 a43d
00000280: 37d4 8b3d 91d0 1c3e ecb5 8c3d d811 33be
00000290: 63db 063e 6b45 56be b85c 9e3e 3490 f9bc
000002a0: 066a 8d3e c31a c6bd 2bb3 a33c e4d8 b9bd
000002b0: 497f 0f3d a5be 01be cb76 88be 8326 2d3e
000002c0: a6ca 39bd 9eac 733e 7499 03bd e042 59be
000002d0: db8a 88bc 7f66 bdbd a70c 43bd 6754 df3c
000002e0: 2f77 473e 062c 0ebe 6df3 28be 43c0 1d3e
000002f0: f2aa 13bd a04f 1cbe 9c26 0cbe 0f4f 3fbd
00000300: af64 103d 7c9e f6bc 60a7 b1bd 41d8 c5be
00000310: e10e 1b3e 33b1 763e 37ff a1be 2a7b 42be
00000320: ad57 20bb dcfd 373e 53b5 24be 3e5d 333d
00000330: a1df 8f3c 5422 24be 7acf 243e ffac 883e
00000340: 9ed7 273e 6d69 6ebc e186 7b3e 6c81 343e
00000350: 119b 5a3e 55c2 15be 2d15 7d3e 5d4e 0f3e
00000360: 0981 283e 0e4c 1bbe 4d10 24be da8f c93d
00000370: 6a0e 873e 699c aabd e23d 5a3e 3945 5dbe
00000380: 2352 813e 2d9a 4abe 82f9 e33e 3a2e b3bd
00000390: eae4 df3c 7023 eebd 1635 263d 397b 23be
000003a0: 7154 843d 658d 64be 8796 01bd 93a9 683c
000003b0: 4746 2fbd 8aeb b9be 026d fabd 5bd6 0ebd
000003c0: 54de b13e 9969 71bd 2cce 6fbe 5e9e 8e3e
000003d0: d64f b8bd 8e7c a6bc 6747 023d 2b2f ac3d
000003e0: c948 afbe cbc4 35be 4196 8e3e 101d 64be
000003f0: 2f2b 8ebc 3385 fbbc 7bcb 55bd bad4 573e

gru_dp_fw.weight_hh_l0 f4 [33, 11]
-0.5564154 -0.2785606 -0.028338892 0.21923304 -0.34777802 -0.20237519 0.09164034 0.035020147
-0.086587146 -0.15237832 -0.18020058 -0.24187122 -0.34561926 -0.36338687 0.41227904 -0.25962827
-0.40129575 0.063978545 0.31017864 -0.13127552 0.15605989 -0.3267588 -0.172009 -0.19582862
-0.32621038 0.4764846 -0.3176416 -0.19382569 0.57318413 0.12619928 0.12779899 -0.37686417
-0.28623396 -0.23354839 -0.45263228 -0.110216856 -0.01016287 -0.3988091 -0.49588898 0.27884233
0.4866144 0.0585572 -0.17279324 -0.31700268 0.058482084 -0.49886784 0.011139147 0.25661886
-0.057473436 -0.4909863 0.23457672 0.43653524 0.1467911 -0.400035 0.019300314 -0.14674945
-0.06041408 -0.18901122 0.34053102 0.11216522 -0.17380837 0.49761623 0.19016355 0.030154383
-0.32964686 0.0034858778 -0.38095602 -0.06693108 -0.18637393 0.530861 -0.14594303 -0.15730518
0.4169926 0.10211268 -0.31511396 -0.026764102 -0.40147373 -0.4727187 -0.35712928 -0.4314298
0.43754202 -0.16202737 -0.35891417 0.47218412 0.4374659 -0.16909973 -0.11669903 -0.053131185
-0.29889193 -0.1035261 0.6145849 -0.34572798 0.47630507 0.3701832 0.18614317 -0.2593575
-0.335144 0.22103997 -0.12145054 -0.35362178 -0.08028162 -0.22300303 -0.038427617 -0.321675
-0.348346 0.53690153 0.0719739 0.05536351 -0.03660743 -0.08767064 0.12501684 -0.27071792
-0.532381 -0.013364725 -0.2720333 -0.38286442 0.35256687 -0.017890537 0.20078667 0.012649793
-0.2728967 -0.25466436 -0.074821055 -0.2223447 0.0070301513 0.019535 0.11195132 -0.10984352
0.30566737 -0.22808029 0.18555409 0.16568011 0.25240973 -0.18289296 0.05279287 0.11276431
0.2128607 0.27339706 -0.04763454 0.2343761 0.017769132 0.29934904 -0.19927084 0.09931221
-0.2506769 -0.3648044 -0.32358888 0.08796571 0.20168744 0.17752628 -0.17664413 -0.0061480794
0.06183206 -0.007697351 -0.26546857 -0.1438017 -0.19688202 0.3719629 -0.030478371 0.25610882
0.18192884 0.0101301065 0.090129554 -0.093886904 0.20413831 -0.09011762 0.1476354 0.025248036
0.25583014 -0.32730487 -0.002148419 0.0067481953 0.12351011 -0.016212292 -0.3013043 0.057004448
-0.0696346 -0.06715503 0.2015463 0.12672357 0.31770754 -0.1852658 0.08026536 -0.30876583
-0.04917875 -0.12307827 -0.17991672 0.03372765 0.19904216 0.15880635 -0.15278405 -0.12099481
-0.43958074 0.254734 0.31815392 0.044588927 0.00792226 0.09770975 0.03810278 -0.25706905
-0.3326236 -0.18016633 -0.22215807 -0.1780845 0.19961338 0.5326762 -0.24875769 0.25314614
-0.018564649 0.052277356 0.09377106 0.34064862 -0.07474646 0.26191652 0.3352304 0.08787648
-0.19589081 0.14772211 -0.11560238 -0.14437643 -0.038558885 -0.13443571 0.1229492 -0.20318359
-0.073662594 0.16475359 0.18894811 -0.061937332 0.20590268 0.012427923 0.10317765 0.24283916
-0.18648939 -0.40846485 -0.27176052 -0.01903584 -0.16974421 0.17340088 -0.018812716 0.16218613
0.28383812 -0.28189978 0.14855672 0.025892796 0.20704815 -0.5297939 0.4385462 0.15016334
-0.5411446 -0.3016812 0.07656002 -0.1026206 0.042659692 -0.02635791 0.18584983 0.60981464
00000000: 3d71 0ebf 7f9f 8ebe f726 e8bc a07e 603e
00000010: f60f b2be 713b 4fbe eead bb3d 4971 0f3d
00000020: 9a54 b1bd 1009 1cbe 8086 38be 17ad 77be
00000030: 02f5 b0be d80d babe 3d16 d33e ffed 84be
00000040: a376 cdbe 2f07 833d bccf 9e3e 176d 06be
00000050: 2ace 1f3e ee4c a7be 2123 30be 4c87 48be
00000060: 0c05 a7be caf5 f33e eba1 a2be 3e7a 46be
00000070: 32bc 123f 623a 013e bddd 023e 57f4 c0be
00000080: 428d 92be 4f27 6fbe 6bbf e7be 60b9 e1bd
00000090: 2b82 26bc b530 ccbe 29e5 fdbe 6cc4 8e3e
000000a0: 8625 f93e add9 6f3d b6f0 30be 2d4e a2be
000000b0: e98a 6f3d 9b6b ffbe f880 363c 8c63 833e
000000c0: 4469 6bbd 8e62 fbbe e134 703e 8c81 df3e
000000d0: 6850 163e 63d1 ccbe b11b 9e3c 7d45 16be
000000e0: c174 77bd 288c 41be 155a ae3e e1b6 e53d
000000f0: d2fa 31be 8ec7 fe3e 3cba 423e 5306 f73c
00000100: 79c7 a8be 5373 643b ab0c c3be 2913 89bd
00000110: cfd8 3ebe 82e6 073f 1772 15be 9c14 21be
00000120: 0e80 d53e 7420 d13d 9e56 a1be 6440 dbbc
00000130: f78d cdbe 2f08 f2be a6d9 b6be 5ee4 dcbe
00000140: 8205 e03e 81ea 25be 99c3 b7be 1ec2 f13e
00000150: 88fb df3e 7b28 2dbe e7ff eebd 16a0 59bd
00000160: 5d08 99be 7e05 d4bd 7055 1d3f 4203 b1be
00000170: 42de f33e a788 bd3e 519c 3e3e 82ca 84be
00000180: ff97 abbe 4d58 623e 10bb f8bd ea0d b5be
00000190: b16a a4bd e85a 64be 4766 1dbd 96b2 a4be
000001a0: 685a b2be 6172 093f 0d67 933d d9c4 623d
000001b0: acf1 15bd aa8c b3bd 6a04 003e 8a9b 8abe
000001c0: 1f4a 08bf b8f7 5abc f347 8bbe ce06 c4be
000001d0: a583 b43e 2d8f 92bc 059b 4d3e 1441 4f3c
000001e0: 1eb9 8bbe 5e63 82be c83b 99bd 54ae 63be
000001f0: 2f5d e63b dd07 a03c bc46 e53d a4f5 e0bd
00000200: 6f80 9c3e e18d 69be e401 3e3e 0ca8 293e
00000210: d93b 813e 4b48 3bbe 563d 583d f9f0 e63d
00000220: 28f8 593e b3fa 8b3e 6f1c 43bd 4a00 703e
00000230: 9290 913c 4744 993e a80d 4cbe 3364 cb3d
00000240: b958 80be a4c7 babe 71ad a5be 5e27 b43d
00000250: 2787 4e3e 73c9 353e 33e2 34be d475 c9bb
00000260: 9d43 7d3d 0f3a fcbb 7feb 87be c140 13be
00000270: 719b 49be ec71 be3e c7ad f9bc b220 833e
00000280: 8e4b 3a3e bff8 253c d895 b83d c747 c0bd
00000290: a209 513e 968f b8bd bc2d 173e f8d4 ce3c
000002a0: 2bfc 823e 8194 a7be 7dcc 0cbb f71f dd3b
000002b0: def2 fc3d a4cf 84bc 8f44 9abe 7f7d 693d
000002c0: 969c 8ebd 9488 89bd 2762 4e3e d3c3 013e
000002d0: 90aa a23e 51b6 3dbe 2a62 a43d 8e16 9ebe
000002e0: a86f 49bd 7610 fcbd 173c 38be 0126 0a3d
000002f0: b5d1 4b3e 229e 223e 6c73 1cbe 20cc f7bd
00000300: ba10 e1be 7f6c 823e 12e5 a23e e1a2 363d
00000310: 5ecc 013c 0d1c c83d a911 1c3d 8e9e 83be
00000320: a44d aabe 867d 38be 687d 63be c85b 36be
00000330: 7367 4c3e 785d 083f 56ba 7ebe 5f9c 813e
00000340: e414 98bc c820 563d 0b0b c03d 7f69 ae3e
00000350: ac14 99bd ec19 863e 52a3 ab3e 95f8 b33d
00000360: 9a97 48be 7744 173e f1c0 ecbd 6ad7 13be
00000370: ecef 1dbd 84a9 09be cacc fb3d 5c0f 50be
00000380: 6adc 96bd 2ab5 283e 9d7b 413e 00b2 7dbd
00000390: 27d8 523e 7d9e 4b3c ce4e d33d d4aa 783e
000003a0: 13f7 3ebe 4e22 d1be 3224 8bbe 0df1 9bbc
000003b0: 6dd1 2dbe 0090 313e 201d 9abc 1f14 263e
000003c0: 3b53 913e 2b55 90be 411f 183e 211d d43c
000003d0: 6e04 543e 93a0 07bf 2189 e03e 6bc4 193e
000003e0: 7488 0abf f575 9abe 80cb 9c3d c02a d2bd
000003f0: eebb 2e3d 8bec d7bc 6b4f 3e3e d01c 1c3f

gru_dp_fw.bias_ih_l0 f4 [33]
0.15435646 0.021073753 -0.060629033 -0.12762919 -0.003177196 0.18011683 0.054189302 0.37839574
0.25665373 0.13114937 0.094078004 0.4242127 0.30784824 0.24614395 -0.19412175 -0.079516545
0.5243504 0.29838577 0.53572035 -0.337338 -0.10516615 0.14946197 -0.26021007 -0.0740889
0.015358979 -0.31337628 0.09810783 -0.16666573 0.46435007 0.096873045 -0.18549003 0.47024977
-0.32398012
00000000: 9f0f 1e3e dda2 ac3c 2656 78bd 3ab1 02be
00000010: 8138 50bb 8c70 383e 9af5 5d3d 16bd c13e
00000020: 1e68 833e 054c 063e f8ab c03d 6832 d93e
00000030: 499e 9d3e 290d 7c3e dac7 46be 92d9 a2bd
00000040: d43b 063f 05c6 983e f824 093f 91b7 acbe
00000050: 5a61 d7bd 8f0c 193e 413a 85be ecbb 97bd
00000060: 3aa4 7b3c db72 a0be c2ec c83d 6caa 2abe
00000070: 4bbf ed3e 6065 c63d 19f1 3dbe 94c4 f03e
00000080: b9e0 a5be

gru_dp_fw.bias_hh_l0 f4 [33]
0.01935373 0.5142536 0.32855386 0.4027952 0.42070436 0.35507435 0.23462944 -0.100861676
-0.11416485 -0.0114913555 0.22951823 0.23907442 -0.032381747 0.36397448 0.091824256 0.2313923
0.012009263 0.47776425 0.1137155 0.14194146 -0.15467995 0.4249511 -0.08992333 0.017509362
-0.19153725 0.13513763 0.16114105 -0.11627433 0.13462333 0.2627849 -0.3918076 0.011017878
-0.20963569
00000000: b78b 9e3c 20a6 033f 3638 a83e 2c3b ce3e
00000010: 9066 d73e 4ecc b53e b342 703e 9190 cebd
00000020: 43cf e9bd 3d46 3cbc d406 6b3e edcf 743e
00000030: b9a2 04bd dd5a ba3e 5b0e bc3d 1af2 6c3e
00000040: 80c2 443c 849d f43e ace3 e83d 1a59 113e
00000050: 6c64 1ebe 3193 d93e b929 b8bd cb6f 8f3c
00000060: 5722 44be 8561 0a3e 2902 253e 3c21 eebd
00000070: b3da 093e be8b 863e 019b c8be 5484 343c
00000080: bdaa 56be

gru_cp_fw.weight_ih_l0 f4 [27, 9]
-0.16868813 0.252467 0.08968194 0.04376801 0.16907519 -0.37568304 0.054344133 0.10530546
-0.17721702 -0.008858281 0.19873329 0.06759265 0.11743944 -0.14092039 -0.2120095 -0.40098894
0.1935803 -0.225471 0.12911227 -0.21311423 0.25762394 -0.09168624 0.21177034 0.3113764
-0.14253698 0.3208733 0.13131127 -0.14590465 -0.36676458 -0.15203151 -0.12227727 -0.04518425
-0.045231096 0.24035788 -0.23719895 0.11037224 0.40629116 0.059417438 0.08538567 -0.19748503
-0.37003794 0.10919558 -0.12896289 -0.23793906 0.009275536 0.26910073 0.15959616 -0.13412856
0.1911668 -0.09824343 0.011611741 0.2599626 -0.34493336 0.22472128 -0.06411516 0.30324158
-0.12364581 0.112272464 -0.09499897 -0.2179882 0.013723691 -0.2885052 0.037259866 0.038691185
0.1099981 0.31055424 0.45030162 0.1869027 0.2940719 0.032323197 0.29699394 0.2865088
0.22223344 -0.19956523 -0.13935809 -0.031221654 0.03123948 0.19856027 -0.07550796 0.15703556
-0.076093435 -0.03159917 -0.3809415 0.52680284 0.119903505 0.47042602 -0.041689724 0.1127028
-0.02087856 0.19641979 0.19942 -0.1926337 0.31085962 -0.22908549 -0.37495807 -0.3395443
0.05943111 -0.10059495 0.12641762 0.47668365 -0.18791005 -0.0073318584 -0.05220673 -0.004660029
0.051897205 -0.34818503 0.2673083 0.06792829 0.16545637 -0.25737113 -0.03678911 -0.24007574
-0.31190595 0.15713595 -0.13122466 -0.16055267 0.08398262 -0.46089274 0.09236193 -0.15894273
-0.015310417 0.22560649 0.25965983 -0.28396627 0.21598971 0.09195264 0.2551824 0.043855555
0.31297362 0.17077164 -0.22457322 0.27382392 0.022741022 -0.3252851 0.015282655 -0.18297942
-0.36179727 -0.32130244 -0.23495397 -0.10644134 0.4444641 -0.071878895 0.32926777 0.024485266
0.0950636 -0.19808777 0.25163543 -0.05918163 -0.059511773 0.14559996 -0.07394699 -0.020915587
0.29047352 0.07406049 -0.038738836 0.35919032 0.13554418 -0.09574794 0.19209477 0.05900778
-0.37158558 -0.34769225 0.12151112 -0.24676545 -0.19012193 -0.09709493 0.2034577 0.18097778
-0.35836443 0.22570476 0.1656876 0.13355578 0.19447629 -0.1575146 -0.29126054 -0.3490463
-0.21321425 0.059959758 0.24395223 -0.07301037 -0.08902983 -0.091194935 0.34903646 -0.2163553
0.09989885 0.2762647 -0.26986387 -0.259922 0.16628127 0.08955597 0.14020842 -0.12633683
0.008066558 -0.080123164 -0.3439805 0.2768663 -0.17824377 -0.29368556 0.3204494 -0.13148098
0.04521188 0.068958096 -0.089770995 0.15647675 -0.2666813 0.27739844 0.13749757 -0.27888104
0.27417496 0.12038085 0.087086074 -0.31584492 -0.07154108 -0.26313844 -0.15894116 -0.2945045
0.032028705 0.09351808 0.29224256 0.06344406 0.035962287 -0.16153322 0.31714252 -0.024124935
0.14092529 0.16591747 -0.14240347 -0.19134791 0.23377767 -0.05300127 0.41265503 0.048886716
-0.18477269 -0.22813979 -0.3059879 0.018827692 0.4054762 -0.14582625 0.05164271 -0.26515514
-0.03625684 0.23540421 0.20848912
00000000: 95bc 2cbe 5b43 813e 2aab b73d 1646 333d
00000010: 0c22 2d3e 8759 c0be f497 5e3d 64aa d73d
00000020: 6178 35be 5322 11bc bd80 4b3e 046e 8a3d
00000030: 1784 f03d 6f4d 10be 0519 59be 6c4e cdbe
00000040: ea39 463e dfe1 66be 0236 043e 9e3a 5abe
00000050: 49e7 833e ffc5 bbbd 53da 583e ba6c 9f3e
00000060: 37f5 11be 8149 a43e 7676 063e 0768 15be
00000070: 91c8 bbbe 26ae 1bbe 816c fabd 1f13 39bd
00000080: 3e44 39bd 6020 763e 48e4 72be d70a e23d
00000090: 6505 d03e b35f 733d afde ae3d 8439 4abe
000000a0: 9d75 bdbe efa1 df3d d90e 04be 4ca6 73be
000000b0: 6bf8 173c 92c7 893e 2d6d 233e ff58 09be
000000c0: 3bc1 433e da33 c9bd 2c3f 3e3c d119 853e
000000d0: 1b9b b0be 561d 663e cf4e 83bd 7b42 9b3e
000000e0: 043a fdbd 1bef e53d d28e c2bd 4c38 5fbe
000000f0: 55d9 603c f4b6 93be cd9d 183d a67a 1e3d
00000100: af46 e13d f700 9f3e ef8d e63e 6c63 3f3e
00000110: 9890 963e 5465 043d 970f 983e 48b1 923e
00000120: 2a91 633e d45a 4cbe e3b3 0ebe 8ec4 ffbc
00000130: f0e9 ff3c 6253 4b3e eba3 9abd eecd 203e
00000140: e0d6 9bbd 226e 01bd c40a c3be 8ddc 063f
00000150: f88f f53d aedb f03e d8c2 2abd bad0 e63d
00000160: 8409 abbc 4522 493e c234 4c3e c541 45be
00000170: fe28 9f3e 6395 6abe 81fa bfbe c0d8 adbe
00000180: 096e 733d ba04 cebd 9f73 013e e10f f43e
00000190: 7e6b 40be 1640 f0bb b9d6 55bd 28b3 98bb
000001a0: 2a92 543d 4f45 b2be a2dc 883e fd1d 8b3d
000001b0: 656d 293e 26c6 83be 2eb0 16bd 6ad6 75be
000001c0: 23b2 9fbe 3fe8 203e c25f 06be eb67 24be
000001d0: 14ff ab3d 22fa ebbe 4028 bd3d e2c1 22be
000001e0: 8bd8 7abc 6305 673e 22f2 843e 0764 91be
000001f0: 682c 5d3e aa51 bc3d 44a7 823e e2a1 333d
00000200: 143e a03e c3de 2e3e 86f6 65be a632 8c3e
00000210: 614b ba3c c58b a6be 1a64 7a3c f55e 3bbe
00000220: 7e3d b9be c181 a4be c697 70be ebfd d9bd
00000230: cc90 e33e 3e35 93bd c995 a83e 5395 c83c
00000240: b4b0 c23d 85d7 4abe 5cd6 803e 7068 72bd
00000250: 9ec2 73bd 2818 153e 8571 97bd 2a57 abbc
00000260: f2b8 943e 07ad 973d 9dac 1ebd cbe7 b73e
00000270: 18cc 0a3e 7f17 c4bd 7eb4 443e 24b2 713d
00000280: 7740 bebe b804 b2be d2da f83d 15b0 7cbe
00000290: 53af 42be b5d9 c6bd 3757 503e 3d52 393e
000002a0: 8b7b b7be 261f 673e 03aa 293e d9c2 083e
000002b0: cb24 473e 824b 21be 1a20 95be 32b6 b2be
000002c0: d654 5abe 5d98 753d 9dce 793e 7686 95bd
000002d0: 4655 b6bd 69c4 babd e8b4 b23e 3e8c 5dbe
000002e0: c597 cc3d 9172 8d3e 992b 8abe 7f14 85be
000002f0: a345 2a3e 1f69 b73d cc92 0f3e 715e 01be
00000300: 9929 043c 9d17 a4bd 361e b0be 6bc1 8d3e
00000310: 8985 36be f45d 96be f211 a43e f3a2 06be
00000320: 1830 393d e739 8d3d dbd9 b7bd 713b 203e
00000330: 748a 88be 2b07 8e3e 2acc 0c3e 7fc9 8ebe
00000340: a960 8c3e 3c8a f63d 2f5a b23d 6db6 a1be
00000350: 2184 92bd 15ba 86be 79c1 22be 4bc9 96be
00000360: 8830 033d 6886 bf3d d1a0 953e f6ee 813d
00000370: 314d 133d f768 25be 8160 a23e a8a1 c5bc
00000380: b84e 103e 45e6 293e 37d2 11be b5f0 43be
00000390: 6a63 6f3e dc17 59bd 8547 d33e 703d 483d
000003a0: 0d35 3dbe 7a9d 69be 72aa 9cbe 883c 9a3c
000003b0: 949a cf3e 7a53 15be 4e87 533d 6ac2 87be
000003c0: 0d82 14bd cd0d 713e 2c7e 553e
