ablation1_min_count/min_count_250/ode_attention/final_model.pt (torch, 70215 bytes, 23 tensors)

embed_dp.weight f4 [707, 13]
000000 00 00 00 00 00 00 00 00 00 00 00 00 00 00 00 00
       0.0 0.0 0.0 0.0
000010 00 00 00 00 00 00 00 00 00 00 00 00 00 00 00 00
       0.0 0.0 0.0 0.0
000020 00 00 00 00 00 00 00 00 00 00 00 00 00 00 00 00
       0.0 0.0 0.0 0.0
000030 00 00 00 00 fa 52 64 c0 19 b3 72 bf dd 42 b1 bf
       0.0 -3.5675645 -0.9480453 -1.384853
000040 6a 44 83 3e b8 25 f5 bf a9 4c fe be 24 d4 0d c0
       0.25638133 -1.9152136 -0.49667862 -2.216073
000050 a5 49 b7 bf e8 43 c1 3e d9 b2 7b be 69 ba a4 bf
       -1.431935 0.3774712 -0.24579944 -1.2869388
000060 f5 c8 49 bf 48 52 1c c0 d9 37 b6 3e d5 49 85 3e
       -0.7882226 -2.442522 0.35589483 0.26032892
000070 42 96 f0 3f 77 17 da 3e f5 c1 a0 bf c2 09 76 3f
       1.8795855 0.42596027 -1.2559191 0.9610864
000080 c8 5d c7 bf 11 04 3f be 8e 10 82 3e 48 22 87 3f
       -1.5575495 -0.18653895 0.25403255 1.0557337
000090 05 6d 81 3f 02 51 08 3f 54 63 11 40 7b 62 c5 bf
       1.0111395 0.5324861 2.2716875 -1.5420679
0000a0 cf 68 bd 3d 84 cb c9 3e 2b e3 c8 be 10 38 16 be
       0.09248506 0.39413083 -0.39235815 -0.14669824
0000b0 15 24 4a bf 6e 7b b8 bf 87 cf 25 c0 e3 31 41 bd
       -0.78961307 -1.4412668 -2.5907915 -0.047166716
0000c0 88 71 42 be fa 2d 94 3f 1e 50 15 3d 75 00 02 40
       -0.18988621 1.1576531 0.03645336 2.031278
0000d0 75 48 de 3e 54 bd f3 bf 7a 27 f9 bf 7f 77 20 3f
       0.43414655 -1.9042153 -1.9465172 0.62682337
0000e0 d8 e9 6b bf 95 9a 1a 3f b8 1c 46 bf eb 50 c2 3f
       -0.9215369 0.60392123 -0.7738757 1.5180944
0000f0 db c1 9e 3f bf 26 25 bf c1 b1 a4 be c3 2d 1b be
       1.240291 -0.64512247 -0.32166865 -0.15154175
000100 fc 8a 54 3d 1a ef 4c bf 3d f4 43 be 5d 09 2e bf
       0.05189036 -0.8005234 -0.19136138 -0.6798304
000110 3b 68 27 bf a4 13 45 bc cb 0b 03 3e ef c1 79 3f
       -0.6539342 -0.0120286085 0.12797467 0.97561544
000120 e9 86 b2 3e 6c 1f bb 3f 0d 66 8d be 5b 16 b1 bf
       0.34868553 1.4618964 -0.2761692 -1.3834947
000130 9f 9d 7e bf 90 2f 42 bf be 30 22 3f 0a 26 b8 3e
       -0.9945926 -0.75853825 0.63355625 0.35966522
000140 33 1f 9b be 49 e6 37 be fd 06 98 3e 7d ca ad be
       -0.3029724 -0.1795894 0.29692832 -0.3394355
000150 af be cc 3d fa 75 30 3f d0 7f 6e bf 90 14 1e 3f
       0.099973075 0.6893002 -0.93163776 0.61750126
000160 b4 70 49 3e d0 ec 82 bf d8 29 cb bd c9 c4 84 bf
       0.19671899 -1.022852 -0.099200904 -1.0372554
000170 29 68 d3 3f da 69 ac bf a8 b9 e3 3e 32 67 99 bf
       1.6516162 -1.3469803 0.44477582 -1.1984618
000180 79 9b 29 3f 5b 47 96 bf 63 40 a0 3e d9 03 86 3f
       0.6625286 -1.1740526 0.31299123 1.0469924
000190 a4 34 82 3f da 15 a4 be c8 3c e8 3e ec 5f 7e 3f
       1.0172315 -0.3204792 0.45358872 0.99365115
0001a0 21 b8 5b 3f d3 61 fb 3e 72 37 ff 3e 10 8b cc 3e
       0.85827833 0.4909807 0.4984699 0.39949846
0001b0 ab 60 d3 bf e2 49 7e 3d ca cd 01 c0 a3 b5 09 bf
       -1.6513876 0.06208218 -2.0281854 -0.5379278
0001c0 96 f1 b1 3e bc 74 4b 3e 2c 9e 02 40 f3 f6 96 3f
       0.34754628 0.1986875 2.040904 1.1794113
0001d0 f6 fc 01 bd df 9c 17 40 c8 7a bc 3f 2b 86 df 3e
       -0.031735383 2.3689497 1.472497 0.4365705
0001e0 79 f4 2a 3f a9 aa 0b 40 34 f6 c5 3d 6d 75 27 bf
       0.66779286 2.1822913 0.096661 -0.6541355
0001f0 56 24 92 bf 67 ec 00 bf e4 c3 a1 bf 78 b1 3b bf
       -1.1417339 -0.5036072 -1.2637906 -0.7331767
000200 4f 4c 7e 3f 8f 25 92 bf ba e9 21 3f f6 70 a5 3f
       0.9933519 -1.1417712 0.63247263 1.2925098
000210 ae b9 af be 7d e8 16 3f 39 7c 93 be ae 4e 81 3c
       -0.3432135 0.589485 -0.28805712 0.015784588
000220 4d d0 fe 3e af 90 17 be bc 57 42 bf d2 74 78 3d
       0.49768296 -0.14801286 -0.7591512 0.060658284
000230 ce a7 f6 3e 18 7b 1b bf df 8c b3 be 50 90 b5 bf
       0.481749 -0.607347 -0.35068414 -1.4184666
000240 b0 0b 8f bf bb 3b 83 be c9 55 bf 3f 59 5f 05 be
       -1.1175442 -0.25631508 1.4948055 -0.13024653
000250 6c 70 cc bf 34 ea b1 be c7 4c a2 3f e6 23 83 bf
       -1.5971808 -0.34748995 1.267968 -1.024533
000260 30 3e 0b bf f3 ef 05 3e 23 5b 4c bf 90 e1 3b 3f
       -0.54391766 0.13079815 -0.79826564 0.73391056
000270 02 63 03 bf 8c c9 0b bf db dd 0e 40 86 51 29 bf
       -0.5132295 -0.5460441 2.232291 -0.6614002
000280 74 ff 2d be c5 ed 5c 3f 9f 2e 0e 3f 56 4a 15 3d
       -0.16991979 0.8630031 0.5553989 0.036447845
000290 2f b4 da bf fd 27 6b 3f 33 22 fb 3d 08 76 a8 bf
       -1.7086238 0.9185789 0.12262382 -1.316102
0002a0 71 01 90 3f 3f 84 1b bf 9a 20 e9 3f 64 49 96 3f
       1.125044 -0.60748667 1.8213074 1.1741147
0002b0 9e 7c a2 3e 83 e3 8e 3f 9b 5f 0d 3f c0 2a ee bc
       0.317357 1.1163181 0.5522401 -0.02907312
0002c0 b5 79 b4 3e 09 14 eb 3e 0c ef 04 40 60 d5 18 bd
       0.35249105 0.45913723 2.0770903 -0.037312865
0002d0 d2 d1 75 3e 73 62 de 3d 74 f9 3a 3d a4 06 ba 3f
       0.24005821 0.108586214 0.045648053 1.4533277
0002e0 a3 bc ca 3c 48 a6 02 40 f1 e9 13 c0 e3 8a 90 bd
       0.024748152 2.041399 -2.3111537 -0.070577405
0002f0 95 a2 88 3f 55 87 52 bf d8 09 ed bf b1 e2 15 bd
       1.0674616 -0.8223775 -1.8518629 -0.036593143
000300 d5 be 97 3e 71 95 0b 3e 42 04 c9 bf b1 a0 ce 3e
       0.2963778 0.13631226 -1.5704424 0.40356973
000310 96 d4 3a bf c7 55 29 3f 8b c1 e9 bd cc 30 01 40
       -0.7298063 0.6614651 -0.114138685 2.0186033
000320 d8 05 a6 bf 01 bc d2 be 85 c2 92 bf 17 1d f8 3d
       -1.2970533 -0.4115906 -1.1465613 0.121149234
000330 32 b8 00 40 a3 6b 0e be 59 1f 47 3f 85 85 17 3e
       2.0112424 -0.13908248 0.7778221 0.14797027
000340 73 70 06 be 48 ae 2e 3f 13 d6 cf bf 1b 8f 3c 3f
       -0.13128833 0.6823468 -1.6237205 0.7365586
000350 ea f3 2c 3e 73 56 40 bf 1d 5e 32 bf 3b fc 17 40
       0.16889921 -0.7513191 -0.69674855 2.37477
000360 b1 7a db bd 2d e2 05 3d ba 5d 53 3f b7 d4 d6 bf
       -0.10716761 0.0326864 0.8256489 -1.6783665
000370 4b a4 42 bf 81 06 b1 be 34 82 a2 3f f0 74 ee be
       -0.7603194 -0.34575275 1.2695985 -0.4657359
000380 9c c8 29 bf ff 3e 94 3c 5e 52 9c 3f 7f f4 c6 3f
       -0.6632173 0.018096445 1.2212636 1.5543364
000390 b7 81 45 bf ab c2 96 3e a0 b0 bb bf 46 86 97 bf
       -0.77151054 0.29445395 -1.4663277 -1.1837852
0003a0 92 0c 37 3f 48 ad 8d bf 7b 44 02 c0 22 b5 55 be
       0.71503556 -1.1068506 -2.0354297 -0.20869878
0003b0 dc 49 bf 3f 42 fb ae be df 3a ce 3e ee 23 aa bf
       1.4944415 -0.3417607 0.4027929 -1.3292215
0003c0 7c 5c 1c bf dd 0f 72 3f 6d cc 5f bf 62 cb 7e 3e
       -0.6107862 0.94555455 -0.87421304 0.24882272
0003d0 79 9c 06 40 6f 41 95 3f d2 10 32 3f 88 25 4a be
       2.1033003 1.1660594 0.69556916 -0.1974088
0003e0 fb 37 5f be db a4 2f 3d 91 bd 85 3f be 9d 01 bf
       -0.21798699 0.042881828 1.0448476 -0.5063132
0003f0 77 3e 73 bf 94 7f c5 bf 10 c3 48 3d 49 41 66 be
       -0.9501719 -1.5429559 0.04901415 -0.22485842

embed_cp.weight f4 [457, 11]
000000 00 00 00 00 00 00 00 00 00 00 00 00 00 00 00 00
       0.0 0.0 0.0 0.0
000010 00 00 00 00 00 00 00 00 00 00 00 00 00 00 00 00
       0.0 0.0 0.0 0.0
000020 00 00 00 00 00 00 00 00 00 00 00 00 fb e9 74 3e
       0.0 0.0 0.0 0.23917381
000030 0a 63 02 40 2e 33 8c bf 36 2e 7e 3e 4e 46 9f 3f
       2.0372949 -1.0953119 0.24822316 1.244333
000040 64 31 a9 bf 31 88 49 bf 7e 56 c2 be a9 ae 41 bf
       -1.3218198 -0.78723437 -0.37956613 -0.75657135
000050 22 e9 ea 3e 31 1e 7a bf 9e d7 93 3c 69 81 08 40
       0.4588099 -0.9770232 0.01804715 2.1328986
000060 1e 0c ea be 4e 90 f7 3f 02 8c 16 be fc 5d 1d be
       -0.4571237 1.9340913 -0.14701846 -0.15367883
000070 16 9e b7 be 06 1b b8 3f 55 1a 1e bf 2a 6e f2 3f
       -0.35862797 1.4383247 -0.6175893 1.8939869
000080 29 66 6a 3d b5 2f 7a 3f f0 0b c2 bd ee d2 c5 3f
       0.057226334 0.97729045 -0.09474933 1.5454996
000090 65 5c 37 bf f8 61 8c bf 90 99 91 bf 39 5c 56 bf
       -0.7162536 -1.0967398 -1.1374989 -0.8373447
0000a0 27 57 b5 bf 65 ba 82 3f 34 5b 20 3f b5 90 5a 3e
       -1.4167222 1.0213133 0.62639165 0.21344264
0000b0 4f f9 e2 3d 98 c5 c2 3e 9a 37 30 3f 7e 3a 52 3f
       0.11082708 0.38041377 0.6883484 0.821205
0000c0 fc 7e 8a 3d 83 03 f2 3f a6 ab 41 3f c0 39 4e bf
       0.067625016 1.8907322 0.7565254 -0.8055687
0000d0 55 de dc 3f 7a d2 72 3f 8a 12 0e 3f bd 82 00 c0
       1.725535 0.9485241 0.5549704 -2.0079796
0000e0 43 35 66 bf 34 24 59 be 42 98 ca bf d3 3f 07 3f
       -0.8992502 -0.21205217 -1.5827715 0.52831763
0000f0 d0 12 b6 3e aa af 96 3f 4d 81 f5 3f 23 a1 0c bf
       0.35561228 1.1772358 1.9180084 -0.54933375
000100 3b 53 a4 3f 34 7c d9 bf 07 c4 83 3f 47 eb 23 be
       1.28379 -1.6991029 1.0294198 -0.1600772
000110 20 8a 8a bf 34 48 81 be 50 d1 c7 be dc 4d f9 3f
       -1.0823402 -0.252504 -0.3902688 1.9476886
000120 cc ae df 3e 86 38 ab bf bc fd 09 bb d7 0d 1f 40
       0.43688047 -1.3376625 -0.0021055778 2.4852197
000130 e1 94 ad 3e 41 3f 4e bf 2b c1 0e 3e 0c f9 45 3f
       0.33902648 -0.8056527 0.13940875 0.7733314
000140 2a fa 78 3e 0b 73 82 3f 97 3e 6e 3e 9a 9f af be
       0.2431418 1.0191358 0.23266064 -0.34301454
000150 94 ca 76 3f 7a 33 8b 3f 2a 0a a0 bf 2b d3 74 3f
       0.9640286 1.0875084 -1.2503102 0.95634717
000160 f8 ed 28 3f ce ae 9c bf 27 d3 ab bf ec 17 97 bc
       0.6598811 -1.2240846 -1.3423814 -0.018444024
000170 07 fe b3 bf 4d ce 2c 3f 86 d9 0a be eb 34 40 be
       -1.4061898 0.6750229 -0.13559541 -0.18770187
000180 83 d9 26 3f fe 48 5c 3c ff ef 51 bf ad 23 6c 3e
       0.65175647 0.013445137 -0.8200683 0.23060484
000190 5e 1f 7b 3f c7 a5 fc 3e f2 17 fc 3e 46 c3 b1 bd
       0.9809474 0.49345228 0.4923702 -0.086798236
0001a0 61 0e d5 bf 29 84 2e bf d4 e2 99 3f 80 a6 d8 bf
       -1.6645013 -0.6817041 1.2022347 -1.6925812
0001b0 7d 6a 18 bf 4b cb 71 bf 9d 02 6e 3f c4 c3 22 40
       -0.5953749 -0.94450825 0.9297274 2.5431986
0001c0 14 35 a9 3f 8a 87 6c be 15 ad d4 3e ea 5e 9f bf
       1.3219323 -0.23098579 0.415383 -1.245084
0001d0 0a a4 ad bf 81 2d de bc dd 63 02 40 3c b0 d4 be
       -1.3565686 -0.027121307 2.0373452 -0.41540706
0001e0 2a 90 81 3e 4e 10 d6 bf 4e 01 43 3f 2a a9 91 3d
       0.253053 -1.6723726 0.76173866 0.071123436
0001f0 45 73 8f bd 39 10 e1 3e f8 45 5d 3f 5c 0c ab 3f
       -0.07004408 0.4395769 0.8643489 1.3363147
000200 fd 15 8d bf 75 36 fe 3d be 9c 18 bf 64 bd 9c bf
       -1.1022335 0.124127306 -0.5961417 -1.2245297
000210 75 1d b4 bf d8 ed d3 bf 00 f2 00 3d c5 74 26 3f
       -1.407149 -1.6556959 0.03148079 0.65021926
000220 00 c6 9d bf 57 c4 5c 3f a9 fc 63 bf 4a 7a d1 be
       -1.232605 0.8623709 -0.89057404 -0.40913612
000230 d4 a2 3c 3f 2f 6a 24 bf b7 8f 93 bd 1f 8b d1 3e
       0.73685956 -0.64224523 -0.07205146 0.40926453
000240 90 cd 72 3f 30 d0 a7 bf 92 56 08 bf 9c b9 df bd
       0.94844913 -1.3110409 -0.53257096 -0.10924074
000250 c1 a0 af 3d af 1b 38 40 01 03 8e 3f 10 a4 68 bf
       0.08575583 2.8766897 1.1094667 -0.9087534
000260 0d 52 1c bf a9 2e 4e 3f 6d 2d a0 bd 0c 69 0e bf
       -0.610627 0.8053995 -0.07821164 -0.5562904
000270 88 c2 80 bc 07 be 68 3f d5 bb 35 bf 78 9c c9 3e
       -0.01571776 0.9091496 -0.70989734 0.3937719
000280 d0 a5 3f c0 25 65 92 bf 49 f3 17 bf 5d 3c 5c 3f
       -2.9944954 -1.1437117 -0.593556 0.8602961
000290 35 72 29 be 8f 6a 04 3f c6 68 e6 3e 22 82 1d 3d
       -0.16547473 0.51725096 0.4500181 0.038454182
0002a0 62 51 25 3d f7 48 a0 bf 6c 26 f1 3e 39 28 f5 be
       0.040360816 -1.2522267 0.47099626 -0.4788225
0002b0 97 3d 04 3f db 78 3d be 68 17 52 be 33 ad ad bf
       0.5165648 -0.18503134 -0.20516741 -1.3568481
0002c0 6c c2 06 3f 10 55 27 bf a5 85 8b bf 92 23 63 bf
       0.52640414 -0.6536417 -1.090016 -0.8872615
0002d0 54 fa 28 bf 35 dc f0 bf 5f 72 89 be 4f 98 6c 3f
       -0.6600697 -1.8817202 -0.2684507 0.92419904
0002e0 5c 46 42 3e ba 24 e4 be 13 f2 ad 3f 5e 5d a7 3e
       0.18972152 -0.4455927 1.35895 0.3268842
0002f0 28 d4 af bf 8e f5 b8 bd 9e e4 1f 3f 94 5b e7 bf
       -1.373662 -0.09031211 0.6245822 -1.8074822
000300 47 cc f1 be 00 e7 3a bf 33 99 c8 bf dc 12 46 bf
       -0.47226164 -0.7300873 -1.5671753 -0.7737253
000310 e2 2c 9b be c8 88 ec 3e 43 68 7e bf 1f ad 8b bf
       -0.3030768 0.46198106 -0.9937784 -1.0912207
000320 6d 8c a7 be 46 4b 01 3f 4b a8 e3 3e 05 c3 83 bd
       -0.32724324 0.50505483 0.44464335 -0.064336814
000330 4b 60 65 bf 74 af 33 3f 16 f3 df 3f c2 c7 3a 3f
       -0.89600056 0.70189595 1.7496059 0.72961056
000340 56 cb d1 3e ff 5e 2f 3f 9c 1d 7d 3e df f9 c0 bf
       0.40975446 0.6850433 0.24718326 -1.5076255
000350 46 15 50 bf 2a 6b 85 be f3 ff f4 3f 6a 97 93 bf
       -0.8128246 -0.26058322 1.914061 -1.1530583
000360 92 46 95 3e 7c df 9e bf 29 cd 0a be 0d 29 9b be
       0.29155403 -1.2411952 -0.13554825 -0.30304757
000370 02 33 81 bf 62 d0 27 be 2d 6a 2b bf 3e 2b ed bf
       -1.0093691 -0.16388085 -0.66958886 -1.8528821
000380 9f fe 12 bf 3d b2 2b bc 18 56 34 3d e7 29 35 bd
       -0.5741977 -0.010479507 0.044027418 -0.044229414
000390 64 74 fb be 9a 28 4b 3f 80 f6 af 3f 08 75 c1 bf
       -0.49112236 0.7935883 1.3747101 -1.511384
0003a0 d8 58 9e 3f 03 97 68 3f 0b 08 8f 3e 18 4c 4d bf
       1.2370863 0.90855426 0.27935824 -0.80194235
0003b0 07 a7 ce be 40 31 92 be 8e 90 63 3f 79 9c 09 3f
       -0.40361807 -0.285532 0.8889245 0.53754383
0003c0 04 bf f7 be b6 18 42 c0 6f 2b df 3f 84 ee 05 3d
       -0.4838792 -3.0327582 1.743513 0.03269817
0003d0 d0 b7 84 3f 77 b9 51 3d 37 99 6f 3e 43 e0 7f be
       1.0368595 0.051202264 0.2339829 -0.24987893
0003e0 eb 7f c5 3f 98 2c 9c bd f2 19 ac 3f 31 54 5a 3d
       1.5429662 -0.07625693 1.3445418 0.053302947
0003f0 2e 56 ca 3b 18 0d 91 bf 59 8b fb be dd 2c 22 3d
       0.006174824 -1.1332121 -0.4912975 0.039593566

ode_dp.odeblock.odefunc.fc1.weight f4 [13, 13]
000000 33 b8 e5 3d 7d ad a9 3e 58 33 a3 3e 24 97 41 be
       0.11216774 0.33140174 0.3187511 -0.18905312
000010 64 68 8d be 3d 7b 3b be b2 6a 9d 3e b5 dc f4 3d
       -0.27618706 -0.1830873 0.30745465 0.11956159
000020 2e 5f 3b 3e c9 47 7d bd e8 ab 16 be 79 1b 95 3e
       0.18298027 -0.061836038 -0.14714015 0.29122522
000030 b3 2f 68 be b7 d7 ef 3d fa 9a 00 bc db 71 9e bd
       -0.22674446 0.11711066 -0.007849449 -0.0773656
000040 63 b8 82 be 5b d1 14 be 13 16 8f bb 42 5b e4 3e
       -0.255313 -0.14532988 -0.004366645 0.44600874
000050 09 18 07 be 66 4f 03 3e c4 18 80 be a6 63 7a be
       -0.13192762 0.12823257 -0.25018895 -0.24452075
000060 b5 c8 5c 3d b8 6e 8e 3e 59 5a 32 bd 56 dc 4a be
       0.053902347 0.27818847 -0.043543193 -0.19810614
000070 9e 50 61 3e fc 40 c8 bd 83 4e e8 3c a9 28 4c 3d
       0.2200341 -0.0977802 0.02835775 0.049843464
000080 f8 f6 f2 bd 2f 06 75 3d e6 90 d1 3c ba ae 4d 3e
       -0.11863512 0.05982035 0.025581788 0.20086184
000090 5e 48 ae bd 12 f2 a2 bd 77 82 42 be 42 74 4e be
       -0.08509897 -0.079563275 -0.18995081 -0.20161536
0000a0 7e 55 46 3e 4e c8 08 3d 84 12 b5 3d 34 86 60 be
       0.1936855 0.03339415 0.08841422 -0.21926194
0000b0 90 48 9e 3c 97 75 21 be f3 5b 04 bd e7 c7 72 3e
       0.01932171 -0.15767513 -0.032314252 0.23709069
0000c0 1a c8 a5 bd 0a ec 43 be 86 81 40 be d5 63 35 3d
       -0.08094807 -0.1913301 -0.1879941 0.04428466
0000d0 04 e9 73 3e b4 f5 0e 3e ee f0 3b be 06 0f 8e bc
       0.23819357 0.13960916 -0.18353626 -0.017341148
0000e0 a0 b7 85 3e 3d 5c e0 bd 05 99 00 3e 75 91 76 3e
       0.26116657 -0.10955093 0.12558372 0.24078925
0000f0 00 dc 4e be 67 58 c4 bd 01 78 3a be 59 84 d7 bd
       -0.20201111 -0.09587174 -0.1820984 -0.1052329
000100 b1 ba b6 bd b7 4f eb bd 3f b8 ea bc 70 74 fd 3d
       -0.08922327 -0.11489814 -0.028652309 0.12375724
000110 f6 15 c0 bd 09 63 88 be 73 74 26 3e 55 80 84 be
       -0.09379189 -0.26638058 0.1625536 -0.2587916
000120 46 1c b4 3d b4 ed 29 be b2 de db bd 19 e2 ae 3e
       0.08794455 -0.16594583 -0.10735835 0.34156874
000130 4b c5 76 3e 31 60 b2 3d 18 33 6d 3b 6b 8b 33 be
       0.24098699 0.08709753 0.0036193784 -0.17533652
000140 4b a6 70 be a1 f9 a7 be e2 ad a8 3e 0c a0 a7 bd
       -0.23500936 -0.3280764 0.32945162 -0.081848234
000150 ad a8 4f bd 70 de 1b 3c 7d d4 b2 3e a7 74 5e be
       -0.05069797 0.009513482 0.3492774 -0.21724187
000160 0f 8f 95 be 9f 65 4c 3d 9a 4a f1 3d 46 2e 07 3d
       -0.29210708 0.0499016 0.11781807 0.033003114
000170 23 c5 40 bb cd 5d 17 3e ad 89 a9 3e b7 3c 93 3c
       -0.0029414378 0.14781876 0.3311285 0.017973287
000180 72 15 d0 bd 55 2a 91 be bb f8 a4 bd a9 2f 9b 3e
       -0.1016034 -0.2835261 -0.08055254 0.303098
000190 37 c9 37 3e 2b df 7b bd d6 10 c1 3d 5f d7 48 be
       0.17947851 -0.061492126 0.09427039 -0.19613408
0001a0 72 78 01 3e 28 33 d3 3c 5f 69 74 3e 41 a9 b4 bc
       0.12643602 0.02578123 0.23868321 -0.022053363
0001b0 86 53 1d 3e a7 33 f5 3d 6b 29 02 be 85 02 a8 bd
       0.15363893 0.119727425 -0.12711112 -0.082036056
0001c0 64 27 18 3e 2d 84 c6 3c be 3e 2e 3e cc 0e 7a be
       0.14858776 0.024232948 0.17016122 -0.24419707
0001d0 37 d7 7c be b6 5b 6c 3e 48 1f 5d be 47 1d 98 bd
       -0.24691473 0.2308186 -0.21593964 -0.07427459
0001e0 8c 37 25 3d 73 b9 83 3d f0 e8 b8 bd 04 45 a1 3e
       0.040336177 0.06431856 -0.09028804 0.31497967
0001f0 c2 48 04 bd 9e 45 62 3e 71 d1 2e 3e d3 0f 4e bd
       -0.03229595 0.2209687 0.17072083 -0.05030806
000200 6e 8f 6c 3e 8e 9e 71 3d 56 72 62 bd c3 b6 66 be
       0.23101589 0.0589891 -0.05528482 -0.22530656
000210 35 a0 57 3b 3d dc d9 bd 18 2d bf 3d ab d5 19 3e
       0.0032901887 -0.1063771 0.09334773 0.15022914
000220 1d 0f 2e 3e a4 74 5b 3e 36 29 9d 3e de 5d 36 3e
       0.16997953 0.21431214 0.30695504 0.17809245
000230 33 53 04 be 4f da be 3c 7b 6c 92 3d 05 22 02 bd
       -0.12922363 0.023297457 0.07149597 -0.031770725
000240 d7 29 97 3d 76 8f 5a 3e 71 b2 98 3e c9 d7 65 3e
       0.07381027 0.21343789 0.2982364 0.22445597
000250 72 ad 8f bd 7e 82 13 3e 90 62 dc bd 0e 37 ff 3d
       -0.07015504 0.14405248 -0.10760987 0.12461673
000260 c5 a3 88 3d 54 b6 37 3e 43 88 4c be 75 eb db 3d
       0.066718616 0.17940646 -0.19973855 0.10738269
000270 49 eb 59 be 2d e7 21 be 59 16 09 3c 0b 87 48 3e
       -0.2128116 -0.15810843 0.0083671445 0.19582765
000280 63 44 6f 3d 2b 86 2d 3e cc 89 43 3e 07 09 0f be
       0.058414828 0.16945712 0.19095534 -0.13968287
000290 59 30 26 be 1a 10 44 be 4a 63 73 3c 1d 4c a3 bc
       -0.1622938 -0.19146767 0.014855215 -0.019933755
0002a0 16 69 70 bd
       -0.058693968

ode_dp.odeblock.odefunc.fc1.bias f4 [13]
000000 c5 8e 5b bd 9b 62 be 3c ab 2f af bd c1 82 95 3e
       -0.053602953 0.023240378 -0.08554014 0.2920132
000010 a9 b1 82 3e 6a da 16 be ef e5 2a 3d 03 36 b7 be
       0.2552617 -0.14731756 0.041723188 -0.35783395
000020 f1 fc 91 bd 4e 25 0c bd 3c 3c 16 3c 7f ac 09 be
       -0.07128323 -0.034215264 0.009169634 -0.13444708
000030 fa b2 b2 3e
       0.34902173

ode_dp.odeblock.odefunc.fc2.weight f4 [13, 13]
000000 3e ff 10 3e 9d 91 be bd 57 7d c2 3c 24 b2 a1 3d
       0.14159867 -0.09305117 0.023741407 0.07895306
000010 3b 40 ad bd 33 27 28 be 15 d9 15 be b0 c8 1f 3d
       -0.084595166 -0.16421203 -0.14633591 0.03900975
000020 1d 4b 74 bd 4b ff 55 3e 68 b7 5c bd b5 10 34 be
       -0.059641946 0.20898168 -0.053885847 -0.17584498
000030 ac 65 53 be bc 38 56 3e 9f fc 20 bd ae 2c 53 3e
       -0.20644253 0.2092008 -0.03930342 0.20622513
000040 7b 13 1e bd 10 dc 38 3e c8 52 92 3e da 42 a8 3e
       -0.038592797 0.18052697 0.28578782 0.32863504
000050 18 62 00 3e a9 1f e4 3d 29 1e 9a 3e 8b 38 6a bd
       0.1253742 0.11138851 0.30101135 -0.05718283
000060 7a df ae 3d a4 f4 2c bd 8a 71 3d bd 88 ee 04 3e
       0.085387185 -0.042225495 -0.046250857 0.12981617
000070 ac 8f de bd 63 24 93 3d 3a 42 04 be fb 67 96 3b
       -0.10867247 0.071846746 -0.12915888 0.004590032
000080 78 18 07 3d bd bb 84 3c 4c b5 65 3e d2 54 0c 3e
       0.03298232 0.016202802 0.2243244 0.13704231
000090 38 87 bc 3e a4 12 1f be 17 a1 86 3e b5 fe 72 3e
       0.36821914 -0.15534455 0.26294777 0.23729976
0000a0 5d ad a9 bd 5d cb 05 3e 11 cd 69 3e 66 c3 8b 3d
       -0.082850195 0.13065858 0.22832133 0.06824379
0000b0 ae 0a 17 be cf c0 b0 3e 0c d5 29 be c5 12 88 bd
       -0.14750168 0.345221 -0.16585177 -0.06644205
0000c0 08 2f aa 3e 5e 03 00 3e e7 b9 1e be 5c a4 87 3e
       0.33239007 0.12501284 -0.15500604 0.26492584
0000d0 3c 26 3a bd c4 50 07 be 48 a2 63 bd 26 ed d5 bd
       -0.04544662 -0.13214403 -0.055574685 -0.10445623
0000e0 1d 06 e5 bd 61 9d 08 bd 57 95 b9 3d ec 51 cf 3c
       -0.11182807 -0.033353213 0.090616874 0.025307618
0000f0 eb 8e 3d bd 73 76 1c 3e 3e a1 2f 3e 20 17 0e 3d
       -0.046278875 0.1527956 0.17151353 0.034690022
000100 da d9 7b 3d 67 71 75 3e 87 88 50 3e dc 18 ac 3d
       0.061487056 0.23969041 0.20364581 0.08403179
000110 f1 c3 e5 3d 4f 00 89 3d a4 e7 9b 3d 8d 04 82 3e
       0.112190135 0.06689512 0.07612541 0.25394097
000120 ef 69 2a 3e e4 aa b7 bd cf e4 83 be b0 12 ed 3c
       0.16641973 -0.08968142 -0.25760505 0.028939575
000130 9d f7 4b be 3e fe 77 bd e8 a2 b3 bc 21 ac b0 3e
       -0.19918676 -0.0605452 -0.021928266 0.34506324
000140 47 99 ad 3d 79 06 90 3d b2 96 a6 3e 41 6c ba bc
       0.08476501 0.070324846 0.32536846 -0.022756698
000150 5a c9 97 3e 02 bb 63 3b 56 12 0c be e9 25 79 bd
       0.29645807 0.0034748917 -0.1367887 -0.06082717
000160 63 8a 09 be d1 3a b2 3e c3 b7 88 3e 80 ec b2 3e
       -0.13431697 0.34810498 0.267027 0.3494606
000170 3c b9 97 3e ea 43 ab 3d 1b f2 99 bd 82 eb e5 bc
       0.2963351 0.08362563 -0.07516881 -0.0280664
000180 ef 15 26 be 75 0c 32 bd 16 b0 0a 3d 3b 02 c1 3d
       -0.16219305 -0.04346891 0.033859335 0.094242536
000190 74 fe c6 bd 78 53 f2 bc 61 90 e3 bd 33 59 83 bd
       -0.09716502 -0.029580817 -0.111115225 -0.06413498
0001a0 bf 4c b3 bc 7a ba d2 3e ba f6 44 3e e0 90 34 3e
       -0.021887181 0.41157895 0.19234744 0.1763339
0001b0 a8 ad ae 3e 13 60 fc 3c e0 bb b1 3e e2 78 d7 bc
       0.34116864 0.03080753 0.3471365 -0.026302759
0001c0 4f 37 48 3e 44 d6 3e 3e 1f eb 82 3e d5 e9 1d 3e
       0.19552349 0.18636423 0.25570008 0.15421231
0001d0 ff f2 04 3e 08 df 7e be 7c 2c 4a 3e b1 73 35 3e
       0.1298332 -0.24889767 0.19743532 0.17719914
0001e0 22 44 a5 bd 80 68 04 bd 2d 1f 82 be e2 d2 b1 3d
       -0.08069636 -0.03232622 -0.2541441 0.08682801
0001f0 64 f3 81 3e 6e a9 4e 3e b5 9e 87 3c 3f ff 25 3c
       0.25381005 0.2018182 0.01655517 0.010131656
000200 2d 1b d8 3d f6 11 72 3c ce 35 91 3e 9f 51 19 be
       0.10552058 0.01477479 0.28361362 -0.14972542
000210 98 b6 84 be b9 c3 3c be d9 9c 04 3e 83 c5 04 be
       -0.25920558 -0.18434037 0.12950458 -0.1296597
000220 c8 2e ae 3d c1 70 c3 3d c4 61 70 3e 01 25 7d 3e
       0.085050166 0.095429905 0.23474795 0.24721147
000230 78 17 4c bd d0 a8 85 3c 10 e3 f4 3d ab 45 b1 3e
       -0.04982707 0.016315848 0.11957371 0.34623465
000240 f6 ce 87 3e 17 bb 08 be 36 22 68 3e f1 98 9e 3e
       0.26525086 -0.13352619 0.226693 0.3097606
000250 90 b3 ee 3d c6 ea 5e 3d 76 9e 50 3d aa e0 d8 3c
       0.116553426 0.054423116 0.05093237 0.026474316
000260 65 81 16 3e 5b ee ae bd f5 15 70 bd 8c ed 13 bd
       0.14697798 -0.085415564 -0.05861469 -0.036115214
000270 ae 96 4a 3e 8a 31 38 3e dc 14 28 be ca c3 5d 3d
       0.19784042 0.17987648 -0.16414207 0.054141797
000280 4b 7a 8a 3e 24 77 a5 3e 93 cb 8c 3e 58 34 3e bd
       0.27046427 0.3231746 0.27499065 -0.046436638
000290 4f da 60 3e 77 26 13 bc 77 ab ee bd 7f 28 b5 bd
       0.21958278 -0.008981339 -0.11653798 -0.08845615
0002a0 6c 52 08 3d
       0.03328173

ode_dp.odeblock.odefunc.fc2.bias f4 [13]
000000 c1 30 c4 bd 82 20 bb 3d a8 5b c2 bd 51 d6 01 be
       -0.095796116 0.0913706 -0.09490138 -0.12679411
000010 2b 01 5e 3e 1b 5d 65 be 5c a1 6d 3e 92 f5 c3 3e
       0.21680133 -0.22398798 0.23206085 0.38273293
000020 fa be c2 3e 27 ae 3a 3d d1 82 92 3e 53 14 16 3e
       0.3803633 0.04557624 0.2861543 0.1465619
000030 69 53 a7 3e
       0.32680824

ode_dp.odeblock.odefunc.fc3.weight f4 [13, 13]
000000 db 23 67 be f6 82 e9 bd 3b f7 64 be 50 99 87 3d
       -0.22572272 -0.11401932 -0.22359936 0.06621039
000010 81 2f d0 3d ae 4c d1 be a8 60 82 be 35 60 c4 bd
       0.10165311 -0.40878814 -0.25464368 -0.095886625
000020 c2 5f 1c be 5b 0f 57 bd 39 c4 0f 3d e0 cc 89 bd
       -0.15270904 -0.05250488 0.035099242 -0.0672853
000030 4a c2 df 3d 6d 35 85 bd 08 5c 11 be 88 80 03 3e
       0.109257296 -0.06504331 -0.14195263 0.12842
000040 4f c5 af bd ea ac 16 3e 97 0e 3d be 11 c0 32 3e
       -0.085825555 0.14714399 -0.18462597 0.1745608
000050 b2 0a 51 be 16 4c 7a be ec 36 a2 bb 96 d7 03 3d
       -0.20414236 -0.24443087 -0.004950395 0.03218802
000060 ac a3 23 be c4 14 55 be 02 cf ac bc 3e dd dd bd
       -0.15980405 -0.20808703 -0.021094803 -0.10833214
000070 e8 89 74 3e 05 34 4a bd e2 d6 09 3e 9a a5 3c be
       0.23880732 -0.049366016 0.13460878 -0.18422547
000080 bc 88 e1 3d 65 2c 84 3d c8 20 85 3e a4 d7 b9 3d
       0.11012408 0.0645378 0.26001573 0.09074333
000090 5a ae 61 be 0e 76 5e 3d 32 1c 5e 3d 5b 20 96 bd
       -0.22039166 0.054311804 0.054226108 -0.0733039
0000a0 b7 86 cc bd c8 a4 87 be c8 2f 10 be 0b 05 7f be
       -0.09986632 -0.26492906 -0.14080727 -0.24904267
0000b0 b5 9c cc bd 9b ef 98 bd c1 f0 c2 bb 47 5a b4 be
       -0.09990827 -0.07467576 -0.0059491103 -0.35225126
0000c0 ec f0 73 be b1 a0 3d be 73 72 f5 3d 3e 62 73 bd
       -0.23822373 -0.1851833 0.1198472 -0.059419863
0000d0 d6 d6 dd bd 55 3c 13 3d 70 42 27 3d 7b 63 52 3e
       -0.10831992 0.03594621 0.040834844 0.20545761
0000e0 3a de 81 bc ad 63 a8 bd 59 49 38 3e df 42 94 3e
       -0.015853036 -0.08222137 0.1799673 0.2895727
0000f0 41 43 00 3e f9 e2 21 be d2 17 41 3e 25 dc 54 bd
       0.12525655 -0.1580924 0.18856743 -0.05196776
000100 08 f8 98 3e 6a 92 c2 bd 1c e4 91 bd 52 5f 31 bc
       0.29876733 -0.095005825 -0.071235865 -0.010825949
000110 35 fa 2b 3e 87 b2 91 3d b6 02 b3 bd 56 78 20 bd
       0.16794665 0.071141295 -0.087407514 -0.03917726
000120 bc c7 13 be 92 9a 28 3e 99 8a ce bd af d8 99 bc
       -0.14431661 0.16465214 -0.10085029 -0.01878008
000130 4f 15 bb 3d da 51 e8 3d 87 41 b3 3c 10 7c 33 3e
       0.09134924 0.11343737 0.021881832 0.17527795
000140 2b 13 b4 3e 5d fa 34 3e 12 0e 72 3e 61 95 09 3d
       0.35170874 0.17673631 0.2363818 0.033589724
000150 dc c9 aa 3e aa 6d 39 3e 54 3a 65 bd f5 1b 67 bd
       0.3335713 0.1810824 -0.05596383 -0.056423146
000160 33 3c 53 3e 1a 7e 3a 3e f4 39 90 3e ed 01 d7 3d
       0.20628433 0.18212166 0.28169215 0.10498414
000170 f6 00 a4 3d ef 9b d8 3b cc ec 41 3d 69 97 a3 3d
       0.08007996 0.0066103856 0.047344968 0.079878636
000180 bb bf fd 3d 6c 7c d4 3e 63 d5 cd 3e a8 8a a0 3d
       0.12390085 0.41501176 0.40201864 0.078389466
000190 74 9e 61 3e e2 8e e9 3d fa bc 93 3e 21 71 4a 3d
       0.22033101 0.11404206 0.28855115 0.049424294
0001a0 f7 d8 f1 3d 41 e8 b0 3c a9 c0 9b be 95 ae 15 3e
       0.11808961 0.021595122 -0.30420426 0.14617379
0001b0 a0 32 19 be 30 e8 a6 be a7 6e ca 3d 11 a7 c5 3a
       -0.14960718 -0.3259902 0.098843865 0.0015079697
0001c0 a1 bb b2 3b 4e 59 89 bd e2 e3 95 be a7 0f 54 be
       0.005454496 -0.06706487 -0.29275423 -0.20709096
0001d0 76 b2 0d 3e 08 a1 1e 3e 1b 42 5e 3d ef 00 a9 3e
       0.13837609 0.15491116 0.05426226 0.33008525
0001e0 5f b6 23 3e 56 02 7a 3e 77 4a 32 be b3 d2 4b 3d
       0.15987538 0.24414954 -0.17411219 0.049761485
0001f0 51 46 9a 3e ee 0b f4 3d 08 d2 43 be cb ee 95 3e
       0.30131772 0.11916338 -0.1912309 0.29283747
000200 3b d6 5b be cf ce be bd c4 24 28 3e bd 84 9e be
       -0.21468441 -0.09316789 0.16420275 -0.30960646
000210 49 b9 92 bd d8 22 94 be 86 33 07 be 46 4a d9 3d
       -0.071642466 -0.28932834 -0.13203248 0.1060987
000220 4e e4 fb bc 00 b5 66 3e 67 54 7c be f7 57 91 be
       -0.030748513 0.22529984 -0.24641572 -0.28387424
000230 f5 dc 3d 3e b6 fc ae bd 25 08 06 3e 81 69 ec 3c
       0.1854132 -0.085442945 0.13089044 0.028858902
000240 c0 14 82 bd 29 8f 33 3e 3e 30 43 be 89 2c 5d be
       -0.06351614 0.1753508 -0.19061372 -0.2159902
000250 2e 82 6c be c0 b1 06 be f9 0a e6 3d 85 b2 e4 3d
       -0.23096535 -0.13153744 0.112325616 0.111668624
000260 d1 bc a2 bd 9c f7 00 3e 06 b5 89 be ef 96 55 bd
       -0.0794617 0.12594455 -0.26895922 -0.052145895
000270 d6 38 fa 3e 34 aa 04 3d 8d bb 10 3d d6 1a f0 3d
       0.48871487 0.03238888 0.035335112 0.117238685
000280 92 33 c7 3e 41 e2 f9 3d a8 1b e0 3a 6a 45 7c 3e
       0.38906533 0.12201358 0.0017098086 0.24635854
000290 73 80 c7 3e 79 6c 10 3e 29 4a 47 3e bd c3 e3 3e
       0.38965186 0.14103879 0.19461884 0.44485274
0002a0 f1 a3 ad 3e
       0.3391414

ode_dp.odeblock.odefunc.fc3.bias f4 [13]
000000 14 37 b4 be e7 7e ae be cf 81 64 3e 17 66 8a be
       -0.3519827 -0.34081194 0.22315143 -0.27031013
000010 78 b5 97 3e a2 06 c2 3c fd e4 b2 3e 0f c2 3a 3d
       0.29630637 0.023684803 0.3494033 0.045595225
000020 7b af d3 3d bb dc cb 3d 1e b6 4d be ee e6 6a 3e
       0.103362046 0.0995421 -0.20089003 0.22939655
000030 d6 1f 64 3e
       0.2227777

ode_cp.odeblock.odefunc.fc1.weight f4 [11, 11]
000000 16 7d 8e bc 54 d2 81 3e 51 7e 83 be 4e dc 8c bc
       -0.01739363 0.2535578 -0.2568231 -0.017194893
000010 70 aa 10 3e 7c 3a 87 be f8 43 31 3e 7f 8d 8a bd
       0.14127517 -0.26411808 0.17311084 -0.067652695
000020 58 67 27 be 35 f2 1f 3d e8 e5 88 3e 5f cc 1c 3c
       -0.16348016 0.039049346 0.26737905 0.00957021
000030 a2 71 1c be 02 79 fe 3e f2 08 34 3e c0 17 bf be
       -0.15277722 0.49701697 0.17581537 -0.37322807
000040 35 d2 27 3c 06 35 0d 3b 59 02 6a be 2e f1 36 3e
       0.010242988 0.0021546497 -0.22852458 0.1786544
000050 4f 4a d3 3e d7 1c 08 bd 42 13 a6 bd 7f 47 07 3d
       0.4126763 -0.03323063 -0.08109142 0.03302717
000060 9a 71 19 3d 76 9f fb 3d 8f 5b a8 be d9 6d 92 3e
       0.037461855 0.12286274 -0.32882354 0.28599432
000070 b6 8c cb 3d e5 45 a1 bd 26 90 97 3e ad 45 88 3e
       0.09938948 -0.078746594 0.29602164 0.26615658
000080 ff 6c 2e bd c8 ae 12 3e ef 2c 7c be bd 5f 75 3e
       -0.042584416 0.14324486 -0.24626516 0.23962303
000090 13 aa 00 3f 05 4d f8 bd fd 4e 02 3e 4e 9b 87 be
       0.5025951 -0.12124065 0.12725444 -0.26485676
0000a0 be 0b 77 be d9 be 34 3e 3b f4 b5 3e e1 ab 5c 3e
       -0.24125573 0.17650928 0.35537896 0.21549942
0000b0 3b 16 1e be 0a 19 13 3e 2d 9e 2d 3d 96 d0 b7 bd
       -0.15438168 0.1436502 0.042387176 -0.089753315
0000c0 20 ab 97 be d8 8b cb ba bc 77 97 bd 0b 75 05 be
       -0.29622746 -0.0015529348 -0.073958844 -0.1303293
0000d0 93 d2 9f 3e 3a e2 18 be f7 3f b7 3e bb 22 4d be
       0.31215343 -0.14930049 0.3579099 -0.2003278
0000e0 43 ae 96 3d 36 b6 b4 bc e4 01 b3 3e 6a 9d 4d bd
       0.073574565 -0.022059541 0.3496238 -0.05019895
0000f0 7c 1a b8 3e fe 75 8c bd 85 6d 57 bb de ed d8 3e
       0.35957706 -0.06858443 -0.0032871675 0.42368978
000100 a1 59 44 3e f8 1e 90 3e 6f 8d 5b 3d 42 a3 b3 bc
       0.19174816 0.28148627 0.05360168 -0.021928433
000110 f7 88 f8 3e 89 60 85 3e d7 3a 10 bd 47 95 d3 3e
       0.48541996 0.26050213 -0.035212364 0.41324827
000120 40 b3 49 be 7f b6 00 be 41 45 0d 3f 2a a3 b5 3e
       -0.19697285 -0.12569617 0.551838 0.35476047
000130 ad 0d f0 3e 3a 47 0e be 50 d2 a7 bd f8 7f 66 3e
       0.46885434 -0.13894358 -0.08194411 0.22509754
000140 55 a8 c5 3e 4f f5 ca bc 0e f2 07 3f 13 d1 2c 3d
       0.3860499 -0.024775175 0.5310372 0.042191576
000150 20 9e e3 bd fd ec f6 3e 8e 70 bc 3e c5 d2 52 be
       -0.11114144 0.48227683 0.36804622 -0.20588215
000160 7b 2d 85 3d 37 16 ad 3e e9 93 a7 3e 8a e4 32 3c
       0.06502815 0.3380601 0.32730034 0.010918746
000170 25 28 a1 3c a0 bf 22 be 10 31 02 3e eb 34 0a be
       0.019672463 -0.15893412 0.12714028 -0.13496749
000180 2a 50 61 3a d1 2c 0e be 10 52 8f bd 46 fa f6 bd
       0.0008595014 -0.13884284 -0.06998074 -0.120594546
000190 0a 81 86 3e ac 09 2d be e8 1f a1 bd 14 36 36 3e
       0.26270324 -0.16898221 -0.07867414 0.17794067
0001a0 3f 9f 6d 3e 28 c8 31 be 76 22 07 be a9 20 ac 3d
       0.23205279 -0.1736151 -0.1319674 0.08404667
0001b0 d1 1b 4a 3e e9 90 38 be ac 74 fc 3d 41 c0 ab be
       0.19737174 -0.18024029 0.12326941 -0.33545116
0001c0 07 39 3e 3e 3d 42 da 3e 49 fd aa 3d 90 5c d7 3d
       0.18576442 0.4262866 0.083490916 0.10515702
0001d0 85 66 35 be cb 7b 13 be 74 02 04 3f 05 44 e4 3e
       -0.1771489 -0.14402692 0.51566243 0.44583145
0001e0 a1 48 59 3e
       0.21219112

ode_cp.odeblock.odefunc.fc1.bias f4 [11]
000000 35 23 2a 3d 6a 00 f2 3e 61 6c 8c bc 5f f1 fd 3d
       0.041537482 0.4726594 -0.017141523 0.123995535
000010 f2 9b b1 3e 1b 59 f3 3e 50 1f 8e bd fe 73 c2 bc
       0.3468929 0.4752892 -0.06939566 -0.02373695
000020 4f c1 ef 3d 9e 73 8b 3e 57 d1 c8 bc
       0.117067926 0.27236646 -0.024513884

ode_cp.odeblock.odefunc.fc2.weight f4 [11, 11]
000000 79 2e 6b bc e0 20 2f 3e 5a 76 d3 3e 63 03 cb bd
       -0.014354342 0.17102385 0.41301233 -0.09912755
000010 b7 0a 71 3e 40 03 d6 3e e2 a2 4a 3d cd 05 e0 3e
       0.23539244 0.41799355 0.049471743 0.43754426
000020 6f 7e a2 3c 47 1e ed 3e e1 82 de 3e 98 9a a7 3d
       0.019835679 0.46312162 0.43459228 0.08183783
000030 84 ff 2e be 44 f1 7b bd 9a 2f dc be 74 fd 2c be
       -0.17089659 -0.061509386 -0.43005067 -0.1689356
000040 24 6a 1d be cb 26 68 be ab 60 6b 3d 2b c1 6a be
       -0.1537252 -0.22671048 0.057465237 -0.2292525
000050 1e 03 6e bd da e6 3f be 78 2d 9f be 0c f1 8c be
       -0.05810844 -0.18740407 -0.31089377 -0.27527654
000060 28 af 80 3d eb 65 c2 be 27 8a 36 3e 4b e4 94 be
       0.062834084 -0.37968382 0.17826138 -0.29080424
000070 a0 01 c6 be f2 22 f8 3d 29 fb 9b be ba 6f 26 3e
       -0.38673115 0.1211604 -0.30465057 0.16253558
000080 e4 f5 a5 be 8e 67 69 3d 06 03 c2 bd 25 69 93 3d
       -0.32414162 0.056983523 -0.09473233 0.07197789
000090 42 6d 07 be ab 08 2c 3e 62 1d 31 3d f3 54 b5 3e
       -0.13225272 0.16800182 0.043240912 0.35416374
0000a0 ec 7e 7c 3c 8e 07 f8 3d 36 d8 31 be 1c 4d 36 3e
       0.01541112 0.12110816 -0.17367634 0.17802852
0000b0 ae ea 08 3e f1 bc d5 3d 68 ff c7 3d fe 96 4a bc
       0.13370773 0.10436428 0.09765512 -0.012365101
0000c0 73 a4 30 bd 77 22 90 3e 29 9e 11 3e 5d 47 45 3e
       -0.04312558 0.28151295 0.1422049 0.19265504
0000d0 ae 80 69 3c df 0b 0d 3e 48 c7 84 bd d2 07 be bb
       0.014251871 0.1377406 -0.064833224 -0.005799272
0000e0 12 82 cf bd 53 14 b8 3e 6b 67 3a bd 50 ff da 3d
       -0.10132231 0.35953006 -0.045508783 0.10693228
0000f0 f2 6e 7a 3e 21 18 aa 3d c1 33 84 3e 2e 22 09 be
       0.24456385 0.083053835 0.25820735 -0.13391945
000100 01 72 a6 3e af 2a a9 3e a0 74 df 3d 4f 90 fd 3e
       0.32508853 0.33040377 0.10910916 0.4952416
000110 18 f4 ca 3e bf 6d a5 bd d2 f6 e1 3e 55 f0 d8 3e
       0.39639354 -0.08077573 0.4413362 0.4237086
000120 b6 8d f7 3e 0b ec d0 bc 08 f0 44 3e 19 40 29 bd
       0.48350304 -0.025503179 0.1923219 -0.041320894
000130 af 21 f7 3d 22 eb 32 3e 66 85 87 3e 0a 26 56 3d
       0.120669715 0.17472509 0.26468962 0.05228237
000140 6b 94 1c 3e 3b 47 b0 3e e5 6c a1 bd f3 f4 e4 bc
       0.15290992 0.34429345 -0.07882098 -0.027948832
000150 fc 18 4e 3e 2d b3 52 3e 39 99 c6 bd 54 5c 85 3e
       0.20126718 0.20576163 -0.09697194 0.26047003
000160 fa da de bd 9d 9a f1 3e 20 b1 66 3e c4 d8 db 3e
       -0.1088161 0.47188273 0.22528505 0.42938817
000170 60 c3 38 3e 40 10 37 3e 94 1b 86 3e 0c cb bd 3e
       0.1804328 0.17877293 0.26192915 0.37068975
000180 83 c9 c8 3d 52 bb a5 3d bc 0f ec 3e 54 78 45 3d
       0.0980406 0.08092369 0.46105754 0.048210457
000190 4e aa c7 3e 80 45 8a bd 90 d5 ab 3e 6e 3e c4 3e
       0.3899712 -0.06751537 0.33561373 0.3832888
0001a0 c0 aa 62 3e e0 ba 8b bb 1b fc 31 3e 36 a3 d0 3e
       0.22135448 -0.0042642206 0.17381327 0.4074952
0001b0 34 69 37 bd f0 1e ca 3e 6d 1d 83 3c 6a d8 8f 3e
       -0.044778064 0.39476728 0.016005242 0.28094798
0001c0 64 31 94 bd 3c f1 1f 3e ec f3 53 3e c1 2f 1f 3e
       -0.07235983 0.15619367 0.20698518 0.1554556
0001d0 4b e5 e5 3e 5b 27 8f 3d 34 b0 b3 bd d1 a2 7b 3e
       0.449015 0.06989928 -0.087738425 0.24573828
0001e0 72 04 a2 3e
       0.31644017

ode_cp.odeblock.odefunc.fc2.bias f4 [11]
000000 99 0f 39 bd f4 4e a6 be 07 78 88 be e7 99 1e 3e
       -0.04518089 -0.3248211 -0.26654074 0.15488397
000010 25 19 f7 bd e7 d4 a5 3d 32 10 a2 3e 3f ea bc 3e
       -0.12065343 0.080972485 0.3165298 0.36897466
000020 b1 f8 02 bc f5 f8 46 3e e4 c8 3f 3e
       -0.007993863 0.19430907 0.18728977

ode_cp.odeblock.odefunc.fc3.weight f4 [11, 11]
000000 ec 66 17 be ce 1f 72 3c d4 72 97 3d f7 1b ec bc
       -0.14785355 0.014778091 0.073949486 -0.028821928
000010 f6 46 f5 bd d9 03 44 bc f7 c7 b4 be 78 5b da bc
       -0.11976425 -0.011963808 -0.3530881 -0.026654944
000020 3b 32 5f be df 36 03 bd cf 18 a3 3c e2 e6 ea be
       -0.21796505 -0.03203475 0.01990929 -0.45879275
000030 4a 77 7c 3d 97 fa 11 bd c0 66 0f 3b 6d 57 19 be
       0.0616372 -0.03563937 0.0021881312 -0.14974757
000040 38 46 2a bd d4 75 e8 be 2f eb 11 bf 42 51 dc be
       -0.041570872 -0.45402396 -0.56999487 -0.43030745
000050 9d 90 12 be 81 61 9a be 47 9a c2 3d 0f b6 83 3d
       -0.14312978 -0.30152515 0.09502082 0.06431209
000060 40 98 cc 3d 7c 88 6f 3e 78 8b 11 3d f2 17 d5 3d
       0.09989977 0.23391908 0.0355334 0.10404958
000070 eb 2a 7d be 5b 9b c7 3d b4 69 ee 3d 79 86 85 3e
       -0.24723403 0.097464286 0.11641255 0.26079157
000080 23 16 4f 3e ac 32 a2 be 8a 42 82 3e ba b1 3b 3e
       0.20223288 -0.31679285 0.2544139 0.18329516
000090 18 f4 af 3c 44 31 b1 be ca b6 67 3d 98 2f 7e be
       0.021478698 -0.346079 0.056570806 -0.24822843
0000a0 3e 26 c9 bd 2e cf 2a be 5d 3b 8e 3d 7b 05 5a bd
       -0.09821747 -0.16680595 0.069449164 -0.053227883
0000b0 aa ff 90 be 8e 6c 2b be 46 7f 89 3c 18 97 d3 be
       -0.28320056 -0.16740629 0.016784322 -0.41326213
0000c0 61 f8 be ba 5d f6 f7 3d 24 12 49 be 49 ce 4f bd
       -0.0014569872 0.12107537 -0.19635826 -0.05073384
0000d0 80 58 67 be d3 c3 cf be 26 21 7a be ec dc a8 3e
       -0.22592354 -0.4057909 -0.24426708 0.3298105
0000e0 9d ed d9 bc f8 ce dc 3d 9f 7b 85 3e 42 c2 a7 3e
       -0.02660256 0.10781664 0.26070878 0.32765394
0000f0 10 84 ba 3d f1 15 03 3d 7a 70 cc 3b f4 ef 23 3b
       0.0910722 0.032003347 0.006238994 0.002501485
000100 a3 9e e3 bd 43 32 ea bd aa d9 1e 3e ae 64 ea bd
       -0.11114242 -0.11435368 0.1551272 -0.114449844
000110 02 f9 78 3e 2c 4c ca 3e 4a f0 e5 3e e7 87 ed 3e
       0.24313739 0.3951124 0.44909889 0.46392748
000120 9d c3 dc 3e 56 26 ae 3e 0d c7 f0 3e 56 04 55 3b
       0.4311799 0.34013623 0.47026864 0.0032503805
000130 62 67 6d 3e eb b3 e6 3e 91 60 29 3e e2 da c9 bd
       0.23183969 0.45059142 0.16540743 -0.09856202
000140 17 d5 d8 bd ab d1 d9 3e 66 2d 7f 3e 27 02 93 3e
       -0.10587519 0.42542776 0.24919662 0.2871258
000150 4a a3 f9 3d 72 99 89 3e dd a7 8e 3e 9d 41 ad 3e
       0.12189348 0.26874882 0.27862445 0.3383912
000160 4b 61 da be 64 fa 7b 3d 06 ec 15 3e 76 fe 33 bd
       -0.42652354 0.061518088 0.14640817 -0.043943845
000170 78 b2 fd be 53 f8 f7 be eb 27 5a bd d5 db 77 3d
       -0.49550223 -0.48431644 -0.053260725 0.060512383
000180 82 1e 01 bf b4 f4 46 be 60 d9 85 bd 12 73 ef 3d
       -0.50437176 -0.19429284 -0.065356016 0.1169187
000190 53 f7 0a be 0b 2b 48 bd f5 5f da bb 88 08 ab 3e
       -0.13570909 -0.048869174 -0.006664271 0.33404946
0001a0 69 d7 9d 3d 55 e0 2e 3e 95 34 b3 3e 95 8a 87 3e
       0.07707102 0.17077763 0.35001054 0.26472917
0001b0 eb b0 c0 3e 7b 89 c9 bd 5e 49 17 3e 5e 53 41 bc
       0.37634978 -0.098406754 0.14774081 -0.011799661
0001c0 29 3e 0d be 77 d2 8e be b4 77 cb 3d b1 d9 8b be
       -0.13793243 -0.27894947 0.09934941 -0.27314523
0001d0 65 0a 95 be dc da 28 3e d8 ff 99 be fd e4 9f be
       -0.29109493 0.16489738 -0.30078006 -0.31229392
0001e0 2f 85 14 be
       -0.1450393

ode_cp.odeblock.odefunc.fc3.bias f4 [11]
000000 29 9f 0c 3d 35 d4 37 be 4c 3b 0f be b4 8a 62 be
       0.034331474 -0.17952044 -0.13987464 -0.22123224
000010 d2 e1 98 be b5 8b 5f bc 23 d9 28 3e b5 71 1c 3c
       -0.29859787 -0.013644149 0.16489081 0.009548594
000020 56 27 2d be 3d 9b a7 3d f2 f9 35 3c
       -0.16909537 0.08183906 0.011106955

attention_dp.context f4 [13]
000000 d5 21 02 3f 30 65 13 3f 7a 25 39 be f8 8b df bf
       0.50832874 0.57576275 -0.18080702 -1.746459
000010 f3 84 17 3f bd 66 de bf 2a 7c c8 3e 6e 18 d5 be
       0.5918724 -1.7375103 0.3915723 -0.416202
000020 ed bd 1d bf 11 33 08 3e 1d b3 e4 3f ed 4f 10 c0
       -0.6161793 0.1330073 1.7867161 -2.2548783
000030 c0 86 ee bf
       -1.8634872

attention_dp.linear_hidden.weight f4 [13, 13]
000000 82 36 39 3e 94 48 93 bc 87 31 30 3e 7f 58 3c be
       0.180872 -0.017978944 0.17206393 -0.18393134
000010 b9 8a 2c be ed 8d 22 3e d2 3e b5 3d 61 a6 84 3e
       -0.16849793 0.15874453 0.08849873 0.25908187
000020 4f 5d 69 3d cf 10 a3 bd 42 74 65 3e 59 77 d0 3d
       0.05697375 -0.0796219 0.2240763 0.10179014
000030 c1 ab 42 3e a4 b1 86 3e 95 2c 28 be d1 26 2e be
       0.19010831 0.26307404 -0.16423257 -0.17006995
000040 fd 75 42 be 44 44 ab bc 76 78 a5 3e 6f 1c 84 3e
       -0.18990321 -0.020906575 0.32318467 0.25802943
000050 47 c6 67 bd 73 6d 8e bd 76 c6 01 bd f0 46 92 3e
       -0.056585576 -0.069544695 -0.031683408 0.28569746
000060 08 6f 10 3d d3 9c 9c bd 9f 48 a0 be 01 0b e3 3c
       0.035262138 -0.07647099 -0.31305405 0.027715208
000070 c2 38 1c be 78 9e 78 3d a2 51 8a bc 87 4d 82 3c
       -0.15256026 0.060698003 -0.016884629 0.015906109
000080 f9 54 9f bd 14 dc 3f bd 30 6b da bd dc ca 33 be
       -0.07779879 -0.046840742 -0.10664976 -0.17557853
000090 68 ef eb 3d e4 2e 9b be dd cf c2 3d ed 6b 1f 3e
       0.115202725 -0.30309212 0.09512303 0.15568514
0000a0 de c8 59 be 03 48 97 be 58 07 ee bd 1a f9 b5 3d
       -0.21268031 -0.29547128 -0.116224945 0.08885403
0000b0 2e db b4 be 33 e9 a8 3d b4 73 8a be 51 3d ad be
       -0.3532347 0.08247604 -0.270414 -0.33835843
0000c0 a6 59 bb bd 9d 18 e8 3d f6 db 0f 3c b1 9e 89 be
       -0.091479585 0.113328196 0.00878047 -0.26878884
0000d0 be 25 9e 3e 5d c8 73 3e 57 42 96 bd e7 73 8e be
       0.3088817 0.23806901 -0.07336872 -0.278228
0000e0 5f de 84 3d 42 ca fd 3d 28 b1 80 3e ed 93 b6 3e
       0.064877264 0.12392093 0.2513516 0.35659733
0000f0 de a7 6a 3e 1f fe 93 bd 65 69 63 3e 38 78 f1 bd
       0.22915599 -0.07226204 0.22208174 -0.11790508
000100 bd fa 9e 3d d8 fe c3 3d 42 11 30 3d d3 d3 81 be
       0.07762668 0.09570092 0.04298521 -0.25356922
000110 40 b1 cd 3d 77 b5 3d 3e fd 61 c4 bd 5c 35 98 3d
       0.100435734 0.18526255 -0.09589002 0.074320525
000120 83 42 8b bd a4 59 a3 3e 02 ad ef 3d 84 c7 29 3e
       -0.067997955 0.31904328 0.117029205 0.16580015
000130 ed c0 c4 3d 10 10 83 bd d9 e5 93 bd d1 2f 5b be
       0.0960711 -0.06399548 -0.07221574 -0.2140496
000140 f2 d2 d8 bd 66 ec d8 bd b0 ff 2e be 03 ce 90 3e
       -0.105871096 -0.105919644 -0.17089725 0.28282174
000150 5e 59 ca bd aa dd 9a 3d ca d3 65 be 5f fa 39 bd
       -0.09880327 0.0756181 -0.22444072 -0.045404788
000160 50 05 6c be a9 1c 01 3e d4 c4 5a be 93 de ba be
       -0.23048902 0.12608589 -0.21364146 -0.36497936
000170 74 23 e6 bd 91 55 bc 3d c3 78 21 bd 15 4c 22 3e
       -0.11237231 0.09196008 -0.039421808 0.15849335
000180 33 40 3a be 80 68 d5 3d df cc 9b be 57 4f 8f bd
       -0.18188553 0.104203224 -0.30429742 -0.06997555
000190 b5 4c 00 bd 81 77 42 bc b2 65 ff 3d 33 9d 4c bb
       -0.031323154 -0.011869312 0.12470569 -0.0031221628
0001a0 a7 8d 17 bd 4c 4f 4c 3c 5f 4d d4 3d 7e ce 82 3e
       -0.037000325 0.012470078 0.1036632 0.25548166
0001b0 04 0b 80 be d6 61 d4 3b cc 80 1b be 2c 55 3e be
       -0.25008404 0.0064813895 -0.15185851 -0.18587178
0001c0 aa 4f 3b be 73 3f cd bd 6e 30 14 be 3b 8a 3c 3e
       -0.18292108 -0.100218676 -0.144716 0.18412106
0001d0 da 74 02 3e f8 39 3d 3e 2b 20 9b be 14 e8 b1 3d
       0.12739888 0.18479145 -0.3029798 0.086868435
0001e0 5f 57 88 be cb 36 93 be ec 83 02 3e 4c cc 3e 3e
       -0.2662916 -0.2875274 0.12745637 0.1863262
0001f0 f1 7c 78 3e 45 f7 3c 3e 10 e9 23 3e f7 94 63 3e
       0.24266411 0.18453701 0.16006875 0.22224794
000200 71 ae 37 be c8 7c fb 3c 41 a2 40 be 7e 87 a5 3e
       -0.17937638 0.030699149 -0.18811895 0.32329935
000210 3a 91 1a be 8c 6d c6 3d 23 d9 c7 3d 31 88 27 3e
       -0.15094462 0.09688863 0.097582124 0.16360547
000220 ff 84 8b 3d d7 af a0 3e 88 4b 05 3d 42 0e 03 3d
       0.06812476 0.31384155 0.032542735 0.03199602
000230 73 e9 a4 3c 28 ed 7d be 58 f7 fe bc 85 56 5d be
       0.020130849 -0.24797499 -0.031123802 -0.21615036
000240 ab 8b a1 3e 32 d3 b1 be 44 6e be 3d 12 4e 1c 3e
       0.3155187 -0.34731442 0.09298375 0.15264156
000250 01 a1 a2 be 6d 5d 70 be 5a bb 94 bd 0b f2 42 be
       -0.3176346 -0.23473139 -0.07262297 -0.19037645
000260 ae 09 21 3e cb 4f df bd 10 61 79 bd 9d 12 0e be
       0.15726349 -0.10903891 -0.06088358 -0.13874288
000270 62 30 3a bc cf 35 8f bc 77 fc 42 be fa 84 29 3e
       -0.011364074 -0.017481713 -0.1904162 0.16554633
000280 a1 d1 19 be 06 57 e8 3c f2 d8 ce bd e9 77 aa 3d
       -0.15021373 0.028361809 -0.10099973 0.08323652
000290 69 50 95 3e 81 7d 9c be 35 b9 9a bd 91 fd 7d be
       0.2916291 -0.30564502 -0.07554857 -0.24803759
0002a0 34 4d a7 bd
       -0.08169022

attention_dp.linear_hidden.bias f4 [13]
000000 0c 87 27 bd 59 3b aa be 9f 6e c4 be 1d ae 28 be
       -0.040900275 -0.33248404 -0.38365647 -0.16472669
000010 8a 3d 88 bd 51 9b 53 3d 2f c6 7c bd 0a 82 8a 3e
       -0.06652363 0.051661793 -0.06171244 0.27052337
000020 40 c0 67 3e 87 10 12 bd 45 13 6b 3e 9c 3e 64 be
       0.22631931 -0.035660293 0.2295657 -0.22289509
000030 e1 d1 10 3d
       0.035356406

attention_cp.context f4 [11]
000000 1c 17 c1 bf bc 32 1a 3f 20 df a9 bf 30 6d 06 bf
       -1.5085177 0.60233665 -1.3271217 -0.52510357
000010 22 c2 89 3f 4b f2 e0 3e ff 7b 94 bf 74 1d 4a 3f
       1.076237 0.43934855 -1.1600341 0.7895119
000020 01 19 69 bf 61 0f f2 bf 38 b4 91 bf
       -0.9105378 -1.8910943 -1.1383123

attention_cp.linear_hidden.weight f4 [11, 11]
000000 bc 5f 35 be 81 00 37 be a0 66 30 3e 3b a6 1a bd
       -0.17712301 -0.17871286 0.17226648 -0.037756186
000010 ad e3 14 be be ea 08 3e dc 86 68 3e 15 57 73 3e
       -0.14539976 0.13370797 0.22707695 0.23763688
000020 d2 df 95 bd 34 25 80 3e 18 2f 85 bd d1 a3 6b be
       -0.07318081 0.25028384 -0.06503123 -0.2301171
000030 36 31 3f be 8a e2 13 3e 49 6f 58 bd 65 3c 1a bd
       -0.18671116 0.14441887 -0.052840505 -0.037655253
000040 40 d9 14 be 2a 92 29 be 43 fd 48 be 20 d7 cb 3c
       -0.14536 -0.16559663 -0.19627862 0.024882853
000050 f9 47 71 bd 10 49 21 3e 25 1b b3 3e 32 99 7b 3e
       -0.05890653 0.15750527 0.34981647 0.24570158
000060 05 f1 e9 3d c7 97 bc 3d 97 37 ff 3d 45 fc 65 be
       0.11422924 0.09208637 0.12461775 -0.22459514
000070 0a de c2 3d 66 03 a6 bd 45 79 88 3d f8 3d fe 3c
       0.09515007 -0.08106117 0.06663755 0.031035408
000080 ac ff 4f be 36 d7 07 3e 7b 07 03 39 2b ba ab be
       -0.20312375 0.1326569 0.0001249592 -0.33540472
000090 48 e6 75 3c cf a3 34 3e 36 ad 91 bd f1 56 0a 3d
       0.015008517 0.17640613 -0.071131155 0.03377432
0000a0 f3 fe 31 3e 3a 5f 94 3e e6 02 18 3e ba e6 9d be
       0.17382412 0.28978902 0.14844856 -0.30840093
0000b0 ca a4 6a 3e 0d 34 c8 be 39 ef 77 3d 58 43 0d 3e
       0.22914425 -0.39102212 0.060530875 0.13795221
0000c0 09 8a 6e be 02 cd 6c 3d 64 2a 32 3e 8d 0d f9 bd
       -0.23294844 0.0578127 0.17398983 -0.12160788
0000d0 58 3a 43 3e 8c 46 72 3e 5f c2 4a be 03 9b b6 bc
       0.19065225 0.23659724 -0.19800709 -0.022290712
0000e0 61 1c 94 bd 52 fe f3 3d 0c 4f 78 be 97 00 dd 3d
       -0.07231975 0.11913742 -0.24248904 0.10791128
0000f0 c2 6f 96 3e f1 11 94 3d 49 6c b1 be f8 57 38 bd
       0.2938214 0.072299846 -0.34652928 -0.04500577
000100 77 a1 df 3d bc a4 65 3e dd cd d1 bc fd 71 57 3e
       0.10919469 0.22426122 -0.025610859 0.21039577
000110 8b 3b a2 bd 87 c9 47 3e 52 d1 ea bd 2e c4 93 be
       -0.07921513 0.1951047 -0.11465706 -0.2886061
000120 ff 21 79 3e 6c 1b f4 bd 9e 03 9d bd 7a 47 8f be
       0.24329375 -0.11919293 -0.076667055 -0.2798422
000130 b6 89 73 bd 33 ba 59 3e 04 00 b6 be 56 9f 80 3e
       -0.059457503 0.21262436 -0.35546887 0.25121564
000140 a4 67 3d be 76 f6 26 3d 2c b4 3b 3e de 7a 5d be
       -0.18496567 0.040762387 0.18330449 -0.21628901
000150 5b ab a4 3d b7 a1 5d 3e 31 93 5c 3e 19 26 5d be
       0.08040496 0.2164372 0.21540524 -0.21596564
000160 44 81 36 be 64 e6 a3 3e ee 94 9e be 50 01 e7 3d
       -0.17822748 0.32011712 -0.30973 0.11279547
000170 97 66 66 3d 11 ab cf 3d b8 91 e6 bd e3 5b 8b 3d
       0.05625018 0.1014005 -0.112582624 0.068046354
000180 03 7d a0 3e 34 68 62 3d 32 9b 39 be b8 18 69 3e
       0.31345376 0.055275157 -0.18125609 0.22763336
000190 d3 0e 36 3e 7e 69 56 be a7 c0 15 be ed 26 a2 bd
       0.17779092 -0.2093868 -0.14624272 -0.07917581
0001a0 32 8c a6 3e e7 86 89 be 0d a3 9d be 54 aa 85 be
       0.32528836 -0.26860735 -0.3078846 -0.26106513
0001b0 59 90 f7 bd 1c 1d 6d bd e8 50 24 be 99 98 75 bc
       -0.12088079 -0.05788909 -0.16046488 -0.014989995
0001c0 c4 63 18 be 62 f0 38 3c 2a 9d 81 be 0f 3f df bd
       -0.14881808 0.0112877805 -0.2531522 -0.10900699
0001d0 69 9e ac 3d 68 5b 4a 3e 7f a7 93 3e 79 65 28 be
       0.08428652 0.19761431 0.28838727 -0.16444959
0001e0 41 80 3a 3d
       0.04553247

attention_cp.linear_hidden.bias f4 [11]
000000 34 7a a3 3e fa 28 51 be ca 33 ab be 1b a9 24 be
       0.3192917 -0.20425788 -0.3343795 -0.16080134
000010 15 94 f4 bd 62 04 a4 3d 9a 4e 23 be 10 99 a0 bd
       -0.11942307 0.080086485 -0.15947953 -0.07841694
000020 01 0b 4f 3d 96 5b 01 be d3 11 b4 3d
       0.050547604 -0.12632594 0.08792462

fc_dp.weight f4 [1, 13]
000000 ec 73 dd bd eb 41 59 be b6 60 8b 3c aa cc 3e be
       -0.10813126 -0.21216552 0.017013889 -0.1863276
000010 ac 45 a3 3e 06 74 de 3d 3a 0f ab 3d 73 fe 69 3e
       0.31889093 0.108619735 0.083525136 0.22850971
000020 71 bc a7 be 0c c8 2d 3e 91 71 cd bd a1 67 52 3d
       -0.32760957 0.16970843 -0.10031427 0.05136836
000030 5b 9b d9 3c
       0.026563337

fc_cp.weight f4 [1, 11]
000000 f6 0c 00 be 03 bf 2d 3d 24 2f 65 3e d9 97 d7 be
       -0.12504944 0.04241849 0.22381264 -0.42108038
000010 12 e0 c1 bd c0 0a 88 3d 45 ec a7 3e 7c c2 b6 3e
       -0.09466566 0.066426754 0.32797447 0.35695255
000020 c7 ec 73 be 03 32 b5 3c e7 77 b3 be
       -0.23820792 0.022118574 -0.35052416

fc_all.weight f4 [1, 24]
000000 02 87 8a 3c ad cb b4 3b dd 8c 18 3e 97 cb 11 b7
       0.01691008 0.005517444 0.14897485 -8.690075e-06
000010 33 10 8a 3c 96 61 19 be be fa 4c bc ad 04 25 3e
       0.016853428 -0.14978632 -0.0125109535 0.16115065
000020 8a 54 c5 bd 11 ae a0 3d 6c 1b 6d be 57 ff 50 3c
       -0.09635265 0.078457005 -0.23154992 0.01275619
000030 49 73 0e be a8 20 db be a6 b6 b3 bd 40 ca 61 3c
       -0.13911165 -0.42798352 -0.08775072 0.01378113
000040 9a 3e a8 3b c0 a7 6c bd f1 44 fd 3c 47 ce 91 bd
       0.005134416 -0.057777166 0.030916663 -0.071194224
000050 09 32 d7 bd c9 12 00 be f1 57 a7 3d 7d 27 da 3d
       -0.1050759 -0.12507166 0.0817107 0.10652063
