base_models/attention_concat_time/final_model.pt (torch, 92731 bytes, 11 tensors)

embed_dp.weight f4 [1292, 12]
00000000: 0000 0000 0000 0000 0000 0000 0000 0000
00000010: 0000 0000 0000 0000 0000 0000 0000 0000
00000020: 0000 0000 0000 0000 0000 0000 0000 0000
00000030: b9eb 193f 2745 0140 fbd6 fbbc 5aca 523f
00000040: 3a93 cd3f af8e de3f ae21 1740 cda2 bcbf
00000050: ee3e 4a3f 21ba b73e 77fa b63e e55c a23f
00000060: 64c0 4f3f 58cd 813c ae48 90bf ee72 72bf
00000070: 4412 36be 66b3 68bf b2c5 bcbf 1f86 d2bf
00000080: 9632 253f 846f 363f c31f 963f f9f0 66bf
00000090: 99bc 99be d214 1440 2175 893e 0569 803f
000000a0: 2029 ee3e 1d56 2a3f 44f5 63be bbee df3c
000000b0: 62ea 1e3f ad79 1a3f 4380 5abe 530c 13be
000000c0: 188f 193e 9a9c 6f3f 581f ba3e 9000 c13f
000000d0: 39c1 0f3f c630 7fbf ddeb 903e aade 90bf
000000e0: 68b9 32bf 0020 783f 136c c43e 8239 2a3f
000000f0: 11bd 6abf fcf2 633e 42cc 883e cffb 303f
00000100: 66cd 0740 7f98 ee3e 6484 f33d 3606 4f3f
00000110: 2f92 853c dc6c 2f3f 3776 8fbf cab0 c9bf
00000120: 4ae8 693f 90da 883f 62b3 bb3d b22e 0dbe
00000130: 2ca7 43bf 7d41 8dbf 5591 2dbe 9a74 6bbf
00000140: f178 b9be 0deb c53e 6753 883e f718 473f
00000150: fabb 6abe 6b1c b1bf 91e0 17bf 339d 17bf
00000160: 0ebf 73be 7d0f 35bf ec41 c53e 04a5 36bf
00000170: ad6b 613e 4efb 0ec0 7eb7 083e b25c 463e
00000180: 7c42 afbe f2cc 8fbe ab71 4cbd 5aeb 113f
00000190: 3c63 ccbd b4f3 6d3f 0068 6cbe 6e35 b7bf
000001a0: e103 e43d 41e9 eebf 866e 8bbf 99af 8dbe
000001b0: 5bb7 0cbe b466 863f 7c31 e8bf 7685 113e
000001c0: 1313 4d3f 085c 573e a7bf 0fbf 8d5d 07be
000001d0: 4801 d2bf 196d 163f d480 d6bf f1a3 a7bf
000001e0: af1d 043f 5e31 e3bf 0e95 993f d920 a6be
000001f0: d108 273f e1ea 473f 6cdc 153f 970f 8ebf
00000200: b3a8 ea3d 084c a2bf 7116 5fbe 944e 94bf
00000210: 1aad 793e 93db 403f 8e62 efbf 8f82 b03f
00000220: 5e77 883f 9095 c73f 17c7 903f 7b46 793f
00000230: 6b50 723f 8d78 993d d4f8 e83f bd79 54bf
00000240: 901f 47be 6a70 b73f bd92 6c3f 1546 463f
00000250: b9ac d03f 4e4b 7cbf 8ba1 b3bf a0fa 0340
00000260: 395a da3e 6143 e93e 680a ffbf 7422 77bf
00000270: eb1e 2dbf 8bc8 ccbf 0729 00be f005 97bf
00000280: f3f1 48bf 950e a53d dbd2 0640 95c5 11c0
00000290: 3b91 013f da30 14bf e506 863f a026 3b3f
000002a0: c287 a0be dcd6 2cbf a884 ebbe 079a 18ba
000002b0: 386d ad3e 8a9e a5bf a5f1 88bf 153c 44be
000002c0: 984a 49bf 4e9b 06be d9c9 6c3f 51d6 2240
000002d0: a5d7 7e3e bf84 6abf 0817 7abe 6cdd 17bf
000002e0: d036 933e 7716 afbf 3ce3 97bf d442 e8be
000002f0: 6c8c 033d b827 873f 5c96 7abf f561 323e
00000300: ecbd 8ebf d586 babe cc53 5e3e 213c a23f
00000310: 2eb3 fbbe eb0b 0a3f 3588 e63e 3f78 f6be
00000320: a8b4 08be 3608 1b3f 9ac5 bcbe ac16 6d3e
00000330: 48f5 2cbd 845b a4bf f519 9ebe d3b9 46be
00000340: c9ed c83f 2893 123f 2272 12bd cf8c b83f
00000350: 86d0 c2be 0dc2 ed3e b71a c03e a2e1 ef3e
00000360: ecef 2abd 4821 be3d 0380 413f 46bf 8abf
00000370: 53d8 9a3e 231b b53f de92 20be 3358 073e
00000380: a63c a5bf a024 d63f 6f39 86bf 0cee 96bf
00000390: 69cc 433f 73fd bb3f 9fbb 3f3f f940 bcbe
000003a0: 105c 94bc 079a 4a3e df60 9dbf 1b9d a73f
000003b0: e16a 64bf 9abb 6f3f 65b8 c4bf f472 64be
000003c0: 6d06 22bf 3aa1 833f e8b4 bd3e 8e3d 8cbe
000003d0: 20fc 353f 3e46 ec3d e500 5fbf d7e0 e23d
000003e0: c95e 003f 0535 acbf 8f52 b33f 738d bcbe
000003f0: 15ee 6bbf 08e5 45bf ed24 eebe fae5 1ebf
0.0 0.0 0.0 0.0 0.0 0.0 0.0 0.0
0.0 0.0 0.0 0.0 0.6012531 2.0198457 -0.03074216 0.82340014
1.6060555 1.7387294 2.3614306 -1.4737183 0.79002273 0.35884193 0.35737965 1.2684599
0.8115294 0.015844986 -1.127218 -0.9470662 -0.17780405 -0.9089874 -1.4747832 -1.644718
0.64530313 0.7126391 1.1728443 -0.90211445 -0.300267 2.3137708 0.26847175 1.003205
0.4651575 0.6653765 -0.2226153 0.027335515 0.6207639 0.6034191 -0.2133799 -0.1436017
0.14995992 0.9359833 0.36352038 1.5078297 0.5615421 -0.996838 0.2830495 -1.1317952
-0.6981416 0.9692383 0.38363704 0.66494 -0.9169474 0.2226066 0.26718336 0.6913423
2.1219115 0.4660072 0.11890486 0.8086885 0.016305057 0.6852548 -1.1207951 -1.5757077
0.9137007 1.06917 0.09165074 -0.13787344 -0.7642696 -1.103561 -0.16949971 -0.91974795
-0.36225083 0.38655892 0.2662613 0.7777247 -0.2292327 -1.3836797 -0.59327036 -0.5922424
-0.2380335 -0.7072676 0.38526857 -0.71345544 0.22013731 -2.2340884 0.13351247 0.19371298
-0.3423041 -0.28086048 -0.04991309 0.56999743 -0.09979865 0.92949986 -0.23086548 -1.431318
0.11133552 -1.8664933 -1.0893104 -0.27673033 -0.1374182 1.0500093 -1.8140101 0.14211068
0.8010723 0.21031201 -0.56151813 -0.1321928 -1.6406641 0.5876022 -1.6758065 -1.3096906
0.51607794 -1.7749441 1.1998613 -0.32446936 0.6524783 0.7809277 0.5853946 -1.1098508
0.11457958 -1.2679453 -0.21785904 -1.158648 0.2438244 0.75335044 -1.8701952 1.3789843
1.0661428 1.5592518 1.1310757 0.9737317 0.9465396 0.07493696 1.8200936 -0.8299826
-0.19445634 1.4331181 0.92411405 0.77450687 1.6302711 -0.98552406 -1.4033674 2.062172
0.4264696 0.4555922 -1.9925051 -0.96536946 -0.676253 -1.5998701 -0.1251565 -1.1798687
-0.78494185 0.08059422 2.1066196 -2.2776845 0.5061223 -0.5788704 1.0470854 0.7310581
-0.31353575 -0.6751535 -0.45999646 -0.00058212917 0.3387239 -1.2939007 -1.0698744 -0.19163544
-0.78629446 -0.13145182 0.92495495 2.5443308 0.2488695 -0.91608804 -0.24422848 -0.5932224
0.28752756 -1.3678731 -1.1866221 -0.45363486 0.03211634 1.0558996 -0.9788568 0.1742018
-1.115171 -0.36430994 0.21711653 1.26746 -0.4916014 0.53924435 0.45025793 -0.48138615
-0.13350165 0.60559404 -0.36869508 0.2315318 -0.042226106 -1.2840428 -0.3087918 -0.19406824
1.5697566 0.5725579 -0.035753377 1.4417971 -0.38049716 0.46437111 0.37520382 0.46851832
-0.041732714 0.09283692 0.75585955 -1.0839622 0.30243167 1.4148906 -0.15681025 0.13217239
-1.2909133 1.6729927 -1.0486277 -1.1791396 0.7648378 1.4686722 0.7489566 -0.3676832
-0.018110305 0.1978532 -1.2295188 1.309482 -0.89225584 0.9364563 -1.5368773 -0.22309476
-0.63291055 1.0283577 0.37052083 -0.27390712 0.7108784 0.11536835 -0.8711074 0.11078041
0.5014463 -1.345368 1.400957 -0.36826667 -0.9216016 -0.773026 -0.46512547 -0.62069666

embed_cp.weight f4 [620, 10]
00000000: 0000 0000 0000 0000 0000 0000 0000 0000
00000010: 0000 0000 0000 0000 0000 0000 0000 0000
00000020: 0000 0000 0000 0000 42ac 51bd 03b1 2cbf
00000030: 6e24 893f 6db2 1e40 d25c 02bf 74f5 7cbd
00000040: 572a 333e 4558 793f 8906 babf 4bdd 053f
00000050: 7ea0 e1bf b560 18bf 72b9 0ebf dacb ab3c
00000060: 974b 0ebe 7ffb c13c b0bd 31bf e1bd 183f
00000070: e89f 11be 9e63 073f 8bee 8cbf 2643 f6be
00000080: 5cee 003f 3878 6c3f 1672 c4bf b98a 95bf
00000090: 0ccc 883f 74db 6e3e 8648 70bf 6e0f f7bd
000000a0: fc54 343f 361b 79be b018 85bf 8e64 dabd
000000b0: 0602 f5be 85c7 2f3e fb87 fd3e f029 a8be
000000c0: 8f86 2e3e bd63 db3f b388 ae3e 0e3c d3bf
000000d0: ba16 a6bf 4b37 9dbf 15ca fe3d b9c6 703f
000000e0: 3db7 1abf 4fcd 8a3f c948 c73e 5b1a 84bf
000000f0: e0ab a03f 379a cebf 7d54 43bf 08d3 a3bd
00000100: 3a91 a3bf ea3f a03f 962d e63e 96ba 1dc0
00000110: ae76 b5bf e54e f5be 3558 15bf 1154 2a3f
00000120: 4689 d4bf 6719 293f 93e3 3b3f e093 123f
00000130: 108d 4f3f 7fe5 a7bf 4959 e43f d482 4ebf
00000140: f5ae 293f d04f a03f b214 5ebf 4592 acbe
00000150: c471 553d 57ca bf3f 5ab4 803f e805 883f
00000160: b425 4b3f 7c31 0e40 072a 8d3e 31d6 343f
00000170: ddda 533e 5734 d13e b9c3 ea3d 7281 653e
00000180: e31d 1cc0 37db a7bf 5b23 ad3f 5af1 893f
00000190: 9172 85bf 5fc7 92be dcf8 cf3f 9a05 c63f
000001a0: 9e27 03bf 7c06 c93f e477 debe a8c2 eebf
000001b0: 377f 1d3f a3a7 2f3f fe35 eb3d 4708 013f
000001c0: 1c11 3bbf 6336 c2bf d873 e0bc 86af 7ebe
000001d0: 9a34 793f 087c c9bf 76b0 303f 4103 a5bf
000001e0: 2fc8 963d 83f2 87bc 8547 9b3d d96a 1ebf
000001f0: 7bbc a53f c519 a93f e4de fabe 0c5b 44bf
00000200: 850a f2bf 7b5c 42bf c261 b23f ec1f 4bbf
00000210: 97a5 0dbf d363 3fbf 171b 15bf b0ee 82be
00000220: 7df2 143f 1876 f23f 0b51 4e3e 2d6c c43f
00000230: 11d7 97bf ed03 bd3e b079 b83e a557 a73e
00000240: 736a 303f 94ba 0a3e e4b2 61bd 5ae7 fb3e
00000250: a554 363f 2c18 e23d 92c8 c6be 0177 233f
00000260: a88a 0b3e ddd3 543e c33a 8b3f 985e 8e3e
00000270: ff0f 5ebf 6f0a 763e 0316 a23f c8ae f0bf
00000280: 86eb 693f e728 9f3f acf7 243f e744 80bf
00000290: b57e 20bf 94a3 be3f 6cca 743f 4f39 ac3f
000002a0: 1b0b d5be 3ac9 aa3e da1e 22be 6c04 f7be
000002b0: d562 23bf 8350 ed3e b812 e33e 2369 9e3e
000002c0: 07ab 0f3e bd4c 84bf 85b2 2bbe fbc5 0ec0
000002d0: 31c8 1340 afc4 aebf 6c5e 0d3f 5820 b83f
000002e0: 48fd 18bf a019 95be 7bb4 e2bd 6b9b babf
000002f0: cb62 aabf b580 83be 1a25 58bf 2f54 3abd
00000300: 7373 533f c615 aabf c4c9 d4bf e73c 70bf
00000310: 8624 fc3e 6e7e 463e cda6 86bf faea 873e
00000320: e07f a93f 2420 8cbf d174 0abd 4ece 8e3f
00000330: c68c 75be 7c86 c43f c807 23bf 69fe 943f
00000340: 55e1 9f3e 0100 b9bf c5a8 c5bf d7b5 4fbe
00000350: 194d 07bf 10a0 debf ae25 923d 1199 173f
00000360: e4c9 5a3f 9957 62be 9a81 4cbe 22cc ae3f
00000370: 298e f73e d51e a4bf 2def f8be 957f 1dbe
00000380: f367 173f 867c b33e 60c6 d3be e59d 7c3f
00000390: 8b9e d83c 7857 0cbf 5c36 1240 e6ee cd3f
000003a0: 5588 e9bd d5d6 c6bf 5c27 21bf 35ce 873e
000003b0: d93a 1fbf 9bbf 903e 7188 0a3f d2ad f43e
000003c0: 4e84 94bf 8a11 81be 7c88 953f ad2b 1fbf
000003d0: d8d6 ce3f 7a95 bbbf 86ff 013e e786 cbba
000003e0: a1f8 40bf b723 be3f adc0 813f 85e1 c5be
000003f0: 0a30 b23f 2d86 81be bcd9 ad3f 68a9 32bf
0.0 0.0 0.0 0.0 0.0 0.0 0.0 0.0
0.0 0.0 -0.05118967 -0.674576 1.0714242 2.4796402 -0.5092288 -0.06175752
0.1749662 0.97400314 -1.4533244 0.5229079 -1.7627103 -0.59522563 -0.5575172 0.020971227
-0.13896023 0.023679493 -0.69430065 0.5966473 -0.14221156 0.5288638 -1.1010298 -0.48098105
0.5036371 0.9237094 -1.5347316 -1.168296 1.068727 0.23325902 -0.9386066 -0.1206349
0.70442176 -0.24326786 -1.0398159 -0.106637105 -0.47853106 0.17165954 0.49517807 -0.32844496
0.17043518 1.7139813 0.34088668 -1.6502702 -1.2975686 -1.2282499 0.12440888 0.94053227
-0.6043585 1.0843905 0.38922718 -1.0320543 1.2552452 -1.6140813 -0.76300794 -0.079992354
-1.2778695 1.2519505 0.44956654 -2.4645133 -1.4176843 -0.47911754 -0.5833772 0.66534525
-1.6604393 0.66054386 0.73394126 0.5725689 0.8107462 -1.3116912 1.7839748 -0.8066838
0.6628259 1.2524357 -0.8675033 -0.33705345 0.05211045 1.4983624 1.0055039 1.0626802
0.79354405 2.2217703 0.27571127 0.7063933 0.20688958 0.40860245 0.114631124 0.2241266
-2.4393241 -1.3113774 1.3526415 1.077678 -1.0425588 -0.28667733 1.6247821 1.547046
-0.51232326 1.5705104 -0.43450844 -1.8653154 0.6152224 0.6861517 0.114849076 0.50403255
-0.7307298 -1.5172848 -0.027398989 -0.24871644 0.9734589 -1.5740976 0.6901926 -1.2891618
0.07362401 -0.01659513 0.07582001 -0.61881787 1.2948145 1.3210989 -0.48998177 -0.76701427
-1.890946 -0.75922364 1.3936083 -0.79345584 -0.55330795 -0.74761695 -0.5824446 -0.2557273
0.5818251 1.8942289 0.20148103 1.5345513 -1.1862508 0.36917058 0.3603034 0.32684055
0.6891243 0.13547736 -0.055102244 0.49199945 0.7122291 0.11039767 -0.38824898 0.6385346
0.13627112 0.20783944 1.0877308 0.27806544 -0.8674316 0.24027418 1.2662967 -1.8803339
0.91375005 1.2434357 0.6444042 -1.0021027 -0.6269334 1.489367 0.9562137 1.3454989
-0.41610035 0.3335665 -0.15832081 -0.4824556 -0.6382268 0.46350488 0.4435022 0.30939588
0.14030086 -1.0335919 -0.16767319 -2.2308338 2.3090937 -1.3653773 0.552222 1.438487
-0.59761477 -0.29121113 -0.1106958 -1.457868 -1.3311399 -0.25684133 -0.8443161 -0.04549044
0.82598037 -1.3287895 -1.6624074 -0.9384293 0.49246615 0.19384167 -1.0519654 0.2654646
1.3242149 -1.0947309 -0.03380281 1.1156709 -0.23979482 1.5353541 -0.6368375 1.164014
0.31226602 -1.4453126 -1.5442129 -0.2028421 -0.52852017 -1.7392597 0.07136093 0.59217936
0.8546431 -0.22103728 -0.19971314 1.3656046 0.48350647 -1.2821909 -0.48619977 -0.153807
0.5914299 0.3505594 -0.41362286 0.9867843 0.026442787 -0.54820967 2.2845678 1.6088531
-0.114029564 -1.5534312 -0.6295068 0.2652451 -0.6219917 0.28271183 0.54114443 0.47788864
-1.1602876 -0.25208694 1.1682277 -0.6217602 1.6159315 -1.4654992 0.1269513 -0.0015527875
-0.7537938 1.4854649 1.0136925 -0.3864862 1.392091 -0.2529768 1.3582072 -0.69789743

attention_dp.context f4 [13]
00000000: 3f52 34bf 6767 483f d24a a0bf 9123 903f
00000010: ce3b 893f 9887 dabf 8118 953f bafd 4ebf
00000020: 93ec db3e f990 b23f 550c aa3f 0b1f 8abf
00000030: b436 c2be
-0.70438 0.7828278 -1.2522833 1.1260854 1.0721376 -1.707263 1.1648103 -0.80855906
0.4295393 1.3950492 1.3285013 -1.0790724 -0.3793236

attention_dp.linear_hidden.weight f4 [13, 13]
00000000: 0933 aebe 895d 36bd 44a6 18be e0a6 1f3c
00000010: 0b7b 9abe f1bd 9c3d 74fb 4ebe 2210 113e
00000020: c53f d93d e5e5 ec3d 9cb6 8f3d 4653 793d
00000030: ba6a a53d 9aba 9cbd 911a 123c 98b8 b33e
00000040: 9f33 e13d 8b8f 253e 9e76 d83e f671 263d
00000050: aaf7 5ebd b571 27be 3086 c9bb 940a 7abe
00000060: b088 133d 4c57 0c3e 0357 b0bd 6a15 423c
00000070: aed2 073e e970 0abe b7cf 563e 3941 c0be
00000080: b753 463d bd8a 643e 4159 ebbd b79a 05be
00000090: 4681 863e 2e57 80be 2929 833e 598f df3e
000000a0: 8f0d 8e3e 8ffa 62bd 7dcd 533e 58a7 423d
000000b0: 4c22 1fbe 5a85 e2bd 8da1 43be 4637 dc3d
000000c0: c69c 8dbe 8938 41be 04d9 ba3e d51e f9bc
000000d0: 45b4 b2bd a93c eb3e 09dc bbbd a819 69bc
000000e0: 9ac4 db3d e74c 70be e2fb e5bd 0b2e 0abe
000000f0: 1299 45bc 59d6 403d 01b2 143e 7ae6 94bd
00000100: fa5b e83d 86a0 8d3c 4a36 a0be 642c 983e
00000110: b9eb 83bc 8bec 00be b520 603e 760e a2bc
00000120: da0b ab3e ed7d 9b3d f59a bb3e dcce 93bd
00000130: 9eb4 bcbe 44bf aabd e825 1cbe 5eb9 793d
00000140: fdef 05bd 9abd 1fbe be95 7b3e df29 c7bd
00000150: b4e7 7c3e 4df5 07bd a5f3 8dbe 1605 abbd
00000160: 19ac 1bbe deb4 a8be 74f8 13be 217b e73d
00000170: d047 23bc eb73 cdbd 1874 023e 72ac 8d3e
00000180: 7e94 b0be d3ae a43d f51f d3bb 3590 7a3e
00000190: 8161 0f3d e476 3abc cfd8 c93d 7b72 d23d
000001a0: 781c 6ebe 5ae6 e83d 3544 b0bd ed48 55be
000001b0: 9c2c 60be 178c debd f1a5 44be 8e99 15bd
000001c0: faa4 babd e044 e1bd 3775 3fbe d1d0 b63e
000001d0: 8bed 89bc efac ac3e a58a a13c d7a6 dc3d
000001e0: 4cd1 b13d e090 6fbe ad12 943d 40cf ce3d
000001f0: 2f5c 41bd b5f5 bcbc 6102 11be 6818 303e
00000200: 27de a53e ad0e 173e cddd 363e 8306 f43c
00000210: 0c43 b83e 69a1 abbe 5368 8c3d 6224 50bd
00000220: b8a5 9b3d eb9a 81be 04e3 f13d dcb1 8bbd
00000230: e440 593e 7a01 d5bb 86f9 603e ab6c d23d
00000240: fea8 5bbe a4d2 8e3e c5ba 983d 276f 18be
00000250: 2ba9 1bbd b306 2b3d 765f 14be be06 8f3e
00000260: a4d9 5ebd d184 fcbc 4079 bf3d 7fdb 583d
00000270: 0c27 663e c99d dabd 94eb 173d c96f 03be
00000280: 2a02 b13e c66d 18be b14d 3cbe 0e0e f83d
00000290: d41c 38bc fa9e 19be 7915 a53e 9dc8 523e
000002a0: bc1a 0fbe
-0.34023312 -0.044522796 -0.14907175 0.009744376 -0.30172 0.07653416 -0.20213109 0.1416631
0.10607866 0.115672864 0.07017252 0.06087043 0.08076997 -0.07652779 0.008917467 0.3510177
0.10996174 0.16168039 0.42277998 0.040636025 -0.05443541 -0.1635197 -0.0061500296 -0.24418098
0.036019027 0.13705176 -0.08610346 0.011845926 0.13263962 -0.13519634 0.20977674 -0.3754976
0.04841968 0.2231855 -0.11491633 -0.130473 0.26270503 -0.25066513 0.2561734 0.43664053
0.2774472 -0.055414733 0.20683856 0.047522873 -0.15540427 -0.11060591 -0.19104595 0.1075273
-0.2765867 -0.18869223 0.36493695 -0.03041021 -0.0872579 0.45944718 -0.09172828 -0.014227308
0.10730858 -0.23466836 -0.112296835 -0.13494126 -0.012060421 0.047079418 0.14521028 -0.072705224
0.11345668 0.017288458 -0.3129142 0.29721367 -0.016103612 -0.12590234 0.21887477 -0.019782286
0.3340748 0.07592378 0.3664166 -0.0721719 -0.3685655 -0.08337262 -0.15248835 0.060967796
-0.032699574 -0.15599671 0.24568841 -0.09724783 0.24697763 -0.03319292 -0.2772495 -0.083505794
-0.15202369 -0.3295049 -0.14450246 0.11302782 -0.009965852 -0.10031875 0.12739599 0.27670628
-0.3448829 0.080411576 -0.0064430186 0.24469073 0.035005096 -0.011380885 0.09855806 0.10275742
-0.23253047 0.11372061 -0.086067595 -0.208286 -0.21892017 -0.10866564 -0.19203927 -0.036523394
-0.09113498 -0.10999465 -0.18697058 0.3570619 -0.016836902 0.33725688 0.019719431 0.1077401
0.08682498 -0.23395109 0.072301246 0.100981236 -0.047207054 -0.023066381 -0.14161064 0.1719681
0.3239605 0.14751692 0.17858048 0.029788261 0.35988653 -0.33521584 0.06855836 -0.050815947
0.07599968 -0.25313506 0.11810878 -0.06821033 0.2121616 -0.00650042 0.21970186 0.10274633
-0.21451184 0.2789508 0.074574985 -0.14886151 -0.038003128 0.041754436 -0.1448954 0.2793483
-0.054406777 -0.03082505 0.093492985 0.052943703 0.22475833 -0.106746264 0.0370899 -0.12835611
0.34571964 -0.14885625 -0.18389012 0.12112056 -0.011237342 -0.15002051 0.32242945 0.2058434
-0.13975042

attention_dp.linear_hidden.bias f4 [13]
00000000: 2c97 843e 2d9d ecbe bb81 043e 6410 08bd
00000010: 0843 82bb 9ae0 c1bd 88e2 ebbc 7d47 e33d
00000020: 0917 453d 5ed8 513e 410f 1b3e 6011 88be
00000030: cccd 973e
0.25896585 -0.46213666 0.12940113 -0.033218756 -0.003975276 -0.094666675 -0.028794542 0.1109762
0.04811767 0.20492694 0.15142538 -0.26575756 0.29649198

attention_cp.context f4 [11]
00000000: 76af bc3f 592e e5bf c818 7c3d 21b2 9abf
00000010: f346 7e3f 187c 243f b9da 463f 0014 dcbd
00000020: cb3d c0bf feeb 323f 55ff 6cbb
1.4741046 -1.7904769 0.06154707 -1.2085611 0.9932701 0.6425185 0.77677494 -0.10746002
-1.5018858 0.69891346 -0.0036162932

attention_cp.linear_hidden.weight f4 [11, 11]
00000000: ec24 2f3e 66b8 e3bd 2b13 82bd 21e7 003e
00000010: 62cd 833e 4896 b2be 67c7 283d 835a f5bd
00000020: 8d36 363e 5223 aebe a590 3fbc f973 88be
00000030: 1750 c2bd 042c 87bd ad43 933e a434 2cbe
00000040: 745f 6d3e 1188 6fbe c6f9 973d 506e 25be
00000050: 7839 b93d bacb 45be 4b29 ab3d aa36 5dbe
00000060: 6d20 2b3d f528 9f3e e3d5 8a3d c1d8 50be
00000070: 0568 81bb 86cd 5abd 3ef4 153e 824a 633e
00000080: 1c27 043c 8c23 e7bc 12c4 81bd fef9 55bd
00000090: c6d6 d3bd 3aaf 47be cc0d e1bb 1c3e 31be
000000a0: f685 803d fe2c 9abd 4d53 793e d85e b3bd
000000b0: b8b8 8a3d bca8 523e afa4 eb3e db28 a9be
000000c0: f9f2 e03d d3f7 eb3d 3b47 0fbd 8982 943d
000000d0: 162b 87be b4bf 813e 34b9 033e b910 6abd
000000e0: df43 953e 27a5 38bd 6ed3 e43b 6200 9fbe
000000f0: de6e a3be 442e dfbd 376d 29be fdff b03e
00000100: 2823 eabd 0465 153f 3def 8fbe 003d 5cbe
00000110: 276e 643e 0ce1 93be 1f46 35bb 5ebe 3fba
00000120: f46f 07be 471d 0cbe 6f23 2e3d 562e 88bd
00000130: 0bed 613d 3871 89bd b860 bfbd e5d5 92be
00000140: 3f00 843e 2c4e febd 0716 f4bd 0c9b 613e
00000150: 4d41 4b3d 1eef 273e 1be9 eabd bcb8 6bbe
00000160: 3da6 19be eda2 8d3b c597 96be 895f e23e
00000170: adeb 09be 023c a73d f46b 87be 87a6 4ebe
00000180: dac3 2b3e f93a 33be b8f9 aabe 66a0 13be
00000190: 3bfb 3fbe 2335 7abc 0c56 63be 12d3 ddbd
000001a0: bf8a d3bd 40da 133d 80d9 9a3e 030d c3bd
000001b0: ebd7 30be b6f3 e63e 5cac 803e dae1 8ebe
000001c0: df8f 643e 59a8 b53d 634d 8c3e d637 853e
000001d0: 9638 4a3e d027 8ebc 74ce 9c3d b8ef b63d
000001e0: d45a c03e
0.17103928 -0.111191556 -0.06351312 0.12588169 0.25742632 -0.3488028 0.04120579 -0.11980154
0.17794247 -0.34011322 -0.011692201 -0.2665098 -0.09487932 -0.06600192 0.2876257 -0.16816956
0.23180944 -0.23391749 0.074206874 -0.16155362 0.090441644 -0.19315997 0.083574854 -0.21602884
0.04177897 0.31085935 0.06779077 -0.20395185 -0.0039491677 -0.05341866 0.14643952 0.22196391
0.008065965 -0.028215192 -0.063362256 -0.052240364 -0.10343699 -0.19500437 -0.0068681 -0.17308849
0.06275551 -0.07528113 0.24348183 -0.087583244 0.067735136 0.2057218 0.4602408 -0.33038983
0.10983843 0.11521878 -0.03498004 0.0725146 -0.2640006 0.2534157 0.12863618 -0.057144854
0.29153344 -0.045079377 0.006983212 -0.3105498 -0.31920522 -0.10897496 -0.16545568 0.34570304
-0.11432487 0.5835726 -0.28112212 -0.21507645 0.22307645 -0.28882635 -0.0027660204 -0.00073144387
-0.132263 -0.13683043 0.04251426 -0.06649463 0.055157702 -0.06711048 -0.093446195 -0.28678814
0.25781438 -0.12417254 -0.11918264 0.22031802 0.049622823 0.1639981 -0.114702426 -0.2301969
-0.15004821 0.004322401 -0.29412666 0.44213513 -0.1346881 0.081657425 -0.2644955 -0.20180713
0.1677393 -0.17502965 -0.33393645 -0.14416656 -0.1874818 -0.015271458 -0.22200793 -0.10831274
-0.10329198 0.03609681 0.30244064 -0.09523966 -0.17269866 0.45107812 0.251315 -0.27906686
0.22320507 0.088700004 0.2740279 0.26019162 0.19748148 -0.017352968 0.07656565 0.089324415
0.37569296

attention_cp.linear_hidden.bias f4 [11]
00000000: 5c1e b2bd ffce 26be 90d3 27be c0dc a0bd
00000010: be20 73be 4191 263e 00df 51be 6ae4 93be
00000020: 21e6 4fbc 6390 00bd dfb6 f83d
-0.08697197 -0.162899 -0.16389298 -0.07854605 -0.23742959 0.16266347 -0.20495224 -0.28885204
-0.012689144 -0.031387698 0.12144255

fc_dp.weight f4 [1, 13]
00000000: 7731 2ebd bb1b 083e 504e 803e bd72 bbbd
00000010: 2d01 d2bd 2edb 943e 6b5c 993e a957 21be
00000020: 7f3a 2dbe 2770 c03d 6c7d 8bbe 27ce 4cbd
00000030: 4e69 ce3e
-0.042527642 0.13291828 0.25059748 -0.09152744 -0.102541305 0.2907347 0.29953322 -0.15756096
-0.16916846 0.09396391 -0.27244127 -0.05000129 0.40314716

fc_cp.weight f4 [1, 11]
00000000: 3648 2d3e df66 903e 6f26 6fbe 2593 4dbd
00000010: 52c5 39be 438e 443d f298 243e 2890 5abe
00000020: b03a ffbd 73b9 9cbe 8801 14bf
0.16922078 0.28203484 -0.23354505 -0.050189156 -0.18141678 0.047987234 0.16073969 -0.21344054
-0.124623656 -0.30610237 -0.57814837

fc_all.weight f4 [1, 25]
00000000: d4b4 723c c017 a73c 74eb 043e 86b0 3ab9
00000010: 6864 933c 680f 16be 94b2 c3bc 143b f13d
00000020: f3f0 aebd 4bbe 8d3d f8e9 c93d a471 3ebe
00000030: 1e15 2e3c 6367 debd 5bde 07bf 71cb fbbd
00000040: 6c7c a03c 92d0 d53c e7e2 e2bb 05bb 143d
00000050: 6f69 a8bd 9358 eabd 16e7 a8bd 6404 083e
00000060: a42a c6bd
0.014813621 0.020397067 0.12980443 -0.00017804102 0.017992213 -0.14654315 -0.023888864 0.117788464
-0.08542051 0.06921061 0.09859079 -0.18598038 0.010625152 -0.10859563 -0.5307366 -0.12294663
0.019590579 0.02610043 -0.0069240215 0.03631117 -0.08223235 -0.114426754 -0.08247201 0.13282925
-0.09676102
